models/RaceModels/classif_pos_3copies1to10_2HL_dropout0.2lr0.0001/model.pt (torch, 579485 bytes, 24 tensors)

fc1.weight f4 [128, 240]
-0.07777444 0.020934999 0.17254607 0.030499855 -0.0044530137 0.10853733 0.11005886 -0.015774032
0.07364962 -0.109271415 -0.2591841 -0.13827077 -0.06265221 -0.19564767 -0.16583294 0.10963217
-0.08116007 -0.009109201 0.039038148 -0.0043053287 -0.0893543 0.0040390873 -0.05800636 0.022872878
0.021138929 0.051721647 0.13000402 -0.0025052044 -0.018017542 0.21963769 0.057118885 -0.083218955
0.062044445 0.044430006 -0.16107 -0.09183591 -0.04854326 -0.055402644 -0.0523296 0.07333869
-0.012639222 0.06711699 -0.022038154 0.031272367 -0.047847554 0.056885127 0.036050234 -0.025246564
0.014685032 0.04903493 0.11753365 0.02283649 0.053770468 0.08765748 -0.005548279 -0.022875324
0.021567162 0.037697196 -0.19100377 -0.037227977 -0.053508557 -0.0010058759 0.007044978 0.08990632
-0.11345244 0.04611678 0.054503698 0.047451247 0.00060344767 0.03513899 -0.03738253 0.08582672
-0.09480069 0.079556756 0.054695785 0.014391073 0.045581613 0.19835767 0.005277643 -0.0963585
-0.058865856 -0.05163552 -0.25275868 -0.135739 -0.038362555 -0.047327396 -0.04994748 0.056166794
0.04446164 0.0014578496 0.05399349 0.069632046 -0.07278169 -0.03438291 0.041684892 -0.001501098
0.018190455 0.03044457 0.040857553 0.03641369 0.06968642 0.12337404 -0.039142717 0.03283591
-0.043990377 0.022996962 -0.21477091 -0.07979733 -0.0045832284 -0.0005789569 -0.10798325 0.14676915
-0.03248222 0.01894905 0.040794697 -0.019614331 0.018926904 -0.05466504 0.03505622 0.049640525
-0.00039461843 0.009351655 0.076099925 0.006421435 -0.0033343383 0.09290884 -0.011622876 0.034457028
-0.08777697 -0.060648803 -0.25590163 -0.0056325337 -0.0757456 0.06606342 -0.06450626 0.07383342
-0.00733068 0.040858276 -0.06455209 0.066805735 -0.048488755 -0.101125196 -0.024843812 -0.08131666
0.004670429 0.13136399 0.076555274 0.075015254 0.0046197134 0.015803376 -0.042200625 0.009011398
-0.040239193 0.042572673 -0.23174895 0.02271682 -0.07861875 0.06201522 0.0021675285 0.057776697
-0.027152602 0.06895219 -0.005149485 0.07241462 -0.099341385 -0.07477147 0.03533216 -0.023090817
0.01049966 0.07729851 0.07712669 0.09351553 0.052684765 0.1202486 -0.032146964 -0.06788678
-0.07324102 0.0035240848 -0.2561797 -0.11452116 -0.036680017 0.054498687 0.054852363 -0.016242191
-0.07140541 0.03668196 0.072685875 -0.0216372 -0.032125343 -0.100323215 0.010428262 -0.12803914
0.04104595 0.016161263 0.11477253 -0.024803156 -0.018152142 0.12628607 0.080955446 -0.026863925
-0.06112751 -0.046916727 -0.1074072 -0.07567108 0.09576496 -0.12762181 0.045314595 0.039855827
-0.037223794 0.073344395 0.051004 0.085396975 0.08794998 -0.016769964 -0.11941561 -0.12487197
-0.018543074 0.045369092 0.16976686 -0.15401226 -0.0067902706 0.0052401056 0.031074 -0.034042142
0.10350986 -0.0012194455 -0.18482658 0.0017524054 0.02285263 -0.14535804 0.025434598 0.017730365
-0.02237901 0.07916963 0.079908006 0.07397343 -0.011271386 -0.07525399 -0.03130379 -0.122081555
-0.02333095 0.03733498 0.05423592 0.04689437 -0.04538944 0.0511064 0.030540321 -0.051862977
-0.04929738 -0.06473379 0.036405876 0.02747088 0.0069661406 0.052445713 -0.014685278 0.053437777
00000000: 3548 9fbd e07f ab3c ebaf 303e d5da f93c
00000010: 96ea 91bb d248 de3d 8a66 e13d 8b38 81bc
00000020: 9dd5 963d b1c9 dfbd c7b3 84be da96 0dbe
00000030: cd4f 80bd dd57 48be 1cd0 29be d586 e03d
00000040: 4037 a6bd c23e 15bc 77e6 1f3d b713 8dbb
00000050: 63ff b6bd 525a 843b 1498 6dbd e75f bb3c
00000060: 8c2b ad3c 14da 533d c61f 053e 5b2e 24bb
00000070: 8699 93bc b4e8 603e 7ef5 693d b36e aabd
00000080: 5122 7e3d 3dfc 353d 89ef 24be 7714 bcbd
00000090: 4cd5 46bd e2ed 62bd 9057 56bd 9832 963d
000000a0: bd14 4fbc a274 893d 5c89 b4bc 7417 003d
000000b0: ccfb 43bd 6100 693d 69a9 133d e2d1 cebc
000000c0: 7d99 703c dad8 483d 7bb5 f03d 9713 bb3c
000000d0: 6c3e 5c3d c485 b33d 56ce b5bb 0865 bbbc
000000e0: 9ead b03c 6068 1a3d 7e96 43be 5d7c 18bd
000000f0: ca2b 5bbd 98d7 83ba 8fd9 e63b ce20 b83d
00000100: c159 e8bd f3e4 3c3d 453f 5f3d 3d5c 423d
00000110: b030 1e3a e7ed 0f3d 6c1e 19bd ebc5 af3d
00000120: dd26 c2bd a7ee a23d b008 603d 89c8 6b3c
00000130: c9b3 3a3d 461e 4b3e 14f0 ac3b 9b57 c5bd
00000140: 531d 71bd c47f 53bd 9669 81be 2aff 0abe
00000150: 0e22 1dbd 5fda 41bd bb95 4cbd 270f 663d
00000160: 691d 363d 5115 bf3a 4728 5d3d 3f9b 8e3d
00000170: 910e 95bd 18d5 0cbd c7bd 2a3d 7ec0 c4ba
00000180: 2604 953c e466 f93c 405a 273d 8526 153d
00000190: c1b7 8e3d 87ab fc3d 1d54 20bd f27e 063d
000001a0: 412f 34bd 2064 bc3c e8ec 5bbe c86c a3bd
000001b0: e82e 96bb 24c5 17ba 5226 ddbd a74a 163e
000001c0: 140c 05bd 0a3b 9b3c 5718 273d 3cae a0bc
000001d0: 980c 9b3c 73e8 5fbd 1c97 0f3d dd53 4b3d
000001e0: cae4 ceb9 af37 193c 47da 9b3d e76a d23b
000001f0: ea84 5abb fd46 be3d e06d 3ebc d022 0d3d
00000200: 69c4 b3bd e16a 78bd 8a05 83be 1e91 b8bb
00000210: 8220 9bbd 424c 873d dc1b 84bd fa35 973d
00000220: 3336 f0bb 025b 273d e333 84bd 72d1 883d
00000230: 259c 46bd ba1a cfbd 4085 cbbc 5989 a6bd
00000240: 660a 993b 4884 063e 03c9 9c3d 99a1 993d
00000250: f760 973b 1576 813c 90da 2cbd 8ba4 133c
00000260: dad1 24bd af60 2e3d 994f 6dbe a018 ba3c
00000270: de02 a1bd ac03 7e3d 180d 0e3b 42a7 6c3d
00000280: 226f debc ce36 8d3d 03bd a8bb 1e4e 943d
00000290: 7f73 cbbd c921 99bd 74b8 103d f428 bdbc
000002a0: c406 2c3c ae4e 9e3d 99f4 9d3d 1285 bf3d
000002b0: fbcb 573d e644 f63d 89ac 03bd 3908 8bbd
000002c0: 63ff 95bd 55f4 663b fc29 83be 128a eabd
000002d0: c93d 16bd 043a 5f3d dfac 603d 580e 85bc
000002e0: 003d 92bd d33f 163d 55dc 943d 7f40 b1bc
000002f0: dd95 03bd 4276 cdbd 4ddb 2a3c b11c 03be
00000300: cc1f 283d a064 843c dc0d eb3d fd2f cbbc
00000310: cdb3 94bc 2351 013e f8cb a53d bc11 dcbc
00000320: d760 7abd c12b 40bd 4ef8 dbbd 70f9 9abd
00000330: 6b20 c43d 4baf 02be cc9b 393d dd3f 233d
00000340: fa77 18bd 9635 963d 92e9 503d 9ce4 ae3d
00000350: 1e1f b43d 2a61 89bc 2c90 f4bd e0bc ffbd
00000360: a5e7 97bc f1d4 393d 5dd7 2d3e 64b5 1dbe
00000370: eb80 debb 31b5 ab3b e78e fe3c c66f 0bbd
00000380: fafc d33d cdd5 9fba 2e43 3dbe f8b0 e53a
00000390: 7035 bb3c bdd8 14be 385c d03c 453f 913c
000003a0: 3054 b7bc b023 a23d cfa6 a33d 627f 973d
000003b0: 9fab 38bc c41e 9abd 6738 00bd e505 fabd
000003c0: 8c20 bfbc 90ec 183d 7c26 5e3d 5014 403d
000003d0: 47ea 39bd f254 513d b22f fa3c 466e 54bd
000003e0: 0dec 49bd 2693 84bd 541e 153d 9c0a e13c
000003f0: 3944 e43b 51d1 563d 859a 70bc 92e1 5a3d

fc1.bias f4 [128]
-0.00031831037 -0.04745607 0.033755377 0.01781972 0.0072873295 -0.0029105067 -0.014923383 0.05567424
0.044704743 0.06421769 0.029778702 0.054730732 -0.002229615 -0.041423332 0.016152112 -0.055394735
-0.028167594 0.016156714 -0.019760445 -0.04995107 0.012967275 -0.033782553 -0.024717513 0.047743455
0.07433442 0.051059745 -0.008745752 -0.028461754 -0.03713704 -0.0076254993 0.04411619 0.026808836
0.004632494 0.07904779 0.0035209288 -0.060166646 0.002418096 -0.018261151 0.000739513 0.0021155255
0.03666752 0.016565021 -0.061497223 -0.038818188 0.069011874 -0.043817163 0.03938322 0.021291666
0.06945618 0.037152585 0.06319492 0.004701665 0.020492151 0.033334482 -0.015744897 0.0027089824
0.07904137 0.024176234 0.05808045 0.014661845 0.033116814 -0.045185104 -0.07744186 -0.013325468
-0.028757747 0.03269208 0.05136103 -0.018677104 0.00741852 -0.0048834863 0.027073193 0.021834608
-0.039733436 -0.037434276 0.019625342 -0.05932476 -0.03996472 0.02294673 -0.08150479 0.06737413
0.007354955 -0.021238556 -0.05858608 -0.048976023 -0.01232926 -0.037446197 -0.026228666 -0.0115451105
0.0627411 -0.058012087 -0.06694711 0.03696629 -0.05800973 -0.041510947 0.004908444 -0.012944706
0.06732216 -0.009146735 -0.059499733 0.011087467 -0.0036709455 0.031329006 -0.026956977 0.017293345
0.023817124 -0.04259264 0.017878015 0.05886682 -0.024058878 0.018272877 0.002167669 0.0107029015
0.021900844 0.056169197 -0.033773467 0.033610087 -0.05827704 0.048256706 0.025362803 -0.077182174
-0.0065420596 0.046880696 0.07121921 -0.0028786892 0.030416014 -0.017522976 0.031368975 0.011523613
00000000: e5e2 a6b9 4c61 42bd 1443 0a3d a9fa 913c
00000010: 8dca ee3b 33be 3ebb 3481 74bc ac0a 643d
00000020: 521c 373d 9084 833d 77f2 f33c 552d 603d
00000030: bc1e 12bb 83ab 29bd 6f51 843c 97e5 62bd
00000040: babf e6bc 165b 843c a8e0 a1bc 7e99 4cbd
00000050: b274 543c 935f 0abd 627c cabc a48e 433d
00000060: a53c 983d 0624 513d 584a 0fbc a028 e9bc
00000070: 021d 18bd 53df f9bb 2eb3 343d 349e db3c
00000080: 2dcc 973b cfe3 a13d 62bf 663b 4d71 76bd
00000090: eb78 1e3b 6998 95bc e1db 413a a1a4 0a3b
000000a0: ae30 163d 5eb3 873c 83e4 7bbd d2ff 1ebd
000000b0: 1956 8d3d a079 33bd 4d50 213d dc6b ae3c
000000c0: 0b3f 8e3d 4f2d 183d 576c 813d 6d10 9a3b
000000d0: 28df a73c bd89 083d 71fb 80bc 2f89 313b
000000e0: 71e0 a13d 3d0d c63c c4e5 6d3d 3c38 703c
000000f0: 7fa5 073d 0414 39bd d799 9ebd 1053 5abc
00000100: 5e95 ebbc 21e8 053d f25f 523d ba00 99bc
00000110: 0e17 f33b a705 a0bb 9ac8 dd3c 7ede b23c
00000120: 87bf 22bd af54 19bd 53c5 a03c 85fe 72bd
00000130: 0cb2 23bd c8fa bb3c fceb a6bd 73fb 893d
00000140: d601 f13b 7bfc adbc f5f7 6fbd 159b 48bd
00000150: aa00 4abc 2f61 19bd 80dd d6bc b427 3dbc
00000160: 687e 803d 159e 6dbd 911b 89bd f769 173d
00000170: 9c9b 6dbd 6207 2abd 03d7 a03b 0816 54bc
00000180: 33e0 893d 30dc 15bc feb5 73bd 35a8 353c
00000190: 3f94 70bb d852 003d e1d4 dcbc c6aa 8d3c
000001a0: 211c c33c 9f75 2ebd ea74 923c 561e 713d
000001b0: 2017 c5bc 00b1 953c 730f 0e3b 395b 2f3c
000001c0: 6669 b33c ac11 663d 0c56 0abd bbaa 093d
000001d0: e8b3 6ebd d3a8 453d a7c5 cf3c b011 9ebd
000001e0: c65e d6bb f905 403d 61db 913d 64a8 3cbb
000001f0: 012b f93c 588c 8fbc c17c 003d 89cd 3c3c

fc2.weight f4 [64, 128]
0.0327469 0.02214719 0.11434564 -0.050605625 0.2524654 0.04310692 -0.04176145 -0.08611713
-0.07827645 0.073240705 0.0074835652 -0.08381601 -0.25022328 -0.103923336 0.18068273 -0.029131178
-0.051696554 -0.0495775 -0.09593906 0.18900965 -0.045439515 0.14219485 -0.028795898 -0.060574893
0.03212173 0.17590632 -0.027823972 -0.043050896 -0.04007002 -0.029176496 0.006736845 0.056766246
-0.0664529 0.059248436 0.00049592665 0.011790812 0.20946962 -0.29931813 -0.016203772 0.0725516
-0.122822784 0.024971366 -0.00039752573 0.023632735 -0.09833047 0.066391625 0.17408928 0.06769668
0.0183001 -0.014107889 -0.048353344 -0.44484735 0.0041379123 -0.17519006 0.061583165 0.020533033
0.04417167 -0.057303555 0.06547352 -0.050196897 0.16232698 -0.08419972 -0.19129245 0.0793174
-0.07483506 0.2452343 0.14516011 0.06815036 0.1393567 -0.01628568 -0.11008778 -0.12657505
-0.009200986 0.040896006 -0.046591137 0.15221627 0.10966368 -0.028026316 0.012125915 -0.0039939554
0.10493083 0.00053510617 0.080235794 0.044261537 -0.27745637 0.21840642 0.23686415 0.23494996
0.1386202 0.1387981 0.085693 0.0046014837 0.009964138 0.01610518 0.15531307 -0.01395085
-0.01627756 0.035128914 0.18601333 0.1343478 0.029006658 -0.05612765 0.079350255 -0.041495282
-0.038731717 0.09741475 0.029236417 -0.012160949 0.075876154 -0.08148386 0.043383766 -0.12107928
0.054965846 0.057496868 -0.028326709 0.16237299 0.046810023 0.07442871 0.084122986 0.07926613
-0.027468774 -0.06469733 -0.21585596 -0.11567202 0.06843897 -0.06917724 0.19866502 -0.07133143
-0.084506966 0.044000093 -0.088890456 0.27089208 -0.07672389 -0.29220682 -0.053839825 0.10365489
0.41716164 -0.13403459 -0.028099313 0.21689723 0.22666475 -0.12139153 -0.17996609 -0.0073538143
0.008810269 0.050558083 -0.14743924 0.17528164 0.047400907 0.061068468 -0.042144585 -0.061073735
-0.23287079 0.004514727 -0.045046844 0.14737788 0.008390047 0.018325904 0.043712996 0.023153616
0.060723707 0.05021824 -0.24766345 -0.03091387 0.06183219 0.036986686 0.013813804 -0.0125379525
0.13165541 0.16739456 0.018332548 -0.072960734 0.0081509985 0.043610048 0.12146309 -0.085267596
0.13664614 -0.028935364 0.059467215 0.39139333 0.091260694 -0.036711972 0.1721975 -0.066327594
0.010834138 0.15851086 0.08258048 -0.10488615 0.29435277 -0.115182094 0.13838467 0.03291304
0.17776206 -0.086773925 -0.22110845 -0.04433406 -0.109265566 -0.107248336 -0.16169173 0.16457865
0.09928424 0.13447443 -0.011434455 -0.10511467 -0.052889403 0.01496914 0.022420714 0.09753168
0.18256703 0.107508905 -0.010192911 0.03901826 0.008602289 0.05095825 -0.05434302 -0.2514873
-0.23796721 0.13666777 -0.24029785 0.114198536 0.03861361 0.05600261 0.04204048 -0.18246078
0.1177846 -0.066528216 -0.10287341 0.048643637 0.00037085157 0.06071254 -0.051911015 0.14246757
-0.006188522 -0.2507409 0.15654448 0.06320474 -0.0046841004 -0.010763966 0.08102848 0.10137835
-0.1489569 0.0022394285 -0.067457765 -0.034554392 -0.039462727 0.08761696 0.14130637 -0.20322469
-0.012897251 0.15099007 -0.007258927 0.013380472 0.013255764 0.08880117 0.065065086 -0.045883935
00000000: 9d21 063d 066e b53c 0c2e ea3d d847 4fbd
00000010: 2543 813e e290 303d 0e0e 2bbd 2e5e b0bd
00000020: 674f a0bd 39ff 953d b238 f53b baa7 abbd
00000030: 441d 80be c2d5 d4bd e504 393e 82a4 eebc
00000040: c4bf 53bd c711 4bbd b37b c4bd bf8b 413e
00000050: c91e 3abd 879b 113e 60e5 ebbc 611d 78bd
00000060: 1392 033d c920 343e 19ef e3bc 2356 30bd
00000070: 7620 24bd 8c03 efbc c0c0 dc3b b983 683d
00000080: 7518 88bd 7dae 723d 1301 023a 402e 413c
00000090: 347f 563e 3a40 99be c6bd 84bc ef95 943d
000000a0: 838a fbbd c090 cc3c 006b d0b9 7099 c13c
000000b0: 7c61 c9bd 55f8 873d 7644 323e 8fa4 8a3d
000000c0: 17ea 953c c624 67bc 280e 46bd 08c3 e3be
000000d0: 5397 873b 0665 33be a13e 7c3d e434 a83c
000000e0: 5aed 343d 22b7 6abd fb16 863d 439b 4dbd
000000f0: 0b39 263e e770 acbd 2be2 43be 2971 a23d
00000100: 2043 99bd b31e 7b3e daa4 143e 6a92 8b3d
00000110: 86b3 0e3e 8c69 85bc b475 e1bd e49c 01be
00000120: bbbf 16bc 9282 273d 59d6 3ebd 95de 1b3e
00000130: 5a97 e03d 7297 e5bc c6ab 463c badf 82bb
00000140: fae5 d63d 5e46 0c3a aa52 a43d 964b 353d
00000150: c30e 8ebe efa5 5f3e 848c 723e b996 703e
00000160: 74f2 0d3e 1721 0e3e d07f af3d 0bc8 963b
00000170: a040 233c 03ef 833c 640a 1f3e 1b92 64bc
00000180: 8458 85bc 56e3 0f3d 477a 3e3e 7892 093e
00000190: 5f9f ed3c 1be6 65bd 6382 a23d f5f6 29bd
000001a0: 26a5 1ebd 6281 c73d 3681 ef3c b83e 47bc
000001b0: f564 9b3d 03e1 a6bd 2db3 313d 6af8 f7bd
000001c0: de23 613d d681 6b3d 6a0d e8bc 1b45 263e
000001d0: debb 3f3d 146e 983d ac48 ac3d 4856 a23d
000001e0: 3206 e1bc 0980 84bd 5809 5dbe 74e5 ecbd
000001f0: bb29 8c3d ccac 8dbd d86e 4b3e 3616 92bd
00000200: fd11 adbd 7139 343d 330c b6bd 5eb2 8a3e
00000210: 6a21 9dbd 229c 95be 2687 5cbd 0449 d43d
00000220: 3696 d53e 5d40 09be 8830 e6bc 4f1a 5e3e
00000230: ce1a 683e 1f9c f8bd 0849 38be 44f8 f0bb
00000240: f258 103c fe15 4f3d 50fa 16be 087d 333e
00000250: 7427 423d ee22 7a3d cd9f 2cbd 7428 7abd
00000260: ae75 6ebe 46f0 933b 0a83 38bd 3aea 163e
00000270: 6876 093c 3520 963c 660c 333d a7ac bd3c
00000280: 6cb9 783d a4b1 4d3d 7d9b 7dbe 163f fdbc
00000290: c043 7d3d 5a7f 173d 4b53 623c fc6b 4dbc
000002a0: add0 063e 7b69 2b3e 242e 963c 706c 95bd
000002b0: c48b 053c 73a0 323d a4c1 f83d c7a0 aebd
000002c0: f7ec 0b3e db09 edbc e593 733d b564 c83e
000002d0: e3e6 ba3d 4b5f 16bd 8b54 303e c3d6 87bd
000002e0: ab81 313c ac50 223e f41f a93d 8dce d6bd
000002f0: 68b5 963e 97e4 ebbd b6b4 0d3e d3cf 063d
00000300: 4207 363e 87b6 b1bd 416a 62be a297 35bd
00000310: a0c6 dfbd 04a5 dbbd 8492 25be 4e87 283e
00000320: 8955 cb3d aab3 093e 9557 3bbc 5c46 d7bd
00000330: 8fa2 58bd 2041 753c a5ab b73c b0be c73d
00000340: daf2 3a3e a12d dc3d 2b00 27bc 9cd1 1f3d
00000350: 9df0 0c3c 99b9 503d c996 5ebd f2c2 80be
00000360: adad 73be a3f2 0b3e a410 76be ece0 e93d
00000370: 4e29 1e3d fe62 653d a332 2c3d 00d7 3abe
00000380: 0d39 f13d f23f 88bd 4baf d2bd 8d3e 473d
00000390: db6e c239 b6ad 783d a5a0 54bd 05e3 113e
000003a0: 16c9 cabb 1c61 80be 324d 203e 7d71 813d
000003b0: 157d 99bb 585b 30bc 42f2 a53d 749f cf3d
000003c0: 2888 18be 60c3 123b 4c27 8abd e888 0dbd
000003d0: aba3 21bd 8570 b33d 9eb2 103e 221a 50be
000003e0: fe4e 53bc 249d 1a3e 4bdc edbb c439 5b3c
000003f0: b42e 593c 63dd b53d d840 853d cbf0 3bbd

fc2.bias f4 [64]
0.05773193 0.04520298 -0.08215318 0.06296323 0.027447775 0.009522292 0.04255435 -0.019481584
0.013564648 0.108752854 0.035007216 0.05262726 -0.037677635 0.08171216 -0.02502946 -0.012136378
0.10964879 0.10493005 0.054346062 0.085315086 0.008790468 0.055027198 0.06518273 -0.00892764
-0.02470539 0.095727846 0.08282008 -0.019694433 0.10706078 0.008228039 0.06110173 -0.030563613
0.043969385 0.060214587 0.054305732 0.003349818 0.11273329 0.067345396 -0.00791774 0.039686516
0.1187199 -0.007537236 0.014372326 -0.010767831 0.01429989 -0.05005684 0.008312454 0.018674985
-0.032917872 0.1017898 -0.06938976 0.05605791 0.0381439 0.05570983 -0.0018930905 0.00853564
0.01483834 -0.008835952 0.100914635 -0.09161936 0.105465345 0.026517905 -0.028116383 -0.038165018
00000000: 5178 6c3d c326 393d ed3f a8bd def2 803d
00000010: 28da e03c 6303 1c3c 784d 2e3d d897 9fbc
00000020: 423e 5e3c d1b9 de3d ba63 0f3d af8f 573d
00000030: dd53 1abd b458 a73d 950a cdbc a9d7 46bc
00000040: 8b8f e03d 91e5 d63d fa99 5e3d adb9 ae3d
00000050: e505 103c 3364 613d 867e 853d 3c45 12bc
00000060: f562 cabc f60c c43d 939d a93d 3856 a1bc
00000070: af42 db3d e6ce 063c cf45 7a3d 8b60 fabc
00000080: 3e19 343d 92a3 763d b06f 5e3d 9f88 5b3b
00000090: b6e0 e63d 62ec 893d 69b9 01bc 548e 223d
000000a0: 6b23 f33d ebfa f6bb e879 6b3c 8e6b 30bc
000000b0: 164a 6a3c 6708 4dbd f630 083c 48fc 983c
000000c0: e4d4 06bd 2c77 d03d 381c 8ebd fb9c 653d
000000d0: c73c 1c3d fe2f 643d 9421 f8ba 12d9 0b3c
000000e0: 821c 733c abc4 10bc 55ac ce3d eea2 bbbd
000000f0: 37fe d73d 143c d93c 5454 e6bc ec52 1cbd

fc3.weight f4 [32, 64]
-0.16145639 -0.030764276 -0.021329973 0.015504948 -0.04659349 0.24540609 -0.26782873 -0.013262
-0.2216044 -0.100481875 0.17755799 -0.12895201 0.17639004 0.08245439 -0.15310259 0.2555036
0.133558 0.2360607 -0.06383522 -0.20801501 -0.08020219 0.10549399 0.052306876 -0.06698128
0.13935614 0.10876716 0.11539084 -0.09080303 0.21656738 -0.15890545 0.0040417025 0.16928075
0.45700693 -0.022013096 -0.16788755 -0.039464094 -0.15307811 0.10338336 0.22480695 -0.29916042
-0.13907841 0.10553104 0.11231878 0.35377756 0.092106454 0.20176144 0.08461445 -0.159336
-0.19338632 -0.32768652 -0.013796425 0.2588217 -0.071531475 0.10081844 -0.09474091 0.27090493
-0.16805363 0.25679392 -0.076987304 0.1915432 0.053132243 -0.026043825 -0.006793485 -0.021453079
-0.03936341 0.065328844 -0.2509164 0.0625126 0.19266549 0.12563598 -0.2000274 0.038108937
0.035367798 -0.13437343 0.04431793 0.07886831 0.08796912 0.073550016 0.06964996 0.063846156
-0.15551884 0.16703027 -0.045537725 0.0553474 0.008179222 -0.03281165 -0.10989283 0.14662535
0.17614058 0.11090226 0.21284789 -0.30356723 0.22992024 -0.19495621 -0.045691825 0.2197184
-0.008350875 -0.036801487 0.0077127786 0.07204767 -0.04787022 -0.042215623 0.1766273 -0.11995948
-0.047311336 -0.13287236 -0.10383077 0.29008797 0.10646872 -0.14957629 0.33581918 0.051555615
-0.16861759 -0.058105957 0.24201691 0.1767764 -0.08611172 -0.07768642 0.105824314 -0.24620114
0.10374845 -0.10242791 0.15387589 0.20836295 -0.07988476 0.21321179 -0.07722916 0.24235243
0.0020644814 0.2496414 -0.075349286 -0.014319383 0.011760485 0.26716235 -0.043246225 -0.22861308
0.09839103 -0.35687482 -0.018025836 -0.027846575 0.061990302 0.3117967 -0.11509469 0.25902075
0.057486605 -0.108044885 -0.04934402 0.35763732 0.22102377 -0.06948782 0.027884053 0.01176841
0.084910676 0.13866156 -0.017484844 -0.17592573 -0.062595055 0.07092079 -0.24634765 -0.07728677
-0.4074393 0.12671404 -0.012265444 0.0834723 -0.28321022 0.19587415 0.2404732 0.097235456
0.090190046 -0.050953813 0.18688917 0.3436356 0.021450503 -0.38173193 0.082251966 -0.09119847
-0.048611555 0.13970561 0.034201007 -0.21872652 -0.008571978 -0.051667925 -0.03488463 -0.18491219
0.0004244133 -0.39498335 -0.03493356 -0.04178178 -0.14360648 0.022374228 0.038189612 0.367449
0.052793127 0.055424016 0.007918898 -0.028564312 -0.080798544 0.07672278 -0.008809505 -0.03186605
-0.044468626 -0.17322305 0.17149356 -0.10187098 -0.08116542 0.18560575 -0.09357266 0.18980224
0.047926653 -0.12316752 0.16096057 -0.08692175 0.1181382 -0.27617285 0.043706335 0.1858432
-0.22912137 0.087171026 -0.047680892 -0.08898276 0.23862897 0.091898136 -0.057824753 0.032036055
-0.18212149 0.08982423 -0.039736573 -0.014046084 -0.10482248 0.07033105 -0.039892856 -0.1478389
0.16289225 0.048230514 0.25258023 0.08785472 -0.089544065 -0.06667722 0.12917563 0.03192166
-0.099958345 0.2150306 -0.05617533 0.079727 -0.03309586 -0.07275721 -0.007848694 0.30541894
0.23171154 -0.14766733 -0.062033378 -0.13005638 0.019011592 -0.31806764 0.16857246 0.25448865
00000000: d354 25be 5d05 fcbc 32bc aebc 7708 7e3c
00000010: d1d8 3ebd bc4b 7b3e d920 89be dc48 59bc
00000020: 44ec 62be 71c9 cdbd c3d1 353e ff0b 04be
00000030: 979f 343e d9dd a83d edc6 1cbe 5ed1 823e
00000040: 6ec3 083e e5b9 713e 0abc 82bd e301 55be
00000050: 0c41 a4bd 3c0d d83d bc3f 563d 7b2d 89bd
00000060: 60b3 0e3e 51c1 de3d 0852 ec3d f0f6 b9bd
00000070: d7c3 5d3e 1cb8 22be 4270 843b ef57 2d3e
00000080: d0fc e93e cf54 b4bc b7ea 2bbe 1aa5 21bd
00000090: 82c0 1cbe a8ba d33d cb33 663e 8e2b 99be
000000a0: 926a 0ebe a820 d83d 6307 e63d 5522 b53e
000000b0: 4fa2 bc3d 8d9a 4e3e 574a ad3d fa28 23be
000000c0: 1007 46be 87c6 a7be 670a 62bc 4784 843e
000000d0: 187f 92bd e679 ce3d 8607 c2bd 0db4 8a3e
000000e0: 4016 2cbe 7e7a 833e 85ab 9dbd e723 443e
000000f0: 32a1 593d dc59 d5bc e29b debb 5ebe afbc
00000100: 873b 21bd 21cb 853d 1d78 80be 9b06 803d
00000110: 1a4a 453e b8a6 003e fcd3 4cbe 1e18 1c3d
00000120: d3dd 103d 3099 09be b886 353d b585 a13d
00000130: 2729 b43d 64a1 963d a3a4 8e3d c6c1 823d
00000140: 5540 1fbe fc09 2b3e c485 3abd f5b3 623d
00000150: 2502 063c 8265 06bd 7e0f e1bd f524 163e
00000160: 325e 343e b920 e33d ccf4 593e 2a6d 9bbe
00000170: 3670 6b3e 9aa2 47be 5a27 3bbd dcfd 603e
00000180: 1cd2 08bc 28bd 16bd 7abb fc3b bb8d 933d
00000190: 9013 44bd 4aea 2cbd c9dd 343e 51ad f5bd
000001a0: 88c9 41bd b10f 08be 3aa5 d4bd 6986 943e
000001b0: 460c da3d 872a 19be 7ef0 ab3e fb2b 533d
000001c0: 17aa 2cbe 8300 6ebd 48d3 773e df04 353e
000001d0: 575b b0bd 0f1a 9fbd 6bba d83d 271c 7cbe
000001e0: 117a d43d b9c5 d1bd a491 1d3e 195d 553e
000001f0: 9f9a a3bd 3154 5a3e 522a 9ebd 3c2b 783e
00000200: 404c 073b ffa1 7f3e ba50 9abd d89b 6abc
00000210: 0daf 403c 81c9 883e f422 31bd 8c19 6abe
00000220: 3d81 c93d 4cb8 b6be ebaa 93bc 801e e4bc
00000230: 8be9 7d3d d1a3 9f3e c4b6 ebbd 5e9e 843e
00000240: 1377 6b3d a346 ddbd f51c 4abd 3d1c b73e
00000250: 0e54 623e a14f 8ebd 196d e43c 4ad0 403c
00000260: a6e5 ad3d 4cfd 0d3e 603c 8fbc e025 34be
00000270: d631 80bd eb3e 913d 8f42 7cbe 8748 9ebd
00000280: e29b d0be 53c1 013e 00f5 48bc 86f3 aa3d
00000290: ee00 91be 3c93 483e 9b3e 763e 6223 c73d
000002a0: 8fb5 b83d f2b4 50bd e05f 3f3e 01f1 af3e
000002b0: f7b8 af3c 5e72 c3be b873 a83d 43c6 babd
000002c0: e91c 47bd fd0e 0f3e 5b16 0c3d d8f9 5fbe
000002d0: 7b71 0cbc bfa1 53bd 30e3 0ebd 9f59 3dbe
000002e0: ca83 de39 423b cabe 7e16 0fbd 5f23 2bbd
000002f0: 940d 13be 284a b73c b66c 1c3d 4622 bc3e
00000300: 9b3d 583d 4b04 633d 44be 013c b4ff e9bc
00000310: b579 a5bd d520 9d3d be55 10bc fa85 02bd
00000320: bc24 36bd 6261 31be 029c 2f3e bba1 d0bd
00000330: 0e3a a6bd 6f0f 3e3e 06a3 bfbd 855b 423e
00000340: bd4e 443d 413f fcbd d9d2 243e 0804 b2bd
00000350: 71f2 f13d 8766 8dbe 6a05 333d ae4d 3e3e
00000360: cb9e 6abe b986 b23d 0a4d 43bd 983c b6bd
00000370: 275b 743e 1735 bc3d a6d9 6cbd 3d38 033d
00000380: 0e7e 3abe c4f5 b73d d1c2 22bd 8c21 66bc
00000390: 2bad d6bd ba09 903d b166 23bd 1563 17be
000003a0: 3acd 263e 5c8d 453d 3252 813e 2ded b33d
000003b0: e162 b7bd 118e 88bd 9e46 043e 49c0 023d
000003c0: f6b6 ccbd fb30 5c3e 1a18 66bd e947 a33d
000003d0: 868f 07bd bb01 95bd cf97 00bc df5f 9c3e
000003e0: ca45 6d3e 1b36 17be b616 7ebd 802d 05be
000003f0: 33be 9b3c c3d9 a2be 429e 2c3e 564c 823e

fc3.bias f4 [32]
0.20095037 -0.013566415 -0.04096358 0.01518759 0.054594062 0.19452083 0.045159634 0.14696017
0.13245791 -0.03138766 -0.06850414 0.19956183 0.0037748443 -0.009837991 -0.013511722 0.13902934
0.17427146 0.0824323 0.05263044 -0.021240715 0.02751045 0.08000204 0.11874591 0.070322946
0.11186423 0.1389309 -0.10745501 0.087880924 -0.058903586 -0.040847525 0.09388028 0.022219004
00000000: efc5 4d3e ab45 5ebc 6dc9 27bd 5fd5 783c
00000010: 069e 5f3d 7830 473e 4ff9 383d ba7c 163e
00000020: 0ca3 073e 5990 00bd e64b 8cbd f059 4c3e
00000030: 6163 773b 862f 21bc 4560 5dbc b55d 0e3e
00000040: 3874 323e 44d2 a83d 0493 573d 0201 aebc
00000050: 985d e13c 1cd8 a33d 0e31 f33d 7a05 903d
00000060: 1319 e53d e743 0e3e 5f11 dcbd eafa b33d
00000070: e344 71bd bc4f 27bd 4e44 c03d a104 b63c

fc4.weight f4 [24, 32]
-0.71945935 -0.1485847 -0.25653374 -0.17252053 -0.5133215 0.24775022 -0.13165241 -0.31584987
0.111356676 -0.34789586 0.013745285 -0.2627208 0.12727422 0.13462552 -0.15150654 0.048109774
-0.1490955 0.072597384 -0.10097578 -0.6144083 -1.0725485 -0.030506017 -0.623476 -0.13717212
-0.2478833 0.04420464 -0.23630178 0.17927784 0.007903906 0.19957638 0.19954063 -0.6986688
0.12025326 -0.26576692 -0.12819009 -0.25480005 0.0737077 0.042029608 0.18345109 -0.17080964
0.17383888 0.041786794 0.20808254 0.23450163 -0.6233659 0.14491902 0.01880267 -0.842633
0.25140288 0.10977183 -0.18803516 0.07871101 -0.0024394395 -0.61969787 0.18515174 0.05477941
0.16747235 -0.023010295 0.14328814 -0.1970258 -0.6258813 -0.3760906 -0.008465766 0.12259899
-0.0049068523 -0.052214373 0.08675443 0.15731186 -0.42497274 -0.013179232 -0.901539 0.27657217
0.045115866 -0.15459163 -0.23095983 -0.69573915 0.04734747 -0.39131904 0.14961372 0.103975065
-0.32614928 0.038901694 0.14157698 -0.2505483 -0.19037294 0.21063925 -0.23506156 0.061951984
-0.23562615 0.03497316 -0.24565381 -0.12597887 0.07112891 0.19821543 0.039446257 -0.05344869
0.20717134 -0.57652885 0.022898346 0.20808338 0.0594334 0.009288327 -0.3050895 -0.26851964
0.2235708 -0.0550619 0.20313202 -0.24728851 -0.110142946 0.11514398 0.12919515 -0.25255424
0.13999902 -0.12326209 0.020979486 0.14946452 -0.1871728 -0.40478218 0.040587515 -0.28172725
-0.2336943 -0.36873552 -0.046765003 0.2437059 -0.13645452 -0.32868347 0.21688554 -0.014199917
0.23877172 0.17823397 0.23583232 0.114701174 0.16563848 0.12297792 -0.1335415 -0.17194921
-0.5090467 0.059812352 -0.4784198 -0.11851224 -0.5832484 -0.22102028 -0.071940444 -0.25451323
-0.25241664 -0.5156046 0.18490994 -0.14978324 0.09030132 0.052251436 -0.33782205 0.12510315
-0.06449463 -0.28440344 0.12819274 -0.35660025 -0.74822986 0.007318487 0.0040707584 0.205278
0.17868097 0.0008536466 0.06313485 0.08824136 0.1351176 0.15015185 -0.40862805 -0.32456028
-0.41389224 -0.5740024 -0.45854837 -0.49035835 -0.12236305 -0.19504638 0.067380436 0.22633241
0.0061855363 -0.39968902 -0.27684736 0.084332295 0.10058837 0.020582896 -0.008116839 -0.017559187
-0.06520405 -0.81728554 0.043937624 0.10273732 -0.18026918 0.03202845 -0.041558165 -0.18300371
0.05975684 0.15804642 0.15090619 0.12029918 -0.08320454 -0.13278528 0.043908343 0.052660342
-0.1926237 0.093187965 -0.084112726 -0.11824246 -0.052765306 0.08250844 0.19074786 -0.13067399
0.10766877 -0.08914096 -0.31929454 0.0613098 -0.049894273 0.089328185 0.08580567 0.05748878
0.19554652 0.10887117 -0.021326113 -0.7555419 0.07649508 -0.13575554 -0.022634577 0.15314597
-0.0056542074 -0.035410944 -0.08597005 -0.19422074 0.1655612 -0.22606349 -0.1032636 -0.34994432
-0.12985606 0.13686351 0.0032893843 -0.18549371 -0.023032617 0.144058 0.06109226 0.139545
-0.24046794 -0.40180588 0.047631744 0.16076241 -0.051552355 -0.25032562 -0.030024977 -0.22763795
-0.083139904 -0.36340347 0.26018125 0.052609492 0.23066086 0.0123377405 0.17732187 0.15767841
00000000: 7d2e 38bf 9626 18be 6458 83be 39a9 30be
00000010: 0a69 03bf 3cb2 7d3e e4cf 06be 13b7 a1be
00000020: f80e e43d 681f b2be e733 613c 5783 86be
00000030: 2c54 023e 46db 093e 8824 1bbe c10e 453d
00000040: 7eac 18be f0ad 943d 64cc cebd dd49 1dbf
00000050: 4549 89bf c1e7 f9bc 209c 1fbf d976 0cbe
00000060: 1fd5 7dbe ed0f 353d 18f9 71be 9c94 373e
00000070: 627f 013c c05d 4c3e 6154 4c3e f5db 32bf
00000080: 5747 f63d 9a12 88be 4344 03be 2775 82be
00000090: 10f4 963d 3d27 2c3d 9ada 3b3e b9e8 2ebe
000000a0: d202 323e a128 2b3d 9713 553e 3221 703e
000000b0: e894 1fbf a765 143e 0f08 9a3c ccb6 57bf
000000c0: e1b7 803e 0ed0 e03d 4a8c 40be 3d33 a13d
000000d0: 01df 1fbb 85a4 1ebf 6b98 3d3e 6060 603d
000000e0: df7d 2b3e 1680 bcbc 20ba 123e 22c1 49be
000000f0: c239 20bf f28e c0be ffb3 0abc 2e15 fb3d
00000100: a9c9 a0bb bdde 55bd 4eac b13d 5c16 213e
00000110: 0796 d9be b5ed 57bc 43cb 66bf de9a 8d3e
00000120: 6acb 383d 454d 1ebe bc80 6cbe f61b 32bf
00000130: 6cef 413d f85a c8be 5734 193e e1f0 d43d
00000140: 0afd a6be 6257 1f3d 8ef9 103e de47 80be
00000150: 20f1 42be d1b1 573e fab3 70be 5dc1 7d3d
00000160: fb47 71be 0440 0f3d ac8c 7bbe 9b00 01be
00000170: 09ac 913d fcf8 4a3e 6692 213d 03ed 5abd
00000180: b924 543e 6597 13bf 5095 bb3c cf13 553e
00000190: 7070 733d 112e 183c b134 9cbe 687b 89be
000001a0: beef 643e 9688 61bd d701 503e 3339 7dbe
000001b0: a092 e1bd 9bd0 eb3d bc4b 043e ca4e 81be
000001c0: e75b 0f3e d670 fcbd 2cdd ab3c 3a0d 193e
000001d0: 3aaa 3fbe 9c3f cfbe 183f 263d 8e3e 90be
000001e0: 8f4d 6fbe e7ca bcbe a98c 3fbd 0a8e 793e
000001f0: bcba 0bbe 3349 a8be 3e17 5e3e c5a6 68bc
00000200: 9380 743e f782 363e 077e 713e 73e8 ea3d
00000210: 229d 293e d9db fb3d 1abf 08be 7413 30be
00000220: e250 02bf ccfd 743d 71f3 f4be 8cb6 f2bd
00000230: c44f 15bf 2453 62be 8355 93bd 8f4f 82be
00000240: c13c 81be aafe 03bf 0859 3d3e c760 19be
00000250: e6ef b83d 9a05 563d 03f7 acbe 0a1b 003e
00000260: c315 84bd 549d 91be f544 033e 4f94 b6be
00000270: fe8b 3fbf ebcf ef3b ff63 853b 6534 523e
00000280: 25f8 363e 41c7 5f3a d84c 813d e3b7 b43d
00000290: 455c 0a3e 68c1 193e b237 d1be c42c a6be
000002a0: afe9 d3be d2f1 12bf dac6 eabe 4010 fbbe
000002b0: 7b99 fabd 3dba 47be c1fe 893d afc3 673e
000002c0: 0ab0 ca3b 0aa4 ccbe f0be 8dbe 69b6 ac3d
000002d0: 4601 ce3d 769d a83c 7efc 04bc 49d8 8fbc
000002e0: b389 85bd a039 51bf f0f7 333d f267 d23d
000002f0: 7c98 38be 4430 033d e538 2abd 5365 3bbe
00000300: 97c3 743d ecd6 213e 2787 1a3e 6b5f f63d
00000310: 2467 aabd ddf8 07be 3cd9 333d 5fb2 573d
00000320: 263f 45be 55d9 be3d 4b43 acbd 1a29 f2bd
00000330: 6f20 58bd 2ffa a83d 6853 433e 67cf 05be
00000340: 7281 dc3d 898f b6bd 937a a3be fc1f 7b3d
00000350: f05d 4cbd b2f1 b63d e2ba af3d 5b79 6b3d
00000360: 593d 483e d9f7 de3d 1ab4 aebc 326b 41bf
00000370: 74a9 9c3d 8003 0bbe 266c b9bc 4cd2 1c3e
00000380: ee46 b9bb 110b 11bd 1111 b0bd cde1 46be
00000390: e088 293e 307d 67be de7b d3bd e72b b3be
000003a0: fdf8 04be f325 0c3e b692 573b 10f2 3dbe
000003b0: e6ae bcbc f183 133e e13b 7a3d e2e4 0e3e
000003c0: 3a3d 76be 80b9 cdbe 8119 433d e79e 243e
000003d0: 9028 53bd ae2a 80be f1f6 f5bc ec19 69be
000003e0: 4145 aabd 0510 babe 7a36 853e 0d7d 573d
000003f0: 5c32 6c3e 3c24 4a3c dd93 353e 7376 213e

fc4.bias f4 [24]
0.09542667 -0.09245828 0.15688391 0.041196246 0.14866786 0.14360915 0.08921735 -0.036275297
0.09201958 -0.039151106 0.06459204 -0.03379754 0.2565255 -0.06533208 -0.16259408 -0.22893238
0.04624582 -0.15360746 0.13950412 0.08529203 0.024768597 -0.16203864 0.007432801 0.08201756
00000000: 0f6f c33d c45a bdbd 2da6 203e 65bd 283d
00000010: 633c 183e 470e 133e 96b7 b63d 6895 14bd
00000020: c374 bc3d e95c 20bd d548 843d 4a6f 0abd
00000030: 4f57 833e d3cc 85bd 107f 26be 406d 6abe
00000040: 426c 3d3d 464b 1dbe 2bda 0e3e 96ad ae3d
00000050: 83e7 ca3c 75ed 25be db8e f33b d3f8 a73d

exp_avg f4 [128, 240]
0.0018396716 -0.00069971295 -5.7289173e-05 0.0005090061 -0.00165069 -0.00089893374 -0.0014904623 -0.0012096044
0.0010700247 -0.0002695219 -0.0004250932 0.0011322068 -0.0019510275 0.0015268286 0.00021782998 -0.00045857078
7.709541e-05 -0.0013494244 -0.0005434804 -0.00019691081 0.0012237944 -0.0021705832 -0.00095014094 -0.00029456295
0.001486639 -0.0005053567 0.000108200795 0.0003877497 -0.0014297381 -0.0011735155 -0.0013855172 -0.0011890526
0.0012336203 -0.00012400287 -0.00024762584 0.0015310706 -0.0018891244 0.0012380406 -1.3224548e-05 -0.00049940386
0.00025871472 -0.0012697908 -0.00049147836 -0.00040221907 0.0010597561 -0.002168907 -0.0011919958 -0.00014621875
0.0016584062 -0.0003404188 0.0002808099 0.00046593894 -0.0016004605 -0.001242317 -0.0010465507 -0.0012690934
0.0015167921 1.0092044e-06 -0.00022259208 0.0016944895 -0.0019270708 0.0011194806 -0.00011616861 -0.00032874674
0.00020772923 -0.0013837181 -0.00056920236 -0.000323122 0.0010113767 -0.0028124023 -0.0012207536 -8.551471e-05
0.0015943318 -0.00023934215 0.0003595775 0.00040868713 -0.0014434904 -0.0011872615 -0.0009898966 -0.0018118228
0.0015101354 -0.00020041683 -0.0002791308 0.0019486032 -0.0019466281 0.0010984873 -0.00011445867 -0.0002350958
3.6550977e-05 -0.0014005926 -0.00068349455 -0.0003371598 0.0008953991 -0.0023696667 -0.0013013552 2.6995287e-05
0.0015901871 -6.957729e-05 0.0006383052 0.00025761614 -0.0014488553 -0.0011983726 -0.00068404165 -0.0018934805
0.0012193156 -0.00015537458 -0.00013358526 0.0018999355 -0.0018176376 0.0009919165 -5.294403e-05 -0.00029116674
1.0673713e-05 -0.0014450458 -0.00058216363 -0.00039294767 0.0007794601 -0.0023559998 -0.0013346757 -0.00018414468
0.0016150047 0.00015925457 0.00050850003 0.00029618412 -0.0016888216 -0.0011145973 -0.0007026935 -0.001905939
0.0012483045 -0.00012808532 -0.000112637936 0.002059445 -0.0018310578 0.0009222683 6.923265e-05 -0.00023438345
0.00013914361 -0.0014624458 -0.0004661887 -0.0013470461 0.0009939098 -0.002303333 -0.0012106334 -0.00024386027
0.0018411652 -6.09742e-06 0.00043946443 0.00052334246 -0.0016772174 -0.0011914232 -0.0006660662 -0.0019059507
0.00081077067 -0.00013085394 -0.00013163943 0.0020295125 -0.0020013375 0.00071221124 -0.000111278874 -0.00011086065
0.00028192822 -0.0015562482 -0.0005737788 -0.0011516488 0.0010080256 -0.0022444958 -0.0011575987 8.62483e-05
0.0015092023 6.0235565e-05 0.0010787265 0.0009023605 -0.0017994962 -0.0014121778 -0.00062413025 -0.0019914587
0.0010447544 0.00034956564 2.1224943e-05 0.0022070862 -0.0028175411 0.0007542657 -0.00040401396 -0.00042098307
0.00030885905 -0.0016641282 -0.00049551955 -0.001006196 0.00070629804 -0.002081784 -0.0011308799 0.00019951724
0.0013137867 9.543394e-05 0.0005280179 0.0011269692 -0.0013850715 -0.0014529966 -0.00064254634 -0.001893832
0.0012146619 0.00075986143 -0.00040440372 0.0018581057 -0.0027119247 0.0006772682 -0.00053903717 -7.4557036e-05
0.00037412392 -0.0015324363 -0.0006574131 -0.0012067019 0.000338061 -0.0019946687 -0.00087257987 4.858509e-05
0.0014082838 0.00018083269 0.0001950936 0.001182264 -0.0015286738 -0.0012774399 -0.00044284164 -0.0022179075
0.0008534692 0.00054610125 -0.000239828 0.0018904642 -0.0025222264 0.0005934654 -0.00041634124 0.00019344923
0.0004293291 -0.0013835221 -0.0006603585 -0.000961672 9.400904e-05 -0.0017104845 -0.0013225363 0.00030257477
0.0 0.0 0.0 0.0 0.0 0.0 0.0 0.0
0.0 0.0 0.0 0.0 0.0 0.0 0.0 0.0
00000000: 2321 f13a f16c 37ba c849 70b8 d26e 053a
00000010: f75b d8ba 6ca6 6bba 9e5b c3ba 978b 9eba
00000020: 1240 8c3a 9e4e 8db9 0bdf deb9 8e66 943a
00000030: 9fb9 ffba de1f c83a 4a69 6439 546c f0b9
00000040: 48ae a138 2bdf b0ba 5a78 0eba d879 4eb9
00000050: ba67 a03a 5840 0ebb e112 79ba 926f 9ab9
00000060: 54db c23a ea79 04ba dce9 e238 e24a cb39
00000070: 0d66 bbba a5d0 99ba 3e9a b5ba fcd9 9bba
00000080: 6eb1 a13a c406 02b9 c7d3 81b9 34ae c83a
00000090: 7f9c f7ba c045 a23a 00df 5db7 6dea 02ba
000000a0: 1aa4 8739 1c6f a6ba 8ed6 00ba eee0 d2b9
000000b0: 84e7 8a3a 3924 0ebb be3c 9cba 4c52 19b9
000000c0: e15e d93a 3d7a b2b9 ab39 9339 4449 f439
000000d0: 8bc6 d1ba 3ed5 a2ba 6a2c 89ba b557 a6ba
000000e0: 19cf c63a 0074 8735 9b67 69b9 a219 de3a
000000f0: c495 fcba 89bb 923a 8c9f f3b8 a45b acb9
00000100: e4d1 5939 e05d b5ba 8636 15ba b368 a9b9
00000110: 2c90 843a 4850 38bb b201 a0ba 5c56 b3b8
00000120: e6f8 d03a ebf7 7ab9 ad85 bc39 0f45 d639
00000130: 8033 bdba e39d 9bba 6bbf 81ba af7a edba
00000140: bcef c53a fc26 52b9 4d58 92b9 4668 ff3a
00000150: 0026 ffba 1efb 8f3a 8809 f0b8 0c84 76b9
00000160: 504e 1938 1794 b7ba 8b2c 33ba d3c4 b0b9
00000170: 37b9 6a3a 694c 1bbb 3c92 aaba f073 e237
00000180: d36d d03a 06ea 91b8 f053 273a a710 8739
00000190: 84e7 bdba b612 9dba 4251 33ba aa2e f8ba
000001a0: 71d1 9f3a 0cec 22b9 0513 0cb9 4207 f93a
000001b0: cc3d eeba 3203 823a 3810 5eb8 bda7 98b9
000001c0: 4013 3337 b167 bdba 579c 18ba 8b04 ceb9
000001d0: af54 4c3a 1e67 1abb 49f0 aeba f616 41b9
000001e0: 91ae d33a 93fd 2639 dc4c 053a 2949 9b39
000001f0: 735b ddba ae17 92ba f634 38ba b3d0 f9ba
00000200: 269e a33a a44e 06b9 0838 ecb8 c1f7 063b
00000210: 1b00 f0ba 61c4 713a ff30 9138 d4c4 75b9
00000220: 14e7 1139 8aaf bfba ca6a f4b9 5e8f b0ba
00000230: 1446 823a 84f3 16bb 1eae 9eba beb4 7fb9
00000240: 4153 f13a 7098 ccb6 eb67 e639 eb30 093a
00000250: 14d6 dbba 8729 9cba f29a 2eba 18d1 f9ba
00000260: e689 543a d635 09b9 b108 0ab9 9201 053b
00000270: df28 03bb b0b3 3a3a 645e e9b8 dc7d e8b8
00000280: c4cf 9339 06fb cbba a569 16ba ecf2 96ba
00000290: ba1f 843a 6418 13bb 91ba 97ba 34e0 b438
000002a0: 6dd0 c53a 72a5 7c38 0e64 8d3a 638c 6c3a
000002b0: 13dd ebba d318 b9ba ac9c 23ba 2283 02bb
000002c0: 24f0 883a e845 b739 380c b237 c3a4 103b
000002d0: 7fa6 38bb eab9 453a d6d1 d3b9 64b7 dcb9
000002e0: 5cee a139 e01e daba c1e5 01ba 56e2 83ba
000002f0: dc26 393a 8a6e 08bb 083a 94ba 8035 5139
00000300: 5e33 ac3a b523 c838 ae6a 0a3a d0b6 933a
00000310: 4a8b b5ba 7a72 beba 8e70 28ba 753a f8ba
00000320: 4a35 9f3a 7031 473a 2606 d4b9 ae8b f33a
00000330: 8cba 31bb b38a 313a 2c4e 0dba 815b 9cb8
00000340: 1026 c439 08dc c8ba 3f56 2cba 322a 9eba
00000350: c83d b139 fdb8 02bb d8bd 64ba d8c7 4b38
00000360: 2a96 b83a e89d 3d39 0a92 4c39 32f6 9a3a
00000370: c85d c8ba c56f a7ba 332d e8b9 505a 11bb
00000380: 59bb 5f3a 3c28 0f3a 577a 7bb9 74c9 f73a
00000390: f04b 25bb ca92 1b3a 6048 dab9 a2d8 4a39
000003a0: 9417 e139 4c57 b5ba e91b 2dba b718 7cba
000003b0: b826 c538 5632 e0ba f458 adba e6a2 9e39
000003c0: 0000 0000 0000 0000 0000 0000 0000 0000
000003d0: 0000 0000 0000 0000 0000 0000 0000 0000
000003e0: 0000 0000 0000 0000 0000 0000 0000 0000
000003f0: 0000 0000 0000 0000 0000 0000 0000 0000

exp_avg_sq f4 [128, 240]
0.00033618987 0.00021178955 0.00027292935 0.00015444892 0.00033420665 0.00023541287 9.673288e-05 0.00013497639
0.00017749693 0.00024509203 4.4152723e-05 0.00017508552 0.00038485698 8.924796e-05 0.0001491581 0.000115080664
0.00024570708 0.0004460628 0.00051103724 0.0001685255 0.00026515647 0.00012386664 0.00015259 0.00010904683
0.00033503352 0.00021235981 0.0002755911 0.00015738864 0.00033940322 0.00023752346 9.4281655e-05 0.00013434667
0.00017854472 0.0002462409 4.355487e-05 0.00018021771 0.00038411465 8.9285524e-05 0.00014921282 0.00011906096
0.00024156904 0.00044762506 0.00050814834 0.00017366046 0.00026965296 0.00012571075 0.0001550391 0.00010693048
0.00033431497 0.00021240162 0.00027827543 0.00015723899 0.0003370532 0.00024075434 9.552874e-05 0.000131846
0.00018385076 0.00025041026 4.378912e-05 0.0001812151 0.00038476076 9.045521e-05 0.00015049391 0.000118597745
0.00024614052 0.0004458295 0.0005067557 0.00017407592 0.00026655078 0.00012168058 0.00015970395 0.000108147266
0.0003399731 0.00021528901 0.00027805465 0.00016450713 0.00033561653 0.0002408257 9.464885e-05 0.00013215057
0.0001841504 0.00025309421 4.481503e-05 0.00017976499 0.00038710944 8.780579e-05 0.00015059665 0.00011703604
0.00024675822 0.0004444615 0.0005068393 0.00017496737 0.00026603675 0.00012438177 0.00015933806 0.00010977505
0.00034015704 0.00021643443 0.00028070234 0.0001629208 0.00033670999 0.0002417095 9.499288e-05 0.00013087496
0.00018316245 0.00025346977 4.4784887e-05 0.00017990395 0.00038899295 8.6645996e-05 0.0001506186 0.00011769139
0.0002523656 0.00044437556 0.000506656 0.00017297648 0.00026789223 0.0001248166 0.00015995775 0.0001102107
0.00033961036 0.00021791876 0.00027816356 0.00016443913 0.00033853555 0.00024079514 9.8478435e-05 0.0001340313
0.00018403458 0.0002518234 4.4499706e-05 0.00017896581 0.00039196413 8.482832e-05 0.00015021239 0.00011584938
0.00026790457 0.0004435983 0.000504563 0.00019580178 0.00026529952 0.00012618068 0.0001608222 0.00011158849
0.00035177442 0.0002187842 0.00027640897 0.0001649294 0.00033772248 0.00024348346 9.951987e-05 0.0001378443
0.00018482954 0.00024726897 4.3374046e-05 0.00018126264 0.00039054616 8.683576e-05 0.00015220295 0.00011402366
0.0002707897 0.00044611635 0.0005036688 0.00019444928 0.0002665392 0.00012456531 0.00016219924 0.00011261947
0.00034845184 0.00022093023 0.0002785674 0.00016873272 0.0003354839 0.00024639847 0.000107739244 0.00013810476
0.00018135487 0.00025350502 4.3017288e-05 0.00018203285 0.00039630756 8.679668e-05 0.00015362582 0.00011397344
0.00026995217 0.00044454605 0.000504148 0.00019197165 0.00026322325 0.00012365391 0.00016330926 0.00011385165
0.00034634685 0.00021943949 0.00028117065 0.00016894034 0.000333559 0.0002492518 0.000112686466 0.00014493005
0.00018036428 0.00025886865 4.317049e-05 0.00018662518 0.00039453668 8.5752436e-05 0.00015453111 0.00011113693
0.00027059382 0.0004458927 0.0005039543 0.000191978 0.00026278 0.00012621978 0.00016213357 0.00011623595
0.00034411383 0.00022742074 0.00028111995 0.00016872109 0.0003346433 0.00025148806 0.0001161604 0.00014606348
0.00018227598 0.00026176614 4.219245e-05 0.0001933273 0.00038893952 8.786394e-05 0.00016077059 0.00011382605
0.00026594772 0.00044305445 0.0005091406 0.00019280038 0.00025954342 0.00012786647 0.000160048 0.000117587886
0.0 0.0 0.0 0.0 0.0 0.0 0.0 0.0
0.0 0.0 0.0 0.0 0.0 0.0 0.0 0.0
00000000: a442 b039 d313 5e39 f517 8f39 91f3 2139
00000010: 7538 af39 29d9 7639 12dd ca38 7388 0d39
00000020: 781e 3a39 b27f 8039 a030 3938 2997 3739
00000030: a1c6 c939 a22a bb38 5367 1c39 7657 f138
00000040: 3fd2 8039 89dd e939 21f7 053a 38b6 3039
00000050: b304 8b39 33e2 0139 9100 2039 12b0 e438
00000060: 70a7 af39 e7ac 5e39 367d 9039 b108 2539
00000070: eef1 b139 b80f 7939 14b9 c538 69df 0c39
00000080: bc37 3b39 e519 8139 b0ae 3638 d3f8 3c39
00000090: ff62 c939 cd3e bb38 0376 1c39 5eb0 f938
000000a0: b24d 7d39 38af ea39 4235 053a a018 3639
000000b0: 3560 8d39 39d1 0339 fe91 2239 dd3f e038
000000c0: ff46 af39 20b8 5e39 7fe5 9139 85e0 2439
000000d0: 84b6 b039 0073 7c39 9a56 c838 2440 0a39
000000e0: 10c8 4039 7f49 8339 36aa 3738 8f04 3e39
000000f0: b7b9 c939 c5b2 bd38 e7cd 1d39 aeb7 f838
00000100: 6c0c 8139 39be e939 cdd7 043a 2688 3639
00000110: d7bf 8b39 c42e ff38 3476 2739 1fcd e238
00000120: 6b3e b239 34bf 6139 ddc7 9139 8c7f 2c39
00000130: b0f5 af39 2886 7c39 377e c638 e691 0a39
00000140: 7f18 4139 bbb1 8439 c6f7 3b38 4c7f 3c39
00000150: f3f4 ca39 6024 b838 7be9 1d39 3f71 f538
00000160: 545f 8139 9d06 e939 69dd 043a 7277 3739
00000170: d97a 8b39 7a6c 0239 fc13 2739 0837 e638
00000180: 1b57 b239 adf2 6239 3b2b 9339 b8d5 2a39
00000190: 7388 b039 6673 7d39 ea36 c738 7b3b 0939
000001a0: 4c0f 4039 23e4 8439 68d7 3b38 99a4 3c39
000001b0: c0f1 cb39 b7b5 b538 5fef 1d39 15d1 f638
000001c0: f04f 8439 14fb e839 1cd1 043a 0561 3539
000001d0: e373 8c39 33e1 0239 55ba 2739 eb20 e738
000001e0: bb0d b239 1f81 6439 7bd6 9139 4b6d 2c39
000001f0: 797d b139 f47d 7c39 3586 ce38 c18a 0c39
00000200: 68f9 4039 2a07 8439 32a5 3a38 c5a8 3b39
00000210: 8980 cd39 dce5 b138 5582 1d39 2af4 f238
00000220: 8b75 8c39 c292 e839 a644 043a 2450 4d39
00000230: e617 8b39 5e4f 0439 61a2 2839 9d04 ea38
00000240: 5d6e b839 7069 6539 fcea 9039 e6f0 2c39
00000250: 5810 b139 984f 7f39 53b5 d038 4c8a 1039
00000260: cdce 4139 e1a3 8139 87ec 3538 5211 3e39
00000270: 38c2 cc39 981b b638 ab98 1f39 fd1f ef38
00000280: c7f8 8d39 b9e4 e939 a408 043a 15e5 4b39
00000290: 49be 8b39 bf9d 0239 0714 2a39 1e2e ec38
000002a0: 6ab0 b639 82a9 6739 af0c 9239 d8ed 3039
000002b0: e3e3 af39 0b2f 8139 11f2 e138 37d0 1039
000002c0: 142a 3e39 dee8 8439 766d 3438 12e0 3e39
000002d0: 80c7 cf39 9d06 b638 9e16 2139 0605 ef38
000002e0: 5e88 8d39 f611 e939 cd28 043a ff4b 4939
000002f0: 3a01 8a39 18a9 0139 ff3d 2b39 a4c3 ee38
00000300: e395 b539 5719 6639 166a 9339 9425 3139
00000310: 88e1 ae39 03ae 8239 1652 ec38 5df8 1739
00000320: 2b20 3d39 c3b8 8739 f611 3538 d1b0 4339
00000330: d1d9 ce39 fdd5 b338 a109 2239 2f12 e938
00000340: 7dde 8d39 b5c6 e939 cd1b 043a b44d 4939
00000350: bcc5 8939 dd59 0439 6602 2a39 b3c3 f338
00000360: 2d6a b439 ca77 6e39 4863 9339 b9ea 3039
00000370: 1073 af39 28da 8339 249b f338 9e28 1939
00000380: 5621 3f39 a83d 8939 ccf7 3038 e7b7 4a39
00000390: 94ea cb39 9843 b838 8794 2839 e5b5 ee38
000003a0: e66e 8b39 c349 e839 d977 053a 752a 4a39
000003b0: 5413 8839 e513 0639 8fd2 2739 8499 f638
000003c0: 0000 0000 0000 0000 0000 0000 0000 0000
000003d0: 0000 0000 0000 0000 0000 0000 0000 0000
000003e0: 0000 0000 0000 0000 0000 0000 0000 0000
000003f0: 0000 0000 0000 0000 0000 0000 0000 0000

exp_avg f4 [128]
-0.000619917 0.0 0.002257758 -0.0028773851 0.0006650898 -0.0016869627 -0.002340458 0.0029341208
-0.0001377597 0.004150309 0.0 -0.0020446908 -0.00080042507 0.0056325425 -0.014893801 0.0
0.0040796045 -0.0016352626 -0.004294077 -0.0022304512 0.0 -0.0034955195 0.0032284018 -0.0010029265
0.00047080874 -0.0014906061 0.0020727683 -0.0019170757 0.0 0.0 0.0 -0.0038038818
0.004038254 0.00044669322 0.0021344714 0.0 0.00049048866 0.0028790263 -0.0022285893 0.0018724854
0.0018258373 -0.0065662228 0.0 0.0 0.00182513 0.0 -0.013102323 0.0
-0.0011517645 0.0 0.0009262884 -0.0077385814 -0.0011365374 -2.5305853e-05 0.0017238038 -0.0032122675
-0.020112317 0.0002910021 -0.0031583295 0.012107238 -0.0042808526 -0.0056489496 0.0042096507 -0.014981477
-0.006379467 -0.00034156156 0.023349313 0.0 0.0018954086 0.0022434134 -0.0042269393 -0.0019039253
0.008430745 0.0038886792 0.003694043 -0.0050032926 -0.0038828487 0.0 0.011986366 -0.0063559613
-0.00532157 -0.0023408441 0.0 0.0 -0.002061849 0.0014096082 -0.0061484044 -0.006887194
0.00529606 -0.012430713 0.0010285372 0.0011129304 0.0 -0.00067262887 -0.0032235493 -0.00020479047
0.0005832316 0.0 0.0071194675 0.0012932653 -0.0017973527 0.0 0.0 0.0033294638
0.0011710039 -0.007074233 0.002430891 0.0 -0.008246539 0.0 0.0 0.0009063439
0.012337412 0.0 0.0 -0.0017279685 0.0 0.00014237245 -0.008950635 0.007965347
0.0 0.0039386866 0.0017246976 0.0015227406 -0.0076140985 0.000102813705 -0.009047711 0.0
00000000: ed81 22ba 0000 0000 e5f6 133b 8392 3cbb
00000010: 6c59 2e3a 131d ddba 5f62 19bb 614a 403b
00000020: 9673 10b9 51ff 873b 0000 0000 3800 06bb
00000030: 9ed3 51ba 3191 b83b 2105 74bc 0000 0000
00000040: 34ae 853b 4f56 d6ba 54b5 8cbb c32c 12bb
00000050: 0000 0000 1615 65bb 9893 533b a174 83ba
00000060: e1d6 f639 7160 c3ba 48d7 073b 6346 fbba
00000070: 0000 0000 0000 0000 0000 0000 8c4a 79bb
00000080: 5453 843b 2632 ea39 7de2 0b3b 0000 0000
00000090: 2394 003a 0cae 3c3b 860d 12bb 2f6e f53a
000000a0: ef50 ef3a 7829 d7bb 0000 0000 0000 0000
000000b0: 3339 ef3a 0000 0000 20ab 56bc 0000 0000
000000c0: cef6 96ba 0000 0000 2ad2 723a ed93 fdbb
000000d0: def7 94ba e847 d4b7 42f1 e13a e884 52bb
000000e0: 96c2 a4bc a491 9839 fafb 4ebb 705d 463c
000000f0: 6546 8cbb d31a b9bb 1cf1 893b de74 75bc
00000100: d90a d1bb 9e13 b3b9 0f47 bf3c 0000 0000
00000110: 5c6f f83a 3b06 133b 2382 8abb 228d f9ba
00000120: 1c21 0a3c 36d9 7e3b c217 723b a9f2 a3bb
00000130: 6477 7ebb 0000 0000 7662 443c ab45 d0bb
00000140: 9160 aebb d968 19bb 0000 0000 0000 0000
00000150: 1620 07bb 9ac2 b83a 8e78 c9bb f8ad e1bb
00000160: 928a ad3b 30aa 4bbc fbcf 863a bfdf 913a
00000170: 0000 0000 5c53 30ba 2f42 53bb 06bd 56b9
00000180: 03e4 183a 0000 0000 6c4a e93b c882 a93a
00000190: 2695 ebba 0000 0000 0000 0000 2233 5a3b
000001a0: 5f7c 993a f8ce e7bb 954f 1f3b 0000 0000
000001b0: 7e1c 07bc 0000 0000 0000 0000 b697 6d3a
000001c0: db22 4a3c 0000 0000 0000 0000 007d e2ba
000001d0: 0000 0000 d049 1539 afa5 12bc 1681 023c
000001e0: 0000 0000 1910 813b 400f e23a b296 c73a
000001f0: b07f f9bb b09d d738 da3c 14bc 0000 0000
