models/preliminary_results_models/RaceMultiOutputModel5v1/model.pt (torch, 548801 bytes, 12 tensors)

fc1.weight f4 [24, 24]
0	0x3e62b600	0.2213974
1	0xbc9ae072	-0.018905852
2	0xbe82acb1	-0.25522378
3	0x3b7b13e2	0.0038311412
4	0xbe401912	-0.18759564
5	0x3e61f3f7	0.22065721
6	0x3e2fabe2	0.17155412
7	0xbd999a15	-0.07500092
8	0x3ddab59f	0.10679173
9	0xbd1a0119	-0.037598703
10	0xbc1e27f4	-0.00965308
11	0x3e777fac	0.24169797
12	0x3e09072d	0.13381644
13	0xbd03749e	-0.032093637
14	0x3d9e38d5	0.077256836
15	0xbdaeacfa	-0.085290864
16	0xbd1df100	-0.038559914
17	0xbdbed6f1	-0.093183406
18	0x3ed6087d	0.4180335
19	0xbcb43622	-0.021998469
20	0x3e1e0b54	0.15434009
21	0xbe342698	-0.17592847
22	0xbe42aeb8	-0.19011962
23	0xbe53bb46	-0.20676908
24	0xbe604b62	-0.21903756
25	0xbe4c0dc1	-0.19927122
26	0x3ea07bb7	0.31344387
27	0x3d84330f	0.06455051
28	0xbe71edf2	-0.23625925
29	0x3d82fdeb	0.06396087
30	0xbe05ac3f	-0.13053988
31	0x3e847796	0.25872487
32	0x3da6ffe2	0.081542745
33	0xbf03f45e	-0.5154475
34	0xbe8d2cd4	-0.27573264
35	0xbe0d5734	-0.13802797
36	0x3d1af1b0	0.037828147
37	0xbd9b3a56	-0.07579486
38	0x3d913c5b	0.0709159
39	0xbe5ecfe4	-0.21758991
40	0x3e75db44	0.24009424
41	0xbce781b0	-0.028260082
42	0x3e7bc8b3	0.2458828
43	0xbe33a292	-0.17542484
44	0xbe433e7a	-0.19066802
45	0x3e93ec40	0.28891182
46	0xbe2149f3	-0.15750866
47	0x3e9f275b	0.31084713
48	0x3d07e4a1	0.033177022
49	0xbdcf1d15	-0.10112969
50	0xbecf2a2b	-0.4046186
51	0x3df57ee0	0.1198709
52	0xbda13f3a	-0.07873388
53	0xbe03e6cd	-0.12881012
54	0x3de90a01	0.11378861
55	0x3e169a70	0.1470735
56	0xbea65b61	-0.32491592
57	0xbd29bdf5	-0.041440923
58	0x3e5d69b2	0.21622351
59	0x3d71ca49	0.059030805
60	0xbe3cd742	-0.1844149
61	0x3da7548a	0.081704214
62	0x3da6b9a0	0.08140874
63	0x3e712725	0.23550089
64	0xbe03b809	-0.12863173
65	0xbde14b7a	-0.11000724
66	0x3cec85ce	0.028872397
67	0xbc10984b	-0.008825372
68	0xbe7e3d90	-0.24828172
69	0xbe95bd75	-0.29246107
70	0x3ec91c98	0.39279628
71	0x3e2790de	0.16363856
72	0x3df92e17	0.12166994
73	0x3c620326	0.013794696
74	0xbbf1ff73	-0.0073851882
75	0x3dbfabd5	0.09358946
76	0x3e1c21dd	0.15247293
77	0x3c9747b9	0.018466817
78	0xbe409421	-0.18806507
79	0x3e3a2305	0.18177421
80	0xbcd1240b	-0.025529882
81	0xbe0d8262	-0.13819268
82	0x3d9897fa	0.07450862
83	0x3c86d455	0.01645867
84	0x3e75d219	0.24005927
85	0xbe6e4c38	-0.23271263
86	0xbe73ce26	-0.23809108
87	0x3e4886e2	0.19582704
88	0xbd5f91da	-0.054582454
89	0x3e2ad26c	0.16681832
90	0x3db9e481	0.09076787
91	0xbe4697ff	-0.1939392
92	0x3e25733d	0.16157241
93	0x3ead1da9	0.3381169
94	0xbe5ae549	-0.21376528
95	0xbe8c2aed	-0.273765
96	0xbc071358	-0.008244358
97	0x3cbf63c0	0.023362994
98	0x3e0843c7	0.13307105
99	0xbe187b39	-0.14890756
100	0x3e51157c	0.20418352
101	0xbd9ea5da	-0.077464774
102	0x3d792407	0.060825374
103	0xbd13935f	-0.036029216
104	0xbdac0bce	-0.08400689
105	0xbe8b732c	-0.27236307
106	0x3da2f742	0.07957317
107	0x3df8fabe	0.121572
108	0x3db097b3	0.08622684
109	0x3d8665d4	0.06562391
110	0x3d5a1d26	0.053250454
111	0x3df4854d	0.119394876
112	0x3e116ff0	0.14202857
113	0xbe40840c	-0.18800372
114	0x3db3897b	0.08766457
115	0x3e1fc27b	0.15601532
116	0x3e46c71c	0.19411892
117	0x3e8a07a2	0.26958948
118	0xbef513f6	-0.4786679
119	0xbe70c6bd	-0.23513313
120	0x3e440765	0.19143446
121	0xbe607594	-0.21919852
122	0x3e203c43	0.15647988
123	0xbed19aaa	-0.40938312
124	0x3e5253fa	0.20539847
125	0xbe26b503	-0.16279988
126	0xbe12af4a	-0.1432468
127	0xbe6eccdd	-0.23320337
128	0x3d10cfe3	0.035354506
129	0x3e876f31	0.2645202
130	0xbeaaefeb	-0.33386168
131	0x3e3a8efc	0.18218607
132	0x3ecd80fa	0.40137464
133	0xbe637fd0	-0.22216725
134	0x3ec0e19a	0.3767212
135	0x3e1f877d	0.15579028
136	0x3ddbb6d5	0.10728232
137	0xbe1ca38d	-0.15296765
138	0xbe01ef6e	-0.12688991
139	0xbe59e57e	-0.2127895
140	0xbba5f5db	-0.0050647086
141	0xbde33cad	-0.11095557
142	0xbe2bd9be	-0.16782281
143	0x3eb72e35	0.3577744
144	0x3e6d7517	0.23189197
145	0xbd678166	-0.05651989
146	0xbe43ef56	-0.19134268
147	0x3b825390	0.0039772466
148	0xbe32a460	-0.17445517
149	0x3e602895	0.21890481
150	0xbdfabcb6	-0.12243025
151	0x3ed64608	0.41850305
152	0x3baad559	0.0052134213
153	0x3d8118b6	0.06303541
154	0xbd10372a	-0.03520886
155	0xbf0870bd	-0.53297025
156	0xbc33b488	-0.010968335
157	0xbd7341bb	-0.059388857
158	0x3e390e59	0.1807188
159	0xbe425c60	-0.18980551
160	0xbe599a79	-0.21250333
161	0x3ece05ce	0.40238804
162	0xbe0ba01b	-0.13635294
163	0x3de2fb3f	0.11083078
164	0xbe588e7e	-0.21148106
165	0x3d6cc69e	0.057806604
166	0x3d5b747d	0.05357789
167	0x3df1e10a	0.11810501
168	0xbed8090b	-0.421944
169	0xbedf3a11	-0.4359899
170	0x3cfa10bd	0.03052556
171	0x3e092561	0.13393165
172	0x3df0c819	0.117569156
173	0x3e97118e	0.2950558
174	0x3e818dc2	0.25303465
175	0x3e7f4299	0.24927749
176	0xbd802635	-0.062572874
177	0x3c3ec1f8	0.011642925
178	0xbe13e1af	-0.1444156
179	0x3d265184	0.040605083
180	0xbbb81fc0	-0.0056190193
181	0xbd67d619	-0.056600664
182	0xbd83b534	-0.06431046
183	0xbe5e0df6	-0.21685013
184	0x3d6f89c5	0.058480997
185	0x3ecedd90	0.40403414
186	0xbebb318c	-0.3656124
187	0x3d172e64	0.036909476
188	0x3e23700a	0.15960708
189	0xbe578a00	-0.21048737
190	0x3cade88e	0.021229055
191	0x3bf2d3c6	0.0074104993
192	0xbdd8d3b7	-0.105872564
193	0xbc238a0e	-0.009981645
194	0xbcf4501a	-0.029823352
195	0xbee7668c	-0.45195425
196	0xbdab77d7	-0.08372467
197	0x3da56767	0.08076363
198	0x3de6d84c	0.11271724
199	0xbe8ec0fd	-0.27881613
200	0x3c335f04	0.010947946
201	0xbe77745e	-0.24165484
202	0x3e6a0914	0.22855026
203	0xbe4ae3d2	-0.19813469
204	0x3daa20ed	0.08307061
205	0xbe5ba735	-0.21450503
206	0xbc242535	-0.0100186365
207	0x39b0c45d	0.00033715638
208	0xbd57b378	-0.05266139
209	0xbc074dc6	-0.008258289
210	0xbd188561	-0.037236575
211	0xbcbd0544	-0.0230738
212	0xbe95c17d	-0.29249182
213	0x3d413500	0.047169685
214	0x3f085b0f	0.53263944
215	0x3e02f906	0.12790307
216	0x3e5d2b34	0.21598512
217	0x3dea77b0	0.1144861
218	0x3da461ba	0.08026452
219	0x3df4aae6	0.11946659
220	0x3e88b9cb	0.2670425
221	0x3efcc3cc	0.4936813
222	0xbce2f204	-0.027703293
223	0x3e0c0c9c	0.13676685
224	0xbdfdcf29	-0.12393028
225	0x3de2f565	0.110819615
226	0xbe34b7f2	-0.17648295
227	0x3ebc7c28	0.36813474
228	0x3e5f0c60	0.21782064
229	0x3e54bf50	0.20776105
230	0x3dcb3515	0.09922234
231	0xbeacd7b7	-0.33758327
232	0x3e9633f3	0.2933651
233	0xbde25d18	-0.110529125
234	0xbc8a151f	-0.016855774
235	0xbc10e818	-0.008844398
236	0xbd979c0b	-0.0740281
237	0x3daac6fb	0.08338734
238	0x3c8311f8	0.01599978
239	0xbf1961f0	-0.59915066
240	0xbe66335c	-0.2248053
241	0x3d534005	0.051574726
242	0x3cdca6ef	0.026935069
243	0x3da6044c	0.08106288
244	0xbd6c3da1	-0.05767596
245	0x3e08440a	0.13307205
246	0xbe1115a7	-0.14168416
247	0xbe305b92	-0.17222431
248	0xbeb1fefb	-0.34764847
249	0x3e9315f2	0.2872768
250	0x3dbf91d5	0.09353987
251	0xbe52c97f	-0.20584677
252	0xbd13407a	-0.03595016
253	0x3c42efd6	0.011898002
254	0x3e023bfb	0.12718193
255	0xbe983744	-0.29729664

fc1.bias f4 [24]
0	0xbe2aa1ea	-0.16663328
1	0x3d8d3c4f	0.068962686
2	0xbe471262	-0.19440606
3	0xbef0a1cd	-0.46998444
4	0x3ec26cef	0.37973735
5	0x3d0f213b	0.0349438
6	0x3eacdaf6	0.33760804
7	0x3e9b34c2	0.3031369
8	0xbd760ccd	-0.0600708
9	0xbea51219	-0.3224037
10	0xbdaa8bc3	-0.08327439
11	0x3c82fa95	0.015988627
12	0x3df21af2	0.11821546
13	0xbd7b76e2	-0.061392672
14	0x3cf2815a	0.029602695
15	0x3ea4194f	0.3205056
16	0xbe8e552e	-0.27799362
17	0xbd30b6a2	-0.043142922
18	0xbf04ddf1	-0.51901156
19	0xbce739f6	-0.02822588
20	0x3d9b634f	0.07587301
21	0x3e9c8946	0.3057348
22	0x3db30eaf	0.08743035
23	0x3eab63bb	0.33474526

fc2.weight f4 [24, 24]
0	0xbda242c2	-0.07922889
1	0x3eede987	0.4646723
2	0x3e88cf5f	0.26720712
3	0x3ec667a3	0.38750944
4	0xbd29474a	-0.041327752
5	0x3dfffd7c	0.1249952
6	0xbe6a4f2e	-0.22881767
7	0xbdc6f246	-0.09714179
8	0xbf369170	-0.7131567
9	0x3e5557b5	0.20834239
10	0xbf0b52bf	-0.54423136
11	0x3ddb7989	0.1071654
12	0xbd05dccf	-0.032681283
13	0xbe344a96	-0.17606577
14	0x3e8d10d5	0.27551904
15	0x3e91f8b9	0.28510073
16	0x3d18de16	0.037321173
17	0xbe8cb546	-0.2748205
18	0x3e29740b	0.16548173
19	0xbf24c64c	-0.64365077
20	0x3f44d493	0.7688686
21	0x3e90875c	0.2822827
22	0x3d1bc638	0.038030833
23	0x3ee33d16	0.44382542
24	0x3f1ca1c0	0.6118431
25	0xbd383350	-0.04497081
26	0x3dcc74ce	0.09983216
27	0x3e502604	0.20327002
28	0xbe0ad195	-0.13556512
29	0xbedb00c4	-0.42774022
30	0xbd72640b	-0.05917744
31	0xbe04714e	-0.12933847
32	0xbe7e6b8c	-0.24845713
33	0x3f1fa230	0.62356853
34	0xbe163fdc	-0.14672798
35	0xbded01e8	-0.11572629
36	0x3e75e1eb	0.24011962
37	0x3e15f207	0.14643107
38	0xbeadab38	-0.33919692
39	0xbed75660	-0.42058086
40	0xbe51020e	-0.2041094
41	0xbcf11799	-0.029430198
42	0x3d87ea76	0.06636517
43	0xbe8ee3dd	-0.2790822
44	0xbe403ac0	-0.18772411
45	0x3e6f9f8f	0.2340071
46	0xbeb25b93	-0.3483549
47	0x3eb3861d	0.35063258
48	0xbdbbcb8c	-0.09169683
49	0x3e543be9	0.20725979
50	0xbd52397f	-0.051324364
51	0x3dd5e527	0.10444098
52	0xbf70641c	-0.93902755
53	0x3d022937	0.031777587
54	0xbe99d383	-0.30044183
55	0x3c6e4d01	0.014544726
56	0xbebb72d7	-0.36611053
57	0x3e834eb5	0.25645986
58	0xbdf820a7	-0.12115603
59	0xbbb7122f	-0.0055868845
60	0xbd83449f	-0.06409573
61	0xbead946b	-0.33902296
62	0x3d077af4	0.03307624
63	0xba286e83	-0.0006425159
64	0xbdff21ad	-0.12457595
65	0x3f029aeb	0.51017636
66	0xbcf16685	-0.02946783
67	0xbd661387	-0.056170966
68	0xbf027007	-0.5095219
69	0x3e3b3295	0.18281014
70	0xbeca6206	-0.3952791
71	0x3ee0b6ee	0.43889564
72	0xbe6d7d54	-0.2319234
73	0xbe8965d4	-0.268355
74	0x3e5dcf27	0.21661054
75	0x3d1ff23d	0.039049376
76	0xbb576868	-0.0032868627
77	0xbdda5205	-0.10660175
78	0xbe2c36e3	-0.16817813
79	0xbe75f158	-0.24017847
80	0x3d872e7c	0.06600663
81	0xbee2da9c	-0.4430741
82	0xbdb519ae	-0.08842789
83	0xbecdc8c1	-0.40192226
84	0x3e2a349f	0.16621636
85	0xbe31e3e4	-0.1737209
86	0x3e730309	0.23731627
87	0xbf2b2ebc	-0.66868186
88	0x3ed74fe4	0.4205314
89	0x3ce17362	0.02752084
90	0x3dd20ec0	0.102567196
91	0xbe6081a6	-0.21924457
92	0xbcd90442	-0.026491288
93	0x3ecefdb5	0.40427938
94	0xbd7b22d5	-0.061312515
95	0x3da8a471	0.0823449
96	0x3f458ad8	0.77164984
97	0x3e92deb9	0.2868555
98	0x3e05f2b4	0.13080865
99	0xbdd9d4f2	-0.10636319
100	0x3ebff90b	0.37494692
101	0xbe80a0b6	-0.25122613
102	0xbee2b5d6	-0.44279355
103	0xbe4494ee	-0.19197437
104	0x3dc45621	0.0958674
105	0xbee1c773	-0.4409748
106	0xbe946114	-0.28980315
107	0x3efaac62	0.48959643
108	0x3dffcbc3	0.12490036
109	0x3e3324ae	0.17494461
110	0x3ed02894	0.4065596
111	0x3f37134c	0.7151382
112	0xbe1be589	-0.1522428
113	0x3ec54ef4	0.385368
114	0xbe418e40	-0.1890192
115	0x3e8640f8	0.26221442
116	0x3e8598d4	0.2609316
117	0x3ea19f49	0.31566837
118	0xbebcd81e	-0.36883634
119	0x3ea19cad	0.31564847
120	0xbe21432a	-0.15748277
121	0x3e92dbe7	0.28683397
122	0x3dc72ce0	0.09725356
123	0x3d88925a	0.06668539
124	0xbe320252	-0.17383698
125	0xbd916bd4	-0.07100645
126	0x3e4a3964	0.19748455
127	0x3d72b936	0.059258662
128	0x3d6ccdf7	0.05781361
129	0x3e97e54e	0.29667133
130	0x3eb37846	0.350527
131	0xbe446e5c	-0.19182724
132	0x3ecfdce7	0.40598223
133	0xbd1625e7	-0.03665724
134	0x3ca011a3	0.01953966
135	0x3ec41d22	0.38303477
136	0x3ef2693b	0.4734591
137	0x3d0d66be	0.03452181
138	0xbdef595d	-0.116869666
139	0x3e62328c	0.22089595
140	0xbe30ff1a	-0.17284814
141	0x3dd012c5	0.1015983
142	0xbea692c7	-0.32533857
143	0x3e218717	0.15774189
144	0xbe537268	-0.20649111
145	0xbd19c106	-0.037537597
146	0x3d32822a	0.043581165
147	0xbddcefe3	-0.10787942
148	0xbebcdf18	-0.36888957
149	0xbe19834c	-0.14991492
150	0xbbb9b550	-0.005667366
151	0x3ee955f1	0.4557338
152	0xbda171aa	-0.07883008
153	0x3eaf6bf0	0.34262037
154	0xbe60b0c9	-0.21942438
155	0x3e4bb17c	0.19891924
156	0x3e1ab58f	0.15108322
157	0x3ea97d15	0.33103243
158	0x3dd0c7a4	0.101943284
159	0x3eff6a0a	0.4988559
160	0xbec67472	-0.38760716
161	0x3e72cd2f	0.23711084
162	0x3e345a6c	0.17612618
163	0xbe31ebbe	-0.17375085
164	0xbbd3f72b	-0.0064686737
165	0x3edaebab	0.42757925
166	0x3ed32a22	0.41243082
167	0x3e00d308	0.12580502
168	0xbebb87c2	-0.36627012
169	0x3e225997	0.15854488
170	0x3d78f8e9	0.060784254
171	0xb99e7eea	-0.00030230667
172	0xbc516b9c	-0.012782004
173	0xbe5c958f	-0.21541427
174	0xbdb5a22b	-0.08868822
175	0xbdb54cde	-0.08852552
176	0x3ec3f1ec	0.3827051
177	0xbef42108	-0.4768145
178	0xbc9d4940	-0.019199967
179	0xbeea62e6	-0.4577858
180	0xbdc6e501	-0.09711648
181	0xbe740906	-0.23831567
182	0x3e348804	0.17630011
183	0x3eff1254	0.4981867
184	0xbf04f59f	-0.5193729
185	0xbebdf3ce	-0.3710007
186	0xbe31b580	-0.17354393
187	0xbe1faaad	-0.15592451
188	0xbe421357	-0.1895269
189	0x3e268e52	0.16265228
190	0x3e217d97	0.15770565
191	0x3e3358ee	0.17514393
192	0xbe1cd97a	-0.15317336
193	0x3d598ab7	0.053110804
194	0xbe26cd83	-0.16289334
195	0x3e160667	0.1465088
196	0x3ca9c68d	0.02072456
197	0x3e75551a	0.23958245
198	0xbe29d178	-0.16583812
199	0xbe081473	-0.13289051
200	0x3e25223b	0.16126339
201	0x3e969c2f	0.29416034
202	0xbd3a61b6	-0.04550334
203	0x3e91b0e7	0.28455278
204	0x3ea1bfea	0.3159173
205	0x3e3f3a2f	0.18674539
206	0x3d3f7f99	0.046752546
207	0x3dae13e6	0.08499889
208	0xbdd03058	-0.10165471
209	0xbf08774c	-0.5330703
210	0x3e21e019	0.15808143
211	0x3ee08869	0.43854073
212	0x3e0505cf	0.12990497
213	0x3e6bbceb	0.23021285
214	0xbe8e4af5	-0.27791563
215	0x3ca5084b	0.020145556
216	0xbe1b9f40	-0.15197468
217	0x3cd640d4	0.02615396
218	0x3e4e5092	0.20147923
219	0xbdec4aa7	-0.11537676
220	0xbeb35662	-0.35026842
221	0x3e270e05	0.16313942
222	0xbc29c094	-0.010360856
223	0xbe1d931a	-0.15388146
224	0x3e95164a	0.29118568
225	0xbe833597	-0.25626823
226	0x3e9a5f3a	0.30150777
227	0xbcf3e55c	-0.029772453
228	0xbea5f5ca	-0.32414085
229	0xbdf9318d	-0.12167654
230	0xbcb23804	-0.021755226
231	0x3d2e74b6	0.042591773
232	0xbe952339	-0.29128435
233	0xbe163b8d	-0.14671154
234	0x3e5aaf19	0.21355857
235	0x3e3aa092	0.18225315
236	0xbe349e35	-0.17638476
237	0xbe0704df	-0.13185452
238	0xbdc9b849	-0.09849603
239	0x3f645819	0.89196926
240	0xbec54665	-0.3853027
241	0x3de71f6e	0.112852916
242	0x3e4030b9	0.18768586
243	0xbe852d26	-0.26011008
244	0xbbd6a068	-0.0065498836
245	0xbce5b456	-0.028040092
246	0xbef55309	-0.47914913
247	0xbdf3566c	-0.11881718
248	0xbe4e178e	-0.20126173
249	0xbd02f754	-0.03197415
250	0xbd972977	-0.07380956
251	0xbd9eb12f	-0.07748639
252	0xbe8780fc	-0.26465595
253	0x3c3deebc	0.011592563
254	0xbda3ddbe	-0.08001278
255	0x3ec52df3	0.3851162

fc2.bias f4 [24]
0	0xbf1e1793	-0.6175472
1	0xbf0d957c	-0.5530622
2	0xbf74dcd3	-0.9564945
3	0xbf3d9c16	-0.74066293
4	0xbf094ac1	-0.5362969
5	0xbe977383	-0.29580316
6	0xbf0f90f7	-0.56080574
7	0x3d87dfb0	0.06634462
8	0xbea5c859	-0.32379416
9	0x3ecf182e	0.40448135
10	0x3e7dec00	0.24797058
11	0xbece2842	-0.4026509
12	0xbf140e54	-0.57834363
13	0x3e19748a	0.14985862
14	0xbe3412fc	-0.17585367
15	0x3eb5c411	0.3550115
16	0x3dd73ada	0.10509272
17	0x3f329cf3	0.69770736
18	0xbf028e6b	-0.5099856
19	0x3ed5fcd3	0.41794452
20	0x3e61fb53	0.22068529
21	0x3d3fa8b6	0.046791755
22	0x3d06f816	0.032951437
23	0x3ea28910	0.31745195

exp_avg f4 [24, 24]
0	0xb9a1e660	-0.00030879956
1	0x3a5b9fdb	0.00083780073
2	0xba7f520a	-0.0009739703
3	0xba68c6e3	-0.0008879734
4	0xba1f8cbc	-0.00060863397
5	0xb98f4ef0	-0.00027333898
6	0xbb28a8b6	-0.0025735325
7	0xb7d71780	-2.564094e-05
8	0xba8f33c0	-0.0010925457
9	0xbae4444a	-0.0017415371
10	0xbaa79262	-0.0012784714
11	0xbb2787e0	-0.0025563166
12	0xbad93014	-0.0016570115
13	0xbb1bbe27	-0.0023764463
14	0xbb04db34	-0.0020272257
15	0xbb977f22	-0.0046233097
16	0xbb29c08a	-0.0025902116
17	0xba943e14	-0.0011310005
18	0xbb61b450	-0.003443975
19	0xbb496774	-0.003073183
20	0xba88c418	-0.0010434417
21	0xba06a1c0	-0.0005135797
22	0xbb37ca78	-0.0028044265
23	0xbb3c9134	-0.0028773071
24	0xbad6ca20	-0.0016387142
25	0xbb252c82	-0.002520353
26	0xbb4c649f	-0.0031187905
27	0xbb4e6000	-0.0031490326
28	0xbb26b59e	-0.0025437842
29	0xbb4d553b	-0.003133132
30	0xbb85972f	-0.0040768604
31	0xbba7f345	-0.0051254355
32	0xbb85b8be	-0.004080861
33	0xbb46764a	-0.0030282908
34	0xbb8aff94	-0.004241893
35	0xbb96bc1e	-0.004600062
36	0xbb908223	-0.0044100448
37	0xbb928c0a	-0.0044722604
38	0xbb84f282	-0.0040572295
39	0xbb943001	-0.004522324
40	0xbbce47dd	-0.006295188
41	0xbbd6c095	-0.0065537193
42	0xbbb939c9	-0.0056526405
43	0xbbc5c110	-0.0060349777
44	0xbbe99e7f	-0.00712949
45	0xbc074a94	-0.008257527
46	0xbc1646f2	-0.009172188
47	0xbc184442	-0.009293618
48	0x3a6128b3	0.00085891335
49	0x3a6c9ac8	0.000902575
50	0xb9e06e72	-0.00042806898
51	0xb93397d8	-0.00017127336
52	0xba5d5c71	-0.0008444256
53	0xba8f22b9	-0.0010920382
54	0xbae5d46e	-0.0017534622
55	0xbb1c5502	-0.002385438
56	0xbb29ceb4	-0.0025910558
57	0xbb3d5980	-0.0028892457
58	0xbb4bd00a	-0.0031099343
59	0xbb6dd7c2	-0.0036291932
60	0xbb88f62c	-0.0041797366
61	0xbb91e2d0	-0.004452087
62	0xbba877b4	-0.005141223
63	0xbb9edf78	-0.004848417
64	0xbbac8464	-0.0052648056
65	0xbbc7d5ac	-0.0060984697
66	0xbbc1597f	-0.0059005613
67	0xbbd5315b	-0.006506128
68	0xbbefe9d2	-0.0073215747
69	0xbbee6edc	-0.007276399
70	0xbbe9c7de	-0.0071344217
71	0xbbe83896	-0.0070868237
72	0x39cbd9b4	0.0003888138
73	0x39e9d6db	0.00044601303
74	0x3abf5102	0.0014596286
75	0x3aadcbd0	0.0013259593
76	0x3adbebee	0.0016778687
77	0x3acda9ad	0.0015690826
78	0x3b3f6642	0.0029205238
79	0x3b7dc7e7	0.0038723887
80	0x3b667ecc	0.0035170792
81	0x3b85f557	0.0040880847
82	0x3b9a31f0	0.00470566
83	0x3ba31f23	0.004978077
84	0x3bbb93b6	0.0057243956
85	0x3bc4d1e1	0.006006465
86	0x3be08356	0.006851594
87	0x3bed8e12	0.007249602
88	0x3bfa07e4	0.007630335
89	0x3c1394d2	0.0090076495
90	0x3c206e62	0.009791942
91	0x3c354645	0.011064117
92	0x3c43feab	0.011962573
93	0x3c3d4c54	0.011553843
94	0x3c338011	0.010955826
95	0x3c35c304	0.011093859
96	0xbb194b43	-0.0023390807
97	0xbaf12da4	-0.0018400443
98	0x39841133	0.00025189816
99	0x3a47ef9a	0.0007626951
100	0x3b4a2f62	0.0030850996
101	0x3b844a39	0.0040371683
102	0x3b656b1d	0.0035006471
103	0x3b8f9a1d	0.0043823854
104	0x3bcc5c80	0.006236613
105	0x3be863e5	0.0070919865
106	0x3bd6de91	0.0065572937
107	0x3c012201	0.007881642
108	0x3c20fbb8	0.009825639
109	0x3c388bd7	0.011263809
110	0x3c56d44b	0.013112138
111	0x3c67095e	0.014101354
112	0x3c4bb1d8	0.012432538
113	0x3c664f25	0.014056955
114	0x3c6f24c2	0.014596166
115	0x3c896a3e	0.016774293
116	0x3c8d4018	0.017242476
117	0x3c93d10a	0.018044014
118	0x3c92388a	0.017849226
119	0x3c90912c	0.017647348
120	0xbb31e5a5	-0.0027144935
121	0xbb36b3b7	-0.0027878114
122	0xbb4a0d40	-0.0030830652
123	0xbb48a1e1	-0.0030614065
124	0xbb331b38	-0.0027329456
125	0xbb46e4cc	-0.0030348776
126	0xbb96f9a5	-0.0046073967
127	0xbbab3bdb	-0.005225641
128	0xbb748c99	-0.0037315248
129	0xbb8bcc24	-0.004266279
130	0xbbc0b7ba	-0.005881277
131	0xbbf1a72e	-0.0073746657
132	0xbbd3408e	-0.0064469045
133	0xbbdce3b6	-0.0067410124
134	0xbbdc41af	-0.0067216973
135	0xbbcc8552	-0.006241479
136	0xbc053d52	-0.008132296
137	0xbc0656ac	-0.008199375
138	0xbc31384a	-0.010816643
139	0xbc3df4ca	-0.011594007
140	0xbc326ece	-0.010890676
141	0xbc2ee161	-0.010673852
142	0xbc48a707	-0.012246854
143	0xbc4b4cfc	-0.012408491
144	0xba25ea60	-0.0006329175
145	0xba90b079	-0.0011038921
146	0xba9b7050	-0.0011859033
147	0xbaba5106	-0.0014214821
148	0xbac9be4d	-0.0015391797
149	0xbb100f9c	-0.002198196
150	0xbadce90c	-0.0016854121
151	0xbb2b5870	-0.0026145242
152	0xbb3a09b9	-0.0028387143
153	0xbae84286	-0.0017720021
154	0xbafef11a	-0.0019450516
155	0xbb077717	-0.0020670348
156	0xbb38a32c	-0.002817343
157	0xbb4a531a	-0.0030872286
158	0xbb218fcf	-0.0024652367
159	0xbb37377b	-0.0027956653
160	0xbb594796	-0.003315424
161	0xbb58d4e4	-0.0033085877
162	0xbb211a8c	-0.0024582474
163	0xbb1a86de	-0.0023578922
164	0xbb46f56a	-0.003035868
165	0xbb8ee72f	-0.0043610553
166	0xbba84db7	-0.0051362175
167	0xbba9d3f9	-0.00518274
168	0xb9e7d114	-0.0004421553
169	0xb9fd3b1a	-0.00048299955
170	0xb9cbdfe7	-0.00038885997
171	0xba43954b	-0.0007460906
172	0xb9eefa20	-0.00045581255
173	0xba4e620b	-0.0007872886
174	0xb997cc6b	-0.00028953268
175	0xba42b96e	-0.0007428144
176	0xba6f8dc8	-0.00091382535
177	0xba092cfb	-0.0005232838
178	0xba5c0820	-0.00083935447
179	0xba548a88	-0.0008107801
180	0xba6a0e07	-0.0008928482
181	0xba566f60	-0.00081800483
182	0xba6d2941	-0.000904698
183	0xba0d4364	-0.0005388765
184	0xba3cf6fe	-0.00072084356
185	0xba7a7991	-0.0009554858
186	0xba9b513f	-0.0011849775
187	0xbaab095d	-0.0013049055
188	0xbadb84e0	-0.0016747974
189	0xbae7fbea	-0.0017698978
190	0xbad9af83	-0.0016608093
191	0xbada21b9	-0.001664213
192	0xba1cc248	-0.0005979878
193	0xba429a66	-0.000742352
194	0xba9572aa	-0.001140197
195	0xba925fc2	-0.0011167454
196	0xbb208216	-0.00244916
197	0xbb2feece	-0.002684522
198	0xbb2607c1	-0.0025334212
199	0xbb66e8ba	-0.003523393
200	0xbb620249	-0.0034486225
201	0xbb4a18f6	-0.0030837632
202	0xbb980b53	-0.004640022
203	0xbbb177d4	-0.005415896
204	0xbbbe78ad	-0.0058127255
205	0xbbe1852f	-0.006882332
206	0xbbdabdfe	-0.006675481
207	0xbbecefde	-0.007230743
208	0xbbfa02ba	-0.0076297196
209	0xbc05d772	-0.008169042
210	0xbc2c5e10	-0.010520473
211	0xbc3d0492	-0.011536734
212	0xbc330900	-0.010927439
213	0xbc3030ac	-0.010753792
214	0xbc3345f3	-0.01094197
215	0xbc33f877	-0.010984532
216	0x3b3f8173	0.0029221445
217	0x3b4c7910	0.0031200089
218	0x3b98a0e6	0.0046578525
219	0x3b8d40ce	0.004310704
220	0x3b83e37e	0.004024922
221	0x3b60a9ca	0.003428089
222	0x3bd4f8b9	0.0064993766
223	0x3c00e262	0.007866474
224	0x3bc2541b	0.0059304363
225	0x3bb0408c	0.0053787883
226	0x3c125dfd	0.008933541
227	0x3c229018	0.00992205
228	0x3c112210	0.008858219
229	0x3c1d1067	0.00958643
230	0x3c0fb2f8	0.008770697
231	0x3c1d595d	0.009603825
232	0x3c553642	0.013013424
233	0x3c616157	0.013756118
234	0x3c75a5bc	0.014993127
235	0x3c826649	0.015917914
236	0x3c87b29e	0.016564663
237	0x3c8850d8	0.016640112
238	0x3c924855	0.017856756
239	0x3c956e2b	0.018241009
240	0xbb3373c1	-0.0027382227
241	0xbb4b2dcd	-0.0031002641
242	0xbb888b2e	-0.004166982
243	0xbb5273c9	-0.003211247
244	0xbb1c776d	-0.0023874894
245	0xbb36053d	-0.0027774118
246	0xbb73f854	-0.0037226873
247	0xbbb723bc	-0.0055889767
248	0xbb637c07	-0.0034711377
249	0xbae2af8c	-0.0017294749
250	0xbb6f66ce	-0.0036529782
251	0xbb70c376	-0.0036737598
252	0xbb32d5ae	-0.0027288008
253	0xbb39a3d6	-0.0028326414
254	0xbaf3bd73	-0.0018595889
255	0xbad4d370	-0.001623733

exp_avg_sq f4 [24, 24]
0	0x3961be43	0.0002152855
1	0x39a26acc	0.00030978618
2	0x395d273e	0.00021090821
3	0x39e0b059	0.00042856
4	0x39b924a5	0.00035313252
5	0x3a375d3f	0.0006994791
6	0x3a366d28	0.00069590146
7	0x3a35534e	0.00069170154
8	0x3a62f7b9	0.00086581294
9	0x3a697787	0.00089060556
10	0x3aa5f841	0.0012662486
11	0x3abe21c2	0.001450591
12	0x3ad91fa7	0.0016565219
13	0x3afec98e	0.001943873
14	0x3b022852	0.0019860459
15	0x3b15ecd0	0.0022876747
16	0x3b340ed0	0.002747465
17	0x3b48775a	0.0030588717
18	0x3baba3ec	0.005238047
19	0x3bb4813f	0.0055085714
20	0x3bb70ebf	0.0055864747
21	0x3bbf9ad7	0.005847316
22	0x3bcf7cfb	0.0063320375
23	0x3bd08d7f	0.006364524
24	0x3834d02a	4.3109212e-05
25	0x384d6a64	4.8974893e-05
26	0x3881c24b	6.187389e-05
27	0x38b00ffe	8.395313e-05
28	0x389ffd85	7.6289325e-05
29	0x38e5d739	0.00010959659
30	0x39172222	0.00014413198
31	0x395f268f	0.00021281301
32	0x394f6b10	0.00019780942
33	0x3940d446	0.00018389625
34	0x39854a8d	0.00025423281
35	0x399acf4e	0.00029527623
36	0x39a1f023	0.0003088723
37	0x39bf8b0e	0.00036533963
38	0x39c5add9	0.00037704295
39	0x39f1414c	0.00046015752
40	0x3a121351	0.00055723364
41	0x3a16b844	0.00057495036
42	0x3a3bf2f4	0.0007169687
43	0x3a50b092	0.00079608813
44	0x3a716df7	0.00092098064
45	0x3a86f2fb	0.0010295802
46	0x3a98d8a4	0.0011661244
47	0x3a9db44f	0.0012031886
48	0x378ae7e1	1.6558859e-05
49	0x37ff435f	3.0429741e-05
50	0x37cf161f	2.4686624e-05
51	0x37fab167	2.9884932e-05
52	0x38235a89	3.8946546e-05
53	0x38930511	7.01045e-05
54	0x3861c29a	5.3825417e-05
55	0x38916333	6.932616e-05
56	0x38a5fb26	7.914593e-05
57	0x38f1a4da	0.000115224815
58	0x3907f069	0.00012964163
59	0x391e24d4	0.00015081774
60	0x39101e6c	0.00013744243
61	0x390f03ee	0.00013639007
62	0x391fa8b1	0.00015226264
63	0x393b9d34	0.00017892272
64	0x39668eea	0.00021987749
65	0x3976adc2	0.00023525118
66	0x398f2c25	0.00027307976
67	0x39a2fdb2	0.00031088066
68	0x39e48863	0.00043589165
69	0x3a0a4fa8	0.0005276152
70	0x3a0cd94a	0.0005372955
71	0x3a0c6e5c	0.0005357021
72	0x388aad18	6.612594e-05
73	0x38993abd	7.3065494e-05
74	0x38b3505e	8.550355e-05
75	0x391208b8	0.00013926893
76	0x39024c88	0.00012426276
77	0x394824f2	0.0001908725
78	0x39718ff1	0.00023037173
79	0x39935908	0.00028104358
80	0x397bd4f1	0.00024016552
81	0x399ae57c	0.00029544148
82	0x39deafe1	0.0004247418
83	0x39e95a02	0.00044508284
84	0x3a0a1109	0.00052668207
85	0x3a11ce43	0.00055620464
86	0x3a133f8f	0.0005617076
87	0x3a3803cd	0.00070196093
88	0x3a610974	0.00085844775
89	0x3a6c32ca	0.00090102537
90	0x3a8a85c2	0.0010568427
91	0x3a94dc5a	0.0011357174
92	0x3ac9c4d0	0.0015393738
93	0x3ae0c0dc	0.001714732
94	0x3af55e7b	0.0018720174
95	0x3af85a3a	0.0018947788
96	0x39628a5d	0.00021604584
97	0x39a1aad7	0.000308356
98	0x39b58124	0.00034619228
99	0x3a13734f	0.00056247873
100	0x3a09f9e2	0.00052633707
101	0x3a6e55f8	0.000909179
102	0x3a8635bb	0.0010239402
103	0x3aa9c02b	0.0012950947
104	0x3ad0d09b	0.001593131
105	0x3afceb2b	0.001929616
106	0x3b0e6585	0.002172799
107	0x3b22c4a8	0.0024836455
108	0x3b31169b	0.002702153
109	0x3b58419f	0.0032998098
110	0x3b6d9c62	0.0036256541
111	0x3b85ba3b	0.0040810383
112	0x3ba01c27	0.0048861685
113	0x3bb584d4	0.005539516
114	0x3bd2ac10	0.006429203
115	0x3be7b26b	0.0070708296
116	0x3c20f6ce	0.009824468
117	0x3c2c329f	0.010510116
118	0x3c33654b	0.010949443
119	0x3c334b1e	0.010943202
120	0x38f27f35	0.000115631534
121	0x39166b3c	0.00014345063
122	0x38a9a97b	8.090116e-05
123	0x3932a2bd	0.00017036028
124	0x38e82e8f	0.00011071294
125	0x39716c5a	0.00023023915
126	0x39532399	0.00020135789
127	0x39447968	0.00018737244
128	0x39908f5a	0.00027572626
129	0x39a9be54	0.00032375997
130	0x39d586af	0.00040726873
131	0x39eafc26	0.00044819823
132	0x3a01a94a	0.00049461855
133	0x3a1bc49c	0.0005942078
134	0x3a1c3b5a	0.0005959772
135	0x3a3256ea	0.00068031123
136	0x3a557fcb	0.0008144348
137	0x3a691b30	0.0008892296
138	0x3abd24c9	0.0014430518
139	0x3ac3ffc6	0.0014953546
140	0x3ac22896	0.0014813121
141	0x3ad9187f	0.0016563087
142	0x3af8f97e	0.0018995253
143	0x3af9fcbc	0.0019072513
144	0x380b069e	3.3146345e-05
145	0x382aabac	4.069104e-05
146	0x389903ec	7.296339e-05
147	0x38ee7469	0.000113704074
148	0x390348f7	0.00012520315
149	0x39317532	0.00016923694
150	0x394ef085	0.00019735291
151	0x398cfc25	0.00026890743
152	0x399340a8	0.00028086198
153	0x3987c18b	0.00025893407
154	0x39accfb8	0.0003296116
155	0x39bf6278	0.00036503724
156	0x39fc687a	0.00048143027
157	0x3a0db759	0.0005406044
158	0x3a0cd5bd	0.00053724257
159	0x3a1cf40a	0.00059872924
160	0x3a4549b0	0.0007525934
161	0x3a647e8d	0.00087163673
162	0x3a8d2ded	0.0010771133
163	0x3a9abb27	0.0011805043
164	0x3aa64600	0.0012685657
165	0x3abeb7e5	0.0014550654
166	0x3adb0d76	0.0016712386
167	0x3ade48bb	0.0016958931
168	0x3768cf00	1.38764735e-05
169	0x378573a3	1.5908683e-05
170	0x37c6f7a5	2.3718758e-05
171	0x38008dfb	3.0649808e-05
172	0x384be736	4.8614304e-05
173	0x3889d54a	6.572397e-05
174	0x386f779d	5.709344e-05
175	0x3896eb9d	7.196444e-05
176	0x389adf10	7.384841e-05
177	0x388e71f9	6.792317e-05
178	0x3889dce2	6.573812e-05
179	0x38ad0617	8.250417e-05
180	0x3899f6b5	7.341561e-05
181	0x38b1a67f	8.47103e-05
182	0x38c4c448	9.3825685e-05
183	0x38f64ce3	0.00011744515
184	0x390facf2	0.0001370197
185	0x392c01dd	0.00016403892
186	0x3948ca5a	0.00019148868
187	0x396d9f1d	0.00022661356
188	0x3985e707	0.00025539866
189	0x39a2f5f5	0.000310823
190	0x39bc0ab9	0.00035866143
191	0x39bc0c21	0.0003586719
192	0x39012dce	0.00012319462
193	0x3915f533	0.00014301091
194	0x390b60bc	0.0001329211
195	0x397993fa	0.00023801616
196	0x392a727a	0.00016255109
197	0x3987596a	0.00025815825
198	0x398821cf	0.0002596513
199	0x39d8f3fc	0.00041380513
200	0x39f0e29e	0.0004594521
201	0x39ea24d1	0.00044659388
202	0x3a1c83a1	0.0005970542
203	0x3a17e1e8	0.00057938555
204	0x3a1d1cd4	0.00059933704
205	0x3a3af6bf	0.0007132105
206	0x3a40391b	0.0007332728
207	0x3a7f271e	0.0009733307
208	0x3a9a5bd8	0.0011776639
209	0x3a9dee92	0.0012049249
210	0x3ab77335	0.0013996126
211	0x3ad640d9	0.001634623
212	0x3b07434e	0.0020639482
213	0x3b1dd0fa	0.0024080859
214	0x3b2c2697	0.0026268119
215	0x3b2fdeb2	0.0026835618
216	0x3997bc84	0.0002894142
217	0x39db7dd9	0.000418647
218	0x395c80d1	0.00021028823
219	0x3a082579	0.0005193572
220	0x39a1ddbd	0.0003087352
221	0x3a0a2f90	0.00052713696
222	0x39f74f7c	0.00047170732
223	0x3a07e1b5	0.0005183474
224	0x3a5320c4	0.00080538937
225	0x3a56f862	0.0008200464
226	0x3a8e41ce	0.0010853352
227	0x3a82c16d	0.0009975858
228	0x3a9139da	0.0011079863
229	0x3aabbf18	0.0013103215
230	0x3aa7b34d	0.0012794525
231	0x3ae32642	0.0017330127
232	0x3b0701c4	0.0020600418
233	0x3b1619f0	0.0022903644
234	0x3b42d757	0.0029730403
235	0x3b4c5ab0	0.0031181984
236	0x3b62cf0b	0.003460827
237	0x3b883ab9	0.004157391
238	0x3b9b907d	0.004747449
239	0x3b9cefad	0.0047893138
240	0x38ddb199	0.00010571181
241	0x3919de4b	0.00014674028
242	0x392f45d0	0.00016715308
243	0x39619adf	0.00021515366
244	0x3934d8f2	0.00017246956
245	0x399b8b3b	0.0002966764
246	0x39ba6c6b	0.00035557462
247	0x3a22e108	0.0006213342
248	0x3a2ac2e6	0.00065140275
249	0x3a0ec8b4	0.0005446777
250	0x3a34b9d4	0.00068941456
251	0x3a3ba76a	0.00071584305
252	0x3a4f4ef5	0.0007908189
253	0x3a60968f	0.0008567357
254	0x3a61c47e	0.00086123485
255	0x3a78b5c3	0.0009487534

exp_avg f4 [24]
0	0xb8fe2c20	-0.00012119883
1	0xb9c5983f	-0.000376882
2	0xb991e235	-0.00027825093
3	0x39ec8610	0.00045113312
4	0x3a32f0ff	0.00068260723
5	0xba05f635	-0.0005110235
6	0xb95a81a3	-0.00020838394
7	0xb89054ed	-6.882274e-05
8	0xb9e63c28	-0.00043913838
9	0x3a4110d2	0.0007364872
10	0xb99136b4	-0.00027697312
11	0xba525962	-0.00080241833
12	0x38f751e0	0.00011793128
13	0xba0d66c2	-0.0005394035
14	0x39c10df0	0.00036822213
15	0xba9c9476	-0.00119461
16	0x38ca5202	9.647386e-05
17	0x3a017ab9	0.00049392466
18	0x381a54e6	3.679553e-05
19	0x3abbf354	0.0014339485
20	0xb9b8a519	-0.00035218222
21	0xb98c417e	-0.00026751676
22	0x39441416	0.00018699499
23	0x398efd82	0.0002727323

exp_avg_sq f4 [24]
0	0x372ceb78	1.0306823e-05
1	0x36041727	1.968301e-06
2	0x3565e3e9	8.56408e-07
3	0x364ac5f0	3.021556e-06
4	0x37934f42	1.7560673e-05
5	0x36511d6a	3.1160548e-06
6	0x3638c6bc	2.7533815e-06
7	0x351b16ec	5.7775355e-07
8	0x36903d55	4.2986744e-06
9	0x37026697	7.77249e-06
10	0x36a4d1db	4.9120113e-06
11	0x36bef17b	5.6905533e-06
12	0x36bf9351	5.7093935e-06
13	0x36bc6875	5.614997e-06
14	0x3667be80	3.4532568e-06
15	0x37651137	1.3653472e-05
16	0x36558357	3.1815923e-06
17	0x3606d8e9	2.0093814e-06
18	0x3554c861	7.9267744e-07
19	0x37df7a8e	2.664074e-05
20	0x36615daf	3.3582144e-06
21	0x36c01658	5.724647e-06
22	0x365c1230	3.2793141e-06
23	0x3747a70a	1.1900216e-05

exp_avg f4 [24, 24]
0	0xb91d935e	-0.00015027585
1	0x390d1a4c	0.00013456604
2	0xb94e3863	-0.00019666697
3	0x39596195	0.00020731085
4	0x39a697e4	0.00031775155
5	0xb71c48df	-9.315291e-06
6	0xb7d820d8	-2.57645e-05
7	0xb9951573	-0.00028435476
8	0xb95ed203	-0.00021249805
9	0x37d1c778	2.5007626e-05
10	0xb80b2bcd	-3.3180975e-05
11	0x3953ed2c	0.00020210881
12	0x390524bb	0.00012697552
13	0xb90d6415	-0.00013484091
14	0x399861b8	0.00029064505
15	0xb8cb7d6a	-9.7031545e-05
16	0xb93e19db	-0.00018129444
17	0x399be211	0.00029732336
18	0x389539fa	7.1156726e-05
19	0xb8b09853	-8.4207066e-05
20	0xb85816f8	-5.1519804e-05
21	0x37a0da18	1.9175044e-05
22	0x38f82157	0.000118317716
23	0xba3300eb	-0.0006828445
24	0x3a0a02f8	0.00052647246
25	0x3a4c3205	0.0007789436
26	0xba7ecf6b	-0.0009720239
27	0x3aaa14a4	0.0012976122
28	0x3a6b59d8	0.00089779263
29	0xbb32704e	-0.0027227583
30	0x3a9b2fa5	0.0011839761
31	0x391c30e4	0.00014895533
32	0xba449000	-0.00074982643
33	0x3aa70736	0.0012743238
34	0x392be7fc	0.00016394252
35	0x39ee2334	0.00045421126
36	0xba994a59	-0.0011695131
37	0x3ab12ff5	0.0013518321
38	0x3a20ec2b	0.00061387074
39	0xb9f937d0	-0.00047534565
40	0xba86fe24	-0.0010299128
41	0xbabec242	-0.0014553743
42	0xba2eef81	-0.0006673262
43	0x3895f3a6	7.150257e-05
44	0xba618ae2	-0.0008603764
45	0xbb3f3752	-0.002917726
46	0xba4f5a0b	-0.0007909841
47	0xbb4d48d2	-0.0031323922
48	0x389f7d7b	7.6050834e-05
49	0xb80929a6	-3.2702133e-05
50	0xb80e513a	-3.3931086e-05
51	0x3851d6ed	5.002965e-05
52	0x39063977	0.00012800643
53	0x38e9659b	0.00011129231
54	0xb9208fa9	-0.00015312307
55	0x3653fbf7	3.1588113e-06
56	0x37160c72	8.943594e-06
57	0xb8d60f66	-0.000102071834
58	0xb920308c	-0.00015276874
59	0x37933a1a	1.7550821e-05
60	0x380c1b06	3.340377e-05
61	0x37a670a9	1.9841204e-05
62	0x393713b3	0.00017459579
63	0xb7855544	-1.589454e-05
64	0xb85cbdb9	-5.262878e-05
65	0xb8cd4842	-9.788621e-05
66	0x368056cf	3.824803e-06
67	0xb888a664	-6.515978e-05
68	0xb85224db	-5.0102226e-05
69	0x394456d4	0.00018724363
70	0x3862e20e	5.409313e-05
71	0x37b95aa0	2.209592e-05
72	0xb9df76b7	-0.00042622324
73	0xba461ddc	-0.000755755
74	0xb8458361	-4.7090816e-05
75	0x3989f73d	0.00026314883
76	0x3984ec30	0.00025352975
77	0xb9e42e52	-0.0004352206
78	0xb9446da8	-0.00018732867
79	0xb97df379	-0.00024218661
80	0xba1368eb	-0.0005623239
81	0xb9875d8d	-0.00025818907
82	0xb9451ae1	-0.00018797397
83	0xba079a58	-0.00051728403
84	0xba1dc1b2	-0.00060179376
85	0xb90b8fbb	-0.00013309617
86	0x3a158dbb	0.00057050184
87	0xba3f4bb8	-0.0007297355
88	0xba1cadda	-0.00059768336
89	0x39c26216	0.00037075643
90	0x3880c9e8	6.1411236e-05
91	0xb892d561	-7.0015674e-05
92	0x38a3a366	7.802881e-05
93	0xba9ab215	-0.001180234
94	0x39fe1fd0	0.00048470357
95	0xbadd2a96	-0.0016873654
96	0x390c60ac	0.00013387454
97	0xb8f0a9c2	-0.00011475712
98	0x3996ea86	0.00028784963
99	0xb9beb419	-0.00036373807
100	0xb9d249f2	-0.00040109415
101	0x39f3cbe0	0.0004650047
102	0xb9246533	-0.00015677958
103	0xb8b4a981	-8.6146414e-05
104	0xb89cfcd2	-7.485751e-05
105	0x39a45c2c	0.0003134919
106	0x379afc89	1.8475826e-05
107	0xb9cd2288	-0.00039126375
108	0x3a0b8ad2	0.0005323115
109	0xb950b578	-0.00019904028
110	0xb9e2a3f6	-0.0004322824
111	0xb8e39c06	-0.00010853265
112	0x39a3505d	0.00031149658
113	0xb91e5fcf	-0.00015103746
114	0x38ee5b09	0.00011365681
115	0xba0093e7	-0.00049048517
116	0xb85c4633	-5.2517466e-05
117	0x3a85e643	0.0010215718
118	0xb769e7b4	-1.394183e-05
119	0x3a451f54	0.0007519622
120	0x3b034479	0.0020029827
121	0xbaffed96	-0.0019525762
122	0x3aa00dd4	0.0012211152
123	0xba05cc03	-0.00051039475
124	0x3aaba573	0.0013095572
125	0xb408ea9a	-1.2751335e-07
126	0xbb223855	-0.0024752815
127	0xbb1ffb8b	-0.0024411406
128	0xb9729edc	-0.00023138098
129	0xbafdac2f	-0.0019353683
130	0x39d5e2f9	0.00040795634
131	0xba0ad5e8	-0.0005296157
132	0x3a92bcfd	0.0011195239
133	0x3a520368	0.0008011372
134	0x3a70372f	0.00091634964
135	0x3924a5d8	0.0001570204
136	0xbb131d5b	-0.0022447917
137	0x38e7f466	0.00011060461
138	0x38dc1bf1	0.00010495622
139	0xb905e543	-0.00012769275
140	0xbaa7ed1f	-0.0012811756
141	0x3ba07856	0.0048971577
142	0x38fdaf69	0.00012096653
143	0x3bc005f5	0.005860085
144	0xb9267000	-0.00015872717
145	0x39439718	0.00018652936
146	0xb90bce8a	-0.00013333015
147	0xb908467b	-0.00012996227
148	0xb6f0e340	-7.1790128e-06
149	0x39c674ab	0.00037852427
150	0x38da40dc	0.00010407131
151	0xb7f7d731	-2.95449e-05
152	0x393ff613	0.00018306849
153	0xb8a5ef30	-7.912365e-05
154	0xb7886bba	-1.6262627e-05
155	0x38cfa22b	9.900735e-05
156	0x38a21851	7.729291e-05
157	0x38264812	3.9644605e-05
158	0x38ab8401	8.178503e-05
159	0x3901261a	0.00012316593
160	0x39a82187	0.00032068437
161	0x394742a0	0.00019002939
162	0xb8eaa0c6	-0.00011187936
163	0x38da698f	0.00010414712
164	0x3777ec1c	1.4777321e-05
165	0x38db36d2	0.00010452945
166	0xb9846317	-0.0002525083
167	0xb8fe91e5	-0.00012138839
168	0x39e0f5b0	0.0004290766
169	0x39b6e85a	0.0003488686
170	0x39017b43	0.00012348317
171	0xb9be816b	-0.00036336048
172	0xb8a33126	-7.7816e-05
173	0x3a3f9f71	0.00073098304
174	0x39a8ebb3	0.00032219067
175	0x3a598170	0.0008297181
176	0x398b2339	0.0002653839
177	0x395240c0	0.00020051282
178	0x394bb232	0.00019425972
179	0x3a3fada1	0.00073119445
180	0x3a8d773e	0.0010792983
181	0x39c03a5f	0.00036664584
182	0x381e78a3	3.7782487e-05
183	0x3905e8eb	0.00012770637
184	0x3a68bebd	0.000887852
185	0x39bdeaee	0.00036223925
186	0x3a3eddac	0.00072809565
187	0xb6969606	-4.4878134e-06
188	0xb9bebdc6	-0.00036381016
189	0x3adaf179	0.0016704045
190	0xb984266c	-0.00025205628
191	0x3abaa844	0.0014240821
192	0x38c06c55	9.175452e-05
193	0x398ecbe2	0.00027236255
194	0xb8a7d824	-8.00344e-05
195	0x39efa6df	0.0004570996
196	0xb8f813ff	-0.00011829286
197	0xb92f6aa9	-0.00016729035
198	0x39750859	0.0002336813
199	0x3a05b786	0.00051008945
200	0xba080a9b	-0.00051895686
201	0xba9c09c2	-0.0011904764
202	0x388de0d1	6.765279e-05
203	0xba0219de	-0.0004962961
204	0x3a307d2a	0.0006732518
205	0xb9e4612b	-0.00043559945
206	0x3a77ca7f	0.00094524765
207	0xb97e520c	-0.00024253892
208	0x394fbb0d	0.0001981074
209	0x3ab391b5	0.001370004
210	0xbaa3acc4	-0.0012487401
211	0xb9bb1f5c	-0.00035690784
212	0xba772b7d	-0.00094287825
213	0x3b301d02	0.0026872759
214	0x3997975b	0.00028913733
215	0x3acaa57d	0.0015460696
216	0x39766d39	0.00023501077
217	0xba634e5b	-0.00086710387
218	0xb89b0a5c	-7.3929055e-05
219	0xb8e60899	-0.00010968856
220	0xba6e23b0	-0.00090842973
221	0x39273a44	0.00015948067
222	0x3a40fb04	0.0007361623
223	0xba9a3079	-0.0011763714
224	0xb897b4a7	-7.23389e-05
225	0x39ad2a12	0.00033028476
226	0x3a33ccd2	0.0006858829
227	0xb78c7c45	-1.6747168e-05
228	0xbadc0e5c	-0.0016788947
229	0xb9a69ab1	-0.0003177724
230	0xba15b66f	-0.00057110836
231	0xba0c4e6d	-0.00053522625
232	0x390a1159	0.00013167168
233	0xb82c32df	-4.1055373e-05
234	0x39491516	0.00019176709
235	0x399845b8	0.00029043644
236	0x39c8a347	0.00038268624
237	0xbb3070cc	-0.00269227
238	0xb91f4374	-0.0001518855
239	0xba802c49	-0.0009778823
240	0x39c843a6	0.00038197375
241	0xba559d18	-0.0008148714
242	0x3ac7939a	0.0015226484
243	0xba64c44c	-0.000872676
244	0xba49a3a6	-0.0007691927
245	0xba0e2cec	-0.0005423564
246	0xb9ba1fd2	-0.00035500393
247	0xba9c86c8	-0.0011942023
248	0x39f2f037	0.0004633681
249	0x3a8237e5	0.0009934871
250	0xba92089b	-0.0011141481
251	0x39b7b1bb	0.000350369
252	0xbb35ddf6	-0.0027750707
253	0x3a64b2ba	0.0008724142
254	0xbb147af7	-0.00226563
255	0x3a056146	0.0005088042

exp_avg_sq f4 [24, 24]
0	0x36d5daf3	6.3733837e-06
1	0x37812181	1.53936e-05
2	0x3782f7e7	1.5612646e-05
3	0x364369ac	2.9118773e-06
4	0x36c5c031	5.8934315e-06
5	0x35d1a3db	1.5619402e-06
6	0x36715a7b	3.5964465e-06
7	0x3684cf5a	3.9580455e-06
8	0x37878f57	1.6160002e-05
9	0x36135155	2.1952048e-06
10	0x377895ee	1.481686e-05
11	0x36e8ff9d	6.943896e-06
12	0x389084af	6.891169e-05
13	0x36ad37c3	5.1622933e-06
14	0x37045027	7.886475e-06
15	0x35afc808	1.3096733e-06
16	0x37164f42	8.95915e-06
17	0x36816978	3.8567778e-06
18	0x369aa307	4.6085365e-06
19	0x3666e960	3.4408513e-06
20	0x383a7800	4.4457614e-05
21	0x38d4f581	0.000101546764
22	0x369223d7	4.3553114e-06
23	0x392934e5	0.000161368
24	0x371a1fc7	9.186514e-06
25	0x376a0d02	1.39505155e-05
26	0x37ded4ad	2.6563497e-05
27	0x36ac1a6e	5.1290763e-06
28	0x37701514	1.4310022e-05
29	0x39108380	0.00013781898
30	0x37cd7d99	2.449639e-05
31	0x38b83a6b	8.784685e-05
32	0x363dcab5	2.8281186e-06
33	0x38d62834	0.000102118036
34	0x36654f86	3.4169948e-06
35	0x376074b3	1.3378612e-05
36	0x3921829d	0.00015402814
37	0x3734bc9b	1.0772749e-05
38	0x3964b8af	0.00021812574
39	0x37de7a70	2.6521477e-05
40	0x380ecb2f	3.4044668e-05
41	0x37f7c5f1	2.9536868e-05
42	0x37e2022d	2.6942313e-05
43	0x36921df5	4.3546265e-06
44	0x36409622	2.8697618e-06
45	0x3a3606cc	0.0006943762
46	0x3751c39d	1.25029155e-05
47	0x39460689	0.00018885186
48	0x35ad9e89	1.2935644e-06
49	0x36055d7c	1.987296e-06
50	0x35714140	8.987445e-07
51	0x359448e8	1.1048078e-06
52	0x375d88ed	1.3204507e-05
53	0x361723ba	2.252155e-06
54	0x369e7285	4.7220988e-06
55	0x374a35d0	1.2052667e-05
56	0x36c51232	5.8731757e-06
57	0x36e7df50	6.9103335e-06
58	0x36d76350	6.419061e-06
59	0x3536f148	6.8151394e-07
60	0x37f60d3a	2.9331644e-05
61	0x36a75a68	4.9875125e-06
62	0x3782a4e0	1.5573984e-05
63	0x36ddaa0b	6.606109e-06
64	0x35686f80	8.658899e-07
65	0x379109dd	1.728994e-05
66	0x34992398	2.852437e-07
67	0x350a309a	5.147973e-07
68	0x35a4280e	1.223061e-06
69	0x38bb994d	8.945409e-05
70	0x34efe014	4.4680257e-07
71	0x378022a4	1.527492e-05
72	0x3782d094	1.5594334e-05
73	0x388e6c38	6.791245e-05
74	0x37acfb34	2.0620973e-05
75	0x361909d5	2.28045e-06
76	0x36b8f227	5.5118176e-06
77	0x37f645df	2.9358021e-05
78	0x36423ff6	2.8945483e-06
79	0x3893c37d	7.045919e-05
80	0x373d17f9	1.1270859e-05
81	0x37c0b1fd	2.2971066e-05
82	0x370555cb	7.947393e-06
83	0x378b3eaa	1.6599271e-05
84	0x388f59ac	6.835474e-05
85	0x367057f3	3.581398e-06
86	0x37156225	8.903943e-06
87	0x387b4869	5.99105e-05
88	0x386a4200	5.5851415e-05
89	0x37bd3661	2.2555878e-05
90	0x379c2ab6	1.8616538e-05
91	0x36631803	3.3839613e-06
92	0x37554937	1.2712836e-05
93	0x394cf3b4	0.00019545743
94	0x375fff35	1.3351256e-05
95	0x39979c99	0.0002891764
96	0x369c9a4d	4.6671253e-06
97	0x3592ec61	1.0946643e-06
98	0x3640d4c3	2.8734073e-06
99	0x370863c9	8.129465e-06
100	0x36df8e06	6.6624516e-06
101	0x3702678c	7.772713e-06
102	0x36cef808	6.168153e-06
103	0x35edf556	1.7729278e-06
104	0x35c015bb	1.4311439e-06
105	0x3695c53a	4.4635062e-06
106	0x3688478a	4.061444e-06
107	0x3744f98b	1.1740612e-05
108	0x38093e16	3.2721167e-05
109	0x35e9eeb6	1.7429327e-06
110	0x36f5fd80	7.3310803e-06
111	0x36bfa0ff	5.710986e-06
112	0x371d54fb	9.377715e-06
113	0x3672f8ed	3.6205704e-06
114	0x371498bd	8.85705e-06
115	0x37259cdc	9.871288e-06
116	0x371d10aa	9.361809e-06
117	0x38929771	6.990031e-05
118	0x35f8c184	1.853376e-06
119	0x3823ffaf	3.9100352e-05
120	0x384d1e8c	4.8904258e-05
121	0x386fe274	5.719294e-05
122	0x37e92c1c	2.7796304e-05
123	0x36c0177d	5.7247803e-06
124	0x37ab6d19	2.0435591e-05
125	0x37605452	1.3371073e-05
126	0x38cf8c35	9.896645e-05
127	0x38a61f63	7.921343e-05
128	0x36cef789	6.1680953e-06
129	0x387cd24d	6.027734e-05
130	0x37278d5d	9.986889e-06
131	0x37218643	9.627608e-06
132	0x3832f253	4.266419e-05
133	0x375523cd	1.2704125e-05
134	0x3803fc3f	3.1467756e-05
135	0x36d35f03	6.299351e-06
136	0x38990084	7.2957046e-05
137	0x377cbd86	1.5064497e-05
138	0x370cdc57	8.395952e-06
139	0x36e594d6	6.8420586e-06
140	0x379c082a	1.860045e-05
141	0x39d671d4	0.0004090207
142	0x36fee890	7.5968637e-06
143	0x39e544a6	0.0004372943
144	0x371b33ee	9.250811e-06
145	0x3690173c	4.2942393e-06
146	0x36161655	2.236474e-06
147	0x35c4e6e9	1.4670342e-06
148	0x36bc050c	5.603424e-06
149	0x376fb8d5	1.4288545e-05
150	0x365ef05e	3.322049e-06
151	0x3822ef0b	3.8846436e-05
152	0x36d08e00	6.215414e-06
153	0x379dc1e4	1.8806146e-05
154	0x37913141	1.7308283e-05
155	0x380679ff	3.2061707e-05
156	0x37e6dc20	2.752064e-05
157	0x36c016c5	5.7246966e-06
158	0x376c8f1e	1.4100018e-05
159	0x3604b517	1.977494e-06
160	0x37c0e7d0	2.299613e-05
161	0x36669957	3.4361926e-06
162	0x37e80401	2.765842e-05
163	0x370feba0	8.578325e-06
164	0x374e2c5d	1.2288886e-05
165	0x38d89d21	0.0001032895
166	0x3767fbe3	1.382732e-05
167	0x394b4060	0.0001938357
168	0x3793b6d9	1.760891e-05
169	0x36f7454e	7.3692418e-06
170	0x379d15fc	1.8726096e-05
171	0x37f5ddd5	2.9309575e-05
172	0x37820fc7	1.5504555e-05
173	0x384796b8	4.7585665e-05
174	0x3802428e	3.10564e-05
175	0x3885d34f	6.3812935e-05
176	0x37450b4b	1.1744744e-05
177	0x37176217	9.02314e-06
178	0x3725705d	9.860928e-06
179	0x37f0bc82	2.869801e-05
180	0x397fde84	0.00024401589
181	0x37828e0f	1.5563359e-05
182	0x367cc657	3.7666375e-06
183	0x36d30e31	6.289942e-06
184	0x39117db3	0.00013875104
185	0x379020bc	1.718138e-05
186	0x38ba3e77	8.880806e-05
187	0x36c4836a	5.856554e-06
188	0x372c2003	1.0259452e-05
189	0x3a24d7ce	0.0006288261
190	0x37eb872f	2.8077133e-05
191	0x3a06955a	0.00051339495
192	0x37070126	8.046894e-06
193	0x37a1ed2b	1.9303136e-05
194	0x3809ff23	3.290096e-05
195	0x373773d5	1.0934619e-05
196	0x36d7d106	6.431833e-06
197	0x38224095	3.8683957e-05
198	0x375d3f33	1.3187341e-05
199	0x38324bc2	4.2509062e-05
200	0x37bdbaaf	2.2617487e-05
201	0x388d50f3	6.738482e-05
202	0x36a001f0	4.768597e-06
203	0x37e227f7	2.695991e-05
204	0x38110757	3.457753e-05
205	0x381f3569	3.7958296e-05
206	0x3813a415	3.5200344e-05
207	0x36c967c3	6.0023463e-06
208	0x36fdd2f0	7.564544e-06
209	0x3887efd0	6.48197e-05
210	0x380c9219	3.3514665e-05
211	0x3721461a	9.61267e-06
212	0x377b424d	1.4976203e-05
213	0x39a3b0d6	0.00031221536
214	0x37017467	7.716101e-06
215	0x39b45907	0.00034398606
216	0x36c086a1	5.7377188e-06
217	0x38299775	4.0433795e-05
218	0x36e6732e	6.867943e-06
219	0x3772e94a	1.4478641e-05
220	0x381d692d	3.752967e-05
221	0x37ca329d	2.4103845e-05
222	0x38274f70	3.9889885e-05
223	0x38e7e50f	0.00011057604
224	0x3737c94b	1.0954517e-05
225	0x377d4479	1.5095918e-05
226	0x381c26e4	3.7229518e-05
227	0x3699760a	4.573497e-06
228	0x39cb7125	0.00038803476
229	0x36ecc239	7.0559586e-06
230	0x37c78e3f	2.3788887e-05
231	0x3772651f	1.4447868e-05
232	0x3736baf0	1.089157e-05
233	0x3738ed28	1.1022472e-05
234	0x3717ee32	9.0557605e-06
235	0x373db973	1.1308456e-05
236	0x3741bfa3	1.1548315e-05
237	0x3a88eea6	0.0010447099
238	0x3689692f	4.095163e-06
239	0x38e4025c	0.00010872327
240	0x3767f3f5	1.3825474e-05
241	0x3813b29b	3.521387e-05
242	0x384ccbb3	4.88271e-05
243	0x379b93cf	1.8546269e-05
244	0x3791dd8a	1.738851e-05
245	0x3779ffd4	1.4901121e-05
246	0x379331ab	1.7546894e-05
247	0x382e5889	4.1567288e-05
248	0x371e20fc	9.425214e-06
249	0x37b710bf	2.1823098e-05
250	0x3819b47b	3.6646128e-05
251	0x37d09816	2.4866353e-05
252	0x39965348	0.0002867228
253	0x37e48564	2.7241833e-05
254	0x389e0c7a	7.536351e-05
255	0x37ea1623	2.7905282e-05

exp_avg f4 [24]
0	0x367f76f3	3.8067199e-06
1	0x3953b56e	0.00020190116
2	0xb72d8c95	-1.0344335e-05
3	0x38e5c5d1	0.00010956417
4	0xb8d0a23d	-9.948432e-05
5	0xb9cec675	-0.00039439244
6	0xb67cc97b	-3.7668203e-06
7	0xb8f83f60	-0.00011837366
8	0xb95dcddc	-0.00021152891
9	0x394812fd	0.0001908056
10	0x391406fe	0.00014116985
11	0x39111cb6	0.00013838973
12	0x380c2104	3.340935e-05
13	0xba3fa730	-0.00073109847
14	0xb8acba22	-8.236269e-05
15	0x3814648b	3.5379588e-05
16	0x3a375f3a	0.0006995086
17	0x39edf6a7	0.00045387933
18	0x396fefd3	0.00022882158
19	0x3905b7a8	0.00012752286
20	0x3b1a94c6	0.002358721
21	0x3b4caec3	0.0031232096
22	0xba281933	-0.00064124464
23	0xbbb5fa13	-0.005553493

exp_avg_sq f4 [24]
0	0x356491c6	8.5148747e-07
1	0x364cafb4	3.0500642e-06
2	0x34cae665	3.7793066e-07
3	0x35e8fcaa	1.7358882e-06
4	0x353397e0	6.6903704e-07
5	0x36362bde	2.7145647e-06
6	0x3583b45b	9.812751e-07
7	0x3681256a	3.848855e-06
8	0x36162f9c	2.2379454e-06
9	0x36f3335c	7.2479434e-06
10	0x362ba73d	2.557833e-06
11	0x36f06e64	7.1654085e-06
12	0x362434b3	2.446858e-06
13	0x3792fc4a	1.7522038e-05
14	0x3616fe53	2.2499778e-06
15	0x36159643	2.2290194e-06
16	0x36d28560	6.2740146e-06
17	0x36bb3696	5.579389e-06
18	0x373d42cb	1.1280829e-05
19	0x38c845e2	9.54976e-05
20	0x385e95a7	5.30683e-05
21	0x38801024	6.106522e-05
22	0x38f22297	0.00011545902
23	0x3915d421	0.00014288771
