models/preliminary_results_models/RaceMultiOutputModeltvt3v1/model.pt (torch, 520687 bytes, 18 tensors)

fc1.weight f4 [128, 240]
0	0x3a65ab2a	0.0008761162
1	0x3c787f10	0.015167013
2	0xbd0016bf	-0.031271692
3	0xbd2837dd	-0.0410689
4	0xbd7af571	-0.061269227
5	0xbd858f1b	-0.06521436
6	0x3d1bf6a2	0.038077004
7	0x3d121a7d	0.035669792
8	0x3c472cad	0.012156648
9	0x3d1dde18	0.038541883
10	0xbc983c41	-0.018583419
11	0xbd0d1e21	-0.03445256
12	0xbd831bd1	-0.0640179
13	0xbd7d9ee0	-0.061919093
14	0x3d288d29	0.041150246
15	0xbd36ae19	-0.044599626
16	0xbd7666c9	-0.060156617
17	0xbcdfc501	-0.027315618
18	0xba0cd04a	-0.00053716137
19	0xbc62f3d4	-0.0138520785
20	0xbd5aabec	-0.053386614
21	0xbd364410	-0.044498503
22	0xbd422ffb	-0.04740904
23	0xbd642e87	-0.055708434
24	0xbd23c8ae	-0.039986305
25	0x3b09e177	0.0021038929
26	0x3d0f5e50	0.035002053
27	0xbc300461	-0.0107432315
28	0xbcc6d9ce	-0.02427378
29	0x3c826638	0.015917882
30	0xbb3a6019	-0.0028438626
31	0x3d19e8c7	0.03757551
32	0xbd8d4efd	-0.068998314
33	0x3cbbc533	0.02292118
34	0x3c5b0a48	0.01336915
35	0xbd69c7a0	-0.057075143
36	0x3ceb10c7	0.028694523
37	0x3d4df9fc	0.05028723
38	0xbd6456ea	-0.05574695
39	0x3ce5f43a	0.028070558
40	0xbd0bcfa1	-0.034133557
41	0xbc8d6c5f	-0.01726359
42	0xbd2abe8c	-0.041685626
43	0x3d2fe94e	0.042947106
44	0x3d065141	0.032792334
45	0x3c80d0c3	0.015724545
46	0xbcba3d08	-0.02273418
47	0xbc9f8188	-0.019470945
48	0xbccb8a55	-0.024846235
49	0x3cb24f52	0.021766338
50	0x3d313132	0.043259807
51	0x3ce6f6f1	0.028193923
52	0x3d26e5a9	0.040746365
53	0x3cefdd12	0.02928022
54	0xbae1c33e	-0.0017224324
55	0x3d270130	0.040772617
56	0x3b7c5cef	0.0038507541
57	0xbce9f703	-0.028560167
58	0xbd8e977f	-0.06962489
59	0x3d3b6104	0.04574682
60	0xbbadf2b7	-0.005308475
61	0xbce25480	-0.027628183
62	0xbce17b96	-0.02752475
63	0x3bcacef2	0.0061892206
64	0xbca78957	-0.02045123
65	0xbd42e950	-0.047585785
66	0xbd4f60f3	-0.050629567
67	0x3d3672b5	0.044542987
68	0x3d115fb3	0.035491657
69	0xbd6f1495	-0.058369238
70	0xbc02cb89	-0.007983097
71	0xbcd301c8	-0.025757685
72	0xbd18b5ed	-0.037282873
73	0x3d1c98da	0.038231708
74	0x3d35386d	0.044243265
75	0x3d34b10a	0.04411415
76	0xbd7444e3	-0.059636008
77	0x3d597877	0.0530934
78	0x3c91cf9a	0.017799187
79	0xbbafe47e	-0.0053678146
80	0x3d378a12	0.04480941
81	0xbcd1990d	-0.025585676
82	0xbd0eab38	-0.034831256
83	0x3d29a873	0.04142041
84	0xbd1bd1e1	-0.038041953
85	0xbd1bab43	-0.038005125
86	0x3d3bc219	0.045839403
87	0x3c1978ec	0.009367209
88	0xbd189f4c	-0.037261292
89	0x3c8e4715	0.017367879
90	0xbd722871	-0.0591206
91	0xbd40cb27	-0.04706874
92	0xbcb15a6e	-0.021649566
93	0x3d20c932	0.039254375
94	0xbd489117	-0.048966493
95	0xbc6ba781	-0.014383198
96	0x3c814ec8	0.015784636
97	0xbcd44f63	-0.02591676
98	0xbd37951e	-0.044819944
99	0x3d0d2a43	0.034464132
100	0x3d5e7476	0.054310285
101	0x3d066572	0.03281159
102	0x3c23c4a0	0.0099956095
103	0xbbee5d0b	-0.007274275
104	0x3d4d5f11	0.05013949
105	0xbb44a76d	-0.003000702
106	0xbd96208a	-0.07330425
107	0x3d157013	0.036483835
108	0xbd006c97	-0.03135356
109	0xbc87ba0d	-0.016568208
110	0x3d2907a9	0.04126707
111	0x3cdfb6ff	0.027308939
112	0x3ab99c89	0.0014161031
113	0xbadcc008	-0.0016841898
114	0x3ccb3ddc	0.02480977
115	0xbd8cbecc	-0.06872329
116	0x3ce05637	0.02738486
117	0x3cbc6fe5	0.023002574
118	0xbc477974	-0.012174953
119	0x3d5c5ef8	0.053801507
120	0xbd104a09	-0.035226855
121	0xbcfae197	-0.030625148
122	0xbd18c3bc	-0.03729604
123	0xbd8cda9a	-0.068776324
124	0x3c8259f4	0.015912034
125	0x3cff0a5d	0.031132871
126	0xbd8b2f49	-0.06796128
127	0xbd00e08d	-0.03146415
128	0x3cc84675	0.024447659
129	0xbd881978	-0.06645483
130	0x3d20b417	0.039234247
131	0xbb852922	-0.0040637413
132	0xbd307a10	-0.043085158
133	0x3d4b0b59	0.04957137
134	0x3c645d14	0.013938207
135	0xbd80f6ba	-0.06297059
136	0x3cdd9850	0.027050167
137	0x3d365763	0.044516932
138	0xbd900886	-0.07032876
139	0xbd79fcb3	-0.06103201
140	0xbcabfabd	-0.020993585
141	0xbd216f22	-0.039412625
142	0x3ca054ed	0.019571746
143	0x3d01c227	0.0316793
144	0xbce407fb	-0.027835837
145	0xbd51df6b	-0.05123846
146	0x3c67c6aa	0.014146486
147	0x3ce8bfc6	0.028411757
148	0x3ca627e1	0.020282688
149	0x3cc166db	0.023608616
150	0xbc6b73ee	-0.0143709015
151	0x3d4e229e	0.050325982
152	0xbc3fb247	-0.0117002195
153	0x3c11b70f	0.008893742
154	0x3d11ab8d	0.035563994
155	0xbced1573	-0.028940892
156	0xbbbf1193	-0.0058309524
157	0x3d59a8bd	0.053139437
158	0x3c09e1a2	0.008415611
159	0x3baf7981	0.0053550606
160	0xbd5d77f3	-0.05406947
161	0x3d0e36bb	0.034720164
162	0xbd085212	-0.033281393
163	0x3d08dc28	0.033413082
164	0x3cce3594	0.025172032
165	0x3d528911	0.051400248
166	0x3d05f2e1	0.03270233
167	0x3cfed798	0.031108662
168	0xbc9984c1	-0.01874006
169	0x3d194105	0.037415523
170	0xbcc69531	-0.024241062
171	0xbd88ae32	-0.0667385
172	0xbd076149	-0.033051763
173	0x3c65ca0c	0.0140252225
174	0xbc4334d4	-0.011914451
175	0xbb9d2d7b	-0.0047966815
176	0xbd7b7839	-0.06139395
177	0x3c165c0a	0.009177217
178	0xbcb1682d	-0.02165612
179	0x3c7a2d27	0.015269554
180	0xbd269e02	-0.04067803
181	0x3cf1d404	0.029520042
182	0xbd4f34a9	-0.05058733
183	0x3b880564	0.0041510332
184	0xbd1529ba	-0.036416747
185	0xbd893d4a	-0.06701143
186	0xbbfe07db	-0.0077524013
187	0x3cf37e44	0.029723294
188	0xbd94e02f	-0.07269322
189	0xbce5b699	-0.02804117
190	0xbd596841	-0.05307794
191	0xbd36d722	-0.04463876
192	0x3c95898f	0.01825407
193	0x3d4d7265	0.050157923
194	0x3d446b9d	0.04795419
195	0x3b9711d5	0.00461028
196	0xbad5b2bd	-0.0016303879
197	0xbd30e5dd	-0.043187965
198	0xbc936fa9	-0.01799758
199	0x3cb113f2	0.021615956
200	0x3c2a14b1	0.01038091
201	0xbd733a90	-0.05938202
202	0x3c56fc75	0.013121714
203	0xbc10fbf5	-0.008849134
204	0x3d10e4e9	0.035374556
205	0xbd77507b	-0.060379487
206	0xbd079283	-0.03309871
207	0xba93511e	-0.0011239385
208	0xbd51dd1c	-0.051236257
209	0x3d0303a5	0.031985898
210	0x3b81935b	0.0039543337
211	0x3b8c0c9a	0.004273963
212	0xbd52e421	-0.051487092
213	0x3d574e59	0.052564953
214	0x3b9b5059	0.004739803
215	0xbce5b8f8	-0.028042302
216	0x3d052ff1	0.032516424
217	0xbd735405	-0.0594063
218	0xbd0f1941	-0.034936193
219	0xbbe25c04	-0.006907942
220	0xbd429ffb	-0.04751585
221	0xbc820ff5	-0.01587675
222	0xbcf93b00	-0.030423641
223	0x3d37ea2b	0.044901054
224	0xbd1a270b	-0.03763489
225	0x3ca5f626	0.020258974
226	0xbcf53794	-0.029933728
227	0x3c89f72e	0.016841497
228	0xbcb9ee24	-0.022696562
229	0xbd156a41	-0.036478285
230	0x3d09f791	0.033683363
231	0xbbd846d3	-0.00660024
232	0xbd71eed1	-0.059065644
233	0xbcf5191e	-0.029919203
234	0xbc572237	-0.013130716
235	0xbc2884e6	-0.010285592
236	0x3cb53e86	0.02212454
237	0xbd8b6e09	-0.06808097
238	0xbcac40aa	-0.021026928
239	0xbd119ba1	-0.03554881
240	0x3d62a91a	0.05533705
241	0xbae1d3c3	-0.0017229248
242	0xbce98388	-0.028505102
243	0xbc420f2b	-0.011844437
244	0xbd2f61e4	-0.042817965
245	0x3d437a26	0.04772391
246	0xbd6834eb	-0.05669109
247	0x3cbdf566	0.023188304
248	0x3c9bf584	0.01903797
249	0xbd598e4e	-0.053114228
250	0xbce58357	-0.02801673
251	0xbd228c19	-0.03968439
252	0xbd02a4f9	-0.03189561
253	0x3d731869	0.05934945
254	0x3bd4fb6c	0.0064996984
255	0x3d80036a	0.06250651

fc1.bias f4 [128]
0	0xbc9266bc	-0.017871253
1	0xbcfbd30d	-0.030740285
2	0x3d837195	0.064181484
3	0xbc91cbf3	-0.017797446
4	0x3d25c4a0	0.04047072
5	0x3d8d4636	0.06898157
6	0x3d7101ef	0.058839735
7	0x3d67371a	0.056449033
8	0x3d1e4f91	0.0386501
9	0xbca4e045	-0.020126471
10	0xbc9d62e9	-0.019212203
11	0xbc5dcea2	-0.013538035
12	0x3d42ac6b	0.04752771
13	0x3c8baa04	0.017048843
14	0xbd5e13ea	-0.05421821
15	0x3badc235	0.0053026923
16	0xbc9aa286	-0.018876325
17	0xbcd73b4d	-0.026273394
18	0xbc49a368	-0.0123070255
19	0xbd0dfe0f	-0.034666117
20	0x3d1f7fde	0.038940303
21	0x3c4b46a8	0.0124069825
22	0xbd36dd23	-0.044644486
23	0xbd52179e	-0.051292054
24	0x3d26a5ca	0.040685453
25	0x3d016b48	0.031596452
26	0xbd0b06bf	-0.03394198
27	0x3d9696d1	0.07352985
28	0x3d4381e6	0.047731303
29	0x3d45753b	0.048207503
30	0x3d1e9a7e	0.038721554
31	0x3d51067d	0.05103158
32	0x3b06214c	0.0020466624
33	0xbd17056d	-0.03687041
34	0xbd407a0d	-0.046991397
35	0x3d8c46c7	0.06849437
36	0xbbd31aa2	-0.006442384
37	0x3cc9110e	0.024544265
38	0xbc8a9978	-0.016918883
39	0xbcffab23	-0.031209534
40	0xbd22ebfd	-0.039775837
41	0x3daa760c	0.08323297
42	0xbb18204a	-0.0023212605
43	0x3d10af08	0.035323173
44	0x3d40f2e5	0.047106642
45	0x3d5f79ca	0.054559506
46	0x3cbb232a	0.022843916
47	0x3d300b06	0.042979263
48	0x3d2e60c7	0.042572763
49	0xbd681091	-0.056656424
50	0x3d87a6db	0.06623622
51	0xbd08f8f6	-0.033440553
52	0xbcd96bc6	-0.026540648
53	0xbc443b44	-0.011977021
54	0x3bd3cd22	0.0064636627
55	0xbc83d10a	-0.016090889
56	0xbcf64cfa	-0.030066002
57	0x3d1f0144	0.038819566
58	0x3d67e93d	0.056618918
59	0x3cd585ff	0.02606487
60	0x3c8bca2f	0.017064182
61	0x3d1768c3	0.036965143
62	0x3d203045	0.039108533
63	0xbd04c1eb	-0.032411497
64	0xbd00d3fe	-0.03145217
65	0xbc64ab38	-0.013956837
66	0x3d702e52	0.058637924
67	0x3d3fdd98	0.046842188
68	0xbd4d1f7d	-0.050078858
69	0x3cad7f56	0.021178883
70	0xbcd6c9d5	-0.026219288
71	0xbd1cf4ce	-0.0383194
72	0xba726500	-0.00092466176
73	0xbcd770d0	-0.02629891
74	0x3d849c7e	0.06475161
75	0xbcbd1ab2	-0.023084018
76	0x3d3af35a	0.045642234
77	0xbd0b34c6	-0.033985876
78	0x3cb07f9d	0.021545226
79	0xbcb2aa98	-0.021809861
80	0x3cc08bac	0.0235041
81	0x3c42df3f	0.011894046
82	0xbd1b6dc4	-0.037946478
83	0x3c1480ed	0.009063941
84	0x3d248f83	0.040175926
85	0x3cd3221d	0.025773102
86	0x3e0750a8	0.13214362
87	0x3d17b0c5	0.037033815
88	0x3cf0ef62	0.029411022
89	0x3d8d3df7	0.068965845
90	0xbc7856c4	-0.015157405
91	0x3d4c1ea1	0.049833898
92	0xbc32bcb7	-0.010909251
93	0x3dafef6c	0.08590588
94	0x3d0771a2	0.033067353
95	0x3d66bdb0	0.056333244
96	0x3d36685a	0.04453311
97	0x3ca74160	0.020416915
98	0xbd0a3048	-0.03373745
99	0x3d32d5b6	0.043660842
100	0xbd0c8b8e	-0.034312777
101	0x3d507930	0.050896823
102	0x3d08a898	0.03336391
103	0x3c3d9edc	0.01157352
104	0x3d70a13c	0.058747515
105	0x3bbe4fc5	0.005807849
106	0x3cbe608c	0.023239397
107	0x3d5f4cdd	0.054516662
108	0x3d125f97	0.035735693
109	0xbd3ef3bd	-0.046619166
110	0x3d4add26	0.04952731
111	0xbc43628d	-0.011925352
112	0x3c8453d4	0.016153254
113	0x3d3f40f4	0.046692804
114	0x3ccb24c8	0.024797812
115	0x3cafa97c	0.021443121
116	0xbc457a17	-0.012053034
117	0xbcebcffd	-0.0287857
118	0x3d979824	0.074020654
119	0xbc6ad816	-0.014333745
120	0x3cf31494	0.029672898
121	0x3d82ba95	0.06383244
122	0xbd5ee5d5	-0.054418404
123	0xbc10f303	-0.008847001
124	0x3d17d367	0.037066843
125	0x3d1b46a0	0.03790915
126	0x3cf1fa0a	0.029538173
127	0x3cc27d70	0.023741454

fc2.weight f4 [64, 128]
0	0x3c3b5387	0.011433489
1	0xbcc1289b	-0.023578933
2	0x3d39f646	0.04540088
3	0x3d9d735e	0.0768802
4	0xbd3b2fbe	-0.045699827
5	0x3c606a86	0.013697272
6	0x3d9ec8b9	0.077531286
7	0x3d115286	0.03547909
8	0x3cceb24f	0.025231509
9	0x3bd124cb	0.00638256
10	0xbcfc3701	-0.030787947
11	0x3dab052f	0.08350598
12	0xbcb244c9	-0.021761315
13	0x3d82cf71	0.063872226
14	0x3dbba912	0.09163107
15	0x3d3b9906	0.04580023
16	0x3cbe8a27	0.023259236
17	0xbd1706a8	-0.036871582
18	0x3c9c27dc	0.019061975
19	0x3cb51802	0.022106174
20	0xbaeba6c0	-0.0017978773
21	0x3d03c816	0.03217324
22	0x3d849399	0.064734645
23	0x3d5e82f2	0.054324098
24	0xbc8158d4	-0.015789427
25	0xbd117bbe	-0.0355184
26	0x3c3fe042	0.011711182
27	0x3cadd6e2	0.021220628
28	0xbdaeb0ca	-0.085298136
29	0x3a0da491	0.00054032454
30	0x3b7ac064	0.0038261646
31	0xbbb84ba6	-0.0056242524
32	0x3d3891d2	0.04506094
33	0x3d8db8e5	0.069200315
34	0x3d8d57c7	0.06901508
35	0xbd9c0243	-0.07617619
36	0xbd217316	-0.039416395
37	0xbda13941	-0.078722484
38	0xbd811007	-0.06301885
39	0xbd407b40	-0.04699254
40	0x3d817f2f	0.063230865
41	0xbd168cce	-0.036755376
42	0xbc8c0bd8	-0.017095491
43	0xbcaf1813	-0.021373784
44	0x3d9811d2	0.07425274
45	0x3d90bf4f	0.07067739
46	0x3d4a9fc0	0.049468756
47	0x3d7a71d2	0.061143704
48	0x3d871e87	0.065976195
49	0x3d33156d	0.043721605
50	0xbda50adf	-0.08058714
51	0xbc990c39	-0.018682586
52	0xbd8e38cc	-0.06944427
53	0x3c58c229	0.013229885
54	0x3da78cf6	0.08181183
55	0xbb1d086a	-0.0023961314
56	0xbd6e8d5a	-0.058240272
57	0x3dbeb819	0.093124576
58	0x3c8624bd	0.01637494
59	0x3d8c29d6	0.06843917
60	0xbd39300c	-0.045211837
61	0x3d0ee4a3	0.034886014
62	0xbbe9ef44	-0.0071391184
63	0xbd9b5544	-0.075846225
64	0x3d9123bd	0.07086895
65	0xbd8beec5	-0.06832651
66	0xbda8f871	-0.082505114
67	0xbd4905e7	-0.049077895
68	0x3cb52c04	0.022115715
69	0xbce495a8	-0.027903393
70	0x3c82646b	0.015917024
71	0xbd07a839	-0.033119414
72	0xbd102455	-0.0351909
73	0xbcc72a84	-0.024312265
74	0x3d03905a	0.032120086
75	0xbd3199a9	-0.043359432
76	0x3d766169	0.06015149
77	0xbd529a82	-0.05141688
78	0x3d97df7f	0.07415675
79	0x3d60f56e	0.05492156
80	0x3c1a7700	0.009427786
81	0x3d9ead31	0.077478774
82	0xbcb522d8	-0.022111341
83	0x3d9b8d5b	0.07595321
84	0x3dadfb6b	0.0849522
85	0x3d3c52f3	0.045977544
86	0xbcc3c192	-0.023896012
87	0x3b83298a	0.0040027546
88	0x3cf97268	0.030450061
89	0x3cf81d57	0.030287428
90	0x3d7d278e	0.0618053
91	0xbc1a624b	-0.009422849
92	0xbc9c0b24	-0.019048281
93	0x3d0a7401	0.033802036
94	0xbda73de7	-0.08166104
95	0xbd85a1b9	-0.06524987
96	0xbbb1c1e1	-0.0054247235
97	0x3c95a69c	0.018267922
98	0x3cf60bfc	0.030035011
99	0x3c51e07e	0.012809871
100	0x3da5359f	0.08066868
101	0x3c946fbe	0.01811969
102	0xbbb2eda3	-0.0054604574
103	0xbc2b24f4	-0.010445822
104	0x3bdb00c0	0.006683439
105	0xbc83c40b	-0.016084692
106	0xbbb0ec5b	-0.0053992695
107	0x3b0d4b45	0.0021559757
108	0x3d863898	0.06553763
109	0x3b61b1ac	0.0034438176
110	0xbca2c31e	-0.01986843
111	0x3c9557f4	0.018230416
112	0x3d0015ae	0.031270675
113	0xbd780739	-0.060553763
114	0xbd9b066b	-0.075695835
115	0x3d5b7806	0.05358126
116	0xbd051dda	-0.03249917
117	0xbd78a5e7	-0.06070509
118	0x3cf3bdb5	0.029753545
119	0x3d558774	0.05213113
120	0x3d51cb22	0.051219113
121	0xbd6ce537	-0.057835784
122	0x3db46743	0.08808758
123	0xbd9d9ea8	-0.07696277
124	0xbd0fce7e	-0.035109036
125	0xbd0386e9	-0.032111082
126	0x3cda2772	0.026630137
127	0xbd183c07	-0.03716662
128	0x3c30d0bc	0.010791954
129	0x3d923904	0.07139781
130	0x3d637bd6	0.05553802
131	0xbbd064de	-0.0063596806
132	0x3c761970	0.015020713
133	0xbef4eb76	-0.47835892
134	0x3caf5bf1	0.021406146
135	0xbd2988d2	-0.041390248
136	0xbea1f34a	-0.31630927
137	0xbdb4526b	-0.088047825
138	0x3ddd7385	0.10813049
139	0x3d88202a	0.0664676
140	0x3d68a2f7	0.05679604
141	0x3d7637f2	0.060111947
142	0xbba6c1b0	-0.0050890073
143	0x3baabd6e	0.00521057
144	0x3d8bdacc	0.068288416
145	0x3d66892e	0.05628317
146	0x3b026be0	0.0019900724
147	0xbbf79005	-0.0075550103
148	0xbd8276d2	-0.063703194
149	0x3d0ac880	0.033882618
150	0xbdb43183	-0.08798506
151	0x3db1f08f	0.08688461
152	0x3dc6a6f1	0.0969981
153	0xbd1e6230	-0.038667858
154	0x3ccd6333	0.025071716
155	0x3c259cc7	0.010108179
156	0xbc144ad1	-0.009051041
157	0xbd81a370	-0.06330001
158	0x3d9eb88b	0.077500425
159	0x3dbe1a4d	0.0928236
160	0xbd92213f	-0.071352474
161	0xbd71968b	-0.05898146
162	0x3d4fd8be	0.05074381
163	0x3dc1f312	0.0947019
164	0xbd30f7d3	-0.043205094
165	0x3d403b74	0.0469317
166	0x3cce76fc	0.02520322
167	0x3d839aa4	0.0642598
168	0x3da0bc11	0.07848371
169	0x3d81dd87	0.06341081
170	0xbd949bc8	-0.072562754
171	0x3daa1e12	0.08306517
172	0xbd7a8ed6	-0.061171375
173	0x3ce072a8	0.027398422
174	0xbcf13c8f	-0.029447822
175	0xbc342b40	-0.01099664
176	0x3dbae84e	0.0912634
177	0xbd4eab81	-0.050456528
178	0xbd08948b	-0.033344787
179	0x3d8c7cd5	0.06859747
180	0xbd6fcf19	-0.058547113
181	0x3d991df2	0.07476415
182	0x3df6f377	0.12058156
183	0xbc1cb665	-0.009564971
184	0x3d76cdc6	0.060254835
185	0x3b9943f1	0.0046772887
186	0x3d270c32	0.040783115
187	0x3d44d13d	0.048051108
188	0xbcc0fdc5	-0.023558507
189	0xbc998fda	-0.018745352
190	0x3bdb37ff	0.006690025
191	0x3d70e178	0.058808774
192	0x3cc6058c	0.024172567
193	0x3d8bea78	0.06831831
194	0x3d71e3c4	0.059055105
195	0x3a37c043	0.0007009545
196	0xbd8b2e89	-0.06795985
197	0x3cbf7047	0.023368968
198	0xbbd1abbd	-0.0063986466
199	0x3d9983c9	0.07495839
200	0x3ce92e64	0.028464504
201	0x3d811b35	0.063040175
202	0x3db566e8	0.088575184
203	0xbc6b4b10	-0.014361158
204	0xbd5c9c97	-0.053860273
205	0xbd7ce340	-0.06174016
206	0xbd8dac6c	-0.069176525
207	0xbd2609ec	-0.040536806
208	0x3c97df00	0.018538952
209	0x3d8eb5f1	0.06968296
210	0xbd84752b	-0.064676605
211	0x3d951416	0.07279222
212	0xbc8689ae	-0.016423073
213	0x3c28ac4a	0.010294983
214	0x3ea6f7cf	0.32610938
215	0x3d930930	0.07179487
216	0x3db517a2	0.08842398
217	0x3d80998a	0.06279285
218	0x3d700726	0.058600567
219	0x3d6986e7	0.05701342
220	0xbcc6d4bb	-0.02427136
221	0x3d8b7c26	0.06810789
222	0x3a7e309d	0.0009696575
223	0xbd5558da	-0.05208669
224	0x3bb408df	0.0054942216
225	0xbd30c3e2	-0.04315556
226	0xbd8a61a1	-0.067569025
227	0x3e011ca9	0.12608589
228	0x3dbd1bb2	0.09233798
229	0x3c021f28	0.007941999
230	0x3db76aaf	0.08955895
231	0x3d39af76	0.04533335
232	0xbd5ea2b1	-0.054354373
233	0xbd929c88	-0.07158762
234	0x3d31832b	0.043337982
235	0x3d088dec	0.033338472
236	0xbd02f4d3	-0.031971764
237	0xbc8e1ddc	-0.017348222
238	0x3e0337c6	0.12814245
239	0xbb2cf18b	-0.0026389088
240	0xbd7294f4	-0.059224084
241	0xbd63590c	-0.055504844
242	0x3d5f2b86	0.054484867
243	0x3da61467	0.0810936
244	0xbd95be33	-0.07311668
245	0xbcd28a73	-0.025700783
246	0x3ddceb3f	0.10787057
247	0xbd8410cc	-0.06448516
248	0xbc8c38d4	-0.017116942
249	0xbb24f346	-0.0025169416
250	0xbda25381	-0.07926083
251	0x3dc3ebbf	0.095664494
252	0xbd9cff59	-0.07665891
253	0xbe02b3b2	-0.12763861
254	0x3d3999e0	0.045312762
255	0xbd29358f	-0.041310843

fc2.bias f4 [64]
0	0xbd218b1e	-0.039439313
1	0xbc91770c	-0.017756961
2	0x3db7d55f	0.08976244
3	0x3d3ec8c4	0.046578184
4	0x3d8fe6be	0.070264325
5	0xbd6839fb	-0.05669592
6	0x3c8ef4d5	0.01745073
7	0x3de9af9f	0.1141045
8	0xbda0e08a	-0.078553274
9	0x3d932eac	0.07186636
10	0x3d073f24	0.0330192
11	0x3d92c245	0.0716596
12	0x3ccdb3d4	0.025110163
13	0x3dd4ffd6	0.10400359
14	0x3d019830	0.031639278
15	0x3c86e4f8	0.016466603
16	0xbd883022	-0.066498056
17	0xbcf01cba	-0.029310573
18	0x3d5bbc29	0.05364624
19	0x3ab100b4	0.0013504238
20	0x3dc13e58	0.09435719
21	0x3d86d077	0.0658273
22	0xbdb20f4b	-0.08694323
23	0xbc19d1ac	-0.009388369
24	0xbb7dce89	-0.003872784
25	0x3d79832d	0.060916115
26	0x3e0ac12c	0.13550252
27	0x3d55e7cb	0.052223008
28	0xbd1f3a1f	-0.038873788
29	0xbd78029a	-0.060549356
30	0x3ce74872	0.028232787
31	0xbd6bc92d	-0.057564903
32	0x3ba52e37	0.0050409096
33	0x3dba8442	0.091072574
34	0xbbe76c90	-0.007062502
35	0xbc34eaca	-0.011042306
36	0x3d2d1f7d	0.042266358
37	0x3d98fa8c	0.07469663
38	0x3c59d58e	0.013295544
39	0x3bbef1fb	0.005827186
40	0xbb6c3e29	-0.0036047793
41	0x3cd65fff	0.026168821
42	0xbd11099e	-0.035409562
43	0xbd1444e5	-0.036198515
44	0x3dbeb242	0.09311344
45	0xbd5d9b21	-0.05410302
46	0x3ddff995	0.10936276
47	0xbd10e249	-0.035372052
48	0xbcb12d61	-0.021628084
49	0xbcd7a12b	-0.026321968
50	0xbd63497d	-0.055490006
51	0x3d9abb5f	0.075552694
52	0x3dabebd9	0.08394594
53	0x3d55c6ec	0.05219166
54	0x3c68fa82	0.014219882
55	0x3bd6c216	0.0065538986
56	0xbc1cd357	-0.009571872
57	0x3cc8c111	0.024506124
58	0x3c9316f7	0.017955286
59	0xbd2875df	-0.041128036
60	0xbd06801c	-0.03283702
61	0x3cc5c384	0.02414108
62	0x3da54d08	0.08071333
63	0x3d73a086	0.05947926

fc3.weight f4 [24, 64]
0	0xbcbfa5aa	-0.023394424
1	0x3d5f2183	0.05447532
2	0xbb8bb8bb	-0.004263965
3	0xbcb01fee	-0.0214996
4	0x3d3c1a9c	0.045923814
5	0xbd9a2260	-0.07526088
6	0x3db90afd	0.09035299
7	0xbc823820	-0.015895903
8	0x3ce53c74	0.027982928
9	0x3d93fea5	0.07226304
10	0x3db627e4	0.08894327
11	0xbc20e3fa	-0.009819979
12	0xbdc8d038	-0.098053396
13	0xbdb2c6a6	-0.087292954
14	0x3bf12a20	0.007359758
15	0xbd2dba3d	-0.04241394
16	0x3de838df	0.11338972
17	0xbd80384c	-0.06260738
18	0x3b0addf6	0.0021189428
19	0xbdb32164	-0.08746603
20	0x3d5775d3	0.0526026
21	0xbd8d76ae	-0.06907402
22	0x3da497a7	0.08036738
23	0x3a3b4c04	0.0007144811
24	0x3da367cd	0.07978783
25	0x3ce39d90	0.027785093
26	0xbde43a39	-0.111439176
27	0xbd3b09a6	-0.0456635
28	0xbd3b40a9	-0.04571596
29	0x3a9e68fd	0.0012085732
30	0xbc47a7bb	-0.012185986
31	0x3cb86a3a	0.02251159
32	0x3e691a11	0.2276385
33	0x3d768d84	0.060193554
34	0xbd50ce78	-0.050978154
35	0xbdb94f2d	-0.09048305
36	0x3db10615	0.08643738
37	0x3d9b1a4f	0.07573377
38	0x3dd87f10	0.1057111
39	0xbcbe90ed	-0.023262465
40	0x3d7e183d	0.062034834
41	0xbd7bc19a	-0.06146393
42	0x3d519fbc	0.051177725
43	0xbd83a0ce	-0.064271554
44	0x3df638c6	0.120225474
45	0xbe063882	-0.13107494
46	0xbd938be8	-0.072044194
47	0x3dd501bd	0.10400722
48	0x3d9e1dc5	0.07720522
49	0xbe2d1d0b	-0.1690561
50	0xbe2ebf1c	-0.1706509
51	0x3ce0861c	0.027407698
52	0xbd4ead24	-0.05045809
53	0xbdff5143	-0.12466671
54	0xbdfa93bb	-0.122352086
55	0x3dd372b9	0.10324616
56	0xbdbda18d	-0.09259329
57	0xbdd57450	-0.104225755
58	0xbf3d3235	-0.73904735
59	0x3ca8cb44	0.020604737
60	0x3d812870	0.06306541
61	0x3ebd9474	0.37027323
62	0xbdc498d6	-0.09599464
63	0xbc84a347	-0.016191138
64	0xbcef663b	-0.029223552
65	0xbd475ed0	-0.048674405
66	0xbe03b720	-0.12862825
67	0x3e08bab0	0.13352466
68	0x3d2e17ac	0.042503044
69	0x3dc280fc	0.09497258
70	0xbd591661	-0.052999858
71	0xbcf9fd5d	-0.03051632
72	0xbdf3a621	-0.11896921
73	0xbdad8b8c	-0.08473882
74	0xbd91bfe9	-0.07116682
75	0x3ddc00c2	0.10742332
76	0xbe1e0e24	-0.15435082
77	0xbdc9b09d	-0.098481394
78	0xbdefea8c	-0.11714658
79	0x3dc71c2c	0.0972217
80	0x3d1e6520	0.03867066
81	0x3dc2a472	0.09504022
82	0xbd847c89	-0.06469066
83	0x3dea057b	0.114268266
84	0xbdafcf5b	-0.08584472
85	0xbd42815a	-0.04748664
86	0xbdf55992	-0.11979975
87	0xbd6dc223	-0.05804647
88	0x3dd04836	0.10170023
89	0xbe0296e3	-0.12752871
90	0x3bc649ab	0.0060512624
91	0x3cfc9ae4	0.030835576
92	0x3c9b6986	0.018971216
93	0xbdb12cee	-0.08651148
94	0x3dd83f37	0.10558932
95	0xbe03f043	-0.12884621
96	0x3e82531e	0.25454038
97	0xbe03b44d	-0.12861748
98	0x3de26ed6	0.110562965
99	0xbd686649	-0.05673817
100	0xbde1f406	-0.11032872
101	0xbcf7e18d	-0.030258918
102	0xbda6eb69	-0.0815037
103	0xbce5359f	-0.02797967
104	0x3d4d6360	0.0501436
105	0xbdb3d975	-0.08781711
106	0x3de97e7e	0.114010796
107	0xbd7b6e5c	-0.061384544
108	0xbdbfadb8	-0.09359306
109	0x3d2409b0	0.0400483
110	0xbd949afd	-0.07256124
111	0xbc7875fc	-0.015164848
112	0xbd72d848	-0.059288293
113	0x3e2fbb9d	0.17161413
114	0x3d010923	0.031502854
115	0xbc967c6d	-0.018369878
116	0xbdbd31ce	-0.09238015
117	0xbda10dc6	-0.07863955
118	0xbdc3bd4b	-0.09557589
119	0x3db5c3d2	0.088752404
120	0x3d8f3cd9	0.06994028
121	0x3d117337	0.035510268
122	0x3eab839a	0.33498842
123	0x3d87d3c2	0.066321865
124	0x3d332cbc	0.043743834
125	0xbdff61c1	-0.12469817
126	0xbe10872d	-0.14114065
127	0x3d4a64c3	0.0494125
128	0xbba20379	-0.0049442616
129	0x3b0586de	0.0020374577
130	0xbbf30e5a	-0.0074174823
131	0xbe79d8de	-0.24399135
132	0xbb831ceb	-0.00400125
133	0x3d847d52	0.064692155
134	0xbccf161d	-0.0252791
135	0xbca10552	-0.019655857
136	0xbcc17d7b	-0.023619404
137	0xbcaf8c77	-0.021429284
138	0x3c4c5c7e	0.012473224
139	0x3dd1268c	0.1021243
140	0xbdfbd086	-0.12295632
141	0xbc3517d5	-0.011053045
142	0x3c396b80	0.011317134
143	0xbd01ce83	-0.031691086
144	0x3dcdfe4a	0.100582674
145	0x3d650d44	0.055920854
146	0xbe3f7842	-0.18698218
147	0xbe05ca02	-0.13065341
148	0x3be6c4da	0.0070425095
149	0x3cf1c21d	0.029511506
150	0x3dbbc4f2	0.09168424
151	0xbd6517ac	-0.05593078
152	0xbd53f427	-0.051746514
153	0xbc330fb1	-0.010929034
154	0x3ccb3c8e	0.024809148
155	0xbdd7f17f	-0.105441086
156	0xbd192845	-0.03739192
157	0xbde44a42	-0.11146976
158	0x3dde8921	0.10865999
159	0xbe06f9f3	-0.13181286
160	0xbf09a0ba	-0.53760874
161	0xbdf00f49	-0.117216654
162	0xbd21afc0	-0.03947425
163	0xbcc372f0	-0.023858517
164	0x3d50da9a	0.050989725
165	0x3d9e3fdd	0.07727025
166	0x3d40ba15	0.04705246
167	0xbe19dc69	-0.15025486
168	0x3da0ad28	0.07845527
169	0x3cc19d60	0.023634613
170	0xbdc3582f	-0.09538304
171	0xbc83fed8	-0.01611273
172	0xbc87bb9f	-0.016568957
173	0x3e5e9a5e	0.21738574
174	0xbe24f052	-0.161073
175	0xbdc33f37	-0.09533542
176	0xbd89cf23	-0.06728961
177	0x3e2f99a6	0.17148456
178	0x3d41ea94	0.04734285
179	0xbb72d77f	-0.0037054715
180	0xbd7d7e34	-0.061887935
181	0xbdd9ad45	-0.10628752
182	0xbe0c0a5d	-0.13675828
183	0xbd9f7910	-0.07786763
184	0x3e0d9330	0.13825679
185	0xbdc55216	-0.09634797
186	0x3f203f3c	0.6259649
187	0x3c7509c7	0.014955944
188	0x3c2800b0	0.01025407
189	0x3e4212af	0.1895244
190	0xbdf73803	-0.1207123
191	0x3d8c8ec5	0.068631686
192	0x3d2b8e1e	0.04188358
193	0xbe3c7f9f	-0.18408059
194	0x3d685fcf	0.056731995
195	0x3d30f95d	0.04320656
196	0x3d0d1eef	0.03445333
197	0xbd4d3c7c	-0.05010651
198	0xbbc912e5	-0.0061362856
199	0xbcf0fb14	-0.029416598
200	0xbdd9a2cd	-0.10626755
201	0x3d6761c9	0.05648974
202	0xbd252c48	-0.040325433
203	0x3dade3b6	0.08490698
204	0xbe1c7cb3	-0.15281944
205	0x3d2d8503	0.042363178
206	0xbc5c9950	-0.013464287
207	0x3dd43bfc	0.103630036
208	0xbdda7568	-0.10666925
209	0x3d21ec24	0.039531842
210	0x3d1a493e	0.037667505
211	0xbb36739f	-0.0027839912
212	0xbe3e4511	-0.18581034
213	0xbdee01e5	-0.11621455
214	0x3daa3e42	0.08312656
215	0x3dc6cea6	0.09707384
216	0x3ddd0e35	0.107937254
217	0xbd22147c	-0.039570317
218	0xbe7eeb8f	-0.24894546
219	0xbd58c765	-0.052924532
220	0xbc25cd12	-0.010119693
221	0xbd68b8c6	-0.05681684
222	0xbdc30b86	-0.09523682
223	0x3d4fef82	0.05076552
224	0x3d77f2be	0.06053423
225	0x3c9bcf34	0.0190197
226	0xbd2b5960	-0.04183328
227	0x3d2ace41	0.041700605
228	0x3d81fc09	0.063469
229	0x3d7dfe59	0.062010143
230	0xbd953c22	-0.0728686
231	0xbe0a63ce	-0.13514635
232	0x3dfbbe0c	0.12292108
233	0xbd7758b9	-0.060387347
234	0xbe5365cd	-0.20644303
235	0xbdbdcb56	-0.09267299
236	0xbd469731	-0.04848403
237	0xbe86f038	-0.26355147
238	0x3dbafd17	0.09130304
239	0xbd90ebc8	-0.07076222
240	0x3d7e0a0f	0.06202131
241	0x3cf4e391	0.029893668
242	0x3cb2955b	0.021799734
243	0xbd9eb726	-0.077497765
244	0x3d5c8a10	0.053842604
245	0x3d033b81	0.03203917
246	0xbdb15184	-0.08658126
247	0x3da627a2	0.08113028
248	0xbe380ecb	-0.17974393
249	0xbe4bedd9	-0.1991495
250	0x3eea04f6	0.4570691
251	0x3da55330	0.080725074
252	0x3d964142	0.07336666
253	0xbec42f0f	-0.38317153
254	0xbde88ab3	-0.1135458
255	0x3de1b221	0.110203035

fc3.bias f4 [24]
0	0xbd913636	-0.07090418
1	0x3cbc6279	0.022996174
2	0xbe1531b8	-0.14569747
3	0x3cfe9683	0.031077629
4	0x3d52b962	0.051446326
5	0xbddc4b71	-0.10756577
6	0xbc8e1741	-0.017345073
7	0xbdbb9356	-0.091589615
8	0x3d0b39b7	0.033990588
9	0x3c833a38	0.016018972
10	0x3de82840	0.11335802
11	0xbd59285d	-0.05301701
12	0xbd72b604	-0.059255615
13	0x3d90aa27	0.07063704
14	0xbda7c8ee	-0.08192621
15	0xbb7718f2	-0.0037704078
16	0xbd6aa77d	-0.057288636
17	0x3c0f0c71	0.008730994
18	0xbdd7ef9b	-0.10543748
19	0xbd4dce9b	-0.050245862
20	0x3e159b56	0.14610037
21	0x3dd1fed1	0.102536805
22	0x3c87dd30	0.016584963
23	0x3db328cb	0.08748015

exp_avg f4 [128, 240]
0	0x12ff80a1	1.6124472e-27
1	0x1307f9b1	1.7162503e-27
2	0x1307f9b1	1.7162503e-27
3	0x130ae6c0	1.7531817e-27
4	0x1307f9b1	1.7162503e-27
5	0x130c00b1	1.7670825e-27
6	0x130f8713	1.8115734e-27
7	0x1316c64d	1.9030432e-27
8	0x131db273	1.9904168e-27
9	0x13397099	2.3405798e-27
10	0x137cd39c	3.1911203e-27
11	0x137f0132	3.2186114e-27
12	0x13803bda	3.237076e-27
13	0x1386478b	3.3896902e-27
14	0x1381b260	3.274007e-27
15	0x13840bde	3.3333187e-27
16	0x138698e4	3.3977117e-27
17	0x1387fa2a	3.432547e-27
18	0x1387fa2a	3.432547e-27
19	0x1386e36b	3.4050607e-27
20	0x13bcf361	4.7697862e-27
21	0x13bbf165	4.744347e-27
22	0x13bcf1f1	4.7696445e-27
23	0x13cc63b1	5.1595143e-27
24	0x13ca148c	5.101223e-27
25	0x13c6f76e	5.022621e-27
26	0x13c3b923	4.940748e-27
27	0x13c279c1	4.9092544e-27
28	0x13cc0355	5.1500126e-27
29	0x13cc0355	5.1500126e-27
30	0x13fb7d05	6.3484587e-27
31	0x13fc56c9	6.369932e-27
32	0x13fc41c1	6.367858e-27
33	0x14012386	6.5198414e-27
34	0x140095b8	6.491875e-27
35	0x140fb470	7.25524e-27
36	0x14171b55	7.628942e-27
37	0x14221e85	8.184929e-27
38	0x142d4a3a	8.7489066e-27
39	0x14306788	8.906147e-27
40	0x141d0353	7.92713e-27
41	0x141cd13a	7.91725e-27
42	0x1422624f	8.198298e-27
43	0x1428e522	8.527021e-27
44	0x14257e1c	8.355242e-27
45	0x143280b2	9.012084e-27
46	0x1437ec5e	9.285754e-27
47	0x1439dcf3	9.383688e-27
48	0x14396f72	9.362092e-27
49	0x1439fc63	9.389888e-27
50	0x143c4821	9.505799e-27
51	0x143f9b6b	9.6736865e-27
52	0x1443a165	9.8768136e-27
53	0x144fcbfe	1.049106e-26
54	0x14578318	1.088058e-26
55	0x14546e71	1.07250455e-26
56	0x14557069	1.0775921e-26
57	0x146c25df	1.1922424e-26
58	0x1473504c	1.22842006e-26
59	0x14757699	1.2392728e-26
60	0x145b8cf3	1.1084472e-26
61	0x14587cc5	1.09298196e-26
62	0x145a147b	1.10102264e-26
63	0x14644498	1.1524586e-26
64	0x14687b00	1.1737264e-26
65	0x147038dc	1.2128117e-26
66	0x14727e37	1.2242769e-26
67	0x147afa8b	1.2671185e-26
68	0x1479889f	1.2598231e-26
69	0x1479e6d3	1.26168094e-26
70	0x147ad1c6	1.2663145e-26
71	0x14799106	1.2599888e-26
72	0x147aa0bf	1.2653476e-26
73	0x1482bd2d	1.3201262e-26
74	0x14853685	1.3451072e-26
75	0x1484e176	1.3417523e-26
76	0x1481e051	1.3114148e-26
77	0x14805651	1.2958743e-26
78	0x1485170b	1.3438657e-26
79	0x148899ab	1.3793102e-26
80	0x148d0b3d	1.4241794e-26
81	0x1493033b	1.4844481e-26
82	0x1493bad5	1.4916899e-26
83	0x14929d40	1.4804257e-26
84	0x1494379a	1.4966112e-26
85	0x14918fd3	1.4697987e-26
86	0x1494e76b	1.503546e-26
87	0x14934bb3	1.4873065e-26
88	0x14926d0d	1.4785246e-26
89	0x14927dd0	1.4791857e-26
90	0x149cadb9	1.5820496e-26
91	0x149b1d51	1.5662564e-26
92	0x14981ee6	1.5360265e-26
93	0x149674e1	1.519223e-26
94	0x14966165	1.5184545e-26
95	0x14959168	1.5102508e-26
96	0x149439fc	1.4967052e-26
97	0x1499c13f	1.5525274e-26
98	0x14a1080c	1.626002e-26
99	0x149f25ac	1.6069756e-26
100	0x14ac5019	1.7399155e-26
101	0x14b5193f	1.8286287e-26
102	0x14ba86e7	1.883441e-26
103	0x14bceb3d	1.9075934e-26
104	0x14bb96e9	1.8941698e-26
105	0x14b7f503	1.8574918e-26
106	0x14b86a5a	1.86212e-26
107	0x14b5c13b	1.8352545e-26
108	0x14b9c811	1.8759139e-26
109	0x14bb0455	1.8883883e-26
110	0x14bbf27c	1.8977818e-26
111	0x14bd85ba	1.9136869e-26
112	0x14c4e5ed	1.9881632e-26
113	0x14d32f9e	2.1324337e-26
114	0x14d25975	2.1239866e-26
115	0x14d32acf	2.132244e-26
116	0x14d43568	2.1427595e-26
117	0x14d400c0	2.1406825e-26
118	0x14d587d4	2.1561078e-26
119	0x14d612bc	2.1615867e-26
120	0x14cb94dc	2.0556476e-26
121	0x14ce029d	2.0801715e-26
122	0x14cc71f8	2.0643689e-26
123	0x14ca97bb	2.0456635e-26
124	0x14ce423f	2.0826814e-26
125	0x14cd29ec	2.0716245e-26
126	0x14cf7211	2.094665e-26
127	0x14cda379	2.0764189e-26
128	0x14cab94c	2.0469874e-26
129	0x14cecafa	2.0880744e-26
130	0x14db374c	2.213516e-26
131	0x14db29d2	2.2129844e-26
132	0x14dbfabf	2.2212251e-26
133	0x14d8ccda	2.1891226e-26
134	0x14d6f306	2.1704334e-26
135	0x14d88a4f	2.186498e-26
136	0x14d77fe2	2.1759893e-26
137	0x14d50208	2.1508305e-26
138	0x14d4b4aa	2.1477789e-26
139	0x14d794ca	2.1768139e-26
140	0x14ead9b9	2.3713838e-26
141	0x14eb61ac	2.3767461e-26
142	0x14eaf9b7	2.3726457e-26
143	0x14e7e88e	2.3416766e-26
144	0x14ea6cc7	2.3670867e-26
145	0x14edf731	2.4028384e-26
146	0x14ebe13d	2.3817777e-26
147	0x14ece197	2.391889e-26
148	0x14e84854	2.3454542e-26
149	0x14e7e4c0	2.3415265e-26
150	0x14fa7c10	2.5292483e-26
151	0x15001d67	2.587259e-26
152	0x14ffba5f	2.582193e-26
153	0x14fcdcb2	2.5532546e-26
154	0x14fd971a	2.560607e-26
155	0x14f9485b	2.5171114e-26
156	0x14fb46fc	2.5372522e-26
157	0x14f79b97	2.5001996e-26
158	0x14f60f0c	2.4845587e-26
159	0x14f18122	2.4385715e-26
160	0x15050f37	2.687114e-26
161	0x15035cac	2.6528345e-26
162	0x1501e47f	2.6231594e-26
163	0x1502794c	2.6348977e-26
164	0x1501847c	2.6155854e-26
165	0x15017322	2.6142166e-26
166	0x15001566	2.5866275e-26
167	0x14fba099	2.5407868e-26
168	0x14f7756c	2.4986941e-26
169	0x14fa42d4	2.5269908e-26
170	0x150ce06f	2.8449822e-26
171	0x150a9a70	2.7990708e-26
172	0x15089574	2.758288e-26
173	0x1504e5fe	2.683862e-26
174	0x15047382	2.6748307e-26
175	0x15030476	2.6458758e-26
176	0x1501945b	2.6168374e-26
177	0x1500e206	2.6027695e-26
178	0x14fc6476	2.5485122e-26
179	0x14f70f61	2.4946692e-26
180	0x1516f926	3.0488802e-26
181	0x1515049a	3.009394e-26
182	0x151342c4	2.9739082e-26
183	0x150e314d	2.8715563e-26
184	0x150d40d8	2.8525876e-26
185	0x150cc09b	2.8424714e-26
186	0x150c8bc7	2.838304e-26
187	0x150a6a72	2.795285e-26
188	0x15086e9f	2.7552246e-26
189	0x150873ad	2.7556233e-26
190	0x1525b373	3.3463045e-26
191	0x152400bc	3.3120116e-26
192	0x15231f2a	3.2942172e-26
193	0x151f79f8	3.220601e-26
194	0x15203933	3.2356865e-26
195	0x151fb347	3.225122e-26
196	0x151fbd4f	3.2259132e-26
197	0x151ece8c	3.2070783e-26
198	0x151eba1b	3.2054657e-26
199	0x151d322d	3.174548e-26
200	0x1543d3fe	3.954717e-26
201	0x1543d3fe	3.954717e-26
202	0x1543d3fe	3.954717e-26
203	0x1543d3fe	3.954717e-26
204	0x1543d3fe	3.954717e-26
205	0x1543d3fe	3.954717e-26
206	0x1543d3fe	3.954717e-26
207	0x1543d3fe	3.954717e-26
208	0x1543d3fe	3.954717e-26
209	0x1543d3fe	3.954717e-26
210	0x1543d3fe	3.954717e-26
211	0x1543d3fe	3.954717e-26
212	0x1543d3fe	3.954717e-26
213	0x1543d3fe	3.954717e-26
214	0x1543d3fe	3.954717e-26
215	0x1543d3fe	3.954717e-26
216	0x1543d3fe	3.954717e-26
217	0x1543d3fe	3.954717e-26
218	0x1543d3fe	3.954717e-26
219	0x1543d3fe	3.954717e-26
220	0x1543d3fe	3.954717e-26
221	0x1543d3fe	3.954717e-26
222	0x1543d3fe	3.954717e-26
223	0x1543d3fe	3.954717e-26
224	0x1543d3fe	3.954717e-26
225	0x1543d3fe	3.954717e-26
226	0x1543d3fe	3.954717e-26
227	0x1543d3fe	3.954717e-26
228	0x1543d3fe	3.954717e-26
229	0x1543d3fe	3.954717e-26
230	0x1543d3fe	3.954717e-26
231	0x1543d3fe	3.954717e-26
232	0x1543d3fe	3.954717e-26
233	0x1543d3fe	3.954717e-26
234	0x1543d3fe	3.954717e-26
235	0x1543d3fe	3.954717e-26
236	0x1543d3fe	3.954717e-26
237	0x1543d3fe	3.954717e-26
238	0x1543d3fe	3.954717e-26
239	0x1543d3fe	3.954717e-26
240	0x92583249	-6.8219563e-28
241	0x12930b95	9.279859e-28
242	0x12930b95	9.279859e-28
243	0x12f99697	1.57512325e-27
244	0x12930b95	9.279859e-28
245	0x133d4666	2.3889863e-27
246	0x139085fd	3.6482833e-27
247	0x1418b2b7	7.709284e-27
248	0x1453001b	1.06527985e-26
249	0x14b469f7	1.8217151e-26
250	0x1415b87f	7.558963e-27
251	0x140bb7d2	7.053959e-27
252	0x14122084	7.377529e-27
253	0x14736df6	1.2290051e-26
254	0x141ef1ef	8.0246745e-27
255	0x1425e509	8.37554e-27

exp_avg_sq f4 [128, 240]
0	0x2f6fce55	2.1810227e-10
1	0x2f878755	2.4652516e-10
2	0x2f878755	2.4652516e-10
3	0x2f8ddb62	2.5803631e-10
4	0x2f878755	2.4652516e-10
5	0x2f8f4e86	2.6067343e-10
6	0x2f969e9c	2.739754e-10
7	0x2fa8131b	3.0572597e-10
8	0x2fb7ecd8	3.3455794e-10
9	0x2ffe85a5	4.629729e-10
10	0x306c86e2	8.604798e-10
11	0x306fa888	8.718719e-10
12	0x30729d8b	8.826297e-10
13	0x3085d30e	9.737009e-10
14	0x307895e6	9.0434893e-10
15	0x3080b1ba	9.363739e-10
16	0x3085beec	9.731287e-10
17	0x3088345f	9.910187e-10
18	0x3088345f	9.910187e-10
19	0x30862c5c	9.762391e-10
20	0x31047e73	1.9280406e-09
21	0x31037d78	1.913433e-09
22	0x310528d5	1.9377258e-09
23	0x31200faa	2.3291968e-09
24	0x311bf737	2.2695994e-09
25	0x31178e01	2.2054112e-09
26	0x31127f56	2.1318178e-09
27	0x3110a0cc	2.104616e-09
28	0x311e48e7	2.3033466e-09
29	0x311e48e7	2.3033466e-09
30	0x316b1335	3.4207919e-09
31	0x316d10b4	3.4497534e-09
32	0x316ce7fd	3.447439e-09
33	0x3179a98a	3.633064e-09
34	0x31775d4d	3.5996266e-09
35	0x319b87ad	4.5265183e-09
36	0x31acfa91	5.034345e-09
37	0x31c7a807	5.8107648e-09
38	0x31e94625	6.789167e-09
39	0x31f0dd7f	7.0101005e-09
40	0x31b76ff5	5.338729e-09
41	0x31b64cb9	5.3056195e-09
42	0x31c311a1	5.677251e-09
43	0x31d25529	6.121486e-09
44	0x31c9f5a0	5.8777943e-09
45	0x31f1c83d	7.0367876e-09
46	0x3201d34e	7.556833e-09
47	0x320528e9	7.750921e-09
48	0x3204fc31	7.740753e-09
49	0x32059fc7	7.777948e-09
50	0x3203f925	7.6818525e-09
51	0x320816fc	7.921468e-09
52	0x320e49f4	8.282303e-09
53	0x321e6668	9.220095e-09
54	0x32289369	9.812404e-09
55	0x32238302	9.5176365e-09
56	0x32245d42	9.567261e-09
57	0x3246c849	1.1570656e-08
58	0x32530d4d	1.2284841e-08
59	0x3256a8a4	1.2494784e-08
60	0x32338853	1.0450168e-08
61	0x322f3e53	1.02005115e-08
62	0x32317c01	1.0330951e-08
63	0x324387b4	1.1381349e-08
64	0x324a0c62	1.1760763e-08
65	0x32586122	1.259494e-08
66	0x325cd97e	1.2855137e-08
67	0x326e3e57	1.3867598e-08
68	0x326ac348	1.36649945e-08
69	0x326aa293	1.3657558e-08
70	0x326a6571	1.3643658e-08
71	0x3267ff16	1.35039695e-08
72	0x326acc14	1.3666995e-08
73	0x328031e8	1.4923856e-08
74	0x3285a89a	1.5559909e-08
75	0x3284ddce	1.5467688e-08
76	0x327d8c77	1.4758476e-08
77	0x32784451	1.4451033e-08
78	0x3285cbd9	1.5575937e-08
79	0x328c8f8b	1.636342e-08
80	0x32944851	1.7262353e-08
81	0x32a1c33f	1.8831654e-08
82	0x32a3a0fb	1.9048903e-08
83	0x32a0d529	1.8723386e-08
84	0x32a4fc69	1.9206896e-08
85	0x329eeb85	1.8500723e-08
86	0x32a68d5c	1.9389226e-08
87	0x32a29072	1.8924968e-08
88	0x32a0f0c4	1.8735939e-08
89	0x32a14d8f	1.8778136e-08
90	0x32b704e0	2.130622e-08
91	0x32b30849	2.084211e-08
92	0x32ac72b7	2.0075602e-08
93	0x32a92f6e	1.9695758e-08
94	0x32a9734a	1.9726617e-08
95	0x32a703d6	1.9443103e-08
96	0x32a41df5	1.9105736e-08
97	0x32b2cfe1	2.081646e-08
98	0x32c4588c	2.285767e-08
99	0x32c04aa6	2.2385688e-08
100	0x32dd686f	2.5775277e-08
101	0x32f49f32	2.8477732e-08
102	0x3301d29c	3.02267e-08
103	0x33055469	3.1043246e-08
104	0x33033d58	3.0556606e-08
105	0x32fbe92f	2.9326285e-08
106	0x32fd6d2f	2.9502727e-08
107	0x32f62936	2.865691e-08
108	0x3300e5d6	3.0011357e-08
109	0x3302e780	3.047853e-08
110	0x3303b980	3.0669526e-08
111	0x3305b910	3.113479e-08
112	0x330dcbd1	3.301449e-08
113	0x331deab0	3.6767858e-08
114	0x331c6d09	3.6420747e-08
115	0x331e4662	3.6851254e-08
116	0x331f6f97	3.7121563e-08
117	0x331ed067	3.6976783e-08
118	0x3320a551	3.7403257e-08
119	0x332171e5	3.758932e-08
120	0x331a924b	3.5988972e-08
121	0x331f2f26	3.7062954e-08
122	0x331ce898	3.6533123e-08
123	0x331aa1ca	3.6003065e-08
124	0x33209add	3.739375e-08
125	0x331ed2ca	3.6978953e-08
126	0x33233de1	3.8007673e-08
127	0x3320372e	3.730309e-08
128	0x331b8984	3.621382e-08
129	0x33214ced	3.7555697e-08
130	0x33333e7c	4.1733514e-08
131	0x33332401	4.170943e-08
132	0x3334b190	4.2071008e-08
133	0x33300ec1	4.0991612e-08
134	0x332d1a61	4.0303693e-08
135	0x3330aa3b	4.1133017e-08
136	0x332e7cf0	4.0626162e-08
137	0x332ac18d	3.9757243e-08
138	0x332a681a	3.967589e-08
139	0x332fbcb5	4.091699e-08
140	0x334dbe61	4.790343e-08
141	0x334ec15a	4.8138965e-08
142	0x334d809b	4.7847248e-08
143	0x33483090	4.6610296e-08
144	0x334d30cb	4.777466e-08
145	0x33544a13	4.9427467e-08
146	0x33501713	4.844976e-08
147	0x33524f6c	4.896667e-08
148	0x3349b0c8	4.695974e-08
149	0x3347ec6b	4.654832e-08
150	0x336a119c	5.4498386e-08
151	0x3372ea00	5.6557838e-08
152	0x337331be	5.6623087e-08
153	0x336e2a8c	5.545239e-08
154	0x336f9ac4	5.5787282e-08
155	0x33671cf3	5.3810208e-08
156	0x336b82d3	5.4834185e-08
157	0x33648e73	5.3214944e-08
158	0x33619d86	5.253016e-08
159	0x3359802b	5.0640818e-08
160	0x33841c27	6.15185e-08
161	0x3380b1bf	5.992796e-08
162	0x337be9f1	5.865326e-08
163	0x337c81e1	5.8791446e-08
164	0x337896bc	5.787909e-08
165	0x3376b891	5.74442e-08
166	0x3371503e	5.6185165e-08
167	0x3368b247	5.417885e-08
168	0x3361066d	5.239274e-08
169	0x336675e1	5.365826e-08
170	0x3394194c	6.8963885e-08
171	0x338f7687	6.6805164e-08
172	0x338b8f85	6.498798e-08
173	0x3384c01a	6.181672e-08
174	0x3383d20a	6.138369e-08
175	0x3380b807	5.993939e-08
176	0x337c09d1	5.868225e-08
177	0x33791871	5.799706e-08
178	0x336ee6cf	5.5623612e-08
179	0x33659f07	5.3462852e-08
180	0x33aa6718	7.9349945e-08
181	0x33a6b326	7.762564e-08
182	0x33a32482	7.59692e-08
183	0x3398ee87	7.1214394e-08
184	0x33971a02	7.036216e-08
185	0x3395f325	6.982581e-08
186	0x3395cde5	6.975805e-08
187	0x3391333b	6.7614074e-08
188	0x338d2081	6.5717366e-08
189	0x338d62cb	6.5837945e-08
190	0x33cc1a15	9.5042346e-08
191	0x33c8717f	9.3338706e-08
192	0x33c62faa	9.2287635e-08
193	0x33bd4978	8.814362e-08
194	0x33bf18e8	8.898661e-08
195	0x33be4c6c	8.8614655e-08
196	0x33be3402	8.8570246e-08
197	0x33bc1333	8.7579245e-08
198	0x33bbaa85	8.7388834e-08
199	0x33b7ec14	8.564544e-08
200	0x340ef7e7	1.3314967e-07
201	0x340ef7e7	1.3314967e-07
202	0x340ef7e7	1.3314967e-07
203	0x340ef7e7	1.3314967e-07
204	0x340ef7e7	1.3314967e-07
205	0x340ef7e7	1.3314967e-07
206	0x340ef7e7	1.3314967e-07
207	0x340ef7e7	1.3314967e-07
208	0x340ef7e7	1.3314967e-07
209	0x340ef7e7	1.3314967e-07
210	0x340ef7e7	1.3314967e-07
211	0x340ef7e7	1.3314967e-07
212	0x340ef7e7	1.3314967e-07
213	0x340ef7e7	1.3314967e-07
214	0x340ef7e7	1.3314967e-07
215	0x340ef7e7	1.3314967e-07
216	0x340ef7e7	1.3314967e-07
217	0x340ef7e7	1.3314967e-07
218	0x340ef7e7	1.3314967e-07
219	0x340ef7e7	1.3314967e-07
220	0x340ef7e7	1.3314967e-07
221	0x340ef7e7	1.3314967e-07
222	0x340ef7e7	1.3314967e-07
223	0x340ef7e7	1.3314967e-07
224	0x340ef7e7	1.3314967e-07
225	0x340ef7e7	1.3314967e-07
226	0x340ef7e7	1.3314967e-07
227	0x340ef7e7	1.3314967e-07
228	0x340ef7e7	1.3314967e-07
229	0x340ef7e7	1.3314967e-07
230	0x340ef7e7	1.3314967e-07
231	0x340ef7e7	1.3314967e-07
232	0x340ef7e7	1.3314967e-07
233	0x340ef7e7	1.3314967e-07
234	0x340ef7e7	1.3314967e-07
235	0x340ef7e7	1.3314967e-07
236	0x340ef7e7	1.3314967e-07
237	0x340ef7e7	1.3314967e-07
238	0x340ef7e7	1.3314967e-07
239	0x340ef7e7	1.3314967e-07
240	0x2ef9cee5	1.1359961e-10
241	0x2f04a01a	1.206221e-10
242	0x2f04a01a	1.206221e-10
243	0x2f0c0422	1.2734394e-10
244	0x2f04a01a	1.206221e-10
245	0x2f0e0428	1.2916301e-10
246	0x2f1590b7	1.3602884e-10
247	0x2f36988e	1.6607002e-10
248	0x2f54c264	1.9350349e-10
249	0x2fa8057c	3.056292e-10
250	0x30034659	4.775749e-10
251	0x3004a538	4.825611e-10
252	0x3006b1c7	4.9001553e-10
253	0x301e4c7b	5.758875e-10
254	0x300ae4ef	5.052944e-10
255	0x300ced5c	5.126901e-10

exp_avg f4 [128]
0	0x1543d3fe	3.954717e-26
1	0x1664c009	1.8478289e-25
2	0x00000000	0.0
3	0x158c684c	5.67101e-26
4	0x00000000	0.0
5	0x3a01c532	0.0004950344
6	0x3838c826	4.405542e-05
7	0x00000000	0.0
8	0x38480892	4.7691698e-05
9	0x38c8c7d7	9.573966e-05
10	0x16c8d1c0	3.2444114e-25
11	0x1534e396	3.6530244e-26
12	0x11c1a3c8	3.055097e-28
13	0x00000000	0.0
14	0x150d03ae	2.8477626e-26
15	0x14a6d651	1.684625e-26
16	0xb89c96eb	-7.46677e-05
17	0x150a1eed	2.7893274e-26
18	0x00000000	0.0
19	0x12c17176	1.2207983e-27
20	0x35348d54	6.7260885e-07
21	0x00000000	0.0
22	0x00000000	0.0
23	0x00000000	0.0
24	0xb83485e6	-4.3040047e-05
25	0xb827cdf8	-4.0007726e-05
26	0x15bdf3fe	7.6721444e-26
27	0x3885167f	6.3461244e-05
28	0x10be4df2	7.506188e-29
29	0x15ca38bd	8.167667e-26
30	0xb94586fc	-0.0001883767
31	0x14df6cfd	2.2560234e-26
32	0x1400e415	6.50733e-27
33	0x1491f931	1.4739547e-26
34	0x10ff4448	1.0068497e-28
35	0x38ba2324	8.8757166e-05
36	0x11eb643b	3.7138234e-28
37	0xb8d22936	-0.000100212565
38	0xb8d4bdac	-0.00010144277
39	0x382a8df8	4.0663377e-05
40	0x00000000	0.0
41	0x3726c091	9.939206e-06
42	0x14b46783	1.8216183e-26
43	0x13fc6a02	6.3718275e-27
44	0x138a9e8d	3.499244e-27
45	0x00000000	0.0
46	0x1407dfb5	6.859877e-27
47	0x00000000	0.0
48	0x149d3b69	1.5876382e-26
49	0x12a766b0	1.0564496e-27
50	0xb8aecf49	-8.3355764e-05
51	0x14c5d57a	1.9976118e-26
52	0x00000000	0.0
53	0xb8300a1e	-4.1971092e-05
54	0xb991d342	-0.00027813955
55	0x13727f96	3.0607599e-27
56	0x00000000	0.0
57	0x1669dc25	1.8891055e-25
58	0x376b5511	1.4026898e-05
59	0x1183cfff	2.0796343e-28
60	0xb90adaa7	-0.0001324216
61	0x38bef502	9.105542e-05
62	0x130fc18f	1.814457e-27
63	0x3812021f	3.4811088e-05
64	0x00000000	0.0
65	0x38bf3b1c	9.1186e-05
66	0xb7142b6a	-8.831596e-06
67	0x15a8ca0c	6.8173433e-26
68	0x00000000	0.0
69	0x0f81ddd3	1.2805826e-29
70	0x380271e2	3.1100477e-05
71	0x00000000	0.0
72	0x00000000	0.0
73	0x00000000	0.0
74	0xb88a0013	-6.5803666e-05
75	0x00000000	0.0
76	0xb7ba05b7	-2.2175589e-05
77	0xb72f0e19	-1.0434095e-05
78	0x386774fa	5.5183635e-05
79	0x00000000	0.0
80	0x00000000	0.0
81	0x3823d008	3.9055973e-05
82	0x00000000	0.0
83	0x13cc2188	5.1529904e-27
84	0x14f2de7f	2.4523515e-26
85	0xb4613400	-2.0973675e-07
86	0xb99f85d9	-0.00030426568
87	0x14c3f7fa	1.9787778e-26
88	0x38077111	3.229181e-05
89	0x38801e69	6.10918e-05
90	0x00000000	0.0
91	0x11a51375	2.60444e-28
92	0x12269a49	5.2570535e-28
93	0xb812aaf3	-3.496832e-05
94	0x1114379a	1.1692275e-28
95	0x1273f874	7.698352e-28
96	0x126ab956	7.4065825e-28
97	0x00000000	0.0
98	0x00000000	0.0
99	0xb8e54e52	-0.00010934159
100	0xb84899d6	-4.7826987e-05
101	0x1428e1d9	8.526373e-27
102	0xb7d3784c	-2.5209178e-05
103	0x120be326	4.414065e-28
104	0xb8953a56	-7.1157396e-05
105	0x10d32e19	8.329585e-29
106	0x14a660ae	1.679985e-26
107	0xb8bfdce6	-9.148735e-05
108	0x149821ac	1.5361359e-26
109	0x1430764a	8.909058e-27
110	0xb89c7184	-7.4598036e-05
111	0x14fbf9c3	2.5443037e-26
112	0x00000000	0.0
113	0x130bd9de	1.7651683e-27
114	0x00000000	0.0
115	0x00000000	0.0
116	0x38e4d0cf	0.00010910781
117	0xb83fdb74	-4.574233e-05
118	0xb7edb355	-2.833611e-05
119	0x132327a1	2.0593031e-27
120	0x00000000	0.0
121	0x390b8394	0.0001330509
122	0x00000000	0.0
123	0xb9485988	-0.0001910684
124	0x10129b85	2.891323e-29
125	0x392940cc	0.00016141235
126	0x14bd36c7	1.9105729e-26
127	0x146970ac	1.17857144e-26

exp_avg_sq f4 [128]
0	0x340ef7e7	1.3314967e-07
1	0x33b7ba25	8.555461e-08
2	0x00000000	0.0
3	0x3426f311	1.5548382e-07
4	0x00000000	0.0
5	0x360833a9	2.029565e-06
6	0x35905221	1.0752739e-06
7	0x00000000	0.0
8	0x34c24646	3.6186447e-07
9	0x353d2cb0	7.0473016e-07
10	0x33976a10	7.050778e-08
11	0x3392788a	6.820581e-08
12	0x2d7829bd	1.4106436e-11
13	0x00000000	0.0
14	0x33cfd055	9.677084e-08
15	0x32a81a99	1.956987e-08
16	0x357038be	8.948954e-07
17	0x33e87ac3	1.0825672e-07
18	0x00000000	0.0
19	0x3021a5e3	5.88072e-10
20	0x354dfa66	7.673283e-07
21	0x00000000	0.0
22	0x00000000	0.0
23	0x00000000	0.0
24	0x34a71fb1	3.1129233e-07
25	0x340ac765	1.2924791e-07
26	0x33d91fa8	1.0110608e-07
27	0x34c9c392	3.7581464e-07
28	0x2bdf0eac	1.5849175e-12
29	0x34843ecd	2.463261e-07
30	0x34d1e73d	3.9097532e-07
31	0x3332bcf7	4.1615717e-08
32	0x3234a486	1.0514787e-08
33	0x33133e04	3.4282507e-08
34	0x2c48aada	2.8516551e-12
35	0x341b9942	1.4491255e-07
36	0x2e2aa2bc	3.8798062e-11
37	0x35805f14	9.564415e-07
38	0x354ee130	7.706867e-07
39	0x3592f2fc	1.0948565e-06
40	0x00000000	0.0
41	0x3558c5e7	8.0754256e-07
42	0x32964f1b	1.7498271e-08
43	0x3243c11f	1.13944045e-08
44	0x315eaea4	3.2404524e-09
45	0x00000000	0.0
46	0x31a504b1	4.8026654e-09
47	0x00000000	0.0
48	0x32cd0ab2	2.3870005e-08
49	0x2fb98b8a	3.3750452e-10
50	0x34b8bfa2	3.4412102e-07
51	0x33bfdc9a	8.934258e-08
52	0x00000000	0.0
53	0x359c75f3	1.1657233e-06
54	0x345f8f7f	2.0820697e-07
55	0x3135185e	2.6352818e-09
56	0x00000000	0.0
57	0x353418dc	6.70914e-07
58	0x35bd38ba	1.4098107e-06
59	0x2d560618	1.2165845e-11
60	0x34bd656e	3.5277793e-07
61	0x34b1a3c7	3.3087983e-07
62	0x302ef360	6.364669e-10
63	0x3576beca	9.1919776e-07
64	0x00000000	0.0
65	0x34711ea9	2.2456028e-07
66	0x3586e230	1.0049607e-06
67	0x3485d588	2.4928545e-07
68	0x00000000	0.0
69	0x294fc038	4.6129956e-14
70	0x35e625f0	1.7147377e-06
71	0x00000000	0.0
72	0x00000000	0.0
73	0x00000000	0.0
74	0x348dbf18	2.6402336e-07
75	0x00000000	0.0
76	0x35be8fc7	1.4197948e-06
77	0x36051bd0	1.9834733e-06
78	0x34a0d03e	2.9953839e-07
79	0x00000000	0.0
80	0x00000000	0.0
81	0x364164ba	2.8817872e-06
82	0x00000000	0.0
83	0x31d86f35	6.29907e-09
84	0x3376be0c	5.7449185e-08
85	0x343b886e	1.7465365e-07
86	0x351306df	5.4771766e-07
87	0x332cdbd8	4.0246817e-08
88	0x354ded2f	7.67136e-07
89	0x35ec111f	1.7588353e-06
90	0x00000000	0.0
91	0x2da7d62c	1.9080813e-11
92	0x2eaaf4b1	7.774171e-11
93	0x354fc63f	7.7401995e-07
94	0x2c874e46	3.845621e-12
95	0x2f374d01	1.667111e-10
96	0x2f29ab71	1.5431369e-10
97	0x00000000	0.0
98	0x00000000	0.0
99	0x35aae78b	1.2733375e-06
100	0x361aa2e2	2.3042599e-06
101	0x32be1f8d	2.2133259e-08
102	0x358b4460	1.0376207e-06
103	0x2e710c7e	5.480815e-11
104	0x36107c56	2.1530045e-06
105	0x2c0956d4	1.951707e-12
106	0x32f9475f	2.9019871e-08
107	0x34c4e820	3.6676738e-07
108	0x334e8069	4.80799e-08
109	0x325e9ded	1.2958009e-08
110	0x350e1553	5.2930153e-07
111	0x32b035ac	2.0513504e-08
112	0x00000000	0.0
113	0x305fbef7	8.1398305e-10
114	0x00000000	0.0
115	0x00000000	0.0
116	0x356065bf	8.359456e-07
117	0x34f1ac95	4.5015318e-07
118	0x36471386	2.9664675e-06
119	0x30a43a92	1.1949217e-09
120	0x00000000	0.0
121	0x3563b581	8.482821e-07
122	0x00000000	0.0
123	0x34c682f5	3.6975658e-07
124	0x2a84621a	2.3515982e-13
125	0x34a31832	3.037872e-07
126	0x336a9e5d	5.46264e-08
127	0x32b2978d	2.0790845e-08
