models/RaceModels/classif_pos_coef_3copies1to5_2HL_lr0.0001/model.pt (torch, 417821 bytes, 24 tensors)

fc1.weight f4 [128, 144]
000000 fd e2 90 3d d5 b3 9e bd 81 6a 10 3c fc d3 84 3e
       0.070745446 -0.07749144 0.008814455 0.2594298
000010 76 2a 24 3d f2 02 1f 3e a8 af 8b 3e 7f 28 a6 3e
       0.040079556 0.15528467 0.27282453 0.3245277
000020 31 26 46 be af 4f 08 3e 7e 65 f1 be fb 20 28 3e
       -0.19350506 0.13311647 -0.47147745 0.16418831
000030 fb d1 1a 3d c2 06 17 be 7e bd 03 bc 0e 7e 3e 3d
       0.03779791 -0.14748672 -0.008040784 0.046506934
000040 01 88 05 3d 66 77 94 3d 92 37 e6 3d e7 88 2b be
       0.032600407 0.07249336 0.11241068 -0.16751443
000050 87 3c 74 3d 96 bc 56 3e 03 96 17 3e 8e 8e 39 be
       0.059628036 0.20970377 0.14803319 -0.18120787
000060 4e 14 a9 bd de 17 eb bb de f9 66 bd cd bb 96 3d
       -0.08255826 -0.007174476 -0.056390636 0.07360039
000070 3a a3 ac bb 55 53 b7 3c a7 0f ca 3c 28 25 4f 3e
       -0.0052684816 0.022378603 0.024665667 0.20229018
000080 bf 75 1d bd 8b 5a 2e 3d ea 81 29 be e2 ff a2 3b
       -0.03844237 0.042566817 -0.16553465 0.0049743513
000090 b4 5b e9 3d 0d ed 0e 3d 21 da cb 3d 5a 34 0d bd
       0.11394444 0.034894038 0.09953714 -0.034473754
0000a0 65 51 12 3d d9 b2 cd bc 0d 44 75 bc 15 8a 09 be
       0.035722155 -0.025109695 -0.014969838 -0.1343158
0000b0 22 d8 d6 3d 7c a1 54 3e d1 c3 fc 3d ed 36 f3 bd
       0.10490443 0.20764726 0.123420365 -0.11875711
0000c0 3f 54 19 3d 20 69 86 bd 3b a5 5c 3d 27 3f 3d 3d
       0.03743386 -0.0656302 0.053868514 0.046202805
0000d0 da 4d 22 3d 1f 9a cc 3d 6a 7c 7c 3d 62 6a 07 3e
       0.039625026 0.09990334 0.061642088 0.13224176
0000e0 84 90 2e be 80 07 77 bc 95 17 3a be d9 7d bb 3d
       -0.17047316 -0.015077472 -0.18173058 0.09154863
0000f0 34 9e 09 3e 41 bf 8e bd 40 de 88 3d 6f c8 1d 3e
       0.13439256 -0.069700725 0.06683016 0.1540849
000100 41 24 eb bc 92 01 da bc 81 4d c3 3a b2 03 40 be
       -0.02870381 -0.026612077 0.0014900417 -0.1875141
000110 83 56 20 3e a7 fc 14 3e 2c 9a c3 bb c6 51 4e be
       0.15658002 0.14549504 -0.0059693065 -0.20148382
000120 9e 23 08 3c 93 86 7a bd 16 82 a8 3d 70 c9 8b 3d
       0.008309273 -0.061163496 0.08227937 0.068255305
000130 8a 4b bf 3c 75 61 c0 3d 3e 84 a6 bd 60 c4 10 3e
       0.02335145 0.093935885 -0.08130692 0.14137411
000140 80 2a 2b bd 05 ca d6 3d 1f 18 4d bd f6 3f da 3a
       -0.041788578 0.10487751 -0.05007183 0.0016651142
000150 29 62 46 3d 87 a5 34 3d 4e ea 11 3e e0 c1 0f 3c
       0.048433457 0.04410317 0.14249536 0.008774251
000160 68 ed 1c 3b b7 17 09 3c 47 67 50 bc 5c e6 c1 bd
       0.0023945216 0.00836747 -0.012719936 -0.09467766
000170 bc 5f 12 3e d2 3e f8 3c a7 56 12 3e ae 78 f5 bd
       0.14294332 0.030303393 0.14290868 -0.119859084
000180 9f ff d1 bd 4c cc 6f bc 8e 42 58 bd 23 ea 57 3e
       -0.10253834 -0.0146361105 -0.052797846 0.2108541
000190 50 83 f9 3a 7c dc 1e 3d 38 fa 44 bd 6f d2 27 bd
       0.0019036327 0.03878449 -0.04809019 -0.04097217
0001a0 34 0c 2b be b3 de 6d 3d 85 92 f3 3c 88 4f ed 3d
       -0.16703874 0.05807371 0.029732952 0.11587435
0001b0 6a 0c 08 3e 6d e2 fe 3c 6d 83 d9 3c 10 62 51 bd
       0.13285986 0.031113828 0.026551927 -0.05111891
0001c0 c0 92 69 bd d2 84 f0 3d 6a 23 b3 bc d0 d0 3a be
       -0.057024717 0.117440835 -0.021867473 -0.18243718
0001d0 a1 52 cb 3c 21 0c 90 3d 81 e2 51 3d 78 44 22 be
       0.024819674 0.070335634 0.0512414 -0.15846431
0001e0 ad cf 83 bd cc cc a6 3d 6a ed 97 3d e7 2e 42 3e
       -0.064360954 0.08144531 0.0741833 0.18963204
0001f0 25 70 53 bd 84 76 b0 3c 11 21 0a be 4e d1 01 3d
       -0.05162062 0.021540888 -0.13489176 0.03169375
000200 ce 2b 1f be 9b fe dd 3c 76 8d 4a bd 51 82 a5 3d
       -0.15544054 0.027098944 -0.049451314 0.080814965
000210 56 cd 2d 3d 07 ae a7 3d 13 f2 74 bd 0f d6 12 3d
       0.04243215 0.0818749 -0.059801172 0.035848673
000220 1f 71 3d 3d 93 65 e1 3d cd 64 04 bd 83 fe c0 bd
       0.04625046 0.11005702 -0.032322694 -0.09423544
000230 b5 51 58 3d 2e 1e f6 3d b9 15 71 bd 4f 8b 04 be
       0.052812297 0.12017475 -0.058858607 -0.12943767
000240 16 2d 0f be d0 b3 ad bd b9 e7 23 3d c0 d0 84 3d
       -0.13982043 -0.08481562 0.04001591 0.064851284
000250 ae 90 73 3d 66 e6 f8 3c cd 3a 18 ba d0 eb 04 be
       0.05946415 0.0303833 -0.0005807102 -0.1298058
000260 b6 b7 8d 3d 34 dd 66 bc 0e e1 83 3e 23 91 f6 3d
       0.06919806 -0.014090825 0.2575764 0.120394014
000270 d1 48 a6 bc 26 01 95 3e 36 00 61 3e cf 62 18 3e
       -0.020298393 0.2910244 0.21972737 0.14881442
000280 18 f1 aa bd df eb 5b bd b5 29 da 3c be 05 49 bd
       -0.08346766 -0.05369174 0.026631216 -0.04907774
000290 79 db 37 be 5e 87 f7 bd f1 7d 1f be 67 19 50 3d
       -0.17954816 -0.12086366 -0.15575387 0.050805476
0002a0 44 fb 8d 3d 8d 25 33 3e a6 85 80 39 b3 8e ec 3d
       0.06932691 0.17494793 0.00024513638 0.11550655
0002b0 65 10 8a 3d 35 fb 52 bc d5 dd 9f 3d 53 4a b8 3d
       0.06741408 -0.012877275 0.07805983 0.08998551
0002c0 37 f2 16 3e a5 e5 03 3e 6b f8 1b bd 15 1e 7a bc
       0.14740835 0.12880571 -0.038078707 -0.015265961
0002d0 ea b7 db 3d 77 aa a7 3d 02 e2 dc bd d5 41 64 3e
       0.10728438 0.081868105 -0.10785295 0.22290738
0002e0 3f f4 c2 3d d3 72 75 bc 24 45 c7 3c 67 24 26 bc
       0.095192425 -0.0149809895 0.024324961 -0.010140515
0002f0 45 40 03 be 5f 88 84 bd 40 9a 36 bc 41 d5 4b bd
       -0.12817486 -0.06471323 -0.0111451745 -0.04976392
000300 3d b4 05 3d 0c 1a d6 bc 0c 28 fa 3d 63 dd b6 3b
       0.03264259 -0.026135467 0.122146696 0.0055805906
000310 4e 44 65 3d 05 22 d5 3d 33 0a 5d 3b 42 89 bc bc
       0.055973344 0.10406879 0.0033728003 -0.023014668
000320 2e 82 04 3e 1a 0b c4 bc 14 78 0c bd 51 e8 59 bb
       0.12940285 -0.023931075 -0.034294203 -0.0033250044
000330 68 94 5d bb e9 80 92 3d 3b f0 d3 3c ea 1e 50 3e
       -0.003381038 0.07153494 0.025871387 0.20324293
000340 a7 ae ad 3c cf ca 92 bd ce 27 45 3c 19 22 1e bd
       0.021201445 -0.07167589 0.012033416 -0.038606737
000350 b9 b9 a0 bd 31 ce 3e 3d a9 d8 2c 3c 40 75 b2 3d
       -0.07847924 0.04658336 0.010549703 0.0871377
000360 2d 4b 9f 3d 7b 06 da 3d dc 8d 14 3d 62 19 09 3e
       0.077780105 0.10645767 0.0362681 0.13388589
000370 88 9c 9c bc 1e 5e bf 3d 4d 81 f0 3c 5c 23 e6 3d
       -0.019117609 0.09344123 0.02935853 0.11237213
000380 33 21 86 3d 49 7e d2 3a 5f 8b eb bc be 45 a4 bd
       0.06549301 0.0016059364 -0.02875298 -0.08021115
000390 a1 93 06 3e 89 a6 bf 3d 17 d0 73 bd 32 df a0 3d
       0.13142253 0.09357936 -0.05952462 0.07855071
0003a0 6e a6 27 ba a8 d8 ef bd a8 e8 f3 3d 84 d2 c6 bd
       -0.00063953444 -0.11711246 0.1190961 -0.097081214
0003b0 2d ec 15 3d 3b 0a 3b bd 34 58 e8 bd e0 3d 6f 3b
       0.036602188 -0.045664053 -0.113449484 0.0036505386
0003c0 83 ab f4 bb f4 47 02 bd 97 69 df 3c 0c 6c fe 3d
       -0.007466735 -0.0318069 0.027272029 0.12422952
0003d0 17 25 af bd c0 54 de 3d 0d 33 60 3d 49 46 db 3d
       -0.08551996 0.108560085 0.054736186 0.10706765
0003e0 6a 97 a5 3c 07 69 9d ba dc 31 13 3d f3 0d 01 be
       0.020213801 -0.001200945 0.03593622 -0.12602977
0003f0 05 86 59 bd ea 60 7a 3d f5 57 39 3d 75 3a 7d 3e
       -0.053106327 0.06112758 0.045249898 0.24729331

fc1.bias f4 [128]
000000 58 f6 84 3d af 42 f6 3c 4e 2c 21 3d b4 77 8f bd
       0.06492299 0.030061094 0.039348893 -0.070052534
000010 a4 a6 19 bb 67 2d 99 3d e6 08 be 3d e4 5a 17 bd
       -0.0023445273 0.07479363 0.09279041 -0.036951914
000020 13 a2 d0 3c fc 2e 90 3c 04 a6 84 bd be 70 25 3d
       0.025467908 0.017600529 -0.064769775 0.040390722
000030 07 d7 14 3d 94 d5 01 3e b3 e3 71 bd 1d cb 73 bd
       0.03633788 0.1267913 -0.05905504 -0.059519876
000040 1e 57 10 3d d8 27 61 3c b8 04 2a bd 44 21 a7 3d
       0.03523933 0.01374241 -0.041508406 0.08160642
000050 fc f4 07 3d df 8f e9 3d 1e f1 5a bd 94 35 6b 3c
       0.03319262 0.11404394 -0.053452604 0.014356036
000060 78 01 5c 3d 9e 62 9d bd e6 5a a0 3d 50 7e 4a bd
       0.05371234 -0.07684825 0.078298375 -0.049436867
000070 ad c7 c2 3d 91 ab ba ba 40 3b 9f bc 5c d7 19 3d
       0.095107414 -0.0014241805 -0.019437432 0.0375589
000080 d2 1e 7c 3c 84 71 00 bd 62 6e fc bc dc 2b c7 bc
       0.0153882075 -0.031358257 -0.030814353 -0.024312906
000090 35 7c 6a bc b6 48 33 bd f0 9b 7d 3d 5f eb 24 3d
       -0.01431184 -0.043770514 0.06191629 0.04026353
0000a0 1c 4b 86 bd c3 7d 81 bd f5 f6 2d 3d 07 7b b1 3d
       -0.06557295 -0.06322815 0.042471845 0.08666044
0000b0 2a f7 11 bd 10 fa 67 ba f2 da 7a 3d 34 99 76 bd
       -0.035636105 -0.0008849213 0.06124396 -0.0602047
0000c0 4b 12 ba 3d 16 03 88 bc 8e 70 42 bc b5 5d 7a 3d
       0.0908552 -0.016603034 -0.011867655 0.061124522
0000d0 70 62 8e 3d 66 a4 79 3d 6b 44 28 bc 68 9f ed 3c
       0.06952369 0.0609478 -0.010270218 0.029006675
0000e0 e6 29 c5 3d 47 27 70 3b ee 8b b3 3b a5 c6 c6 3d
       0.09627132 0.0036644505 0.0054793274 0.09705857
0000f0 02 b2 19 bc ba 0e f9 3b d1 1e bb 3d 09 fd 0d 3d
       -0.009380819 0.0076006325 0.09136737 0.03466514
000100 f5 09 ca 3c 81 ae 4f bd 8e b5 bd 3d 4b 79 4a 3c
       0.024662951 -0.05070353 0.092631444 0.01235802
000110 61 8c 2a 3b c8 18 a8 3d 6e 42 78 3d 00 b2 19 3d
       0.0026023614 0.08207852 0.060610227 0.03752327
000120 1c 03 8f 3c 8e 17 ff 3c 49 80 85 3c 3c d4 a9 3d
       0.017457537 0.031139161 0.016296523 0.082924336
000130 a7 09 a8 3d 5b 23 36 bd 4a 81 64 3d 97 68 a1 3c
       0.08204966 -0.04446731 0.055787362 0.019703193
000140 dc 1f 51 bd c6 2d 10 3c 61 27 71 bc b9 85 92 3d
       -0.051055774 0.008799976 -0.014718861 0.07154412
000150 0b 2a 66 3d 96 e9 b0 bc 1e f3 03 bd 87 ec 56 3d
       0.05619244 -0.021595757 -0.032214276 0.052471664
000160 77 ca a5 3d 89 8e be 3d 38 73 7d bd d4 c8 77 3d
       0.08095258 0.0930453 -0.06187746 0.06049426
000170 44 75 aa bd 5c 94 f6 bc 2c 78 1b 3d 35 0d 4e 3d
       -0.08323148 -0.03010004 0.0379564 0.050305564
000180 4a bc 1b 3d c5 ae 29 3b c3 d0 cd bc 4a 35 10 bd
       0.038021363 0.0025891524 -0.02512396 -0.03520707
000190 05 3b 9b 3d 79 db d0 bc 1c a2 c7 3d 5d 3e 0a bd
       0.075796165 -0.025495278 0.09747717 -0.03375088
0001a0 58 64 37 bd bc 3c 57 3b 80 27 50 bc e3 c7 dc 3d
       -0.04477343 0.0032842597 -0.01270473 0.10780313
0001b0 63 11 90 3d 7f b9 89 bd 63 20 71 3d bf f8 c9 3d
       0.07034566 -0.06724834 0.058868777 0.09861898
0001c0 66 e3 85 3d c8 53 16 bd 30 9b 8f bc 19 71 8b bd
       0.065375134 -0.036700994 -0.017530054 -0.06808681
0001d0 9e e4 14 bc 25 6d 73 3d 32 9a a9 3c bd 8c 8c 3d
       -0.00908771 0.05943026 0.020703409 0.06862781
0001e0 c1 33 e5 3c 95 2e c5 bc 7a b7 63 bd c5 48 1c 3d
       0.02797878 -0.024070064 -0.0555949 0.038155336
0001f0 fb c0 01 3e 20 05 aa bd 40 8a a5 3c 07 1f c1 3d
       0.12671272 -0.08301759 0.020207524 0.09429746

fc2.weight f4 [64, 128]
000000 85 67 1b 3d 6d e4 0e be 16 e5 88 bd 61 54 e8 bc
       0.03794052 -0.13954325 -0.0668432 -0.028360547
000010 ff e5 ad bc 5c 2d aa 3d b4 ef 85 bd e0 f3 4a 3c
       -0.021227835 0.08309433 -0.0653986 0.012387246
000020 72 b9 95 3d e4 cb 50 bd 43 03 8f bd 84 36 ba 3d
       0.073107615 -0.050975695 -0.06983044 0.09092429
000030 f3 d9 b0 3d b7 8e 16 3e 73 cf 02 bd ed e9 b5 3d
       0.086353205 0.14702879 -0.03193612 0.088825084
000040 94 ef 81 3e 22 d1 10 bd f1 d3 4d bd e6 2d b9 bd
       0.25378096 -0.035355695 -0.05025095 -0.090419576
000050 47 04 31 3e c7 a9 c6 3d 3f c5 ee 3d 6b fb 05 be
       0.17286788 0.09700351 0.116587155 -0.1308419
000060 35 1e 0f 3b 1d 3c 66 bd 97 04 80 be ee fc 7c 3d
       0.0021838073 -0.056209672 -0.25003502 0.06176465
000070 30 b4 16 3d 1a 62 00 be 1d 1a df bb 66 6f 73 bd
       0.036792934 -0.12537423 -0.006808533 -0.05943241
000080 ea 6a 41 bb b0 cc 02 be 3f 54 c3 bd 2b 4b ab 3d
       -0.0029513189 -0.12773395 -0.09537553 0.083639465
000090 07 7f cf 3d d1 9a 82 3d 8b 37 67 3d 35 80 ac 3c
       0.101316504 0.06377185 0.056449454 0.021057228
0000a0 66 ce 26 3e 45 36 f0 3d e1 6b 1e 3e 04 82 0e ba
       0.16289672 0.11729101 0.1547084 -0.0005436244
0000b0 62 23 3c bc 52 a3 87 bd ae 45 53 bd cd 57 37 3d
       -0.011483045 -0.06622948 -0.051580124 0.044761468
0000c0 01 d6 9a 3d 1d bf d3 bd a0 05 97 3d e5 05 c6 3d
       0.07560349 -0.10339186 0.0737412 0.09669093
0000d0 b0 7b 86 bd 55 47 fd bc 8e 84 94 3d b8 e6 05 be
       -0.0656656 -0.030917803 0.07251845 -0.13076293
0000e0 d0 a1 68 bd a5 60 0c 3e 2c 61 44 3d bb f9 aa bb
       -0.05679494 0.13708742 0.047944233 -0.0052177585
0000f0 b5 58 f0 bd 8a 13 88 3c 18 89 a6 3d 0d 95 f6 3d
       -0.117356695 0.01661088 0.08131617 0.12040148
000100 29 0b a1 bc 4e de 58 bc 63 41 2b 3e b6 98 79 bd
       -0.019658642 -0.013236595 0.16724162 -0.060936652
000110 d4 63 4f 3d 54 aa 81 3e c3 f6 e2 3d 49 ce 38 bd
       0.050632313 0.25325263 0.11082222 -0.045118604
000120 5e 50 87 3c 1a 57 32 bc 72 25 03 be 66 dd 81 bd
       0.016517814 -0.010885024 -0.12807253 -0.063410565
000130 a6 82 d6 3b 1f 66 98 3d 98 d3 5c 3d 93 a0 17 be
       0.006546336 0.07441353 0.05391273 -0.14807348
000140 47 dd bb be 34 e2 3c be 13 c2 f5 3d 51 ba 0a 3e
       -0.3669226 -0.18445665 0.11999907 0.13547637
000150 2c 4b 9d bd 44 7c e4 3c 7d f6 16 3e fe 06 2d bd
       -0.076803535 0.027891286 0.14742465 -0.042242996
000160 29 ab 04 3e f6 5a e5 3d 8e d5 12 bd 19 46 dc 3d
       0.12955917 0.1119899 -0.035848193 0.107555576
000170 98 eb 61 bc 15 d5 83 3d 81 92 42 bb 27 b2 b3 bd
       -0.01378908 0.064371265 -0.0029689374 -0.08774214
000180 2a dc 6c 3c 57 49 d1 bd f3 de 50 bd b4 0e 8e bd
       0.014456788 -0.102190666 -0.05099387 -0.06936398
000190 81 d6 3b bd 6b 1e 09 3e b0 2d 02 be 69 c8 2d bd
       -0.045858864 0.1339051 -0.12712741 -0.042427454
0001a0 a2 63 12 3d 4f 23 fb 3d 53 e8 77 bd 8e 74 e4 3d
       0.03573955 0.12262594 -0.060524296 0.111550435
0001b0 22 b0 a6 bd d6 cb e4 3d 3a ac 00 3e d2 3e f8 3d
       -0.081390634 0.11171691 0.12565699 0.12121357
0001c0 4d aa a5 3d 9a 8c dd bd 15 74 85 3d fa 0b 9b 3b
       0.08089123 -0.10817833 0.065162815 0.0047316523
0001d0 aa 09 16 3e 2b e5 a1 bd bc 23 08 3d f8 72 95 3d
       0.14652124 -0.079050384 0.033237204 0.07297319
0001e0 91 4d 32 bc 2e a9 06 3e 87 99 88 3d 9b 7c 5d 3d
       -0.010882751 0.13150474 0.06669908 0.05407391
0001f0 d2 04 20 3e 72 b7 f0 bc 37 db 8d bc d3 8d 71 3d
       0.15626839 -0.029384349 -0.017316444 0.058973145
000200 a1 f3 5f 3d 9f 8b 40 3c d6 2d b0 3d c7 c2 3f bd
       0.054675702 0.011752038 0.086024925 -0.046816614
000210 48 fb b1 bd eb 0b 4f bd c7 f4 4f 3e 44 17 9d 3d
       -0.08690506 -0.050548475 0.20308219 0.07670453
000220 72 db ae 3d 85 df 8f 3d 20 42 5c be 94 dd 0a be
       0.085379496 0.07025055 -0.215096 -0.13561088
000230 be c5 22 be fc 5b 1d bc 4a 90 d7 bc 61 ab 23 3d
       -0.15895745 -0.00960445 -0.02631392 0.03995836
000240 c3 d1 a9 3e 8c ee 0b 3d ee c1 a1 bd a5 3e b7 3d
       0.33167848 0.034163043 -0.07898317 0.08947495
000250 17 31 2e 3e 4f 53 6e bd 21 e9 d5 3d c4 e2 53 be
       0.17010914 -0.058184918 0.104448564 -0.20691973
000260 34 af 97 bd fa b6 1b bd b8 e1 b4 3e 0c 5f 8a bd
       -0.07406464 -0.038016297 0.3532846 -0.0675641
000270 80 15 2d bd 8f 98 d7 3d 85 0a d8 3d 26 9a be 3d
       -0.042256832 0.10527145 0.105488814 0.09306745
000280 46 48 1b 3e 6c 99 09 be 31 86 7a 3d ac cd fa 3c
       0.15164289 -0.13437432 0.06116313 0.03061565
000290 da 7a 20 bd af 4f 89 3d 5f 37 f2 3d d2 44 27 3c
       -0.03917966 0.067046516 0.118269674 0.010209279
0002a0 20 1f 02 be 4b a5 5a bd 39 b8 54 3d 4b c9 f7 3b
       -0.12707186 -0.053380292 0.0519335 0.007561838
0002b0 47 e7 39 bc 82 45 b3 be bb ba 16 be f8 52 0b be
       -0.011346645 -0.35013968 -0.1471967 -0.13605869
0002c0 19 fd 6d be 5a 80 39 3e 9d ad 02 be 63 49 f7 bd
       -0.2324108 0.18115368 -0.1276154 -0.12074544
0002d0 20 c4 df 3c d7 2a 94 3d 4d 33 ee 3d b3 d2 81 be
       0.0273152 0.072347336 0.116308786 -0.25356063
0002e0 51 6d f1 3d 4d 92 09 be 45 44 b2 3d 07 27 cd bc
       0.117884286 -0.13434716 0.08704428 -0.025043024
0002f0 c4 d7 7b be ae 55 1e bd 4e ca bd bd 68 8b f6 3b
       -0.24594027 -0.03865593 -0.09267102 0.0075239427
000300 a4 d1 c6 3d 95 90 68 3d eb 07 4a bc 21 f8 13 be
       0.097079545 0.05677851 -0.012330989 -0.14450122
000310 a9 85 13 3d b6 dc c5 bc c8 8a ed bb 99 23 95 3e
       0.03601614 -0.024153095 -0.00724921 0.2912872
000320 c6 e0 35 3e 89 3a 0e bc d1 34 2e be 15 87 05 bd
       0.17761526 -0.008680948 -0.17012335 -0.032599527
000330 1b 97 02 3e 89 15 c2 3d c0 a7 cb 3d 5e e6 96 3d
       0.12752955 0.09476764 0.09944105 0.07368158
000340 e6 22 e3 bd 78 50 30 be 6a 13 96 3d 3e 39 03 bd
       -0.11090641 -0.17218196 0.07327922 -0.032037012
000350 ba 46 18 bc 9a 10 22 3d ad 33 d8 3c 40 8f bd 3c
       -0.009294206 0.039566614 0.026391828 0.023139596
000360 43 69 b3 bd 82 c6 76 3d 49 8a 86 3d 63 f3 65 3e
       -0.087603115 0.060247906 0.065693446 0.22456126
000370 e4 dd 1d bd bf be 86 3d dc bd 45 3d db 5b 08 bd
       -0.03854169 0.06579351 0.048276767 -0.033290725
000380 40 e0 9f bd c8 e6 eb 3c a8 88 32 3e 94 3d 39 bd
       -0.07806444 0.028796569 0.17434943 -0.04522474
000390 93 8b 8f 3c c5 80 43 bc ad 7e 35 3e de 80 9d bd
       0.017522609 -0.0119325565 0.17724104 -0.07690595
0003a0 20 08 8b bb db 05 95 bc e4 05 88 bd 01 55 2a bc
       -0.004242912 -0.018191269 -0.066417485 -0.010396243
0003b0 4f 3d 80 3d 05 b4 b5 bc 36 2c bf 3d 24 09 b7 bd
       0.06261694 -0.022180567 0.093346044 -0.0893729
0003c0 5c 0e a9 bd 95 49 90 3d 4d 8c b1 3d bb 8a ed 3d
       -0.08254692 0.07045285 0.086693384 0.11598726
0003d0 df 56 36 3d 1e 0a 24 3e bb bb af 3d 29 e0 3f bd
       0.04451644 0.16019484 0.085807286 -0.046844635
0003e0 e9 a8 42 bd 9d 8e 7b bc 99 30 4e 3e ec 68 7d bc
       -0.047524367 -0.015353826 0.20135726 -0.01546691
0003f0 10 79 12 3e 09 8a 8b bd 44 7e 7b 3e 0c ef 26 3d
       0.14303994 -0.068134375 0.24559885 0.040755317

fc2.bias f4 [64]
000000 58 1b fa 3c 40 99 7a 3d c3 2e a6 bd 37 da 2e bc
       0.030530617 0.061181307 -0.08114388 -0.010672144
000010 63 ba 4b 3d ac f8 f0 bb ec 82 e4 bc 3d 20 57 bd
       0.0497383 -0.0073538627 -0.02789446 -0.05252098
000020 58 c6 bb bc 47 c1 48 bd 97 b1 c3 3c a8 09 ed 3d
       -0.022921726 -0.04901245 0.023888392 0.115741074
000030 fc 35 30 bd de 26 44 bd 9c 19 59 3b af b6 1c 3d
       -0.043020234 -0.04788863 0.0033126837 0.03826016
000040 08 a7 d5 3b 0d c4 96 bd fb d0 22 3c 1a 08 b3 3c
       0.006520156 -0.073616125 0.00993752 0.021854449
000050 4a cb da bc 3a 66 c7 3d cf 74 98 3c 7f 22 9c 3d
       -0.026708264 0.09736295 0.018610386 0.07623767
000060 df b7 18 3d ae 2b 80 bd fc 91 69 3b 91 02 06 bc
       0.03728473 -0.06258331 0.0035639992 -0.008179323
000070 8a 40 70 3d 2f fd 45 3d 40 5c 8c 3d 5d cb f1 bb
       0.0586553 0.048337158 0.06853533 -0.007378979
000080 e1 98 c4 bd a0 47 e0 3d 2e e8 00 3d e8 f0 b5 3d
       -0.09599472 0.109511614 0.031471424 0.0888384
000090 8f b0 92 3d 7a 11 0d bd 32 5d 74 3d 17 64 4f 3d
       0.07162582 -0.034440495 0.05965919 0.050632562
0000a0 a1 30 b1 3d 07 5b a5 3d db 61 87 bd 62 67 ae bb
       0.08651853 0.08074003 -0.06610461 -0.005322383
0000b0 df 36 13 bd 6d 3c 83 3d d2 ae 81 bd 65 34 5f bd
       -0.035941 0.0640801 -0.063321725 -0.054493327
0000c0 0e 9b 5d bd fb f6 ce 3c 2a 56 af 3d c3 31 c5 3d
       -0.05410295 0.025264254 0.08561356 0.09628632
0000d0 81 8f 80 3d 5d 9f b1 3d d5 c1 3e 3d b3 e7 cb 38
       0.06277371 0.08672974 0.04657157 9.722952e-05
0000e0 90 9f 9b 3d 65 ea 1f ba b5 5c 95 3d 54 5b 55 bc
       0.075987935 -0.0006100296 0.07293073 -0.013022263
0000f0 d5 3d 47 bc 00 13 99 bc c1 77 89 bd 42 dd 05 bd
       -0.012160738 -0.018685818 -0.06712294 -0.03268171

fc3.weight f4 [32, 64]
000000 50 bb 20 3d 5a f6 49 bc 4c 72 18 be 36 8a bb 3d
       0.039241135 -0.012326801 -0.14887351 0.09157221
000010 87 0c 39 3e 8a 34 98 be 0b 8c 43 be 78 1e cb bb
       0.18071185 -0.29727584 -0.19096391 -0.0061987005
000020 ae f3 4d bd 11 8f 8b 3d 87 52 dd 3c cd 5d 1e 3e
       -0.05028122 0.06814397 0.027016891 0.1546547
000030 62 a0 16 3e e2 11 f0 bc 0c e7 0c be e8 b7 48 3e
       0.14709619 -0.029305402 -0.13760012 0.19601405
000040 9b 3a 05 3e fb 28 db bd b3 55 01 be 40 fd e1 3d
       0.13010637 -0.10701176 -0.12630348 0.11034632
000050 8b 34 72 bd d7 95 d1 be 13 b4 40 3e 10 4a cd 3d
       -0.05913214 -0.4093463 0.18818693 0.10023892
000060 a0 a3 a3 3d 07 0c 4c 3e 93 9d 40 3e 76 4a 3e 3e
       0.07990193 0.19926463 0.1881011 0.18583092
000070 8a 81 db bd 1a 9d bf 3d 5b ee d1 3d f5 89 6c bb
       -0.10718067 0.093561366 0.10250541 -0.003609297
000080 a7 8a 6f bd 6d 67 c1 bd 5d c7 12 3e 9b 10 22 3e
       -0.05848184 -0.09443555 0.14333864 0.15826647
000090 d7 e1 ed bd c9 0d e6 3d cc 7a bf 3d fe b4 f9 bc
       -0.11615341 0.11233098 0.093495935 -0.030481812
0000a0 4e c2 93 bd 84 4d 96 3c 15 c6 22 3e b8 6b ec bc
       -0.07214795 0.01834751 0.15895875 -0.028859958
0000b0 10 5d a5 3d 26 ed e7 bd 97 ab e7 bd b9 b1 5a 3d
       0.08074391 -0.11324529 -0.11312025 0.053392146
0000c0 2d 10 ca 3c c0 a8 04 3e 31 0b 5f bd 45 3a 78 be
       0.024665916 0.12954998 -0.054454032 -0.24240978
0000d0 fa e5 1d 3e 8e 2c 7a bd 0a b3 09 3d 60 d4 d7 3d
       0.1541976 -0.061077647 0.03361801 0.10538554
0000e0 b0 12 1e be 28 62 51 be b1 4e 8b bd 86 ec 25 3f
       -0.15436816 -0.204476 -0.068021186 0.6481403
0000f0 f5 18 23 be 17 9a be 3c 53 e2 1f 3f f5 6d 42 bd
       -0.15927489 0.023266835 0.6245472 -0.047468144
000100 3b b9 09 bd a8 93 0c 3b 64 23 7e 3e e6 86 3b be
       -0.033623915 0.0021450315 0.24818188 -0.18313178
000110 74 a8 32 3e 4a b9 8b 3d a7 09 3e 3e c0 ff 24 3e
       0.17447072 0.068224505 0.1855837 0.16113186
000120 0e 41 25 be 15 c1 aa 3d b7 d8 db 3d fc 54 af 3c
       -0.16138098 0.08337609 0.107346945 0.021402828
000130 ca bc 1a 3e 9c fb af bd 8e c0 2b 3e a0 51 b2 3d
       0.1511108 -0.085929126 0.16772673 0.08706975
000140 d0 69 f6 3d 2c 80 92 bd 32 53 0f 3e b3 68 de 3d
       0.12031901 -0.07153353 0.1399658 0.108598135
000150 fc 49 bb bd fe 22 06 3e 5b e8 20 3e 83 7d 82 3e
       -0.09144971 0.13099286 0.15713637 0.25486383
000160 65 b8 64 3d 49 78 84 bd 9c 78 4d 3e 49 41 8d 3e
       0.055839915 -0.06468255 0.2006554 0.2758887
000170 c1 2b a4 3d c6 aa 83 be 9d a8 ac bd 1d 8f 1c bd
       0.08016158 -0.25716227 -0.08430598 -0.03822242
000180 d8 9a f3 3d 7e 8a 9d 3d 2b 9e 1e 3e 08 07 b4 3d
       0.118947685 0.07692431 0.15490024 0.087904036
000190 ae 13 03 be 94 82 64 be e9 c8 05 3e c3 af b9 bd
       -0.12800476 -0.22315437 0.13064922 -0.09066727
0001a0 89 e9 42 be 93 f7 e6 bd ab 3c f4 3c b1 fd 81 bd
       -0.19034399 -0.1127769 0.029814085 -0.06347216
0001b0 21 bf ba 3d 74 9f 4f be 33 8b a3 3d 89 36 9e 3b
       0.09118486 -0.2027567 0.079855345 0.0048282784
0001c0 c6 48 23 be 6f d3 e5 bd 88 54 36 3e 59 8b 85 3d
       -0.1594573 -0.112219684 0.17805684 0.06520719
0001d0 ce b3 bc 3d 3f 08 0d 3e 85 ef dc 3c 28 66 fd 3d
       0.092139825 0.13772677 0.02696968 0.123730004
0001e0 74 c5 88 3b 0c bd 44 3d e1 02 3e bd 19 8b 22 be
       0.004173929 0.04803185 -0.046389464 -0.15873374
0001f0 66 79 d1 3d 24 6b 08 be d9 49 95 be cc b2 26 be
       0.10228233 -0.13322121 -0.29157904 -0.16279143
000200 77 32 ce 3d f4 d7 50 be 4b 00 8d 3e ed ea 94 3e
       0.10068219 -0.2039488 0.27539286 0.29085484
000210 8f d0 6d bd 1f 3a 66 bd 8d 40 58 3c 20 2f 66 be
       -0.058060225 -0.056207772 0.013198984 -0.22478914
000220 f9 0c 03 be ab eb 08 bd 61 d7 0e 3e 31 9f 08 3e
       -0.12797917 -0.033427875 0.13949348 0.13341977
000230 4d 77 e6 bd 2c b3 6c 3e 91 51 06 3d 2d e0 ba bd
       -0.112532236 0.23115224 0.03279263 -0.091247894
000240 65 e5 45 bc 1c 9d a8 3d a5 fa 02 3e 1a 45 32 3e
       -0.012078618 0.08233091 0.12790926 0.17409173
000250 62 1e bf bc 15 0a 23 bc 9c 63 1f 3d a7 d7 97 be
       -0.023329917 -0.009951134 0.038913354 -0.29656717
000260 50 0f ef bd f6 32 e3 3d 40 a1 1e bd 2a a0 22 bd
       -0.116728425 0.110937044 -0.038728 -0.039703526
000270 b3 1a e3 3c 4c 1c 08 3e 4d 61 0d be 96 2b cd bd
       0.027722692 0.13292044 -0.13806649 -0.10018079
000280 0a 81 35 3e 05 24 9a be cd 3a 36 3e 58 bd bf bd
       0.17725006 -0.30105606 0.17795868 -0.09362286
000290 79 00 f8 bd a7 a6 2c bd f6 e8 94 be 5b 5b f3 3d
       -0.12109465 -0.04215112 -0.29083985 0.11882659
0002a0 21 a5 3f 3e a9 a9 54 3d d4 fa 2b 3e 0a 47 07 bd
       0.18715335 0.051919613 0.16794902 -0.033026733
0002b0 e5 ab 3d 3c f8 90 42 3d 41 eb a0 3d 68 fb ad bc
       0.011576627 0.047501534 0.07857371 -0.021238044
0002c0 3b db 11 3c 8e f5 fb bd 64 40 68 3e 7c 24 a0 3d
       0.008902366 -0.12302695 0.22680813 0.07819459
0002d0 95 71 93 be 81 4c 48 3e ef c8 1d 3e 29 b5 2b 3e
       -0.28797594 0.19560434 0.15408681 0.16768326
0002e0 95 6d 6b 3d 46 67 25 bc 60 b6 7b 3d 3a 4f 85 3e
       0.057477552 -0.010095423 0.061453223 0.26037008
0002f0 88 5e e3 3d da 99 53 3d 19 70 78 3d e1 95 8c bd
       0.11102015 0.051660396 0.06065378 -0.06864525
000300 91 5d b8 bd b3 5e fa bd f8 67 b7 bd 94 d3 cd 3d
       -0.090022214 -0.12225094 -0.08955377 0.10050121
000310 3f 7a 88 3d 12 23 89 3d 59 44 86 3c 36 87 b4 bd
       0.066639416 0.06696142 0.016390013 -0.08814852
000320 df 3a a6 3d 2c ee e7 3d d5 a6 82 bd 3d d3 65 bd
       0.081166975 0.113247246 -0.06379477 -0.056109656
000330 20 34 62 bd 8b 06 b9 bd 1f 56 d5 bd ff 21 ff bd
       -0.05522549 -0.09034451 -0.10416817 -0.12457656
000340 cd 3d 0c bd 91 1d 55 3d 66 4a f6 ba 70 f8 da bd
       -0.034238625 0.05203015 -0.0018790483 -0.10691917
000350 5b 5d c1 bb 7c 81 80 3c 90 c5 f2 3d a2 65 2c bd
       -0.0059010214 0.015686743 0.11854088 -0.042089112
000360 5c 2b b5 bd 9b b1 58 bc e8 25 ed 3c 7d 40 a9 bd
       -0.08846161 -0.013225938 0.02894874 -0.08264253
000370 ed ed d9 bd f9 03 f7 3c 06 5f ad bd 61 42 33 3d
       -0.10641084 0.030153261 -0.0846539 0.043764476
000380 4f 44 dc bd f0 e1 5a bd 86 78 03 3c f7 e3 2c 3c
       -0.10755216 -0.053438127 0.0080243405 0.010552398
000390 a6 e3 e8 bd 33 ab a3 bd 14 cb e8 bd 5f e3 de 3d
       -0.113715455 -0.07991638 -0.11366859 0.10883211
0003a0 df 61 bd 3d c6 43 d3 bd 6b 7a cd 3d a6 9d f2 bc
       0.09247183 -0.10315661 0.10033115 -0.029616188
0003b0 60 25 24 bd e6 9b 1d bd 1b 3b 88 3d 26 d4 b1 3d
       -0.040074706 -0.038478754 0.066518985 0.08683042
0003c0 f8 32 7e bc d1 a9 4b bd 00 67 a4 bd 96 1a 99 3d
       -0.015515082 -0.049722496 -0.08027458 0.07475774
0003d0 ee 5f c7 bb 5d c2 f0 bd e2 55 40 3d bf 3c 04 bc
       -0.0060844338 -0.11755822 0.046956904 -0.008071124
0003e0 c6 b1 89 3d 7a c8 b9 3d 67 3c c2 bc 2d cf 8b 3d
       0.06723361 0.09071441 -0.023710443 0.06826625
0003f0 73 77 95 3d e3 43 df bd a6 97 6f 3d 80 92 58 3d
       0.07298174 -0.1090162 0.058494233 0.05287409

fc3.bias f4 [32]
000000 aa c6 85 3c b0 b5 5c bd 04 8a f6 bc c1 7f 84 3c
       0.016330082 -0.05388421 -0.030095108 0.016174199
000010 61 f8 31 bd ca cf 28 bd e0 9a 15 3c 13 a7 e0 3d
       -0.043449763 -0.041213788 0.009131163 0.10969367
000020 7e f4 04 3d f4 7f cb 3d 01 fa c6 3d 1c 24 3a 3d
       0.03245973 0.099365145 0.09715653 0.045444593
000030 f8 e8 56 3c 25 78 16 bc ba 0c a4 3d 06 41 c4 3d
       0.0131170675 -0.009183918 0.0801024 0.09582715
000040 91 3b 23 3d f3 5c c2 bd 72 89 10 be 31 9b 8b bc
       0.03985173 -0.09490385 -0.14114931 -0.017041774
000050 ad de c8 3b 16 16 91 3d 94 f8 4d bd 95 b8 8e 3d
       0.0061300606 0.07084291 -0.05028589 0.069688
000060 c5 5c d4 3c cd 9f d4 3d de cd ee 3d 43 94 04 be
       0.025923142 0.10382042 0.1166036 -0.12947182
000070 d0 33 8b bd a7 1a 5e 3d d1 51 fd bc 2c d0 05 3e
       -0.06796992 0.054224636 -0.030922802 0.13067693

fc4.weight f4 [24, 32]
000000 a1 1f af 3c ab 5b 92 be a8 53 84 bd c8 e1 25 3d
       0.021377387 -0.28585562 -0.06461269 0.040498525
000010 1b 42 86 3d de 00 ba 3d 08 98 a1 bd f6 c0 3d 3c
       0.06555577 0.09082197 -0.07890326 0.01158165
000020 70 b9 41 be 30 e0 4a 3e 37 56 82 3d 0e 99 41 be
       -0.18918395 0.19812083 0.063641004 -0.18906042
000030 d1 12 be bd 68 c7 14 3e c1 e6 18 3e b8 65 a5 be
       -0.09280933 0.14529192 0.14931776 -0.32304168
000040 69 b9 e8 bb 9d 4f e1 3d 2b 5b 8f be 2e 63 d3 be
       -0.0071021807 0.11001513 -0.27999243 -0.41286606
000050 53 0f fa bd 62 8c d1 bd 45 27 c9 bd 9a f9 e8 3c
       -0.12209954 -0.10231854 -0.09821943 0.028439332
000060 e1 7c c8 3d ca eb 07 3d 9a 2a 4c 3e 6f 8e 44 3e
       0.09789444 0.03318385 0.19938126 0.19194959
000070 ab 73 9e bf a4 66 26 3e 10 81 37 3e e6 3e 5c be
       -1.2379049 0.16250092 0.17920327 -0.21508369
000080 dc e1 17 3e 2a 11 ac 3c 92 62 8b 3e 60 b8 d2 3d
       0.14832252 0.021004278 0.2722364 0.10289073
000090 96 63 b3 be ad 44 18 be 8d 16 05 be c3 69 21 be
       -0.35036916 -0.14869948 -0.12996884 -0.15763001
0000a0 ba 61 b2 be a4 9c 9c bc 43 24 b2 3d 97 41 8d 3e
       -0.34840184 -0.01911766 0.086983226 0.27589104
0000b0 1a df 64 3e 27 d9 12 be 35 e1 26 ba e5 90 0c 3e
       0.22350731 -0.1434065 -0.0006365956 0.13727148
0000c0 83 4b 87 be cc ea d5 bd bd a8 89 bc a6 29 a5 bf
       -0.26424798 -0.104451746 -0.016804093 -1.2903335
0000d0 ee 1d 9a 3b 79 2e 4a bc 9b cc 25 3e f5 bb cd 3a
       0.004703275 -0.0123401815 0.16191332 0.0015696274
0000e0 c7 cb 6a be 76 d6 46 3e f5 bc 56 3d 29 9f 01 3e
       -0.22929297 0.19417748 0.052426297 0.12658371
0000f0 f7 32 2e be 35 cb 89 3e 9c 30 d1 3d c5 14 03 be
       -0.17011629 0.26912847 0.1021435 -0.12800892
000100 a5 7b 92 3d 3a 2c dc 3d d8 42 cd bd da 34 8e 3d
       0.071524896 0.10750623 -0.10022515 0.069436744
000110 1b d6 8e 3d 86 f3 9e 3d ce af 34 be 53 63 e5 bd
       0.06974431 0.07761292 -0.17645189 -0.11200585
000120 48 a8 a2 3d 2f b9 9d 3d 4f fb 99 3d 01 9e 04 be
       0.07942253 0.077013366 0.075186364 -0.12950899
000130 c7 25 91 bc 97 4c 9e bd 93 c0 92 bd b6 21 7b be
       -0.017718209 -0.07729452 -0.07165637 -0.24524578
000140 a2 b2 6c 3d 49 c5 e1 bc b8 5a 8a bd 61 90 0d bd
       0.057787545 -0.027559893 -0.067555845 -0.03456152
000150 a7 d2 35 be bb 1d 13 3e 20 a4 3f 3c bc 19 50 3e
       -0.17756139 0.1436681 0.011696845 0.20322317
000160 b7 fc 29 3d 64 3d 3e 3d ee 60 99 bc be a7 78 bd
       0.041500773 0.046445265 -0.018722977 -0.060706846
000170 a1 aa 58 3d 60 c7 80 be 77 1f aa bb c8 32 be bd
       0.0528971 -0.2515211 -0.005191739 -0.092870295
000180 11 ff 02 be 89 02 b4 3c 33 a3 e7 3d fe 6b 92 3d
       -0.12792613 0.021973865 0.11310425 0.07149504
000190 00 55 0f 3d f3 36 eb 3c 51 bc 31 bf 8b 99 df bc
       0.03499317 0.028712725 -0.69427973 -0.027294895
0001a0 a7 ae 2a be 1a cf 53 3e d3 0a b7 bc 8c ea 46 3e
       -0.16668187 0.20684472 -0.022344029 0.1942541
0001b0 d1 21 05 be 6a a8 17 bd bd 78 40 bd 13 1f 7d 3e
       -0.13001181 -0.037025847 -0.046990145 0.24718885
0001c0 7b 30 f5 3d 42 bd ef bd e9 15 d9 3d 82 06 db be
       0.119721375 -0.1170602 0.10599882 -0.42778403
0001d0 65 f4 6a 3e d8 38 3a bd 02 b7 de 3d 71 f7 4d 3e
       0.22944792 -0.045464367 0.1087475 0.20113923
0001e0 0d fb 81 3e f1 03 15 be 3e 27 79 be 41 fb 25 bd
       0.2538685 -0.14552285 -0.24331376 -0.040522818
0001f0 e4 ea 93 bf 73 d9 f5 39 4e 74 af 3d d9 04 43 be
       -1.1556058 0.00046892054 0.08567105 -0.19044818
000200 ac a2 12 bd 3c 9a 16 3e ef bf a6 bd 67 85 21 be
       -0.035799667 0.14707273 -0.08142077 -0.15773545
000210 3e 59 81 3b f1 72 86 be 88 78 4f be 54 e1 79 3d
       0.003947406 -0.26259568 -0.20260823 0.061005905
000220 a0 44 90 3c 27 ab 6f be 19 f5 0f 3e 34 37 f5 3d
       0.017610848 -0.23405133 0.14058341 0.1197342
000230 b4 e1 1e be 6c b1 4b bd 08 58 e1 3c 2c a2 e2 3d
       -0.15515786 -0.04972975 0.027507797 0.11066088
000240 bb da fd bd c6 7f b8 bb b8 e3 9d 3d 7b 3e ff be
       -0.12395235 -0.005630466 0.077094495 -0.49852356
000250 3b 67 7e be ce 96 73 be 12 a1 ee 3d 52 9d 70 3e
       -0.24844067 -0.23787996 0.116518155 0.23497513
000260 0a b1 0b 3d 8d 6f a5 3d 61 83 68 bc 75 18 21 bf
       0.034104384 0.08077917 -0.014191479 -0.62927943
000270 8d e3 b2 be 4e 10 b8 be cc 48 89 be 79 19 42 3e
       -0.34939232 -0.3594994 -0.26813352 0.1895503
000280 ec fb 23 be bb ca a3 3d 1f 92 4d be cb 08 c0 3d
       -0.1601407 0.07997652 -0.20075272 0.09376677
000290 ef 8f 03 3e 1a 36 9b 3d 98 14 b1 be a4 dd 8e bd
       0.12847875 0.075786784 -0.34586024 -0.06975868
0002a0 99 69 ac bd 59 ec c0 bc 3f dc 19 3b 8f e8 2e be
       -0.08418579 -0.0235502 0.0023477224 -0.17080902
0002b0 95 05 c0 bd 46 34 4b bc eb e5 bb 3d 33 bb a4 be
       -0.09376065 -0.0124026 0.09174713 -0.32174072
0002c0 09 c8 37 be 1d e8 53 bd a4 ae 81 3e 2a 2d 96 bf
       -0.17947401 -0.051735032 0.25328553 -1.1732533
0002d0 de 15 85 be 99 d0 1a be 6c 13 0b bd e1 72 4b 3e
       -0.25993246 -0.15118636 -0.03395407 0.19868042
0002e0 de 97 73 3e 7a 59 97 3d 7b 8e 8c bd d9 b8 c1 bc
       0.23788401 0.07390113 -0.068631135 -0.023647713
0002f0 06 a6 9f 3c 33 60 63 3e 71 c4 ca bd 19 d4 98 3d
       0.019488346 0.22204666 -0.099007495 0.074623294
000300 a6 19 cc 3c 4b c1 29 be ac e8 c4 bc 53 31 35 bd
       0.024914574 -0.16577642 -0.024036728 -0.044236492
000310 2b 1d 2b 3e ac 41 ec 3d 07 9d d2 bd bf bc f1 bd
       0.16710345 0.115359634 -0.10283857 -0.118035786
000320 f1 20 1e 3d 64 ba 1b be f9 5e 0d 3d 0c 76 e8 3d
       0.038605634 -0.15207821 0.0345144 0.11350641
000330 2d dc d6 bd dd 5f f8 3d a2 e0 47 bd 26 5c 2b be
       -0.10491214 0.121276595 -0.04879821 -0.1673437
000340 87 ce b5 bd 53 2a e7 bd 80 46 88 3c b0 d7 84 3e
       -0.088772826 -0.112873696 0.01663518 0.25945807
000350 81 81 40 3e 2e b4 fc 3d e4 64 48 bd 14 f1 14 3d
       0.18799402 0.12339054 -0.04892434 0.036362723
000360 53 3c dc bd 04 44 85 3e b4 33 ca 3d a8 81 33 be
       -0.107536934 0.26028454 0.09873143 -0.17529929
000370 3d 56 0d bf 42 ca 4c bd 5e 8d 8f 3e 60 aa 9d 3d
       -0.55209714 -0.049997576 0.28037542 0.07698512
000380 08 14 96 3c d3 ed 42 bb 30 a7 4f 3e 9b 61 98 bd
       0.018320099 -0.0029743805 0.2027862 -0.07440492
000390 3e 38 17 3e 3d 96 5b 3e bd 82 91 be 22 0e 98 3e
       0.14767548 0.2144403 -0.28420058 0.29698282
0003a0 1c 71 b1 bd f5 44 4c bd cb 08 07 be 1b 30 9d 3d
       -0.08664152 -0.04987045 -0.13186948 0.07675191
0003b0 f1 db 41 be 56 99 3e 3c 22 9d 02 be 0f 20 34 be
       -0.18931557 0.011633238 -0.12755254 -0.17590354
0003c0 25 c2 1c 3d 1a 12 cc bd d0 a6 00 3e 8d e2 bd bc
       0.03827109 -0.0996439 0.12563634 -0.023179317
0003d0 8d 87 6a bc 8c fe 7e 3e 76 0c df 3d 4d 8e f2 bd
       -0.014314544 0.2490179 0.108910486 -0.11843548
0003e0 18 ef 5f bd b4 a8 35 3c 8f 03 81 3d 65 d8 51 be
       -0.054671377 0.011087585 0.06299507 -0.20492704
0003f0 a7 61 99 bc a1 6b d8 3d 7c c2 d8 3b 1d 3e e1 bd
       -0.018723322 0.105674036 0.006614981 -0.10998175

fc4.bias f4 [24]
000000 8a d3 df bb 4d 25 25 be 7d 44 b3 bd f6 ef 14 bd
       -0.0068306373 -0.1612751 -0.087532975 -0.036361657
000010 0c 9f 87 3c 59 93 09 3e 49 a7 63 3c e9 d7 7e bd
       0.016555332 0.13435115 0.013894864 -0.062217627
000020 25 27 d3 bc f2 17 f0 3d e8 c1 12 3d 74 2b 00 be
       -0.025775502 0.11723317 0.035829455 -0.12516576
000030 97 3a 23 3e 65 28 57 3d 20 1b 6a be 34 69 dc bd
       0.15940319 0.052528758 -0.2286191 -0.107622534
000040 f8 66 5e 3e c0 75 fa 3c ff b3 d0 bd 73 6c 5e bd
       0.21718967 0.030573726 -0.101905815 -0.054302644
000050 73 c5 d1 3d 41 0f 63 bd 8a 5b f0 bc aa fc dc 3d
       0.102427386 -0.05543447 -0.029340524 0.10790379

exp_avg f4 [128, 144]
000000 8f 80 a4 ba be a4 34 3a b4 82 5c ba c9 60 0c ba
       -0.001255052 0.00068910036 -0.000841181 -0.0005354998
000010 b4 f9 70 3a 9a 41 03 39 5d 71 a5 39 40 1e e5 b8
       0.0009192482 0.00012517572 0.00031555715 -0.000109252054
000020 9d 43 0a ba 4a 46 88 3a 9b 3f 92 39 80 07 0d ba
       -0.00052743574 0.0010396924 0.0002789468 -0.0005379841
000030 86 c5 53 3a 54 cf 2c b9 46 a7 82 3a 0b c8 5a ba
       0.00080784445 -0.00016480434 0.0009968064 -0.0008345849
000040 34 63 af 38 e2 33 23 3a 26 fa 54 39 64 59 eb b9
       8.363128e-05 0.00062256877 0.00020311083 -0.00044889294
000050 48 3a ce b9 4d 9b 75 39 08 f8 dd b8 e6 6a b2 39
       -0.00039334805 0.00023422875 -0.000105843006 0.0003403045
000060 0a c2 87 ba 3f 1f 8f 3a fa 91 92 ba f7 17 ea 39
       -0.0010357511 0.0010919346 -0.001118242 0.00044649813
000070 d2 46 a6 3a c4 b0 d5 39 64 ea bd b7 a8 6e eb b9
       0.0012685901 0.00040758227 -2.2639702e-05 -0.00044905138
000080 00 66 87 ba ba 50 78 3a a6 07 dc b9 02 5f 55 ba
       -0.0010330081 0.00094724784 -0.00041967368 -0.00081394624
000090 b7 f5 a5 3a 5f b6 d4 b9 de 2e 9e 3a 62 21 0c 39
       0.001266173 -0.00040571668 0.0012068411 0.00013363876
0000a0 89 47 98 39 dd 03 b7 3a 85 af 00 3a 19 20 cb b9
       0.00029044997 0.0013962943 0.0004908967 -0.00038743092
0000b0 4f b2 4d ba 34 88 0c b9 00 cf 93 b9 8b c6 4d 3a
       -0.00078466994 -0.0001340218 -0.00028192252 0.00078497146
0000c0 b1 8d 8b ba 25 9a 9e 3a d3 61 69 ba 38 d6 c0 39
       -0.0010647086 0.0012100382 -0.00089028216 0.000367807
0000d0 cd 92 93 3a 3e 7e cf 39 96 51 fc 38 e4 0d df b9
       0.001125896 0.00039576174 0.00012031493 -0.00042544224
0000e0 74 96 7e ba e8 69 4d 3a 1c a9 ae b9 86 cb 4c ba
       -0.00097117503 0.00078359107 -0.00033313863 -0.000781231
0000f0 ea b5 b0 3a 56 54 7b b9 33 32 90 3a c0 c6 f4 37
       0.0013481949 -0.00023968643 0.0011001289 2.9179617e-05
000100 8b c4 af 39 e8 ee ad 3a a6 bb e3 39 3c b8 c4 b9
       0.00033525037 0.0013270052 0.00043436623 -0.00037521299
000110 0f 84 4e ba 70 a9 2d 38 00 8b a6 38 df 2c 47 3a
       -0.00078779546 4.1404215e-05 7.9413876e-05 0.0007597934
000120 b8 2e 85 ba 44 3c 9a 3a a0 e3 8e ba 9c 91 a9 39
       -0.0010161018 0.0011767228 -0.0010901578 0.0003234268
000130 d3 c8 a5 3a 24 f6 8a 39 70 33 30 39 dc 3e dc b9
       0.0012648351 0.000265048 0.0001680383 -0.00042008504
000140 24 51 71 ba 87 e0 fb 39 a8 54 ba b9 85 d8 70 ba
       -0.00092055113 0.00048041737 -0.00035539758 -0.00091875374
000150 fd 80 a8 3a 08 fb 37 b9 b0 ab 9a 3a 56 aa 92 38
       0.0012855824 -0.00017545756 0.0011800434 6.99355e-05
000160 15 bc f7 39 d2 1c b7 3a 2b 5b f1 39 94 d2 0d ba
       0.00047251643 0.0013970381 0.00046035027 -0.0005410102
000170 1c b9 8b b9 30 d1 8f 37 80 85 d0 b5 a0 b9 23 3a
       -0.00026650063 1.7144339e-05 -1.5536061e-06 0.0006245617
000180 2c 60 88 ba e7 0a a0 3a b1 d3 6e ba 4b f1 8f 39
       -0.0010404638 0.001221028 -0.0009110524 0.00027454863
000190 94 ca c6 3a e4 0e 00 39 74 06 7b 39 52 37 d9 b9
       0.0015166574 0.00012212578 0.0002393963 -0.00041430682
0001a0 58 e9 75 ba 9b 22 10 3a d7 52 8d b9 ac d0 85 ba
       -0.0009380779 0.00054983207 -0.00026955336 -0.0010209284
0001b0 88 c8 a4 3a 32 64 a0 b9 e9 8f ad 3a 8e 7c b5 38
       0.001257197 -0.0003059223 0.0013241741 8.653953e-05
0001c0 e9 5a c9 39 ab 45 a1 3a 19 9c 1b 3a ca ec 07 ba
       0.0003840544 0.0012304088 0.0005936041 -0.00051851256
0001d0 61 4e 85 b9 0c 54 8a b8 72 57 94 38 e7 9d 28 3a
       -0.00025426134 -6.596008e-05 7.073478e-05 0.00064322207
0001e0 e7 9b 72 ba 4a de 72 3a a5 f4 90 ba 47 8e af 39
       -0.00092547986 0.0009264691 -0.0011059238 0.00033484606
0001f0 1b ef e6 3a 4a cd 59 39 c4 1b e1 39 58 e4 fa b9
       0.0017618866 0.00020771209 0.0004293603 -0.00047853845
000200 68 4d 72 ba 87 f2 1a 3a c7 4a e2 b9 74 13 82 ba
       -0.0009243102 0.0005910773 -0.00043161793 -0.000992401
000210 a6 89 94 3a 22 db 92 b9 18 1a a8 3a e8 af 38 b8
       0.0011332526 -0.00028010557 0.0012825159 -4.4032844e-05
000220 1a 79 1d 39 34 7f 92 3a 96 15 1d 3a 2e e3 1d ba
       0.000150178 0.0011176826 0.0005992291 -0.0006022927
000230 de 20 af 38 30 0d 3a 38 ae 65 14 39 cb a4 0e 3a
       8.350772e-05 4.4358138e-05 0.00014152259 0.0005441426
000240 54 3a 92 3a 76 ee c9 3a e0 dd bb 37 42 02 90 39
       0.0011156299 0.001540615 2.2395456e-05 0.00027467503
000250 77 5b 05 3a 80 28 92 b9 ea bc 93 39 09 f6 91 39
       0.00050871767 -0.00027877465 0.00028178777 0.00027839866
000260 2c 78 46 3a 9a 79 6b 3a 6f 4a 60 b9 00 58 31 b6
       0.00075710076 0.00089826586 -0.00021390033 -2.6426278e-06
000270 2c 58 41 3a 66 6f 2f b9 96 2f 0a 3a a8 8b 10 39
       0.00073755044 -0.000167308 0.0005271373 0.00013784936
000280 12 2f 09 3a f1 0f cf 3a 1a 9a 7a 3a e2 b7 14 3a
       0.0005233149 0.0015797598 0.0009559706 0.00056731526
000290 82 5f 29 3a e9 4d 41 3a 5d 34 91 3a 54 f5 97 39
       0.000646107 0.0007373975 0.0011078228 0.00028983748
0002a0 d2 46 2c 3a 0b d5 3b 3a bd a2 12 3a fc 5b e7 39
       0.00065718323 0.000716523 0.0005593708 0.00044128287
0002b0 42 57 9a 3a 5c 5b 24 39 9f b9 af b9 f1 1b 24 ba
       0.0011775272 0.00015674293 -0.000335169 -0.0006260267
0002c0 ca 9c 00 ba 98 45 11 3a be 3c 0e 3a a0 7a 74 39
       -0.0004906176 0.00055416813 0.00054259214 0.00023315335
0002d0 53 c1 c1 3a 50 8e f8 38 2e 78 4d 3a 36 7e 84 b9
       0.0014782347 0.00011852069 0.00078380376 -0.00025271036
0002e0 da 50 53 3a 5a b4 b8 3a 42 1b 89 3a 96 cb e8 39
       0.0008061059 0.0014091835 0.0010460394 0.00044402172
0002f0 2c b1 81 3a 74 cc ae 3a cd dc ac 3a a4 8c 0f 3a
       0.000989472 0.0013336078 0.0013188362 0.0005475974
000300 ca ee 28 3a 55 d0 06 3a b5 87 18 3a f4 5a e8 39
       0.0006444274 0.0005142738 0.0005818562 0.00044318254
000310 76 f6 57 3a 50 3d 4b 39 10 ed c0 b8 5c 36 fd b8
       0.00082383247 0.0001938243 -9.19943e-05 -0.00012074105
000320 a8 9f 63 b9 22 39 42 3a 97 5a 90 39 1c 97 a6 39
       -0.00021707884 0.0007409026 0.00027533315 0.00031774573
000330 35 2f d2 3a 60 9e 7b b8 23 dd 33 3a 8c c9 1d b9
       0.0016035797 -5.999056e-05 0.000686126 -0.00015047769
000340 08 63 41 3a 19 6a c5 3a 1e 51 8f 3a c6 df b0 39
       0.00073771225 0.0015061527 0.0010934209 0.0003373606
000350 a0 5c 76 3a 2e 80 a3 3a 2d 02 a7 3a f4 68 8a 39
       0.00093979575 0.0012474114 0.0012741737 0.00026399607
000360 c2 39 6d 3a cc 3d eb 39 f9 ab 6b 3a 14 6e da 39
       0.0009049439 0.00044868735 0.00089901645 0.00041662215
000370 4a 3a 74 3a 18 a6 31 b9 d0 ac 24 b9 18 fb 2c b9
       0.0009316547 -0.0001694191 -0.00015704636 -0.00016496738
000380 c0 18 2e b8 40 7a 5e 3a cd c4 ba 39 38 2d eb 39
       -4.1507883e-05 0.00084868446 0.00035623313 0.00044856383
000390 f7 55 e1 3a 40 ee 07 38 a8 15 24 3a 7e 1a 07 b9
       0.0017191757 3.2408396e-05 0.00062593305 -0.00012884472
0003a0 04 d9 2c 3a f0 e7 cc 3a bc ca 93 3a aa 1c e9 39
       0.0006593617 0.0015633088 0.001127563 0.0004446258
0003b0 65 03 cf 39 98 65 91 3a 1f 15 c5 3a f4 42 9b 39
       0.00039484646 0.0011092899 0.0015036202 0.00029613788
0003c0 26 1a 7b 3a 8c d9 0c 3a 76 4f 47 3a a0 fa 8a 39
       0.00095787866 0.0005372993 0.0007603088 0.0002650814
0003d0 7a bb 83 3a 80 e2 ef 36 44 67 20 b9 40 09 86 b7
       0.0010050379 7.149123e-06 -0.00015297259 -1.5978352e-05
0003e0 00 27 2b b8 18 fd 5d 3a be 42 c0 39 48 09 d2 39
       -4.08059e-05 0.0008468195 0.0003667082 0.00040061236
0003f0 a6 66 f8 3a 70 50 58 38 80 fe dc 39 d4 4f bd b9
       0.001895149 5.1573326e-05 0.00042151287 -0.00036108366

exp_avg_sq f4 [128, 144]
000000 0e 93 54 38 72 51 e4 37 8d a4 78 38 97 be 4d 37
       5.0681694e-05 2.7217644e-05 5.9281057e-05 1.2263327e-05
000010 98 72 56 38 ae 8a 1a 38 81 03 7e 37 3b cf 08 37
       5.11283e-05 3.6845617e-05 1.5140396e-05 8.154481e-06
000020 ca 4c 71 37 67 97 c3 37 88 eb 4d 37 30 ed 85 37
       1.4382598e-05 2.3316314e-05 1.2273791e-05 1.5965285e-05
000030 9b d5 75 38 bf cd 68 36 10 cf f9 37 55 83 1a 37
       5.8611487e-05 3.4690454e-06 2.9779534e-05 9.209693e-06
000040 09 7e 4e 38 ae 31 97 38 0d 44 97 38 5f a7 62 37
       4.9231607e-05 7.209495e-05 7.2129165e-05 1.3509619e-05
000050 f1 70 83 38 2f bf 74 37 76 82 b2 37 b0 bb a8 37
       6.267604e-05 1.4588047e-05 2.1280004e-05 2.011456e-05
000060 f9 8d de 38 14 cd 37 38 c6 54 dc 38 bd 41 9c 37
       0.000106122294 4.3821594e-05 0.00010506208 1.8627261e-05
000070 76 dc a7 38 08 6c 72 38 1b e0 99 37 80 ba 84 37
       8.0042446e-05 5.7797908e-05 1.8343379e-05 1.5822472e-05
000080 05 30 ec 37 f0 c8 5c 38 a8 10 28 38 9a a1 27 38
       2.8155753e-05 5.2639225e-05 4.0069834e-05 3.9966406e-05
000090 02 5c ae 38 33 b0 a6 37 db cc 46 38 b2 e8 f6 37
       8.314104e-05 1.9870791e-05 4.7397665e-05 2.9433842e-05
0000a0 f0 6e ce 38 35 2d cf 38 61 a6 e5 38 c4 56 c3 37
       9.843509e-05 9.87895e-05 0.000109505614 2.3286215e-05
0000b0 c2 9c d1 38 23 92 25 38 75 35 4a 38 bc 82 33 38
       9.995095e-05 3.9475166e-05 4.821034e-05 4.279868e-05
0000c0 9b ae d7 38 c3 ad 3d 38 8d 32 d2 38 d8 ee 9a 37
       0.00010284522 4.522294e-05 0.00010022996 1.846945e-05
0000d0 af ef a4 38 90 09 7e 38 9e 09 97 37 9c 18 89 37
       7.864774e-05 6.0567225e-05 1.8005081e-05 1.6343132e-05
0000e0 72 6e fc 37 14 96 6d 38 46 b4 32 38 9b c8 38 38
       3.0092171e-05 5.6644974e-05 4.26064e-05 4.4055847e-05
0000f0 92 82 b5 38 b3 f7 b7 37 3c fc 3a 38 85 ed 0d 38
       8.655073e-05 2.1930644e-05 4.4580767e-05 3.3838227e-05
000100 c6 20 c6 38 7c f1 c9 38 2c 2b da 38 35 68 ba 37
       9.44748e-05 9.629407e-05 0.000104030914 2.2221453e-05
000110 ba fa dc 38 b9 5c 22 38 79 af 41 38 19 d2 3f 38
       0.00010537119 3.8710165e-05 4.6178207e-05 4.5733617e-05
000120 6d 71 da 38 48 2a 3f 38 7b 06 c6 38 d0 b1 9b 37
       0.00010416177 4.5577326e-05 9.442583e-05 1.856024e-05
000130 94 f3 a5 38 70 90 7a 38 de 8b 9b 37 cf a6 8f 37
       7.913183e-05 5.9739163e-05 1.854257e-05 1.7124605e-05
000140 ca 43 06 38 df 46 71 38 21 18 3c 38 96 8d 36 38
       3.2011223e-05 5.752488e-05 4.4845165e-05 4.3524044e-05
000150 93 3c b8 38 3a a2 b4 37 d7 83 3c 38 e1 c8 0b 38
       8.7850865e-05 2.1533215e-05 4.494548e-05 3.3327266e-05
000160 a6 60 c1 38 5c ee cb 38 8d e1 da 38 c8 90 b4 37
       9.220959e-05 9.724192e-05 0.00010437062 2.1525091e-05
000170 67 64 dd 38 cb 36 2a 38 4b 9f 3d 38 76 b3 32 38
       0.000105568026 4.058219e-05 4.5209465e-05 4.2605643e-05
000180 6f ba dc 38 37 45 42 38 0a 17 bf 38 8f fa a4 37
       0.000105251434 4.6317666e-05 9.111881e-05 1.9666999e-05
000190 bb 9d a7 38 3f 6d 79 38 8b 42 99 37 5b 38 97 37
       7.99256e-05 5.946797e-05 1.8270008e-05 1.8026845e-05
0001a0 1d 7b 0d 38 60 50 63 38 b7 97 40 38 45 a0 40 38
       3.3731678e-05 5.4195873e-05 4.5917663e-05 4.592563e-05
0001b0 18 a8 b6 38 e6 e8 a9 37 71 52 38 38 fa ac 10 38
       8.709746e-05 2.0254822e-05 4.3945798e-05 3.4493372e-05
0001c0 1e 89 c4 38 52 95 d0 38 10 9f d8 38 a4 b7 b8 37
       9.3715484e-05 9.946026e-05 0.0001032931 2.2020024e-05
0001d0 dd 47 dd 38 c4 bf 26 38 0c e0 2d 38 91 c5 2d 38
       0.00010551487 3.975608e-05 4.1455074e-05 4.1430412e-05
0001e0 07 24 df 38 2f 4f 4c 38 a2 4d be 38 32 b1 ae 37
       0.00010640179 4.8711136e-05 9.074366e-05 2.082493e-05
0001f0 60 8c a7 38 0e ea 80 38 02 e4 87 37 b5 22 9e 37
       7.9893274e-05 6.147112e-05 1.6199429e-05 1.885123e-05
000200 30 79 0e 38 aa d5 5f 38 3a 17 3a 38 3b 32 4a 38
       3.3968303e-05 5.3366333e-05 4.4367487e-05 4.8207334e-05
000210 5c 97 b9 38 5d d5 a3 37 f1 c3 38 38 e4 a9 07 38
       8.84968e-05 1.953047e-05 4.4051503e-05 3.234473e-05
000220 4a e1 c1 38 f3 da d3 38 87 1a dc 38 87 e0 b5 37
       9.2449205e-05 0.000101020465 0.000104953586 2.1681435e-05
000230 15 f7 dd 38 5a 1a 22 38 8e d5 21 38 47 24 32 38
       0.00010584124 3.864835e-05 3.858428e-05 4.2472293e-05
000240 c9 91 25 39 16 dd f7 37 ae 57 c1 38 7b ce 56 38
       0.00015789935 2.9547646e-05 9.219289e-05 5.1213876e-05
000250 54 a9 9f 38 31 87 2e 38 54 38 c7 37 c1 2a 08 38
       7.613251e-05 4.161074e-05 2.3748878e-05 3.2464744e-05
000260 aa db ac 38 25 a4 54 38 44 7f 0f 38 89 a2 b1 38
       8.242515e-05 5.069761e-05 3.4212382e-05 8.470292e-05
000270 ea 94 a4 38 19 f3 c8 37 fd de fb 37 52 10 25 38
       7.847867e-05 2.3955059e-05 3.0025369e-05 3.9354265e-05
000280 34 13 b3 38 e9 ed c6 38 91 67 38 39 ad 9b 5d 38
       8.538962e-05 9.48569e-05 0.00017586189 5.283549e-05
000290 39 99 bc 38 ed ab 3f 38 3c 3c e7 37 01 71 1f 38
       8.9930785e-05 4.5698067e-05 2.7565395e-05 3.8013797e-05
0002a0 99 0f d0 39 7f 08 88 38 21 8d 93 39 10 df 0b 39
       0.00039684473 6.486568e-05 0.00028143174 0.0001333917
0002b0 23 97 30 39 dd 0f 31 39 64 42 7b 38 92 44 d9 38
       0.00016840971 0.00016885945 5.9904894e-05 0.000103601385
0002c0 e6 a4 4f 39 1d d9 24 39 99 64 86 38 88 74 44 39
       0.00019802488 0.0001572114 6.408356e-05 0.00018735428
0002d0 da 46 54 39 61 dc 89 38 90 15 c6 38 39 fb 8c 38
       0.0002024429 6.573718e-05 9.445392e-05 6.722514e-05
0002e0 64 9f 48 39 fd 6e 50 39 50 6e c5 39 ae c6 21 39
       0.00019132864 0.00019877772 0.00037656957 0.0001542817
0002f0 c4 40 61 39 7a d7 c6 38 da 1c ae 38 1c f9 b8 38
       0.00021481799 9.4815114e-05 8.3023406e-05 8.820204e-05
000300 94 9a d0 39 53 0c 89 38 90 05 92 39 92 49 0c 39
       0.0003978802 6.5349646e-05 0.00027851434 0.00013378848
000310 c7 e6 36 39 9c 11 35 39 12 d0 68 38 06 35 f1 38
       0.00017442844 0.00017268065 5.550689e-05 0.00011501652
000320 43 55 47 39 59 72 25 39 83 da 92 38 91 c4 41 39
       0.00019009881 0.00015778224 7.0025235e-05 0.00018479141
000330 57 83 50 39 ec 86 90 38 75 86 cf 38 7f 7c 98 38
       0.00019885354 6.891586e-05 9.895574e-05 7.271114e-05
000340 be 14 3c 39 23 eb 51 39 bc 99 cb 39 ff 60 1f 39
       0.00017936804 0.00020019388 0.00038833718 0.00015199555
000350 9c 71 77 39 49 b1 c5 38 e5 37 b7 38 01 66 c2 38
       0.00023598078 9.426714e-05 8.736531e-05 9.2696406e-05
000360 f3 c2 ce 39 65 24 8b 38 37 56 95 39 17 24 05 39
       0.0003943663 6.6348155e-05 0.0002848373 0.00012697313
000370 f0 e4 2d 39 5e 5a 2c 39 c6 57 6a 38 96 b0 fe 38
       0.00016583852 0.00016436863 5.5871693e-05 0.000121445555
000380 32 c6 3e 39 1c b8 27 39 29 0c a6 38 c1 5e 40 39
       0.00018193646 0.00015994947 7.917762e-05 0.00018345845
000390 a3 0c 5c 39 6a 61 91 38 58 ca c7 38 33 95 99 38
       0.00020985543 6.9322836e-05 9.526749e-05 7.323399e-05
0003a0 c2 2a 3c 39 34 f0 50 39 79 b5 cb 39 f7 b6 20 39
       0.00017945006 0.00019925908 0.00038854385 0.00015326949
0003b0 3e b9 7a 39 b3 d8 cb 38 b1 a7 bb 38 38 5c bf 38
       0.00023910866 9.720158e-05 8.94809e-05 9.124767e-05
0003c0 ea 77 ce 39 60 5d 8f 38 e3 91 91 39 a6 7d 0b 39
       0.00039380725 6.836164e-05 0.0002776525 0.0001330288
0003d0 0b bd 2f 39 b8 95 2f 39 3a be 6c 38 bf 8f f8 38
       0.00016759725 0.00016745075 5.6443947e-05 0.00011852336
0003e0 1e 2b 3a 39 8a 8e 25 39 d3 67 a3 38 d7 f3 40 39
       0.00017754405 0.00015788726 7.7917844e-05 0.00018401384
0003f0 0e e7 59 39 04 ac 91 38 8f 5c cd 38 2a 43 a3 38
       0.00020780807 6.946179e-05 9.792402e-05 7.784956e-05
