models/RaceModels/reg_pos_3_coef_copies_1to5_2HL_customweightrankingloss/model.pt (torch, 354223 bytes, 18 tensors)

fc1.weight f4 [128, 144]
0	0xbd5b0752	-0.053473778
1	0xbe21810f	-0.15771888
2	0xbe2977b8	-0.16549575
3	0x3e3a0986	0.18167695
4	0x3ea1cdb5	0.31602255
5	0xbdc05d2f	-0.09392773
6	0x3ddefb73	0.10887804
7	0x3d06bbfb	0.032894116
8	0x3da54b05	0.080709495
9	0xbc0fed54	-0.008784611
10	0x3ea9fd5b	0.33201107
11	0x3dd68f89	0.10476596
12	0x3e3f6302	0.18690112
13	0x3d3b73d1	0.045764748
14	0xbcf5e0f4	-0.030014493
15	0xbd859780	-0.06523037
16	0x3e73bbc9	0.23802103
17	0x3e2df73a	0.1698884
18	0x3e3ab1c1	0.1823187
19	0x3d8bae37	0.06820338
20	0xbd0750af	-0.03303593
21	0xbd06f318	-0.032946676
22	0xbd117eea	-0.035521425
23	0x3d0a648c	0.033787295
24	0x3dad3e35	0.08459131
25	0xbd9f4b87	-0.077780776
26	0xbd88ed3b	-0.06685873
27	0x3db79be9	0.089652844
28	0x3d8c0b7a	0.068381265
29	0x3d22ccec	0.03974621
30	0x3c8559df	0.016278205
31	0x3a8c1efd	0.0010690388
32	0x3e19710c	0.1498453
33	0xbe70278b	-0.23452584
34	0x3d47f872	0.04882092
35	0xbdc40508	-0.09571272
36	0x3e100065	0.1406265
37	0xbd9ec76a	-0.07752879
38	0x3c15f17e	0.0091518145
39	0x3d992922	0.074785486
40	0x3c8a6228	0.016892508
41	0x3d693dc2	0.056943662
42	0x3e0b4ce1	0.13603546
43	0x3c4b6718	0.012414716
44	0xbe05f8be	-0.13083169
45	0xbdcc8d8c	-0.099879354
46	0xbddfdfb5	-0.109313406
47	0xbddf81b4	-0.10913411
48	0xbc9a3d7f	-0.018828152
49	0xbe09c0cf	-0.13452457
50	0xbd822f96	-0.063567325
51	0xbb2bbb78	-0.002620427
52	0x3c689415	0.014195462
53	0xbdc4ff6b	-0.096190296
54	0x3d8136ec	0.06309304
55	0x3d982628	0.07429153
56	0x3dc2781a	0.09495564
57	0xbe426509	-0.18983854
58	0x3e175cc5	0.14781483
59	0x3c76e1f6	0.015068522
60	0x3e2d6094	0.16931373
61	0xbe592632	-0.21205977
62	0x3e127077	0.14300714
63	0xbdba5bec	-0.09099564
64	0x3e0efef9	0.13964452
65	0xbd126d0f	-0.035748538
66	0x3ddfcad8	0.10927361
67	0xbd508e62	-0.050917037
68	0xbc8d252f	-0.017229645
69	0xbdf34d99	-0.11880035
70	0x3c1b2d9d	0.009471324
71	0xbdc1e0e5	-0.09466723
72	0x3c724b99	0.014788532
73	0xbe2bddae	-0.16783783
74	0x3d5b76a7	0.053579953
75	0x3df5b849	0.1199804
76	0x3da70004	0.081543
77	0xbcfa1379	-0.030526863
78	0xbd9105e7	-0.07081204
79	0xbc4fa122	-0.012672694
80	0x3d8d3edc	0.06896755
81	0xbce2ad72	-0.027670596
82	0x3e13775a	0.14400998
83	0x3d4e5f11	0.05038363
84	0x3d10a070	0.035309255
85	0xbe4ade9e	-0.19811484
86	0x3df680b1	0.12036265
87	0xbcf231c0	-0.029564738
88	0x3d1cdf16	0.03829869
89	0x3c2430eb	0.010021429
90	0x3e1505fc	0.14553064
91	0xbd96ea1a	-0.0736887
92	0xbd306c2b	-0.043071907
93	0x3c0a36b7	0.008435897
94	0x3d57c99e	0.05268251
95	0xbda38176	-0.07983677
96	0x38b36665	8.5544576e-05
97	0xbdd48f69	-0.10378916
98	0x3d48290e	0.048867278
99	0x3e092a92	0.13395146
100	0x3dbf1ce1	0.0933168
101	0x3ae04d0d	0.0017112807
102	0xbdf7d946	-0.121019885
103	0x3d48a73a	0.048987605
104	0x3dcf88cc	0.10133514
105	0xbdc7cab3	-0.09755459
106	0x3e0a97d6	0.13534483
107	0x3c3a34c2	0.0113651175
108	0x3d819c7d	0.06328676
109	0xbe8c21da	-0.27369577
110	0x3e307efa	0.17235938
111	0xbd795d84	-0.0608802
112	0x3d5f94f4	0.054585412
113	0xbdb0e944	-0.08638242
114	0x3d63580e	0.055503897
115	0xbdaa1120	-0.083040476
116	0xbcaf52ed	-0.021401847
117	0xbb0b1203	-0.0021220453
118	0xbd1e49cb	-0.038644593
119	0xbd7934d5	-0.0608414
120	0x3d916d35	0.07100908
121	0xbe304ba7	-0.17216359
122	0xbd899ff8	-0.06719965
123	0x3e5d6e34	0.2162407
124	0x3e2ab6cb	0.16671292
125	0xbd4f74cd	-0.0506485
126	0xbe43c3f3	-0.19117717
127	0x3d3dc292	0.046328135
128	0x3cbb0c94	0.022833146
129	0xbd61cbbe	-0.055125944
130	0x3e575780	0.21029472
131	0x3db6c935	0.08925096
132	0x3da79e3c	0.08184478
133	0xbe69774e	-0.22799417
134	0x3e48062f	0.19533609
135	0xbda8cf47	-0.0824266
136	0x3de267eb	0.11054977
137	0x3dd35e89	0.103207655
138	0x3dd03591	0.10166467
139	0xbbe33a09	-0.0069344086
140	0xbd5c7e94	-0.05383165
141	0xbd566057	-0.05233797
142	0xbcf459a0	-0.029827893
143	0xbd6dd628	-0.058065563
144	0x3b5ae7a4	0.0033402229
145	0xbe6f8b04	-0.23392874
146	0x3e14710a	0.14496246
147	0xbdde37e9	-0.10850508
148	0x3c1c0684	0.009523038
149	0x3ec81b47	0.3908331
150	0xbe1574e7	-0.14595376
151	0xbe958244	-0.29200947
152	0x3e2166de	0.15761897
153	0x3e06921e	0.13141677
154	0xbaeeba8e	-0.0018213557
155	0xbe2b418f	-0.16724227
156	0x3d24d99e	0.0402466
157	0xbd8e249c	-0.069405764
158	0xbd6b6a40	-0.057474375
159	0x3e482d91	0.19548632
160	0x3e45bdad	0.19310637
161	0x3e95e15c	0.29273498
162	0x3e2ff85c	0.17184585
163	0x3d5e208f	0.05423027
164	0x3d977941	0.07396174
165	0xbe330927	-0.1748396
166	0xbe213e84	-0.15746504
167	0x3c2740a1	0.01020828
168	0xbc4ae885	-0.012384539
169	0x3ca27102	0.019829277
170	0xbe1fc59c	-0.15602726
171	0xbd1849c9	-0.037179742
172	0xbda0ace6	-0.07845478
173	0xbd8df417	-0.06931322
174	0xbe29bd65	-0.16576155
175	0xbd24a7e0	-0.04019916
176	0x3d73c41b	0.059513193
177	0x3c994c2a	0.018713076
178	0xbcf41efb	-0.029799929
179	0xbe6d6a8e	-0.23185179
180	0x3d9e7d1a	0.07738705
181	0x3e0ada00	0.13559723
182	0x3cfc3be3	0.030790275
183	0xbd2d8601	-0.042364124
184	0x3da6a0d5	0.08136145
185	0x3e7707a3	0.24124007
186	0x3cad82a7	0.021180464
187	0x3c99ac18	0.018758819
188	0xbd7dbff6	-0.061950646
189	0xbdcd8523	-0.100351594
190	0xbb6d7009	-0.0036230108
191	0xbdf4eb06	-0.1195889
192	0xbd8555d2	-0.065105096
193	0xbd5ecf38	-0.054396838
194	0xbdeeff2a	-0.116697624
195	0xbe01daca	-0.12681118
196	0xbaef4f31	-0.0018257854
197	0x3dd7d128	0.1053794
198	0xbd1804f7	-0.03711411
199	0xbd59bd0f	-0.053158816
200	0x3e010390	0.12599015
201	0x3d675245	0.056474943
202	0x3c5af426	0.013363874
203	0xbe06af4b	-0.13152806
204	0x3d9a873a	0.07545324
205	0x3de99b0e	0.114065275
206	0x3dec4095	0.115357555
207	0x3d4e7024	0.050399914
208	0x3e63c4de	0.22243068
209	0x3e2f3273	0.17109089
210	0x3d9d55ff	0.07682418
211	0x3c9c6879	0.019092785
212	0xbe1b4bbf	-0.15165614
213	0xbdaff5fa	-0.08591838
214	0xbdd2fa0a	-0.103015974
215	0xbe37e624	-0.17958885
216	0x3cfc268a	0.030780096
217	0xbe0255f4	-0.12728101
218	0xbd952eb4	-0.072842985
219	0xbc90361b	-0.017603924
220	0xbcea8397	-0.0286272
221	0x3e2b44f0	0.16725516
222	0xbd5d7e0e	-0.054075293
223	0x3c2beaf6	0.010493031
224	0x3bb00347	0.0053714844
225	0x3df8ee79	0.1215486
226	0xbdce8a6c	-0.100849956
227	0xbdf73b51	-0.120718606
228	0x3d421482	0.04738284
229	0x3e3ddeba	0.18541995
230	0x3e30fe4f	0.17284511
231	0x3bd36637	0.006451394
232	0x3e582c5e	0.21110675
233	0x3e473da7	0.19457112
234	0x3d4dd9b7	0.050256457
235	0x3e24ea3c	0.16104978
236	0xbde11984	-0.10991195
237	0xbe84bc08	-0.25924706
238	0xbd91071f	-0.07081436
239	0xbe54f2ba	-0.20795718
240	0x3da79ddd	0.08184407
241	0xbd8476b8	-0.06467956
242	0x3d0379bc	0.032098517
243	0x3d5211f1	0.05128664
244	0xbdc5f9b3	-0.09666767
245	0x3e33bc37	0.17552267
246	0xbda005a9	-0.078135796
247	0xbbbaec39	-0.0057044295
248	0x3c81656c	0.015795432
249	0x3dd8d5c5	0.10587648
250	0xbdf0ca37	-0.117573194
251	0xbdf61e3f	-0.12017488
252	0xbda62fdc	-0.08114597
253	0x3ce826a5	0.02833874
254	0x3cff73f4	0.03118322
255	0x3d081ca2	0.03323043

fc1.bias f4 [128]
0	0xbdc6d7d9	-0.097091384
1	0x3cda6595	0.026659766
2	0xbd5baae6	-0.05362978
3	0x3db474f7	0.08811372
4	0xbc173195	-0.00922813
5	0x3cd39a14	0.025830306
6	0xbd0ed474	-0.03487058
7	0x3d954ef3	0.07290449
8	0x3d78b72a	0.060721554
9	0xbc232479	-0.009957426
10	0xbd4b9b58	-0.049708694
11	0xbcadec2e	-0.021230783
12	0xbd803f35	-0.06262056
13	0xbd67b768	-0.056571394
14	0xbd41158a	-0.047139682
15	0xbd9ae09c	-0.07562372
16	0x3db4b15f	0.08822893
17	0xbdde048e	-0.108407125
18	0xbd1ca27a	-0.038240887
19	0xbd899013	-0.06716933
20	0x3badef25	0.0053080493
21	0x3d1aae86	0.037764095
22	0x3d01b15e	0.03166329
23	0xbd1b4d9b	-0.037915807
24	0xbc49ff4e	-0.012328936
25	0x3d14d12d	0.036332298
26	0x3c311519	0.010808253
27	0xbd8151ad	-0.063144065
28	0xbcb8f342	-0.022576932
29	0xbbac9bba	-0.0052675875
30	0xbd041122	-0.0322429
31	0x3db18d90	0.08669579
32	0x3d278c2b	0.04090516
33	0xbdb0addd	-0.08626912
34	0xbd980f7b	-0.07424828
35	0x3e11075a	0.1416296
36	0xbd7c536d	-0.061603
37	0xbcb04190	-0.021515638
38	0xbb0aa7cb	-0.0021157141
39	0xbdad8634	-0.08472863
40	0x3d9eb9f3	0.07750311
41	0x3ceb9a61	0.028760137
42	0xbcb9f2d9	-0.022698807
43	0x3a796a80	0.0009514466
44	0xbd808b9c	-0.062766284
45	0xbd49d966	-0.049279593
46	0xbd774828	-0.060371548
47	0x3d8cbea4	0.06872299
48	0x3db1e89c	0.08686945
49	0xbd899460	-0.067177534
50	0x3d240326	0.040042065
51	0x3b4767c5	0.0030426842
52	0x3da492a4	0.08035782
53	0xbcfd941c	-0.030954413
54	0xbdb1fe95	-0.08691136
55	0xbda2d494	-0.07950702
56	0xbda317c3	-0.079635166
57	0xbcc7e757	-0.024402304
58	0xbd53cdc3	-0.0517099
59	0x3de37919	0.11107082
60	0xbcb6ac8a	-0.02229907
61	0x3d51d1ab	0.051225346
62	0x3d8c41eb	0.0684851
63	0x3d6e703f	0.058212515
64	0xbcfbe8ec	-0.030750714
65	0xbdb85834	-0.090011984
66	0x3d26d4fc	0.04073046
67	0x3b90265a	0.004399103
68	0xbd6f4b37	-0.05842134
69	0xbd4b7348	-0.049670488
70	0xbda0328e	-0.078221425
71	0xbd169e03	-0.036771785
72	0xbd1eb3e8	-0.03874579
73	0x3d998386	0.07495789
74	0xbcd398e5	-0.025829742
75	0x3d8e9ddc	0.06963703
76	0x3d538201	0.051637653
77	0xbd294035	-0.041321
78	0x3d803e38	0.06261867
79	0xbd00f272	-0.031481214
80	0x3dba54bd	0.09098194
81	0xba81824a	-0.0009880748
82	0x3c26cf28	0.010181226
83	0x3d9c1980	0.07622051
84	0xbdc903ac	-0.098151535
85	0x3c9d5e10	0.019209892
86	0x3d83f727	0.06443625
87	0xbcb3374f	-0.02187696
88	0x3c9f5560	0.01944989
89	0x3c1d5d58	0.009604774
90	0x3d2e089d	0.042488683
91	0x3bd09ce1	0.0063663577
92	0x3c1b5367	0.009480334
93	0xbcbe2b89	-0.023214119
94	0x3d314a58	0.04328379
95	0x3d36006d	0.044434
96	0x3da6954d	0.081339456
97	0x3de105c0	0.10987425
98	0xbbf953ef	-0.0076088826
99	0x3c67274a	0.014108488
100	0x3d35852a	0.04431645
101	0x3b322163	0.0027180545
102	0xbce165a9	-0.027514296
103	0xbde1c0a4	-0.110230714
104	0xbcc6b17c	-0.024254553
105	0xbd3676db	-0.044546943
106	0x3d01419f	0.03155672
107	0xbdd63879	-0.1045999
108	0x3db35d29	0.08758003
109	0xbd43ccae	-0.04780262
110	0x3d955b6c	0.07292828
111	0x3cb28ac5	0.021794686
112	0xbdd59f8c	-0.10430822
113	0x3cda5875	0.026653508
114	0xbd9048e1	-0.070451505
115	0xbc3c9508	-0.011510141
116	0xbdb3d0cc	-0.08780059
117	0xbd24cdf9	-0.040235493
118	0xbda6ae4c	-0.08138713
119	0x3d3780fb	0.04480074
120	0xbdc4c630	-0.09608114
121	0xbd234962	-0.039864905
122	0x3d6772f2	0.056506105
123	0xbd0bc938	-0.034127444
124	0x3cd3dd57	0.025862379
125	0xbb110b12	-0.0022131843
126	0xbd271b4e	-0.040797524
127	0x3cd3d3ba	0.025857795

fc2.weight f4 [64, 128]
0	0xbe399734	-0.18124086
1	0x3d6dc462	0.058048613
2	0xbc707770	-0.014676914
3	0xbe04d79f	-0.12972878
4	0xbc611f92	-0.013740437
5	0xbd1dc2e4	-0.03851594
6	0xbe2d97c1	-0.16952421
7	0xbd86ab9c	-0.06575701
8	0x3c0d00b2	0.008606123
9	0xbd00e7d2	-0.03147108
10	0x3d45375a	0.04814849
11	0xbb0feffd	-0.0021963113
12	0x3d6e8a35	0.058237273
13	0xbdccaa06	-0.09993367
14	0xbd8ea039	-0.06964154
15	0xbd726284	-0.059175983
16	0x3dd7fd3f	0.1054635
17	0x3e0a1167	0.13483201
18	0xbd27f8ba	-0.04100869
19	0xbd7ac8d4	-0.06122668
20	0x3d931f3b	0.07183691
21	0xbd272bb5	-0.040813167
22	0x3c5fc221	0.013657124
23	0x3bfafc20	0.00765945
24	0xbb25c390	-0.0025293566
25	0xbc09f37c	-0.008419868
26	0xbd6abde4	-0.05731
27	0xbd769f7b	-0.060210686
28	0x3df080fe	0.11743353
29	0xbdbc5c23	-0.09197261
30	0xbdfb7acf	-0.12279283
31	0x3db49979	0.08818335
32	0x3db7affb	0.089691125
33	0x3bc40ad7	0.0059827375
34	0xbc75b6b8	-0.014997177
35	0x3d4a0c3b	0.04932807
36	0xbde1a3f3	-0.11017599
37	0x3d8df459	0.06931371
38	0x3dd8fa0d	0.105945684
39	0xbd11cee7	-0.035597708
40	0xbe3524fd	-0.17689891
41	0xbd2753d8	-0.040851444
42	0x3c901ef6	0.017592888
43	0xbd6c30de	-0.05766379
44	0x3e2bc8dc	0.1677584
45	0xbd21d03f	-0.03950524
46	0x3dc55909	0.09636123
47	0x3d2af84e	0.041740708
48	0x3e75f840	0.24020481
49	0x3d2e49b6	0.042550765
50	0xbd9ad905	-0.075609244
51	0x3d7e6cfd	0.062115658
52	0x3c04f93a	0.008116061
53	0xbda1370e	-0.07871829
54	0x3dae3310	0.08505833
55	0xbb2ce01d	-0.00263787
56	0xbd85b354	-0.06528345
57	0x3dc47af8	0.09593767
58	0xbdb38151	-0.087648995
59	0x3ce5e381	0.028062584
60	0x3c43474f	0.011918857
61	0x3df8f5f4	0.12156287
62	0x3d057654	0.03258355
63	0xbc731999	-0.014837646
64	0x3d792f0e	0.06083589
65	0xbd88a33b	-0.06671759
66	0x3dd7bc60	0.105339766
67	0x3d14074d	0.036139775
68	0xbc51da64	-0.012808416
69	0x3cdfc115	0.027313748
70	0x3de19881	0.11015416
71	0x3cd0a720	0.025470316
72	0x3d575e85	0.052580375
73	0x3c16f823	0.009214434
74	0xbd8ed6b3	-0.069745444
75	0x3e1dbaca	0.15403286
76	0x3d8701f5	0.0659217
77	0xbe4b3cbf	-0.19847392
78	0xbe236391	-0.1595595
79	0x3c93d5ee	0.018046346
80	0xbd96c8d2	-0.07362522
81	0xbde2fac4	-0.11082986
82	0x3dea98e1	0.114549406
83	0x3d60434b	0.054751676
84	0x3e3a3335	0.18183596
85	0x3e14570b	0.1448633
86	0xbd67528f	-0.05647522
87	0x3e2dd9a8	0.1697756
88	0x3d89c32b	0.067266785
89	0xbdac8f51	-0.08425773
90	0xbd8d99e8	-0.06914121
91	0x3e3251b8	0.17413986
92	0x3d8f676a	0.070021465
93	0x3d272c7a	0.0408139
94	0x3e461769	0.19344868
95	0x3df0d096	0.117585346
96	0x3e21acbb	0.15788548
97	0x3e44c6cf	0.19216464
98	0xbcccde96	-0.025008481
99	0xbd9d6c80	-0.0768671
100	0x3ba04b73	0.0048918067
101	0xbda6799c	-0.08128664
102	0xbda06562	-0.07831837
103	0xbdfe1f04	-0.124082595
104	0xbd226b66	-0.039653204
105	0xbb89ba70	-0.0042031333
106	0xbe15709e	-0.14593741
107	0x3e0ac1a0	0.13550425
108	0xbe444595	-0.19167168
109	0x3d7b1232	0.06129665
110	0x3d891218	0.06692904
111	0x3c0794b9	0.008275204
112	0xbe7a1107	-0.24420558
113	0x3e086b95	0.1332229
114	0xbd8cc222	-0.068729654
115	0xbd98ec8f	-0.07466995
116	0xbc49ff08	-0.012328871
117	0x3e21988a	0.15780845
118	0x3d8eecb7	0.069787435
119	0x3cfe8e21	0.031073632
120	0xbc17a46e	-0.009255512
121	0x3d476c5f	0.048687335
122	0xbe218896	-0.1577476
123	0xbd995378	-0.074866235
124	0x3d3c519c	0.045976266
125	0xbd45d5ad	-0.04829948
126	0xbca73dfd	-0.0204153
127	0xbd1b2cea	-0.03788463
128	0x3c13cee8	0.009021498
129	0x3d6a2897	0.057167616
130	0x3d111a3e	0.035425417
131	0xbd58c5db	-0.052923065
132	0xbd022ee7	-0.03178301
133	0xbca33ba0	-0.019925892
134	0xbd9476ba	-0.07249208
135	0x3cfda1a2	0.030960862
136	0x3d321c64	0.043484107
137	0xbd81582b	-0.06315645
138	0xbd78a500	-0.06070423
139	0x3d81baac	0.06334433
140	0xbda3ea70	-0.080037
141	0x3d1285b5	0.035772044
142	0xbce21e2c	-0.027602278
143	0x3d99d9c5	0.07512239
144	0x3cf2e8ff	0.029652117
145	0x3d1e61c4	0.038667455
146	0x3d9e7960	0.07737994
147	0xbd95d16d	-0.073153354
148	0x3d58712f	0.052842315
149	0xbda4ddd1	-0.080501206
150	0xbd265bc2	-0.04061485
151	0xbce8974c	-0.028392456
152	0xbd830461	-0.063973196
153	0xb9ec0a9e	-0.00045021338
154	0xbd63eea3	-0.055647504
155	0xbd64bc96	-0.055843912
156	0xbc3b1f9f	-0.011421113
157	0x3d8d877f	0.069106095
158	0xbda605fc	-0.0810661
159	0xbc3bf589	-0.011472114
160	0xbd9b20ba	-0.075746015
161	0xbb2c7fc0	-0.0026321262
162	0xbcb501a8	-0.022095516
163	0xbc5b8130	-0.0133975
164	0x3d0ac02e	0.033874683
165	0x3da814fb	0.08207127
166	0xbd6778ae	-0.056511573
167	0xbc6ea830	-0.014566466
168	0x3d0be81f	0.034156915
169	0xbc8bd9a4	-0.017071553
170	0x3ca2cfcb	0.019874474
171	0x3c763438	0.015027098
172	0xbd67c64c	-0.056585595
173	0xbd26626f	-0.040621217
174	0x3d04dc5a	0.032436706
175	0xbd9a2a39	-0.075275846
176	0x3c8cdf7c	0.01719641
177	0x3ca487b4	0.02008424
178	0x3d1ef00e	0.038803153
179	0xbd4c3b50	-0.049861252
180	0xbc1fd714	-0.009755868
181	0x3d953ffb	0.07287594
182	0xbd81d13f	-0.06338739
183	0x3d88af10	0.066740155
184	0x3d23f122	0.040024884
185	0xbb0ea04f	-0.0021763032
186	0xbd336bcf	-0.043803986
187	0x3d93aa4e	0.072102174
188	0x3d814e6f	0.06313788
189	0xbd131fe6	-0.035919093
190	0xbcde4ad7	-0.027135296
191	0xbd365b33	-0.044520568
192	0xbd25d28a	-0.04048399
193	0x3d880c41	0.06642962
194	0xbd7023eb	-0.058628004
195	0xbdc435c7	-0.0958057
196	0x3d6a7b95	0.057246763
197	0xbbb5b1b0	-0.0055448636
198	0xbdafa5fc	-0.08576581
199	0xbc6e9b40	-0.014563382
200	0xbc30a392	-0.010781186
201	0xbcf54b58	-0.029943153
202	0xbd0dc71b	-0.03461371
203	0x3d5bc5a0	0.053655267
204	0x3da06641	0.078320034
205	0xbd99b177	-0.07504552
206	0x3d2830c1	0.04106212
207	0xbcb80db4	-0.022467472
208	0x3d480b92	0.04883916
209	0x3cbb0876	0.022831183
210	0x3d455ca4	0.048184052
211	0xbdbdb3e5	-0.09262828
212	0xbd8db0a9	-0.06918461
213	0xbbb6f8b7	-0.0055838483
214	0x39ff3606	0.0004867764
215	0xbd9c40fa	-0.07629581
216	0x3d770024	0.06030287
217	0xbc72cbfa	-0.01481914
218	0x3cff2f85	0.031150589
219	0xbc4f91ec	-0.012669068
220	0xbd85283d	-0.065018155
221	0xbd80b634	-0.062847525
222	0xbd24ec77	-0.040264573
223	0x3c9aa1e3	0.018876022
224	0x3d2cf3b9	0.04222462
225	0xbd3af749	-0.045645986
226	0xbd11bd98	-0.0355812
227	0x3d065b35	0.032801826
228	0x3ccdf498	0.025141045
229	0xbd54d869	-0.051964197
230	0xbd015daa	-0.031583466
231	0x3d934853	0.07191529
232	0xbdb5f89c	-0.08885309
233	0xbcdc4b1a	-0.02689128
234	0x3d584429	0.052799378
235	0x3d823cc1	0.06359244
236	0x3d2e8079	0.04260299
237	0xbd35b954	-0.044366196
238	0xbda2c526	-0.07947759
239	0xbc6a15b8	-0.014287405
240	0xbd892022	-0.06695582
241	0xbd28ac77	-0.0411801
242	0x3d8819cf	0.066455476
243	0x3da9e311	0.082952626
244	0x3d32675a	0.043555595
245	0xbd4fd4d6	-0.050740086
246	0x3d1eccfe	0.038769715
247	0xbc6a5570	-0.014302596
248	0x3b134c7e	0.0022476013
249	0xbcb31376	-0.021859866
250	0xbcf37b45	-0.029721865
251	0x3c8a0825	0.016849587
252	0xbd224677	-0.03961798
253	0x3d35f2bc	0.044420943
254	0x3cc85bdc	0.024457864
255	0x3d2fedaa	0.042951263

fc2.bias f4 [64]
0	0x3d8dc147	0.0692163
1	0xbcafc077	-0.02145408
2	0x3e1ee7a3	0.1551805
3	0x3d466d9c	0.048444375
4	0xbd12fddb	-0.035886627
5	0x3d986b2d	0.07442317
6	0xbb8db216	-0.004324208
7	0x3d71b7aa	0.059013046
8	0x3dd57e92	0.10424532
9	0x3de3de25	0.11126355
10	0x3d5c0ccd	0.053723145
11	0xbd7b1c2c	-0.061306164
12	0x3c31323f	0.010815202
13	0x3dbaa07c	0.09112641
14	0xbd9b455a	-0.07581587
15	0x3e2bdaae	0.16782638
16	0x3d382a6f	0.044962343
17	0x3d0174d6	0.031605564
18	0xbd3662d5	-0.044527847
19	0x3bfdf736	0.007750417
20	0xbd3180f5	-0.043335874
21	0xbdc0a5f1	-0.09406651
22	0xbdcc5d38	-0.099787176
23	0xbc89756d	-0.016779626
24	0x3d7c08d0	0.06153184
25	0x3d33c7fc	0.04389189
26	0x3c3f4c2c	0.011675876
27	0x3c3f3898	0.011671208
28	0x3d18704b	0.037216466
29	0x3e03ebbf	0.12882899
30	0x3c3d9412	0.011570947
31	0xbdbf2cc8	-0.09334713
32	0x3d22d6bc	0.039755568
33	0xbd75b3f7	-0.05998608
34	0xbda29437	-0.07938426
35	0x3da1c7d2	0.07899441
36	0x3cf1e208	0.029526725
37	0x3daeb7d7	0.085311584
38	0x3cabbb83	0.020963436
39	0x3ddbd863	0.10734632
40	0x3d81df9b	0.063414775
41	0xbcff3c8e	-0.031156804
42	0x3bc00e42	0.0058610747
43	0xbd018d68	-0.031628996
44	0x3d195956	0.037438713
45	0xbcf69377	-0.030099614
46	0x3d83b851	0.0643164
47	0xbbaa6130	-0.005199574
48	0xbcbf1303	-0.023324495
49	0x3d66f02a	0.056381382
50	0x3d881432	0.06644477
51	0x3c389474	0.011265863
52	0x3d86fdbc	0.06591365
53	0xbd5d7834	-0.054069713
54	0x3c5dea03	0.013544562
55	0x3d26a101	0.04068089
56	0xbc810237	-0.015748126
57	0x3cc7ffb9	0.02441393
58	0x3d083b3d	0.03325962
59	0xbd8523d0	-0.06500971
60	0x3d3d2ea4	0.046187058
61	0xbd8629ed	-0.065509655
62	0xbcf49dab	-0.029860338
63	0xbd17ce7d	-0.037062157

fc3.weight f4 [24, 64]
0	0x3e09fa37	0.13474356
1	0x3dd65ac6	0.104665324
2	0xbba45df2	-0.005016082
3	0xbdb9c513	-0.09070792
4	0x3d1ec6ce	0.038763814
5	0x3c36767c	0.011136647
6	0x3dfa44d4	0.12220159
7	0x3e09fa98	0.134745
8	0xbd74ba08	-0.059747726
9	0x3da5e23c	0.080997914
10	0xbdd164c1	-0.102242954
11	0xbdbbec82	-0.0917597
12	0xbd19b0ef	-0.037522253
13	0xbe3ec47d	-0.18629642
14	0x3e41648b	0.1888601
15	0xbe12f45e	-0.14351031
16	0x3e6d1636	0.23153004
17	0xbe8c656a	-0.27421123
18	0x3e470bd0	0.194381
19	0xbcd94972	-0.02652428
20	0x3e0ec3c0	0.1394186
21	0x3df91590	0.12162316
22	0xbc1e24c9	-0.009652325
23	0x3ebea6b9	0.37236574
24	0xbd266efd	-0.04063319
25	0x3d960f81	0.07327176
26	0xbe09e885	-0.13467605
27	0x3e1d91e0	0.15387678
28	0x3dc61172	0.09671296
29	0x3e7833a8	0.24238455
30	0x3d0226a3	0.031775128
31	0x3a8a33fa	0.0010544055
32	0xbdc4b96e	-0.096056804
33	0xbd3addea	-0.04562179
34	0x3da10bad	0.07863555
35	0x3e263e13	0.16234617
36	0xbdb8791e	-0.09007476
37	0x3e4e670c	0.20156497
38	0xbda8d9b4	-0.082446486
39	0xbd729b51	-0.059230153
40	0xbd7376cf	-0.059439477
41	0x3deec74e	0.11659108
42	0x3dee1a96	0.116261646
43	0x3e50bca0	0.20384455
44	0x3cc00de3	0.023444122
45	0xbbf52fec	-0.0074825194
46	0xbe555f2e	-0.2083709
47	0xbe4cfdc9	-0.20018686
48	0xbe813f08	-0.25243402
49	0xbca8b4d8	-0.020594046
50	0xba044b1a	-0.00050465914
51	0x3dcf13aa	0.101111725
52	0x3c0d5bb2	0.008627819
53	0xba9e6bd3	-0.0012086577
54	0xbc8a63a7	-0.016893221
55	0xbd06138f	-0.032733496
56	0xbdd78632	-0.105236426
57	0xbe6897a0	-0.2271409
58	0x3e75a053	0.2398694
59	0x3e7c56f7	0.2464255
60	0x3d415eb7	0.047209468
61	0xbd268378	-0.040652722
62	0x3de2947b	0.11063477
63	0xbe3612db	-0.1778063
64	0x3dbc973c	0.09208533
65	0x3bd96ddf	0.006635412
66	0xbb599d28	-0.0033205245
67	0x3c7fd936	0.015615752
68	0xbd5267ba	-0.051368453
69	0xbdc5eb96	-0.09664075
70	0xbe86e16c	-0.26343858
71	0x3e48bb71	0.19602753
72	0xbe938062	-0.28808886
73	0x3e456c3a	0.19279566
74	0x3d8395d2	0.0642506
75	0xbd33dd9e	-0.043912522
76	0xbc2d99be	-0.010595737
77	0xbca66b0f	-0.020314721
78	0xbe76896a	-0.24075857
79	0xbe37fda7	-0.17967854
80	0x3cf90656	0.030398529
81	0x3e24d503	0.16096883
82	0x3daf65c0	0.08564329
83	0x3db3ce69	0.08779604
84	0xbe33be0e	-0.17552969
85	0xbe16300b	-0.14666764
86	0xbd17826a	-0.036989607
87	0xbe0a0a3e	-0.1348047
88	0xbd891541	-0.06693507
89	0xbd659e9e	-0.056059472
90	0x3e86d553	0.26334628
91	0xbe077916	-0.13229784
92	0xbdd56288	-0.10419184
93	0xbd03aeba	-0.032149054
94	0xbcb19bc7	-0.021680726
95	0x3e0e2ae5	0.1388355
96	0x3e149634	0.14510423
97	0x3c916cf6	0.017752152
98	0xbcc0565d	-0.023478681
99	0xbe2443f5	-0.16041549
100	0x3d74a458	0.059727043
101	0x3d2ea4fa	0.042637803
102	0xbc6289df	-0.013826816
103	0xbdbe50f6	-0.09292786
104	0x3dc5011e	0.09619354
105	0x3d83006a	0.06396563
106	0x3cbd99fd	0.023144716
107	0xbe0692f0	-0.1314199
108	0xbd6972e7	-0.056994345
109	0x3e670790	0.22561479
110	0x3dd01ce0	0.101617575
111	0xbe1ff913	-0.15622358
112	0xbe07a77e	-0.13247487
113	0x3c929558	0.017893478
114	0x3e086296	0.13318858
115	0xbc099bb1	-0.008398936
116	0xbad945b8	-0.0016576564
117	0xbe709d16	-0.23497424
118	0x3d640b59	0.055674884
119	0x3de1e7ee	0.11030565
120	0xbe1eb020	-0.15496874
121	0xbc6e9e92	-0.014564173
122	0x3d60e32b	0.054904144
123	0x3e3f260d	0.18666859
124	0x3cdb7fdb	0.026794365
125	0x3da72ed2	0.08163227
126	0xbd5731e2	-0.052537806
127	0xbeec4e86	-0.4615366
128	0xbd16e4ab	-0.03683917
129	0x3d737f7f	0.05944776
130	0x3e166e83	0.14690594
131	0x3b694269	0.0035592562
132	0x3dfe8e0b	0.12429436
133	0x3c414102	0.011795284
134	0xbdf6f7a6	-0.12058954
135	0xbb4bd639	-0.0031103028
136	0x3eb0dc2c	0.34542978
137	0x3e93167f	0.287281
138	0xbe2799be	-0.16367242
139	0xbd25c7ae	-0.040473633
140	0xbcbaa318	-0.022782847
141	0x3e635378	0.2219981
142	0xbd84a6a1	-0.064770944
143	0x3ebcfe38	0.36912704
144	0x3e7723db	0.24134772
145	0xbe102ed6	-0.14080366
146	0x3ea02386	0.31277102
147	0x3cd0c04e	0.025482323
148	0xbdf6bd4d	-0.12047825
149	0x3e22eccf	0.15910648
150	0x3ce80838	0.028324232
151	0x3d71afa1	0.059005383
152	0xbdb04f2d	-0.086088516
153	0xbcf65306	-0.030068886
154	0xbdb82367	-0.089911275
155	0xbdba7567	-0.09104424
156	0x3d4102b9	0.047121737
157	0x3d6410d3	0.055680107
158	0xbbebe053	-0.0071983724
159	0xbe7e7c57	-0.2485212
160	0xbd5c516e	-0.053788595
161	0xbdf2eb0f	-0.1186124
162	0xbc523090	-0.012828961
163	0x3e00c74c	0.12576026
164	0x3e8cba87	0.2748606
165	0xbce37203	-0.027764326
166	0x3d2c4e79	0.042067025
167	0x3d4e662b	0.050390404
168	0x3d7d9232	0.061907
169	0x3d9bd7fc	0.07609555
170	0xbdd1df23	-0.10247638
171	0xbe48074c	-0.19534034
172	0xbcc5a5e0	-0.024126947
173	0xbd9966f0	-0.07490337
174	0xbdf0f6d4	-0.11765829
175	0xbd5afd64	-0.05346431
176	0x3eb31ba3	0.34982023
177	0xbdcfc238	-0.10144466
178	0xbe53f9ce	-0.20700762
179	0x3dc7be72	0.097531214
180	0xbb8847af	-0.004158936
181	0x3daba90b	0.08381852
182	0xbe5c48d7	-0.21512161
183	0x3d05049e	0.032475106
184	0xbe652645	-0.2237788
185	0xbe0c97f5	-0.13729842
186	0x3d18ff64	0.037352934
187	0xbd91940a	-0.07108314
188	0x3c71a475	0.014748682
189	0x3c2d42b0	0.010574982
190	0xbdb01f78	-0.08599752
191	0xbe9ecc57	-0.31015274
192	0x3d3b6b75	0.045756776
193	0xbc93940f	-0.018014936
194	0x3e396142	0.18103507
195	0xbdfc8675	-0.12330333
196	0xbce27050	-0.027641445
197	0x3cb339f1	0.021878215
198	0xbcdd3aa9	-0.02700551
199	0x3e805b19	0.25069502
200	0xbdb38b5b	-0.08766814
201	0xbd8f08fe	-0.06984137
202	0x3e5f8f5f	0.21832035
203	0xbd0455b2	-0.032308288
204	0xbdf0515d	-0.11734269
205	0x3e0f615d	0.14001985
206	0x3e198e6e	0.14995739
207	0xbb64db5d	-0.003492079
208	0xbe9cc989	-0.3062251
209	0xbe0296f0	-0.1275289
210	0xbd05036a	-0.03247396
211	0x3dd39c46	0.10332541
212	0xbe81bc51	-0.25338987
213	0xbe025825	-0.12728937
214	0x3d25c26e	0.040468626
215	0x3e70ba6e	0.23508617
216	0xbccd05d1	-0.025027188
217	0xbdf52a28	-0.11970931
218	0x3b68aa36	0.0035501844
219	0xbdc153ac	-0.09439787
220	0xbe2e1f1f	-0.1700406
221	0x3d1a147a	0.037617184
222	0x3e897296	0.26845235
223	0x3e1e613f	0.15466784
224	0xbe706905	-0.23477562
225	0xbc540bd5	-0.012942274
226	0x3aaab362	0.0013023431
227	0xbe24a3a8	-0.16078055
228	0xbe10e506	-0.14149866
229	0xbddde04b	-0.10833796
230	0x3ddd080d	0.10792551
231	0x3e43dbc1	0.19126798
232	0xbd92b385	-0.07163147
233	0xbde55650	-0.111981034
234	0x3bb90eb7	0.005647506
235	0xbd98b75b	-0.07456847
236	0xbc7d3edb	-0.01545688
237	0xbdfc9659	-0.12333364
238	0xbd82ad0f	-0.063806646
239	0xbd88d627	-0.06681471
240	0xbe1d0f9e	-0.15337989
241	0x3cc11b60	0.023572624
242	0x3dbccda4	0.0921891
243	0x3e800441	0.25003245
244	0xbd783d92	-0.060605593
245	0x3d876282	0.06610586
246	0x3c4f8262	0.012665363
247	0xbcb21a62	-0.021741096
248	0xbdf89cef	-0.12139308
249	0x3e463733	0.19356994
250	0xbd9f5da4	-0.077815324
251	0xbdb9cc9a	-0.09072228
252	0xbe3e4d6d	-0.18584223
253	0xbd3ac28c	-0.04559569
254	0xbce3125c	-0.027718715
255	0xbdffc2ca	-0.12488325

fc3.bias f4 [24]
0	0xbd85d745	-0.065352
1	0x3e199579	0.14998426
2	0x3d754a2a	0.05988518
3	0xbc4f32a5	-0.012646352
4	0xbe07a6da	-0.13247243
5	0xbdace98a	-0.084429815
6	0xbdda9257	-0.10672443
7	0xbd9aaa7d	-0.07552049
8	0xbdcc8011	-0.09985364
9	0xbdaf366e	-0.085553035
10	0x3db86993	0.09004512
11	0xbe031365	-0.12800367
12	0x3cce002a	0.025146563
13	0x3cf59f7a	0.02998327
14	0xbd0cd754	-0.03438504
15	0x3cfc1181	0.030770065
16	0xbd6b51e5	-0.057451148
17	0xbe407b31	-0.18796994
18	0x3c45c581	0.012071014
19	0x3d7948ae	0.06086033
20	0x3d664063	0.056213748
21	0x3c992399	0.018693732
22	0x3d8709da	0.06593676
23	0x3ced5d25	0.028975079

exp_avg f4 [128, 144]
0	0x39d39fcb	0.0004036411
1	0xb8271a50	-3.9840408e-05
2	0x3a12151a	0.00055726024
3	0x3886f67a	6.435528e-05
4	0xb98f0a2b	-0.0002728266
5	0x398ab594	0.00026456697
6	0xb8d07963	-9.940823e-05
7	0x39396444	0.00017680327
8	0x38aca6a8	8.232641e-05
9	0x39377d1a	0.00017498844
10	0x39268218	0.00015879457
11	0x3974d37d	0.00023348439
12	0xb93bf265	-0.00017924009
13	0xb80e6c7b	-3.395647e-05
14	0x397e8bb9	0.00024275378
15	0x39646c44	0.00021784107
16	0x379a70f0	1.8410821e-05
17	0xb92baf75	-0.00016373194
18	0xb989c490	-0.00026277127
19	0xb8d7e70a	-0.00010295033
20	0x39bdf74e	0.00036233146
21	0x38c70f57	9.491917e-05
22	0x393b8f5c	0.00017887115
23	0xb8d10038	-9.965937e-05
24	0x3a0fe786	0.0005489517
25	0x3982d707	0.0002495574
26	0x39c6584c	0.0003783129
27	0x38ba7276	8.890491e-05
28	0x38e26848	0.00010795944
29	0x39efcd6e	0.0004573869
30	0x38cfe400	9.9129975e-05
31	0x39f76a18	0.00047190557
32	0x385ac8e6	5.216235e-05
33	0x394c8d27	0.0001950754
34	0x39e4ff58	0.00043677795
35	0x3983452f	0.00025037813
36	0x359c2780	1.1634402e-06
37	0x39ddda94	0.00042315258
38	0x39b2ca01	0.0003410131
39	0x394176ec	0.00018450216
40	0x3999baec	0.00029321702
41	0x3821c7c0	3.8571423e-05
42	0x38278205	3.9936993e-05
43	0x386c57cc	5.6348552e-05
44	0x39e47cf6	0.00043580652
45	0x39767a9f	0.00023506068
46	0x3936e90e	0.00017443692
47	0xb69e0108	-4.708887e-06
48	0x3a06481a	0.00051224383
49	0x39a0bb0a	0.00030656933
50	0x39c03c4c	0.00036666018
51	0x387b952c	5.998199e-05
52	0x39179bc6	0.00014458512
53	0x39dfd11f	0.00042689682
54	0x38b6b2c4	8.711734e-05
55	0x39cf0d6a	0.0003949211
56	0x38ea49d8	0.00011171744
57	0x391c6541	0.0001491504
58	0x39ec2976	0.00045044319
59	0x3940c020	0.00018382119
60	0xb799c7e8	-1.833211e-05
61	0x39decd00	0.00042495877
62	0x39671c6f	0.00022040469
63	0x39c14f1d	0.00036870773
64	0x39867bd1	0.00025650722
65	0x384d25b8	4.8910937e-05
66	0x38f17759	0.00011514006
67	0x3846c5ca	4.7391084e-05
68	0x39aabc66	0.00032565295
69	0x391e8916	0.00015119123
70	0x38783978	5.918133e-05
71	0xb639b880	-2.7674541e-06
72	0x3a03ea07	0.0005032126
73	0x39c679da	0.0003785629
74	0x39bb99c1	0.00035781975
75	0xb78168e8	-1.542685e-05
76	0x38e3d64c	0.000108641194
77	0x39ec6362	0.00045087474
78	0x396b98f1	0.00022468322
79	0x39dbec3c	0.00041946943
80	0x3960de80	0.00021445192
81	0x38c96734	9.60365e-05
82	0x39bfbd8c	0.00036571582
83	0x3991fab4	0.00027843344
84	0xb608b940	-2.037341e-06
85	0x39ed1cb8	0.0004522556
86	0x398e4bda	0.00027140864
87	0x39986191	0.00029064392
88	0x39b21309	0.00033964988
89	0x38cdf0a1	9.8199824e-05
90	0x38abb4dd	8.187604e-05
91	0x38bb86b4	8.941945e-05
92	0x398a8e22	0.00026427308
93	0x38ef9e20	0.00011425861
94	0x38f567f7	0.00011701875
95	0xb8e2683a	-0.000107959335
96	0x3a06b3d0	0.00051384885
97	0x39ac578e	0.0003287163
98	0x39b5e264	0.00034691684
99	0x383d01b0	4.5062683e-05
100	0xb805be90	-3.1887146e-05
101	0x39de99dd	0.00042457777
102	0x3987c0bc	0.00025892805
103	0x39c50a9c	0.00037582673
104	0x3957135e	0.00020511213
105	0x390e4371	0.00013567299
106	0x39ac24c0	0.00032833777
107	0x3985fc7c	0.00025555852
108	0x3818d904	3.6441736e-05
109	0x3a14d80c	0.00056779454
110	0x39ad3080	0.00033033267
111	0x396f2f76	0.00022810497
112	0x39978f3a	0.00028907676
113	0x38ad4296	8.2616854e-05
114	0x388598cf	6.370397e-05
115	0x38e879ab	0.000110852845
116	0x3980ee30	0.00024591526
117	0x3907239d	0.0001288787
118	0x393b6e86	0.00017874883
119	0xb8973317	-7.209757e-05
120	0x39fb9404	0.0004798473
121	0x39bdd4ad	0.00036207345
122	0x39c7847e	0.00038054952
123	0x37f3c8b0	2.906131e-05
124	0xb8be8fc4	-9.0866844e-05
125	0x39f25e27	0.00046227986
126	0x39632cd6	0.0002166511
127	0x39bd6644	0.00036125083
128	0x39b5b86c	0.00034660415
129	0x38d4b24b	0.000101421574
130	0x39ac3932	0.0003284901
131	0x39549d5c	0.00020276516
132	0x38e88f0e	0.00011089268
133	0x3a0c47da	0.0005351283
134	0x397fdc41	0.00024400746
135	0x39870995	0.00025756346
136	0x39a6397d	0.0003170482
137	0xb7d55188	-2.5429545e-05
138	0x3795a48e	1.783881e-05
139	0x38b07c22	8.4154555e-05
140	0x3977921f	0.0002361019
141	0x387e4f30	6.063207e-05
142	0x39946240	0.00028301962
143	0x379dc310	1.8806692e-05
144	0xb88d66f6	-6.742582e-05
145	0x39f69fe1	0.00047039895
146	0xba1ef940	-0.0006064363
147	0x3958892c	0.00020650466
148	0xb9b47d40	-0.00034425594
149	0xb9a7f496	-0.00032034953
150	0x390f0617	0.00013639811
151	0x395acde2	0.00020866797
152	0x3958d06f	0.00020677013
153	0x38d073fc	9.939817e-05
154	0xb883003f	-6.2466126e-05
155	0x393597b1	0.00017318015
156	0xba346932	-0.00068821304
157	0x38ba88c7	8.894648e-05
158	0x388cc132	6.711706e-05
159	0x38b1eb5d	8.4838575e-05
160	0xb9c59e3d	-0.00037692665
161	0xba2f8b78	-0.00066965027
162	0xb8f23024	-0.00011548426
163	0x39422dec	0.00018518389
164	0xb9feb6a2	-0.00048582727
165	0xb9ed9fcb	-0.00045323218
166	0xb8b33d6c	-8.546826e-05
167	0x38f1d827	0.00011532037
168	0x37478ef0	1.18946045e-05
169	0x3910f253	0.00013823183
170	0xb9170ace	-0.00014404507
171	0x39a9893c	0.0003233644
172	0xb92703c1	-0.0001592776
173	0x39b6c8d6	0.0003486338
174	0x3a076b0e	0.00051657937
175	0x3868e2e4	5.552442e-05
176	0x39c651b1	0.00037826368
177	0x3974171e	0.00023278265
178	0x38eb7e82	0.00011229237
179	0x39897a12	0.00026221626
180	0xba080eab	-0.0005190174
181	0x39a333dc	0.0003112842
182	0xb76076e4	-1.3379122e-05
183	0x39d7950e	0.0004111905
184	0xb9ce94a2	-0.00039402122
185	0xb966f497	-0.00022025626
186	0x393fe91a	0.00018302017
187	0x39e9b83a	0.00044578483
188	0xb9a088e5	-0.00030619572
189	0xba389f14	-0.00070427475
190	0xb9f7ae08	-0.00047241175
191	0x3a05f6c4	0.00051103183
192	0x37aeeb18	2.085189e-05
193	0x39839c63	0.00025102784
194	0xb91b970a	-0.00014838218
195	0x39b3fd70	0.00034330366
196	0xb8a4b04a	-7.852966e-05
197	0x38b1873f	8.465209e-05
198	0x39edf226	0.00045384577
199	0x3895a22d	7.135081e-05
200	0x39f2bb90	0.00046297582
201	0x394a3a58	0.00019285956
202	0x394659a3	0.00018916144
203	0x398553bc	0.00025430124
204	0xb9eb952d	-0.00044933837
205	0x3893cf64	7.048136e-05
206	0xb8b8c81c	-8.811077e-05
207	0x39aea953	0.00033314023
208	0xb9c7f03c	-0.00038135226
209	0xb9536341	-0.00020159503
210	0x3962626b	0.00021589703
211	0x39bafaf9	0.00035663674
212	0xb98e425b	-0.0002713379
213	0xba1fd9c4	-0.0006097818
214	0xb9e7dde4	-0.00044225075
215	0x3a12911e	0.0005591082
216	0x37bd4d0c	2.2566433e-05
217	0x39467dee	0.00018929664
218	0xb923ec18	-0.00015632843
219	0x3995b394	0.0002855329
220	0x37571bd0	1.2821474e-05
221	0x383dfb74	4.5295295e-05
222	0x39ab1668	0.00032632356
223	0x3845f05a	4.7192305e-05
224	0x39e23316	0.0004314414
225	0x3941ffc2	0.00018501192
226	0x398ae1f3	0.00026489756
227	0x394d03a9	0.00019551687
228	0xb98cf4bb	-0.0002688522
229	0x3896032e	7.1531496e-05
230	0xb8c73df8	-9.500602e-05
231	0x39c54767	0.00037627967
232	0xb9d65259	-0.00040878615
233	0xb951262a	-0.0001994601
234	0x397a7e91	0.00023889008
235	0x398759c3	0.00025816084
236	0xb9d8c0bc	-0.0004134233
237	0xba026dee	-0.0004975487
238	0xb9ab92a8	-0.0003272493
239	0x3a0e2f5e	0.00054239284
240	0xb69d42c0	-4.6867353e-06
241	0x3963d7c3	0.00021728784
242	0xb93387f8	-0.00017121423
243	0x39927162	0.00027931767
244	0x37acaf30	2.0585576e-05
245	0x38383b6a	4.3924352e-05
246	0x39b725f8	0.0003493277
247	0x37e98ab6	2.7840357e-05
248	0x39ee47d1	0.00045448405
249	0x39294188	0.00016141508
250	0x397d10d0	0.00024134223
251	0x3997ee3f	0.00028978472
252	0xb9882a3a	-0.00025971403
253	0x389be10d	7.432895e-05
254	0xb79008fa	-1.7170318e-05
255	0x39acf0e4	0.00032985874

exp_avg_sq f4 [128, 144]
0	0x375436a3	1.2648906e-05
1	0x36acf548	5.154554e-06
2	0x3702162a	7.753764e-06
3	0x36850ebe	3.965425e-06
4	0x370f7600	8.550938e-06
5	0x36ef3033	7.128366e-06
6	0x360c92eb	2.0947143e-06
7	0x3638e512	2.7551473e-06
8	0x36e1602a	6.7167175e-06
9	0x36ac30f9	5.1317006e-06
10	0x363ae61c	2.78501e-06
11	0x36c8b77c	5.981825e-06
12	0x3707b1b7	8.0880045e-06
13	0x35e4f14d	1.7057552e-06
14	0x3697a098	4.5188463e-06
15	0x36587cf7	3.2259247e-06
16	0x36cd131e	6.1117016e-06
17	0x3726a742	9.933314e-06
18	0x379ce198	1.87017e-05
19	0x3696e4b7	4.4969743e-06
20	0x36a744e3	4.9850073e-06
21	0x36538ea6	3.1524482e-06
22	0x366b8ecd	3.510085e-06
23	0x365e260d	3.3102726e-06
24	0x37d53a18	2.541863e-05
25	0x372252f5	9.675267e-06
26	0x37890c6e	1.633746e-05
27	0x3715e27b	8.933824e-06
28	0x37ae57d6	2.0783318e-05
29	0x37921881	1.7415967e-05
30	0x36fd8e7f	7.5565763e-06
31	0x37028759	7.780117e-06
32	0x3760c08f	1.3396274e-05
33	0x374f8745	1.2369656e-05
34	0x36c19a62	5.7698207e-06
35	0x373018ed	1.0496221e-05
36	0x37905448	1.7205384e-05
37	0x36dccf04	6.5806107e-06
38	0x37357b77	1.0817187e-05
39	0x37198787	9.151066e-06
40	0x376477a2	1.3617713e-05
41	0x37b16f0e	2.1151758e-05
42	0x381cd374	3.739023e-05
43	0x3729a3ad	1.0111294e-05
44	0x3730874e	1.0521921e-05
45	0x370767b3	8.070771e-06
46	0x36f61a6a	7.3344463e-06
47	0x36db6f16	6.5396407e-06
48	0x37d2dbbc	2.5136273e-05
49	0x3730d9cb	1.0541126e-05
50	0x37910d5b	1.7291566e-05
51	0x3719d2d9	9.168602e-06
52	0x37afa7c1	2.0939742e-05
53	0x378c1e66	1.6703456e-05
54	0x3713748e	8.78902e-06
55	0x3703c291	7.8535095e-06
56	0x376e4886	1.4202791e-05
57	0x37532ecb	1.2587475e-05
58	0x36c15a8e	5.76239e-06
59	0x372d3a76	1.0325215e-05
60	0x379834c6	1.8144387e-05
61	0x36e9cd7c	6.9678626e-06
62	0x373c72b0	1.1232376e-05
63	0x371ed1f8	9.466421e-06
64	0x37670b45	1.3771297e-05
65	0x37aff60d	2.0976202e-05
66	0x38185461	3.6318208e-05
67	0x3730633e	1.0513524e-05
68	0x373769bf	1.0932271e-05
69	0x3706767d	8.01461e-06
70	0x36fabdce	7.4726768e-06
71	0x36e56b21	6.8372033e-06
72	0x37d32141	2.5168645e-05
73	0x372bff1e	1.0251793e-05
74	0x37943963	1.7669698e-05
75	0x371c08be	9.30036e-06
76	0x37acf5cd	2.0618458e-05
77	0x378f9f6d	1.7121167e-05
78	0x3713034e	8.762652e-06
79	0x370965ce	8.18954e-06
80	0x37708bfd	1.4337708e-05
81	0x374c8b3e	1.2191767e-05
82	0x36d26b8e	6.2710087e-06
83	0x372b634c	1.0215514e-05
84	0x3798fc88	1.8237406e-05
85	0x36e6a27e	6.8734507e-06
86	0x373d0ac5	1.1267785e-05
87	0x3721323e	9.608046e-06
88	0x376748c6	1.3785617e-05
89	0x37af7381	2.0915411e-05
90	0x381b07c6	3.696212e-05
91	0x372d01d0	1.0312026e-05
92	0x373b8bd0	1.1178621e-05
93	0x37060422	7.987985e-06
94	0x370233e8	7.760689e-06
95	0x36eefdbb	7.122491e-06
96	0x37d489b8	2.53365e-05
97	0x372e7d73	1.0400417e-05
98	0x3794668e	1.769073e-05
99	0x371e5485	9.437213e-06
100	0x37aa6d00	2.0316336e-05
101	0x378fe50e	1.715359e-05
102	0x37155e4f	8.90305e-06
103	0x37021389	7.753152e-06
104	0x37756894	1.4627487e-05
105	0x37509eaf	1.24347125e-05
106	0x36d1fe73	6.258307e-06
107	0x37318456	1.0580834e-05
108	0x3799388a	1.826535e-05
109	0x36e0f93d	6.7047354e-06
110	0x373cbed4	1.1250104e-05
111	0x37220385	9.656772e-06
112	0x376096ae	1.3386523e-05
113	0x37affa58	2.0978201e-05
114	0x381f138c	3.792676e-05
115	0x372ddac0	1.0362535e-05
116	0x3739488a	1.1043749e-05
117	0x37004c9d	7.647232e-06
118	0x36fdeee6	7.567799e-06
119	0x36edc14f	7.0856545e-06
120	0x37d3e088	2.5257716e-05
121	0x373225d6	1.0618436e-05
122	0x37984b8b	1.815499e-05
123	0x37204c88	9.554562e-06
124	0x37a6f32c	1.9901978e-05
125	0x378e9fd2	1.7002141e-05
126	0x3709f3bc	8.222585e-06
127	0x36fe016d	7.569956e-06
128	0x3777817c	1.4752495e-05
129	0x374c6937	1.2183845e-05
130	0x36d39c5f	6.306494e-06
131	0x37307d4e	1.0519592e-05
132	0x379f1f70	1.8968916e-05
133	0x36e1ef68	6.733393e-06
134	0x373c51a9	1.1224686e-05
135	0x37261ad4	9.900617e-06
136	0x37668f2e	1.3742405e-05
137	0x37ad6be2	2.0673444e-05
138	0x381f7d47	3.8025228e-05
139	0x3723d425	9.764951e-06
140	0x373c2289	1.1213714e-05
141	0x36f33261	7.247829e-06
142	0x3700aaa0	7.669121e-06
143	0x36eed8ce	7.118192e-06
144	0x37bc5244	2.2449654e-05
145	0x36afe40c	5.2419546e-06
146	0x376171d9	1.3437552e-05
147	0x36cdc19b	6.1320147e-06
148	0x3720d0cf	9.58536e-06
149	0x3712c613	8.748396e-06
150	0x3662d0df	3.3798203e-06
151	0x363c2bef	2.8039756e-06
152	0x37360df4	1.0851294e-05
153	0x36ea74d6	6.987345e-06
154	0x368a850c	4.128209e-06
155	0x371be9a2	9.293117e-06
156	0x37415cb1	1.1525278e-05
157	0x363f5818	2.8512495e-06
158	0x36a50845	4.918346e-06
159	0x36a3d853	4.882962e-06
160	0x3747e4c5	1.1914589e-05
161	0x377e56d0	1.5159792e-05
162	0x37c2cf3c	2.3223103e-05
163	0x3700d353	7.678597e-06
164	0x372a2950	1.0142408e-05
165	0x369b55c2	4.6293435e-06
166	0x36c557b4	5.8812675e-06
167	0x36ac7020	5.1390525e-06
168	0x382c6910	4.1105843e-05
169	0x373ae357	1.1139396e-05
170	0x3802b621	3.1164036e-05
171	0x3759ae7c	1.2974833e-05
172	0x378c2d73	1.6710464e-05
173	0x37a10fdb	1.9200079e-05
174	0x37182275	9.067929e-06
175	0x36daaac0	6.516784e-06
176	0x37b5d85b	2.167763e-05
177	0x376e9640	1.4220888e-05
178	0x37237018	9.741656e-06
179	0x37b36d3b	2.1389327e-05
180	0x37b502e2	2.1578224e-05
181	0x370bfbc4	8.343664e-06
182	0x3725ebdf	9.889684e-06
183	0x376abab6	1.3990959e-05
184	0x37d41586	2.5282392e-05
185	0x37e260e0	2.698641e-05
186	0x3832a9e9	4.259675e-05
187	0x37762ead	1.467361e-05
188	0x37b29cd8	2.129229e-05
189	0x3710eabd	8.637723e-06
190	0x376d2b69	1.4136408e-05
191	0x3734dbc8	1.0780008e-05
192	0x382c088b	4.1015952e-05
193	0x374d36fd	1.2231755e-05
194	0x3807f1c5	3.2411674e-05
195	0x375e3c9d	1.3246344e-05
196	0x37954fd0	1.779935e-05
197	0x3798efc9	1.823147e-05
198	0x371c3ef4	9.312982e-06
199	0x36e82421	6.9183448e-06
200	0x37bbbe58	2.2380773e-05
201	0x37704557	1.4321259e-05
202	0x37254f0d	9.853172e-06
203	0x37b5712f	2.1629587e-05
204	0x37bdcb31	2.2625174e-05
205	0x370ae5cb	8.278944e-06
206	0x3728559b	1.0033512e-05
207	0x37674478	1.3784615e-05
208	0x37d32148	2.5168658e-05
209	0x37e353f8	2.709961e-05
210	0x38329a1d	4.2582036e-05
211	0x3779386c	1.4854693e-05
212	0x37b5a70e	2.1654672e-05
213	0x3714ccac	8.869141e-06
214	0x37790675	1.484306e-05
215	0x373f600d	1.1406851e-05
216	0x382f05d4	4.172868e-05
217	0x3747e66e	1.1914975e-05
218	0x38099d04	3.2809578e-05
219	0x3759c5fc	1.2980305e-05
220	0x3795fb3a	1.787917e-05
221	0x3798ddfd	1.8223183e-05
222	0x371fc3e8	9.5227515e-06
223	0x36e046a6	6.683945e-06
224	0x37c3bac4	2.3332781e-05
225	0x3774e7ef	1.4597535e-05
226	0x37286686	1.0037451e-05
227	0x37b64a93	2.1730817e-05
228	0x37bf2b30	2.2789085e-05
229	0x3714056b	8.822749e-06
230	0x372ac79a	1.0179263e-05
231	0x376570c4	1.3675719e-05
232	0x37c6ac3d	2.3683644e-05
233	0x37e04ce1	2.673868e-05
234	0x3832bf9c	4.2616957e-05
235	0x377c9745	1.5055591e-05
236	0x37afa8a2	2.0940151e-05
237	0x371cec01	9.3532735e-06
238	0x37801278	1.526739e-05
239	0x37361bf0	1.085455e-05
240	0x38300317	4.1964548e-05
241	0x374a1fc4	1.2047534e-05
242	0x380a9e88	3.3049408e-05
243	0x375cbdbd	1.3157199e-05
244	0x379357a8	1.7564584e-05
245	0x379afacb	1.8475015e-05
246	0x371ca0ff	9.335809e-06
247	0x36d8a782	6.456802e-06
248	0x37c57228	2.3537388e-05
249	0x377462b7	1.4566517e-05
250	0x37279fcb	9.99118e-06
251	0x37b9ba75	2.2140544e-05
252	0x37c04092	2.2918251e-05
253	0x37170d2f	9.003371e-06
254	0x37305db4	1.0512234e-05
255	0x3761b40a	1.3452964e-05

exp_avg f4 [128]
0	0x3a07b568	0.0005176873
1	0x392f96ce	0.0001674548
2	0x00000000	0.0
3	0xba9176b0	-0.0011097994
4	0x00000004	6e-45
5	0x00000004	6e-45
6	0xba509451	-0.0007956671
7	0xba81f3b4	-0.0009914548
8	0x3a118720	0.0005551446
9	0x00000004	6e-45
10	0x00000000	0.0
11	0x00000004	6e-45
12	0x00000004	6e-45
13	0x3a4c0c02	0.0007783772
14	0x00000004	6e-45
15	0x3a6e7da3	0.0009097701
16	0xb8accd74	-8.239868e-05
17	0x39b90af7	0.0003529412
18	0x00000004	6e-45
19	0x00000000	0.0
20	0x00000004	6e-45
21	0xb97f45a8	-0.00024344644
22	0xb986eca2	-0.00025734777
23	0x00000000	0.0
24	0x3af91ec4	0.0019006361
25	0xba903d6f	-0.0011004637
26	0x00000004	6e-45
27	0xb9f73079	-0.00047147626
28	0xbab60b2c	-0.0013888828
29	0x00000004	6e-45
30	0x3b1c8000	0.0023880005
31	0x3958bfd8	0.00020670833
32	0xba3bad0c	-0.000715927
33	0x00000004	6e-45
34	0x00000000	0.0
35	0x3889aee6	6.5652464e-05
36	0xb92447a0	-0.00015666941
37	0x00000004	6e-45
38	0xb9cee36b	-0.0003946082
39	0x00000004	6e-45
40	0xb9b5fe0c	-0.0003471229
41	0x00000004	6e-45
42	0x3a500f24	0.00079368264
43	0x00000000	0.0
44	0xb8a174b8	-7.698819e-05
45	0x00000000	0.0
46	0xba33c447	-0.00068575557
47	0xba32cad4	-0.0006820385
48	0xbac4a0bb	-0.0015001515
49	0x00000000	0.0
50	0x00000000	0.0
51	0x3aa690f6	0.0012707997
52	0x3992966c	0.00027959363
53	0x00000000	0.0
54	0x00000004	6e-45
55	0x00000004	6e-45
56	0x00000000	0.0
57	0xba569133	-0.00081850885
58	0xba755c50	-0.0009359764
59	0x39c45522	0.00037447462
60	0x00000004	6e-45
61	0xbaf76aa8	-0.001887639
62	0x3a014298	0.0004930883
63	0x00000004	6e-45
64	0xba8d242c	-0.0010768226
65	0x38c16b80	9.2229806e-05
66	0xb9907534	-0.00027553143
67	0x00000004	6e-45
68	0x3a84ebdc	0.0010141092
69	0x00000004	6e-45
70	0xba0139e2	-0.00049295847
71	0x00000000	0.0
72	0x00000004	6e-45
73	0x00000004	6e-45
74	0x00000004	6e-45
75	0xba067cc5	-0.00051302864
76	0x00000004	6e-45
77	0xb9ee441a	-0.00045445637
78	0x3ae6da5d	0.0017612685
79	0x00000004	6e-45
80	0xbacc3326	-0.0015579208
81	0x3a3d37e5	0.0007218107
82	0x3a00e4be	0.0004916898
83	0x3a02c2fb	0.0004988161
84	0xba1b47ef	-0.00059234997
85	0xba524c94	-0.0008022275
86	0xb9cb81bc	-0.00038815837
87	0x39106878	0.00013771828
88	0xba8d0a85	-0.0010760581
89	0x3ac3d091	0.0014939477
90	0xb91ee174	-0.00015152042
91	0xbb03b316	-0.0020095757
92	0x3aa7509f	0.0012765116
93	0x39fb7774	0.0004796345
94	0xbb05cd67	-0.0020416619
95	0x3a39598f	0.0007070535
96	0xbab4c3c8	-0.0013791258
97	0xb8a6a54a	-7.946284e-05
98	0xba630341	-0.00086598477
99	0x3a88495e	0.0010397842
100	0x00000004	6e-45
101	0x00000004	6e-45
102	0x00000004	6e-45
103	0x38701ab0	5.7245314e-05
104	0x00000004	6e-45
105	0x00000000	0.0
106	0x3ad8c2df	0.0016537568
107	0xb973a71c	-0.00023236539
108	0xb81cf0c0	-3.7417514e-05
109	0x00000000	0.0
110	0x00000004	6e-45
111	0x39eded9a	0.0004538119
112	0x3b091cb5	0.0020921652
113	0xbab9906f	-0.0014157424
114	0x00000004	6e-45
115	0x00000000	0.0
116	0x00000004	6e-45
117	0xb9fc6002	-0.00048136717
118	0x00000004	6e-45
119	0xba188d4c	-0.0005819395
120	0xb9c12d91	-0.00036845778
121	0x3a603a22	0.00085535843
122	0x3832cf20	4.2631407e-05
123	0x00000004	6e-45
124	0xba058d6c	-0.0005094621
125	0x00000004	6e-45
126	0x00000004	6e-45
127	0x00000004	6e-45

exp_avg_sq f4 [128]
0	0x3839b75e	4.427821e-05
1	0x3880cf97	6.142182e-05
2	0x00000000	0.0
3	0x3795c9f5	1.7856228e-05
4	0x31960478	4.3660826e-09
5	0x306a9e00	8.5353236e-10
6	0x37cd524e	2.447623e-05
7	0x3817c891	3.6187997e-05
8	0x3796a7c7	1.795952e-05
9	0x2c3540ff	2.5757727e-12
10	0x00000000	0.0
11	0x31cc1097	5.9390675e-09
12	0x34314e9c	1.6513007e-07
13	0x37e65b21	2.7460572e-05
14	0x2c054f3a	1.8944416e-12
15	0x3809624d	3.2754895e-05
16	0x38049437	3.160929e-05
17	0x382fe921	4.194037e-05
18	0x309293e7	1.0664934e-09
19	0x00000000	0.0
20	0x32b1814a	2.0664306e-08
21	0x3833460f	4.2742173e-05
22	0x37ed4009	2.828242e-05
23	0x00000000	0.0
24	0x384dccdc	4.90666e-05
25	0x3872070b	5.7703855e-05
26	0x2de5fe0e	2.6147109e-11
27	0x37c73660	2.3747969e-05
28	0x37c79249	2.3790768e-05
29	0x2e0ce7dc	3.2038247e-11
30	0x38a273c1	7.746323e-05
31	0x37cb8c1b	2.4264727e-05
32	0x37c177ab	2.3063118e-05
33	0x34265884	1.5492157e-07
34	0x00000000	0.0
35	0x37ccb996	2.4405115e-05
36	0x3834c428	4.309803e-05
37	0x2c43d507	2.782942e-12
38	0x382e0325	4.148776e-05
39	0x2bbd82ef	1.3465599e-12
40	0x3872b6c5	5.7867514e-05
41	0x2ee83810	1.0560097e-10
42	0x37f27ecf	2.8907698e-05
43	0x00000000	0.0
44	0x3888f5b8	6.530754e-05
45	0x00000000	0.0
46	0x378e4dce	1.696395e-05
47	0x38079885	3.2328553e-05
48	0x38b059f2	8.4090876e-05
49	0x00000000	0.0
50	0x00000000	0.0
51	0x38070cd6	3.2198463e-05
52	0x381b39b4	3.700862e-05
53	0x00000000	0.0
54	0x2ab1fd8c	3.161745e-13
55	0x32295f19	9.858717e-09
56	0x00000000	0.0
57	0x37845099	1.5773157e-05
58	0x38e44afc	0.00010885854
59	0x3803e81d	3.1449006e-05
60	0x2e3ccb1d	4.2926652e-11
61	0x388a3ea3	6.59202e-05
62	0x3830e084	4.2170766e-05
63	0x2f92723a	2.6638408e-10
64	0x380eeccd	3.4075976e-05
65	0x3819e224	3.6688652e-05
66	0x3891df3a	6.955718e-05
67	0x326e7278	1.38794505e-08
68	0x38177ebf	3.6119247e-05
69	0x2cb808b5	5.230561e-12
70	0x38110a0b	3.4580047e-05
71	0x00000000	0.0
72	0x31962f9d	4.3709876e-09
73	0x2c8bfe18	3.9788277e-12
74	0x25d30dc7	3.6612e-16
75	0x38a274b1	7.7464974e-05
76	0x2fc95704	3.6623515e-10
77	0x3815f7ba	3.575508e-05
78	0x37c51ea2	2.3498495e-05
79	0x31126fbc	2.130931e-09
80	0x3816fa5a	3.5995945e-05
81	0x37f3f013	2.907965e-05
82	0x3811c0f2	3.475039e-05
83	0x37a1d94f	1.9293888e-05
84	0x380c0e62	3.3391996e-05
85	0x385d747b	5.2798987e-05
86	0x38316f3f	4.2303694e-05
87	0x37f17971	2.878599e-05
88	0x386d7f7a	5.6623925e-05
89	0x3863bda7	5.4297645e-05
90	0x38263a86	3.963199e-05
91	0x38305b76	4.204685e-05
92	0x38481912	4.7707064e-05
93	0x3833beae	4.285451e-05
94	0x38120a79	3.4818866e-05
95	0x3884aa24	6.325942e-05
96	0x38261244	3.9594495e-05
97	0x38129596	3.4948425e-05
98	0x37ebe9c5	2.812304e-05
99	0x37c9dd95	2.406425e-05
100	0x32c3ed9d	2.2809042e-08
101	0x2e53cc86	4.81575e-11
102	0x3119abcb	2.2362083e-09
103	0x37ec6a43	2.8182874e-05
104	0x30010e7e	4.695052e-10
105	0x00000000	0.0
106	0x381cd56c	3.7392063e-05
107	0x37fdd192	3.0257539e-05
108	0x37f84203	2.9594643e-05
109	0x00000000	0.0
110	0x2f3acdab	1.698967e-10
111	0x380ab74d	3.3072476e-05
112	0x3865a2c3	5.474944e-05
113	0x382890cc	4.0189174e-05
114	0x2e85bae7	6.08134e-11
115	0x00000000	0.0
116	0x2cc087ff	5.472067e-12
117	0x390b130a	0.00013263166
118	0x2f6c5a86	2.1496235e-10
119	0x381bc811	3.7141206e-05
120	0x381ff872	3.8139937e-05
121	0x385a6c79	5.2076273e-05
122	0x3875fa8d	5.8645895e-05
123	0x309cb442	1.1401726e-09
124	0x381b4eb8	3.7028192e-05
125	0x2df2b458	2.7592303e-11
126	0x3333044e	4.16806e-08
127	0x2a9136e9	2.5795276e-13
