models/RaceModels/classif_pos_coef_3copies1to5_2HL_dropout0.2lr0.0001/model.pt (torch, 432093 bytes, 24 tensors)

fc1.weight f4 [128, 144]
0.085690595 0.11420476 0.032001365 0.012179812 -0.073373206 0.05960828 -0.028272325 -0.021097045
-0.009733165 0.072117575 0.31744912 -0.18752968 0.02859266 -0.13047461 -0.046995413 0.06165753
0.070219986 0.11533478 -0.06763165 0.07010965 0.06578631 -0.093336225 -0.14633898 0.042656563
0.088434346 0.11402736 -0.02087981 -0.15009977 0.022121008 0.051345583 -0.25498575 0.02502881
0.05113854 0.0720301 0.06192649 0.040832877 0.031458285 0.05287323 0.06070563 -0.12857638
0.06411112 0.051373206 -0.06916192 -0.054749556 -0.06073669 0.015813671 -0.1426829 0.08028722
0.08378841 0.14043587 -0.033166494 -0.030109134 -0.053519744 -0.045028135 -0.13682145 -0.052064598
-0.09524697 -0.024124172 0.080358624 -0.035412263 -0.0014182958 -0.014929912 -0.004845019 -0.004981567
0.0030193275 -0.036589023 -0.08266459 -0.016012983 -0.03158131 0.1353331 -0.1640582 -0.028728671
0.058054622 0.117426656 -0.1176556 -0.026107483 0.0069173966 -0.0030851634 -0.25586164 -0.026079958
0.010652049 -0.02316102 0.1597708 -0.015427308 -0.039757993 0.011789947 0.02064071 -0.008668589
0.040128697 0.022234963 0.048352968 -0.09555443 -0.09425636 0.14955021 -0.19207346 -0.0243736
0.039859448 0.06396357 -0.0109362 -0.015799623 0.09710447 -0.11809638 -0.28818658 0.079581164
0.0021821952 -0.0502691 0.008749826 -0.07331905 0.07326872 0.13170303 -0.053577755 0.05770515
0.07646241 0.049687114 0.08018824 -0.041469753 -0.029424313 0.15710178 -0.21125032 0.11895757
0.073112585 0.088445835 0.054034185 -0.04716198 -0.024268284 -0.004174782 -0.13789901 -0.0021908772
0.03435128 0.02768585 0.0032041008 -0.11400128 -0.022777393 -0.030019043 -0.0644771 0.005276095
0.11281568 -0.055332486 0.041704386 0.00807778 -0.072624594 0.052006785 -0.17825076 0.0023743229
0.1825247 0.1133503 0.02707646 0.18470368 0.09276958 0.07154846 -0.033759497 0.021006856
0.090928845 0.06310663 -0.088833116 0.06631511 0.066811815 -0.15411238 -0.15996547 -0.34204605
0.17891166 0.1858922 0.07552507 0.22987488 -0.005711841 0.20700863 0.009630469 0.06453982
0.062465176 -0.089761235 -0.05463642 0.02183203 0.075934336 -0.07508378 -0.123321496 -0.20854993
0.009866786 0.013533629 -0.08438779 0.0468037 -0.09412808 0.13185835 0.04038181 -0.44576597
-0.0629461 0.020545574 0.056544304 -0.007838246 -0.021863865 -0.05002085 0.03167154 -0.004552698
0.013620577 -0.01972933 -0.021826943 -0.0128711155 -0.072295986 0.011722899 -0.123761915 0.06885716
0.08371915 0.09410131 -0.018221121 0.06085975 0.005518812 0.13917859 0.040824696 -0.28112575
0.02598927 -0.08333457 0.001053069 -0.031783078 -0.00036639205 -0.06653541 0.008940542 0.025246048
0.048803497 -0.10689807 -0.06808045 -0.03629615 -0.006244775 -0.09419349 -0.1310431 0.052482653
0.07044269 -0.043188203 -0.018587928 0.06593946 -0.042144895 0.059788454 -0.022156077 -0.44300961
-0.10531965 0.01357162 0.12499146 -0.030688196 0.035175778 -0.13459453 -0.017234473 -0.006876018
-0.040307857 -0.066068515 0.034837786 -0.04374037 0.063884154 -0.060393114 -0.10756799 -0.048778772
0.09742933 0.030470846 -0.010160898 -0.03334778 0.090734415 0.04187758 -0.09690561 -0.42786944
00000000: 8d7e af3d 2fe4 e93d dd13 033d d68d 473c
00000010: b144 96bd d027 743d 5d9b e7bc b6d3 acbc
00000020: da77 1fbc 61b2 933d b188 a23e c807 40be
00000030: 273b ea3c 239b 05be 437e 40bd 9b8c 7c3d
00000040: 7fcf 8f3d a434 ec3d 7682 8abd a695 8f3d
00000050: f9ba 863d 1027 bfbd e3d9 15be a6b8 2e3d
00000060: 111d b53d 2d87 e93d 230c abbc c1b3 19be
00000070: 1e37 b53c bf4f 523d 7e8d 82be 3809 cd3c
00000080: a576 513d 8484 933d a2a6 7d3d 6040 273d
00000090: 67da 003d 9a91 583d 77a6 783d 87a9 03be
000000a0: b14c 833d b66c 523d c4a4 8dbd 1241 60bd
000000b0: 09c7 78bd ac8b 813c 771b 12be a06d a43d
000000c0: 4299 ab3d 6cce 0f3e 97d9 07bd 6ea7 f6bc
000000d0: 8537 5bbd 6c6f 38bd ec1a 0cbe b041 55bd
000000e0: d810 c3bd 0ea0 c5bc 1093 a43d 730c 11bd
000000f0: 1ce6 b9ba 979c 74bc f7c2 9ebb 6a3c a3bb
00000100: e9df 453b 5fde 15bd 0d4c a9bd a92d 83bc
00000110: 675b 01bd c394 0a3e dffe 27be 6458 ebbc
00000120: afca 6d3d 637d f03d 6bf5 f0bd 5cdf d5bc
00000130: 54ab e23b 7430 4abb 4c00 83be a3a5 d5bc
00000140: ef85 2e3c 2ebc bdbc f59a 233e d2c2 7cbc
00000150: 47d9 22bd 9f2a 413c b516 a93c b306 0ebc
00000160: fd5d 243d 1926 b63c c30d 463d 0ab2 c3bd
00000170: 7a09 c1bd b123 193e e8ae 44be 25ab c7bc
00000180: a943 233d 55ff 823d bf2d 33bc 366e 81bc
00000190: b5de c63d 84dc f1bd 318d 93be 73fb a23d
000001a0: 2903 0f3b f9e6 4dbd 6e5b 0f3c 4c28 96bd
000001b0: e90d 963d 29dd 063e 5974 5bbd 3c5c 6c3d
000001c0: 5398 9c3d b784 4b3d bb39 a43d 30dc 29bd
000001d0: 420b f1bc 4adf 203e 0152 58be 07a0 f33d
000001e0: 0dbc 953d 1723 b53d f352 5d3d ec2c 41bd
000001f0: 48ce c6bc 9ccc 88bb 6635 0dbe d294 0fbb
00000200: eeb3 0c3d 70cd e23c e4fb 513b 8179 e9bd
00000210: a897 babc 7fea f5bc 920c 84bd 18e3 ac3b
00000220: e80b e73d 51a4 62bd 38d2 2a3d aa58 043c
00000230: 34bc 94bd 1105 553d 5e87 36be 879a 1b3b
00000240: c1e7 3a3e 3424 e83d 74cf dd3c f622 3d3e
00000250: fafd bd3d 0088 923d 6647 0abd 9216 ac3c
00000260: e738 ba3d 0d3e 813d 23ee b5bd 37d0 873d
00000270: a2d4 883d a3cf 1dbe fdcd 23be a920 afbe
00000280: 9e34 373e 865a 3e3e e3ac 9a3d 5264 6b3e
00000290: 652a bbbb 12fa 533e 1dc9 1d3c 742d 843d
000002a0: 7cdb 7f3d bdd4 b7bd 70ca 5fbd 16d9 b23c
000002b0: 7683 9b3d 86c5 99bd fb8f fcbd 1d8e 55be
000002c0: 4da8 213c 27bc 5d3c 81d3 acbd 3db5 3f3d
000002d0: 39c6 c0bd e005 073e 6667 253d 703b e4be
000002e0: e3e9 80bd 314f a83c 009b 673d fd6b 00bc
000002f0: d91b b3bc aae2 4cbd 04ba 013d cd2e 95bb
00000300: d728 5f3c 679f a1bc 6bce b2bc 5fe1 52bc
00000310: eb0f 94bd 6711 403c e376 fdbd fc04 8d3d
00000320: f274 ab3d 30b8 c03d 7644 95bc 1348 793d
00000330: 27d7 b43b d584 0e3e cc37 273d b7ef 8fbe
00000340: 73e7 d43c 51ab aabd 2207 8a3a f92e 02bd
00000350: 4f18 c0b9 b843 88bd 5a7b 123c cdd0 ce3c
00000360: 2de6 473d 60ed dabd c36d 8bbd 46ab 14bd
00000370: f8a0 ccbb 84e8 c0bd 2a30 06be 0df8 563d
00000380: 4244 903d 1de6 30bd b645 98bc 450b 873d
00000390: 20a0 2cbd bde4 743d a980 b5bc 28d2 e2be
000003a0: d4b1 d7bd 805b 5e3c 86fb ff3d d065 fbbc
000003b0: 7a14 103d 26d3 09be 4f2f 8dbc 3850 e1bb
000003c0: da19 25bd ee4e 87bd 11b2 0e3d 1a29 33bd
000003d0: b2d5 823d c55e 77bd 9b4c dcbd 40cc 47bd
000003e0: 0789 c73d ff9d f93c e579 26bc af97 08bd
000003f0: f7d2 b93d d387 2b3d 7376 c6bd b411 dbbe

fc1.bias f4 [128]
0.021971628 -0.0010852148 0.08720434 0.10079862 -0.024565041 0.066376954 -0.056640442 0.06490741
-0.064400725 0.055658326 -0.005255834 0.08292786 -0.031377915 0.064738385 -0.034797408 0.009831621
0.05557205 0.01956257 -0.029615534 -0.07549576 -0.015738344 -0.049769938 -0.07330229 0.08224659
0.07004661 -0.014041928 -0.013989112 0.08894322 0.009073931 0.048436336 -0.040325753 -0.02211985
-0.025196897 0.09270684 -0.006293065 -0.069560565 -0.082941614 0.087877385 -0.046953827 -0.028636236
0.06286155 0.028444448 0.0454921 -0.04674925 -0.02885918 -0.036462236 0.0081223985 -0.0406735
-0.068758674 -0.04139091 -0.020780763 -0.06310989 -0.052693352 0.021462671 -0.07188731 -0.076544575
-0.0590311 -0.0334126 -0.02670101 -0.06332803 0.030911535 0.0061563705 -0.04743347 -0.046815492
-0.00041571874 0.07017831 0.058472656 -0.013463903 -0.012363535 -0.05421403 0.04002464 -0.0094897
0.0103760315 0.037053294 0.022220325 0.016921509 -0.061304327 0.04329768 -0.02434836 -0.07022239
-0.05504392 -0.015891705 0.00035006797 0.007702939 -0.0065294406 0.043106426 -0.0915724 0.028955705
0.009312639 0.060221888 -0.0977973 0.07497011 0.0982379 0.015619366 0.086742274 -0.05777055
-0.074191645 0.029476468 0.04823417 -0.075679846 0.07203073 -0.034471788 0.056281257 -0.037566468
-0.0031301617 -0.03855653 -0.033662107 0.040025976 -0.019523086 0.08618928 0.084650256 0.05277274
0.0733404 0.039838195 -0.05057068 0.035552308 -0.028785188 -0.011869295 0.053345166 -0.059430946
0.05932532 -0.03959507 0.0025423667 -0.074660145 0.025335649 -0.028941749 0.035824895 -0.090214245
00000000: d8fd b33c c43d 8eba 3098 b23d 826f ce3d
00000010: a03c c9bc a4f0 873d cfff 67bd 2dee 843d
00000020: 87e4 83bd fcf9 633d 2239 acbb 15d6 a93d
00000030: 2186 00bd 8f95 843d ba87 0ebd cf14 213c
00000040: 859f 633d af41 a03c 479c f2bc 859d 9abd
00000050: b3ed 80bc 90db 4bbd 831f 96bd e670 a83d
00000060: 9974 8f3d 1d10 66bc 9732 65bc dd27 b63d
00000070: d3aa 143c 2e65 463d 9e2c 25bd b034 b5bc
00000080: b969 cebc 15dd bd3d 0e36 cebb c575 8ebd
00000090: 4bdd a9bd 0ff9 b33d a852 40bd 8a96 eabc
000000a0: 8ebd 803d 5504 e93c ed55 3a3d 247c 3fbd
000000b0: 166a ecbc 6d59 15bd cf13 053c 4299 26bd
000000c0: 59d1 8cbd 8489 29bd 6b3c aabc c23f 81bd
000000d0: fcd4 57bd 7cd2 af3c a739 93bd 67c3 9cbd
000000e0: 98ca 71bd a7db 08bd 14bc dabc 20b2 81bd
000000f0: 303a fd3c 61bb c93b 9949 42bd 9ac1 3fbd
00000100: d3f4 d9b9 a5b9 8f3d 0681 6f3d b497 5cbc
00000110: 6d90 4abc 880f 5ebd e0f0 233d b07a 1bbc
00000120: 3b00 2a3c 32c5 173d 6607 b63c fa9e 8a3c
00000130: 3f1a 7bbd e858 313d 3676 c7bc c2d0 8fbd
00000140: bc75 61bd 522f 82bc 5489 b739 f068 fc3b
00000150: ebf4 d5bb 5d90 303d 4f8a bbbd 8434 ed3c
00000160: 0a94 183c 3aab 763d f349 c8bd ee89 993d
00000170: f430 c93d 5fe8 7f3c efa5 b13d d0a0 6cbd
00000180: caf1 97bd a278 f13c 3191 453d 09fe 9abd
00000190: d984 933d 4a32 0dbd 2d87 663d 4cdf 19bd
000001a0: 6623 4dbb 74ed 1dbd 47e1 09bd 47f2 233d
000001b0: e1ee 9fbc 0184 b03d 1d5d ad3d 3b28 583d
000001c0: 7e33 963d 602d 233d 3423 4fbd 4c9f 113d
000001d0: eace ebbc 6e77 42bc 7680 5a3d dd6d 73bd
000001e0: 1bff 723d 712e 22bd d69d 263b 6be7 98bd
000001f0: b58c cf3c 3f17 edbc 20bd 123d 3fc2 b8bd

fc2.weight f4 [64, 128]
-0.09938202 0.08151894 0.04012522 -0.1257499 -0.08433937 -0.34467602 -0.09890213 0.087448746
0.043590967 -0.13803907 0.06849581 0.093629144 0.003927746 -0.059811182 0.13934956 -0.454353
0.058799632 -0.002535738 0.0035349512 -0.02630705 -0.1655022 0.14964922 -0.18332465 0.18357784
0.022038365 -0.3256469 -0.036941204 0.07380846 0.044734508 -0.13806385 -0.0714494 0.10235189
-0.029078666 -0.05323814 -0.011063159 -0.24337634 -0.07327637 0.030772245 0.004493655 0.01661596
-0.096688844 0.22362244 0.106836915 0.029928379 -0.028622486 -0.055521894 0.16003577 -0.35860816
0.09012394 0.1002295 -0.09706683 0.03893284 0.092961855 0.14723898 0.045763552 0.05443444
-0.113910064 -0.17208818 0.41784385 -0.008353396 -0.060272604 0.21902893 -0.37060267 0.30617112
0.2714751 0.026467346 0.08888467 0.1300853 0.031388193 0.058994982 0.050235733 -0.019631727
0.038821585 0.041017633 0.12873393 0.021274805 0.076778725 0.11437606 0.094854355 -0.093925856
0.062236432 0.036761742 -0.07151803 0.06551813 -0.025623951 -0.059144717 0.18090113 -0.002108459
-0.32977587 0.031065132 -0.010843963 -0.21249564 0.09950163 0.040821053 -0.029899294 -0.086638644
0.10739327 0.29737428 0.10859066 -0.032388844 0.057632376 -0.036133144 -0.39878592 0.08762844
-0.077742666 0.14038289 0.009801835 -0.13553773 -0.04990186 -0.1727406 -0.05808776 0.12772286
-0.14116052 -0.2503901 -0.14601631 -0.15631346 0.12346512 -0.3193744 0.17403929 0.17721498
0.052932363 -0.03772006 0.22572288 -0.11028052 0.043230113 0.12376608 -0.13175659 0.095613
0.06926905 -0.19753948 0.06314019 -0.111324884 0.06675043 0.17181483 -0.22360831 -0.05657349
0.2744559 0.022816263 0.15519875 0.19827677 -0.11088791 0.011348665 0.049107086 0.25883707
0.2770392 0.08107557 0.06665151 -0.088967904 -0.1262645 -0.04032315 -0.032345653 -0.11540104
-0.092004426 0.2880019 -0.15262944 -0.03712931 0.008668174 -0.11848916 0.2107788 0.070320725
-0.0011323283 -0.0041467436 -0.34896597 -0.04799821 -0.05890753 -0.07963299 -0.05104208 -0.060173348
-0.068446904 -0.084067896 0.055231024 -0.09260846 -0.015232762 0.017024033 -0.24734074 0.27823147
0.08605082 -0.27732423 0.06635159 0.092214726 0.1429704 0.0013310922 -0.19074355 0.06453652
0.21055631 0.07249756 -0.23657034 0.17869963 -0.050532162 0.016743153 -0.040243644 -0.080500044
-0.14211647 0.050078474 -0.05274969 -0.048471067 -0.048783265 0.037396405 0.04239702 0.01692426
0.015759448 0.022489566 0.09127885 -0.01858982 0.0649866 -0.10557655 -0.07075771 0.21872221
0.15244396 -0.09437153 -0.10999084 0.034185953 -0.08130941 -0.06051402 0.01485656 -0.120507166
0.38845092 0.07403198 0.037612148 0.0062954053 -0.037780445 0.31639802 0.03629507 0.040461306
-0.16151567 0.010847 -0.060888894 0.08495785 -0.036948223 0.048999388 0.14391582 0.124290235
0.12448783 0.06706428 0.0016173549 0.17316896 -0.010641088 -0.16164914 0.23019938 -0.1787865
-0.3392689 0.12007934 0.06968434 0.08081035 0.025725748 0.1673309 -0.21014892 -0.049845833
-0.04266729 -0.2159271 0.051946588 0.011928783 -0.014467112 0.011535579 0.005639493 0.078971155
00000000: cd88 cbbd 67f3 a63d 585a 243d 95c4 00be
00000010: 1fba acbd 6079 b0be 338d cabd 5418 b33d
00000020: 718c 323d 1d5a 0dbe 8847 8c3d a3c0 bf3d
00000030: 52b4 803b 92fc 74bd a7b1 0e3e f5a0 e8be
00000040: e2d7 703d a02e 26bb a4aa 673b e281 d7bc
00000050: 6979 29be a53d 193e 75b9 3bbe d4fb 3b3e
00000060: cd89 b43c 31bb a6be a94f 17bd e428 973d
00000070: 883b 373d 9c60 0dbe 1054 92bd de9d d13d
00000080: 6236 eebc 3c10 5abd 4142 35bc a637 79be
00000090: ec11 96bd 1316 fc3c 833f 933b 321e 883c
000000a0: cd04 c6bd 48fd 643e 50cd da3d 5c2c f53c
000000b0: b479 eabc ed6a 63bd 6be0 233e 7d9b b7be
000000c0: e692 b83d 2045 cd3d f9ca c6bd 0b78 1f3d
000000d0: c962 be3d d1c5 163e 9072 3b3d a6f6 5e3d
000000e0: ae49 e9bd e237 30be a1ef d53e afdc 08bc
000000f0: 68e0 76bd 1f49 603e a2bf bdbe 76c2 9c3e
00000100: c9fe 8a3e 0cd2 d83c 2a09 b63d 1535 053e
00000110: e890 003d b9a4 713d fcc3 4d3d b7d2 a0bc
00000120: 6203 1f3d 1b02 283d d4d2 033e 8048 ae3c
00000130: 2a3e 9d3d ff3d ea3d 0043 c23d 335c c0bd
00000140: a1eb 7e3d 7b93 163d 0b78 92bd 5f2e 863d
00000150: 52e9 d1bc bb41 72bd 253e 393e 122e 0abb
00000160: 62d8 a8be 4e7c fe3c e1aa 31bc 7598 59be
00000170: 83c7 cb3d fa33 273d 5def f4bc 9a6f b1bd
00000180: 01f1 db3d 7141 983e c864 de3d 2aaa 04bd
00000190: ed0f 6c3d 5900 14bd ab2d ccbe 8a76 b33d
000001a0: 8c37 9fbd 88c0 0f3e e097 203c 67ca 0abe
000001b0: e565 4cbd e9e2 30be 6eed 6dbd c8c9 023e
000001c0: 628c 10be 2233 80be 4d85 15be a310 20be
000001d0: 48db fc3d 0b85 a3be 5b37 323e d877 353e
000001e0: 9bcf 583d 5a80 1abd e623 673e c1da e1bd
000001f0: 0f12 313d 1279 fd3d 33eb 06be c0d0 c33d
00000200: efdc 8d3d ca47 4abe a54f 813d 4dfe e3bd
00000210: 73b4 883d 3af0 2f3e 94f9 64be 9bb9 67bd
00000220: 7c85 8c3e 2ce9 ba3c 6cec 1e3e 1109 4b3e
00000230: 3319 e3bd c0ef 393c 8324 493d 4b86 843e
00000240: 15d8 8d3e f30a a63d 9680 883d ce34 b6bd
00000250: 7b4b 01be e329 25bd e07c 04bd 6157 ecbd
00000260: d16c bcbd fc74 933e e44a 1cbe e714 18bd
00000270: f504 0e3c 72aa f2bd 66d6 573e 5004 903d
00000280: a26a 94ba 68e1 87bb abab b2be c599 44bd
00000290: 0649 71bd 9f16 a3bd 8011 51bd 5478 76bd
000002a0: e42d 8cbd ca2b acbd ed39 623d 81a9 bdbd
000002b0: d692 79bc fc75 8b3c e446 7dbe 5b74 8e3e
000002c0: 6a3b b03d 71fd 8dbe 58e3 873d 13db bc3d
000002d0: d566 123e 0b78 ae3a 4752 43be b92b 843d
000002e0: 139c 573e 9a79 943d 7f3f 72be 09fd 363e
000002f0: d0fa 4ebd f028 893c 85d6 24bd 35dd a4bd
00000300: fb86 11be 161f 4d3d 0f10 58bd 9989 46bd
00000310: f6d0 47bd f92c 193d 7fa8 2d3d bfa4 8a3c
00000320: f519 813c 0a3c b83c 68f0 ba3d ae49 98bc
00000330: b217 853d 8538 d8bd 6be9 90bd b7f8 5f3e
00000340: 451a 1c3e dc45 c1bd e142 e1bd 9206 0c3d
00000350: 8c85 a6bd 8ddd 77bd ee68 733c 76cc f6bd
00000360: 0ae3 c63e 149e 973d 320f 1a3d b049 ce3b
00000370: abbf 1abd ecfe a13e 24aa 143d c1ba 253d
00000380: 5d64 25be 9eb7 313c a266 79bd 62fe ad3d
00000390: 0557 17bd 95b3 483d ab5e 133e e18b fe3d
000003a0: 7af3 fe3d ff58 893d 6dfd d33a 3453 313e
000003b0: f557 2ebc 5a87 25be 63b9 6b3e cf13 37be
000003c0: a7b4 adbe 28ec f53d aab6 8e3d e67f a53d
000003d0: cebe d23c cb58 2b3e 4731 57be 252b 4cbd
000003e0: e5c3 2ebd fe1b 5dbe f2c5 543d f170 433c
000003f0: 7707 6dbc baff 3c3c 7fcb b83b a1bb a13d

fc2.bias f4 [64]
-0.03847158 0.084140465 0.058971114 0.042169932 0.10604595 0.054166175 -0.054645557 0.06686296
0.03585205 0.0584685 -0.050906017 -0.04019234 -0.026422158 0.038530137 0.013476421 -0.036733374
0.012862342 0.044131268 0.043365058 0.09929661 -0.03877609 -0.04934912 -0.0022303532 0.069916174
-0.004922452 -0.07679235 -0.053097922 0.02525157 0.11032486 -0.028024793 0.00577715 0.03604635
0.08197761 0.072891384 0.07062375 -0.018085275 -0.0269839 0.052902713 -0.05417541 -0.04908523
0.00080819865 0.0016445282 -0.06446988 0.072589956 0.14567606 0.106526494 0.10797862 -0.0037754166
0.038859695 -0.11863114 -0.06861919 -0.051182974 0.03803007 0.07760587 0.13173705 -0.024808377
-0.055275522 0.0091651175 -0.012347262 0.08224703 0.010340437 0.0016380007 0.034455556 -0.056370277
00000000: 6094 1dbd d651 ac3d b28b 713d 61ba 2c3d
00000010: 9e2e d93d 5add 5d3d 05d4 5fbd 73ef 883d
00000020: 99d9 123d aa7c 6f3d d482 50bd b9a0 24bd
00000030: 4873 d8bc c7d1 1d3d 35cc 5c3c bc75 16bd
00000040: 93bc 523c fdc2 343d 8f9f 313d 055c cb3d
00000050: add3 1ebd 4e22 4abd 1e2b 12bb 3630 8f3d
00000060: 854c a1bb 4f45 9dbd 357d 59bd 61dc ce3c
00000070: 00f2 e13d 4094 e5bc 3f4e bd3b 56a5 133d
00000080: e1e3 a73d 1448 953d 2fa3 903d 9227 94bc
00000090: 570d ddbc 84b0 583d 09e7 5dbd 980d 49bd
000000a0: 4bdd 533a 368d d73a c908 84bd 0baa 943d
000000b0: 1b2c 153e 902a da3d e523 dd3d fb6c 77bb
000000c0: 582b 1f3d e2f4 f2bd 3888 8cbd 3da5 51bd
000000d0: 6bc5 1b3d d4ef 9e3d 14e6 063e f03a cbbc
000000e0: 9668 62bd 4a29 163c 2c4c 4abc 2271 a83d
000000f0: f06a 293c 2fb2 d63a 4521 0d3d 85e4 66bd

fc3.weight f4 [32, 64]
-0.026303047 -0.05104116 0.10494975 0.16618496 -0.03351969 -0.05524559 -0.09600075 0.0022237836
0.03361508 -0.08174895 -0.0005686952 -0.046183527 -0.08092929 0.046786055 -0.082055345 -0.08203798
0.025739009 0.15770024 0.04924718 -0.04792458 -0.1014383 -0.10098916 -0.06992196 -0.014377818
-0.09755165 -0.06490161 0.15479717 -0.10275939 -0.07784942 -0.044950616 0.11652884 0.006550828
0.0062893396 0.041695 0.030729694 0.11692126 0.06515125 0.049362447 0.161429 0.116547525
0.023265991 0.016814303 -0.13146316 -0.12033415 -0.016651139 0.12119757 0.018653592 0.06837369
0.029457232 0.10901659 -0.029578442 0.027569897 -0.030303061 0.09125747 0.13679148 0.05288396
-0.027416067 0.12590504 0.1632192 -0.01305331 -0.073242135 0.102688454 -0.053415507 -0.0133058615
0.29911417 -0.18102056 -0.1582432 0.08351069 0.1272526 -0.3266569 0.12878662 -0.24346687
0.1921425 -0.21346983 0.24252397 -0.0155698275 0.4129577 0.011917256 -0.2338945 0.17236328
0.16730897 0.12621932 0.0832295 0.4166586 0.14220351 -0.22326092 0.27690703 0.06125628
0.1088813 0.059516627 0.12969877 0.21597245 -0.09603218 -0.16620049 0.18629946 0.36714023
-0.1497497 0.13655566 0.052383333 -0.24630427 -0.08576683 0.39750624 -0.059201803 0.031934135
0.2463318 0.18144795 0.14049238 0.22869359 -0.058649488 -0.12210354 -0.064979054 -0.18673077
-0.18120988 -0.15961264 0.15756169 -0.14068073 0.035371836 -0.2205624 -0.17022774 -0.14225416
-0.0011855252 0.1684158 0.35128275 -0.3124592 -0.18610966 -0.2741259 0.039289556 -0.013285641
-0.17761299 0.17753696 -0.15328577 0.05301769 0.2577982 0.00038319058 0.16120951 0.16715585
0.20264192 -0.15964378 0.29666966 0.0149098225 -0.039281655 0.18183811 -0.14265977 0.031066919
0.050841343 0.08390053 -0.23240277 -0.23585093 0.5220703 0.018790973 0.1999178 0.18222764
0.2656029 0.12759432 0.11394093 -0.26087013 -0.034980632 0.24696082 -0.14956039 -0.088287406
-0.29982355 0.06506927 0.01253718 -0.033000335 0.12056056 -0.16341057 -0.11403238 0.12219037
0.12558588 0.27537227 -0.17866555 0.0937595 0.21616742 0.31227204 -0.053514566 0.20037363
-0.091199495 -0.12669075 -0.16149628 0.3112513 -0.27175787 -0.0351704 0.2806475 -0.14843878
-0.19990164 -3.2795786e-05 -0.0076467474 0.26039153 -0.05184457 0.08836426 -0.13746502 -0.15533759
0.14352894 -0.06378233 -0.38616812 0.1349158 0.030870745 -0.22106716 -0.21288362 0.28329235
0.08758225 -0.14747082 0.09166682 0.10697898 0.018032186 0.02012514 0.053230938 -0.16306832
-0.17017972 0.010472589 -0.32223165 0.012045206 0.36069793 -0.03026918 -0.09172463 -0.015106513
0.24346277 0.19379602 0.18009083 0.16679889 0.2688169 0.3948691 0.012140306 0.04236446
-0.10937515 -0.019905152 -0.07990515 -0.08057865 -0.0022503785 -0.14292228 -0.16391483 -0.041708715
-0.09098619 0.20846027 0.13304627 0.2181188 0.12744011 0.4348982 0.07714804 0.13344467
-0.014448325 -0.14142115 0.014480234 0.12417792 -0.42727038 0.080454946 0.3440282 -0.27619436
-0.14074284 -0.10499858 0.22033162 0.061479278 0.20540906 0.110379286 0.0397526 -0.19116215
00000000: 7d79 d7bc 8910 51bd e5ef d63d 642c 2a3e
00000010: f14b 09bd 3349 62bd 0b9c c4bd e6bc 113b
00000020: f7af 093d fe6b a7bd 7d14 15ba f02a 3dbd
00000030: 41be a5bd bca2 3f3d a20c a8bd 8703 a8bd
00000040: 9dda d23c 2c7c 213e 69b7 493d 904c 44bd
00000050: e2be cfbd 68d3 cebd 3f33 8fbd f190 6bbc
00000060: 29c9 c7bd 23eb 84bd 2683 1e3e 8473 d2bd
00000070: 846f 9fbd 231e 38bd aca6 ee3d 54a8 d63b
00000080: ce16 ce3b 60c8 2a3d d7bc fb3c 6a74 ef3d
00000090: 056e 853d 4730 4a3d a54d 253e 78b0 ee3d
000000a0: 5298 be3c 26be 893c 479e 06be c071 f6bd
000000b0: f867 88bc 6e36 f83d 6bcf 983c 8107 8c3d
000000c0: 4b50 f13c 1744 df3d 7d4e f2bc 44da e13c
000000d0: 203e f8bc 32e5 ba3d 1113 0c3e da9c 583d
000000e0: a997 e0bc 40ed 003e ef22 273e 8ddd 55bc
000000f0: f9ff 95bd 534e d23d 38ca 5abd d400 5abc
00000100: 7e25 993e 745d 39be 810a 22be a707 ab3d
00000110: 814e 023e 933f a7be a4e0 033e 614f 79be
00000120: 01c1 443e d697 5abe 3458 783e 9718 7fbc
00000130: 316f d33e 9840 433c 0a82 6fbe 0080 303e
00000140: 0b53 2b3e a33f 013e 3a74 aa3d 4754 d53e
00000150: cc9d 113e 839e 64be c2c6 8d3e dde7 7a3d
00000160: 29fd de3d b5c7 733d c1cf 043e e227 5d3e
00000170: 85ac c4bd 7630 2abe 49c5 3e3e cef9 bb3e
00000180: fc57 19be 3fd5 0b3e e88f 563d 3037 7cbe
00000190: 85a6 afbd f085 cb3e 977d 72bd 5ecd 023d
000001a0: 673e 7c3e 7ecd 393e 3cdd 0f3e a72e 6a3e
000001b0: 723a 70bd 6c11 fabd bd13 85bd 5a36 3fbe
000001c0: 158f 39be 7f71 23be da57 213e 9c0e 10be
000001d0: 0fe2 103d 1cdb 61be 2e50 2ebe 13ab 11be
000001e0: a063 9bba 3175 2c3e 55db b33e a7fa 9fbe
000001f0: 8893 3ebe 3b5a 8cbe 16ee 203d 04ac 59bc
00000200: 2ee0 35be 40cc 353e f2f6 1cbe 1429 593d
00000210: 20fe 833e f8e6 c839 1b14 253e e72a 2b3e
00000220: 5d81 4f3e a979 23be 16e5 973e 5448 743c
00000230: cde5 20bd c533 3a3e 6715 12be 0d80 fe3c
00000240: 033f 503d 0bd4 ab3d fefa 6dbe e882 71be
00000250: 66a6 053f 87ef 993c 40b7 4c3e e299 3a3e
00000260: 1afd 873e 16a8 023e dd59 e93d c590 85be
00000270: da47 0fbd 4ce3 7c3e 5c26 19be 07d0 b4bd
00000280: 7982 99be 0a43 853d bf68 4d3c 5c2b 07bd
00000290: 74e8 f63d 1a55 27be cf89 e9bd f23e fa3d
000002a0: 9699 003e 98fd 8c3e 1af4 36be fb04 c03d
000002b0: fe5a 5d3e 1fe2 9f3e 1732 5bbd bf2e 4d3e
000002c0: cdc6 babd 38bb 01be 485f 25be 555c 9f3e
000002d0: d923 8bbe d60e 10bd 07b1 8f3e 5600 18be
000002e0: 04b3 4cbe 358e 09b8 9191 fabb 0a52 853e
000002f0: f95a 54bd 52f8 b43d a1c3 0cbe d110 1fbe
00000300: 40f9 123e 4fa0 82bd d4b7 c5be 5e27 0a3e
00000310: a5e4 fc3c 6e5f 62be 2afe 59be b20b 913e
00000320: 535e b33d 9702 17be d0bb bb3d cc17 db3d
00000330: 3cb8 933c 7add a43c af08 5a3d 62fb 26be
00000340: 9843 2ebe 3995 2b3c 8cfb a4be 4159 453c
00000350: 66ad b83e 12f7 f7bc 1fda bbbd 4f81 77bc
00000360: 4e4e 793e 7772 463e bb69 383e 54cd 2a3e
00000370: 5ea2 893e 482c ca3e 22e8 463c 5b86 2d3d
00000380: 1400 e0bd 2110 a3bc 50a5 a3bd 6b06 a5bd
00000390: 167b 13bb 385a 12be 4ad9 27be c2d6 2abd
000003a0: f856 babd 9c76 553e 483d 083e 895a 5f3e
000003b0: a97f 023e faaa de3e cbff 9d3d b8a5 083e
000003c0: abb8 6cbc b5d0 10be 813e 6d3c fe50 fe3d
000003d0: 2fc3 dabe 90c5 a43d 7724 b03e 5969 8dbe
000003e0: e41e 10be 7f09 d7bd 9d9e 613e b2d1 7b3d
000003f0: c156 523e 890e e23d 9fd3 223d 03c0 43be

fc3.bias f4 [32]
0.02017597 0.07383516 0.19513433 0.07707323 0.07351994 0.033297118 0.16599019 -0.083677016
0.021716883 0.24107714 0.0757188 0.039071538 -0.020475876 0.012150756 -0.074194364 0.053835522
0.11237759 0.007497958 0.15482414 0.01134672 0.07970899 0.12914164 -0.023741841 0.18885617
-0.07577894 0.22760074 0.11400033 -0.04706017 0.22159313 -0.051681213 0.12003002 -0.08695335
00000000: 1348 a53c e336 973d 4bd1 473e 92d8 9d3d
00000010: 9f91 963d 8f62 083d 55f9 293e db5e abbd
00000020: 9be7 b13c eddc 763e 7512 9b3d 7a09 203d
00000030: 06bd a7bc f713 473c 37f3 97bd a382 5c3d
00000040: 3926 e63d 6eb1 f53b 388a 1e3e 98e7 393c
00000050: 783e a33d b53d 043e 407e c2bc 8363 413e
00000060: fd31 9bbd 2b10 693e 0179 e93d 2ac2 40bd
00000070: 4fe9 623e aeaf 53bd 4dd2 f53d 9914 b2bd

fc4.weight f4 [24, 32]
-0.06770888 -0.18994494 0.30147383 0.24503687 -0.24095878 -0.8434374 -0.2066531 0.064113714
-0.13992618 -0.30598757 0.2045174 -0.14227033 -0.831847 -0.03373461 -0.41392386 0.27814037
-0.11399392 -0.5864294 -0.66362953 0.055294916 -0.27093858 0.109283276 -0.17375685 0.19603644
-0.022734506 -0.12098463 -0.58204037 -0.64399105 -0.09094987 -0.051096752 -0.03302478 -0.3806773
-0.13739865 0.17039107 -0.2337638 -0.33207443 0.11769103 0.20696999 0.2780459 0.25104332
-0.8259136 -0.015987556 -0.42224684 0.22438821 -0.25088128 -0.5809048 0.16306102 -0.30739
-0.35141847 0.13348028 0.039222077 -0.4183018 -0.3710161 -0.06441681 0.074406125 -0.28720826
0.13301404 -0.0119472 0.012980124 0.17326148 -0.073026225 -0.3913115 0.14914377 0.0998599
0.08071218 -0.5065469 0.03651529 -0.064070344 -0.31993598 -0.13596028 -0.46629244 0.12563474
0.1295295 -0.12102867 0.15828577 -0.64434797 0.029355645 0.18483815 -0.45633578 -0.008436185
0.1518298 -0.1969129 -0.008861514 0.109755605 0.08855354 0.09530092 -0.03273638 0.06548552
-0.30546403 -0.22866851 0.0070573404 -0.25808966 -0.06787396 0.17128694 -0.10686042 -0.03940534
-0.12562215 -0.095803805 0.096052185 -0.2474955 0.1545584 0.24219887 0.28542167 0.06646627
0.1317499 -0.14955236 -0.4225299 -0.03709502 0.05725393 -0.32035705 -0.16993603 -0.33362353
-0.21519323 -0.014002492 -0.39324218 0.3124492 -0.42391047 0.056764763 -0.24820922 0.08476411
-0.22386843 -0.14042477 -0.5921255 0.0051510846 0.12542695 -0.44589904 0.1369043 0.20071596
0.042428177 -0.4391073 -0.11372744 -0.4667085 -0.08126665 0.15599187 -0.12199295 -0.57865703
-0.061332747 0.24909402 -0.3947934 -0.16556332 0.21491425 -0.12653743 -0.5110647 -0.26682308
-0.5885714 -0.120844714 0.25298038 0.23570332 0.17614836 -0.7090861 0.18995866 -0.26765078
-0.31773186 -0.15965447 -0.07532449 -0.010062766 0.051734585 -0.16337812 -0.21924035 0.11043875
-0.2925563 -0.59213775 -0.2853195 -0.14463381 0.10024293 0.10407049 -0.12289107 -0.28894684
0.15291472 0.032499976 -0.3835033 -0.13134319 0.1417078 -0.2575041 -0.3337303 0.08612974
0.17018434 0.17777868 0.09041593 0.014030261 0.014362587 -0.3688761 0.15779953 -0.58075994
-0.28327602 -0.4835687 -0.28480378 -0.11172643 0.18853718 -0.04334762 0.061856203 -0.01049139
-0.027632019 0.036484405 -0.40560567 -0.5107913 -0.07128313 0.08227208 -0.21920863 0.11784699
-0.43182096 0.019622538 0.057862636 0.16273546 0.14381225 0.09238051 0.21048822 -0.357886
-0.16163586 0.09807148 0.044846416 0.08503587 0.076382294 0.08191988 0.1410269 -0.04186839
0.13207741 -0.013981419 -0.012920035 -0.1627016 -0.2960373 0.1506776 -0.454155 -0.011578274
-0.09979247 0.07294719 0.0985631 0.049094606 -0.11519972 0.088418655 0.04482436 -0.34047836
0.107619934 -0.11302469 -0.0035350083 -0.020219136 -0.030676644 -0.19848211 0.32352787 -0.16572186
0.13788132 -0.25984836 0.06983054 0.14465037 0.11033542 -0.105803475 -0.025096275 0.18976974
-0.41368583 0.105241075 -0.15181434 -0.3371316 0.099224634 -0.440933 0.13017774 0.00655891
00000000: f4aa 8abd ed80 42be c75a 9a3e f2ea 7a3e
00000010: e6bd 76be 83eb 57bf df9c 53be 0d4e 833d
00000020: cf48 0fbe 67aa 9cbe 026d 513e 50af 11be
00000030: edf3 54bf 4d2d 0abd d4ed d3be 6a68 8e3e
00000040: a575 e9bd 3d20 16bf a0e3 29bf ec7c 623d
00000050: 76b8 8abe e9cf df3d 51ed 31be c7bd 483e
00000060: b73d babc cac6 f7bd 9900 15bf 99dc 24bf
00000070: ed43 babd d44a 51bd fe44 07bd 23e8 c2be
00000080: 3bb2 0cbe ff7a 2e3e c75f 6fbe a905 aabe
00000090: ff07 f13d f1ef 533e 085c 8e3e c088 803e
000000a0: 136f 53bf 56f8 82bc bd30 d8be 06c6 653e
000000b0: 8373 80be 2db6 14bf 78f9 263e 3962 9dbe
000000c0: 1fed b3be 0eaf 083e 54a7 203d a72b d6be
000000d0: d2f5 bdbe f6ec 83bd 3d62 983d f60c 93be
000000e0: d534 083e 30be 43bc 96aa 543c 756b 313e
000000f0: c68e 95bd fb59 c8be 25b9 183e 5983 cc3d
00000100: 6d4c a53d 0fad 01bf 0f91 153d 5037 83bd
00000110: a6ce a3be 2c39 0bbe e2bd eebe 65a6 003e
00000120: 62a3 043e e1dd f7bd aa15 223e fdf3 24bf
00000130: 407b f03c 3646 3d3e d8a4 e9be ed37 0abc
00000140: 4579 1b3e 89a3 49be e22f 11bc 8cc7 e03d
00000150: 8f5b b53d 212d c33d 9516 06bd 461d 863d
00000160: c865 9cbe 1428 6abe 4341 e73b 5424 84be
00000170: 8101 8bbd d865 2f3e a3d9 dabd 7e67 21bd
00000180: 18a3 00be c934 c4bd 02b7 c43d 766f 7dbe
00000190: 8f44 1e3e fb02 783e ca22 923e 781f 883d
000001a0: 72e9 063e 4124 19be d755 d8be f3f0 17bd
000001b0: 1983 6a3d d705 a4be b603 2ebe b4d0 aabe
000001c0: 9d5b 5cbe b56a 65bc 0a57 c9be 57f9 9f3e
000001d0: cb0a d9be 2b82 683d 8f2a 7ebe ce98 ad3d
000001e0: c43d 65be 83cb 0fbe 8995 17bf 6eca a83b
000001f0: ec6f 003e e14c e4be a430 0c3e 7c88 4d3e
00000200: 2bc9 2d3d acd2 e0be efe9 e8bd 6bf4 eebe
00000210: 216f a6bd 55bc 1f3e 71d7 f9bd de22 14bf
00000220: 0c38 7bbd 8112 7f3e 5c22 cabe 6e89 29be
00000230: 7b12 5c3e 0793 01be 23d5 02bf 099d 88be
00000240: 9eac 16bf 6f7d f7bd a586 813e 365c 713e
00000250: 3c60 343e ab86 35bf 8684 423e 8609 89be
00000260: c0ad a2be 767c 23be ba43 9abd 4dde 24bc
00000270: a5e7 533d 984c 27be 8b80 60be b62d e23d
00000280: f0c9 95be 5796 17bf 6615 92be e31a 14be
00000290: 2a4c cd3d e922 d53d 50ae fbbd d7f0 93be
000002a0: ad95 1c3e b21e 053d 8b5a c4be d47e 06be
000002b0: d91b 113e 94d7 83be b3de aabe ca64 b03d
000002c0: ce44 2e3e 9d0b 363e fd2b b93d 2edf 653c
000002d0: 0e51 6b3c 54dd bcbe 3396 213e afac 14bf
000002e0: 8e09 91be 5196 f7be cdd1 91be d4d0 e4bd
000002f0: e40f 413e 468d 31bd ee5c 7d3d 14e4 2bbc
00000300: 8b5c e2bc ac70 153d 8cab cfbe 38c3 02bf
00000310: e4fc 91bd 447e a83d 3a78 60be c359 f13d
00000320: a317 ddbe 72bf a03c 5f01 6d3d 20a4 263e
00000330: 8543 133e fe31 bd3d 398a 573e d53c b7be
00000340: df83 25be b3d9 c83d e0b0 373d 4927 ae3d
00000350: 526e 9c3d 9cc5 a73d 5b69 103e 307e 2bbd
00000360: 4d3f 073e 5212 65bc 8eae 53bc 409b 26be
00000370: 3392 97be 3b4b 1a3e 0187 e8be cdb2 3dbc
00000380: ff5f ccbd 5665 953d 73db c93d 6d17 493d
00000390: d5ed ebbd d714 b53d c099 373d 2e53 aebe
000003a0: d767 dc3d 7d79 e7bd 99ab 67bb 9aa2 a5bc
000003b0: 964d fbbc e53e 4bbe 72a5 a53e feb2 29be
000003c0: c330 0d3e d80a 85be 5003 8f3d 3a1f 143e
000003d0: 89f7 e13d 7eaf d8bd b496 cdbc 0053 423e
000003e0: a1ce d3be a288 d73d 3875 1bbe 839c acbe
000003f0: 4936 cb3d f8c1 e1be 504d 053e 20ec d63b

fc4.bias f4 [24]
-0.0077891513 0.1339186 -0.13293496 0.2756394 0.17782812 -0.0023085154 0.03202218 0.1499208
-0.19158302 0.14106283 0.08898939 -0.08874612 0.11130808 -0.05321838 -0.2422465 -0.31214184
0.025033224 -0.131102 0.09928126 0.17443413 -0.11923214 -0.07418311 0.018539494 -0.13996331
00000000: 233c ffbb f521 093e 1a20 08be 9c20 8d3e
00000010: 9318 363e 764a 17bb b029 033d d784 193e
00000020: 572e 44be c672 103e 1240 b63d 87c0 b5bd
00000030: 7ef5 e33d 84fb 59bd 770f 78be 0ed1 9fbe
00000040: 7a12 cd3c 9a3f 06be f953 cb3d dc9e 323e
00000050: fb2f f4bd 50ed 97bd 23e0 973c 8b52 0fbe

exp_avg f4 [128, 144]
-0.004221053 -0.0012354061 -0.004143041 -0.0010238294 -0.0023464123 -0.0026686345 -0.0011627646 -0.0010621541
-0.0018020344 -0.0016103594 -0.0015468862 -0.0009576766 -0.0037833722 -0.0005090173 -0.0015939822 -0.0013248874
-0.0032743244 -0.002989489 -0.0024281074 -0.0014621156 -0.0032090698 -0.0024456326 -0.0015672015 -0.0010882596
-0.0054004434 -0.002924251 -0.0040086024 -0.0015596775 -0.0029913187 -0.0030928005 -0.0005681048 -0.0020245356
-0.0017892073 -0.0013021628 -0.0018442781 -0.00043172247 -0.004421817 -0.0008897233 -0.0008566702 -0.002722422
-0.0042866566 -0.0032359282 -0.001978585 -0.0016553584 -0.0035827493 -0.0031808233 -0.0019131983 -0.00036061823
-0.0050911997 -0.0034645353 -0.0039187334 -0.0016079852 -0.0032540867 -0.0029738685 -0.00040172512 -0.0018914132
-0.0011339101 -0.0009222708 -0.0022033679 -0.00071925524 -0.0044169836 -0.001093671 -0.00080672174 -0.0026381568
-0.00428482 -0.003358224 -0.002109148 -0.0011405743 -0.0035333233 -0.0034320666 -0.0020584918 -0.0006368457
-0.0048161116 -0.0027856417 -0.003916556 -0.0014654675 -0.003310739 -0.0031315298 -0.00039269804 -0.0018783226
-0.0012340948 -0.00093886495 -0.0020520913 -0.00091490475 -0.0044269506 -0.0013310721 -0.0009338038 -0.0024373296
-0.0043612164 -0.003490137 -0.0022033812 -0.0012504586 -0.004037873 -0.0032410715 -0.0020047424 -0.0009014064
-0.004844968 -0.0026006144 -0.0038714511 -0.0010492938 -0.003095971 -0.0031330425 -0.0005204648 -0.001826053
-0.0012518971 -0.000982656 -0.0019001791 -0.0011142007 -0.0045447107 -0.001977231 -0.00089590455 -0.0024151723
-0.0043660495 -0.0035546243 -0.0023407561 -0.0011244428 -0.0040584104 -0.0030810016 -0.0020371361 -0.0007881559
-0.0049014473 -0.0024555176 -0.0041187634 -0.0008840908 -0.003175736 -0.0031457425 -0.0007164269 -0.0016886145
-0.001121643 -0.0005138541 -0.0018831167 -0.0009106477 -0.004784841 -0.0018754124 -0.00093378575 -0.002427347
-0.004808654 -0.0034324322 -0.0024409005 -0.0010389027 -0.004005524 -0.003216578 -0.0021915517 -0.0008219118
-0.005334577 -0.004127725 -0.0038751652 -0.0043290914 -0.004627528 -0.004357038 -0.0018710555 -0.00208992
-0.004473334 -0.004976313 -0.0015375927 -0.0036981846 -0.0045654387 -0.0018573062 -0.003056429 -0.0012479314
-0.005715391 -0.0072261654 -0.009991252 -0.0045813574 -0.0033361034 -0.0027493858 -0.004580507 -0.0027112863
-0.007731337 -0.005122778 -0.0064503956 -0.005967159 -0.006477793 -0.0052488595 -0.0029109546 -0.0040497375
-0.004543892 -0.0056752656 -0.004929656 -0.005938502 -0.007108864 -0.0019750984 -0.003059969 -0.0015732195
-0.008082776 -0.0093843425 -0.01250815 -0.00558719 -0.0065238723 -0.0018443555 -0.0050258683 -0.00551216
-0.007405433 -0.005203153 -0.0060853222 -0.005763495 -0.00639704 -0.0049661077 -0.003090943 -0.004724533
-0.005028779 -0.0060635693 -0.0049404586 -0.0064564785 -0.007215971 -0.0015511947 -0.0027347412 -0.0015446054
-0.008082578 -0.009177228 -0.012790719 -0.005744321 -0.00595339 -0.0017329565 -0.0049647796 -0.005535206
-0.007957922 -0.0052840565 -0.0061276685 -0.0055999355 -0.0062619173 -0.005047871 -0.0029318307 -0.0047015734
-0.0055514127 -0.0058887852 -0.0048217033 -0.006121565 -0.007089445 -0.0011670649 -0.0025372482 -0.001567198
-0.0075788726 -0.009141206 -0.012853025 -0.00570124 -0.006077207 -0.002381088 -0.0051369877 -0.0059452034
-0.0086514205 -0.005553392 -0.006569651 -0.004569107 -0.006303534 -0.0050735185 -0.002876243 -0.004703571
-0.0056676413 -0.005758288 -0.004999514 -0.0060866545 -0.007060182 -0.0007997416 -0.002589465 -0.001464685
00000000: c250 8abb 5aed a1ba 59c2 87bb 0432 86ba
00000010: 44c6 19bb 42e4 2ebb e867 98ba fa37 8bba
00000020: 3e32 ecba b212 d3ba e3c0 caba 970c 7bba
00000030: 74f2 77bb 936f 05ba 2bed d0ba d8a7 adba
00000040: 0c96 56bb 4deb 43bb e220 1fbb 75a4 bfba
00000050: 424f 52bb e846 20bb 8e6a cdba efa3 8eba
00000060: 34f6 b0bb caa4 3fbb 985a 83bb 186e ccba
00000070: 000a 44bb 95b0 4abb deec 14ba 12ae 04bb
00000080: d683 eaba 55ad aaba b4bb f1ba cf58 e2b9
00000090: e4e4 90bb 523c 69ba 2a92 60ba a96a 32bb
000000a0: 1577 8cbb de11 54bb 26ab 01bb 9cf8 d8ba
000000b0: 8fcc 6abb 5c75 50bb 48c4 faba 5c11 bdb9
000000c0: 14d4 a6bb 420d 63bb b868 80bb 08c3 d2ba
000000d0: 8442 55bb 3ce5 42bb a29e d2b9 4ce9 f7ba
000000e0: b69f 94ba 8cc4 71ba 6166 10bb 678c 3cba
000000f0: 58bc 90bb 8259 8fba 2e7a 53ba ede4 2cbb
00000100: ad67 8cbb a615 5cbb a239 0abb 537f 95ba
00000110: 548f 67bb 86ec 60bb c3e7 06bb fef1 26ba
00000120: 79d0 9dbb 508f 36bb 7456 80bb ee14 c0ba
00000130: fcf8 58bb 5a3a 4dbb 0ae3 cdb9 0c32 f6ba
00000140: 5ac1 a1ba 291e 76ba 617c 06bb 38d6 6fba
00000150: f40f 91bb 5e77 aeba 83ca 74ba 9bbb 1fbb
00000160: 89e8 8ebb c8ba 64bb 9a66 10bb 6ee6 a3ba
00000170: 2250 84bb 2868 54bb ff61 03bb 5c4c 6cba
00000180: 8ac2 9ebb 126f 2abb 2cb8 7dbb 7588 89ba
00000190: c6e5 4abb bb53 4dbb cd6f 08ba 2c58 efba
000001a0: b216 a4ba 77cc 80ba 6e0f f9ba 5f0a 92ba
000001b0: cceb 94bb 6e94 01bb 23db 6aba de47 1ebb
000001c0: 1411 8fbb b3f4 68bb 5f67 19bb 0a62 93ba
000001d0: 6afc 84bb a1ea 49bb 7981 05bb 3f9c 4eba
000001e0: 529c a0bb c0ec 20bb b1f6 86bb 54c2 67ba
000001f0: 0220 50bb cd28 4ebb 98ce 3bba 8054 ddba
00000200: 1804 93ba 2ab4 06ba e9d2 f6ba 88b8 6eba
00000210: 28ca 9cbb 66d0 f5ba 4dc9 74ba 2014 1fbb
00000220: ea91 9dbb a8f2 60bb 84f7 1fbb ca2b 88ba
00000230: c540 83bb 39cd 52bb 23a0 0fbb 9175 57ba
00000240: adcd aebb de41 87bb 7cf6 7dbb 0ddb 8dbb
00000250: 85a2 97bb 7cc5 8ebb 343e f5ba 0af7 08bb
00000260: 0c95 92bb 5710 a3bb 0d89 c9ba 3e5d 72bb
00000270: ad99 95bb db70 f3ba 5f4e 48bb a191 a3ba
00000280: 2d48 bbbb 78c9 ecbb 59b2 23bc 361f 96bb
00000290: 87a2 5abb 0a2f 34bb 1418 96bb d6af 31bb
000002a0: 2857 fdbb fadc a7bb d75d d3bb 2888 c3bb
000002b0: ab43 d4bb a0fe abbb b7c5 3ebb a9b3 84bb
000002c0: eee4 94bb 94f7 b9bb f488 a1bb c497 c2bb
000002d0: 79f1 e8bb a770 01bb c389 48bb 7d34 ceba
000002e0: 9f6d 04bc c9c0 19bc fcee 4cbc bf14 b7bb
000002f0: 35c6 d5bb 4dbe f1ba 0ab0 a4bb 599f b4bb
00000300: 46a9 f2bb 367f aabb 6267 c7bb b3db bcbb
00000310: 439e d1bb bbba a2bb 6b91 4abb 41d0 9abb
00000320: 75c8 a4bb e8b0 c6bb 92e3 a1bb de90 d3bb
00000330: f473 ecbb 7551 cbba 5839 33bb 5b74 caba
00000340: ca6c 04bc 165c 16bc 2a90 51bc db3a bcbb
00000350: a814 c3bb 5f24 e3ba 97af a2bb ac60 b5bb
00000360: f261 02bc e125 adbb 9cca c8bb aa7f b7bb
00000370: c530 cdbb 9c68 a5bb f523 40bb a80f 9abb
00000380: a0e8 b5bb b6f6 c0bb 61ff 9dbb 6997 c8bb
00000390: 934e e8bb 33f8 98ba f647 26bb 706a cdba
000003a0: 3158 f8bb ffc4 15bc 7f95 52bc 78d1 babb
000003b0: 4f23 c7bb 070c 1cbb 2d54 a8bb fbcf c2bb
000003c0: b0be 0dbc 3bf9 b5bb 3a46 d7bb 73b8 95bb
000003d0: e08d cebb c23f a6bb 5a7f 3cbb 6a20 9abb
000003e0: 9fb7 b9bb 05b0 bcbb f7d2 a3bb 8f72 c7bb
000003f0: 1959 e7bb c0a5 51ba 03b4 29bb acfa bfba

exp_avg_sq f4 [128, 144]
0.00016432069 8.2068414e-05 0.00011990997 6.436538e-05 0.00019510985 0.00011482564 2.8493496e-05 3.417392e-05
7.879015e-05 0.00010213095 4.395905e-05 7.217365e-05 0.00019057326 1.8680077e-05 6.263721e-05 3.9759943e-05
0.0001149871 0.00022395875 0.00024293631 6.0415245e-05 0.00010133854 4.742708e-05 3.171955e-05 3.846821e-05
0.00030454688 0.00020322241 0.00020871827 0.00013783827 0.00031918866 0.00022288052 5.4106495e-05 0.000103318496
0.00013633877 0.00016605352 9.145513e-05 0.00012590317 0.00033563995 7.063351e-05 0.00012412149 0.00011954429
0.00025474036 0.0003763054 0.00041168105 0.00013682047 0.0001676192 0.00011059438 5.825466e-05 8.0994876e-05
0.0003012179 0.00020371059 0.00020773806 0.00013949996 0.00032120897 0.000220008 5.330277e-05 0.00010862356
0.00013399734 0.00016461522 9.55924e-05 0.00012555083 0.0003344344 7.126808e-05 0.00012651095 0.000118953125
0.0002581167 0.00038015546 0.00041082647 0.0001364423 0.00016837787 0.00011579853 5.9503236e-05 8.471746e-05
0.000301255 0.00020479358 0.00021104256 0.00013948393 0.00032562378 0.0002233345 5.3010383e-05 0.00011144952
0.00013319582 0.00016434219 9.465926e-05 0.00012616643 0.00033578498 7.158579e-05 0.00013158072 0.00011624428
0.00025538311 0.00037972792 0.0004110643 0.00013524045 0.00017225904 0.000116164665 5.886214e-05 8.873114e-05
0.0002970313 0.00020043903 0.00021015956 0.00014484541 0.00032662772 0.00022155835 5.1995274e-05 0.00011403291
0.00013256588 0.00016295517 9.407738e-05 0.00012749196 0.00033563006 8.118868e-05 0.00013321739 0.00011499538
0.00025745248 0.00038011104 0.0004113149 0.00013436608 0.0001725379 0.0001187206 5.863222e-05 8.812486e-05
0.00029756353 0.00020004399 0.0002101235 0.0001438789 0.00032768174 0.00022238542 5.141068e-05 0.000115168186
0.00013388811 0.00016377014 9.405105e-05 0.00012726197 0.00034012625 8.1370235e-05 0.00013357091 0.00011599989
0.00025864414 0.00038019312 0.0004113562 0.000133834 0.0001740719 0.00011655308 5.870089e-05 8.7419874e-05
0.00047813618 0.00028536047 0.00026893694 0.00022787339 0.00048388127 0.0002791999 0.00011328382 0.0001068951
0.00018309246 0.00034101974 0.00014259442 0.00021293535 0.00055513694 6.493099e-05 0.00020345848 3.3960976e-05
0.0003634322 0.0006994283 0.0008748522 0.00020980295 0.00028275768 0.00013731566 0.00018564762 0.00015473663
0.00081751414 0.00043735796 0.0004977594 0.00041897313 0.00074680225 0.00057693076 0.00019188573 0.00022870785
0.0004279073 0.0005686078 0.00025095185 0.0004180226 0.0009642871 0.00026507827 0.0003626641 4.515235e-05
0.0005792165 0.0010882894 0.0013117966 0.00039312302 0.0005300025 0.00023024729 0.00036266094 0.0003052538
0.00081557815 0.00042924954 0.00052401936 0.0004184783 0.0007470426 0.0005859144 0.00019384366 0.00024412585
0.00042542972 0.0005832707 0.00025603658 0.00042879503 0.00096488965 0.00027188062 0.00036442763 4.6700618e-05
0.0005680271 0.0010835775 0.0013130249 0.0003855815 0.000543501 0.00023119703 0.00034880528 0.0003093848
0.00081140175 0.00043429752 0.0005247621 0.00041536326 0.0007521295 0.00058980845 0.0001955093 0.00025297515
0.00043281645 0.0005866864 0.00025880022 0.0004257872 0.00096252747 0.00026938994 0.00035904846 4.613197e-05
0.0005682922 0.0010881161 0.0013150488 0.00038971988 0.0005561433 0.00022920195 0.00034399738 0.00031941105
0.0008195655 0.00043343302 0.0005347872 0.00042212303 0.00076125923 0.00058773084 0.0001960729 0.00024890061
0.00043466024 0.0005996031 0.00026056284 0.00042231416 0.00097166904 0.00026442128 0.00035943976 4.928659e-05
00000000: 804d 2c39 251c ac38 2d78 fb38 e6fb 8638
00000010: 6796 4c39 8cce f038 5105 ef37 f855 0f38
00000020: 243c a538 232f d638 ac60 3838 ef5b 9738
00000030: 9fd4 4739 29b3 9c37 195c 8338 eac3 2638
00000040: 3b25 f138 78d6 6a39 b8bc 7e39 6066 7d38
00000050: b785 d438 70ec 4638 9c0a 0538 ed58 2138
00000060: 97ab 9f39 1a18 5539 62db 5a39 ae88 1039
00000070: c758 a739 09b5 6939 68f0 6238 b2ac d838
00000080: 29f6 0e39 a71e 2e39 99cb bf38 e004 0439
00000090: d5f8 af39 1421 9438 9c26 0239 dab3 fa38
000000a0: ac8e 8539 db4a c539 e5d6 d739 7777 0f39
000000b0: f0c2 2f39 e8ee e738 7756 7438 cbdb a938
000000c0: c8ec 9d39 259b 5539 43d4 5939 bc46 1239
000000d0: f067 a839 f3b1 6639 6a91 5f38 d4cc e338
000000e0: a381 0c39 909c 2c39 c778 c838 4ba6 0339
000000f0: 0657 af39 c275 9538 06a8 0439 7976 f938
00000100: d653 8739 9a4f c739 3264 d739 f311 0f39
00000110: 978e 3039 ddd8 f238 1d93 7938 57aa b138
00000120: c3f1 9d39 dcbd 5639 4e4b 5d39 6f42 1239
00000130: 7cb8 aa39 e62e 6a39 7757 5e38 01ba e938
00000140: 7baa 0b39 4553 2c39 ce83 c638 8b4b 0439
00000150: 4c0c b039 5420 9638 eef8 0939 2cc8 f338
00000160: f1e4 8539 3816 c739 1e84 d739 55cf 0d39
00000170: 6fa0 3439 6e9d f338 bee2 7638 2b15 ba38
00000180: deba 9b39 f12c 5239 475e 5c39 a5e1 1739
00000190: 3b3f ab39 1e52 6839 8015 5a38 f424 ef38
000001a0: 6201 0b39 f2de 2a39 694b c538 5daf 0539
000001b0: 81f7 af39 d743 aa38 45b0 0b39 ad29 f138
000001c0: b0fa 8639 a449 c739 c0a5 d739 9fe4 0c39
000001d0: 4aeb 3439 a3f9 f838 deeb 7538 adcf b838
000001e0: 4d02 9c39 e6c2 5139 9954 5c39 33de 1639
000001f0: b3cc ab39 2230 6939 cca1 5738 7386 f138
00000200: 5164 0c39 b6b9 2b39 463d c538 a071 0539
00000210: f952 b239 50a5 aa38 2b0f 0c39 f744 f338
00000220: a19a 8739 a854 c739 4bab d739 ca55 0c39
00000230: 1287 3639 f56d f438 9a35 7638 3055 b738
00000240: 5aae fa39 6f9c 9539 1b00 8d39 4cf1 6e39
00000250: 72b1 fd39 9461 9239 ca92 ed38 df2c e038
00000260: 82fc 3f39 e5ca b239 6685 1539 6647 5f39
00000270: 9c86 113a 8f2b 8838 7857 5539 5271 0e38
00000280: 0b8b be39 d759 373a 5656 653a 8dfe 5b39
00000290: 183f 9439 64fc 0f39 67aa 4239 cc40 2239
000002a0: 724e 563a 314d e539 117c 023a 9fa9 db39
000002b0: 0dc5 433a 2b3d 173a ef34 4939 4cd1 6f39
000002c0: bf58 e039 a00e 153a 3092 8339 0b2a db39
000002d0: 36c8 7c3a 34fa 8a39 f423 be39 f761 3d38
000002e0: 90d6 173a efa4 8e3a 97f0 ab3a 141c ce39
000002f0: deef 0a3a 896e 7139 8723 be39 790a a039
00000300: 86cc 553a e60c e139 585e 093a 3567 db39
00000310: 2ed5 433a 0d98 193a 8342 4b39 09fc 7f39
00000320: 360c df39 a2e6 183a a63c 8639 e5cf e039
00000330: a6f0 7c3a 338b 8e39 a610 bf39 68e0 4338
00000340: a7e7 143a d406 8e3a ce19 ac3a df27 ca39
00000350: bc79 0e3a 7b6d 7239 dadf b639 ed34 a239
00000360: 40b4 543a 6db2 e339 3090 093a 1dc5 d939
00000370: 8e2a 453a 609d 1a3a a101 4d39 c0a1 8439
00000380: a4eb e239 dccb 193a 94af 8739 313c df39
00000390: 2052 7c3a e83c 8d39 ab3e bc39 d37d 4138
000003a0: 72f9 143a 1e9f 8e3a b75d ac3a 5153 cc39
000003b0: 25ca 113a ee55 7039 8c5a b439 a076 a739
000003c0: 1cd8 563a 653e e339 f630 0c3a 6550 dd39
000003d0: 3e8f 473a f311 1a3a eb98 4d39 e07e 8239
000003e0: 1ce3 e339 af2e 1d3a 279c 8839 0c6a dd39
000003f0: 9bb7 7e3a 06a2 8a39 3073 bc39 13b9 4e38

exp_avg f4 [128]
-0.004895194 -0.011810975 0.0008231736 -0.00445623 0.0 0.00446905 -0.006649677 -0.0038173674
-0.006598048 0.0043139993 -0.003296608 -0.0035729632 0.0021297447 0.0006672951 -0.0049025808 -0.003238093
-0.0025913012 0.000316251 -0.0024406752 6e-45 -0.0026965719 -0.0016360317 -0.0045161 0.010621201
0.0027260496 -0.0042244075 -0.0068827057 -0.00043509487 -0.005826545 -0.005543184 -0.0012345575 -0.0024171057
-0.0030436697 0.0028002048 0.012245255 0.0021489756 0.0 -0.0081202695 -0.000746554 0.0044782264
0.0009223092 -0.0032271398 -0.0043973215 -0.006079088 -0.001637004 6e-45 0.0012248391 0.00075458025
-0.001293404 -7.4063195e-05 0.0008296836 -0.0023241532 -0.001806849 0.00010149856 -0.0012242263 0.0
-0.00378379 -0.005585083 0.0038218272 0.01131839 0.0 0.006211306 -0.00068385154 -0.0042309724
-0.008035969 -0.00045324207 -0.00011187582 0.0034338152 0.0021086356 6e-45 0.00043475255 -0.0041874303
-0.0017914332 -0.0002815746 0.004715085 6e-45 -0.0035087152 -0.0044842204 -0.0001647 -0.004075938
-0.0056190672 0.0039590783 -0.0040883636 0.0 -0.0037250225 6e-45 0.0006768399 -0.0012311866
-0.0033770907 -0.0005137691 -0.002078033 0.006463275 0.0011915574 -0.0055617243 -0.007985589 -0.0004970937
0.0031065685 0.00049424876 0.0056740153 -0.0032571568 -0.0033895697 0.0043732766 -0.0036333562 -0.00022242044
0.00266224 0.00096202426 0.002174027 -0.0011933369 -0.0011931331 -0.00039967883 -0.001583373 -0.0033983074
-0.0032320602 -0.007954235 -0.008485099 0.007008674 -0.008346095 -0.0075570443 0.008078381 0.0010334715
-0.0024885093 0.0034540002 -0.0040761353 -0.0057482077 -0.0057067657 -0.0054312055 0.001016896 -0.00071885996
00000000: dd67 a0bb d282 41bc 3fca 573a 9105 92bb
00000010: 0000 0000 1c71 923b 89e5 d9bb cc2c 7abb
00000020: 7034 d8bb 735c 8d3b e80b 58bb 6028 6abb
00000030: 3093 0b3b 6bed 2e3a d4a5 a0bb 3036 54bb
00000040: d2d2 29bb 7ece a539 bcf3 1fbb 0400 0000
00000050: f8b8 30bb 1d70 d6ba cbfb 93bb 8c04 2e3c
00000060: 86a7 323b e66c 8abb 5288 e1bb 721d e4b9
00000070: 9aec bebb 99a3 b5bb e0d0 a1ba 4e68 1ebb
00000080: 4e78 47bb a483 373b 52a0 483c d4d5 0c3b
00000090: 0000 0000 e10a 05bc 64b4 43ba 16be 923b
000000a0: 1fc7 713a 6c7e 53bb 6817 90bb 1633 c7bb
000000b0: bd90 d6ba 0400 0000 c88a a03a 06cf 453a
000000c0: 7087 a9ba 6052 9bb8 207f 593a d250 18bb
000000d0: cbd3 ecba a0db d438 3876 a0ba 0000 0000
000000e0: 76f9 77bb 1203 b7bb 9f77 7a3b c570 393c
000000f0: 0000 0000 3688 cb3b 8044 33ba f8a3 8abb
00000100: 4ca9 03bc 1fa1 edb9 e09e eab8 dc09 613b
00000110: 0931 0a3b 0400 0000 80ef e339 b636 89bb
00000120: 86ce eaba 4ea0 93b9 0081 9a3b 0400 0000
00000130: 79f2 65bb 5ef0 92bb 52b3 2cb9 728f 85bb
00000140: 2720 b8bb 28bb 813b aef7 85bb 0000 0000
00000150: 821f 74bb 0400 0000 f56d 313a c45f a1ba
00000160: 2e52 5dbb 76ae 06ba 9c2f 08bb e1c9 d33b
00000170: 082e 9c3a 203f b6bb fdd5 02bc 654f 02ba
00000180: 9297 4b3b 7990 013a 17ed b93b 0676 55bb
00000190: 8b23 5ebb b44d 8f3b 9a1d 6ebb 8839 69b9
000001a0: fa78 2e3b 5b30 7c3a 1f7a 0e3b be69 9cba
000001b0: e762 9cba fc8b d1b9 2f89 cfba 23b6 5ebb
000001c0: f9d0 53bb 7b52 02bc 1605 0bbc 05a9 e53b
000001d0: 0fbe 08bc 15a1 f7bb 305b 043c 8d75 873a
000001e0: 4216 23bb 825c 623b 1a91 85bb 765b bcbb
000001f0: d2ff babb 41f8 b1bb 5e49 853a e071 3cba
