models/RaceModels/reg_pos_3copies_1to10_1HL_customweightrankingloss/model.pt (torch, 500079 bytes, 18 tensors)

fc1.weight f4 [128, 240]
00000000: e711 f63d b7ec ac3b 4307 383c 5275 3f3e
00000010: 4606 1abc 067e debd 5a2b 00be 1bad d63d
00000020: d829 fc3d ff8a 523d cce4 9f3a 7c63 2b3e
00000030: 108e 9fbc ee47 91bc 11df cb3c 3ecf 713d
00000040: fecb 8dbd 9793 62be d80a 4f3d 432d e0bd
00000050: 6a4b 79bd 127b f0bd 1d0b f5bd 77e2 833d
00000060: 8e9a dd3d d9b4 0a3d d5e2 cc3a 762e bb3d
00000070: f836 46bc e93c 19be bbb6 2bbe 8477 473d
00000080: 7f46 833d 42ac ae3d 1fb4 c73d 46dd 253e
00000090: 427d 53bd 0373 e43d 6f12 1e3e 53ab 863d
000000a0: 0d6a 78bd 8292 62be 86f9 c63d a4f4 99bd
000000b0: 58c4 4d3d 4075 90bc 3606 c0bd 521e cdbc
000000c0: 5931 b8ba 2caa 85bd 42ef ccbd bce9 f53d
000000d0: 409b ffbc 5f3b c7bd 3848 e4bd 5c47 e23d
000000e0: ff5e 6a3d e6b4 003e 9dbf 113e 9fda 143e
000000f0: 7292 d3bd ca86 913d 2440 f63d 5c4d 423c
00000100: 909a 2b3d 5be5 10be 0467 db3d 9bc2 d6bd
00000110: 2737 19be ecd6 293d 0901 dbbd 71fb fdb9
00000120: a31c ca3d 392a 4f3d 69a5 80bd 4d36 e03d
00000130: ba94 7cbd 9c53 e4bd bdb7 64be b00d e03d
00000140: 607d 0e3e 4037 733d 37cd ce3b d4ce ed3d
00000150: 9223 a6bd 7964 0e3e 5b9a 333e a590 873d
00000160: 32fc a23d 4a18 7bbe 7ce0 593d 4b94 13be
00000170: dd1c d5bd bf90 03bd 6e21 16bd 8a59 f7bd
00000180: 5467 ae3d 4264 d33c 7c60 40bc b3d8 073e
00000190: 3cc6 093d 20ac 66bd 80a5 50be af04 9d3d
000001a0: e786 8e3c e29a af3d 13c4 8dbc d0aa 5d3e
000001b0: c88d eebd afe6 383e ebec 163e 8b14 9f3c
000001c0: e714 983c 7d5b 51be bbaa 6b3d ee67 b7bd
000001d0: 30ed 93bd 3b24 fb3c 1ea1 07bd b508 50be
000001e0: b8d8 633d e78c 2bbc e78b f5bd 1505 cb3d
000001f0: 92f5 ab3d 4a4d 493a 1a39 19be 0157 1a3e
00000200: eeb9 c53c 4a1b 1a3e 3464 39bd dd51 fe3d
00000210: caee 13be 7085 8e3d bc0c 743e 05a4 4b3d
00000220: c9e2 be3c 71d1 7fbe 4745 d23d 34bb e6bd
00000230: c12b 0bbe b755 983d 3399 4cbd 5d82 51be
00000240: ea4e 553d 56e1 113c c09e a4bd 347f b03d
00000250: d81b b83d d8ac febc a362 3dba 3e49 3f3e
00000260: 1409 9d3d 74f8 473e 437b 3d3d 26b3 213e
00000270: 8f1e e7bd bc47 fb3d d740 5e3e d598 a9bb
00000280: a90b a63d 79ef 60be b816 fe3d 6865 21be
00000290: cb83 23be 24ad af3d 1ad2 c0bd 10cf 21be
000002a0: 8f2f 833d 84c0 54bd c7ff d9bd a788 2f3e
000002b0: 209e 393d c994 25bd 669b 9abd bbb7 943e
000002c0: c599 89bc 10cf 383e c724 c83d fd1d 5b3e
000002d0: fba6 82be 6fd0 d83c e805 8a3e a67b 1bbc
000002e0: bea2 5cbd c92e 9dbe bd48 8f3d b75b c0bd
000002f0: 7537 00be 3b87 94bc 8022 edbd 126d 58be
00000300: 9b3d a83d c9a2 bebd c9dc a0bd 191e c23d
00000310: b901 583d 391c e5bd 21bf 37bd 9f8a 8a3e
00000320: 02fa e33c 4ee8 753e 83fc 443d 59ae 373e
00000330: 402f 1abe 28e4 683e aeee 8a3e 09a5 733d
00000340: 6651 22bd 6563 5dbe 2e02 c23d c521 ccbd
00000350: bdc7 84be 0d0b dc3a 995c e9bd d215 62be
00000360: 974d c73d 2ec9 07be cbfd f5bd 60f9 093e
00000370: 827b 533c 7c1a d8bd 36bc c9bc e535 a43e
00000380: 3f92 1f3d e4c5 5a3e 5bb1 583d fe09 553e
00000390: 74d5 d2bd 4649 2a3e f14f 893e ab6f e43d
000003a0: 566b 763b 618a b2be 8dd1 383e 2e6d 20be
000003b0: 1346 59be 8898 1b3e 87f1 89bd 82ea 9cbe
000003c0: 87aa 95bc e96a 203d 14ad 2e3d f136 2dbd
000003d0: f0d4 48bd 4b60 5bbc 8bdb 84bd 25bf e3ba
000003e0: e33f 703b 0ddb febc e711 90bd f2d2 483d
000003f0: ae94 873c 0ae6 aa3c be89 023d 9385 34bd
0.12015133 0.005277242 0.0112322 0.18697098 -0.00940091 -0.10863881 -0.12516537 0.10482236
0.123126686 0.05140209 0.0012198924 0.16737169 -0.01947692 -0.017734494 0.02488664 0.059035532
-0.06923674 -0.22126614 0.05054745 -0.10946133 -0.060862936 -0.11742224 -0.1196501 0.06439679
0.108204946 0.033863876 0.0015631566 0.09139721 -0.0120980665 -0.14964642 -0.16768925 0.048697963
0.064099304 0.08528949 0.09751152 0.1619769 -0.051633127 0.11154749 0.1543672 0.06575646
-0.060648013 -0.22126201 0.097155616 -0.075173646 0.050236076 -0.017634034 -0.09376185 -0.025038872
-0.0014052793 -0.06526598 -0.10006572 0.12007472 -0.031201959 -0.09728121 -0.11146587 0.11048767
0.0572195 0.12569007 0.14233251 0.14536522 -0.103306666 0.07105787 0.120239526 0.011859264
0.04189545 -0.14149992 0.10713008 -0.10486337 -0.14962445 0.04146473 -0.10693557 -0.0004844326
0.09868743 0.050577376 -0.062815495 0.10947857 -0.061665274 -0.1114876 -0.22335716 0.10940111
0.13915014 0.059378862 0.0063110846 0.11611715 -0.08112253 0.13905515 0.1753935 0.06619386
0.07958259 -0.24520984 0.0531926 -0.14412038 -0.10405896 -0.032120463 -0.036652975 -0.12077625
0.08515802 0.025804643 -0.011741754 0.13266258 0.033636317 -0.056316495 -0.20375633 0.07666909
0.01739831 0.085744634 -0.01730541 0.21647191 -0.116481364 0.18056749 0.14738815 0.019418975
0.018564655 -0.20445056 0.05753587 -0.0895537 -0.07222974 0.030656924 -0.033112638 -0.20315821
0.0556266 -0.010470605 -0.11989575 0.09913079 0.08396448 0.00076790585 -0.14963189 0.15072252
0.02413651 0.15049472 -0.045261577 0.12417958 -0.1444656 0.06959045 0.23832983 0.049716968
0.023301499 -0.2498224 0.1026712 -0.11266175 -0.1359091 0.07438224 -0.04995079 -0.20459886
0.05207721 0.008903822 -0.08038092 0.08618012 0.08989686 -0.031088278 -0.0007224476 0.18680283
0.07667747 0.19528371 0.04626013 0.15790996 -0.112851255 0.122695416 0.21704422 -0.0051756897
0.08107693 -0.21966352 0.12406677 -0.1576134 -0.15968244 0.08577946 -0.09415074 -0.15801644
0.064055555 -0.05194141 -0.10644489 0.17141972 0.045316815 -0.040425096 -0.07549171 0.29046425
-0.016796956 0.18047738 0.0977264 0.21398158 -0.2551802 0.026466576 0.2695763 -0.009489929
-0.05386614 -0.30699757 0.069962956 -0.09392493 -0.12521155 -0.01813089 -0.11578846 -0.21135357
0.08214875 -0.093083926 -0.078546114 0.09478397 0.052736018 -0.11187024 -0.04486001 0.27058885
0.027829174 0.24014398 0.048092376 0.17937602 -0.15057087 0.22743285 0.27135223 0.05948356
-0.03962841 -0.21619947 0.09473072 -0.099673785 -0.25933638 0.0016787961 -0.11394615 -0.22078636
0.09731596 -0.13260338 -0.12011298 0.13474035 0.0129078645 -0.105519265 -0.024625879 0.32072368
0.03895783 0.21364552 0.052903514 0.20804593 -0.10294619 0.16629514 0.26818803 0.111541115
0.0037600598 -0.348712 0.18048687 -0.15666649 -0.21218137 0.15194905 -0.06735521 -0.30647665
-0.01826979 0.039164457 0.04264553 -0.042288724 -0.049031198 -0.013389657 -0.06487187 -0.0017375691
0.0036659173 -0.03111031 -0.070346646 0.049029298 0.016550388 0.020861644 0.031869642 -0.0440727

fc1.bias f4 [128]
00000000: 5abc 7a3d 25e3 4cbd 44f8 c0bb 0811 5dbd
00000010: ec00 9cbc bff8 6fbd cc29 ea3c 43cd 9fbc
00000020: 5e6f d73c 3f91 c6bc cea7 01bd dad9 95bc
00000030: a797 e73c 38a6 71bd c7c2 e93b f66f 1ebd
00000040: 411b 5dbd d60b 443c 1c7b 0fbc b063 08bd
00000050: d0fa f33c bb13 b93d 987a b5bc 2bfa 823c
00000060: 31d0 183e 9911 1dbc 4fd8 2abd d8b1 0d3d
00000070: c714 0d3d ad9e 5e3d 411a fb3c 34ad 76bb
00000080: a300 39bd 9412 563b c46f 833c da74 36bd
00000090: 8f15 a7bc 1ade 41bd b9c4 553d 3c2b 46bc
000000a0: 4a0c 87bd f779 86bd d930 80bd b162 82bd
000000b0: 3e22 2abd 7149 4cbd 98c2 c6bb 2e5c c23d
000000c0: 235a 43bd 02c6 853d 844d be3b 9f67 16bc
000000d0: 411c 023e ebc8 27bd f138 91bd 3048 f43d
000000e0: cf85 d23b 71a2 8cbd 4a11 30bc 2289 113d
000000f0: 93df 91bc 5010 0fbc 7ff9 553d 470d 0bbd
00000100: 66f0 10bd f794 333b 5d8e d53b a43d 5cbc
00000110: 38da 443d 33cd 893d 3433 783d 7c41 8bbd
00000120: 2244 33bc 531f 49bd 8bb8 8c3d b564 6d3d
00000130: e2d8 d53c e544 4d3b 3572 c03c 6248 073d
00000140: 9f45 353d 703f 2cbd 83be a53c 6d20 54bc
00000150: 4b82 bcbc 7f43 8cbd 2d54 10bd 63ee 3bbc
00000160: c135 f83c 9b56 02bc e503 83bc 51fa 56bd
00000170: b6cb 5a3c fb1b 1dbd bc5f e93c 21ef 7fbd
00000180: eb4e 26bb 6fb6 d4bc e6e4 17bd 9be6 91bb
00000190: ba89 08bd c782 2dbd 316b 40bc 94dd 0dbd
000001a0: e899 253d 4a31 41bd ff26 733d 6a85 15bc
000001b0: 0a8a 8cbb 0d99 c03c 8438 4cbd 80dd c7ba
000001c0: 7056 a83c d527 e33c a356 d139 ac84 41bc
000001d0: a63b 89bc 1097 9b3d 5ec8 383d 5ce0 94bd
000001e0: aff7 40bd 4a21 44bc a024 373b b22b 783a
000001f0: dc13 e03c f7c8 dc3c 6ea6 86bd 2737 07bd
0.061214782 -0.05002131 -0.0058889706 -0.05397132 -0.019043408 -0.058586832 0.028584383 -0.019507056
0.026298221 -0.02423918 -0.03165417 -0.018292356 0.028270556 -0.05899641 0.007133815 -0.038680993
-0.05398107 0.0119657125 -0.008757379 -0.033298194 0.029782683 0.090369664 -0.022153184 0.01598843
0.14923169 -0.009586715 -0.041710194 0.034593433 0.034443643 0.054350544 0.030652167 -0.0037639858
-0.045166623 0.0032664882 0.016044505 -0.044545032 -0.020396022 -0.047330953 0.052189562 -0.012095269
-0.06594141 -0.06566232 -0.06259317 -0.0636648 -0.041536562 -0.049874727 -0.006065678 0.09490238
-0.047693383 0.065319076 0.0058075804 -0.009179979 0.1270609 -0.040963095 -0.07090939 0.11927831
0.0064246426 -0.06866921 -0.0107463095 0.03553117 -0.017806804 -0.008731917 0.05223989 -0.03394821
-0.03538551 0.0027402022 0.006517215 -0.013442431 0.048059672 0.06728592 0.060595706 -0.067995995
-0.010941537 -0.04910214 0.06871136 0.05795737 0.026104394 0.0031321582 0.023491958 0.033028014
0.04425585 -0.042052686 0.020232445 -0.012947184 -0.023011347 -0.06848811 -0.035236526 -0.01147041
0.03029907 -0.007955219 -0.015993068 -0.052484814 0.013354233 -0.038356762 0.028488033 -0.06248391
-0.0025376629 -0.025965897 -0.03708353 -0.004452539 -0.03333447 -0.042361047 -0.011744306 -0.03463514
0.04042998 -0.047166146 0.05936336 -0.009126047 -0.0042889165 0.02351048 -0.049858585 -0.0015248507
0.02054903 0.027728954 0.00039928136 -0.011811417 -0.016752075 0.07597172 0.04511296 -0.07269356
-0.04711121 -0.011970827 0.0027945414 0.00094669603 0.02735322 0.026951296 -0.06574713 -0.03301158

fc2.weight f4 [64, 128]
00000000: 5c7b bdba b699 a1bd 7e25 d8bc 2dd3 0dbd
00000010: 9ddb 80bd 6a51 243d 561c adbd 8bd7 3ebd
00000020: 1fa6 713c 1e27 743d 4bca 9a3d e8ba 62bd
00000030: e8f5 e13c 6437 8fbc 2bec 173b c257 35bd
00000040: f011 803c 2ceb b23c d0ca ce3c d988 9d3c
00000050: 5521 e4bc 0bb7 64bd 7c47 12bc 2287 7fbd
00000060: 2e43 1b3b a9d1 d83c 0535 a63d c1d1 3cbd
00000070: 261e 98bd bc9a 31bd 5d40 67bd 58af 103d
00000080: 8ca7 c8bc 2ce5 a9bc 2027 8c3b 4dad cfbd
00000090: b4da 98bc f7ed af3d c0e3 0cbd e9f8 9ebd
000000a0: 5bad 15bd 895b 55bd b902 e9bd b635 fdbb
000000b0: d972 98bd 6d04 a3bd f65b 1f3d 69f7 663c
000000c0: 846f c03c 65d3 75bd c231 01bd defa b4bc
000000d0: 3c2d 4abd d87b 7cbc 327c 413c f439 3d3d
000000e0: 3cfe 17bd 2514 cebc bf24 87bd 5cf7 a03c
000000f0: 048e 89bd 6aab d73c ae4b 4cbd 2f0b 0c3d
00000100: 602c 7abb ca29 30bd 0bd2 df3c 343e cbbd
00000110: 0f15 00bd 4b65 dbbd dd56 543d 0a1e 013d
00000120: a041 b9bc 3319 d3bd 247a c4bd 5c26 dbbc
00000130: a268 5abd d4ff cd3c 49ed 51bd e058 8ebc
00000140: 9bc1 9a3d 0044 e4bd e57b 4dbd 6c6b 6ebd
00000150: 4a79 94bd 00de 2fb9 f0ab 343c e824 553d
00000160: cfbc 883d f027 9fbb 2b63 d0bd 7296 c33c
00000170: 8ba2 01bd f717 aa3d 70ba fcbc 019f af3d
00000180: 45d8 64bd 1564 ad3d fa49 a3bd c821 e8bc
00000190: 3ce1 fdbc e971 123d 078f db3c 4cf0 d5bd
000001a0: aaf5 683d 74e8 833d 4872 d13c dcf8 a33c
000001b0: 3762 433b b684 2d3d 6017 d43c c428 80bd
000001c0: f342 593d af06 d3bd 8519 31bd c073 e13b
000001d0: de40 7a3d a2fe 1cba 56a1 34bd e46c d5bd
000001e0: 9f3e cbbd b959 a33d 0649 3e3d c81a 173d
000001f0: a401 97bc abac 97bd 66ff 0fbd cf6c a53d
00000200: 3c35 8a3d 28a2 7bbd b715 36be 0eb4 8abd
00000210: e092 bc3c ccf2 893c fda0 383d c8ef 57bd
00000220: d331 adbd 9e4d ce3d 9727 7b3d f4f1 863d
00000230: e67d 473c 3cdb fabc 4b51 2a3e 3340 043e
00000240: fd28 113d 98c4 ae3d 1a19 88bd 3042 52be
00000250: a820 5d3d 0ee2 a73d af6d bdbc 124b 283e
00000260: db79 5f3d 9bb6 89be f494 90bd fb4e 933d
00000270: ef38 cabd c98b 41bc 70d5 e3bd ef8e 48bd
00000280: 9011 0ebd ac84 163d 3946 153c 47d5 45bd
00000290: 3d18 a23d 8482 683d aa68 b4bb 4248 183c
000002a0: edac 783d d6f6 38bc d3a9 983e f74d 113d
000002b0: e23f 663e 85d8 af3d 9ece 3a3d e67f a73d
000002c0: 7fe4 d03d a0ce 92be 2d06 a1bc 6f8b 74bc
000002d0: 996b 93bd a092 38bd 6e70 673d 2e43 95bd
000002e0: e795 7cbd b6f0 da3a e850 8ebd 8d4d b43d
000002f0: 5437 22be a8a5 8a3d baf8 2ebd 0d31 923e
00000300: 9de8 763c 2940 0b3d 7961 6ebe 9f53 d7bc
00000310: 2af4 4dbd d941 353e 2381 c83b ef41 193d
00000320: 5b5a dabc 0a75 103d 3f87 37be 0375 af3e
00000330: 9596 8dbd 4024 283d 346c 68bc ead5 e1bd
00000340: 8523 6fbd ee06 50bc a09c 18be cf5b cfbc
00000350: a766 e73c d339 1d3c a0a6 363d d51a 1e3e
00000360: 40f6 d43c fed1 22bc 2ff3 87bc 255c 2dbe
00000370: 28b0 a9bd dd4e 7c3d 971f 8a3d d83a 043d
00000380: 6b38 c2bd f15f 4c3c 2d85 b63c 37d7 5f3d
00000390: 1ba9 aabb 0937 8a3e f751 8cbd 5a8b 333e
000003a0: 3ac6 da3c 2c24 fd3d 3bab 4fbe 4228 11bc
000003b0: c3f6 2fbd e7b9 90bd 974a b5bc 2d27 913d
000003c0: 9eca 15be 8b8f 413e 4158 b13c a707 8ebd
000003d0: e2f0 0b3d fe29 933e 2555 1a3c 8d7f c9bc
000003e0: 522d 143e 7985 7d3d 6139 b4bd e2cc e6bd
000003f0: f59e 1ebd 2b16 a5bd 8aff 633d b408 59bd
-0.001445632 -0.07890646 -0.026385065 -0.03462522 -0.06291888 0.040116705 -0.0845267 -0.046592277
0.014749079 0.059607618 0.075581156 -0.05535403 0.027583078 -0.017482467 0.0023181539 -0.044273145
0.015633553 0.021840654 0.025243193 0.019230293 -0.027847925 -0.055838626 -0.008928176 -0.062384732
0.0023691165 0.026467161 0.081155814 -0.046098474 -0.07427625 -0.043360457 -0.056457866 0.03532347
-0.024493955 -0.02073916 0.004277125 -0.101404764 -0.018658973 0.0859031 -0.034396887 -0.077623196
-0.036542278 -0.052089248 -0.113774724 -0.00772735 -0.074437805 -0.079598285 0.03890606 0.014097073
0.023490675 -0.060016055 -0.031541593 -0.022092279 -0.049359545 -0.015410386 0.011809396 0.046197847
-0.03710769 -0.02515609 -0.06598806 0.0196492 -0.067165405 0.026326854 -0.04987686 0.034190353
-0.0038173422 -0.043008603 0.027321836 -0.09923974 -0.031270083 -0.107126795 0.05184065 0.031522788
-0.0226143 -0.10307541 -0.09593609 -0.02675169 -0.053322442 0.025146402 -0.051251683 -0.017376363
0.075564586 -0.111457825 -0.050166983 -0.058207914 -0.072496966 -0.00016772002 0.011027321 0.05203715
0.066766374 -0.004857056 -0.10175165 0.023875449 -0.031649154 0.08305352 -0.03085062 0.085752495
-0.055870313 0.08466355 -0.07973094 -0.02833642 -0.03099119 0.035753164 0.0268016 -0.104462236
0.05687491 0.06440821 0.025567189 0.020016126 0.002981318 0.04236289 0.025890052 -0.062577754
0.053042363 -0.10304009 -0.043237228 0.0068802536 0.06109702 -0.0005988871 -0.044099174 -0.1042116
-0.099240534 0.079760976 0.04645636 0.036890775 -0.0184334 -0.07405981 -0.035155676 0.08077394
0.06748435 -0.06143394 -0.17781721 -0.06772624 0.023019254 0.016839407 0.045075405 -0.052718908
-0.08456769 0.10073398 0.061317053 0.06589118 0.012176013 -0.030622117 0.16632573 0.12915115
0.03543948 0.08533591 -0.06645413 -0.20533061 0.05398622 0.081974134 -0.02312359 0.16434887
0.05455957 -0.2689713 -0.070596606 0.07192799 -0.098741405 -0.011813113 -0.11124694 -0.048964437
-0.034684718 0.03674762 0.009110981 -0.0482991 0.07914779 0.056765094 -0.005505641 0.009294571
0.06071179 -0.011289319 0.29817066 0.035474744 0.22485307 0.0858622 0.0456072 0.081786916
0.10199832 -0.28673267 -0.019656265 -0.014925822 -0.07198257 -0.045061707 0.056503706 -0.07288204
-0.061666396 0.0016703818 -0.069490254 0.08803854 -0.15841419 0.06769878 -0.042717673 0.28553048
0.015070108 0.033996735 -0.2327937 -0.02628499 -0.05028168 0.177009 0.00611891 0.037416395
-0.026654413 0.035267867 -0.17922686 0.3426896 -0.06913487 0.041050196 -0.014185954 -0.11027129
-0.058383483 -0.012696965 -0.14903498 -0.025312332 0.02824719 0.009596306 0.0445925 0.15439923
0.025996327 -0.009937761 -0.016595451 -0.16929682 -0.08285552 0.061598647 0.067443065 0.03228268
-0.09483417 0.012474046 0.0222803 0.054648604 -0.005208147 0.26995113 -0.06851571 0.17533627
0.02670585 0.12360415 -0.20280163 -0.008859696 -0.04295994 -0.07066708 -0.022130294 0.0708755
-0.14628074 0.18902414 0.021648528 -0.06935053 0.03416527 0.28742975 0.009419714 -0.024596954
0.14470413 0.061894868 -0.08800007 -0.11269547 -0.038725812 -0.08060869 0.055663623 -0.052986816

fc2.bias f4 [64]
00000000: 7793 243d a2bc 58bc b2f0 2cbb e890 113c
00000010: bdc8 993d e6d8 0c3d a5f1 9fbd 3afb aa3c
00000020: 7f09 12bd 7d31 723d 37ab ef3a 94c5 b03d
00000030: 15b5 79bb 5de1 413d 3f86 b33b ce93 97bd
00000040: 4793 a3bc ceac a8bd 6078 e93c 53de 8d3c
00000050: 1605 6abc f761 42bd a594 403d 18c4 ae3d
00000060: a678 843d 3d27 99bd ef60 e03b 94c1 e13c
00000070: 7ab3 71bd 3380 4fbd e62a 9f3d 0b55 0bbd
00000080: cfaf c2bd c4fe c4bd b785 6fbd 3863 943c
00000090: 51e7 c03d a882 e8bc fa44 b83d e206 fabc
000000a0: d591 01ba 8211 a03d db24 6bbd ebd6 3e3d
000000b0: 05d4 32bb 6e18 363d efcf dbbd fc13 c7bb
000000c0: a819 0fbd 573e b4bc 8824 a6bd 2ca9 6dbd
000000d0: 2147 813c c59b ef3d 2523 69bc 11dd a83d
000000e0: d890 96bd faa8 ff3d 1ead 743d bb90 2abb
000000f0: 829e 2abd 06cd 6fbd f74f 37bd dc41 a3bb
0.040179696 -0.013228567 -0.0026388583 0.008884646 0.07508991 0.034386538 -0.07809762 0.020871747
-0.035653587 0.059129227 0.0018285279 0.08631435 -0.0038102318 0.047334064 0.00547865 -0.074012384
-0.019967688 -0.08236085 0.028499782 0.017317927 -0.014283439 -0.047456708 0.04701676 0.08533496
0.06468324 -0.07478187 0.006847493 0.027558126 -0.059009053 -0.05065937 0.07771854 -0.03401665
-0.09506189 -0.09618905 -0.05847713 0.018113717 0.0941912 -0.028382614 0.08997531 -0.03052086
-0.000494269 0.07815839 -0.057408195 0.04659168 -0.0027287018 0.04445689 -0.107330196 -0.0060753804
-0.034936577 -0.022002382 -0.081124365 -0.058022663 0.015780987 0.116996326 -0.0142295705 0.0824529
-0.073518455 0.124834016 0.05973541 -0.0026026207 -0.04165507 -0.058545135 -0.044753995 -0.0049822163

fc3.weight f4 [24, 64]
00000000: 47be 463d 684b 203e 623f 343c dc3f 7cba
00000010: 43cc d93d 9f53 653d 9fce c1bd 6c42 aa3d
00000020: d00c 723c a5df 19be 7aef 57bd 3e5f 8dbd
00000030: cc31 223e a9e9 fd3d c03d 74bd 638e cbbd
00000040: 6789 963d 7e9b a1bd 2e26 61bd 5d04 16bd
00000050: 78b0 163d d338 433d 4b5f c0bd 3822 11be
00000060: 8fab 5a3e a18b 4c3e 9d78 06be 74b6 8c3d
00000070: f644 9d3c b8b8 ed3d fddd 30be 19fa 4e3e
00000080: 4d39 babd 78f4 bc3d 9a52 8d3d e466 8cbc
00000090: fa18 0cbe 1a9d e53b a103 74be 29eb 31bc
000000a0: 5bae f33d 4ba0 773e d499 003e 322a e3bc
000000b0: c764 d23d 2130 96bd c7f8 b7bd 85aa fa3d
000000c0: 1ebe 5f3c 0457 2f3d 25f8 abbd 6315 bdbd
000000d0: a49e 8abd a389 f4bc 02ca 56be ad7f 80bb
000000e0: 0007 ecbd acc1 783e ca1a eabd 3ee3 31be
000000f0: e122 ddba c9b2 23bd 3284 e8bb ac5d b4bd
00000100: 0d76 aebc b715 b43b 81b4 48bd 1fae edbd
00000110: 9071 ab3d 1047 0f3c 46b9 d2bd 27e9 34bd
00000120: f190 b03c 0e0b 943d 9b8d 2c3d 3c04 3b3e
00000130: 26bd 9b3d 493e 7b3d 55ae 1c3e 8c7d 27bd
00000140: 4236 91bd bf5f 073c ff6c d1bd d42b f6bc
00000150: 5fab cd3d 0b9f 953c 82e2 8ebd 4363 e2bd
00000160: e468 21bd f57b d63b 28c9 e6bd 5b42 163e
00000170: ec70 6ebd 5eed e9bd 260d 073e 9548 c63c
00000180: e808 b93c b787 b03d 9286 df3d e113 ab3d
00000190: 314b 463e 5ed6 b0bb df4b eebc d258 5fbd
000001a0: 8a51 80bd e2e2 0abe d48d 94bd 21e8 6f3d
000001b0: 0ce1 1f3e c516 fbbd 132d 943d 4155 53be
000001c0: 8d0c 5cbe 1cd3 c1bd 68e4 b4bd 638c 773d
000001d0: b161 b5bd c782 ed3d 98e7 903e f916 0c3e
000001e0: 04e8 be3d 900a 10be 2fea 8bbe 6cdf a7be
000001f0: 9d5e ca3c 712d b73c 17c2 973d 270e 4dbd
00000200: 5a05 cebc 873a 893c c7a7 823e f255 d43d
00000210: 6d6f 6cbd 828c f1bd eda3 d63d 3d84 703d
00000220: 820d a43d ead9 b8bd 0dc2 ad3d 27e8 f1bc
00000230: f02b c43e aba9 1d3d 2aed 8bbe 5d49 1bbc
00000240: b388 f83d acca 9e3d 4ff0 c43d 98a5 263e
00000250: bf7e dbbd 3d39 1b3c ee16 79bc 9e85 893d
00000260: 4430 ffbd c8d8 2a3c 8a4b 463e c04c 4dbe
00000270: 10c4 54bd 5d46 0b3e 701c 8e3d 3df9 59be
00000280: 4f3a 8b3d fe23 d7bd aab6 b5bd aa1e ef3d
00000290: bcaa 0f3e 7cc2 003e a823 adbd fc8c 2dbe
000002a0: f660 213e 28eb 503d 6b40 52bd 7800 ecba
000002b0: 340f 433e d1b5 07bc 749b 973d 55e5 6b3d
000002c0: 8065 6bbe 9e27 0dbe 1a51 ac3d 5573 1b3d
000002d0: b5d2 2a3d 805f b73c ab8f 6bbe a2d2 863d
000002e0: e397 b63d 32c9 3cbc 17e3 8e3d 3b19 9abe
000002f0: f800 a7bd 2102 ad3d eec2 d23c 7560 ecbd
00000300: 546a 023d ae95 643d d65c 4fbe efbf b7bd
00000310: f299 b23d 7f45 fa3d a8f2 4f3c 6b06 20bd
00000320: 4375 9b3d bcd0 3c3e 186f ef3c 1b43 1fbe
00000330: b2d3 01be 57b7 353c a759 4e3e 1eda 86be
00000340: 0728 c03d ddc8 2cbd f005 a9bd 9810 bd3c
00000350: 6291 aeba 0bdf 543d 2389 653b 137d 45bd
00000360: 8efb 05bd 1ae0 8b3d dc4c cbbd 1877 89bd
00000370: 79da 4b3d ffb6 a53d c455 5f3d 3c2f 20bd
00000380: 1f59 8dbe 7879 45bd ea0c d53d 1f11 73bc
00000390: 2eb9 b03d ca4a 20bd d105 343e f84e debd
000003a0: f8ed f7bb 682a 333d 60d9 d13d e3d6 b3bd
000003b0: 8bb7 3b3e d0a0 0dbe 65a2 263d 32b3 143e
000003c0: 1247 963d 6dcb 3ebe 0bc0 22bc 8971 f4bc
000003d0: e645 2a3b b8c5 9bbe 8680 00be 8cf5 3e3e
000003e0: 543a b73c de4f a63d a63b 7c3d 04c5 55bd
000003f0: 36d8 b83d bf91 01be d6dd 8d3d 01a6 86bd
0.048521306 0.15653765 0.01100144 -0.0009622553 0.10634663 0.05598795 -0.09463238 0.0831345
0.014773563 -0.1502672 -0.052718617 -0.06902932 0.15839309 0.12398083 -0.059629202 -0.099392675
0.07350426 -0.07890986 -0.05496805 -0.036625255 0.036789387 0.047661614 -0.09393176 -0.1417321
0.21354507 0.19975139 -0.13131948 0.06870738 0.019197922 0.11607498 -0.17272182 0.20212592
-0.090929605 0.09226316 0.069005206 -0.017138906 -0.13681403 0.0070072534 -0.2382951 -0.010859289
0.1189849 0.2418224 0.12558681 -0.027730081 0.10273128 -0.073333986 -0.089829974 0.12239555
0.013656167 0.042807594 -0.08396939 -0.09232595 -0.067685395 -0.029850787 -0.20975497 -0.00392147
-0.11524773 0.2429263 -0.11430891 -0.17371842 -0.0016871357 -0.039965425 -0.007095837 -0.08806929
-0.021296525 0.0054957527 -0.049000267 -0.116054766 0.0837127 0.00874497 -0.10289244 -0.044167664
0.021553488 0.07228671 0.042127233 0.18263334 0.076044366 0.061338697 0.15300877 -0.040891215
-0.07090427 0.008262574 -0.102258675 -0.030050196 0.10042452 0.018264314 -0.06976797 -0.11054089
-0.039406672 0.0065455385 -0.11268836 0.1467375 -0.05821316 -0.11422227 0.1318861 0.024204532
0.022587255 0.086196356 0.10914339 0.08353401 0.19364621 -0.0053966483 -0.029088913 -0.054528065
-0.06265552 -0.13563111 -0.07253614 0.058570985 0.15613192 -0.12260202 0.0723516 -0.2063799
-0.21489163 -0.09464094 -0.088326275 0.060436618 -0.08856524 0.115972094 0.28301692 0.13680638
0.09321597 -0.1406653 -0.27327105 -0.32787645 0.024703318 0.022360535 0.074100666 -0.050062325
-0.025149036 0.01675154 0.2551863 0.10367955 -0.05772345 -0.11794378 0.10480485 0.058719862
0.08010389 -0.09025939 0.08484278 -0.029529644 0.38314772 0.038491886 -0.2732938 -0.00947794
0.12135448 0.077535 0.09616148 0.16274107 -0.10717534 0.009474096 -0.015203221 0.067149386
-0.12460378 0.010427661 0.19364753 -0.20048809 -0.051944792 0.1360106 0.06939018 -0.21286483
0.06798231 -0.10504912 -0.08872731 0.116757706 0.14029974 0.1257419 -0.084540665 -0.16948313
0.15759644 0.051005512 -0.051330965 -0.0018005511 0.19048768 -0.0082830945 0.07402697 0.057591755
-0.22987938 -0.13784644 0.084139064 0.037951786 0.041704852 0.022384405 -0.23004024 0.06583144
0.08915689 -0.011522578 0.06976908 -0.30097374 -0.08154482 0.08447672 0.025727715 -0.11541835
0.031839684 0.05580681 -0.20250258 -0.08972155 0.08720769 0.122202866 0.012692131 -0.03906862
0.07590725 0.18439001 0.029227778 -0.15552942 -0.12678412 0.011091075 0.20151387 -0.26338285
0.093826346 -0.042183746 -0.082530856 0.023079202 -0.0013318474 0.051970523 0.0035024367 -0.048214983
-0.032710604 0.06829853 -0.09926769 -0.067121685 0.0497689 0.08091544 0.05452515 -0.039107546
-0.27607056 -0.048211545 0.10402854 -0.014835625 0.0862907 -0.039133824 0.17580344 -0.10854906
-0.00756621 0.043741614 0.10246539 -0.08781221 0.18331735 -0.13830876 0.040682215 0.14521483
0.07337774 -0.18632288 -0.009933482 -0.029839294 0.0025981604 -0.30424285 -0.12549028 0.18648356
0.02236668 0.08120702 0.061580323 -0.052189842 0.09025614 -0.12653254 0.069270775 -0.065746315

fc3.bias f4 [24]
00000000: bbf1 05be 141d fb3d bc9f 4abd 1d5c 83bd
00000010: 2138 56bd eb66 87ba a76a 35bd 4802 d83d
00000020: 8ad1 7fbd 2ec7 a6bd a336 c53d 7b16 573d
00000030: 9dc6 ba3d f7b4 e3bd 1245 f93d bc44 15bd
00000040: aab0 32bc f3de bb3c e01b 9dbd 1af1 dc3c
00000050: 8b6c 3d3c 460c ff3d 3b04 c0ba 4e4d d93a
-0.13080494 0.122614056 -0.04946874 -0.064140536 -0.052299622 -0.0010330355 -0.044291165 0.1054731
-0.06245569 -0.08143459 0.09629562 0.052511673 0.09119914 -0.11118501 0.12171377 -0.036442503
-0.010906378 0.022933459 -0.07671332 0.026970435 0.011561523 0.12453513 -0.0014649698 0.0016578825

exp_avg f4 [128, 240]
00000000: 71db dd3a e3e1 703a 1638 a33a c50d 853a
00000010: a43e d13a dbee b53a c82d 663a 8c1c 613a
00000020: 86b9 9f3a b39d 8d3a 5cd1 293a 687c a43a
00000030: aee1 c83a 89c6 203a c5c6 b23a 94f9 8a3a
00000040: ef4a ad3a e667 a63a 7dec 053b b45f c33a
00000050: 226d 333a e818 583a 1fb8 553a 9a63 0b3a
00000060: 6816 dd3a d814 7c3a 5e1a a93a ca9d 843a
00000070: a499 d23a ce7e c33a 798a 743a a0ff 843a
00000080: 7a60 ab3a 450e 8b3a 3124 1d3a d0b2 9e3a
00000090: 783c c73a ac8c 143a 1a8f a83a 85da 7f3a
000000a0: c0e1 9d3a 4452 ac3a 0c63 083b bee6 bc3a
000000b0: 3d5b 1b3a 9268 433a 1cba 593a f0f7 153a
000000c0: e857 e93a f815 913a 105b 9a3a d7b1 793a
000000d0: 22f1 cc3a 0a0f b33a bc1f 683a bb40 833a
000000e0: 413a af3a 054f 923a 551e 0e3a 559d b63a
000000f0: 8ebe c63a f91a 223a 049f b03a 12eb 6f3a
00000100: 6411 9a3a a0b9 b13a 6621 073b 7b4f b63a
00000110: 62c1 663a f18a 3f3a 8faf 553a 7a3a 1d3a
00000120: e709 eb3a e06f 963a 4ed1 9f3a 57ba 873a
00000130: 6cc2 c23a 86dd ad3a aef6 663a 2cee 773a
00000140: 3067 b03a e53b 943a 9fa6 153a 3a80 b73a
00000150: 1449 d03a c4f7 1e3a fb01 a83a ac01 7b3a
00000160: a152 913a 6a44 b03a 209b 043b 4bbb bb3a
00000170: a9ce 643a 3000 423a 2ac9 583a a941 253a
00000180: 7ed9 ea3a 707f 9a3a 9a7b a73a 31df 833a
00000190: 2f50 b83a 44eb aa3a cae3 603a fe66 683a
000001a0: d9e5 b43a 0e65 933a 850f 203a e934 af3a
000001b0: 08a9 cc3a 4364 2b3a 0609 a53a ddbd 783a
000001c0: dc8f a03a fbc8 a83a aebe 043b 0015 b83a
000001d0: 399d 593a 3cbe 403a f882 643a 2036 343a
000001e0: e2f9 f03a 6165 963a a5d3 ad3a 2a95 813a
000001f0: 304f b73a a64c a83a a465 5e3a e662 653a
00000200: b103 b73a a09a 8d3a 35a8 233a e8bf ae3a
00000210: ceb6 c83a a701 333a 5844 a03a a369 763a
00000220: 1a07 963a 0bd6 a73a 815c 053b 76d5 c23a
00000230: f34a 573a f6b1 453a d046 613a 3ff9 3f3a
00000240: 5f74 f03a cf5d 943a f73f ac3a 401e 853a
00000250: 3c36 b63a 6a19 a73a eaac 583a be5c 653a
00000260: 966a b63a e7c5 833a c0d5 243a 4b98 b03a
00000270: 34d6 ca3a f7c9 4c3a 0efc a03a 6511 7c3a
00000280: 45be 9b3a 2521 a73a 5763 043b e154 c63a
00000290: fb1d 503a afc2 4c3a e21c 573a e090 2b3a
000002a0: e91d f03a 1ed9 9a3a c8ce 9b3a 2508 8e3a
000002b0: 66f8 b13a 0af7 b03a 3ff3 5b3a 9a38 5e3a
000002c0: 2486 b73a 3973 783a ca2e 183a 81c2 a93a
000002d0: 582c d43a 1a3f 463a f769 983a 6dfd 823a
000002e0: 06b4 a03a 187e ba3a de77 043b f877 bf3a
000002f0: 28ef 533a 00e1 4c3a 4e18 4a3a 0648 353a
00000300: 5a2a eb3a d302 a03a 6f8c 953a 330a 8b3a
00000310: 0466 ae3a ec29 b73a 7e69 8a3a 7a08 5f3a
00000320: cb07 c13a f0d3 813a 083c 153a 6355 a83a
00000330: fc93 d33a 5441 ff39 5004 903a cd94 7e3a
00000340: 5b56 9d3a 54ba b53a 581e 033b 3d6c bf3a
00000350: 0a4d 6d3a 9abf 523a dfd0 443a 6421 3d3a
00000360: e9ac de3a 6ce8 a73a 86a8 923a d9d9 983a
00000370: 18a3 b33a 0083 be3a 85ec 713a eee3 5d3a
00000380: 38f2 ba3a e61c 8b3a aad6 133a 905b a33a
00000390: 1c65 ca3a 139b 133a ca9e 933a 9d29 763a
000003a0: 43c7 8f3a 84d5 bb3a 7ea3 fe3a 418f c43a
000003b0: 6afe 683a be71 363a 1312 403a 9818 5f3a
000003c0: 0400 0000 0400 0080 0400 0000 0400 0000
000003d0: 0400 0000 0400 0000 0400 0000 0400 0000
000003e0: 0400 0080 0400 0000 0400 0000 0400 0080
000003f0: 0400 0000 0400 0000 0400 0000 0400 0080
0.001692636 0.0009188933 0.0012452628 0.0010151198 0.0015964103 0.0013880389 0.00087806256 0.00085873227
0.0012186028 0.0010804444 0.00064780354 0.0012549283 0.0015326047 0.00061330997 0.001363956 0.0010602945
0.0013221184 0.0012695759 0.0020435147 0.0014905841 0.000684457 0.00082434574 0.00081527414 0.0005317271
0.001686764 0.0009616143 0.0012901535 0.0010117826 0.0016067517 0.001491511 0.00093284954 0.0010146983
0.0013075017 0.0010609111 0.00059944676 0.0012107734 0.0015200516 0.00056667137 0.001286003 0.000976004
0.0012045428 0.0013147076 0.002081099 0.0014412028 0.00059263763 0.0007454242 0.00083056255 0.00057208445
0.0017802687 0.0011069169 0.0011776406 0.00095250964 0.0015635828 0.0013661098 0.00088548264 0.0010013798
0.0013368801 0.0011162466 0.000542139 0.0013932387 0.0015162991 0.0006183829 0.0013475125 0.00091521547
0.001175445 0.0013559349 0.0020619272 0.0013909185 0.000880262 0.00073067757 0.00081514654 0.00059977884
0.0017932028 0.0011477433 0.0012193115 0.0010355216 0.0014858968 0.0013264872 0.0008810562 0.00094577926
0.0013458487 0.0011309354 0.00057087274 0.0014000006 0.001589092 0.00060641416 0.0012817973 0.0009575139
0.0011087247 0.0013448123 0.0020234063 0.0014322785 0.00087283045 0.00074005406 0.0008269722 0.00063040346
0.0017917601 0.0011787247 0.0012777925 0.0010061023 0.0014061983 0.0013040085 0.0008578865 0.00088654447
0.001380141 0.0011245327 0.0006105828 0.0013367209 0.001561434 0.00065380725 0.001259119 0.0009488741
0.0012249905 0.001287728 0.0020255256 0.0014044344 0.0008301321 0.0007352566 0.00087170256 0.00068745203
0.0018385018 0.0011474305 0.0013261928 0.0009886373 0.0013985392 0.0012840226 0.00084837736 0.0008750394
0.0013962892 0.0010803528 0.00062430213 0.0013332339 0.0015313269 0.00068285543 0.0012227399 0.00093998964
0.0011446208 0.0012804879 0.0020349326 0.0014864642 0.00082127674 0.0007541472 0.0008593621 0.00073232123
0.0018345228 0.0011319461 0.0013141622 0.001015611 0.0013901661 0.0012748663 0.00082655123 0.00087494764
0.0013917263 0.0010053486 0.0006287955 0.0013473121 0.0015475214 0.00078120775 0.0012282149 0.0009615629
0.0011882266 0.0012750967 0.0020200813 0.0015131497 0.0007939038 0.00078109925 0.0008205903 0.00065447204
0.0018319461 0.0011813974 0.0011887187 0.0010836167 0.0013578057 0.0013501358 0.00083904335 0.0008477062
0.0014001769 0.0009477619 0.0005805312 0.0012951643 0.0016187532 0.00075625035 0.001162826 0.000999374
0.0012260682 0.0014228253 0.0020213048 0.0014607897 0.0008084648 0.000781551 0.000770931 0.00069153344
0.0017941699 0.0012207873 0.001140965 0.0010607898 0.001330555 0.0013974286 0.0010560004 0.0008508038
0.0014727054 0.0009905081 0.0005692844 0.001284283 0.0016142125 0.00048686063 0.0010987613 0.0009711504
0.0012003885 0.0013864734 0.00200071 0.0014604401 0.0009052312 0.0008039415 0.0007507931 0.00072147534
0.0016988787 0.0012810356 0.001118914 0.0011661603 0.0013705222 0.0014534891 0.00092286646 0.0008464445
0.0014262861 0.0010613471 0.00056395924 0.0012463201 0.001544151 0.0005630713 0.0011262533 0.0009390356
0.0010969419 0.00143306 0.0019427387 0.0014996306 0.00088880083 0.0006959698 0.0007326912 0.00085104397
6e-45 -6e-45 6e-45 6e-45 6e-45 6e-45 6e-45 6e-45
-6e-45 6e-45 6e-45 -6e-45 6e-45 6e-45 6e-45 -6e-45

exp_avg_sq f4 [128, 240]
00000000: 7432 ca37 10d7 da36 3a4a 4b37 9dd1 0537
00000010: ed75 2f37 941c 1837 3422 8f36 bbba a936
00000020: 4c4b 8137 3e98 0837 ff56 bd36 dd7e 8337
00000030: 818a 1d37 b32b bf36 59e2 d136 e4f7 0c37
00000040: 9e51 1e37 153c 4437 40b6 bf37 6c1c 1b37
00000050: eb38 1437 de3b b436 0e8a c436 89ce 9736
00000060: f268 cb37 3f7c dd36 8716 4e37 fcc8 0137
00000070: 1267 3337 0071 1e37 9194 9c36 bb89 b536
00000080: 3326 8437 a3dd 0b37 cff6 b636 2423 8237
00000090: 8d48 1937 bd7e c136 c7a4 cf36 fabf 0c37
000000a0: cf36 2237 f1a3 4737 d599 bf37 22f1 1737
000000b0: 672e 1737 ae2a b236 abec b736 4334 9c36
000000c0: 81b7 d137 c8c4 e436 ec0f 4f37 4c52 0037
000000d0: 0705 3337 c23f 1d37 e45b 9536 9ed0 b636
000000e0: 09e2 8537 5e28 1137 9ca2 bd36 07ae 8237
000000f0: 2a92 1d37 c7ad b736 160d d736 1450 0b37
00000100: c323 2437 c12d 4637 102c c037 a655 1637
00000110: 27e0 1e37 b28a aa36 7c17 bf36 ffe3 a236
00000120: ed8a d137 cdc1 ea36 a02a 5137 1063 0037
00000130: 5129 3037 b6b2 1737 e550 9536 8c3a ba36
00000140: 6380 8a37 2a19 0f37 c64a bc36 f8be 8037
00000150: 962b 1d37 19e2 bb36 9d8c e336 b655 0737
00000160: d07a 2337 2dda 4637 48f1 c137 4e66 1637
00000170: bdca 1c37 6295 b336 1126 ba36 a2da 9f36
00000180: 54c2 d137 cf5e ec36 7e89 5137 0043 0337
00000190: d02a 3137 92e8 1737 9995 9436 2a21 ba36
000001a0: 4a2a 8b37 856f 0d37 75f6 c336 c178 7e37
000001b0: 71b8 1937 e0c5 c336 1b4a ea36 228f 0837
000001c0: 39c3 2437 1ec6 4637 2cdd c337 9cea 1937
000001d0: e96d 1c37 1f9d b336 18ec b836 86c3 a036
000001e0: c2c2 cf37 ab75 ea36 d1df 5237 e757 0037
000001f0: 3f1c 3437 6f02 1237 9c13 9936 be52 c536
00000200: 182e 8c37 bb90 1137 c72c c136 bb1a 8037
00000210: 682d 1437 d031 c936 ceb9 eb36 d821 0937
00000220: 8d2b 2a37 fb5e 4237 9416 c237 1530 2037
00000230: 193e 1d37 6d80 b336 4ba0 b636 fa32 a536
00000240: 852b d037 9467 e636 8df6 5637 1bac 0037
00000250: 2641 3637 e5bc 0f37 9969 9336 d783 d636
00000260: 1a41 8e37 13e8 1437 6d62 c636 3426 8037
00000270: d118 1437 a973 cf36 942a f036 5af9 0637
00000280: c35a 2937 1a98 4037 4ec1 bf37 0106 2137
00000290: c6f3 1a37 4a1c b636 9c62 ba36 ab59 a636
000002a0: c164 ce37 30ac f536 fd8c 5e37 3217 0237
000002b0: c640 3337 6292 1237 871a 9c36 deb0 dc36
000002c0: 9f1e 8e37 fc15 1437 81cc da36 8378 7c37
000002d0: d985 1637 5bde c536 7513 f236 3311 0537
000002e0: cfb4 2837 ced4 3d37 2ff4 bd37 1237 1d37
000002f0: 16fc 1b37 ad65 b536 2d45 b936 66ed a836
00000300: b28c cc37 6490 f236 f4fc 5d37 932c 0537
00000310: 37c4 3637 2c19 1137 527a a436 4161 dc36
00000320: 60f2 8d37 0d77 1d37 1190 d736 c2d6 8137
00000330: fb9f 1937 fcdb d536 337d ee36 4fc1 0b37
00000340: e5ef 2a37 d6f2 3e37 292e bc37 815b 1b37
00000350: cbbc 1e37 1bd7 b836 0928 bb36 9696 aa36
00000360: 1766 c937 dd8a ea36 b329 5d37 7190 0937
00000370: 431e 3c37 3488 1237 525b a836 2d51 e036
00000380: f8e9 8b37 7d96 1e37 546b d136 2074 8137
00000390: 27d7 1937 7aaa db36 3f00 f236 87b6 0a37
000003a0: accf 2f37 d946 3f37 5f62 b937 6fd2 1b37
000003b0: ae91 2737 7bf6 bb36 e400 ba36 0def b636
000003c0: 70f5 ce30 577a e82e a20c 0d31 6e83 b02e
000003d0: dcbf 762f 21a7 3330 eb75 8e2f 631c b72e
000003e0: 69b7 a72f 190a 2f2f 510b dc2f db88 9a2f
000003f0: 9926 2c30 3868 e72f a18d 0930 5a4b e52d
2.410377e-05 6.521943e-06 1.2117025e-05 7.976222e-06 1.045827e-05 9.06656e-06 4.265714e-06 5.0583308e-06
1.5413061e-05 8.141678e-06 5.6427666e-06 1.5675492e-05 9.390177e-06 5.697331e-06 6.2550357e-06 8.402367e-06
9.436537e-06 1.1696499e-05 2.2853841e-05 9.245337e-06 8.83474e-06 5.3713875e-06 5.857327e-06 4.5241945e-06
2.4248355e-05 6.6007774e-06 1.2283802e-05 7.7357945e-06 1.0693229e-05 9.443844e-06 4.6664577e-06 5.4102543e-06
1.5753414e-05 8.336649e-06 5.452755e-06 1.5513571e-05 9.136403e-06 5.7666025e-06 6.1882633e-06 8.389348e-06
9.668714e-06 1.1899495e-05 2.2840608e-05 9.0564445e-06 9.011105e-06 5.309782e-06 5.481377e-06 4.6552464e-06
2.5000192e-05 6.817838e-06 1.2341869e-05 7.648556e-06 1.0670402e-05 9.372774e-06 4.4512435e-06 5.448309e-06
1.5960091e-05 8.652072e-06 5.651569e-06 1.5578245e-05 9.391961e-06 5.4740553e-06 6.4090227e-06 8.30369e-06
9.783488e-06 1.1812373e-05 2.2908702e-05 8.960638e-06 9.469723e-06 5.082541e-06 5.6949775e-06 4.8545185e-06
2.4979434e-05 6.996305e-06 1.2467295e-05 7.652459e-06 1.0500037e-05 9.041911e-06 4.4499634e-06 5.5500477e-06
1.6510667e-05 8.529323e-06 5.6115414e-06 1.5347716e-05 9.368077e-06 5.5993555e-06 6.7814967e-06 8.066583e-06
9.744152e-06 1.1852518e-05 2.3119748e-05 8.964516e-06 9.345528e-06 5.352006e-06 5.5476635e-06 4.7640215e-06
2.5005233e-05 7.0443853e-06 1.2489383e-05 7.823808e-06 1.055999e-05 9.054451e-06 4.428159e-06 5.5470928e-06
1.6589784e-05 8.43022e-06 5.8401442e-06 1.5167695e-05 9.162454e-06 5.8344885e-06 6.9823705e-06 8.139557e-06
9.820616e-06 1.1847847e-05 2.3348803e-05 9.174135e-06 9.323915e-06 5.352907e-06 5.5111122e-06 4.7911335e-06
2.4767014e-05 6.987442e-06 1.2569087e-05 7.649861e-06 1.0735413e-05 8.702845e-06 4.562038e-06 5.88069e-06
1.6710765e-05 8.676371e-06 5.757061e-06 1.5271236e-05 8.832059e-06 5.9960657e-06 7.0251763e-06 8.173716e-06
1.014293e-05 1.1585415e-05 2.3137116e-05 9.547938e-06 9.3723875e-06 5.3495664e-06 5.4426832e-06 4.9233176e-06
2.4815798e-05 6.8665922e-06 1.2812799e-05 7.669466e-06 1.0863214e-05 8.567445e-06 4.3932346e-06 6.393045e-06
1.6958034e-05 8.875521e-06 5.912318e-06 1.5276579e-05 8.827265e-06 6.1825453e-06 7.157514e-06 8.045079e-06
1.0094317e-05 1.1479506e-05 2.2858989e-05 9.597746e-06 9.235873e-06 5.427316e-06 5.5547116e-06 4.9576242e-06
2.460403e-05 7.3216142e-06 1.32650575e-05 7.754004e-06 1.0684313e-05 8.7363605e-06 4.6522505e-06 6.577101e-06
1.6941978e-05 8.826606e-06 6.5207137e-06 1.5048429e-05 8.971861e-06 5.896943e-06 7.214427e-06 7.931422e-06
1.0055678e-05 1.1314825e-05 2.2644263e-05 9.370751e-06 9.297413e-06 5.406057e-06 5.5214828e-06 5.034427e-06
2.4384211e-05 7.2289713e-06 1.3231522e-05 7.937796e-06 1.089373e-05 8.648534e-06 4.901821e-06 6.5678328e-06
1.6921374e-05 9.385648e-06 6.424271e-06 1.5478003e-05 9.156759e-06 6.373504e-06 7.107528e-06 8.330054e-06
1.0188644e-05 1.1381422e-05 2.2432841e-05 9.260025e-06 9.461491e-06 5.508669e-06 5.577695e-06 5.0839253e-06
2.4008606e-05 6.9899093e-06 1.3182335e-05 8.199467e-06 1.1212719e-05 8.73399e-06 5.0174212e-06 6.6851703e-06
1.6679041e-05 9.452572e-06 6.24118e-06 1.5432073e-05 9.169605e-06 6.5465547e-06 7.2121907e-06 8.267939e-06
1.0479165e-05 1.1400983e-05 2.2099526e-05 9.287715e-06 9.987894e-06 5.6017284e-06 5.5433356e-06 5.451852e-06
1.505823e-09 1.05718705e-10 2.0525381e-09 8.0269e-11 2.2441732e-10 6.5357325e-10 2.5913435e-10 8.326919e-11
3.0507444e-10 1.5919745e-10 4.0025808e-10 2.8109678e-10 6.2628086e-10 4.2092707e-10 5.0041576e-10 2.6067749e-11

exp_avg f4 [128]
00000000: 79c6 113b 0400 0000 c84f acb9 f03b 8c3a
00000010: 0400 0000 0000 0000 0400 0000 0400 0000
00000020: b8e7 5bba 2f98 cf3a 0400 0000 aa0e adba
00000030: 0400 0000 0000 0000 1d25 8eba 48b5 5838
00000040: 0400 0000 0400 0000 0000 0000 7c8d 76ba
00000050: 0d9b 52ba e43c 0bbb 1153 17ba c576 163b
00000060: 3dc7 81bb be86 3dba 0000 0000 0400 0000
00000070: 64ef f03a 0400 0000 4872 7eba 0400 0000
00000080: 0400 0000 0400 0000 0400 0000 c63f fcba
00000090: be23 ce39 0400 0000 0400 0000 0400 0000
000000a0: e1a4 943a 0400 0000 7139 7eba d3a6 62ba
000000b0: 22fb 70ba 0400 0000 0000 0000 3082 4fbb
000000c0: 4c5e 6139 6062 5937 0400 0000 363a bb3a
000000d0: efa2 28b9 0400 0000 b052 6c3a bef4 1bbb
000000e0: a00b 7f3a bf6c e639 0400 0000 0400 0000
000000f0: 76fd 103b 3c84 10ba e0d2 113b 0558 263b
00000100: 0400 0000 56f0 51ba e95d fb3a d2da 673a
00000110: 0400 0000 9915 20ba 62a4 ecba 0400 0000
00000120: 0400 0000 5c97 58ba a571 3bbb de0c f73a
00000130: 0400 0000 0400 0000 0400 0000 90cd 64bb
00000140: 0400 0000 f2a2 c1ba 1440 393b 0400 0000
00000150: 0400 0000 0400 0000 0400 0000 6cab 8a3a
00000160: 4ece 01ba 0400 0000 3412 f53a 0ffc 9939
00000170: 0400 0000 0400 0000 0400 0000 0000 0000
00000180: 5848 1aba 0400 0000 6473 1d3a 0400 0000
00000190: 0400 0000 75b0 0e3a 689d e1b9 b473 f33a
000001a0: 0400 0000 5a7a f039 2a00 a13a 0400 0000
000001b0: 264f afb8 0400 0000 0400 0000 0000 0000
000001c0: c4d1 1439 7f03 baba 0400 0000 0400 0000
000001d0: 0400 0000 aeba 2aba 0400 0000 d05d 303a
000001e0: cc85 60b9 0400 0000 0000 0000 76e3 02bb
000001f0: 0400 0000 0400 0000 0400 0000 0000 0000
0.0022243543 6e-45 -0.00032865838 0.0010699015 6e-45 0.0 6e-45 6e-45
-0.0008388716 0.0015838201 6e-45 -0.0013203223 6e-45 0.0 -0.0010844801 5.1667244e-05
6e-45 6e-45 0.0 -0.0009405238 -0.00080339686 -0.002124601 -0.0005772571 0.0022958976
-0.0039605186 -0.0007229856 0.0 6e-45 0.0018381891 6e-45 -0.000970636 6e-45
6e-45 6e-45 6e-45 -0.001924508 0.00039318012 6e-45 6e-45 6e-45
0.0011340642 6e-45 -0.00096978905 -0.00086460746 -0.0009192695 6e-45 0.0 -0.003166329
0.000214928 1.2957113e-05 6e-45 0.0014284316 -0.00016082426 6e-45 0.0009015007 -0.0023797
0.000972921 0.0004395004 6e-45 6e-45 0.002212373 -0.00055128685 0.0022250935 0.0025382054
6e-45 -0.000800853 0.0019177768 0.00088445575 6e-45 -0.0006106734 -0.0018054361 6e-45
6e-45 -0.00082623004 -0.0028601673 0.0018848439 6e-45 6e-45 6e-45 -0.0034912564
6e-45 -0.0014773293 0.0028266953 6e-45 6e-45 6e-45 6e-45 0.0010579652
-0.0004951701 6e-45 0.0018697442 0.00029370232 6e-45 6e-45 6e-45 0.0
-0.0005885414 6e-45 0.0006006269 6e-45 6e-45 0.0005443164 -0.0004303262 0.0018573911
6e-45 0.00045867526 0.0012283374 6e-45 -8.359393e-05 6e-45 6e-45 0.0
0.00014192524 -0.0014191716 6e-45 6e-45 6e-45 -0.0006512803 6e-45 0.00067278463
-0.00021412148 6e-45 0.0 -0.0019972003 6e-45 6e-45 6e-45 0.0

exp_avg_sq f4 [128]
00000000: 91f6 ea37 5371 d330 af0a bb37 c386 1138
00000010: 1cd4 b12f 0000 0000 fb39 c632 734c 0530
00000020: e1f1 a437 9a94 9f37 2421 d630 d3b3 ce37
00000030: ddf3 a032 0000 0000 5172 bf37 3bc9 4637
00000040: f275 032f c0a9 8a2f 0000 0000 7e07 cd37
00000050: 5c04 2038 b59d 1538 035e 6a37 8a99 c237
00000060: abb4 fa37 ef47 b337 0000 0000 c11a 1e2c
00000070: 8a8f 8d37 e092 b62f 9dc0 be37 42e9 a730
00000080: 8398 ec32 8ef3 8a30 77dd aa2f bf43 f037
00000090: 3d82 8537 5f69 7233 26dd 6b32 cdf7 0d2f
000000a0: 1d46 c237 c655 1f29 437d a337 4017 df37
000000b0: 2758 0838 0f99 a82c 0000 0000 607f 9b37
000000c0: 0465 cf37 2cbd 3938 602d a032 254e 4438
000000d0: 1842 fb37 7b8d 0734 92d8 4b37 1dab 1238
000000e0: b470 ad37 4390 5137 ce51 3f32 6402 4430
000000f0: 685b b737 8c01 a937 b8e3 5737 ae27 cb37
00000100: f0db ad31 d62f 7b37 7ee0 bb37 8cc5 a737
00000110: 8b52 a232 8e21 ec37 0947 5238 64ff c630
00000120: 82da 0135 caea 7a37 5877 0338 dfc5 2838
00000130: b616 1633 27a8 c02e 64b4 7932 4d39 5738
00000140: 9b74 a52f 7605 3338 777b ab37 66a4 092f
00000150: 7faa a632 5ac9 ad2b 46cb 4133 52dc 0138
00000160: 155c 8537 d7df 9e31 ec9f 1638 7a0e 9c37
00000170: bd0a 522e 1b84 1933 ffc5 5e32 0000 0000
00000180: e898 0a38 3f6d d92e 86ef 2a37 5334 9633
00000190: 3864 5f31 0e1b df37 99ee 0d38 40d2 a837
000001a0: 4233 ff2f 821e 0738 d789 3238 48c4 a12f
000001b0: 4387 5b37 b947 8131 0ade 8232 0000 0000
000001c0: f277 bb37 a1aa 7b38 88b3 922e e450 5e2f
000001d0: 0419 9732 b946 9f37 519f 682f 3a5e 9237
000001e0: a670 9737 b06d 0833 0000 0000 e850 9937
000001f0: 1fc7 9b2f 8c24 5c30 8287 0d2b 0000 0000
2.800979e-05 1.5384479e-09 2.2297112e-05 3.46962e-05 3.2346825e-10 0.0 2.30766e-08 4.849376e-10
1.9662957e-05 1.9023475e-05 1.5579968e-09 2.464085e-05 1.8737348e-08 0.0 2.2822207e-05 1.1848572e-05
1.1956283e-10 2.5222668e-10 0.0 2.4441393e-05 3.8151033e-05 3.5671244e-05 1.3969376e-05 2.31981e-05
2.9886452e-05 2.137196e-05 0.0 2.2468002e-12 1.687535e-05 3.3209968e-10 2.2739458e-05 1.2217145e-09
2.754337e-08 1.0110044e-09 3.108018e-10 2.8641776e-05 1.5915482e-05 5.644085e-08 1.3729084e-08 1.2911912e-10
2.3159251e-05 3.537949e-14 1.9489444e-05 2.6594498e-05 3.2507025e-05 4.79184e-12 0.0 1.8536753e-05
2.4723362e-05 4.4283617e-05 1.8647086e-08 4.680282e-05 2.9952309e-05 1.2624325e-07 1.2150167e-05 3.4968474e-05
2.0675689e-05 1.2490959e-05 1.11362635e-08 7.130778e-10 2.1857864e-05 2.014709e-05 1.28680185e-05 2.4217963e-05
5.0599667e-09 1.49719035e-05 2.2396674e-05 1.9999941e-05 1.8896818e-08 2.8149017e-05 5.013406e-05 1.4478982e-09
4.8374216e-07 1.4955827e-05 3.134398e-05 4.0238603e-05 3.4945252e-08 8.761019e-11 1.4534724e-08 5.131336e-05
3.0096178e-10 4.268201e-05 2.0442281e-05 1.2518483e-10 1.9402476e-08 1.2348276e-12 4.512119e-08 3.0961186e-05
1.5897715e-05 4.623853e-09 3.5911726e-05 1.860339e-05 4.775801e-11 3.5743238e-08 1.296712e-08 0.0
3.304417e-05 9.8874235e-11 1.0188558e-05 6.994437e-08 3.2507739e-09 2.659627e-05 3.383923e-05 2.0125066e-05
4.642065e-10 3.221492e-05 4.256688e-05 2.9425196e-10 1.308491e-05 3.762548e-09 1.5234964e-08 0.0
2.2347991e-05 6.0001974e-05 6.6712025e-11 2.021952e-10 1.759009e-08 1.898721e-05 2.1156878e-10 1.7448434e-05
1.8053059e-05 3.1764728e-08 0.0 1.8276696e-05 2.833582e-10 8.008747e-10 5.028132e-13 0.0

exp_avg f4 [64, 128]
00000000: 0400 0000 0000 0000 0400 0000 0400 0000
00000010: 0000 0000 0000 0000 0000 0000 0000 0000
00000020: 0400 0000 0400 0000 0000 0000 0400 0000
00000030: 0000 0000 0000 0000 0400 0000 0400 0000
00000040: 0000 0000 0000 0000 0000 0000 0400 0000
00000050: 0400 0000 0400 0000 0400 0000 0400 0000
00000060: 0400 0000 0400 0000 0000 0000 0000 0000
00000070: 0400 0000 0000 0000 0400 0000 0000 0000
00000080: 0000 0000 0000 0000 0000 0000 0400 0000
00000090: 0400 0000 0000 0000 0000 0000 0000 0000
000000a0: 0400 0000 0000 0000 0400 0000 0400 0000
000000b0: 0400 0000 0000 0000 0000 0000 0400 0000
000000c0: 0400 0000 0400 0000 0000 0000 0400 0000
000000d0: 0400 0000 0000 0000 0400 0000 0400 0000
000000e0: 0400 0000 0400 0000 0000 0000 0000 0000
000000f0: 0400 0000 0400 0000 0400 0000 0400 0000
00000100: 0000 0000 0400 0000 0400 0000 0400 0000
00000110: 0000 0000 0400 0000 0400 0000 0000 0000
00000120: 0000 0000 0400 0000 0400 0000 0400 0000
00000130: 0000 0000 0000 0000 0000 0000 0400 0000
00000140: 0000 0000 0400 0000 0400 0000 0000 0000
00000150: 0000 0000 0000 0000 0000 0000 0400 0000
00000160: 0400 0000 0000 0000 0400 0000 0400 0000
00000170: 0000 0000 0000 0000 0000 0000 0000 0000
00000180: 0400 0000 0000 0000 0400 0000 0000 0000
00000190: 0000 0000 0400 0000 0400 0000 0400 0000
000001a0: 0000 0000 0400 0000 0400 0000 0000 0000
000001b0: 0400 0000 0000 0000 0000 0000 0000 0000
000001c0: 0400 0000 0400 0000 0000 0000 0000 0000
000001d0: 0000 0000 0400 0000 0000 0000 0400 0000
000001e0: 0400 0000 0000 0000 0000 0000 0400 0000
000001f0: 0000 0000 0000 0000 0000 0000 0000 0000
00000200: 7f8a 9fba 0400 0000 5aa1 e5b9 80f3 d638
00000210: 0400 0080 0000 0000 0400 0000 0400 0080
00000220: 180b 6b39 7976 b4ba 0400 0080 1f62 0cba
00000230: 0400 0000 0000 0000 d05e 72b7 fa1d 68ba
00000240: 0400 0000 0400 0080 0000 0000 cc46 7539
00000250: 26d0 b23a f01d 02ba d0ef c7b9 6f6d c0ba
00000260: e81e 2539 5ebe 4639 0000 0000 0400 0000
00000270: 931b c5ba 0400 0000 e71e 893a 0400 0000
00000280: 0400 0000 0400 0080 0400 0080 5032 0c3a
00000290: d87e 81ba 0400 0000 0400 0000 0400 0080
000002a0: a310 b6ba 0400 0000 f366 0bbb 0d57 76ba
000002b0: ee64 99ba 0000 0000 0000 0000 f458 683a
000002c0: 10ac adba f6d2 cd39 0400 0080 5c89 80ba
000002d0: 98d1 de39 0400 0080 5e46 23bb 50e8 3eba
000002e0: 668c 9739 542c bdb9 0400 0000 0400 0080
000002f0: ab81 fab9 b0c2 aeb8 0a1b 2b3a 15d5 d6ba
00000300: 0400 0000 606f 39ba d054 0e3a d267 46ba
00000310: 0400 0000 4b64 f6ba f658 e6b9 0400 0000
00000320: 0400 0080 a48d 61ba 74af b43a eadf 05bb
00000330: 0400 0000 0400 0000 0400 0080 0091 59b7
00000340: 0400 0000 1e08 15bb 1853 f0b9 0400 0000
00000350: 0400 0080 0400 0000 0400 0080 f033 13bb
00000360: 0a49 e4b9 0400 0080 cebe acba c10a 063a
00000370: 0400 0080 0400 0000 0400 0000 0000 0000
00000380: dcdf 81b9 0400 0080 d6a2 9fb8 0400 0080
00000390: 0400 0080 daa8 40ba 046b 04ba d847 b6ba
000003a0: 0400 0080 f51e 87ba 5c23 a3b9 0400 0080
000003b0: 38b7 023a 0400 0080 0400 0000 0000 0000
000003c0: 86be 7f3a 1b71 a3ba 0400 0000 0400 0080
000003d0: 0400 0000 1765 c0b9 0400 0000 63d1 4dba
000003e0: 4000 edb9 0400 0080 0000 0000 c601 6939
000003f0: 0400 0000 0400 0000 0000 0000 0000 0000
6e-45 0.0 6e-45 6e-45 0.0 0.0 0.0 0.0
6e-45 6e-45 0.0 6e-45 0.0 0.0 6e-45 6e-45
0.0 0.0 0.0 6e-45 6e-45 6e-45 6e-45 6e-45
6e-45 6e-45 0.0 0.0 6e-45 0.0 6e-45 0.0
0.0 0.0 0.0 6e-45 6e-45 0.0 0.0 0.0
6e-45 0.0 6e-45 6e-45 6e-45 0.0 0.0 6e-45
6e-45 6e-45 0.0 6e-45 6e-45 0.0 6e-45 6e-45
6e-45 6e-45 0.0 0.0 6e-45 6e-45 6e-45 6e-45
0.0 6e-45 6e-45 6e-45 0.0 6e-45 6e-45 0.0
0.0 6e-45 6e-45 6e-45 0.0 0.0 0.0 6e-45
0.0 6e-45 6e-45 0.0 0.0 0.0 0.0 6e-45
6e-45 0.0 6e-45 6e-45 0.0 0.0 0.0 0.0
6e-45 0.0 6e-45 0.0 0.0 6e-45 6e-45 6e-45
0.0 6e-45 6e-45 0.0 6e-45 0.0 0.0 0.0
6e-45 6e-45 0.0 0.0 0.0 6e-45 0.0 6e-45
6e-45 0.0 0.0 6e-45 0.0 0.0 0.0 0.0
-0.0012172012 6e-45 -0.000437985 0.000102496706 -6e-45 0.0 6e-45 -6e-45
0.00022415479 -0.0013768218 -6e-45 -0.00053551974 6e-45 0.0 -1.4446399e-05 -0.00088545645
6e-45 -6e-45 0.0 0.00023391395 0.0013642355 -0.00049635675 -0.00038134912 -0.0014681051
0.0001574714 0.00018953669 0.0 6e-45 -0.0015038125 6e-45 0.001046148 6e-45
6e-45 -6e-45 -6e-45 0.00053480733 -0.0009879721 6e-45 6e-45 -6e-45
-0.0013890456 6e-45 -0.002127108 -0.0009397127 -0.0011703053 0.0 0.0 0.00088633527
-0.0013250131 0.00039257825 -6e-45 -0.0009806561 0.000424993 -6e-45 -0.0024913768 -0.0007282542
0.0002890557 -0.00036081916 6e-45 -6e-45 -0.00047780326 -8.33323e-05 0.00065271615 -0.0016390408
6e-45 -0.0007073786 0.0005429508 -0.0007568571 6e-45 -0.00187982 -0.000439353 6e-45
-6e-45 -0.0008604175 0.0013785199 -0.0020427653 6e-45 6e-45 -6e-45 -1.2967968e-05
6e-45 -0.0022740434 -0.00045838277 6e-45 -6e-45 6e-45 -6e-45 -0.0022461377
-0.00043541967 -6e-45 -0.0013179423 0.0005113297 -6e-45 6e-45 6e-45 0.0
-0.00024771586 -6e-45 -7.6120414e-05 -6e-45 -6e-45 -0.00073493796 -0.0005051347 -0.0013906909
-6e-45 -0.0010308909 -0.00031116128 -6e-45 0.0004986408 -6e-45 6e-45 0.0
0.0009755868 -0.0012469621 6e-45 -6e-45 6e-45 -0.00036696412 6e-45 -0.00078513304
-0.0004520435 -6e-45 0.0 0.00022221272 6e-45 6e-45 0.0 0.0
