models/preliminary_results_models/RaceMultiOutputModeltvt4v1/model.pt (torch, 264175 bytes, 18 tensors)

fc1.weight f4 [128, 24]
00000000: 0934 4abe 549a 143e 3844 9e3d d456 473e
00000010: b8b3 963d 0099 b4bc a047 22bc 3312 efbd
00000020: 4883 e53d 3c2c f03d 7ddc 3dbe 3893 20be
00000030: b810 a13c b0c2 373e 506e 94bc a097 5b3d
00000040: 92e5 193e 8ed6 3bbe d02b 123c d0fe 72bc
00000050: 5691 2bbe 7c51 95bd 08aa 79bd 2a2d 38be
00000060: 7e62 25be 9848 333d 1810 b83d 8bc9 2fbe
00000070: 4094 c7bb 50f8 34bc 807e 4e3b cc69 4d3e
00000080: c02f e9bc a03f af3b ee2f 3dbe d328 c4bd
00000090: ec5d dc3d 78cf a8bc 1b66 10be 3877 9c3d
000000a0: 648f 0fbe a868 eb3d 6fc7 febd f586 47be
000000b0: fc95 d43d 703c 533c faea 4ebe 009a cf3a
000000c0: dcfe 98bd e86a c53c 6728 fbbd 40ab 5ebd
000000d0: 0914 50be 2146 2bbe ee1b 2a3e b04a b1bd
000000e0: 987f 613d 9cb0 02bd 8084 493c 88a5 0cbe
000000f0: 8c67 f0bd 18e0 a53c 203b 423c 28ff 02bd
00000100: 7dc0 e0bd 90ae 913d bd81 acbd c28d d9bd
00000110: 8cea da3d d73d dabd eb5a 1dbe 246b 78bd
00000120: 3c13 083e 801c bf3b cc34 9abd 2c24 d5bd
00000130: a097 81bb a631 3fbe 1a63 dbbd 989e ac3c
00000140: 64b7 3abe f022 813d 30e3 77bd b454 27be
00000150: 2072 9ebc 6c78 1e3d 33e6 fbbd c075 173b
00000160: c8d0 60bd ccad 2cbd 6021 4b3d 949e 16be
00000170: 0444 4c3e 30b3 43bd 88f9 4c3d 48a5 6e3d
00000180: 244a cf3d 86ef abbd b2f6 283c dd1e 15be
00000190: b100 29be a426 dbbc c9cf 593e f5e8 2d3c
000001a0: 1e60 9dbd 7c65 473e 0c9a b7bc f5e2 463e
000001b0: d142 25be 1d3d e13d 1cd0 8c3d fa85 a2bc
000001c0: db27 c83b d834 0c3e 96bf 26be cc4d 6a3e
000001d0: eb4c 5d3d 04d1 853d bd1d 073d bc6e a73d
000001e0: 7283 8d3d 5bc1 09be dd66 ad3d bce7 f03d
000001f0: 28d4 683e e823 a6bd b837 023e c8da 433e
00000200: b66f 913d abba 723c 1bff 16be 6b1a 293e
00000210: 3178 e13c 916d c3bc e3e1 b33c 4600 063e
00000220: 6e95 93bd 4546 1339 ae41 483e 778a 273d
00000230: 19bd 66bc e418 61bd 748e eabd 4178 2f3e
00000240: 6dda 103e c6d0 debd 2c79 60bc 8dd3 12bb
00000250: 39ac 813d c683 b0bd 573c 3b3d f565 123e
00000260: cd03 27be e667 df3d 67c6 ebbd 05d6 3c3d
00000270: 35c1 833b 84ed f23d db16 4abc 3769 97bc
00000280: d39e b93c 6379 ea3d 8cd6 20bd b3cd ed3d
00000290: 5f75 0ebe 4ffb 163e c967 3e3e c1f5 183e
000002a0: 2cb9 35bd ddb3 f5bd 52fe 453e 9845 913c
000002b0: 102e 0d3e d64e 42be e82d 063d 7097 b03c
000002c0: 6ec6 1abe c8a0 e13d 9cce 1e3e 0436 38bd
000002d0: f803 d53d 900e 0bbe f870 183e 20fb a13d
000002e0: 96cf 47be d5ed 08be 74cd bfbd 5cac 1d3d
000002f0: 1f43 2fbe d44b 0b3e 09c7 1bbe 3a91 11be
00000300: 178f da3c 78e3 2a3e d371 103e 0177 473c
00000310: f5f6 043e 7718 3abe b749 413e ae2d 4c3d
00000320: d2b3 f3bd 8ad6 4e3e 5947 e0bd 5b26 32be
00000330: 7318 3a3e 0564 66bd c333 33bd 6708 18be
00000340: ff76 423d 8a34 0b3e da29 8fbd e2fd 6e3d
00000350: 0d23 b63d 12a6 1e3e a2b2 1abe 75ee 2bbc
00000360: 06e5 323e 4ca1 063e 9845 053d 1080 ff3d
00000370: a8a4 433d ccd0 b63d fc4e 49be e0b2 edbc
00000380: 508f e43c ea24 c7bd 1105 dbbd 140d f43d
00000390: f7a8 4dbe fc8d 27bd d88e 9cbc e6ce 173e
000003a0: 3002 513d ee75 2fbe 1094 2d3e faf3 89bd
000003b0: 13c2 43be 122e 3abe 1c10 07be c115 0fbe
000003c0: d184 283e d96a dabd 3cea ca3d 92ec 503e
000003d0: 6411 433e bad6 30be a44f 083e 69cf 143c
000003e0: 2c59 5dbd dcb3 f43d 4177 0d3e 6a51 9a3d
000003f0: 3a0e 673e 4592 203c 95e3 ddbd 23b4 afbc
-0.19746412 0.14511997 0.077278554 0.19466716 0.073584974 -0.022045612 -0.009904772 -0.11673393
0.112066805 0.11727187 -0.18541141 -0.1568116 0.019661292 0.17945361 -0.018119007 0.053611398
0.1502898 -0.18343565 0.0089215785 -0.01483126 -0.1675466 -0.072909325 -0.06095317 -0.17985979
-0.16150853 0.043770403 0.08987445 -0.17166726 -0.006090671 -0.01104553 0.0031508505 0.2005989
-0.028465152 0.005348161 -0.18475315 -0.09578099 0.10760102 -0.020606741 -0.1410145 0.07639927
-0.14019543 0.11494571 -0.12440383 -0.19485076 0.1038017 0.012892827 -0.20206824 0.0015838742
-0.074704856 0.024098828 -0.122635655 -0.054362535 -0.20320143 -0.16725971 0.16612217 -0.08656824
0.055053324 -0.03190671 0.012299657 -0.1373502 -0.117385 0.020248458 0.011854917 -0.031981617
-0.10974214 0.07113373 -0.08423183 -0.10622741 0.106892675 -0.10656326 -0.15366714 -0.060649052
0.13288587 0.005832255 -0.075296015 -0.1040729 -0.0039548427 -0.18671283 -0.107122615 0.021071717
-0.1823402 0.06305492 -0.060519397 -0.16340905 -0.019341528 0.038689062 -0.122997664 0.0023110956
-0.05488661 -0.042157933 0.049592376 -0.1470893 0.19947821 -0.04777831 0.05004266 0.058263093
0.10121563 -0.08395295 0.010312723 -0.14562555 -0.1650417 -0.026751824 0.2127067 0.010614623
-0.076843485 0.19472307 -0.022412322 0.19422515 -0.1613877 0.109979846 0.06875631 -0.019839276
0.0061082668 0.13692033 -0.16284022 0.2288124 0.054028433 0.06534007 0.032987345 0.08175418
0.06909837 -0.13452666 0.08466885 0.1176295 0.22737181 -0.08112317 0.12716568 0.19126427
0.07101385 0.014815013 -0.14745753 0.16513984 0.027523132 -0.023855956 0.021958297 0.13086042
-0.07206236 0.0001404519 0.19556305 0.040903535 -0.01408317 -0.05495538 -0.11452952 0.17135717
0.14145823 -0.10879664 -0.013700765 -0.0022403926 0.06331677 -0.08618884 0.04571184 0.14296706
-0.16310044 0.10908489 -0.115124516 0.046102542 0.004020835 0.11861709 -0.012334551 -0.018482788
0.022658741 0.11448934 -0.039267108 0.116115 -0.13911961 0.14744304 0.18594278 0.14937498
-0.044366047 -0.11997197 0.19335297 0.01773338 0.13787103 -0.18975386 0.032758623 0.021556586
-0.15114757 0.11016995 0.15508503 -0.04497339 0.104011476 -0.13579774 0.14886844 0.079092264
-0.19512782 -0.13371976 -0.09365359 0.038494453 -0.17115448 0.13603145 -0.15212645 -0.14215556
0.026679559 0.16688335 0.1410592 0.012174369 0.12984832 -0.18173395 0.18875776 0.04984825
-0.118995324 0.20199028 -0.109511085 -0.17397444 0.18173389 -0.05624773 -0.043750536 -0.14846955
0.047476765 0.13594261 -0.069904044 0.05834759 0.08893404 0.15493038 -0.15107206 -0.010493864
0.17470178 0.13147467 0.032537073 0.12475598 0.04776445 0.089265436 -0.19659036 -0.029015958
0.027900368 -0.09723838 -0.10694326 0.11916557 -0.20083986 -0.04090689 -0.019111082 0.14825019
0.051027477 -0.1713483 0.16951013 -0.06735988 -0.19117002 -0.18181637 -0.13189739 -0.13973142
0.16456915 -0.10664911 0.09907958 0.20402744 0.19049603 -0.17269412 0.1331163 0.009082654
-0.05404012 0.11948368 0.13815023 0.0753506 0.22564021 0.009800498 -0.108344235 -0.0214482

fc1.bias f4 [128]
00000000: b96f 13be 6175 ebbd 0090 5cb9 269e f1bd
00000010: d376 0dbe 5e4d 353e 6238 8f3d 62e5 273e
00000020: 89d5 ef3d 0027 3c3d 4bcc 903d 008f 373b
00000030: 1346 40be 0034 82b9 787a 0abe 6ac1 ab3d
00000040: 3a2f 92bb d88f 5a3d 641b 023d de04 a43d
00000050: 7c07 303e afd1 ab3d e743 cc3c 365c 363e
00000060: 4754 01be ec8b ca3d 46fa 16be 45c4 1c3d
00000070: 6c2d 563e 134a 38be 04b2 5a3d b3c7 83bc
00000080: acc8 433e 83cc b0bd bdd9 d53d c437 153e
00000090: ceff 39be a0d8 fd3d 6e3a 5c3e 47c7 503e
000000a0: ec17 7ebd c08a e9bb a924 1f3e 406d 9bbb
000000b0: c444 163e 5a1f e0bd c8fc 063e f457 363e
000000c0: 5edd 12be 1fe8 2bbe 4c11 25bd d0a6 373e
000000d0: debf d5bc 9e42 8f3d f474 99bd 5c3b 2cbe
000000e0: d0c8 403d 1bbf 5f3c 300c 38bd 1902 563e
000000f0: 0eea a73d 766e 96bd 3249 043e a32d 133e
00000100: 00ec 493b 2d6d 2fbe 5805 ca3d 4693 913d
00000110: 0c34 b33d 3c6e 44be ac59 03bd 740a 8e3d
00000120: 3616 093e b90d ddbd d336 4f3e e746 87bd
00000130: 1ccf 2cbe 815e 9e3d 4ebd d0bc 86a2 a0bd
00000140: 6d76 523d 50db 183c 2b29 3cbe 2dbe a13d
00000150: 5668 5abb 3d75 843c 0fa5 343e 6b78 3a3d
00000160: 5ed6 073d 5dad 40be 2e46 26be 148c 253e
00000170: e6ca 2d3e 20e6 fb3d d5c7 f9bc a88f 0f3d
00000180: 0798 98bc 1401 2d3d 107e 7bbd 009e 823c
00000190: be3e 0abe 42c4 1c3e 5e68 f1bd 3f3e cdbd
000001a0: 7fa6 a0bd 0da0 c0bc e36f dabd 4e8e 2e3e
000001b0: 800e 83ba e102 26be ec03 2f3e c1c4 483d
000001c0: 4a6a 8abb f82b 3d3e 434e 1d3e d490 a33d
000001d0: 54f7 e03d bfd5 193e cee0 4a3e 3161 2c3e
000001e0: cf38 8fbd 98bc e6bc 4029 433d c11b f23d
000001f0: 2398 243e 4941 d53d 0201 49bc a0c0 d13d
-0.14398088 -0.114969976 -0.00021034479 -0.117977425 -0.13814859 0.17705294 0.06993176 0.16396096
0.117106505 0.04593563 0.07070216 0.0028008819 -0.18776731 -0.00024834275 -0.1352328 0.083865
-0.0044611963 0.053359836 0.031764403 0.08008741 0.17190355 0.08389603 0.024934722 0.17808613
-0.12629806 0.09889969 -0.14743909 0.038273115 0.20915765 -0.17997007 0.053392425 -0.016086435
0.19119519 -0.086327575 0.10441921 0.14572054 -0.18163988 0.123948336 0.21506664 0.20388518
-0.062034532 -0.007127136 0.15541328 -0.004743248 0.1467467 -0.1094348 0.13182366 0.17806989
-0.14342257 -0.16787766 -0.0402997 0.17934728 -0.026092466 0.06995128 -0.0749301 -0.16819519
0.04706651 0.013656403 -0.044933498 0.20899238 0.08198939 -0.073452875 0.12918547 0.14372878
0.0030810833 -0.17131491 0.098643005 0.07108168 0.087501615 -0.19182676 -0.03206794 0.069355875
0.13387379 -0.10793633 0.20235758 -0.066053204 -0.16875881 0.07732869 -0.025480893 -0.07843499
0.05138247 0.009329632 -0.1837508 0.07897601 -0.003332635 0.016169185 0.1764109 0.045524996
0.03316342 -0.18816133 -0.16237709 0.16166717 0.16971931 0.12299752 -0.030490795 0.03504911
-0.01862718 0.042237356 -0.06139952 0.01594448 -0.13500497 0.15309241 -0.117874846 -0.10021638
-0.078442566 -0.023513818 -0.10665872 0.17046472 -0.0009998828 -0.16212036 0.1709134 0.049015764
-0.0042240964 0.18473804 0.15361886 0.07986608 0.10984674 0.15022944 0.19812319 0.1683395
-0.06993257 -0.0281661 0.04764676 0.118217 0.1607366 0.10412843 -0.012268307 0.102418184

fc2.weight f4 [64, 128]
00000000: b086 1cbc 4c2b bb3c dbd1 b1bd b6f7 3c3d
00000010: f2b7 92bc 6fd6 a83d a007 8cbb 36bf 273d
00000020: 65cc ecbb 8837 3cbc 0fde 81bd 3826 7c3c
00000030: 5ff0 a23d 085a a6bc 72f3 173d ae59 743d
00000040: 8ac9 51bd fef9 91bd 22f7 463d f187 4f3d
00000050: ac37 8abc 1ef1 41bc 4199 ab3c ec08 b8be
00000060: cf6e 8a3d 103a d33b 61a5 32bc 8782 283d
00000070: 706f ae3b 0740 0c3c a988 503d 7636 393a
00000080: fb6c 913d f6da 22bd 7896 c23c 125a 4b3d
00000090: 729e 543d 4a31 5d3d bb14 f5be 2409 22be
000000a0: 6646 6abd 8792 a23d f254 893d fe4e 623d
000000b0: 80f5 7ebc 7293 0e3c 1df8 81bd d878 a23d
000000c0: be5e 9e3d d1cb 02bd 7634 c53d 3678 13bd
000000d0: 60cc 6abd bc52 0ebd 17a1 8e3d a7ef a83d
000000e0: f07e 873b 70ac 153d ae8b 473d ca51 bc3d
000000f0: eb6e 643d d842 753c 9890 e53c afe7 6d3d
00000100: 76f9 303d 8809 abbc 9133 843d 16d8 61bd
00000110: 122f 453d a001 3b3b b208 2b3d e267 203d
00000120: f785 17bd e244 ebbc 22f5 0dbd fb71 c53b
00000130: 0026 95bd b931 4c3d 6861 ad3d 5c72 80bd
00000140: 52a0 c23c 20b4 e93b e0dd 2f3b 6f4a d4bc
00000150: f93d fbbb 2d9b e8bd 9d80 e53c 0bdf 9d3d
00000160: d5e2 b33d 5dcd b53d a77c 4dbd 9e90 0dbf
00000170: 67c2 45bd 6ef3 673d 3a22 a73c f861 c63d
00000180: 2731 083d 405e d7bb f01e bb3b b1a7 853d
00000190: d4fb 6bbd bfd6 843d cd8e 123d 949b 41bd
000001a0: f593 5c3c af0d 873d 111e a23d c14d a73d
000001b0: 169d 8ebd 56fd 8dbd 9a65 5a3d aecc bdbc
000001c0: dbef cb3d e41f 5cbd 385a 17bd 6abb e2bc
000001d0: 0cb9 47bd 9f7c 313d 12ea 86bd b1ed ea3c
000001e0: b478 603d 9e18 2c3d f83a 233c 835a 0c3d
000001f0: ceac 68bc e037 db3c 422a b93d 426e 5abd
00000200: 0bba b03d 76eb 9ebd 1477 a63c e1d1 2cbd
00000210: b1c4 053d 5c28 51bd 2f17 aa3d 8c45 1cbd
00000220: 6279 99bd c073 00bc c409 67bd a372 a23d
00000230: 7271 8fbd ae1d 513d 9848 563d 1f8b 693d
00000240: 71ea c0bc 4446 9fbd 7de5 26bd 328d 813d
00000250: 547a 99bc 806d 80bc 1ea1 6a3d 947e 7cbe
00000260: 971b 9a3d 6307 77bd 05cf 603d 88f4 04bd
00000270: 13f5 4cbc 930d 45bd 1369 dd3c 6fdd 44bc
00000280: 6fee 60bd 3008 463c ae09 ddbc 6f76 b1bd
00000290: aed6 783d 7bb3 85bd c975 8cbe 5946 2bbe
000002a0: bd1c 4e3c f67c 9bbd 803b 90bd af67 b2bd
000002b0: 108c 393c 1d39 82bd 4286 71bd abc5 f13b
000002c0: 6b9f be3d e360 a93d 6538 4d3d c521 73bd
000002d0: ca0f 943d ce30 ba3d 0c9a 70bd 3438 c43d
000002e0: 12ab 9dbd 3f48 8dbc 9b8a 4abd d3fc 8e3d
000002f0: 83de c53d 6747 a9bd 1fe3 3ebd 0440 07bd
00000300: efb2 9abd 936b 23bd f523 64bd c64b 4c3d
00000310: 0f00 1dbd f396 99bd c51c 48bd eaa2 743d
00000320: f0c4 ab3b f244 623d 6f8d 1f3b d690 cb3b
00000330: f5e5 e43b 5803 cf3d 4989 c03d 1d38 8e3d
00000340: 65e7 4fbd 3b04 37bd b810 46bc 0f93 38bb
00000350: 46d5 65bd c331 893d 1713 c5bd 039e 303d
00000360: 96de d4bc b907 b03d 1bff afbd d23a b5be
00000370: f43d 69bd f1dc 943d c9b4 fc3c e36b 5d3d
00000380: a098 9b3c 3680 36bd 809b 3dbb 4fec a93d
00000390: 3020 a73d b69a 363d 304a 843d fa9b b6bd
000003a0: b3bf 583d 4ff0 5bbd 4b2b 08bd 7297 eb3c
000003b0: 6a3e 163d 2625 98bd f890 263c b9b9 103d
000003c0: 5765 963c a70f a83d a36f a6bc d4b8 af3c
000003d0: 8769 983d dfe8 093d c0d8 a03b 545c 7ebd
000003e0: b640 1b3c 329a 483d 15e2 993d c3e6 da3d
000003f0: 3243 453d 4055 913d 91e7 8e3d f929 9b3d
-0.009553596 0.022847794 -0.08682605 0.046134673 -0.017909978 0.08244025 -0.00427337 0.040953837
-0.007226514 -0.011487849 -0.063411824 0.015389971 0.079560034 -0.020306602 0.037097402 0.059655838
-0.051217593 -0.0712776 0.048575528 0.050666753 -0.01687225 -0.011837272 0.0209471 -0.35944307
0.06759416 0.0064461306 -0.010903687 0.041140106 0.005323343 0.008560187 0.05091158 0.0007065305
0.071008645 -0.0397596 0.02375339 0.049646445 0.051908918 0.054002084 -0.4786738 -0.158238
-0.057196043 0.07938104 0.06705655 0.055251114 -0.015561461 0.008702146 -0.06346152 0.07933205
0.077329144 -0.031932656 0.09629147 -0.036003314 -0.057323813 -0.03474687 0.06964319 0.08248835
0.004135005 0.036541402 0.048717193 0.091952875 0.055769842 0.01496955 0.02802305 0.05808228
0.043206654 -0.020878568 0.06455148 -0.055137716 0.048140593 0.0028534904 0.04175634 0.03916157
-0.036992993 -0.02871937 -0.034657605 0.0060255504 -0.072826385 0.049852107 0.084658444 -0.06271812
0.023758087 0.0071320683 0.0026835129 -0.025914399 -0.0076673 -0.113577224 0.02801543 0.07708558
0.08783499 0.088770606 -0.050167706 -0.55298793 -0.0482811 0.056628637 0.020402063 0.09686655
0.03325 -0.006572515 0.005710475 0.06526125 -0.05761321 0.06486272 0.035780717 -0.04726751
0.01346301 0.06594407 0.07915891 0.08169127 -0.069635555 -0.069330856 0.05331955 -0.023168888
0.09957858 -0.05374135 -0.036951274 -0.027677257 -0.04876046 0.04333174 -0.06587614 0.028677793
0.05480261 0.042015664 0.00996279 0.034266006 -0.014201356 0.026760042 0.09041263 -0.053327806
0.08629235 -0.07759754 0.020320453 -0.042192344 0.032658283 -0.05106388 0.08305203 -0.038152263
-0.07493855 -0.007840097 -0.056405798 0.079320215 -0.0700406 0.051053695 0.052315325 0.05701744
-0.02354929 -0.07777074 -0.0407462 0.06325759 -0.018735088 -0.015677214 0.05728256 -0.2465766
0.075247936 -0.06030978 0.05488493 -0.032459766 -0.012509602 -0.04810865 0.027027642 -0.0120156845
-0.054914888 0.012086913 -0.026982155 -0.086651675 0.06075161 -0.06528374 -0.27433613 -0.16726054
0.012580094 -0.07592194 -0.07042599 -0.08711182 0.011324897 -0.0635855 -0.05896593 0.0073783
0.0930775 0.08270433 0.05010261 -0.059358377 0.07229574 0.0909134 -0.05874066 0.095810324
-0.07698645 -0.017246364 -0.04944859 0.06981816 0.09661581 -0.08265572 -0.04660332 -0.033020034
-0.0755366 -0.039897513 -0.055698354 0.04987695 -0.038330134 -0.074994944 -0.04885556 0.05972568
0.0052419826 0.055241533 0.0024345776 0.006212334 0.006985421 0.1010806 0.09401185 0.069442965
-0.050757784 -0.04468177 -0.012088947 -0.0028163826 -0.056111597 0.066989444 -0.09622782 0.04311944
-0.025985043 0.08595223 -0.085935794 -0.3539644 -0.05694385 0.07268704 0.030847924 0.054057967
0.018993676 -0.044555865 -0.0028931797 0.082970254 0.08160436 0.044581138 0.06459463 -0.08916469
0.052917194 -0.053695973 -0.033244412 0.028758738 0.036680616 -0.074289605 0.010166399 0.03533337
0.01835887 0.082061104 -0.020316904 0.021450438 0.07442003 0.03366935 0.004908651 -0.06209977
0.0094758775 0.048975177 0.07513825 0.106885456 0.048159786 0.07096338 0.069777615 0.07576365

fc2.bias f4 [64]
00000000: d364 423d 40e0 38bc 58bb df3c 90b7 863c
00000010: e311 023c a6d5 36bc 9a20 393d c6e2 37bd
00000020: 8b22 a53d cdeb dc3d 180d 023c f36e a33d
00000030: bb8d 89bd 063f 73bd 0dd7 a6bd b810 a73c
00000040: 1401 ce3c dc46 5ebd e4a0 61bd 164d 94bd
00000050: 5f54 1e3d d293 ccbd f874 71bc a613 9c3d
00000060: c49c 7a3d 6508 a23d 3e93 b5ba df76 9b3b
00000070: 8cbf b23d 48ec 283d 3c6d 6dba ad6c 0f3d
00000080: e9db 9d3d b307 713d c777 6dbc dd5b b0bd
00000090: c969 79bd ea8c 9cbd ee43 ab3d d32b 26bd
000000a0: 5a1b 86bd f68d 8a3d 6595 abbd 88a6 a8bc
000000b0: 4328 103d 29ac efbc 404d d5bb b814 d53c
000000c0: b510 11bd 9f71 5fbc 476d 97bd a019 73bd
000000d0: 0b15 9fbd b644 923b d8a8 20bd fc64 02bd
000000e0: 0ba0 84bd 769a 083d 3649 61bd 1186 2abd
000000f0: 4f84 6bbd b71b 2d3d ab04 dd3d a8b8 423c
0.047459435 -0.011283934 0.027311012 0.016444951 0.007938835 -0.011159336 0.045197107 -0.044894002
0.08063229 0.10787163 0.007937692 0.07980146 -0.06716486 -0.059386276 -0.081464864 0.020393714
0.025146998 -0.054266796 -0.055085078 -0.072412655 0.03865468 -0.09989132 -0.01473736 0.07620935
0.06118466 0.079117574 -0.0013853086 0.004744395 0.08727941 0.04124096 -0.000905711 0.03501575
0.0770796 0.058845233 -0.014493889 -0.086112715 -0.0608919 -0.07644065 0.08362566 -0.040569138
-0.06548186 0.06765358 -0.08378104 -0.02058722 0.035194647 -0.029256897 -0.006509453 0.026010856
-0.035416324 -0.013637929 -0.0739389 -0.05935061 -0.077676855 0.0044637574 -0.039223522 -0.031834587
-0.06475838 0.03335043 -0.05500146 -0.041631762 -0.057499226 0.04226276 0.10791906 0.011884846

fc3.weight f4 [24, 64]
00000000: bdfd a83b 37e4 28bc 9bcf babd f5e2 143e
00000010: 1665 983c ddec 3a3d b358 08bd ee8c b93c
00000020: aa97 113e a1dc 0abb 8048 833d bb10 63bd
00000030: 4223 91bd 94e5 793d 8435 183d f0e6 933c
00000040: 4a69 0abc 986d 93bd 0877 a93d 5432 a63d
00000050: c785 e2bd 06e9 bfbd 7643 b73d 6790 77bd
00000060: 617f 78bd 00ed 433c 42f6 be3b 82b8 a5bd
00000070: bd78 2dbd 98d8 8f3d a188 e5bb 23ed 103d
00000080: 788a 823d 3977 35bd 90a0 433d a909 31bd
00000090: 0355 853d d71a cfbd df54 f93d 56d9 7bbd
000000a0: b776 cbbd 0c02 783d 360b b93d 9ab2 5b3d
000000b0: 90bc c4bd 0197 db3d 4487 243d 148c 54bd
000000c0: d000 473c 6699 863d a839 07bd 4853 91bc
000000d0: b5ea a33c b80f 743d a168 cfbc f8c9 c93c
000000e0: 29c1 b7b9 2849 283d 8bda abbd c871 bb3c
000000f0: 203c 693d 6c03 2f3d 2bba 53bd a455 b23d
00000100: 5553 3abd f090 c33d 1b50 adbd 6a58 293e
00000110: f073 073e 4c1b c63d 5bb5 243d 6834 e6bc
00000120: b7e0 813d 9b1d b8bd 6c07 2ebd 5d99 21bd
00000130: 74f5 6b3d 4091 39bd 987d 5dbd 4cf7 9e3d
00000140: 1339 0dbe 28a1 a73d a0eb 8cbb b6b9 fd3d
00000150: 8ed8 e0bc 455d b5bd e486 cb3d 790e 41bd
00000160: f0e1 a0bc 003e b33a 5edb 0ebe 2a95 d8bd
00000170: f5ba be39 4678 f63c 404c c53d 4038 2cbd
00000180: e043 10bc 894b 7d3d 344c c13c aaa7 f43d
00000190: 9d06 123d d4ff c0bd eeff bc3d 0aba 3dbe
000001a0: 29d9 f93c 72d6 e2bd 08e8 96bd fabf 02bb
000001b0: 2f81 db3d 24bc a03c 36aa f3bd 085a b3bd
000001c0: 66e4 a93d 0ae6 d9bd 2026 2a3c 6cbd cabd
000001d0: 5414 a3bb dc07 043d fa04 be3d 0822 35bd
000001e0: 6040 003e 1064 583d c691 ef3d 78c7 bb3c
000001f0: 40c7 15bd ec9c 3abd 94f2 30b9 40a3 2ebb
00000200: 040d 4a3d 0c95 99bd 307f abbd 427d 76bd
00000210: acbc e3bd f75d 8a3d 00cc 093e d44c 2c3d
00000220: 6079 053d 91f5 113d 548a 633d 6334 a4bd
00000230: f093 f4bd 88cb dfbc 30bc b9bd 92e7 9bbd
00000240: 5405 883d 63ba a5bb 5e37 f23d 787e d9bc
00000250: 4c41 a7bc 5c39 f93c 84f4 33bd 7457 8b3d
00000260: a457 3ebc 40f2 75bc a606 e83d 1dd3 c9bc
00000270: e914 b03d d8cb 7e3c c7a3 b93d cb17 493d
00000280: 1cb3 e23d e94f a8b9 a8e2 b0bd 1ab9 90bd
00000290: da3a 80bd 4b44 83bc 0f49 223d 2045 91bc
000002a0: 87a0 12bc af28 73bc 7404 5bbd 33b6 e63d
000002b0: 5d0c bcbd 4733 96bd d812 b93c 803f a03d
000002c0: 5611 8b3d a93d b1bd a0dc 16bd d019 1ebd
000002d0: 43ae 053e 5488 eabc 76bd 45bc 9aff e7bd
000002e0: 7aa8 b43c 78f5 8dbc 2945 d5bd 2233 e33d
000002f0: 90c9 0d3c fb93 97ba 6940 d73d d0e0 8cbc
00000300: da21 f73d 7af2 0a3e 04a1 96bb baac f53d
00000310: da5c 013e 597f 973d 48db 18bd 2d22 83bd
00000320: 2c3b b8bd e859 363d b6c1 f0bd 17ed f4bc
00000330: 9093 653d c0d9 d1bc 4287 903d 44fd debd
00000340: 4fc7 e3bd 368c 093e d07f 993d 20c1 5c3d
00000350: 99db debd 3ecf b53d 40af 513b 84ce 033c
00000360: c45b 5d3d a8a4 5b3d ac83 bcbd 3085 283c
00000370: c092 93bd 1ac2 a53d 23c0 59bd e236 073d
00000380: 5ccd a3bd 68f7 95bd 53bd c1bc 8dfd f43d
00000390: 847e e2bd 6f2d d73d 81b4 4bbd 65e1 e2bd
000003a0: fe55 be3c 6075 a53d f0bb 463c 5a6d 193e
000003b0: d27c db3b 4fe4 bfbd f0b3 9a3c 008e 603b
000003c0: 3025 15bd 46c6 17bd 8013 ed3b bcfe abbd
000003d0: 7f0c d83c 297e 053e b2a3 9e3d 14dd 1dbd
000003e0: 2a81 7fbd 7098 023d 7617 71bd ecd5 1cbd
000003f0: 3050 3d3c 40a1 643d a14b f3bc 64a8 50bd
0.005157201 -0.010308317 -0.09121629 0.14539702 0.018602889 0.045636047 -0.033287715 0.022650208
0.14218011 -0.0021188634 0.06410313 -0.055435877 -0.07086803 0.06100996 0.03716041 0.018054456
-0.008447954 -0.07198638 0.082746565 0.08115068 -0.11060672 -0.093706176 0.08948414 -0.060440447
-0.060668353 0.011958361 0.005827696 -0.08091833 -0.042351473 0.07023734 -0.007004813 0.0353824
0.06374067 -0.044303153 0.047760546 -0.043222103 0.06510355 -0.10112541 0.12174391 -0.061486565
-0.099347524 0.060548827 0.090353414 0.053637125 -0.09606278 0.10722161 0.04016806 -0.0518914
0.01214619 0.06572227 -0.03301397 -0.017739907 0.020009378 0.059585303 -0.025318446 0.024632439
-0.00035048396 0.041085392 -0.08391293 0.022881404 0.056942105 0.042727873 -0.051691215 0.08707741
-0.045489628 0.09549129 -0.084625445 0.16537634 0.1322782 0.09673175 0.040212017 -0.028101161
0.06341689 -0.08990022 -0.042487547 -0.0394529 0.05760713 -0.045304537 -0.054074854 0.07762012
-0.13791303 0.08185035 -0.0043005496 0.12388937 -0.027447011 -0.088556804 0.09937838 -0.047132943
-0.019638985 0.0013675094 -0.1395087 -0.10575326 0.00036378918 0.030086648 0.09633684 -0.04204583
-0.008805245 0.061839614 0.023595907 0.11946042 0.03565084 -0.09423795 0.09228502 -0.18528
0.030499058 -0.110760584 -0.07368475 -0.0019950853 0.10717999 0.019620962 -0.118976995 -0.087574065
0.08295517 -0.106395796 0.010385066 -0.098994106 -0.0049767885 0.032234058 0.09278293 -0.044221908
0.12524557 0.052829802 0.11697726 0.022922263 -0.036566973 -0.04555981 -0.00016875035 -0.0026647598
0.04932882 -0.074991316 -0.083738685 -0.06017805 -0.11119971 0.067562036 0.13456726 0.042065457
0.032586455 0.03563458 0.05555184 -0.080178045 -0.11942279 -0.027318731 -0.09069097 -0.07612528
0.06641641 -0.0050576194 0.11826967 -0.026549563 -0.020416878 0.030422859 -0.04393436 0.0680379
-0.011617575 -0.01501137 0.11329393 -0.0246368 0.08597738 0.01555153 0.09064441 0.049094956
0.11069319 -0.00032102995 -0.08636981 -0.07066555 -0.06261225 -0.016023776 0.039620455 -0.017733157
-0.0089494055 -0.014841243 -0.053471044 0.112652205 -0.091820456 -0.07333999 0.022591993 0.07824612
0.06790416 -0.08654339 -0.0368315 -0.038598835 0.13054757 -0.02862946 -0.012069097 -0.11328049
0.022052992 -0.017328963 -0.10413582 0.11093737 0.008654013 -0.0011564487 0.10510332 -0.017197043
0.120670035 0.1356906 -0.0045968313 0.119958356 0.12633076 0.073973365 -0.037318498 -0.06403003
-0.08995661 0.044519335 -0.117556974 -0.02989821 0.05604893 -0.025616527 0.070570484 -0.1088815
-0.111219995 0.13432392 0.074950814 0.053895116 -0.10881729 0.08877419 0.0031995326 0.008044843
0.054042593 0.053623825 -0.09204802 0.010285661 -0.07205725 0.080936626 -0.05316175 0.033011325
-0.079981536 -0.073225796 -0.023649847 0.119624235 -0.11059287 0.10506713 -0.04973269 -0.11078147
0.023234364 0.08079028 0.012129769 0.1498312 0.0066982294 -0.09369718 0.018884629 0.0034264326
-0.036412418 -0.037054323 0.0072349906 -0.08398196 0.026373146 0.13036408 0.07746066 -0.038540915
-0.06237904 0.031883657 -0.058860265 -0.03828995 0.011554763 0.055817842 -0.029699149 -0.05094184

fc3.bias f4 [24]
00000000: 0d68 803d 88ac 93bd 25d7 c03d 07af 93bd
00000010: 4ca2 ea3d 445b 5cbd 1e9f bebd dc8a 4fbd
00000020: 26d7 453c 99e8 6d3d d849 b1bc e57e 933c
00000030: b8f5 9cbc e173 523d 75fe 863d 830a 673d
00000040: 04c4 8a3d 82b3 3d3d 2aa8 d539 8fa7 fd3d
00000050: 269a aabd 8ddf c2bc d7ba 933d 1925 31bd
0.06269846 -0.07210642 0.094160356 -0.07211118 0.11456737 -0.053797975 -0.09307693 -0.050669536
0.012075221 0.05808315 -0.021641657 0.018004844 -0.019160137 0.051380042 0.065915026 0.05640651
0.06775668 0.04631377 0.00040751818 0.12385475 -0.08330183 -0.023788238 0.07213371 -0.04324827

exp_avg f4 [128, 24]
00000000: 0000 0000 0000 0000 0000 0000 0000 0000
00000010: 0000 0000 0000 0000 0000 0000 0000 0000
00000020: 0000 0000 0000 0000 0000 0000 0000 0000
00000030: 0000 0000 0000 0000 0000 0000 0000 0000
00000040: 0000 0000 0000 0000 0000 0000 0000 0000
00000050: 0000 0000 0000 0000 0000 0000 0000 0000
00000060: 0000 0000 0000 0000 0000 0000 0000 0000
00000070: 0000 0000 0000 0000 0000 0000 0000 0000
00000080: 0000 0000 0000 0000 0000 0000 0000 0000
00000090: 0000 0000 0000 0000 0000 0000 0000 0000
000000a0: 0000 0000 0000 0000 0000 0000 0000 0000
000000b0: 0000 0000 0000 0000 0000 0000 0000 0000
000000c0: 0000 0000 0000 0000 0000 0000 0000 0000
000000d0: 0000 0000 0000 0000 0000 0000 0000 0000
000000e0: 0000 0000 0000 0000 0000 0000 0000 0000
000000f0: 0000 0000 0000 0000 0000 0000 0000 0000
00000100: 0000 0000 0000 0000 0000 0000 0000 0000
00000110: 0000 0000 0000 0000 0000 0000 0000 0000
00000120: 0000 0000 0000 0000 0000 0000 0000 0000
00000130: 0000 0000 0000 0000 0000 0000 0000 0000
00000140: 0000 0000 0000 0000 0000 0000 0000 0000
00000150: 0000 0000 0000 0000 0000 0000 0000 0000
00000160: 0000 0000 0000 0000 0000 0000 0000 0000
00000170: 0000 0000 0000 0000 0000 0000 0000 0000
00000180: ca04 c1b6 e6cd 06b7 0117 2db7 ca62 53b7
00000190: c1a8 79b7 a4fa 8fb7 021f a3b7 9d46 b6b7
000001a0: ea68 c9b7 6c8c dcb7 55b6 efb7 ba6b 01b8
000001b0: 6101 0bb8 c390 14b8 c225 1eb8 dfbb 27b8
000001c0: 7e47 31b8 a3d8 3ab8 82f5 96b8 e8f9 11b8
000001d0: b8fd 88b8 b8fd 88b8 b8fd 88b8 b8fd 88b8
000001e0: 3df0 d3b6 5d83 23b7 8511 5db7 484d 8bb7
000001f0: 4f14 a8b7 0fdb c4b7 00a1 e1b7 4f64 feb7
00000200: 8e95 0db8 aff8 1bb8 335b 2ab8 7dc0 38b8
00000210: 5622 47b8 0b86 55b8 9be6 63b8 aa48 72b8
00000220: 0a57 80b8 ea87 87b8 7b97 47b9 a47f 17b8
00000230: 2244 c2b8 2244 c2b8 2244 c2b8 2244 c2b8
00000240: 20bc 47b3 a67e 0835 8abf 8e35 d23a d935
00000250: d5dc 1136 8e1c 3736 2869 5c36 f6cf 8036
00000260: 226d 9336 630d a636 08b4 b836 5148 cb36
00000270: e9ec dd36 8495 f036 5498 0137 03e4 0a37
00000280: bb33 1437 9086 1d37 3808 3137 1883 cc36
00000290: 50c0 5037 50c0 5037 50c0 5037 50c0 5037
000002a0: 0000 0000 0000 0000 0000 0000 0000 0000
000002b0: 0000 0000 0000 0000 0000 0000 0000 0000
000002c0: 0000 0000 0000 0000 0000 0000 0000 0000
000002d0: 0000 0000 0000 0000 0000 0000 0000 0000
000002e0: 0000 0000 0000 0000 0000 0000 0000 0000
000002f0: 0000 0000 0000 0000 0000 0000 0000 0000
00000300: 0fcb 30b7 310b 76b7 b8a3 9db7 d745 c0b7
00000310: 4fe9 e2b7 4dc1 02b8 3015 14b8 3665 25b8
00000320: 2ab2 36b8 b507 48b8 e153 59b8 6ba1 6ab8
00000330: a4f3 7bb8 f7a0 86b8 4f43 8fb8 b7f0 97b8
00000340: 799a a0b8 d83f a9b8 04dc 98b8 527f 63b9
00000350: 3471 f8b8 3471 f8b8 3471 f8b8 3471 f8b8
00000360: 0000 0000 0000 0000 0000 0000 0000 0000
00000370: 0000 0000 0000 0000 0000 0000 0000 0000
00000380: 0000 0000 0000 0000 0000 0000 0000 0000
00000390: 0000 0000 0000 0000 0000 0000 0000 0000
000003a0: 0000 0000 0000 0000 0000 0000 0000 0000
000003b0: 0000 0000 0000 0000 0000 0000 0000 0000
000003c0: 487e 2536 5121 5436 3f60 8136 06af 9836
000003d0: bbfd af36 464d c736 f693 de36 1400 f636
000003e0: 6c93 0637 b23a 1237 34ea 1d37 5496 2937
000003f0: d041 3537 58e5 4037 b47c 4c37 8e43 5837
0.0 0.0 0.0 0.0 0.0 0.0 0.0 0.0
0.0 0.0 0.0 0.0 0.0 0.0 0.0 0.0
0.0 0.0 0.0 0.0 0.0 0.0 0.0 0.0
0.0 0.0 0.0 0.0 0.0 0.0 0.0 0.0
0.0 0.0 0.0 0.0 0.0 0.0 0.0 0.0
0.0 0.0 0.0 0.0 0.0 0.0 0.0 0.0
0.0 0.0 0.0 0.0 0.0 0.0 0.0 0.0
0.0 0.0 0.0 0.0 0.0 0.0 0.0 0.0
0.0 0.0 0.0 0.0 0.0 0.0 0.0 0.0
0.0 0.0 0.0 0.0 0.0 0.0 0.0 0.0
0.0 0.0 0.0 0.0 0.0 0.0 0.0 0.0
0.0 0.0 0.0 0.0 0.0 0.0 0.0 0.0
-5.7524057e-06 -8.034962e-06 -1.031696e-05 -1.2599581e-05 -1.4880848e-05 -1.7163642e-05 -1.9445553e-05 -2.1728973e-05
-2.4009922e-05 -2.6291433e-05 -2.8575925e-05 -3.0856325e-05 -3.3141467e-05 -3.542077e-05 -3.77053e-05 -3.999087e-05
-4.226667e-05 -4.4547614e-05 -7.198287e-05 -3.4803437e-05 -6.532244e-05 -6.532244e-05 -6.532244e-05 -6.532244e-05
-6.3162574e-06 -9.7461425e-06 -1.3176706e-05 -1.6606078e-05 -2.0036618e-05 -2.3467028e-05 -2.6897062e-05 -3.032587e-05
-3.3756303e-05 -3.7186484e-05 -4.0616094e-05 -4.4048287e-05 -4.7477275e-05 -5.0907995e-05 -5.4335786e-05 -5.776497e-05
-6.119728e-05 -6.4626176e-05 -0.0001903455 -3.612008e-05 -9.2633316e-05 -9.2633316e-05 -9.2633316e-05 -9.2633316e-05
-4.6504397e-08 5.0848246e-07 1.063557e-06 1.6184879e-06 2.1735225e-06 2.7285746e-06 3.2843764e-06 3.838907e-06
4.393646e-06 4.948744e-06 5.5045857e-06 6.05829e-06 6.613893e-06 7.1699633e-06 7.724466e-06 8.278529e-06
8.833532e-06 9.3892595e-06 1.0551936e-05 6.094935e-06 1.2442542e-05 1.2442542e-05 1.2442542e-05 1.2442542e-05
0.0 0.0 0.0 0.0 0.0 0.0 0.0 0.0
0.0 0.0 0.0 0.0 0.0 0.0 0.0 0.0
0.0 0.0 0.0 0.0 0.0 0.0 0.0 0.0
-1.0537696e-05 -1.4665348e-05 -1.8792096e-05 -2.2920705e-05 -2.7049942e-05 -3.117444e-05 -3.5305682e-05 -3.9433326e-05
-4.355811e-05 -4.7690894e-05 -5.181495e-05 -5.594028e-05 -6.006997e-05 -6.4196e-05 -6.8313086e-05 -7.245078e-05
-7.658167e-05 -8.07044e-05 -7.288906e-05 -0.00021695837 -0.00011846647 -0.00011846647 -0.00011846647 -0.00011846647
0.0 0.0 0.0 0.0 0.0 0.0 0.0 0.0
0.0 0.0 0.0 0.0 0.0 0.0 0.0 0.0
0.0 0.0 0.0 0.0 0.0 0.0 0.0 0.0
2.4660421e-06 3.1609854e-06 3.855704e-06 4.5503284e-06 5.2449445e-06 5.939658e-06 6.6333405e-06 7.3313804e-06
8.021347e-06 8.715944e-06 9.412459e-06 1.0108186e-05 1.0803764e-05 1.149749e-05 1.2188382e-05 1.2890332e-05

exp_avg_sq f4 [128, 24]
00000000: 0000 0000 0000 0000 0000 0000 0000 0000
00000010: 0000 0000 0000 0000 0000 0000 0000 0000
00000020: 0000 0000 0000 0000 0000 0000 0000 0000
00000030: 0000 0000 0000 0000 0000 0000 0000 0000
00000040: 0000 0000 0000 0000 0000 0000 0000 0000
00000050: 0000 0000 0000 0000 0000 0000 0000 0000
00000060: 0000 0000 0000 0000 0000 0000 0000 0000
00000070: 0000 0000 0000 0000 0000 0000 0000 0000
00000080: 0000 0000 0000 0000 0000 0000 0000 0000
00000090: 0000 0000 0000 0000 0000 0000 0000 0000
000000a0: 0000 0000 0000 0000 0000 0000 0000 0000
000000b0: 0000 0000 0000 0000 0000 0000 0000 0000
000000c0: 0000 0000 0000 0000 0000 0000 0000 0000
000000d0: 0000 0000 0000 0000 0000 0000 0000 0000
000000e0: 0000 0000 0000 0000 0000 0000 0000 0000
000000f0: 0000 0000 0000 0000 0000 0000 0000 0000
00000100: 0000 0000 0000 0000 0000 0000 0000 0000
00000110: 0000 0000 0000 0000 0000 0000 0000 0000
00000120: 0000 0000 0000 0000 0000 0000 0000 0000
00000130: 0000 0000 0000 0000 0000 0000 0000 0000
00000140: 0000 0000 0000 0000 0000 0000 0000 0000
00000150: 0000 0000 0000 0000 0000 0000 0000 0000
00000160: 0000 0000 0000 0000 0000 0000 0000 0000
00000170: 0000 0000 0000 0000 0000 0000 0000 0000
00000180: 7382 f538 ca4e b439 c22a 363a 2e5d 993a
00000190: 1feb e73a b95f 233b dbec 5a3b 844e 8d3b
000001a0: 4538 b13b 4633 d93b 02a0 023c 39af 1a3c
000001b0: 1ec7 343c dde7 503c 7d11 6f3c c9a1 873c
000001c0: 46bf 983c 33e1 aa3c 2161 c63c 8269 ee3c
000001d0: b628 293d b628 293d b628 293d b628 293d
000001e0: ae3d e739 c353 a73a 5a50 283b ac6d 8d3b
000001f0: f7a4 d53b 7867 163c 5b75 493c 17fe 813c
00000200: 47fe a23c caba c73c 0d34 f03c cc34 0e3d
00000210: f62d 263d 5b05 403d eeba 5b3d e94e 793d
00000220: 8660 8c3d ad08 9d3d 6f6f b63d c131 dc3d
00000230: 6e8a 1b3e 6e8a 1b3e 6e8a 1b3e 6e8a 1b3e
00000240: 57a0 da38 c06c 8c39 13d0 073a fa20 603a
00000250: a494 a73a 4174 ea3a da57 1c3b 4723 493b
00000260: 8a9c 7b3b e6e1 993b 60cc b83b d48d da3b
00000270: 1426 ff3b a44a 133c 986d 283c 23fc 3e3c
00000280: 1ef6 563c 8a5b 703c b1c5 8a3c a384 a63c
00000290: ff7d ef3c ff7d ef3c ff7d ef3c ff7d ef3c
000002a0: 0000 0000 0000 0000 0000 0000 0000 0000
000002b0: 0000 0000 0000 0000 0000 0000 0000 0000
000002c0: 0000 0000 0000 0000 0000 0000 0000 0000
000002d0: 0000 0000 0000 0000 0000 0000 0000 0000
000002e0: 0000 0000 0000 0000 0000 0000 0000 0000
000002f0: 0000 0000 0000 0000 0000 0000 0000 0000
00000300: 3a58 0e39 569b ba39 36e1 343a 4728 953a
00000310: d3cd de3a c5b0 1b3b 8871 4f3b a154 853b
00000320: f4ab a63b d1be cb3b f38c f43b 728b 103c
00000330: 04ae 283c 8aae 423c 8e8c 5e3c 9248 7c3c
00000340: 07f1 8d3c b4ac 9e3c 88bd b63c b3c4 db3c
00000350: 2181 1e3d 2181 1e3d 2181 1e3d 2181 1e3d
00000360: 0000 0000 0000 0000 0000 0000 0000 0000
00000370: 0000 0000 0000 0000 0000 0000 0000 0000
00000380: 0000 0000 0000 0000 0000 0000 0000 0000
00000390: 0000 0000 0000 0000 0000 0000 0000 0000
000003a0: 0000 0000 0000 0000 0000 0000 0000 0000
000003b0: 0000 0000 0000 0000 0000 0000 0000 0000
000003c0: dc93 2f39 06a7 e939 c056 613a 55b7 b83a
000003d0: d946 093b 3117 3f3b afcc 7d3b b4b3 a23b
000003e0: 8ff3 ca3b 01a6 f73b 8865 143c 6731 2f3c
000003f0: 9036 4c3c bb74 6b3c 5276 863c dc4e 983c
0.0 0.0 0.0 0.0 0.0 0.0 0.0 0.0
0.0 0.0 0.0 0.0 0.0 0.0 0.0 0.0
0.0 0.0 0.0 0.0 0.0 0.0 0.0 0.0
0.0 0.0 0.0 0.0 0.0 0.0 0.0 0.0
0.0 0.0 0.0 0.0 0.0 0.0 0.0 0.0
0.0 0.0 0.0 0.0 0.0 0.0 0.0 0.0
0.0 0.0 0.0 0.0 0.0 0.0 0.0 0.0
0.0 0.0 0.0 0.0 0.0 0.0 0.0 0.0
0.0 0.0 0.0 0.0 0.0 0.0 0.0 0.0
0.0 0.0 0.0 0.0 0.0 0.0 0.0 0.0
0.0 0.0 0.0 0.0 0.0 0.0 0.0 0.0
0.0 0.0 0.0 0.0 0.0 0.0 0.0 0.0
0.000117068084 0.00034390978 0.00069491204 0.0011700743 0.0017693973 0.0024928881 0.0033405337 0.0043123383
0.005408319 0.0066284267 0.007972719 0.00944119 0.011033801 0.012750593 0.014591572 0.016556637
0.018645894 0.020859336 0.024216237 0.029103044 0.04129859 0.04129859 0.04129859 0.04129859
0.00044105708 0.0012766052 0.002568266 0.0043160524 0.0065199095 0.009179942 0.012296046 0.01586823
0.01989664 0.02438106 0.029321695 0.03471832 0.040571176 0.046880107 0.053645067 0.06086627
0.06854348 0.076676704 0.08907973 0.10751677 0.15189525 0.15189525 0.15189525 0.15189525
0.00010424916 0.00026783906 0.0005180847 0.0008549836 0.0012785387 0.001788743 0.0023856075 0.0030691193
0.0038392865 0.0046961186 0.005639598 0.0066697393 0.0077865217 0.008989964 0.010280035 0.011656794
0.013120202 0.014670262 0.01693997 0.020326918 0.029234884 0.029234884 0.029234884 0.029234884
0.0 0.0 0.0 0.0 0.0 0.0 0.0 0.0
0.0 0.0 0.0 0.0 0.0 0.0 0.0 0.0
0.0 0.0 0.0 0.0 0.0 0.0 0.0 0.0
0.00013575042 0.0003559242 0.0006900014 0.0011379801 0.0016998596 0.0023756486 0.0031653363 0.0040689264
0.0050864164 0.0062178154 0.0074630915 0.008822309 0.010295395 0.011882434 0.013583316 0.0153981615
0.017326845 0.01936946 0.022307172 0.026827192 0.038697366 0.038697366 0.038697366 0.038697366
0.0 0.0 0.0 0.0 0.0 0.0 0.0 0.0
0.0 0.0 0.0 0.0 0.0 0.0 0.0 0.0
0.0 0.0 0.0 0.0 0.0 0.0 0.0 0.0
0.00016744382 0.00044565665 0.00085959956 0.0014092723 0.002094677 0.002915811 0.0038726737 0.00496527
0.006193585 0.007557631 0.00905741 0.010692931 0.012464181 0.014371092 0.016413841 0.01859229

exp_avg f4 [128]
00000000: 0000 0000 0000 0000 0000 0000 0000 0000
00000010: 8a57 2fb6 fca1 78b6 159f 0535 0000 0000
00000020: 2cfb 9eb6 0000 0000 e6c8 6735 0000 0000
00000030: 1566 abb5 0000 0000 8142 7c36 ee87 adb5
00000040: 0400 0000 58f1 07b7 0000 0000 5ec4 3cb6
00000050: 0000 0000 0400 0000 d95a 2e36 a0c9 0e38
00000060: 922b bc34 0000 0000 0400 0000 40d6 09b4
00000070: 6010 89b6 0c29 ad35 02ff 92b5 595d bc36
00000080: 0000 0000 0000 0000 3f2c 8eb6 0000 0000
00000090: 0000 0000 0000 0000 8e6d b737 e6b5 0db5
000000a0: 485d 0834 0000 0000 8322 c8b4 0000 0000
000000b0: 0000 0000 1040 c6b5 0000 0000 0400 0000
000000c0: 6a6e 8cb6 0000 0000 8c7b e435 0000 0000
000000d0: 73ba c036 3f07 b8b5 0000 0000 9049 a535
000000e0: 0000 0000 9d9c fbb6 0000 0000 966e 81b6
000000f0: 4635 04b6 0000 0000 0000 0000 0400 0000
00000100: 0000 0000 0000 0000 0000 0000 184f d935
00000110: 0000 0000 0000 0000 0000 0000 0000 0000
00000120: 0000 0000 0000 0000 75df 9cb5 8608 e636
00000130: 0400 0000 2854 1cb7 ccbf 9834 0000 0000
00000140: 7544 2fb7 0000 0000 0000 0000 5fee 4837
00000150: 006a 51b4 144e 8837 06d9 fc36 ee8b a7b6
00000160: 4a97 7c35 16ea 19b4 cf3a 9fb6 1acc 8837
00000170: 0000 0000 0000 0000 6a10 f235 83d0 9636
00000180: 8b5a aab6 0000 0000 0000 0000 0000 0000
00000190: 3e3c 1537 0000 0000 3194 ca36 200c 88b4
000001a0: ff5a e9b5 7ded 0e36 0000 0000 532b 9bb5
000001b0: 0000 0000 0000 0000 0000 0000 a780 a835
000001c0: 0400 0000 649c 5935 3548 b5b6 0000 0000
000001d0: 0000 0000 7e11 38b7 0000 0000 7921 f336
000001e0: 6349 6cb6 0000 0000 0000 0000 64c9 1f32
000001f0: 0c45 02b6 adf5 95b5 aa84 1a36 0000 0000
0.0 0.0 0.0 0.0 -2.6127987e-06 -3.7049167e-06 4.9777856e-07 0.0
-4.738007e-06 0.0 8.634655e-07 0.0 -1.2770203e-06 0.0 3.7589637e-06 -1.2929065e-06
6e-45 -8.102819e-06 0.0 -2.8128484e-06 0.0 6e-45 2.59809e-06 3.4043216e-05
3.504943e-07 0.0 6e-45 -1.2837063e-07 -4.0848245e-06 1.2901451e-06 -1.0952065e-06 5.6137037e-06
0.0 0.0 -4.2370807e-06 0.0 0.0 0.0 2.1866315e-05 -5.279129e-07
1.2699923e-07 0.0 -3.7278014e-07 0.0 0.0 -1.4770794e-06 0.0 6e-45
-4.185179e-06 0.0 1.7023281e-06 0.0 5.7437514e-06 -1.3711177e-06 0.0 1.2314867e-06
0.0 -7.498615e-06 0.0 -3.8573735e-06 -1.9700542e-06 0.0 0.0 6e-45
0.0 0.0 0.0 1.6190779e-06 0.0 0.0 0.0 0.0
0.0 0.0 -1.168794e-06 6.8555264e-06 6e-45 -9.317919e-06 2.8451757e-07 0.0
-1.0446752e-05 0.0 0.0 1.1976429e-05 -1.9503204e-07 1.6248821e-05 7.53545e-06 -4.993278e-06
9.409747e-07 -1.4334395e-07 -4.7454155e-06 1.6307506e-05 0.0 0.0 1.8035182e-06 4.4946223e-06
-5.0769354e-06 0.0 0.0 0.0 8.895118e-06 0.0 6.037321e-06 -2.5340796e-07
-1.7386336e-06 2.1297885e-06 0.0 -1.1561009e-06 0.0 0.0 0.0 1.2554418e-06
6e-45 8.106638e-07 -5.4026264e-06 0.0 0.0 -1.0971327e-05 0.0 7.245861e-06
-3.5209457e-06 0.0 0.0 9.300809e-09 -1.94117e-06 -1.1172866e-06 2.302501e-06 0.0

exp_avg_sq f4 [128]
00000000: 0000 0000 0000 0000 0000 0000 0000 0000
00000010: 2693 8a38 7cd6 7e39 1931 4438 0000 0000
00000020: d4d8 8138 0000 0000 a0b3 9d38 0000 0000
00000030: 291c a838 0000 0000 0274 fb38 e620 ea38
00000040: 4058 db37 4897 e636 0000 0000 9a18 cd38
00000050: 0000 0000 fd20 0a31 d641 cf38 be79 d338
00000060: 53df 9b37 0000 0000 7fc5 0c37 10c7 c537
00000070: 0a85 c938 60a5 af38 af17 8637 a5ad 2e39
00000080: 0000 0000 0000 0000 99da 9e38 0000 0000
00000090: 0000 0000 0000 0000 f55d ae38 8c3f ec34
000000a0: bfac a038 0000 0000 3cab ea38 0000 0000
000000b0: 0000 0000 729a bd37 0000 0000 3e12 9133
000000c0: 1250 ae38 0000 0000 4b38 6439 0000 0000
000000d0: 171e 1e37 2fe3 8f38 0000 0000 c5ed 1338
000000e0: 0000 0000 e9c4 9237 0000 0000 8671 3638
000000f0: 582e 0f39 0000 0000 0000 0000 bd52 1a36
00000100: 0000 0000 0000 0000 0000 0000 66f2 1c39
00000110: 0000 0000 0000 0000 0000 0000 0000 0000
00000120: 0000 0000 0000 0000 b975 4338 8ae6 2638
00000130: 0101 3730 9927 5638 32b1 0e39 0000 0000
00000140: 529d 8037 0000 0000 0000 0000 a77b 8b37
00000150: f0c1 0738 8aca 9037 bd8d 0339 f44f 5239
00000160: 87b7 0c39 a7b9 0238 c39d e138 2fba d238
00000170: 0000 0000 0000 0000 322f 0738 cf84 7438
00000180: 5831 7338 0000 0000 0000 0000 0000 0000
00000190: a235 c037 0000 0000 b330 9937 5ca0 d836
000001a0: 7f40 0538 023a fa38 0000 0000 338d a038
000001b0: 0000 0000 0000 0000 0000 0000 48a6 3538
000001c0: f131 1b37 967c 0138 2593 4438 0000 0000
000001d0: 0000 0000 b4ec 8c38 0000 0000 89fa 1338
000001e0: 560b b339 0000 0000 0000 0000 2ce1 c438
000001f0: 0895 ad38 04a4 9c38 46bf 4838 0000 0000
0.0 0.0 0.0 0.0 6.607761e-05 0.0002430323 4.6775767e-05 0.0
6.191587e-05 0.0 7.519801e-05 0.0 8.0161095e-05 0.0 0.00011990221 0.00011164117
2.6147929e-05 6.8721456e-06 0.0 9.779744e-05 0.0 2.0100395e-09 9.882792e-05 0.0001008394
1.8581433e-05 0.0 8.390633e-06 2.3576926e-05 9.609207e-05 8.375454e-05 1.5985073e-05 0.00016658621
0.0 0.0 7.574744e-05 0.0 0.0 0.0 8.3144674e-05 4.4004662e-07
7.661571e-05 0.0 0.000111898844 0.0 0.0 2.2602475e-05 0.0 6.755407e-08
8.311881e-05 0.0 0.00021764745 0.0 9.42454e-06 6.8610876e-05 0.0 3.526897e-05
0.0 1.749625e-05 0.0 4.349791e-05 0.00013654807 0.0 0.0 2.2995948e-06
0.0 0.0 0.0 0.0001496762 0.0 0.0 0.0 0.0
0.0 0.0 4.660126e-05 3.979219e-05 6.657644e-10 5.1058454e-05 0.00013608186 0.0
1.5332047e-05 0.0 0.0 1.6627671e-05 3.2367127e-05 1.7260452e-05 0.00012545935 0.00020056946
0.0001341981 3.1167318e-05 0.000107582215 0.0001004826 0.0 0.0 3.2230462e-05 5.829782e-05
5.798167e-05 0.0 0.0 0.0 2.2913158e-05 0.0 1.8261699e-05 6.45597e-06
3.1769738e-05 0.00011931734 0.0 7.655695e-05 0.0 0.0 0.0 4.3308624e-05
9.250348e-06 3.0872026e-05 4.686708e-05 0.0 0.0 6.7198096e-05 0.0 3.528086e-05
0.00034149986 0.0 0.0 9.38795e-05 8.277042e-05 7.46921e-05 4.7861853e-05 0.0

exp_avg f4 [64, 128]
00000000: 0000 0000 0000 0000 0000 0000 0000 0000
00000010: 94bc 21b8 4b2c 9637 7d64 8bb7 0000 0000
00000020: f01b 60b7 0000 0000 2161 f837 0000 0000
00000030: 506b f635 0000 0000 d002 da35 9126 7cb7
00000040: 0400 0080 617b b3b7 0000 0000 5f40 bf37
00000050: 0000 0000 0400 0000 b959 b637 c5b6 46b7
00000060: 88bb b7b6 0000 0000 0400 0080 a694 da37
00000070: c81d 52b6 4ec7 2e37 882c ff37 e573 3337
00000080: 0000 0000 0000 0000 dc29 f836 0000 0000
00000090: 0000 0000 0000 0000 e5e5 61b8 0400 0080
000000a0: 844a 0537 0000 0000 69d1 00b8 0000 0000
000000b0: 0000 0000 9866 ecb6 0000 0000 0400 0080
000000c0: b310 05b7 0000 0000 fcd7 9d36 0000 0000
000000d0: 1465 9fb6 981e 40b6 0000 0000 22c9 1db7
000000e0: 0000 0000 0d3a 29b8 0000 0000 346e 09b7
000000f0: 088b d836 0000 0000 0000 0000 0400 0080
00000100: 0000 0000 0000 0000 0000 0000 101e d637
00000110: 0000 0000 0000 0000 0000 0000 0000 0000
00000120: 0000 0000 0000 0000 6292 12b7 24f1 5c35
00000130: 0400 0000 0030 32b5 86ff 9eb7 0000 0000
00000140: 53ba bdb6 0000 0000 0000 0000 7b7d bf37
00000150: ee74 b037 d8d0 8e37 a9b7 e6b6 9020 8fb5
00000160: 64ec b5b6 9a8f 9d36 7174 03b8 e471 b2b8
00000170: 0000 0000 0000 0000 183e b8b6 175f 3b37
00000180: 46e2 5e37 0000 0000 0000 0000 0000 0000
00000190: bb26 2538 0000 0000 0573 ef37 73ce aa96
000001a0: c69a b8b7 6800 6e37 0000 0000 099b b437
000001b0: 0000 0000 0000 0000 0000 0000 94ca abb7
000001c0: 0400 0080 b04c 2f35 6cb3 07b8 0000 0000
000001d0: 0000 0000 1967 2fb8 0000 0000 f6da 8737
000001e0: b55e d6b7 0000 0000 0000 0000 008c cd34
000001f0: 7f16 90b7 837c 8837 20b6 ab35 0000 0000
00000200: 0000 0000 0000 0000 0000 0000 0000 0000
00000210: ff00 c637 626a 82b7 0865 d936 0000 0000
00000220: c5e2 0837 0000 0000 241f 07b8 0000 0000
00000230: ab40 edb6 0000 0000 0acf 3fb7 5830 11b6
00000240: 0400 0080 fbfa 8237 0000 0000 4088 b0b7
00000250: 0000 0000 0400 0000 9851 abb7 dcf0 77b7
00000260: f826 2fb6 0000 0000 0400 0080 9e89 c4b7
00000270: 849f 64b6 56e6 98b7 d9e8 b5b7 4ef6 63b7
00000280: 0000 0000 0000 0000 f45e bfb6 0000 0000
00000290: 0000 0000 0000 0000 48e8 a537 0400 0000
000002a0: b4db 37b7 0000 0000 2eff 8c37 0000 0000
000002b0: 0000 0000 1023 0db5 0000 0000 0400 0000
000002c0: 29b1 d436 0000 0000 f6f7 22b7 0000 0000
000002d0: 7c69 54b6 e091 a8b4 0000 0000 902d 97b5
000002e0: 0000 0000 fdf3 ef37 0000 0000 14d4 43b6
000002f0: 02e9 8fb7 0000 0000 0000 0000 0400 0000
00000300: 0000 0000 0000 0000 0000 0000 9c06 dcb7
00000310: 0000 0000 0000 0000 0000 0000 0000 0000
00000320: 0000 0000 0000 0000 38a8 cb35 60b3 5db6
00000330: 0400 0000 3c3d f735 1829 0e37 0000 0000
00000340: ddf9 1037 0000 0000 0000 0000 b72a b6b7
00000350: 0d94 84b7 f710 8bb7 afa0 3bb6 846d 04b6
00000360: 5cec 0cb6 fc99 f0b6 78e8 9b37 a429 2b38
00000370: 0000 0000 0000 0000 a753 c2b6 1c34 4ab7
00000380: d2e1 36b7 0000 0000 0000 0000 0000 0000
00000390: 2903 08b8 0000 0000 0122 cdb7 85b0 c295
000003a0: 20d3 4c37 02d9 c0b7 0000 0000 e89f d2b7
000003b0: 0000 0000 0000 0000 0000 0000 dde4 2737
000003c0: 0400 0080 7052 f8b6 ade2 a337 0000 0000
000003d0: 0000 0000 b552 fb37 0000 0000 9225 7fb7
000003e0: 225e 7d37 0000 0000 0000 0000 6e29 feb6
000003f0: 8cab d836 ad94 30b7 c17f 0cb7 0000 0000
0.0 0.0 0.0 0.0 -3.856102e-05 1.7902019e-05 -1.6616885e-05 0.0
-1.3357945e-05 0.0 2.9609133e-05 0.0 1.835966e-06 0.0 1.6243084e-06 -1.502935e-05
-6e-45 -2.1395916e-05 0.0 2.279895e-05 0.0 6e-45 2.1737871e-05 -1.1844274e-05
-5.4756565e-06 0.0 -6e-45 2.6056845e-05 -3.1309773e-06 1.0417612e-05 3.0419105e-05 1.0696215e-05
0.0 0.0 7.395849e-06 0.0 0.0 0.0 -5.3858286e-05 -6e-45
7.944767e-06 0.0 -3.0712607e-05 0.0 0.0 -7.0452916e-06 0.0 -6e-45
-7.931306e-06 0.0 4.7041085e-06 0.0 -4.7503363e-06 -2.8628037e-06 0.0 -9.404759e-06
0.0 -4.0346804e-05 0.0 -8.191495e-06 6.453487e-06 0.0 0.0 -6e-45
0.0 0.0 0.0 2.5524787e-05 0.0 0.0 0.0 0.0
0.0 0.0 -8.7363605e-06 8.230729e-07 6e-45 -6.6380017e-07 -1.8954055e-05 0.0
-5.65433e-06 0.0 0.0 2.2827406e-05 2.1035285e-05 1.702497e-05 -6.875915e-06 -1.0663807e-06
-5.42174e-06 4.695682e-06 -3.134128e-05 -8.508915e-05 0.0 0.0 -5.490856e-06 1.1168208e-05
1.32849145e-05 0.0 0.0 0.0 3.9375136e-05 0.0 2.854458e-05 -2.759527e-25
-2.2006581e-05 1.4186e-05 0.0 2.1529866e-05 0.0 0.0 0.0 -2.0479121e-05
-6e-45 6.5304175e-07 -3.2353608e-05 0.0 0.0 -4.181927e-05 0.0 1.6195216e-05
-2.555489e-05 0.0 0.0 3.828609e-07 -1.7176613e-05 1.6270444e-05 1.2793498e-06 0.0
0.0 0.0 0.0 0.0 2.3603903e-05 -1.5546746e-05 6.4788655e-06 0.0
8.159031e-06 0.0 -3.221551e-05 0.0 -7.0706787e-06 0.0 -1.1432692e-05 -2.1634823e-06
-6e-45 1.561408e-05 0.0 -2.1044281e-05 0.0 6e-45 -2.0422784e-05 -1.4778427e-05
-2.6099715e-06 0.0 -6e-45 -2.3429104e-05 -3.4067498e-06 -1.822707e-05 -2.168531e-05 -1.3587602e-05
0.0 0.0 -5.7032976e-06 0.0 0.0 0.0 1.9777697e-05 6e-45
-1.0958804e-05 0.0 1.6808128e-05 0.0 0.0 -5.2577616e-07 0.0 6e-45
6.3387165e-06 0.0 -9.713685e-06 0.0 -3.1651862e-06 -3.1398577e-07 0.0 -1.1263637e-06
0.0 2.8604636e-05 0.0 -2.918071e-06 -1.7155431e-05 0.0 0.0 6e-45
0.0 0.0 0.0 -2.6229121e-05 0.0 0.0 0.0 0.0
0.0 0.0 1.5173637e-06 -3.3035976e-06 6e-45 1.8420756e-06 8.473427e-06 0.0
8.641245e-06 0.0 0.0 -2.1715981e-05 -1.5804568e-05 -1.6577991e-05 -2.7958702e-06 -1.973328e-06
-2.0999205e-06 -7.1704835e-06 1.8585692e-05 4.0808358e-05 0.0 0.0 -5.791389e-06 -1.2052271e-05
-1.0900623e-05 0.0 0.0 0.0 -3.242787e-05 0.0 -2.4453739e-05 -7.8634475e-26
1.2208504e-05 -2.2989236e-05 0.0 -2.5108413e-05 0.0 0.0 0.0 1.0007262e-05
-6e-45 -7.400573e-06 1.9536668e-05 0.0 0.0 2.9960045e-05 0.0 -1.5207932e-05
1.5101892e-05 0.0 0.0 -7.574613e-06 6.4572723e-06 -1.0525034e-05 -8.374395e-06 0.0
