models/RaceModels/classif_pos_3copies1to10_2HL_dropout0.5/model.pt (torch, 538269 bytes, 24 tensors)

fc1.weight f4 [128, 240]
00000000: aa51 8a3d fa14 023e 205b 9cbd b969 c439
00000010: a633 d03c 4ec0 ac3d c7d1 ccbc 4a14 9bbd
00000020: 1f18 03bd 6502 c33d 0300 dd3d 3af5 863d
00000030: 79fc 13be 527b 21be e55c 9c3d 10b4 763d
00000040: ed6b 2d3e 7fa7 d73d b58c 163d 21a1 1abd
00000050: 14de 57bf 30c3 3dbd 82b7 8cbe 827c 1bbe
00000060: 9565 573d 5d38 3c3c 4c94 a6bc 0383 333d
00000070: 5c87 b43c bde6 1cbd 7c10 fabc 85b5 ff3c
00000080: 052e 6b3d 25c0 093e 7e44 5f3e 254c 8e3d
00000090: 2c4b d4bd ced3 063d ea85 f7bd 1a5d 5b3d
000000a0: 5628 6e3d cc29 0cbd dcc9 e43c 6592 c2bd
000000b0: 8aba 69bf b684 cebc 3412 11be 47c3 1fbc
000000c0: 12e7 8cbd cb6d a73d c840 48bd 7cdb 683d
000000d0: 8bb6 7fbc 6461 70bd de91 07bd d6a7 1b3e
000000e0: 2726 0d3d b6d5 d33d d70b 1e3e a8c6 853c
000000f0: 46c6 84bd c592 923c 5f10 5ebd 5d82 973d
00000100: df5b 5b3c c0bf 61bd 290a ad3c 26fc 723c
00000110: 912e 41bf 697e fe3c df5c 99be 5185 c2bc
00000120: 8892 693b 5052 043e 71b7 e93c 1a34 6f3d
00000130: 7ee9 733c a287 6ebd ee2c 03be 0f37 d13d
00000140: 7564 4e3c e6db 4b3d 4b1c 193e f80d 803d
00000150: b404 8abd 7f42 0cbe a145 05be 73b4 ef3d
00000160: 5e85 f0bc 689a 01be a587 423d fdac 12bd
00000170: 4439 31bf 5f83 edbc d827 32be 7202 703d
00000180: d3aa d9bb ec5f 3b3d eacf 763c 3fe5 43bd
00000190: 05f9 103d 3cc7 56bc c96d 80be faa7 1c3e
000001a0: 7390 b1bc 8a4b 563d 2eb7 1f3e 4974 0b3e
000001b0: 1d06 f8bd 9788 25be f07d 96bd b240 bfbb
000001c0: 35bf 3b3d 9d0c b4bc 9502 903c c2bc aa3c
000001d0: 9436 4ebf f751 5a3d ac52 69be b399 88bc
000001e0: e587 c73c 97a5 47bd 5ecc 223e 957f 823d
000001f0: 9d81 613c 109f a23c 169a 39be 4ab3 393e
00000200: adad c0bd 015e a23d 8e49 acbb 2d46 f83d
00000210: ede1 acbd 9f89 f1bd ad9c e3bc d1b4 f9bb
00000220: afbd 8ebd a086 72bc dbad 373d 809c 10bd
00000230: d54a 22bf 627c af3d 8218 64be 07bf 063e
00000240: 49c8 213d d0d7 a6bd e920 e03d 67a7 493e
00000250: 6d72 96bd 2c4e 34bd 66c5 e7bd 1afc 4e3e
00000260: cfa1 40bd 264a c13d 1577 00be fed0 96bc
00000270: 55c0 103d 54d2 dabd 5f8c 313e 153d bd3a
00000280: abf4 38bd 19a7 1f3d c61a 2c3d dc08 b6bd
00000290: 1508 26bf 104d 86bd 8f9c bfbd d89e 693d
000002a0: 99fe a8bc f8a8 babd 0719 363e 0248 4a3e
000002b0: 568f 22be 2b96 07be c95b 01be cc6c 86bc
000002c0: 9d69 b8bd f8e0 1a3b fa61 a0bd 58c9 a53c
000002d0: 8a70 37bd 5f42 21bc aaee 513e f162 803d
000002e0: 7f0c fd3c 9f59 983d 5bb7 083d 6d15 82bd
000002f0: b2a5 05bf 24b1 d0bc 684f 8bbd 16c5 d53c
00000300: 744d 903d 86e3 c23c 80e3 8e3e fdee 0a3e
00000310: 9946 a3bd 81ea 59bd fb2c 12be 2c02 9ebd
00000320: d99e 0bbd b445 a53c 2d08 563e b636 d7bd
00000330: 9088 463d 890f e8bd 24ec a33d 7486 2abe
00000340: 95ea b1bc 5839 113e 71a5 103b bd76 23bd
00000350: 8813 18bf 91c4 2fbd 8acc a9bd a6f2 6cbe
00000360: 96c6 043d f63c f93c cb0c 773e 1d58 883e
00000370: 7ec5 673d dc21 fcbd 3149 abbd ab7b 52bd
00000380: 11c1 4dbd 0517 413d 5b47 103e a754 95bd
00000390: a394 923d e5ae 98be 7443 063e 12ce b5bd
000003a0: 422a 67bd 4298 e33d 200f a23d 732c 4c3d
000003b0: 3dbf 36bf 29bd 743d 1214 bcbd a7b3 93be
000003c0: a20d 0cbd 5e5e 1dbd ffa7 27bd 0d4e 03bd
000003d0: 0882 013d 91c5 1dbc 9ff6 673a f205 1a3d
000003e0: 55e6 b83c 7819 bf3c 6574 34bd b6c7 f93c
000003f0: 8f70 02bd 62fe 66bd 78e0 093d 87f1 60bd
0.067538574 0.12703314 -0.07634568 0.00037462803 0.025415253 0.08435117 -0.025002373 -0.07572229
-0.032005426 0.09521941 0.10791018 0.06589742 -0.1445178 -0.15769699 0.07634906 0.060230315
0.16935702 0.10529994 0.036755282 -0.03775132 -0.8432324 -0.046328723 -0.27483755 -0.15184215
0.05258711 0.011488047 -0.020334385 0.043826114 0.0220372 -0.038305987 -0.030525438 0.031214485
0.057416935 0.13452204 0.21803471 0.06948117 -0.103659004 0.032916836 -0.12086089 0.053555585
0.058143936 -0.034219548 0.027928285 -0.09500579 -0.9130026 -0.025209766 -0.141671 -0.009751148
-0.06880011 0.08175238 -0.048889905 0.05684994 -0.0156074865 -0.05868663 -0.033098094 0.15200743
0.034460213 0.103434965 0.15434204 0.016330078 -0.0648313 0.01789225 -0.05421483 0.07397912
0.013388603 -0.055114508 0.021123009 0.014830625 -0.7546168 0.031066136 -0.29953668 -0.02374521
0.0035640318 0.12922025 0.028529854 0.058399297 0.014887212 -0.05823482 -0.12810108 0.1021558
0.012597193 0.04977026 0.14952199 0.06252664 -0.06739178 -0.13697241 -0.13014843 0.1170434
-0.02936047 -0.12656558 0.047492642 -0.035809506 -0.69228005 -0.028993307 -0.17398012 0.058596082
-0.0066426783 0.045745775 0.015064219 -0.047826048 0.035393734 -0.013109025 -0.2508376 0.15298453
-0.021675324 0.052318133 0.15597221 0.13618578 -0.12110541 -0.16165386 -0.073482394 -0.0058365697
0.045836646 -0.02197867 0.017579356 0.02084196 -0.8055203 0.053300824 -0.22785443 -0.016674852
0.024356792 -0.048741903 0.15898272 0.063719906 0.013763812 0.019851238 -0.18125185 0.181348
-0.09408126 0.07928086 -0.005257792 0.1212276 -0.084415294 -0.11793827 -0.02778467 -0.007620432
-0.06969773 -0.014802605 0.044843536 -0.0353055 -0.63395435 0.08568646 -0.22274974 0.13158809
0.039497647 -0.08146632 0.10943777 0.19692765 -0.07346044 -0.044019863 -0.11316948 0.20213357
-0.047029313 0.09437971 -0.12545426 -0.018410202 0.035339672 -0.10684648 0.17338704 0.001443776
-0.04515521 0.038977716 0.04201772 -0.088884085 -0.6485608 -0.06557667 -0.09356033 0.05703625
-0.020629214 -0.091142595 0.17782985 0.19754031 -0.15874991 -0.13240878 -0.1263267 -0.0164093
-0.09004519 0.0023632627 -0.078311875 0.02023761 -0.04478506 -0.009842484 0.205012 0.062688716
0.030889748 0.07438969 0.033377986 -0.06351743 -0.52205956 -0.025475092 -0.06802255 0.026094954
0.07046023 0.023790132 0.27907944 0.1356773 -0.0797245 -0.053202156 -0.14274971 -0.07715258
-0.034087036 0.020174839 0.20901556 -0.10508482 0.04847008 -0.11331088 0.080040246 -0.16652852
-0.021718303 0.14182031 0.0022071267 -0.03990816 -0.594048 -0.04291207 -0.08290966 -0.23139438
0.03241595 0.030424576 0.24125974 0.26629725 0.056584828 -0.12311146 -0.083635695 -0.05138747
-0.05023295 0.047141094 0.1408972 -0.07291537 0.071572565 -0.29820934 0.13111669 -0.088771954
-0.056436785 0.11113025 0.07913041 0.049847078 -0.71385556 0.05975071 -0.091835156 -0.28848
-0.03419269 -0.038420074 -0.040931698 -0.032056857 0.031618148 -0.009629623 0.00088487 0.037603326
0.022570768 0.023327574 -0.044056315 0.030490737 -0.031845625 -0.056394942 0.033661336 -0.05491784

fc1.bias f4 [128]
00000000: 2d37 22bd 271f 493d e89f 413d 1d47 4dbd
00000010: 1c11 03bd 24df d8bc 29ba e2bc 5526 2d3d
00000020: 765d 4ebc 0f62 e3bb 4033 91bc f20b 64bc
00000030: 554b d9bd d5d4 463d c714 7ebd de7e 82bd
00000040: 0ca5 243c f106 b13c 62e7 63bd fe9d 713c
00000050: 0afc 84bc 3a10 493c d9e0 8ebd 442c a3bb
00000060: 3813 bb3c 70af edbc 5c9a 023c faa8 113d
00000070: b039 4b3d f785 693c 8394 bf3c fdfe 663d
00000080: 5bab b5bc b6fe 2a3d 45c8 453d 1e20 82bd
00000090: 552b 8ebd 676b 663d 561b 2a3d 1ecc bfbc
000000a0: 8223 383d d643 953c 0480 2ebd 64c5 42bd
000000b0: 1c29 85bd 757d 85bd 72d0 a83b f4be 4d3c
000000c0: b88f 793c 60ed 933c a343 ac3d 75b1 553d
000000d0: 90b8 b93c bb31 223d 3bef d8bc c1fb 6b3d
000000e0: e2a1 6dbd 0381 8f3b 4cd5 b03d 8809 483d
000000f0: e886 e63c 564b 753c 7106 183d 58f1 96bd
00000100: 37c9 863c 786e 87bd 2ab3 53bd ca0a ccbb
00000110: 84e9 8c3c 82c8 feb9 6983 56bd 06a4 82bc
00000120: d81a 31bc 4f1e 47bd bfa8 17bc a0f0 dd3c
00000130: 6bd8 5c3d 362c 35bd e8bf 22bd d7f6 75bc
00000140: a94e 48bd 1cd4 363d 38d1 34bd aa61 09bd
00000150: ae67 d43c be06 443d 00a6 a7bc 6361 4cbd
00000160: dcba d9bc acdf 1cbd fdb4 123d d5b0 023c
00000170: 0c34 92bd b712 81bd 6c16 ccbc 0f81 3abd
00000180: 44e4 febb 951f 1a3d 7b89 8cbd d8c3 7ebd
00000190: 377d a33c 59c2 7cbd 8b26 f4bc 641d 313d
000001a0: 3408 543c cfc6 c6b9 db1b a4bc baf8 8dbd
000001b0: c2ea d13d def8 8fbd 564b 0639 a7a0 75bd
000001c0: 8436 9dbc d341 5dbd 969a 813c b6bf 28bc
000001d0: 02f6 09bd 1ea4 b5bc 1989 cebb 9e61 42bc
000001e0: a336 31bd d96a 6dbd 2fed f03c fdb4 77bd
000001f0: f849 54bd 6843 713a c63e 043d 1d02 203d
-0.0396034 0.049101975 0.04727164 -0.050116647 -0.03199874 -0.02647359 -0.027676659 0.042272884
-0.012595525 -0.0069391797 -0.017724633 -0.013918864 -0.106100716 0.048542816 -0.062031534 -0.06371854
0.010049116 0.021609755 -0.055640586 0.014747141 -0.016233463 0.012271935 -0.0697648 -0.004979642
0.022836313 -0.02901432 0.007971372 0.03556154 0.049615562 0.014253131 0.023386246 0.05639552
-0.022176435 0.041746818 0.048286695 -0.06353782 -0.06941859 0.05625477 0.041529976 -0.02341276
0.044955738 0.018220823 -0.042602554 -0.047551528 -0.065019816 -0.0651807 0.0051518017 0.012557734
0.015232019 0.018057525 0.08411338 0.05217119 0.022671014 0.039598208 -0.026481261 0.057613138
-0.05801571 0.004379393 0.08634433 0.048837215 0.0281405 0.014971575 0.037115518 -0.073702514
0.016453369 -0.06612867 -0.051684536 -0.006226872 0.017201193 -0.00048596045 -0.052371416 -0.015947353
-0.010809623 -0.04861289 -0.009256541 0.027092278 0.05391733 -0.044231616 -0.039733797 -0.0150124645
-0.04890314 0.044635877 -0.04414484 -0.033540405 0.025928345 0.047857992 -0.020464897 -0.049897563
-0.02657836 -0.038299248 0.035817135 0.00797673 -0.071388334 -0.06302398 -0.024913035 -0.045533236
-0.007778676 0.037627775 -0.0686216 -0.06219849 0.019957168 -0.061708782 -0.029803535 0.04324092
0.012941409 -0.00037913627 -0.020032814 -0.069322065 0.102498546 -0.070298895 0.000128073 -0.059967663
-0.019191034 -0.054017853 0.015820783 -0.010299614 -0.033681877 -0.022172984 -0.0063029644 -0.011864094
-0.043264996 -0.057963226 0.029409973 -0.06047534 -0.051828355 0.0009203465 0.032286428 0.039064515

fc2.weight f4 [64, 128]
00000000: eebb fdbb 2ac8 543d 5658 f1bd defa aa3d
00000010: f1f8 883a 2c73 4ebd 74a5 4dbd 8723 11bd
00000020: 7a02 46bd 70c3 ca3d 323d 943c a325 6abd
00000030: 1831 b93c 0d3e 36be 67ef a3bb caba 37bd
00000040: 944c 783c dfe4 febc 605a 0dbc 8b0a 983d
00000050: 6ce9 4dbd 24af 4abe d0c6 9d3d d39f 033d
00000060: 3895 2f3c d09f d33b fb51 383d 5490 733c
00000070: 7195 bd3d 8b35 cbbd be9b 20bd 5e2b c738
00000080: 9bad 6c3c eaba c43d 7016 d5bc 8f66 01bd
00000090: aea6 c2bc 1e4b 0bbd 2380 86bd a4e6 c7bc
000000a0: aee9 913c 63b8 20bd a45f ac3a 9400 d33c
000000b0: e14c 8b3d d3f0 9bbd 503b aabc d01b 863c
000000c0: 6064 1e3e 66ba 8f3d 7f1f d8be ee48 2d3d
000000d0: 44ff b0be 4be7 bc3c 75be 2f3d ea02 e0bc
000000e0: 116a 85bd 55bf a9bd 0bd0 d83c 6685 013d
000000f0: d5e1 c33d 9eba 59bd ef01 8b3d 4a5f 6dbc
00000100: db20 88bd d8ce 0ebb fd28 5f3c ba2b 4e3d
00000110: 3773 b83d faf2 6dbd e58f 5f3c d77c 403c
00000120: 6196 2e3d 43fa 253c 4b26 4cbd de3c 94bd
00000130: 2a5c 643c 0c53 0e3d 4497 7c3d c34e 033c
00000140: 6267 a239 34c0 cdbc 49f7 a5bc 106f 26bd
00000150: 29b7 9d3d 853e ff3c 2c70 b8bc 01c9 89bc
00000160: fcf6 453e 1e04 7fbd b215 f33e e6bd 0e3f
00000170: 090a d43c 254b 203d 63b7 8bbc 5d28 87be
00000180: 9c15 8fbd f2eb 0dbc 2525 42bc 3dab 453c
00000190: a860 c0bd 53d5 93bd aa5e 933b 6d92 593c
000001a0: 264d 92bc d49b 083d bcc8 07bd 1728 193d
000001b0: 0f7c b3be 4fa6 1c3e adbb e43d 409b f2ba
000001c0: 0443 82bd 68f0 a13a 17f4 afbd c4f2 263e
000001d0: 5ecd 88bd fc4a 843d c4c0 5dbd 3138 a63d
000001e0: 7c71 a63d becc 7fbd e8b0 1f3d 09b8 2c3d
000001f0: 80ad a9bb 4063 173c 7770 4dbd d815 573c
00000200: 2901 9bbd c882 c6bb 56e4 99be a786 afbc
00000210: a774 97bc 9499 923d a87c b53c 7c71 4c3d
00000220: 139b 273e 0ddf c73d ee5c 55bd bfef 5ebd
00000230: e17b d4bd 183f 953d 5afb b03d 4d9f 063d
00000240: c0d1 e4ba 1282 a7bd 823d ef3c 9d28 67bd
00000250: 2295 983d 8933 0a3e f1d3 82bd dbde b13c
00000260: ba86 72bd e8b0 f83c e239 d9bc 4748 0b3d
00000270: ea6b 98bd aac4 873e 7dd5 05bd d050 64bc
00000280: 54ef 273d fe6d 20be 3a9f 30be 0c1e 48bc
00000290: ab0a 78bd fdb8 0e3e 7d4b 47bd 2432 01bd
000002a0: 68d7 febc 99ea 82bd 6c81 663d a866 71bc
000002b0: dede 393b e953 0b3d f15f 02be f65f 343d
000002c0: 1dc8 34bc a8c7 2abd fe86 edbe 2e22 5ebd
000002d0: 5a69 60be 8142 b63d d2b4 103c 0b19 bbba
000002e0: 059f 3abc bc26 84bb e04a 91be 98fc 993d
000002f0: 9025 7fbd 8aef 9b3d 3b7f 8a3d b8e8 753b
00000300: af3a d03c 09f3 0fbd a33a 973d 00f8 d2bb
00000310: 77dc a43d 2c16 823d 43b6 b3bd 788f f73b
00000320: 813f 7c3e 29b1 193d c42f cdbc 753e 7e3b
00000330: e51e 473d 58bb 6d3c f96d b2bd 3dcb 5e3d
00000340: 9a4a 403d 20c1 93bd 6494 a7bd 6491 a0bd
00000350: b3ea 5fbc 7cca 0fbd 92a1 19bc 07c2 683d
00000360: bbeb 0e3d 1b8d a3bd b57b 053e b52c b13e
00000370: 825d 04bd ee0f d7bc 7b0c a63d c821 89be
00000380: b542 be3d 2e1b d8bc a10c 2ebd c986 483b
00000390: b223 253d fc0d 293d 9925 83b9 bd6b 0cbd
000003a0: 5ba1 82bd 880a a2bd 91bc 22bc f945 fdbc
000003b0: 6c5b d3be 4f74 003e f337 d73d 3801 94bc
000003c0: 4c11 b33c 0c42 2fbd 2a63 a9bd 29a5 b5be
000003d0: 5c73 1f3d 22c0 ca3b a836 e63e 8a11 8c3d
000003e0: 15a1 173d 737a a3bc 08c8 5c3d 0700 a03d
000003f0: c0ae 5c3c 59c7 8b3d 4dc7 8f3d 509b 9d3c
-0.00774335 0.051948704 -0.11784427 0.0834863 0.0010450167 -0.050402805 -0.050206617 -0.035434272
-0.048342206 0.09900558 0.018095586 -0.0571648 0.022606418 -0.17797108 -0.005002904 -0.04485587
0.015154976 -0.031114994 -0.008627504 0.07423886 -0.050271437 -0.19793373 0.07703936 0.032134842
0.010716729 0.00645826 0.045000058 0.0148659535 0.09257019 -0.09922322 -0.039211027 9.497137e-05
0.014445688 0.096059635 -0.026011676 -0.031591948 -0.02376112 -0.034007184 -0.06567409 -0.02440197
0.017811622 -0.039238345 0.0013151062 0.025757112 0.06801773 -0.07614293 -0.020780236 0.016370684
0.15467978 0.070179746 -0.4221153 0.04230588 -0.34569752 0.023059508 0.042906243 -0.02734514
-0.06514371 -0.08288447 0.02646639 0.03162136 0.095645584 -0.053156488 0.06787478 -0.014488051
-0.06646892 -0.002179077 0.013620612 0.05033467 0.090063505 -0.05809305 0.013645147 0.011748514
0.04262388 0.010130468 -0.049841207 -0.07238172 0.013937989 0.03474717 0.061667696 0.008014384
0.00030976074 -0.025116064 -0.020259516 -0.04063326 0.07700951 0.031157741 -0.022514425 -0.016819479
0.19332498 -0.062259786 0.4747749 0.5575851 0.025883691 0.039134163 -0.017055219 -0.26397982
-0.069865435 -0.008662211 -0.011849676 0.012064752 -0.09393436 -0.07218423 0.004497369 0.0132795395
-0.017859053 0.033351734 -0.03315042 0.03739175 -0.35055587 0.15297817 0.11168609 -0.0018509403
-0.063604385 0.0012354972 -0.08591478 0.16303545 -0.06679796 0.06459615 -0.054138914 0.081161864
0.08127114 -0.062451117 0.03898707 0.042167697 -0.0051781535 0.009239972 -0.050156083 0.013127767
-0.07568581 -0.006058071 -0.3005702 -0.021426512 -0.018488241 0.07158199 0.022154167 0.049912915
0.1636775 0.097593404 -0.052090578 -0.05442786 -0.103751905 0.07287425 0.086416915 0.032866765
-0.001745753 -0.08179106 0.029204134 -0.056435216 0.0745032 0.13496222 -0.06388081 0.021712711
-0.059210517 0.030357793 -0.026516858 0.034004476 -0.07442458 0.2651723 -0.0326743 -0.013935283
0.040999725 -0.15666959 -0.1724824 -0.012214195 -0.06055705 0.13937755 -0.048655976 -0.03154196
-0.031108573 -0.06392402 0.05627577 -0.014733948 0.00283616 0.03401557 -0.12731911 0.044036828
-0.011034039 -0.041694313 -0.46392053 -0.054231815 -0.21915188 0.08899403 0.008832173 -0.0014274431
-0.011390452 -0.004032938 -0.28377438 0.075188816 -0.06229168 0.07614048 0.067625485 0.0037522744
0.025418608 -0.035143886 0.07384231 -0.0064382553 0.08049863 0.06351885 -0.08774998 0.0075549446
0.246336 0.03752247 -0.02504719 0.0038794552 0.048613448 0.014509998 -0.08712382 0.054393042
0.046946146 -0.0721457 -0.081826 -0.07840231 -0.0136667965 -0.035105214 -0.0093769 0.056825664
0.03489278 -0.07985898 0.13035472 0.3460442 -0.03231574 -0.026252713 0.08107849 -0.26783586
0.09290067 -0.026380148 -0.042492513 0.0030597916 0.040317245 0.041273102 -0.0002501428 -0.034282435
-0.06378432 -0.07912165 -0.009932653 -0.030917155 -0.41280687 0.12544368 0.10508718 -0.018066987
0.021858834 -0.042787597 -0.08270867 -0.3547757 0.038928375 0.006187455 0.44963574 0.06839283
0.037018854 -0.01995585 0.053901702 0.07812505 0.013469398 0.06825132 0.070204355 0.019239098

fc2.bias f4 [64]
00000000: ad3c 223d 70dd e3bc 9935 003d f779 f83d
00000010: c050 b835 9f3c a8bb bd80 243d 8f85 d73b
00000020: 054f 7439 a342 733d 20c2 633b ca12 ffbc
00000030: 47ad a63b ef3c 043c 4622 11bc d3e1 a23c
00000040: 1e95 923b 4ffd 1ebc 1898 05bc 01ac f23c
00000050: ab9e d5bb ac24 343d 6b4c e83c 4045 473c
00000060: 17d0 16bc 8b3c a63d 6bc2 593c ea5e b33c
00000070: 1d1e 9a3b e0fc 9a3d fc95 ad3c e7e4 f9bc
00000080: ac1a f0b9 5080 a03c 94d3 033d 92df 263d
00000090: 3f5f c53c 23ed 69bc e82b 23bc 434f 003c
000000a0: 0e6b c93d 8a7c b63c 49db 3cbc 86b1 96bb
000000b0: 71f6 ae3c eb00 34bb 87d4 b73b e234 d3bc
000000c0: f783 ca3c 5996 ae3d 8162 753d 129e da3c
000000d0: 0f80 2cbc 960e dabb 4299 ad3d 6806 25bb
000000e0: 2275 9e3d c77e 77bc 12cf 843d e91f e93c
000000f0: d577 573d 68d6 633d 70fc 863b bc99 aabb
0.039608646 -0.02781555 0.031301115 0.12132638 1.373257e-06 -0.0051341797 0.040161837 0.0065772007
0.0002329909 0.05938972 0.0034753159 -0.031136889 0.0050865742 0.008071168 -0.008858269 0.019883072
0.0044733426 -0.009703948 -0.008153938 0.029623033 -0.006519159 0.043980286 0.028356751 0.012162507
-0.009204886 0.081170164 0.013290982 0.021895844 0.004703297 0.07567763 0.021189682 -0.030504657
-0.0004579624 0.019592434 0.0321842 0.040740557 0.024093268 -0.014277729 -0.009959199 0.0078313975
0.09834872 0.022276182 -0.011526891 -0.004598799 0.021357747 -0.0027466367 0.005610052 -0.025782052
0.024721129 0.0852477 0.059908394 0.026686702 -0.010528578 -0.006654571 0.08476497 -0.002518082
0.07737185 -0.01510591 0.06484808 0.028457599 0.052604515 0.055624396 0.0041194484 -0.005206315

fc3.weight f4 [32, 64]
00000000: 18de 57be 854f dc3d 2bb3 28be 7193 15be
00000010: e707 4f3d bbc7 2ebc a6de eabe dcb0 16bf
00000020: 6963 903e be59 843e ecbc 233d 2547 a03d
00000030: c9a4 243b 4bef 40be bbd1 97bd 3a30 bf3c
00000040: e674 f43d f1ec 053d e284 9c3d 454b 373e
00000050: 48cc 9fbe 9dd0 9e3c 8083 8ebc 2e0b 3cbd
00000060: e763 ccbe cb6d 87bd b3f1 44bf 6faf 91be
00000070: 8f76 cbbd 67fb 4b3d c4ff aabd 365e 7e3d
00000080: 310f 533e b562 4abe 45e0 f9bd c2b7 eabe
00000090: f7a0 31be bcb4 ad3e a79c 143d ceee e1be
000000a0: 3636 4bbf 0ec3 f3bd af5f aa3e 80ed 843c
000000b0: 83bb 50be 8147 e4bd a827 073f e699 f5ba
000000c0: 410a 10be 5bf5 853e fa1c 383d e839 ac3d
000000d0: 6777 423c 0a15 203e b4c8 afbb ff14 a6b9
000000e0: 2639 8ebd fb9c cfbe d304 4f3d f08d 38bd
000000f0: f450 c63e 630e dcbd 5146 afbe 5d18 8c3e
00000100: b91a 303d 0e00 e63d 1c57 dfbd 572b a4be
00000110: 19b5 353d e83e 38bd 8d9a 7c3c 5914 55bc
00000120: 6141 113d 6fd4 6bbd 3fce 64be 8701 c83e
00000130: e363 c93e 2e3e 87bd b1a8 ca3d 0652 d43e
00000140: 213a 33be e2f5 313e d016 083f 9406 cbbd
00000150: 6c19 d63c b593 483e e0fe 823e a768 553c
00000160: d0a9 25bd fa1b 8cbe adae df3c 0222 2e3d
00000170: f40f db3e e113 eabd 99de 273e 0ad5 1b3f
00000180: 5b61 ac3e 0b23 99be deb3 8e3d 496e 2bbd
00000190: f659 d1bd 2c47 743e 9c86 cabd 35c8 0fbc
000001a0: 0b0d d4be 3fb4 70be fbdb f63c 08fc ed3e
000001b0: 6ee0 a63c 10ff 09be e980 a5bd eac0 ed3c
000001c0: 01e9 b53c 603e 223e 37e0 593d 1741 74bd
000001d0: 0464 99be 8432 cdbd 2ed7 333d 5ce6 053e
000001e0: 78a6 52be 0ad1 6dbd d8e3 5c3e 165a 70bc
000001f0: bbb1 05be 6584 90be 387c d63d 42f0 383e
00000200: 5a44 c73d 7a17 c3bd 37f4 82bd 823c dabc
00000210: 3058 81bd ed2e b73d 6957 ee3c 502c f33e
00000220: 5ffd 1cbe 95ab 9bbe 57a2 37bd 9699 043c
00000230: b10d 583d afc0 873e 04f7 a83d ee2f 333c
00000240: 98ea bcbb 045f a2b9 a044 403c 2e2a 4fbd
00000250: acf8 873e 1924 b03c 4f62 e23c 4115 07bd
00000260: e14e f83e c2bd 58bd 5130 c13e 681f 4a3e
00000270: 48f4 103c 49b1 d0bd f382 5b3d c7f6 6c3c
00000280: d377 563b 3151 b23d e28c a13c cb45 1b3f
00000290: 7fa7 033c 0c18 c2bd d7f2 28bd 7bcd 6b3e
000002a0: 85d0 963e e0f4 323e edc7 98be f9bd 41bd
000002b0: 8e85 ff3e 0932 763d 4b7a acbe 0675 413f
000002c0: 9d82 37bd 430d 27be 8caf aebc d7fa 33be
000002d0: f2fa 56bb bc4f b73d bce1 99bc 3b89 cdbd
000002e0: 272f 74bd 6a1d c53e 1411 91bd 0581 3dbd
000002f0: f8e6 acbe 7cb4 34bc 48b7 373d 569c 11be
00000300: cd01 023e d93c 85bd 39b3 91bd 31a3 a8be
00000310: 7bc6 823e cb2e 88bd 5d88 603d a13d 1bbe
00000320: fd60 1fbd de4c a5bd caa8 61bb 3f51 413c
00000330: 2b58 cebd e8c5 4ebd 8c8f 0e3f b1ce cf3d
00000340: 19f8 1b3e 28fd 1a3f 5cf2 483d 525f 4dbe
00000350: 46db 903e 1693 aabd aa75 b9bd e0ba 943d
00000360: db03 0a3d 8931 69be bd65 863d 9a39 50bd
00000370: e841 023e 2c6d 78be 1709 f43d 6f12 4d3d
00000380: 33ad e5bc 7602 2e3e e1f7 8fbc 9d62 2f3e
00000390: 53af d53d 6e45 ad3e 759c 77bb d917 dd3e
000003a0: fdb6 d0be cb02 393e 3125 aabd 3f50 64bc
000003b0: 778c 123e 83fd 56bd 2e9c 92be c196 553e
000003c0: d264 4abd 3216 c0bd 4d71 3bbe aea1 6fbd
000003d0: f32a 07be cb2e 453e 1706 35be 9499 cabd
000003e0: 6002 aebc 78c2 fbbd bd8f e63c 7ff4 c2bc
000003f0: 60cb 4abd 92d2 eebc 0dc7 893d ca42 04bd
-0.21080816 0.10757355 -0.16474597 -0.14607026 0.050544646 -0.010667737 -0.45872992 -0.58863616
0.28200844 0.25849718 0.03997509 0.0782607 0.0025122634 -0.18841283 -0.0741305 0.023338426
0.11936359 0.032696668 0.07642533 0.17899807 -0.31210542 0.019386584 -0.017396688 -0.0459091
-0.3991997 -0.06612738 -0.76931304 -0.28454158 -0.09934723 0.049800303 -0.08349565 0.062101565
0.20611264 -0.19764216 -0.12200979 -0.4584332 -0.1734656 0.33926952 0.036282208 -0.44127506
-0.79379594 -0.11902438 0.33276126 0.01622653 -0.2038403 -0.11146451 0.52794886 -0.0018737882
-0.14066412 0.26163754 0.04494951 0.08409482 0.011869288 0.15633026 -0.005364502 -0.0003167763
-0.06944494 -0.40549454 0.05054171 -0.045057237 0.38733637 -0.107449315 -0.34233335 0.27362338
0.042994235 0.11230479 -0.10905287 -0.32064316 0.04436216 -0.044981867 0.015417707 -0.01300534
0.03546274 -0.05757564 -0.22344302 0.39063665 0.3933402 -0.06603657 0.098954566 0.4146883
-0.17502643 0.17378953 0.5315981 -0.09913364 0.026135169 0.19587596 0.2558508 0.013025439
-0.04044515 -0.27365094 0.027304972 0.0425129 0.4278561 -0.11429573 0.16393508 0.60871947
0.33668026 -0.29909548 0.06967901 -0.041853223 -0.10222237 0.23855275 -0.09888956 -0.00877576
-0.414162 -0.23506258 0.030134192 0.46481347 0.020370688 -0.13476205 -0.08081228 0.029022653
0.022205831 0.15844107 0.053192344 -0.059632387 -0.29959118 -0.10019401 0.043906383 0.13076156
-0.20571315 -0.058060683 0.2157129 -0.014669916 -0.1305608 -0.2822601 0.104729116 0.18060401
0.09729834 -0.09525962 -0.063942365 -0.02664018 -0.063156486 0.08944497 0.029094415 0.47494745
-0.15331028 -0.30404344 -0.044832554 0.008093258 0.052747432 0.26514193 0.082502395 0.01093672
-0.0057652704 -0.0003096984 0.0117351115 -0.050577335 0.2655691 0.021501588 0.027634768 -0.032979254
0.4849768 -0.052915342 0.37732175 0.19738543 0.008847304 -0.101900645 0.05359168 0.014463133
0.003272523 0.08706892 0.019720498 0.6065337 0.00803554 -0.09477243 -0.041247215 0.23027603
0.29455963 0.17476225 -0.2984003 -0.047300313 0.49906582 0.06010631 -0.33687052 0.7556919
-0.044802297 -0.16313653 -0.021323942 -0.17576157 -0.0032803384 0.08950755 -0.018784396 -0.1003594
-0.05961528 0.38499004 -0.070833355 -0.04626562 -0.33769965 -0.011029359 0.044852525 -0.14219794
0.12696 -0.065057464 -0.07114262 -0.32937005 0.25542054 -0.0664955 0.054817546 -0.15160228
-0.038910855 -0.08071302 -0.0034432882 0.011799156 -0.100754105 -0.050481707 0.55687785 0.10146845
0.1523136 0.60542536 0.049059257 -0.20055893 0.28292292 -0.08328836 -0.09055646 0.07262206
0.033695083 -0.22772802 0.06562374 -0.050836183 0.12720454 -0.24260396 0.11915796 0.050066408
-0.02803669 0.16993126 -0.017574253 0.17127462 0.10433831 0.33842033 -0.0037782465 0.43182257
-0.4076461 0.18067472 -0.08307875 -0.013935148 0.14311396 -0.05248786 -0.2863478 0.2085829
-0.049412556 -0.093792334 -0.1830494 -0.0585038 -0.13199978 0.19256131 -0.17678104 -0.09892574
-0.021241367 -0.12292951 0.028144712 -0.023798225 -0.04951036 -0.029153142 0.06727419 -0.032290258

fc3.bias f4 [32]
00000000: 6fce c73d 8e60 e43d 454f 8a3e 00d8 9b3d
00000010: 9c61 623e 4e11 8b3e 1dd2 9e3e 3fe9 8e3e
00000020: c18e 0a3e 9cca 9c3e aa42 c13d 50d5 893d
00000030: 70f2 553e 224f 5d3e 2265 813e 17d6 a13e
00000040: 2761 c53e 2fec 783e c261 523e a70f 4e3e
00000050: 72ff 253e ed6d 523e cbd7 d93e ed16 883e
00000060: 5d27 d43b cd1b aa3e 90a3 103e 4f83 293d
00000070: 0fe3 213d 05a8 563d 7fb1 763e 69e5 333e
0.09756171 0.11151229 0.27013603 0.07609558 0.22107548 0.2716164 0.3101968 0.27912328
0.13531019 0.3062333 0.09436543 0.06730139 0.20893264 0.21612218 0.2527247 0.3160865
0.38550684 0.24308847 0.20545104 0.20123158 0.16210726 0.20549746 0.4254745 0.2657999
0.006474419 0.33224335 0.14124894 0.04138499 0.03952318 0.05240633 0.24091147 0.17567982

fc4.weight f4 [24, 32]
00000000: 0a7c 05c0 a618 98bf 483d ff3d 7b64 9a3d
00000010: 0a4f 22be d39b 6fbe d81d d03d d1d3 fa3d
00000020: 43ed 57bf ed77 973d b8f1 713d 9271 91bf
00000030: ed50 86be e4cb 4cbe 4bd6 65bf 7d13 6fbf
00000040: 15f5 2fbd be76 4ebf 60de 95bf 9af2 233e
00000050: d428 fd3d bbd7 82be b46b 49bf 4299 27bf
00000060: 9a57 89bf 9f4a 3dbd aa68 61bd 38e1 dcbe
00000070: e0dd dcbc 1026 a9be f6f2 9ebe 11ea 92bf
00000080: 38cc f63d 6c9d 0a3e 6304 5ebf 59cf df3d
00000090: f3a8 123e d1dd 333e 838d 60bf 155d a5bf
000000a0: 905d 823d 6d1f a7bf cd29 77bf 9362 0e3e
000000b0: 4ab5 90be c10c 0c3e c4c4 c73d ddee 0dbf
000000c0: ecc4 f23d af38 febd 9bb3 073e 6105 34bf
000000d0: d73e 82bf b6c7 003e 6cc6 1ebf 9583 68bf
000000e0: 2fb3 d53d a3c0 c43d d9c5 0f3e 78f5 e23d
000000f0: 51b9 7a3c ac43 f03d 8223 0a3e 0563 983d
00000100: aaf8 dbbf f2a1 b5be e47c ca3d 50ac 033e
00000110: 4f8b ef3c bcfd 11bf 8afd a43d 9314 ad3d
00000120: 30c0 d8be 1b2d 5b3d b1a2 a43c 125f 3dbf
00000130: d0d4 0f3e 25ae d0be 7273 fbbe 8365 9abe
00000140: 47be 933a 6664 76be f315 12bf f8ed d33d
00000150: 4fbb 053e 70b4 29bf 109c 11be b878 543d
00000160: 63a6 1abf 5e91 c7bd 32e8 b4be 28e9 efbb
00000170: 52b5 68bd c41c 803d 8cb2 e7be 82ae 14bf
00000180: 974a a3be 2d0b 4fbe bfb7 8abc 6f02 7fbe
00000190: d434 5f3d 3f3c 5e3e 9acb a3bc 253c babd
000001a0: 7758 d1be a32a 5fbe 5760 b6be 73d3 c0bd
000001b0: 8c3f 89be 2876 363e d943 a83d c629 0ebf
000001c0: be8c b93d df58 a5be 1e32 063e 43a7 e3be
000001d0: 4d4c 91be 72a4 fa3d c581 d0be 58b8 9cbe
000001e0: 8bb9 d9be 434d 0b3e a060 12be 8abc 82be
000001f0: 359a 2bbd 9691 6bbe 68e3 173e 701e 16be
00000200: 53d5 c6bc 3c3e f3be 8453 18bf 0329 82bf
00000210: 352d f6be 2394 bbbe 78c6 06bf 89e4 23bf
00000220: 81dd 1c3e 6f57 07bf e364 bdbf e5c6 04bf
00000230: 4806 66be 9b01 0ebe f7b4 acbe c689 173e
00000240: ca71 86be 2932 663e a181 a83e b5ad 6fbf
00000250: 9227 12bf 5c33 19be f7d5 643e 29eb 8fbe
00000260: d975 063e 8569 283e 7b73 10be 4887 23bf
00000270: 2f5a 40bf 5c6d 63bf 0121 403e d2e8 223e
00000280: 6039 9fbe ffe5 0abf c206 25be 4837 27bf
00000290: 7bda 19bf 8b2b 82be 017d 7cbe e625 8fbe
000002a0: 1518 c73d b083 9cbe cd6e 70bf 13e7 09bf
000002b0: 15c0 93bf f004 8cbe 4f51 42be 493f 543d
000002c0: 5f8b 8ebe 2cf4 153e c614 603e 4e8b 24bf
000002d0: 9994 3ebf 0ce9 29be 59da 3c3e 2ea1 39bf
000002e0: e873 4dbd 170e 223d 04ec 09bf 114d 4fbf
000002f0: f300 54bf 8c62 4ebf a7f7 523d 6131 283c
00000300: 7d46 92bc 25cc e23d 420b 623b 40d0 86bd
00000310: 2f4e 953d 7770 a8bd 2d1b 64bd fdd5 0c3c
00000320: 5584 cd3d 5fed 20bd a006 bdbd 9ad1 873d
00000330: b0c2 a23d adee d53c 6c87 93bd 11ae 183d
00000340: f39e 7ebb 4c42 253e 14b6 fa3c 40d5 2f3c
00000350: e221 653d 9d66 8cba e137 e03d 562f 9a3d
00000360: 098b ce3d c844 43bd 5390 cc3d a063 b13d
00000370: 7b38 3ebe 999b 783d 9b32 ea3c 37e9 c23d
00000380: b56e 8dbe 8807 5c3d 2af9 093d 88ca e73c
00000390: 9040 8e3c 4e0a e63d c9f9 c23c 0ab8 39bb
000003a0: 729f 9dbc 8991 2bbd 83c7 98bd 0761 01bd
000003b0: 583f a6bb 8d62 7e3d 0296 02bc 93e4 46bd
000003c0: 3217 6d3d e13d 1f3d 6b20 02bd 1e20 59bd
000003d0: afde d7bc b581 813d 5a06 9dbb 4a32 96bc
000003e0: 54fc 40bc d935 b33d a17c 39bd 94dc 163d
000003f0: 76b6 a3bd ff9c 2f3c 11da ba3d e281 93bd
-2.0856957 -1.1882522 0.1246286 0.075386964 -0.15850464 -0.23399286 0.10161942 0.12247432
-0.8434641 0.07395921 0.05906841 -1.1362784 -0.26233616 -0.19999653 -0.8978011 -0.9338911
-0.042958338 -0.80649936 -1.1708488 0.16010514 0.12361303 -0.25555214 -0.78679967 -0.6546823
-1.0729859 -0.046213742 -0.055031456 -0.43140578 -0.026961267 -0.33036852 -0.3104474 -1.1477681
0.120506704 0.13536614 -0.86725444 0.1092822 0.14322262 0.17565085 -0.8771593 -1.2919031
0.06365502 -1.3056465 -0.9654816 0.1390479 -0.28263313 0.1367674 0.09754327 -0.554426
0.11853966 -0.12413155 0.13252108 -0.7032071 -1.0175427 0.12576184 -0.6202152 -0.9082578
0.10434567 0.09607055 0.14040317 0.11081976 0.015302972 0.117316574 0.13490108 0.074407615
-1.7185261 -0.35475117 0.09887102 0.12858701 0.029241232 -0.5702779 0.08056171 0.0845119
-0.42334127 0.053509813 0.020097109 -0.7397319 0.14046025 -0.40757862 -0.49111515 -0.30155572
0.0011271917 -0.24061736 -0.5706474 0.10348123 0.13059734 -0.6629095 -0.1421969 0.05187294
-0.60410136 -0.097445235 -0.353334 -0.0073214956 -0.056813546 0.062554866 -0.45253408 -0.5807878
-0.31892845 -0.20219107 -0.01693332 -0.24903272 0.05449374 0.2170267 -0.019994546 -0.09093503
-0.40887806 -0.21793608 -0.35620376 -0.09415331 -0.26806295 0.1781851 0.08216066 -0.5553249
0.090600476 -0.32294366 0.13105056 -0.44463548 -0.28378525 0.12238397 -0.40724006 -0.30609393
-0.4252437 0.13603692 -0.14294672 -0.2553447 -0.04189511 -0.23004755 0.14832842 -0.14660048
-0.024271643 -0.4750842 -0.59502435 -1.0168766 -0.48081365 -0.36636457 -0.5264659 -0.6402059
0.15318872 -0.5286779 -1.4796413 -0.5186599 -0.22463334 -0.138678 -0.33731815 0.1479865
-0.2625869 0.22480072 0.329114 -0.9362443 -0.5709163 -0.14960998 0.22347246 -0.281091
0.13130893 0.16446503 -0.14106552 -0.638783 -0.7513761 -0.88838744 0.1876259 0.15909126
-0.3109846 -0.54257196 -0.16115859 -0.6531873 -0.60099 -0.25423846 -0.2465706 -0.27958602
0.0972139 -0.3056922 -0.9391907 -0.53868216 -1.1542994 -0.27347517 -0.1897633 0.051818166
-0.27840707 0.14643925 0.21882924 -0.6427506 -0.7444549 -0.16592807 0.18442668 -0.72511566
-0.050159365 0.03956422 -0.53875756 -0.8097697 -0.8281395 -0.8061912 0.05150571 0.010265679
-0.017855877 0.11074094 0.0034491573 -0.06582689 0.07290303 -0.08224576 -0.05568998 0.008595941
0.10035006 -0.039288875 -0.09229779 0.06631775 0.0794729 0.026114786 -0.07203564 0.037275378
-0.0038852065 0.16138572 0.0306044 0.010731995 0.055940516 -0.0010711733 0.10948158 0.0752856
0.100851126 -0.047673017 0.09988465 0.0866158 -0.18576233 0.060695264 0.028588584 0.095171385
-0.27623525 0.05371812 0.033684887 0.028294817 0.01736477 0.11232434 0.023800747 -0.0028338456
-0.019241069 -0.04188684 -0.07459929 -0.031586673 -0.005073469 0.062105704 -0.007970335 -0.04855783
0.05788345 0.03887737 -0.031769197 -0.053009145 -0.026351301 0.06323568 -0.004792017 -0.018334527
-0.01177891 0.08750505 -0.04528487 0.036831453 -0.07993786 0.010718583 0.09123624 -0.072025076

fc4.bias f4 [24]
00000000: ee29 1dbf c4f4 133f 0b76 4ebd fb5a d73e
00000010: 1b5a b23e 211b 92bd 3ff1 27be 9f50 563d
00000020: 8800 7d3e 356e f6be 7d13 163d 3e6b 31be
00000030: 6260 a13d 1d0e df3d 87c0 15be 0d37 d43e
00000040: 169f 2438 4d9a fabe bb2f 8dbe d09b 9bbe
00000050: 8964 8bbd 6ab4 87bd beff 5cbe 4c15 90be
-0.61392105 0.5779536 -0.050405543 0.420616 0.3483437 -0.07134081 -0.16400622 0.05232298
0.24707234 -0.48130956 0.03663968 -0.17326066 0.07879712 0.10891364 -0.14624225 0.4144825
3.9248807e-05 -0.48945847 -0.27575478 -0.30392313 -0.06806285 -0.06626208 -0.21581933 -0.28141248

exp_avg f4 [128, 240]
00000000: 1124 c5bb 185d 00ba b89e 65bb d98e 3bbb
00000010: 3c47 cbba ef24 33bb 6d87 56bb 30d1 7dba
00000020: 3eb0 98bb 4e2b babb 997a f5ba bf23 5abb
00000030: f2b6 0abb d08e 14ba fa02 29bb bd01 81bb
00000040: e77f 25bb caa7 83b9 f36d b8bb f4d1 50bb
00000050: 5f1f beb9 5b73 90ba 162c a5ba 2f8e deba
00000060: 04b6 c9bb 5983 72b8 748e 5cbb a08a 5fbb
00000070: 26eb efba a854 27bb 34aa 55bb 2015 83ba
00000080: fd31 9dbb 2d7b babb 1f28 11bb e1d7 11bb
00000090: 152a f4ba 6890 cdb9 1599 23bb 21af 8cbb
000000a0: 3037 17bb 373a c2b9 5a69 b8bb c281 4ebb
000000b0: 2534 cdb9 27d6 baba 7f73 c7ba 49e0 0cbb
000000c0: f8a2 c9bb f17d 07b9 e952 62bb 82ee 6bbb
000000d0: 4d11 01bb 1128 30bb f357 5bbb 5be3 94ba
000000e0: ca73 9bbb aa20 c0bb 60d3 1bbb 1727 20bb
000000f0: be67 dbba cd1e ccb9 1f3e 31bb f3d5 8bbb
00000100: df39 17bb 15fa a339 dda3 b5bb 30a8 2abb
00000110: 59f1 d5b9 9ea7 d3ba d29a abba e662 0ebb
00000120: 7f62 ccbb fa96 8bb9 a78a 77bb e829 66bb
00000130: 10bb 02bb a8fb 30bb 1a50 5dbb 6ebe 5fba
00000140: b6f7 9abb 8477 adbb a314 0fbb 3ad4 42bb
00000150: b297 8eba 2249 ffb9 dafd 24bb e56d 93bb
00000160: fdcf 15bb ce48 0439 5ec1 b0bb dccd 2abb
00000170: f5ae d7b9 dbe3 e2ba e8f8 a7ba 8233 17bb
00000180: c94a cabb 248d 01ba f5a5 69bb 8c84 4cbb
00000190: d416 03bb 4140 2cbb 1f88 5cbb f8c3 d0b9
000001a0: 70e1 92bb e54e a8bb dedd efba 283d 58bb
000001b0: bb22 acba 6d41 f6b9 1131 21bb cd17 98bb
000001c0: 110c 10bb 4377 f1b8 5ec1 b0bb bd94 44bb
000001d0: e8b1 9ab9 4ade c4ba 7663 11bb 1177 1bbb
000001e0: d2bb d4bb dcb3 1bba 8458 63bb e36a 83bb
000001f0: 6b8a d4ba abb3 2dbb f013 48bb ad9a 52ba
00000200: c9eb 8cbb d13b a8bb 1f50 b4ba fc33 71bb
00000210: b375 e8ba 1989 dcb9 dc80 1ebb 6d8a 83bb
00000220: c88d efba 1cd6 d4b8 2dba b0bb 0a4b 50bb
00000230: 3f85 88b9 275b d7ba 03a3 21bb cac7 0bbb
00000240: 5b25 d6bb ad98 22ba a35b 6abb 6827 83bb
00000250: 7284 cdba 00e6 22bb df21 4cbb 3595 27ba
00000260: 5329 8cbb e83d a3bb efff b9ba 764d 62bb
00000270: bff9 07bb 357f f3b9 113f 27bb e068 82bb
00000280: a481 e8ba 19f0 78b9 b067 b0bb eb6f 3dbb
00000290: 951f 68b9 00f4 ddba 55b9 22bb eb04 10bb
000002a0: ad3b d4bb 1b62 33ba 9cd4 68bb 5a7c 82bb
000002b0: 8cd4 c7ba a260 19bb bba8 54bb 947d 6eb9
000002c0: 6225 8abb f8db 9dbb ac8d b5ba 729a 57bb
000002d0: 5cfa 05bb 6aa1 ceb9 736a 2dbb 040a 87bb
000002e0: 3821 e0ba 34c7 0aba d4ce b2bb c0ea 43bb
000002f0: b1a2 a7b9 30fb d6ba af4d 21bb 313a 1cbb
00000300: d4ce d2bb a436 08ba 1e98 69bb bb71 86bb
00000310: 7feb e3ba 57eb 0fbb 5949 84bb 0f09 deb9
00000320: 2f36 88bb 917d 9dbb fd90 d8ba 649c 53bb
00000330: 6f01 02bb d678 05b9 edbd 37bb 6dd8 8bbb
00000340: 769b ecba 4a6a 16ba cdc9 b2bb a742 46bb
00000350: 828e b6b9 d5e1 adba a08c 26bb 5d22 13bb
00000360: 5fc7 d9bb 2e89 e3b9 0134 75bb 1973 80bb
00000370: b5ed 0cbb 4de0 15bb 5e9b 8ebb 82a4 8aba
00000380: 5bd4 80bb 6380 8dbb b9d2 deba a8ca 54bb
00000390: cfc4 fbba e6c2 c039 0f3a 3dbb bc65 8fbb
000003a0: f10a efba 3487 3cba eea0 b1bb bd2f 45bb
000003b0: 0c26 90b9 f0cb 88ba 369e 22bb c6a8 0abb
000003c0: 0000 0000 0000 0000 0000 0000 0000 0000
000003d0: 0000 0000 0000 0000 0000 0000 0000 0000
000003e0: 0000 0000 0000 0000 0000 0000 0000 0000
000003f0: 0000 0000 0000 0000 0000 0000 0000 0000
-0.0060162623 -0.00048966845 -0.003503723 -0.002861908 -0.00155089 -0.0027335247 -0.0032734529 -0.00096823554
-0.0046596816 -0.005681432 -0.0018728554 -0.0033285466 -0.0021166173 -0.00056670327 -0.0025789128 -0.003936975
-0.0025253238 -0.0002511128 -0.0056283413 -0.0031863423 -0.00036262997 -0.0011020707 -0.001260164 -0.001697963
-0.006155731 -5.7819623e-05 -0.0033654245 -0.0034109727 -0.0018304333 -0.0025532637 -0.003260267 -0.0010000803
-0.004797219 -0.005690953 -0.0022149158 -0.0022253918 -0.0018628264 -0.00039208238 -0.002496307 -0.004293338
-0.0023073666 -0.00037045937 -0.0056277933 -0.0031510447 -0.00039139498 -0.0014254496 -0.0015216916 -0.002149599
-0.0061534606 -0.0001292152 -0.0034534282 -0.0036000316 -0.001969415 -0.002687935 -0.003346917 -0.0011359261
-0.0047440277 -0.005863269 -0.0023777112 -0.0024437362 -0.0016739292 -0.0003893286 -0.0027045084 -0.004267448
-0.0023075265 0.00031276108 -0.0055432157 -0.002604019 -0.00040806344 -0.0016147976 -0.0013092405 -0.0021726429
-0.0062373276 -0.00026624632 -0.0037771852 -0.0035120193 -0.0019947924 -0.0027005468 -0.0033769668 -0.0008535151
-0.0047292365 -0.0052937884 -0.0021832369 -0.0029728548 -0.0010878949 -0.00048691878 -0.0025175721 -0.0044991844
-0.0022859566 0.00012615623 -0.005394145 -0.0026062643 -0.0004113835 -0.0017310338 -0.0012815269 -0.0023071473
-0.006173466 -0.0004941991 -0.0035651897 -0.0031206934 -0.002000262 -0.0026283416 -0.003365047 -0.0003981886
-0.0044824407 -0.005136358 -0.0018300375 -0.0032995436 -0.0013132909 -0.00046969522 -0.0024595896 -0.004641509
-0.0021979848 -0.0001151399 -0.005394145 -0.0029995881 -0.0002950572 -0.0015019861 -0.0022184527 -0.0023722092
-0.0064921165 -0.0005939582 -0.003469021 -0.0040105446 -0.0016215568 -0.0026504796 -0.0030529462 -0.0008033913
-0.0043005687 -0.005134084 -0.0013756788 -0.0036804667 -0.0017735272 -0.00042063816 -0.0024185693 -0.0040143044
-0.0018276507 -0.00010148829 -0.0053932876 -0.0031783008 -0.00026039217 -0.0016430364 -0.0024663813 -0.00213288
-0.006535215 -0.000620256 -0.0035760186 -0.0040025003 -0.001567973 -0.002485633 -0.0031148118 -0.0006392778
-0.004277387 -0.004981745 -0.0014190654 -0.0034531034 -0.0020748226 -0.00046443348 -0.0025519768 -0.003979787
-0.0017738831 -0.00023740566 -0.0053834543 -0.002890582 -0.0002213701 -0.001693368 -0.0024829705 -0.0021975588
-0.0064768405 -0.0006842927 -0.0035527116 -0.003982109 -0.0015245839 -0.0023403545 -0.0032449204 -0.0002274423
-0.004215882 -0.004817482 -0.0013851426 -0.0032898453 -0.0020443415 -0.00039411645 -0.0026461154 -0.004121067
-0.0017099744 -0.0005293966 -0.0054567847 -0.002989456 -0.00031973937 -0.0016401764 -0.0024612953 -0.0023838396
-0.0064333472 -0.00051961304 -0.0035643647 -0.004102913 -0.0017388909 -0.0021960342 -0.004037064 -0.0004234989
-0.00415685 -0.0048062284 -0.0016522702 -0.003228926 -0.001983728 -0.00012728883 -0.0028036789 -0.0042677433
-0.0018051702 -0.0005737884 -0.0054561854 -0.003025213 -0.00034819922 -0.0013266156 -0.002541341 -0.0022450902
-0.0066460813 -0.0004339902 -0.003741503 -0.0039199707 -0.002150399 -0.002286929 -0.0043520173 -0.0010577592
-0.0039315647 -0.0043182834 -0.0017000056 -0.0032469425 -0.0019208434 0.00036766304 -0.0028873717 -0.0043761414
-0.0018237514 -0.00071917777 -0.0054207956 -0.0030088269 -0.00027494167 -0.0010436755 -0.002481354 -0.0021157726
0.0 0.0 0.0 0.0 0.0 0.0 0.0 0.0
0.0 0.0 0.0 0.0 0.0 0.0 0.0 0.0

exp_avg_sq f4 [128, 240]
00000000: b229 b53a dabb f339 d363 103a a310 063a
00000010: e876 423a 97a4 063a 65e0 8439 92ee b439
00000020: 5a22 9b3a c4bb 0e3a e4b3 c839 9762 993a
00000030: f88b 123a 31d1 9639 7974 fe39 2019 2e3a
00000040: 9d35 de39 80b7 513a 1fda df3a dc44 383a
00000050: a231 8b37 7a68 c439 bbc1 9139 0653 9d39
00000060: 88a3 b33a 2e4e 003a 5b81 113a cd6a 053a
00000070: 09f7 403a 271e 043a aad9 8339 8bb2 c039
00000080: 7357 9b3a de99 0d3a 7896 c939 d2d8 993a
00000090: d603 143a 8bda a139 bd8b fe39 3dcd 333a
000000a0: 40d5 e639 0c5d 4e3a 79cb df3a 3d3c 393a
000000b0: 0908 8937 aaf9 c339 a328 8d39 dfa8 9c39
000000c0: 2ad4 b33a 752e 013a 4b3e 113a 6505 063a
000000d0: 89d7 403a e837 033a c6b9 7f39 2cb8 c539
000000e0: d55b 9b3a e7ac 0c3a 8e4b cb39 ea81 983a
000000f0: ab5a 153a 68e5 9e39 1b80 ff39 059e 353a
00000100: f920 e539 e05b 4e3a 6292 df3a 1a12 3a3a
00000110: bd44 8837 b3c6 cf39 f88f 8c39 49c2 9b39
00000120: 3d3d b33a eac8 023a 3f2e 0f3a 9c2a 043a
00000130: 2699 413a 3cb7 013a d85b 8039 72aa d239
00000140: e7a0 9a3a d6ec 103a 0e98 d539 362f 983a
00000150: 18f4 143a 5ae9 9939 a464 033a 95b4 323a
00000160: 6575 e739 0c88 4a3a e8d9 df3a a05e 3c3a
00000170: 65ed 8a37 acf4 cc39 c9b7 8639 c1df 9c39
00000180: 8770 b33a babf 013a e529 113a bb40 043a
00000190: 0439 403a 4845 033a aad0 7a39 f049 d339
000001a0: b891 9b3a f3ea 113a 80e3 da39 55e3 973a
000001b0: 2bac 133a 8986 9939 17a4 033a 1201 323a
000001c0: eb2a e739 452b 4a3a e8d9 df3a 0623 3b3a
000001d0: 9fd5 8437 cbaf ca39 6da4 8839 027c 9d39
000001e0: 903b b33a f2e9 003a 43ea 0f3a dfe1 063a
000001f0: b7f8 403a c0a2 023a af2e 7939 188e dc39
00000200: 9074 9b3a 4729 133a 902f df39 5f34 973a
00000210: 88e0 123a 8532 9739 7d46 043a 0c4d 333a
00000220: bd7c e739 a83b 4a3a ced2 df3a a11c 393a
00000230: 3158 8537 80c5 cb39 4c2d 8639 4cb0 9f39
00000240: fb92 b23a 6d31 013a e9da 0f3a 50dc 063a
00000250: 9a6f 403a 0140 023a 3271 8639 deb7 f439
00000260: 1ea7 9b3a 16e8 123a 043f de39 2608 983a
00000270: 3d57 123a 3a0c 9539 09e6 0b3a 632c 303a
00000280: ea5e e239 b333 493a 89d4 df3a 8e40 3f3a
00000290: 6e2d 8a37 cd64 c739 aa59 8439 3177 a039
000002a0: 2622 b23a ec97 013a 3c51 133a 8fa6 053a
000002b0: fc2e 3f3a 2c74 ff39 1bb6 8a39 1b88 fa39
000002c0: 7600 9b3a a9ca 103a a981 e139 f36a 9f3a
000002d0: a7d2 143a f0d1 9439 1c16 093a 2c75 2d3a
000002e0: ed65 de39 db1a 493a 3590 df3a e877 403a
000002f0: 84a5 8e37 ef8b c739 bfa4 8639 c23b 9b39
00000300: c431 b13a bfe7 fb39 ab4e 143a 5173 033a
00000310: b0d5 3c3a 38b0 033a 4c4f 9139 2f87 fc39
00000320: 1987 9a3a 869d 0f3a 7546 de39 54a9 9e3a
00000330: d122 153a 8f83 9639 7b5b 093a ffd5 423a
00000340: 5f6a db39 570c 483a 337a df3a 611b 423a
00000350: 6ed0 9537 06de c439 0aae 8039 f2de 9f39
00000360: 2406 b03a 55e9 fb39 94b0 153a 5043 033a
00000370: f7dd 383a f261 0a3a 7aa7 9339 a86c fc39
00000380: b2f4 993a 4af2 0f3a c66d dc39 225e 9e3a
00000390: a7a9 153a 7d68 9e39 ea80 0a3a 635f 443a
000003a0: f2dc d939 9a80 453a 7c6e df3a 075f 3f3a
000003b0: 9ea2 2738 f62d c039 50bc 7a39 3cbb a339
000003c0: 0000 0000 0000 0000 0000 0000 0000 0000
000003d0: 0000 0000 0000 0000 0000 0000 0000 0000
000003e0: 0000 0000 0000 0000 0000 0000 0000 0000
000003f0: 0000 0000 0000 0000 0000 0000 0000 0000
0.001382163 0.00046488532 0.0005508039 0.00051141734 0.0007418231 0.000513622 0.0002534419 0.00034510024
0.0011835799 0.00054448494 0.00038281002 0.0011702356 0.0005590315 0.0002876609 0.00048533434 0.0006641317
0.00042383085 0.0008000061 0.0017078555 0.0007029304 1.6593203e-05 0.00037461874 0.00027800896 0.0003000723
0.0013705352 0.0004894462 0.00055505865 0.0005089462 0.000736103 0.00050398934 0.0002514844 0.0003675412
0.0011851623 0.0005401651 0.00038449815 0.0011737591 0.00056463236 0.0003087114 0.00048550768 0.0006858891
0.00044027902 0.00078721414 0.0017074189 0.0007066166 1.6335414e-05 0.00037379313 0.00026923892 0.00029880457
0.0013719846 0.0004927882 0.00055405934 0.0005112498 0.0007356336 0.0005005584 0.00024387901 0.00037711987
0.001185293 0.00053663406 0.0003877547 0.0011635397 0.00056974095 0.0003030703 0.00048732836 0.0006928149
0.0004370285 0.0007871967 0.0017057175 0.0007098034 1.6244472e-05 0.0003963016 0.00026810146 0.00029708658
0.0013674867 0.0004989045 0.00054619083 0.00050417497 0.00073851866 0.00049482635 0.0002448249 0.00040181313
0.001179722 0.00055284554 0.00040739815 0.001161075 0.0005682125 0.00029356295 0.000501225 0.000681707
0.0004414722 0.0007725961 0.0017078491 0.0007185731 1.6561427e-05 0.00039092207 0.00025695402 0.00029921348
0.0013690152 0.0004949529 0.0005537554 0.0005045046 0.0007332715 0.0005007577 0.00023919591 0.00040300144
0.0011868989 0.0005566321 0.000417497 0.0011588136 0.000563326 0.0002928267 0.0005021705 0.00067903206
0.0004409173 0.0007712136 0.0017078491 0.0007138703 1.5835101e-05 0.00038659418 0.00026062448 0.00030037767
0.0013674367 0.0004917673 0.0005489925 0.0005145352 0.000736128 0.0004983358 0.00023763881 0.00042067538
0.00118603 0.0005613756 0.0004256931 0.0011535994 0.0005602916 0.00028838604 0.0005045904 0.0006839789
0.0004415269 0.0007714578 0.0017076374 0.0007061456 1.5895903e-05 0.00038866326 0.0002559222 0.00030458195
0.0013624126 0.00049283245 0.0005487637 0.00051445235 0.00073408487 0.0004968644 0.0002564281 0.00046676298
0.0011875366 0.00056040415 0.0004239009 0.0011599108 0.00055824575 0.00028428604 0.0005336707 0.00067204813
0.00043176796 0.0007675245 0.001707689 0.0007295691 1.6472037e-05 0.0003803134 0.00025243807 0.00030606383
0.0013590499 0.00049435976 0.000561971 0.00050983665 0.0007293073 0.00048723945 0.0002645709 0.00047785122
0.0011825699 0.0005523363 0.0004301195 0.0012162611 0.00056771416 0.00028385175 0.000522943 0.0006616886
0.0004241908 0.0007671543 0.0017056527 0.0007342086 1.7004793e-05 0.00038060496 0.00025681217 0.00029608427
0.001351886 0.00048047115 0.00056574744 0.0005014437 0.0007203473 0.0005023512 0.00027715636 0.00048165905
0.001178953 0.000547849 0.00042395634 0.0012104907 0.0005689087 0.00028708248 0.0005239767 0.00074324006
0.00041850188 0.00076312333 0.0017049968 0.00074045925 1.7859242e-05 0.00037549454 0.00024543732 0.0003049295
0.0013429564 0.00048048297 0.0005710211 0.0005007284 0.00070521183 0.0005278877 0.00028162805 0.0004814614
0.0011745899 0.0005491121 0.00042043458 0.0012082497 0.0005709179 0.00030213958 0.0005283492 0.00074910204
0.00041554082 0.0007534117 0.0017046477 0.0007300232 3.996735e-05 0.00036655337 0.0002391201 0.00031229283
0.0 0.0 0.0 0.0 0.0 0.0 0.0 0.0
0.0 0.0 0.0 0.0 0.0 0.0 0.0 0.0

exp_avg f4 [128]
00000000: ebb4 b0bb 0000 0000 0400 0000 0000 0000
00000010: 0000 0000 0000 0000 0000 0000 0000 0000
00000020: 2cdc af3a 5682 043c 0000 0000 0000 0000
00000030: e4ea 4a3c b815 b83b 0000 0000 0000 0000
00000040: 0000 0000 0000 0000 0000 0000 0000 0000
00000050: 5051 1cbb 1345 84ba 0000 0000 0000 0000
00000060: 0000 0000 0000 0000 0000 0000 0000 0000
00000070: 0000 0000 d11d 9ebc 0000 0000 0d8f 8cbc
00000080: 0000 0000 8774 a83b e804 52bc 0000 0000
00000090: 0000 0000 5aa9 2abc 0000 0000 0000 0000
000000a0: 0000 0000 0000 0000 0000 0000 0000 0000
000000b0: 0000 0000 0000 0000 981d 5fbb 84b7 1c3b
000000c0: b8ed 9bbc 0000 0000 cc7e 4fba 0000 0000
000000d0: 51a1 2fbc 0000 0000 0000 0000 7cb3 0f3b
000000e0: 0000 0000 3df7 a939 5b97 45bc 0000 0000
000000f0: 0000 0000 0000 0000 0000 0000 7819 b1bb
00000100: 0000 0000 0000 0000 dc38 c5bc 0000 0000
00000110: 0000 0000 0000 0000 0000 0000 0000 0000
00000120: 16e0 363c 0000 0000 0000 0000 0000 0000
00000130: 0000 0000 0000 0000 0000 0000 0000 0000
00000140: 0000 0000 0000 0000 0dc4 ccbc 0000 0000
00000150: 046a 35bc 0000 0000 0000 0000 0000 0000
00000160: 048f 933a 0000 0000 7a3c ae3c 90d2 463d
00000170: 0000 0000 0000 0000 0000 0000 0400 0000
00000180: 0000 0000 0000 0000 0000 0000 0000 0000
00000190: 71d1 883a 0000 0000 0000 0000 0000 0000
000001a0: a3a0 c7bb 0000 0000 0000 0000 0000 0000
000001b0: ec58 03bb 7f82 04bc fc98 7b3c 0000 0000
000001c0: 9ca7 2fba 0000 0000 0000 0000 39c6 b4bc
000001d0: 0000 0000 0000 0000 b0d1 0bba 0000 0000
000001e0: 0000 0000 0000 0000 0000 0000 0000 0000
000001f0: 0000 0000 0000 0000 0000 0000 0000 0000
-0.005392661 0.0 6e-45 0.0 0.0 0.0 0.0 0.0
0.0013417057 0.008087715 0.0 0.0 0.012385104 0.0056178235 0.0 0.0
0.0 0.0 0.0 0.0 -0.0023852177 -0.0010091387 0.0 0.0
0.0 0.0 0.0 0.0 0.0 -0.019301327 0.0 -0.017158056
0.0 0.0051408443 -0.012818553 0.0 0.0 -0.010416353 0.0 0.0
0.0 0.0 0.0 0.0 0.0 0.0 -0.003404474 0.0023913095
-0.019034252 0.0 -0.00079153175 0.0 -0.010719613 0.0 0.0 0.002192705
0.0 0.000324184 -0.012060012 0.0 0.0 0.0 0.0 -0.0054046474
0.0 0.0 -0.024074964 0.0 0.0 0.0 0.0 0.0
0.011161825 0.0 0.0 0.0 0.0 0.0 0.0 0.0
0.0 0.0 -0.024995828 0.0 -0.011072639 0.0 0.0 0.0
0.0011257832 0.0 0.021269072 0.04854065 0.0 0.0 0.0 6e-45
0.0 0.0 0.0 0.0 0.0010438395 0.0 0.0 0.0
-0.0060921474 0.0 0.0 0.0 -0.0020042015 -0.008087753 0.015356299 0.0
-0.0006700696 0.0 0.0 -0.022067176 0.0 0.0 -0.0005333675 0.0
0.0 0.0 0.0 0.0 0.0 0.0 0.0 0.0

exp_avg_sq f4 [128]
00000000: a600 e23a 0000 0000 284f 9536 0000 0000
00000010: 0000 0000 0000 0000 0000 0000 0000 0000
00000020: 42e6 933a b74f 3d3b 0000 0000 0000 0000
00000030: 9f9d b43a 2049 973a 0000 0000 0000 0000
00000040: 0000 0000 0000 0000 0000 0000 0000 0000
00000050: b162 293b ad4f a93a 0000 0000 0000 0000
00000060: 0000 0000 0000 0000 0000 0000 0000 0000
00000070: 0000 0000 6ae5 793a 0000 0000 c5fe b53a
00000080: 0000 0000 0541 a83b 72a3 bf3a 0000 0000
00000090: 0000 0000 7b0d cf3a 0000 0000 0000 0000
000000a0: 0000 0000 0000 0000 0000 0000 0000 0000
000000b0: 0000 0000 0000 0000 e9b0 dc3a 95e0 783a
000000c0: 887b 603a 0000 0000 332d dc3a 0000 0000
000000d0: 5e07 e53a 0000 0000 0000 0000 e2bb 8d3a
000000e0: 0000 0000 aedd 413a 3c36 a33a 0000 0000
000000f0: 0000 0000 0000 0000 0000 0000 da01 9a3a
00000100: 0000 0000 0000 0000 e838 1d3b 0000 0000
00000110: 0000 0000 0000 0000 0000 0000 0000 0000
00000120: 995b fe3a 0000 0000 0000 0000 0000 0000
00000130: 0000 0000 0000 0000 0000 0000 0000 0000
00000140: 0000 0000 0000 0000 8171 ec3a 0000 0000
00000150: 9550 1b3b 0000 0000 0000 0000 0000 0000
00000160: 1b4b a73a 0000 0000 a127 0e3b 470a 133c
00000170: 0000 0000 0000 0000 0000 0000 b2fa 9836
00000180: 0000 0000 0000 0000 0000 0000 0000 0000
00000190: 092f 9e3a 0000 0000 0000 0000 0000 0000
000001a0: 948b 253b 0000 0000 0000 0000 0000 0000
000001b0: cab0 dc3b d42c 703b cc49 323b 0000 0000
000001c0: 4e40 d63a 0000 0000 0000 0000 a43b b03b
000001d0: 0000 0000 0000 0000 f7f9 e13a 0000 0000
000001e0: 0000 0000 0000 0000 0000 0000 0000 0000
000001f0: 0000 0000 0000 0000 0000 0000 0000 0000
0.0017242625 0.0 4.449761e-06 0.0 0.0 0.0 0.0 0.0
0.0011283832 0.0028886625 0.0 0.0 0.0013779885 0.0011542179 0.0 0.0
0.0 0.0 0.0 0.0 0.0025846178 0.0012917422 0.0 0.0
0.0 0.0 0.0 0.0 0.0 0.00095327816 0.0 0.0013885131
0.0 0.005134704 0.0014620854 0.0 0.0 0.0015796864 0.0 0.0
0.0 0.0 0.0 0.0 0.0 0.0 0.0016837391 0.00094939145
0.00085633295 0.0 0.0016798138 0.0 0.0017473509 0.0 0.0 0.001081344
0.0 0.00073953986 0.0012452076 0.0 0.0 0.0 0.0 0.0011749819
0.0 0.0 0.0023990218 0.0 0.0 0.0 0.0 0.0
0.001940596 0.0 0.0 0.0 0.0 0.0 0.0 0.0
0.0 0.0 0.0018039198 0.0 0.0023699154 0.0 0.0 0.0
0.0012763472 0.0 0.00216911 0.008974618 0.0 0.0 0.0 4.559138e-06
0.0 0.0 0.0 0.0 0.0012068461 0.0 0.0 0.0
0.0025260197 0.0 0.0 0.0 0.006734942 0.0036647813 0.002720463 0.0
0.0016346069 0.0 0.0 0.0053782035 0.0 0.0 0.0017240633 0.0
0.0 0.0 0.0 0.0 0.0 0.0 0.0 0.0
