models/preliminary_results_models/RaceMultiOutputModeltvt4v2/model.pt (torch, 264431 bytes, 18 tensors)

fc1.weight f4 [128, 24]
0.10517767 -0.09009596 -0.039571807 0.09580955 -0.19217001 0.122416764 -0.0419935 0.10384691
0.028376728 -0.024993807 0.056616068 0.010069802 0.07455188 -0.07954739 -0.014882445 -0.018376753
0.029586568 -0.00081543624 0.17843854 0.063521415 -0.07601711 -0.123283096 -0.034214407 -0.08804706
-0.08039018 -0.005035635 0.10776897 0.097675234 -0.21237421 0.114023656 0.044742778 0.18152192
0.1227761 -0.19782698 -0.20582843 -0.110120505 0.16764797 -0.04553728 0.07587187 -0.10629842
0.18889086 -0.097728275 0.15722406 -0.009453432 -0.11932768 0.09313132 -0.120144725 0.04824245
-0.058942318 -0.022379026 -0.19624254 -0.097322665 0.11076471 -0.049617946 0.20331776 0.16362354
-0.009557828 -0.13624942 0.12430388 0.06335139 -0.13194989 0.13258773 0.123924136 0.18103668
-0.11442376 -0.033600062 -0.0039542615 0.029813856 -0.15491354 -0.14485106 0.11104447 -0.047865465
0.09970921 0.011637107 0.0670231 0.044884592 0.074219435 0.10118654 -0.18904184 0.10274619
-0.14352444 -0.1540135 0.012413681 -0.034784228 0.119887024 -0.118215576 -0.18146269 0.14855519
-0.030267894 0.11481109 0.06562278 -0.15306766 0.04100819 0.049029917 -0.1366731 -0.09685125
0.06075595 0.026913507 -0.09682078 -0.07197151 0.17665516 -0.048147276 0.104644135 0.07790163
-0.14246751 -0.18414226 0.18536383 6.5953005e-05 0.1293092 0.03167681 0.05501418 0.14182456
0.1828958 -0.14611955 0.015709642 0.13670824 0.13731347 0.11624826 -0.15828975 -0.1575519
-0.11652207 0.033013258 0.2109608 -0.12134926 0.11640905 -0.10531576 -0.18423517 -0.035682924
0.1253238 0.19722696 -0.11903747 0.052035496 0.18387422 0.14301191 0.1349676 0.15281366
0.13687173 0.060487356 -0.13225779 -0.16222243 -0.08580619 -0.016041564 -0.11739065 0.08240728
0.06317395 -0.046220914 0.07845324 0.065969795 0.12462574 0.13746613 -0.0691272 0.19943452
-0.023598328 -0.007012889 -0.19266872 -0.13137761 -0.119250044 -0.08730858 0.14512607 -0.0667039
-0.15253814 0.07853675 0.06535435 0.1322093 -0.105628565 0.04425718 -0.074311525 -0.045861527
-0.16267028 -0.093031816 -0.0625146 0.087290704 0.03729132 0.050422013 0.20373738 0.19894502
0.1392223 0.0065000355 -0.14121133 0.159525 -0.051043987 -0.016502485 -0.17585275 -0.04032035
-0.1316576 0.1875709 -0.17646962 -0.15911125 -0.006931305 -0.11037309 0.07303801 -0.078572616
-0.09753179 0.00643156 0.14133252 -0.1506961 0.088332824 0.12333288 0.19166738 -0.15103082
0.041159958 -0.15930684 0.16582093 -0.0876962 0.11438417 -0.0025409362 -0.024556931 -0.015208382
0.025972866 0.08746781 0.016864993 0.05658728 -0.19202763 0.14029919 0.16955559 0.16031729
0.15186559 -0.14398989 -0.07145607 0.18466873 -0.1504929 0.19036463 -0.15522033 -0.1383556
0.10530791 -0.14107648 -0.04112418 0.15418634 0.16741209 0.19881338 -0.035628796 -0.1528401
0.20682359 -0.037622567 -0.06920057 0.054348353 -0.13713472 0.13978107 0.13354559 -0.15635438
-0.18814163 -0.036111366 0.06843257 -0.022715798 -0.11999765 -0.011609817 -0.20798367 -0.16026974
-0.15179312 0.15226753 0.16416308 -0.085056335 -0.006523193 0.07539415 0.008849837 -0.11779488
00000000: 6467 d73d 3b84 b8bd 0c16 22bd cc37 c43d
00000010: 37c8 44be a4b5 fa3d 6001 2cbd b0ad d43d
00000020: 5076 e83c d0bf ccbc 40e6 673d d0fb 243c
00000030: a8ae 983d bee9 a2bd 80d5 73bc d88a 96bc
00000040: 885f f23c 00c3 55ba 98b8 363e 8417 823d
00000050: dcae 9bbd d97b fcbd 6824 0cbd 0452 b4bd
00000060: 9ba3 a4bd f801 a5bb fab5 dc3d f409 c83d
00000070: a078 59be 3c85 e93d 3444 373d e2e0 393e
00000080: 0972 fb3d 2893 4abe b0c4 52be dc86 e1bd
00000090: e9ab 2b3e 4d85 3abd b662 9b3d fcb2 d9bd
000000a0: 9b6c 413e c325 c8bd 58ff 203e 91e2 1abc
000000b0: 1262 f4bd a2bb be3d 700e f6bd e099 453d
000000c0: 806d 71bd 3854 b7bc cef3 48be 1b51 c7bd
000000d0: 9cd8 e23d 303c 4bbd 8832 503e ee8c 273e
000000e0: 7098 1cbc f884 0bbe 0893 fe3d 60be 813d
000000f0: df1d 07be 14c5 073e f0cb fd3d ae61 393e
00000100: 0157 eabd 38a0 09bd c092 81bb 303c f43c
00000110: a8a1 1ebe d653 14be 486b e33d 940e 44bd
00000120: 5834 cc3d 90a9 3e3c 6843 893d e8d8 373d
00000130: 5c00 983d e43a cf3d 2f94 41be 986c d23d
00000140: 12f8 12be b7b5 1dbe c062 4b3c e879 0ebd
00000150: 5487 f53d 021b f2bd 5bd1 39be da1e 183e
00000160: 60f4 f7bc 1422 eb3d 3c65 863d c5bd 1cbe
00000170: 34f8 273d 98d3 483d 08f4 0bbe f359 c6bd
00000180: 3bdb 783d b779 dc3c f949 c6bd cd65 93bd
00000190: 17e5 343e 1436 45bd aa4f d63d e48a 9f3d
000001a0: 01e3 11be ca8f 3cbe 04d0 3d3e 4050 8a38
000001b0: a269 043e 8bbf 013d 8c56 613d 753a 113e
000001c0: 0949 3b3e 5da0 15be 82b1 803c 3ffd 0b3e
000001d0: e79b 0c3e 9113 ee3d b516 22be 4955 21be
000001e0: 1fa3 eebd e938 073d 1c06 583e f685 f8bd
000001f0: de67 ee3d caaf d7bd 25a8 3cbe 4228 12bd
00000200: e254 003e ddf5 493e ebc9 f3bd 2c23 553d
00000210: 8649 3c3e b771 123e f234 0a3e 2f7b 1c3e
00000220: 1a28 0c3e 97c1 773d 966e 07be a31d 26be
00000230: 28bb afbd 9969 83bc 826a f0bd 26c5 a83d
00000240: 5861 813d 2452 3dbd 18ac a03d 2c1b 873d
00000250: c83b ff3d ecc3 0c3e 9092 8dbd 9038 4c3e
00000260: 4851 c1bc 60cc e5bb f34a 45be da87 06be
00000270: 5e39 f4bd d7ce b2bd ee9b 143e 0e9c 88bd
00000280: f532 1cbe e0d7 a03d 80d8 853d e061 073e
00000290: ca53 d8bd 0447 353d a430 98bd 4cd9 3bbd
000002a0: 0a93 26be 7787 bebd a807 80bd 78c5 b23d
000002b0: c8be 183d 5087 4e3d 88a0 503e 3eb8 4b3e
000002c0: 4a90 0e3e 40fe d43b b499 10be 865a 233e
000002d0: 8013 51bd 3830 87bc be12 34be f426 25bd
000002e0: 40d1 06be 9612 403e 74b4 34be 0fee 22be
000002f0: 0020 e3bb 490b e2bd f494 953d aeea a0bd
00000300: bfbe c7bd d6bf d23b 79b9 103e 1450 1abe
00000310: d7e7 b43d f395 fc3d 7444 443e d3a7 1abe
00000320: 5897 283d 5521 23be f6cc 293e 119a b3bd
00000330: 3f42 ea3d d685 26bb 9e2b c9bc 942c 79bc
00000340: 0cc5 d43c 5322 b33d 7428 8a3c 10c8 673d
00000350: e4a2 44be 97aa 0f3e fb9f 2d3e 372a 243e
00000360: a782 1b3e 1672 13be 8f57 92bd cd19 3d3e
00000370: d01a 1abe f2ee 423e 14f2 1ebe 17ad 0dbe
00000380: acab d73d 5a76 10be d471 28bd 06e3 1d3e
00000390: 136e 2b3e bc95 4b3e 80ef 11bd 1d82 1cbe
000003a0: 90c9 533e 1f1a 1abd 07b9 8dbd 619c 5e3d
000003b0: 0b6d 0cbe c522 0f3e 2dc0 083e 5d1b 20be
000003c0: 33a8 40be 83e9 13bd 6026 8c3d 7b16 babc
000003d0: 54c1 f5bd 1a37 3ebc acf9 54be c01d 24be
000003e0: a86f 1bbe 05ec 1b3e 5e1a 283e 0432 aebd
000003f0: 82c0 d5bb 4068 9a3d e8fe 103c 713e f1bd

fc1.bias f4 [128]
0.13567108 -0.20138235 -0.13938533 0.056479752 -0.005538871 0.12376043 0.08732498 0.009976953
0.022733353 0.15477628 -0.20774287 -0.06985219 0.13171086 -0.1595586 0.09115502 0.14201544
0.06559196 -0.12798339 -0.12209541 0.04781986 -0.091077715 0.08025727 0.058605254 0.036964044
0.17157562 -0.20599398 -0.19242243 0.13600367 -0.06852746 -0.20916735 -0.07739508 0.14505228
-0.028769255 0.10579639 0.10687832 -0.0625747 0.09608658 0.061949614 -0.118650936 -0.058141444
0.11519947 0.07938969 0.028401911 -0.01649221 -0.14375283 -0.049094576 0.13044576 -0.011058912
-0.1223557 0.01850879 -0.17118298 -0.022108175 -0.01987486 -0.20273702 -0.13725649 -0.13832346
-0.13983986 0.16913463 0.079476476 -0.1574197 -0.07720082 0.14995632 0.17332835 0.008136325
-0.004496869 -0.1581928 0.11271583 -0.056832474 0.0091498345 -0.0415664 0.0706273 0.03788607
-0.047047913 -0.039325792 -0.016610192 -0.15837316 -0.012112439 -0.15282664 0.19635457 0.09492202
-0.021616489 0.12994713 0.015555256 0.18651882 0.048990574 0.096226454 0.037550144 -0.11562367
-0.17640272 -0.08906791 0.16148135 0.10436085 -0.07697053 -0.121900834 0.20100942 0.022125572
-0.1847732 -0.07220486 0.0011191706 -0.01951398 -0.08664774 0.052653573 -0.1385288 0.095576
-0.1457287 0.16458958 0.16376308 0.19731927 -0.21026728 -0.07054041 -0.043791536 -0.1817229
0.083461806 -0.08213122 0.0074537704 0.097699344 -0.17094404 0.030952722 -0.0894609 0.12267799
0.16780703 -0.05967832 -0.1315408 0.11942041 -0.14524595 0.17612447 0.16305244 0.09072302
00000000: 5ced 0a3e 2d37 4ebe 07bb 0ebe 5057 673d
00000010: 6b7f b5bb 1c76 fd3d 70d7 b23d 6076 233c
00000020: 4c3b ba3c ac7d 1e3e 8cba 54be aa0e 8fbd
00000030: 36df 063e 5463 23be 7caf ba3d 7f6c 113e
00000040: 1455 863d 140e 03be 290d fabd c2de 433d
00000050: f486 babd ec5d a43d 100c 703d 9c67 173d
00000060: 85b1 2f3e 16f0 52be 630a 45be 8c44 0b3e
00000070: 2058 8cbd f72f 56be 5081 9ebd 9688 143e
00000080: 80ad ebbc c7ab d83d 05e3 da3d 2a27 80bd
00000090: 0ac9 c43d e1be 7d3d 43ff f2bd b925 6ebd
000000a0: b3ed eb3d 1097 a23d 20ab e83c ac1a 87bc
000000b0: f133 13be 6517 49bd 9393 053e 7030 35bc
000000c0: a095 fabd bf9f 973c 974a 2fbe 341c b5bc
000000d0: 9ad0 a2bc 4b9a 4fbe f78c 0cbe aaa4 0dbe
000000e0: 2e32 0fbe a131 2d3e 90c4 a23d a132 21be
000000f0: 771b 9ebd 268e 193e fd7c 313e 384e 053c
00000100: 795a 93bb 4bfd 21be 8fd7 e63d 2bc9 68bd
00000110: 30e9 153c 8841 2abd 0ca5 903d 6c2e 1b3d
00000120: 50b5 40bd 1514 21bd 1912 88bc 932c 22be
00000130: 4073 46bc 967e 1cbe 2c11 493e 7a66 c23d
00000140: 1015 b1bc dc10 053e 79db 7e3c cafe 3e3e
00000150: 57aa 483d 6012 c53d 2ece 193d 1acc ecbd
00000160: eaa2 34be 3d69 b6bd 5e5b 253e 24bb d53d
00000170: baa2 9dbd 25a7 f9bd 6ad5 4d3e b040 b53c
00000180: 3035 3dbe 24e0 93bd 22b1 923a c8db 9fbc
00000190: 5f74 b1bd 46ab 573d 7eda 0dbe 5abd c33d
000001a0: e839 15be 2c8a 283e 82b1 273e 100e 4a3e
000001b0: 4e50 57be 7e77 90bd c15e 33bd 9115 3abe
000001c0: 06ee aa3d 6a34 a8bd c23e f43b 9816 c83d
000001d0: f40b 2fbe 9090 fd3c 4737 b7bd 993e fb3d
000001e0: 9bd5 2b3e 4171 74bd a2b2 06be b092 f43d
000001f0: 5bbb 14be f959 343e 38f7 263e fecc b93d

fc2.weight f4 [64, 128]
-0.04164313 0.07873877 0.06696551 -0.016934738 -0.04570744 -0.001700088 0.0690741 0.07701967
-0.07516883 0.07708047 -0.050251797 0.01632402 -0.039321966 -0.049805466 -0.0045259115 0.013504113
-0.07173523 -0.055017382 0.07002107 0.006293198 -0.045771394 0.0757188 -0.08264448 -0.023069143
0.0788888 0.016794844 -0.0254366 -0.047793493 -0.0221508 -0.04079919 -0.014098327 0.06406438
0.048288547 -0.023080025 0.056951515 -0.08213673 0.011376899 0.05157431 0.024092346 -0.06756554
0.024622139 0.05447886 -0.0069437325 0.05575627 -0.074745126 -0.071862005 -0.074280605 0.03867019
-0.0758055 -0.020758452 -0.023486655 -0.04390692 0.0006801313 -0.05933887 -0.06324658 0.055797987
0.02607333 0.0089747785 -0.015342936 0.032551948 0.012404154 -0.019057624 -0.00789761 0.01780653
0.070810005 -0.07010198 -0.053461768 -0.030957853 0.04178089 -0.06013567 -0.042761866 -0.028031785
-0.0075704902 -0.071137995 0.02234284 0.08077449 0.05529871 -0.068973474 0.03005133 0.05376575
0.03164798 0.043543026 0.043884434 -0.02129732 0.06918594 0.08274811 0.037916187 -0.014569953
0.0059501175 0.06898652 -0.10536992 0.024384849 -0.034005526 0.012518724 -0.058626644 -0.016364329
0.00924993 -0.054772526 -0.056318548 0.041221656 -0.042714186 0.0689449 -0.041318767 0.06976561
0.011279276 -0.051434327 -0.0039898753 -0.017429903 0.023495808 0.039402 -0.07032268 0.025245193
0.051797867 -0.015337439 0.0021977094 0.047383673 -0.06791134 0.07627905 -0.07403554 -0.041631132
0.04254507 -0.0032333175 -0.08597029 -0.06024132 -0.004570678 -0.033489794 -0.015667245 0.065378584
-0.038941823 0.016607665 -0.07622502 -0.03788164 0.07837621 0.032770693 -0.0015501603 -0.03577861
-0.06195039 0.04874646 -0.034185365 -0.0029788762 -0.052916106 -0.0322249 0.012631004 -0.004892589
-0.0063001215 -0.011421878 0.040733863 0.027344001 0.07943129 0.006122701 -0.07952164 -0.004501432
0.078197785 -0.02785104 0.010980959 0.0047577247 -0.061590508 0.08414764 -0.0147815235 -0.065641955
-0.062775835 -0.051025465 -0.0776606 0.06786921 0.08652728 -0.07283455 -0.04599243 0.046642914
-0.015699107 0.086071126 -0.045073062 -0.0316185 -0.07259376 -0.027008886 0.06699416 -0.014099017
-0.08114054 0.055083014 -0.039866038 0.038678333 0.09525271 0.046859317 0.07371508 -0.06623569
-0.06103141 -0.07794637 0.059154503 -0.010153301 0.02512121 -0.05705284 0.013455738 0.08919141
0.006897719 0.08349855 -0.05433858 0.017183688 -0.013604871 -0.08057822 -0.0450846 -0.004330647
-0.08474607 0.071398936 -0.044298735 0.005613012 -0.0009499192 -0.08499908 -0.16476184 0.021807238
-0.025309265 0.053016935 0.03249763 0.03333641 0.057643723 0.014881797 -0.071524695 0.038518615
-0.044034768 0.02450235 0.045888737 0.025262915 0.07166095 0.08995124 -0.06495037 -0.041157912
0.045588586 -0.0019054487 0.024913946 -0.07884683 -0.02885503 0.0045519755 0.07211632 -0.055880915
0.020181566 0.010946371 -0.0383122 0.044320706 0.08941324 0.07274843 -0.011845553 -0.0029958445
0.001215391 0.06905836 -0.042121314 0.022005767 0.057719395 0.05711027 -0.03555489 0.050483562
-0.07245099 -0.020842543 0.07124225 -0.041064136 0.0032887608 0.08353219 0.0107688755 0.0046251537
00000000: fd91 2abd cb41 a13d 3725 893d b8ba 8abc
00000010: b937 3bbd 7dd5 deba b976 8d3d 7dbc 9d3d
00000020: 1ef2 99bd 5edc 9d3d d4d4 4dbd f4b9 853c
00000030: 1210 21bd d100 4cbd 194e 94bb 5b40 5d3c
00000040: ece9 92bd e859 61bd 3567 8f3d 2c37 ce3b
00000050: c97a 3bbd 7512 9b3d 8241 a9bd 80fb bcbc
00000060: 7490 a13d 5795 893c 6b60 d0bc 1cc3 43bd
00000070: 9875 b5bc 0d1d 27bd abfc 66bc 3034 833d
00000080: 36ca 453d 5212 bdbc fe45 693d 4d37 a8bd
00000090: 2c66 3a3c 953f 533d 505d c53c cd5f 8abd
000000a0: 5eb4 c93c 3a25 5f3d 4088 e3bb b060 643d
000000b0: f913 99bd 632c 93bd 6e20 98bd a264 1e3d
000000c0: ea3f 9bbd a10d aabc 1667 c0bc bed7 33bd
000000d0: d74a 323a 510d 73bd 6c87 81bd 6e8c 643d
000000e0: bc97 d53c f30a 133c f060 7bbc 3155 053d
000000f0: cb3a 4b3c bc1e 9cbc fa64 01bc 00df 913c
00000100: d604 913d a091 8fbd bafa 5abd 539b fdbc
00000110: 7022 2b3d d250 76bd 1127 2fbd eaa2 e5bc
00000120: e011 f8bb ccb0 91bd 5508 b73c 196d a53d
00000130: e680 623d f741 8dbd 352e f63c 7a39 5c3d
00000140: 50a1 013d 2c5a 323d 2ac0 333d b877 aebc
00000150: 5cb1 8d3d d777 a93d 014e 1b3d d0b6 6ebc
00000160: 34f9 c23b ce48 8d3d 2fcc d7bd bcc2 c73c
00000170: 6149 0bbd 561b 4d3c 7e22 70bd 7c0e 86bc
00000180: 058d 173c 2859 60bd 47ae 66bd 0ad8 283d
00000190: 12f5 2ebd fc32 8d3d de3d 29bd 46e1 8e3d
000001a0: b6cc 383c cdac 52bd 80bd 82bb 28c9 8ebc
000001b0: 487a c03c fe63 213d 5605 90bd 02cf ce3c
000001c0: 002a 543d e249 7bbc 7207 103b 6215 423d
000001d0: 1a15 8bbd 3138 9c3d f29f 97bd 6885 2abd
000001e0: bd43 2e3d 11e6 53bb 3111 b0bd 9abf 76bd
000001f0: a0c5 95bb 982c 09bd 9858 80bc 35e5 853d
00000200: 7681 1fbd cc0c 883c dd1b 9cbd c729 1bbd
00000210: b583 a03d 903a 063d c02e cbba 978c 12bd
00000220: b1bf 7dbd 5eaa 473d f405 0cbd 4039 43bb
00000230: 8fbe 58bd 42fe 03bd 45f2 4e3c 0352 a0bb
00000240: 4071 cebb d422 3bbc 8dd8 263d 8700 e03c
00000250: dfac a23d f0a0 c83b 3edc a2bd c080 93bb
00000260: 2926 a03d dd27 e4bc 7be9 333c b0e6 9b3b
00000270: 5446 7cbd 9955 ac3d 342e 72bc 4a6f 86bd
00000280: 9e90 80bd 1400 51bd 850c 9fbd 03ff 8a3d
00000290: 3735 b13d 482a 95bd 8f62 3cbd a40c 3f3d
000002a0: 6a9b 80bc 0f46 b03d 889e 38bd 6682 01bd
000002b0: 0aac 94bd bd41 ddbc 3c34 893d 90ff 66bc
000002c0: 032d a6bd ba9e 613d 924a 23bd 2c6d 1e3d
000002d0: da13 c33d 8eef 3f3d eff7 963d 94a6 87bd
000002e0: 12fc 79bd 59a2 9fbd fe4b 723d 085a 26bc
000002f0: ffca cd3c 3db0 69bd 7575 5c3c fca9 b63d
00000300: 4306 e23b 4a01 ab3d 2292 5ebd cec4 8c3c
00000310: f7e6 5ebc 3206 a5bd a1aa 38bd 1ae8 8dbb
00000320: 598f adbd 9b39 923d 9772 35bd 5bed b73b
00000330: 0004 79ba ff13 aebd 54b7 28be 18a5 b23c
00000340: 6055 cfbc 4928 593d 3c1c 053d c28b 083d
00000350: d31b 6c3d c8d2 733c 8a7b 92bd b2c5 1d3d
00000360: cd5d 34bd 27b9 c83c d4f5 3b3d 2cf4 ce3c
00000370: fac2 923d 5b38 b83d b304 85bd 3395 28bd
00000380: 19bb 3a3d 40c0 f9ba 5518 cc3c 727a a1bd
00000390: 6261 ecbc bd28 953b b9b1 933d 63e3 64bd
000003a0: d053 a53c 6858 333c 41ed 1cbd a189 353d
000003b0: 4a1e b73d 21fd 943d da13 42bc ee55 44bb
000003c0: c14d 9f3a 786e 8d3d 6687 2cbd 7045 b43c
000003d0: 2c6b 6c3d 75ec 693d 01a2 11bd dac7 4e3d
000003e0: 2f61 94bd fbbd aabc 75e7 913d de32 28bd
000003f0: 4088 573b ed12 ab3d f06f 303c 9a8e 973b

fc2.bias f4 [64]
-0.043466955 0.006002731 0.042130135 0.032668028 -0.005615972 -0.050211575 -0.04515524 -0.07552174
0.012070976 0.03569585 -0.01978232 -0.015217452 0.09064644 -0.03598397 -0.0030234137 0.060372867
-0.037219618 0.058570936 -0.034010906 0.035474706 -0.088233 0.03898409 -0.035923157 0.08194552
-0.0697923 -0.026353918 0.02506473 0.07046799 0.0083722845 0.05772795 -0.03705291 -0.07214958
0.061627172 0.031802334 -0.011957616 0.038029216 0.06384463 0.005898744 0.06158393 0.01739257
-0.043194722 -0.004479207 0.059591956 -0.08377971 0.020439051 0.07485289 -0.067071974 0.08335025
0.07432324 -0.06994667 0.036466427 0.020254178 0.030129151 0.045989342 -0.04209685 -0.027427178
0.02702789 -0.07504992 -0.013497361 -0.08613364 -0.08599213 -0.035209235 -0.08504572 -0.02894991
00000000: 680a 32bd 8fb2 c43b a690 2c3d e9ce 053d
00000010: 3006 b8bb a7aa 4dbd b3f4 38bd 24ab 9abd
00000020: 58c5 453c d035 123d 880e a2bc 9f52 79bc
00000030: d7a4 b93d ed63 13bd 7724 46bb 8a49 773d
00000040: 9973 18bd 14e8 6f3d 054f 0bbd ed4d 113d
00000050: 81b3 b4bd c8ad 1f3d 2924 13bd 0ed3 a73d
00000060: 44ef 8ebd 2ce4 d7bc 8c54 cd3c 8651 903d
00000070: e82b 093c 2574 6c3d cbc4 17bd 29c3 93bd
00000080: c66c 7c3d 2a43 023d e0e9 43bc 86c4 1b3d
00000090: f9c0 823d 404a c13b 6e3f 7c3d dd7a 8e3c
000000a0: f3ec 30bd 50c6 92bb b216 743d b294 abbd
000000b0: cc6f a73c 794c 993d 085d 89bd 89b3 aa3d
000000c0: c836 983d 3340 8fbd d25d 153d 17ec a53c
000000d0: 69d1 f63c 525f 3c3d bf6d 2cbd f6ae e0bc
000000e0: 9869 dd3c c6b3 99bd 0924 5dbc d566 b0bd
000000f0: a41c b0bd 8f37 10bd 732c aebd 5d28 edbc

fc3.weight f4 [24, 64]
0.047452237 0.0129901515 -0.007615626 0.060482554 0.061391845 -0.11144943 0.0968277 0.09028293
0.024142504 -0.0701101 -0.05343101 -0.051531382 -0.06813362 0.103501566 -0.14050472 -0.0083652735
0.10563506 0.07340001 -0.094917074 0.06700405 -0.12595506 -0.099395655 0.1501426 -0.010290816
-0.14863388 -0.10305144 -0.012637529 0.0056605013 0.08509323 -0.03116177 0.040583 0.017603945
0.06355168 -0.12285113 -0.0622043 -0.09877311 0.027703136 -0.0894849 -0.07806061 0.034495585
0.04900208 0.042690665 0.055963267 -0.14396273 -0.033836998 0.09879112 0.030115753 0.033886444
0.13566013 0.08587317 -0.09612798 0.22940505 0.0036818504 -0.045173436 0.11381006 -0.07860175
0.0060651153 0.08141653 -0.12114512 -0.07937578 0.11518459 -0.11740048 0.088670194 0.0020809134
-0.12219933 0.0929147 -0.004247248 0.018182414 0.10725807 0.019036962 0.03897454 -0.022369891
-0.11815216 0.05845721 0.087949455 -0.030487008 0.06982196 0.026034977 0.080816016 -0.0073034316
-0.077809975 -0.0018122119 0.083247125 -0.07667809 0.020328483 0.10820679 0.124048784 0.042220343
-0.11303025 0.058926478 0.081920885 0.09506871 -0.07684192 -0.07822104 -0.102603 -0.097783275
-0.014511571 -0.013523087 0.07140961 -0.108505145 0.08556457 0.017181158 0.017236754 0.06833936
0.10244973 0.07369745 -0.13264045 -0.047323592 0.030488476 -0.12941958 -0.09730174 0.09770062
-0.028087284 0.029750718 0.05040313 -0.08616281 -0.028882623 -0.12175132 0.021504074 -0.073052496
0.019154012 -0.060571656 -0.13052444 0.00022698841 0.061385304 -0.06708342 0.039138295 -0.08313104
-0.055959214 -0.018932223 -0.03306687 0.021994472 -0.11802183 0.07544284 -0.12080763 0.02426356
0.09747288 -0.06325452 -0.13378166 0.08154328 0.056723688 -0.03135173 -0.0073698633 0.066280946
-0.08431162 -0.031202689 0.07514863 0.048514355 -0.01943314 -0.014705901 0.10801043 0.06593999
-0.12095143 -0.11295523 -0.049555447 -0.081806764 -0.05810027 0.01742574 -0.001349127 0.0870608
0.14413239 0.03414391 0.07423596 -0.1159932 -0.026681393 0.09607117 -0.016793221 0.0037336003
-0.043174386 0.010724217 -0.024548233 0.11327342 0.057021674 -0.050258577 0.092959985 -0.055925854
0.08156466 0.104816765 -0.11843329 -0.02644851 -0.09423476 -0.11740662 0.10988213 0.021266237
-0.077431604 0.093581714 0.047373313 0.013940713 -0.01346685 0.03797613 -0.13683847 -0.11357584
-0.13498421 -0.023449346 -0.0035379976 0.11174913 -0.10964316 0.05698992 0.018545464 0.1198491
0.094238654 -0.11513065 -0.08034979 -0.011290077 0.09450198 0.057490252 0.07913892 -0.021293163
-0.07348387 0.059149347 0.08205609 0.045812123 -0.072514266 0.08942542 0.09070494 -0.062469296
-0.046667684 0.09813818 0.03884881 0.08914695 0.025471091 -0.10040597 0.0076064887 -0.02495148
0.0834821 0.004828796 0.016276687 0.047268853 -0.10808197 -0.031107351 -0.10320449 -0.117954485
0.047037095 -0.047870234 -0.085418314 -0.12371551 0.104355894 -0.11693525 -0.09690791 -0.09737328
-0.026415795 0.008153675 -0.061326094 -0.012579701 0.070422746 -0.08225991 -0.076680034 0.012885913
-0.040315896 -0.09851613 -0.11436437 0.04950782 0.017460585 -0.11584726 -0.055094603 -0.10503828
00000000: 475d 423d a5d4 543c 808c f9bb 8ebc 773d
00000010: 0476 7b3d 993f e4bd 9a4d c63d 42e6 b83d
00000020: 80c6 c53c e295 8fbd 7ada 5abd 9212 53bd
00000030: a489 8bbd a1f8 d33d 78e0 0fbe 800e 09bc
00000040: 3257 d83d bf52 963d e263 c2bd 6b39 893d
00000050: 5dfa 00be f38f cbbd fbbe 193e d09a 28bc
00000060: 7b33 18be a20c d3bd a30d 4fbc ba7b b93b
00000070: 5c45 ae3d f846 ffbc 5c3a 263d 2636 903c
00000080: 6227 823d 6099 fbbd f0c9 7ebd 8e49 cabd
00000090: b0f1 e23c dc43 b7bd 3ede 9fbd 3e4b 0d3d
000000a0: 68b6 483d 68dc 2e3d bd39 653d f76a 13be
000000b0: aa98 0abd 0053 ca3d 50b5 f63c 83cc 0a3d
000000c0: 7dea 0a3e 46de af3d bfde c4bd 28e9 6a3e
000000d0: 334b 713b c807 39bd 4015 e93d f4f9 a0bd
000000e0: e0bd c63b b6bd a63d ef1a f8bd c58f a2bd
000000f0: e6e5 eb3d aa6f f0bd b898 b53d ef5f 083b
00000100: a443 fabd 104a be3d 802c 8bbb 49f3 943c
00000110: 1eaa db3d 67f3 9b3c c4a3 1f3d 1041 b7bc
00000120: c2f9 f1bd d470 6f3d d81e b43d e4bf f9bc
00000130: d1fe 8e3d 4e47 d53c de82 a53d a051 efbb
00000140: d65a 9fbd be87 edba 787d aa3d 6709 9dbd
00000150: eb87 a63c 869b dd3d 4a0d fe3d 3def 2c3d
00000160: 677c e7bd e45c 713d 23c6 a73d 62b3 c23d
00000170: 4c5f 9dbd 5a32 a0bd 8621 d2bd 9942 c8bd
00000180: f1c1 6dbc f08f 5dbc 343f 923d f237 debd
00000190: 7a3c af3d 80bf 8c3c 1834 8d3c 82f5 8b3d
000001a0: 2ad1 d13d b0ee 963d e6d2 07be 62d6 41bd
000001b0: f8c2 f93c 9186 04be 2246 c7bd 4317 c83d
000001c0: 4e17 e6bc c7b7 f33c 8373 4e3d 2176 b0bd
000001d0: 409b ecbc c258 f9bd 5029 b03c 8c9c 95bd
000001e0: e0e8 9c3c fc19 78bd 33a8 05be bd03 6e39
000001f0: 286f 7b3d 0863 89bd 7a4f 203d 9b40 aabd
00000200: 7d35 65bd c017 9bbc 2071 07bd c02d b43c
00000210: 6eb5 f1bd c781 9a3d fe69 f7bd 60c4 c63c
00000220: dc9f c73d 968b 81bd 0ffe 08be 2a00 a73d
00000230: 1957 683d ac6a 00bd e57e f1bb 4ebe 873d
00000240: 92ab acbd c89c ffbc 86e7 993d fdb6 463d
00000250: 4032 9fbc 05f1 70bc 9334 dd3d 8c0b 873d
00000260: 62b5 f7bd 1255 e7bd a7fa 4abd 4e8a a7bd
00000270: 8cfa 6dbd 6dc0 8e3c 31d5 b0ba ef4c b23d
00000280: 7197 133e 7cda 0b3d 0609 983d d88d edbd
00000290: f092 dabc f6c0 c43d f091 89bc 6baf 743b
000002a0: a0d7 30bd a0b4 2f3c 6019 c9bc e5fb e73d
000002b0: 8f8f 693d f0db 4dbd ce61 be3d 8212 65bd
000002c0: 5f0b a73d 2caa d63d 278d f2bd 8caa d8bc
000002d0: 27fe c0bd e272 f0bd e209 e13d 8836 ae3c
000002e0: 7694 9ebd c5a7 bf3d 850a 423d 9767 643c
000002f0: 10a4 5cbc dc8c 1b3d 621f 0cbe 739a e8bd
00000300: 4d39 0abe d818 c0bc c0dd 67bb badc e43d
00000310: 988c e0bd 436e 693d a8ec 973c 7273 f53d
00000320: 3200 c13d 9ec9 ebbd 6e8e a4bd 04fa 38bc
00000330: 418a c13d e67a 6b3d 9613 a23d 006f aebc
00000340: b67e 96bd 9646 723d 060d a83d 7ea5 3b3d
00000350: 5c82 94bd ad24 b73d 83c3 b93d cedf 7fbd
00000360: 9d26 3fbd acfc c83d ee1f 1f3d ad92 b63d
00000370: c0a8 d03c a5a1 cdbd da3f f93b 0c67 ccbc
00000380: aaf8 aa3d e03a 9e3b b056 853c fc9c 413d
00000390: 145a ddbd d8d4 febc e05c d3bd 1f92 f1bd
000003a0: f8a9 403d 9413 44bd ccef aebd 8f5e fdbd
000003b0: 8bb8 d53d c07b efbd a877 c6bd a46b c7bd
000003c0: f065 d8bc fe96 053c 1231 7bbd 171b 4ebc
000003d0: cd39 903d e277 a8bd 6c0a 9dbd 701f 533c
000003e0: 4822 25bd d3c2 c9bd de37 eabd b6c8 4a3d
000003f0: 8009 8f3c 5441 edbd e1aa 61bd 4f1e d7bd

fc3.bias f4 [24]
-0.12789884 -0.04458659 -0.10629318 0.08670828 -0.027670445 -0.11305807 0.091020495 0.02737978
-0.02261863 -0.032324545 -0.009477794 -0.09538023 -0.10589054 0.13064383 0.084225886 0.0020670395
0.11223071 -0.025301531 -0.04836427 0.08635722 -0.037122995 0.00618101 0.088357046 -0.116389506
00000000: eaf7 02be 6ea0 36bd 3db0 d9bd 1c94 b13d
00000010: 21ad e2bc fd8a e7bd f468 ba3d 8f4b e03c
00000020: b54a b9bc be66 04bd c048 1bbc b656 c3bd
00000030: 24dd d8bd 7fc7 053e 9f7e ac3d 2b77 073b
00000040: 37d9 e53d 2845 cfbc 9d19 46bd 0edc b03d
00000050: 480e 18bd 128a ca3b 8af4 b43d 9f5d eebd

exp_avg f4 [128, 24]
0.0 0.0 0.0 0.0 0.0 0.0 0.0 0.0
0.0 0.0 0.0 0.0 0.0 0.0 0.0 0.0
0.0 0.0 0.0 0.0 0.0 0.0 0.0 0.0
-3.2425314e-06 -6.485063e-06 -9.7208085e-06 -1.2970126e-05 -1.6213507e-05 -1.9441617e-05 -2.269111e-05 -2.5940251e-05
-2.917128e-05 -3.2427015e-05 -3.5647827e-05 -3.8883234e-05 -4.214741e-05 -4.538222e-05 -4.8614304e-05 -5.1880503e-05
-5.510075e-05 -5.834256e-05 -6.378097e-05 -7.342173e-05 -8.100701e-05 -8.100701e-05 -8.100701e-05 -8.100701e-05
0.0 0.0 0.0 0.0 0.0 0.0 0.0 0.0
0.0 0.0 0.0 0.0 0.0 0.0 0.0 0.0
0.0 0.0 0.0 0.0 0.0 0.0 0.0 0.0
0.0 0.0 0.0 0.0 0.0 0.0 0.0 0.0
0.0 0.0 0.0 0.0 0.0 0.0 0.0 0.0
0.0 0.0 0.0 0.0 0.0 0.0 0.0 0.0
-9.530101e-07 -2.0139742e-06 -3.0657225e-06 -4.1348976e-06 -5.194993e-06 -6.246584e-06 -7.3205547e-06 -8.3763425e-06
-9.439462e-06 -1.0500798e-05 -1.1534953e-05 -1.2599103e-05 -1.3686213e-05 -1.4747694e-05 -1.5789825e-05 -1.6862177e-05
-1.7917599e-05 -1.8983112e-05 -2.0101565e-05 -2.1521866e-05 -2.6204709e-05 -2.6204709e-05 -2.6204709e-05 -2.6204709e-05
1.2626429e-06 1.96378e-06 2.663625e-06 3.3647004e-06 4.059012e-06 4.7687618e-06 5.455092e-06 6.170775e-06
6.8600043e-06 7.5556504e-06 8.248586e-06 8.980498e-06 9.660793e-06 1.0340321e-05 1.1063607e-05 1.1780104e-05
1.2467627e-05 1.3158316e-05 1.446272e-05 1.6452843e-05 1.880867e-05 1.880867e-05 1.880867e-05 1.880867e-05
0.0 0.0 0.0 0.0 0.0 0.0 0.0 0.0
0.0 0.0 0.0 0.0 0.0 0.0 0.0 0.0
0.0 0.0 0.0 0.0 0.0 0.0 0.0 0.0
0.0 0.0 0.0 0.0 0.0 0.0 0.0 0.0
0.0 0.0 0.0 0.0 0.0 0.0 0.0 0.0
0.0 0.0 0.0 0.0 0.0 0.0 0.0 0.0
2.9700905e-06 5.5564965e-06 8.145502e-06 1.0728041e-05 1.3312812e-05 1.5906e-05 1.8479914e-05 2.1073669e-05
2.3661003e-05 2.6234517e-05 2.8834866e-05 3.1431446e-05 3.399294e-05 3.657556e-05 3.9166713e-05 4.17572e-05
4.433963e-05 4.6937228e-05 5.0748607e-05 5.6003795e-05 6.556037e-05 6.556037e-05 6.556037e-05 6.556037e-05
-3.4749505e-06 -5.9141416e-06 -8.353103e-06 -1.0793514e-05 -1.3237146e-05 -1.5671223e-05 -1.8104945e-05 -2.0544234e-05
-2.2987853e-05 -2.54376e-05 -2.7828019e-05 -3.0304842e-05 -3.272873e-05 -3.5178462e-05 -3.7617036e-05 -4.005658e-05
-4.2460415e-05 -4.4948563e-05 -4.8167003e-05 -5.293589e-05 -6.348673e-05 -6.348673e-05 -6.348673e-05 -6.348673e-05
2.5355894e-06 4.1107687e-06 5.6843146e-06 7.261834e-06 8.843012e-06 1.041285e-05 1.1993568e-05 1.356042e-05
1.5129221e-05 1.6723025e-05 1.8294011e-05 1.9862677e-05 2.1440452e-05 2.3026774e-05 2.4583522e-05 2.6158938e-05
00000000: 0000 0000 0000 0000 0000 0000 0000 0000
00000010: 0000 0000 0000 0000 0000 0000 0000 0000
00000020: 0000 0000 0000 0000 0000 0000 0000 0000
00000030: 0000 0000 0000 0000 0000 0000 0000 0000
00000040: 0000 0000 0000 0000 0000 0000 0000 0000
00000050: 0000 0000 0000 0000 0000 0000 0000 0000
00000060: 449a 59b6 449a d9b6 8e16 23b7 449a 59b7
00000070: 3e02 88b7 8e16 a3b7 ca58 beb7 449a d9b7
00000080: d9b4 f4b7 3e02 08b8 9084 15b8 8e16 23b8
00000090: 70c7 30b8 ca58 3eb8 36e7 4bb8 449a 59b8
000000a0: fb1b 67b8 d9b4 74b8 26c2 85b8 fef9 99b8
000000b0: 4fe2 a9b8 4fe2 a9b8 4fe2 a9b8 4fe2 a9b8
000000c0: 0000 0000 0000 0000 0000 0000 0000 0000
000000d0: 0000 0000 0000 0000 0000 0000 0000 0000
000000e0: 0000 0000 0000 0000 0000 0000 0000 0000
000000f0: 0000 0000 0000 0000 0000 0000 0000 0000
00000100: 0000 0000 0000 0000 0000 0000 0000 0000
00000110: 0000 0000 0000 0000 0000 0000 0000 0000
00000120: 0000 0000 0000 0000 0000 0000 0000 0000
00000130: 0000 0000 0000 0000 0000 0000 0000 0000
00000140: 0000 0000 0000 0000 0000 0000 0000 0000
00000150: 0000 0000 0000 0000 0000 0000 0000 0000
00000160: 0000 0000 0000 0000 0000 0000 0000 0000
00000170: 0000 0000 0000 0000 0000 0000 0000 0000
00000180: 5bd2 7fb5 d027 07b6 b6bc 4db6 80be 8ab6
00000190: a650 aeb6 bf99 d1b6 16a3 f5b6 1e88 0cb7
000001a0: 2e5e 1eb7 962c 30b7 3f86 41b7 bc60 53b7
000001b0: d69d 65b7 dd6c 77b7 6474 84b7 4073 8db7
000001c0: c04d 96b7 ec3d 9fb7 c89f a8b7 db89 b4b7
000001d0: 2fd2 dbb7 2fd2 dbb7 2fd2 dbb7 2fd2 dbb7
000001e0: 1478 a935 7cc9 0336 bbc0 3236 1dcd 6136
000001f0: a632 8836 5a03 a036 e20a b736 8e0e cf36
00000200: fd2e e636 8b86 fd36 6863 0a37 f2aa 1637
00000210: ca14 2237 577b 2d37 d59d 3937 29a3 4537
00000220: 0d2c 5137 89c2 5c37 e9a4 7237 3604 8a37
00000230: 50c7 9d37 50c7 9d37 50c7 9d37 50c7 9d37
00000240: 0000 0000 0000 0000 0000 0000 0000 0000
00000250: 0000 0000 0000 0000 0000 0000 0000 0000
00000260: 0000 0000 0000 0000 0000 0000 0000 0000
00000270: 0000 0000 0000 0000 0000 0000 0000 0000
00000280: 0000 0000 0000 0000 0000 0000 0000 0000
00000290: 0000 0000 0000 0000 0000 0000 0000 0000
000002a0: 0000 0000 0000 0000 0000 0000 0000 0000
000002b0: 0000 0000 0000 0000 0000 0000 0000 0000
000002c0: 0000 0000 0000 0000 0000 0000 0000 0000
000002d0: 0000 0000 0000 0000 0000 0000 0000 0000
000002e0: 0000 0000 0000 0000 0000 0000 0000 0000
000002f0: 0000 0000 0000 0000 0000 0000 0000 0000
00000300: c451 4736 f171 ba36 aaa8 0837 96fc 3337
00000310: 185a 5f37 e06d 8537 5005 9b37 5cc7 b037
00000320: 9e7b c637 3212 dc37 67e2 f137 42d5 0338
00000330: a493 0e38 b568 1938 f046 2438 7424 2f38
00000340: 51f9 3938 77de 4438 e7da 5438 9ee5 6a38
00000350: 757d 8938 757d 8938 757d 8938 757d 8938
00000360: 3233 69b6 1772 c6b6 4e24 0cb7 ca15 35b7
00000370: 1c15 5eb7 b275 83b7 13e0 97b7 6856 acb7
00000380: 0ad6 c0b7 d462 d5b7 3770 e9b7 2737 feb7
00000390: 3546 09b8 968c 13b8 fcc6 1db8 6d02 28b8
000003a0: 8617 32b8 2787 3cb8 ed06 4ab8 7b07 5eb8
000003b0: 2e24 85b8 2e24 85b8 2e24 85b8 2e24 85b8
000003c0: 1829 2a36 3cef 8936 e4bb be36 aeaa f336
000003d0: 735c 1437 dab2 2e37 fb37 4937 8f81 6337
000003e0: 82d3 7d37 6c48 8c37 1776 9937 c69e a637
000003f0: 05db b337 9f29 c137 b638 ce37 e46f db37

exp_avg_sq f4 [128, 24]
0.0 0.0 0.0 0.0 0.0 0.0 0.0 0.0
0.0 0.0 0.0 0.0 0.0 0.0 0.0 0.0
0.0 0.0 0.0 0.0 0.0 0.0 0.0 0.0
0.0003521466 0.0008919081 0.0018126114 0.0031142463 0.004796826 0.006860342 0.009304811 0.012130197
0.015336577 0.018923823 0.022892008 0.027241204 0.03197126 0.03708236 0.04257431 0.048447266
0.054700922 0.061335888 0.0719874 0.08683234 0.11825556 0.11825556 0.11825556 0.11825556
0.0 0.0 0.0 0.0 0.0 0.0 0.0 0.0
0.0 0.0 0.0 0.0 0.0 0.0 0.0 0.0
0.0 0.0 0.0 0.0 0.0 0.0 0.0 0.0
0.0 0.0 0.0 0.0 0.0 0.0 0.0 0.0
0.0 0.0 0.0 0.0 0.0 0.0 0.0 0.0
0.0 0.0 0.0 0.0 0.0 0.0 0.0 0.0
0.0041192863 0.011428899 0.02255271 0.037490625 0.05624294 0.07880901 0.10518951 0.13538443
0.169393 0.20721583 0.24885266 0.2943045 0.34357026 0.39665022 0.45354417 0.51425093
0.57877344 0.64711046 0.7538234 0.90663993 1.2900112 1.2900112 1.2900112 1.2900112
0.0036662659 0.014613667 0.032875035 0.05845034 0.09134001 0.13154328 0.17906083 0.23389229
0.29603752 0.3654974 0.44227 0.5263593 0.6177603 0.71647483 0.8225048 0.9358485
1.0565047 1.1844786 1.3494862 1.6348071 2.284411 2.284411 2.284411 2.284411
0.0 0.0 0.0 0.0 0.0 0.0 0.0 0.0
0.0 0.0 0.0 0.0 0.0 0.0 0.0 0.0
0.0 0.0 0.0 0.0 0.0 0.0 0.0 0.0
0.0 0.0 0.0 0.0 0.0 0.0 0.0 0.0
0.0 0.0 0.0 0.0 0.0 0.0 0.0 0.0
0.0 0.0 0.0 0.0 0.0 0.0 0.0 0.0
0.004406965 0.014507479 0.030776886 0.053215023 0.0818222 0.11659791 0.15754282 0.20465672
0.25793856 0.31739026 0.3830097 0.45479992 0.5327566 0.61688423 0.7071801 0.8036443
0.9062792 1.0150825 1.183734 1.4205068 1.9808966 1.9808966 1.9808966 1.9808966
0.001941597 0.0062382924 0.013061363 0.02241084 0.034286663 0.048688892 0.065617695 0.085072555
0.107053846 0.13156189 0.15859595 0.18815657 0.22024345 0.25485748 0.29199654 0.3316632
0.37385428 0.41857535 0.48882315 0.59251684 0.8206534 0.8206534 0.8206534 0.8206534
0.0017020394 0.005242421 0.010823175 0.01844435 0.02810586 0.03980773 0.053550098 0.06933264
0.0871561 0.107019395 0.12892309 0.15286745 0.1788517 0.20687743 0.23694287 0.26904806
00000000: 0000 0000 0000 0000 0000 0000 0000 0000
00000010: 0000 0000 0000 0000 0000 0000 0000 0000
00000020: 0000 0000 0000 0000 0000 0000 0000 0000
00000030: 0000 0000 0000 0000 0000 0000 0000 0000
00000040: 0000 0000 0000 0000 0000 0000 0000 0000
00000050: 0000 0000 0000 0000 0000 0000 0000 0000
00000060: 51a0 b839 f0ce 693a 2595 ed3a 6218 4c3b
00000070: b12e 9d3b b8cc e03b 3573 183c bcbd 463c
00000080: 4446 7b3c 2206 9b3c 0588 bb3c f228 df3c
00000090: 4cf4 023d ace3 173d 6662 2e3d a470 463d
000000a0: 130e 603d 573b 7b3d 216e 933d 27d5 b13d
000000b0: f92f f23d f92f f23d f92f f23d f92f f23d
000000c0: 0000 0000 0000 0000 0000 0000 0000 0000
000000d0: 0000 0000 0000 0000 0000 0000 0000 0000
000000e0: 0000 0000 0000 0000 0000 0000 0000 0000
000000f0: 0000 0000 0000 0000 0000 0000 0000 0000
00000100: 0000 0000 0000 0000 0000 0000 0000 0000
00000110: 0000 0000 0000 0000 0000 0000 0000 0000
00000120: 0000 0000 0000 0000 0000 0000 0000 0000
00000130: 0000 0000 0000 0000 0000 0000 0000 0000
00000140: 0000 0000 0000 0000 0000 0000 0000 0000
00000150: 0000 0000 0000 0000 0000 0000 0000 0000
00000160: 0000 0000 0000 0000 0000 0000 0000 0000
00000170: 0000 0000 0000 0000 0000 0000 0000 0000
00000180: 14fb 863b 4740 3b3c 76c0 b83c c58f 193d
00000190: ff5e 663d 9e66 a13d 996d d73d 37a2 0a3e
000001a0: 5c75 2d3e 6330 543e 3bd3 7e3e 14af 963e
000001b0: 71e8 af3e bd15 cb3e f136 e83e f3a5 033f
000001c0: 7f2a 143f 08a9 253f 92fa 403f 8e19 683f
000001d0: 161f a53f 161f a53f 161f a53f 161f a53f
000001e0: bc45 703b 296e 6f3c f9a7 063d a069 6f3d
000001f0: 7910 bb3d 48b3 063e b95b 373e 7681 6f3e
00000200: 3b92 973e 7a22 bb3e 3771 e23e 7cbf 063f
00000210: 8a25 1e3f e56a 373f ad8f 523f c493 6f3f
00000220: 8c3b 873f ff9c 973f f7bb ac3f 5c41 d13f
00000230: ca33 1240 ca33 1240 ca33 1240 ca33 1240
00000240: 0000 0000 0000 0000 0000 0000 0000 0000
00000250: 0000 0000 0000 0000 0000 0000 0000 0000
00000260: 0000 0000 0000 0000 0000 0000 0000 0000
00000270: 0000 0000 0000 0000 0000 0000 0000 0000
00000280: 0000 0000 0000 0000 0000 0000 0000 0000
00000290: 0000 0000 0000 0000 0000 0000 0000 0000
000002a0: 0000 0000 0000 0000 0000 0000 0000 0000
000002b0: 0000 0000 0000 0000 0000 0000 0000 0000
000002c0: 0000 0000 0000 0000 0000 0000 0000 0000
000002d0: 0000 0000 0000 0000 0000 0000 0000 0000
000002e0: 0000 0000 0000 0000 0000 0000 0000 0000
000002f0: 0000 0000 0000 0000 0000 0000 0000 0000
00000300: 4d68 903b c7b0 6d3c cf1f fc3c fff7 593d
00000310: 6692 a73d e3ca ee3d e852 213e 8891 513e
00000320: 8610 843e fa80 a23e d919 c43e 89db e83e
00000330: bd62 083f 20ec 1d3f c109 353f a2bb 4d3f
00000340: ea01 683f 39ee 813f 9984 973f 2bd3 b53f
00000350: 058e fd3f 058e fd3f 058e fd3f 058e fd3f
00000360: 2f7d fe3a 976a cc3b 54ff 553c f096 b73c
00000370: 2c70 0c3d 016e 473d 9262 863d 853a ae3d
00000380: 0c3f db3d 29b8 063e fa66 223e 1eac 403e
00000390: 8087 613e ae7c 823e 9280 953e c2cf a93e
000003a0: d469 bf3e 824f d63e 0747 fa3e 2faf 173f
000003b0: 5716 523f 5716 523f 5716 523f 5716 523f
000003c0: f716 df3a 9dc8 ab3b b053 313c 9b18 973c
000003d0: 433e e63c 6e0d 233d 5957 5b3d 45fe 8d3d
000003e0: e67e b23d fc2c db3d 6a04 043e 4989 1c3e
000003f0: e624 373e add7 533e 27a1 723e abc0 893e

exp_avg f4 [128]
0.0 -3.240993e-06 0.0 0.0 -1.0495031e-06 7.5348424e-07 0.0 0.0
2.622487e-06 -2.5364218e-06 1.6668582e-06 0.0 0.0 0.0 5.1455163e-07 -2.3802668e-06
0.0 2.7864484e-08 1.4578478e-06 -2.9761652e-06 0.0 0.0 0.0 0.0
-4.6970666e-07 -2.5610674e-07 -5.3378386e-07 0.0 0.0 6e-45 -2.9215506e-09 2.0689232e-08
0.0 1.112084e-06 1.7197458e-08 0.0 6e-45 4.4816193e-08 3.9686103e-08 1.4441483e-07
1.8426596e-06 0.0 0.0 2.2301374e-06 0.0 1.6410591e-05 6.3554137e-07 0.0
0.0 1.1633674e-06 1.6491803e-08 6.0573655e-08 -2.2121087e-06 -4.986084e-07 0.0 0.0
2.7335261e-06 -1.5173429e-06 0.0 -1.2102316e-06 -2.6142247e-06 0.0 -1.1497153e-08 1.2195356e-09
-2.94515e-09 -1.9777317e-06 -1.1165619e-06 6.973063e-07 2.1987526e-07 0.0 0.0 -7.7601294e-07
0.0 6.616959e-08 -2.392711e-06 -2.1869934e-07 0.0 0.0 -8.193771e-06 6e-45
0.0 2.2578467e-07 -3.4835193e-07 0.0 -1.7507622e-06 0.0 -8.5518144e-07 0.0
2.274207e-08 -2.8377024e-06 1.4361696e-06 0.0 -1.7705311e-08 7.042914e-07 0.0 0.0
6e-45 0.0 -1.1106301e-09 0.0 2.0318266e-06 6e-45 0.0 9.0889483e-07
6e-45 0.0 0.0 -9.582905e-07 -6.2216e-07 2.5344943e-06 1.8920828e-06 -1.5800744e-06
-7.7064766e-07 -2.98146e-06 5.0294955e-07 0.0 4.8479198e-08 -1.077841e-06 0.0 4.2836025e-08
2.5574648e-08 6e-45 0.0 0.0 0.0 6e-45 0.0 -1.8114847e-06
00000000: 0000 0000 d67f 59b6 0000 0000 0000 0000
00000010: a7dc 8cb5 0b43 4a35 0000 0000 0000 0000
00000020: fcfd 2f36 6537 2ab6 d0b8 df35 0000 0000
00000030: 0000 0000 0000 0000 b81f 0a35 acbc 1fb6
00000040: 0000 0000 a65a ef32 45ab c335 21ba 47b6
00000050: 0000 0000 0000 0000 0000 0000 0000 0000
00000060: fe2b fcb4 0b7f 89b4 5949 0fb5 0000 0000
00000070: 0000 0000 0400 0000 76c4 48b1 1ab8 b132
00000080: 0000 0000 ea42 9535 9cb9 9332 0000 0000
00000090: 0400 0000 ed7b 4033 5573 2a33 7210 1b34
000000a0: 4d51 f735 0000 0000 0000 0000 78a9 1536
000000b0: 0000 0000 7aa9 8937 129a 2a35 0000 0000
000000c0: 0000 0000 0025 9c35 dca9 8d32 b814 8233
000000d0: bd73 14b6 1cd8 05b5 0000 0000 0000 0000
000000e0: 9f71 3736 81a7 cbb5 0000 0000 3e6f a2b5
000000f0: 0a70 2fb6 0000 0000 0385 45b2 989c a730
00000100: a063 4ab1 2cb9 04b6 c6dc 95b5 862e 3b35
00000110: da16 6c34 0000 0000 0000 0000 344f 50b5
00000120: 0000 0000 1e19 8e33 7692 20b6 9ed3 6ab4
00000130: 0000 0000 0000 0000 fa77 09b7 0400 0000
00000140: 0000 0000 386f 7234 2005 bbb4 0000 0000
00000150: bbfb eab5 0000 0000 9f8f 65b5 0000 0000
00000160: 575a c332 5b6f 3eb6 69c2 c035 0000 0000
00000170: 6416 98b2 890e 3d35 0000 0000 0000 0000
00000180: 0400 0000 0000 0000 d3a4 98b0 0000 0000
00000190: 845a 0836 0400 0000 0000 0000 c7fa 7335
000001a0: 0400 0000 0000 0000 0000 0000 9c9e 80b5
000001b0: 8202 27b5 4816 2a36 78f3 fd35 f112 d4b5
000001c0: 81de 4eb5 1815 48b6 6e02 0735 0000 0000
000001d0: 7137 5033 56aa 90b5 0000 0000 b5fa 3733
000001e0: 3faf db32 0400 0000 0000 0000 0000 0000
000001f0: 0000 0000 0400 0000 0000 0000 2422 f3b5

exp_avg_sq f4 [128]
0.0 0.00018920952 0.0 0.0 0.0020640148 0.0036550593 0.0 0.0
0.0031694213 0.0013130434 0.0010677201 0.0 0.0 0.0 0.00012887084 0.001961832
0.0 2.9640064e-06 0.0025379348 0.00027262294 0.0 0.0 0.0 0.0
0.0018516924 0.0009099135 0.0010397686 0.0 0.0 6.3779527e-07 0.00027136385 8.386042e-07
0.0 0.00047745532 0.0009987386 0.0 4.4050794e-05 1.3842821e-06 0.00102817 0.00039494634
0.0060239304 0.0 0.0 0.0013296065 0.0 0.0001443366 0.0014048484 0.0
0.0 0.0009545426 0.00010296353 2.6044947e-05 0.0020855104 0.00686066 0.0 0.0
0.0018653562 0.0006946214 0.0 0.0025277976 0.00019556342 0.0 1.6275984e-05 0.0015191459
0.00014965411 0.0014292487 0.0017869953 0.0003095674 0.0012350946 0.0 0.0 0.0017676342
0.0 0.0030671584 0.0014724535 0.00078987295 0.0 0.0 5.102861e-05 0.0014263396
0.0 0.0011227631 0.00035196837 0.0 0.0008039591 0.0 0.0033090543 0.0
7.97908e-07 0.00080217025 0.000841519 0.0 0.0037748138 0.00343666 0.0 0.0
0.0006907194 0.0 0.0011839896 0.0 0.006710346 3.965938e-06 0.0 0.00060270546
1.2413797e-07 0.0 0.0 0.0004661183 0.00038694797 0.0030748488 0.0008683102 0.00030575838
0.00029305104 0.00096480997 0.0005288566 0.0 0.0018383128 0.000722676 0.0 1.737334e-07
0.00260307 0.00035295374 0.0 0.0 0.0 3.2188512e-07 0.0 0.003494941
00000000: 0000 0000 8b66 4639 0000 0000 0000 0000
00000010: 6c44 073b b889 6f3b 0000 0000 0000 0000
00000020: 11b6 4f3b 6d1a ac3a bef2 8b3a 0000 0000
00000030: 0000 0000 0000 0000 8121 0739 1492 003b
00000040: 0000 0000 3ee9 4636 7b53 263b d5ee 8e39
00000050: 0000 0000 0000 0000 0000 0000 0000 0000
00000060: 7db4 f23a 4387 6e3a d848 883a 0000 0000
00000070: 0000 0000 f534 2b35 d745 8e39 711c 6135
00000080: 0000 0000 f852 fa39 1be8 823a 0000 0000
00000090: 2ec3 3838 92cb b935 a9c3 863a cd10 cf39
000000a0: 6464 c53b 0000 0000 0000 0000 3146 ae3a
000000b0: 0000 0000 1059 1739 e422 b83a 0000 0000
000000c0: 0000 0000 453a 7a3a 20ee d738 197b da37
000000d0: 0fad 083b 63cf e03b 0000 0000 0000 0000
000000e0: f87e f43a 4117 363a 0000 0000 68a9 253b
000000f0: 2810 4d39 0000 0000 6988 8837 141e c73a
00000100: 78ec 1c39 a155 bb3a 9d39 ea3a 6f4d a239
00000110: e6e2 a13a 0000 0000 0000 0000 f6af e73a
00000120: 0000 0000 6102 493b 57ff c03a 7a0f 4f3a
00000130: 0000 0000 0000 0000 8e07 5638 04f4 ba3a
00000140: 0000 0000 ae29 933a 6588 b839 0000 0000
00000150: c8c0 523a 0000 0000 b8dc 583b 0000 0000
00000160: d22f 5635 bc48 523a 6299 5c3a 0000 0000
00000170: de62 773b 9639 613b 0000 0000 0000 0000
00000180: 6511 353a 0000 0000 1930 9b3a 0000 0000
00000190: 76e2 db3b 2613 8536 0000 0000 e1fe 1d3a
000001a0: c94a 0534 0000 0000 0000 0000 5761 f439
000001b0: 47df ca39 6783 493b 509f 633a 324e a039
000001c0: a5a4 9939 4deb 7c3a f7a2 0a3a 0000 0000
000001d0: 8bf3 f03a f771 3d3a 0000 0000 798b 3a34
000001e0: 4598 2a3b a60c b939 0000 0000 0000 0000
000001f0: 0000 0000 8ecf ac34 0000 0000 610b 653b

exp_avg f4 [64, 128]
0.0 -1.1617342e-06 0.0 0.0 -5.2768322e-05 -2.5566991e-05 0.0 0.0
-8.264542e-05 -2.5876248e-05 -5.501326e-05 0.0 0.0 0.0 -2.7457641e-05 -1.3991862e-05
0.0 -1.383645e-06 -9.05411e-05 -2.6186724e-05 0.0 0.0 0.0 0.0
-9.4432035e-05 -8.287764e-05 -4.725293e-05 0.0 0.0 -6e-45 -5.8575256e-07 -1.4790126e-06
0.0 -4.4200606e-05 -2.6939683e-06 0.0 -6e-45 -9.654506e-07 -7.770379e-05 -4.119793e-05
-3.4906072e-05 0.0 0.0 -7.379976e-05 0.0 -2.1415486e-05 -2.1281343e-05 0.0
0.0 -8.718577e-05 -8.9306394e-07 -9.1792475e-07 -2.7700633e-05 -7.190474e-05 0.0 0.0
-0.00010674555 -3.8664646e-05 0.0 -4.986751e-05 -2.0086918e-05 0.0 -7.959613e-07 -3.0988396e-08
-6.224234e-07 -2.112846e-05 -9.40936e-05 -3.337566e-05 -2.65158e-05 0.0 0.0 -4.1693464e-05
0.0 -2.6255933e-05 -4.291522e-05 -2.0903673e-05 0.0 0.0 -1.1942285e-05 -6e-45
0.0 -2.2661305e-05 -6.890906e-05 0.0 -3.4277167e-05 0.0 -0.000101815975 0.0
-2.4987196e-06 -0.00011786848 -1.5455412e-06 0.0 -2.1166875e-06 -3.1245545e-05 0.0 0.0
-6e-45 0.0 -2.665327e-06 0.0 -1.6681337e-05 -6e-45 0.0 -3.437554e-05
-6e-45 0.0 0.0 -1.005532e-05 -2.4697479e-06 -3.0112999e-05 -3.4323668e-05 -3.297189e-05
-8.203568e-05 -1.4641366e-06 -3.3176504e-05 0.0 -9.719988e-07 -2.9366494e-05 0.0 -5.1397103e-07
-1.2885493e-05 -6e-45 0.0 0.0 0.0 6e-45 0.0 -4.105807e-05
0.0 8.1549906e-08 0.0 0.0 -3.806581e-06 -1.8700539e-06 0.0 0.0
-5.7441375e-06 -1.9270615e-06 -3.946914e-06 0.0 0.0 0.0 -1.9257318e-06 -9.080214e-07
0.0 -6e-45 -6.2551853e-06 -1.752332e-06 0.0 0.0 0.0 0.0
-6.7674378e-06 -5.6733697e-06 -3.0199717e-06 0.0 0.0 0.0 -6e-45 0.0
0.0 -2.7813662e-06 -6e-45 0.0 -6e-45 0.0 -5.099161e-06 -2.9429198e-06
-2.4679393e-06 0.0 0.0 -5.0605563e-06 0.0 -1.8015119e-06 -1.3804516e-06 0.0
0.0 -6.0794623e-06 -6e-45 -6e-45 -1.8973594e-06 -4.9695436e-06 0.0 0.0
-7.780442e-06 -2.827771e-06 0.0 -3.2962832e-06 -1.2349844e-06 0.0 -6e-45 -6e-45
6e-45 -1.3758211e-06 -6.586326e-06 -2.2613904e-06 -2.0422453e-06 0.0 0.0 -2.6722705e-06
0.0 -1.7468433e-06 -3.0091378e-06 -1.2908457e-06 0.0 0.0 -2.4602556e-07 -6e-45
0.0 -1.7544905e-06 -4.6154832e-06 0.0 -2.299167e-06 0.0 -7.143409e-06 0.0
6e-45 -8.125622e-06 -2.8317692e-07 0.0 -6e-45 -2.077612e-06 0.0 0.0
-6e-45 0.0 -6e-45 0.0 -1.3360332e-06 -6e-45 0.0 -2.6561538e-06
0.0 0.0 0.0 -5.4472974e-07 -2.273148e-07 -2.0588354e-06 -2.3283492e-06 -1.9102745e-06
-5.766296e-06 6.3217414e-09 -2.296307e-06 0.0 -6e-45 -1.9253566e-06 0.0 0.0
-6.236722e-07 -6e-45 0.0 0.0 0.0 0.0 0.0 -2.7154572e-06
00000000: 0000 0000 e2ec 9bb5 0000 0000 0000 0000
00000010: 8e53 5db8 b278 d6b7 0000 0000 0000 0000
00000020: ec51 adb8 d210 d9b7 0abe 66b8 0000 0000
00000030: 0000 0000 0000 0000 d654 e6b7 97be 6ab7
00000040: 0000 0000 aeb5 b9b5 e2e0 bdb8 90ab dbb7
00000050: 0000 0000 0000 0000 0000 0000 0000 0000
00000060: d009 c6b8 98ce adb8 7231 46b8 0000 0000
00000070: 0000 0000 0400 0080 9c3c 1db5 7c82 c6b5
00000080: 0000 0000 0a64 39b8 06ca 34b6 0000 0000
00000090: 0400 0080 a194 81b5 e8f4 a2b8 f1cb 2cb8
000000a0: 1c68 12b8 0000 0000 0000 0000 f2c4 9ab8
000000b0: 0000 0000 68a5 b3b7 5685 b2b7 0000 0000
000000c0: 0000 0000 81d7 b6b8 e3ba 6fb5 4f67 76b5
000000d0: a85e e8b7 90cb 96b8 0000 0000 0000 0000
000000e0: 95dc dfb8 d92b 22b8 0000 0000 d528 51b8
000000f0: 5480 a8b7 0000 0000 0baa 55b5 1a18 05b3
00000100: 9c14 27b5 063d b1b7 1e54 c5b8 d8fc 0bb8
00000110: 3f6e deb7 0000 0000 0000 0000 04e0 2eb8
00000120: 0000 0000 3040 dcb7 deff 33b8 4c5a afb7
00000130: 0000 0000 0000 0000 b95b 48b7 0400 0080
00000140: 0000 0000 c818 beb7 4583 90b8 0000 0000
00000150: d4c4 0fb8 0000 0000 0986 d5b8 0000 0000
00000160: adaf 27b6 2930 f7b8 6470 cfb5 0000 0000
00000170: 6a0c 0eb6 a60d 03b8 0000 0000 0000 0000
00000180: 0400 0080 0000 0000 f8dd 32b6 0000 0000
00000190: e6ee 8bb7 0400 0080 0000 0000 742e 10b8
000001a0: 0400 0080 0000 0000 0000 0000 45b3 28b7
000001b0: f2bd 25b6 2c9b fcb7 c2f6 0fb8 4c4b 0ab8
000001c0: 920a acb8 5a83 c4b5 0027 0bb8 0000 0000
000001d0: a075 82b5 1158 f6b7 0000 0000 d2f7 09b5
000001e0: c52e 58b7 0400 0080 0000 0000 0000 0000
000001f0: 0000 0000 0400 0000 0000 0000 c435 2cb8
00000200: 0000 0000 8920 af33 0000 0000 0000 0000
00000210: 9074 7fb6 90fe fab5 0000 0000 0000 0000
00000220: c4bd c0b6 aa52 01b6 bc6f 84b6 0000 0000
00000230: 0000 0000 0000 0000 d23b 01b6 c1be 73b5
00000240: 0000 0000 0400 0080 a2e3 d1b6 ab31 ebb5
00000250: 0000 0000 0000 0000 0000 0000 0000 0000
00000260: d913 e3b6 e05d beb6 b8aa 4ab6 0000 0000
00000270: 0000 0000 0000 0000 0400 0080 0000 0000
00000280: 0000 0000 82a7 3ab6 0400 0080 0000 0000
00000290: 0400 0080 0000 0000 7619 abb6 fa7e 45b6
000002a0: e09e 25b6 0000 0000 0000 0000 d9cd a9b6
000002b0: 0000 0000 7acb f1b5 f547 b9b5 0000 0000
000002c0: 0000 0000 2ffe cbb6 0400 0080 0400 0080
000002d0: c6a8 feb5 0ec0 a6b6 0000 0000 0000 0000
000002e0: be88 02b7 bcc4 3db6 0000 0000 b735 5db6
000002f0: bec1 a5b5 0000 0000 0400 0080 0400 0080
00000300: 0400 0000 daa8 b8b5 1c00 ddb6 64c2 17b6
00000310: 820d 09b6 0000 0000 0000 0000 4255 33b6
00000320: 0000 0000 1475 eab5 98f0 49b6 1f41 adb5
00000330: 0000 0000 0000 0000 7f15 84b4 0400 0080
00000340: 0000 0000 d67b ebb5 b3de 9ab6 0000 0000
00000350: 634b 1ab6 0000 0000 6bb1 efb6 0000 0000
00000360: 0400 0000 4853 08b7 8a07 98b4 0000 0000
00000370: 0400 0080 1a6d 0bb6 0000 0000 0000 0000
00000380: 0400 0080 0000 0000 0400 0080 0000 0000
00000390: c051 b3b5 0400 0080 0000 0000 6040 32b6
000003a0: 0000 0000 0000 0000 0000 0000 8b39 12b5
000003b0: d113 74b4 862a 0ab6 bc40 1cb6 4432 00b6
000003c0: 1b7c c1b6 a036 d931 411a 1ab6 0000 0000
000003d0: 0400 0080 6035 01b6 0000 0000 0000 0000
000003e0: 6d6a 27b5 0400 0080 0000 0000 0000 0000
000003f0: 0000 0000 0000 0000 0000 0000 333b 36b6
