models/preliminary_results_models/RaceMultiOutputModeltvt4v4/model.pt (torch, 172207 bytes, 18 tensors)

fc1.weight f4 [128, 24]
00000000: a47f 0fbe 30f3 7a3d c8a7 f93d bed6 92bd
00000010: ac47 55bd bc39 de3d f885 4cbd 00bb 333a
00000020: b87b 1a3e d83c 303e 80ae 9abd 7702 d1bd
00000030: e82b c23c f02d 783d 3d46 d8bd 4c71 b4bd
00000040: a4b2 c03d 7425 d8bd d8ab f3bd f0d7 d73d
00000050: b4bd 48be 406c edbb 5445 3a3e abf3 0fbe
00000060: 259c c3bd 26c0 233e 905c 3cbe 490e 3d3d
00000070: 8489 253e 385a 133e e99f c5bc 4f4a 503e
00000080: 7979 9e3d 135d 97bd 739e b3bd 4f55 9f3d
00000090: 4e2e 0e3c 21a0 c33d 392a eabb e28c 883c
000000a0: a726 243e 94bb 04bd fc4d 523e a1c5 29be
000000b0: 693e 103e 00f1 9a3c 5fbd acbd 9584 2cbe
000000c0: f028 433d 494a 21be 50fd 58bd 5860 3abe
000000d0: b383 87bd 9355 f5bd f64d 133e 67d9 083e
000000e0: 5ffc d1bd 7851 61bd 614c b73d 765b 343e
000000f0: 450d ac3d 68b7 0cbe bed3 32be 85d7 30bd
00000100: 2b88 243d 13d4 503d 736c 3ebd ff1c 3d3e
00000110: 08bd 073e 3290 443e 1734 abbc f7ab c4bc
00000120: 7ae5 023e bc29 2ebe 62cb 443e b65e 2a3e
00000130: 2b80 25be dae2 3fbe 0f60 50be 0c88 b23d
00000140: 5cd7 03be c07d a73c 1ada 95bd 7009 3b3e
00000150: 4873 973c d81c 103e 1ea3 10be 60a2 3a3d
00000160: b822 033e 3e2c 3ebe ed22 1bbe 6506 15be
00000170: b4a2 1fbd 203b 6abc 1c1c 3abd 3ee4 233e
00000180: e432 233e adec c7bd 262d dcbd a281 1e3e
00000190: 5010 19bd 6495 283e 54dc dfbd 00fe 4c3a
000001a0: 0270 bdbd 44fe 6ebd 5658 443e 908c 8abc
000001b0: 30b2 073e ccc2 2abd 059b 32be 8860 df3d
000001c0: 9067 edbc 27a3 c7bd 98b9 38be 10e9 5d3d
000001d0: 7043 2bbe 98fb 993d 61f8 17be b064 3f3d
000001e0: 97ac 503c a6f5 1a3e 7b09 14be 6663 2e3e
000001f0: 9293 003e 2878 843c feb1 43be 06b6 2e3e
00000200: 5753 35be def4 053e 1ac3 17be bc9e 213c
00000210: c798 553e 0cae fd3d b34e 18be e953 0e3e
00000220: ba6e 353d 93b2 bf3d 6950 463e f1e8 0b3c
00000230: 562d da3d 0a7e 11be 1c67 99bb 1a6d 0fbe
00000240: d8bc 433d b071 2d3e 6bfc 333e 17e7 37bd
00000250: dd7c 36bc 9d2b d63d b4ab bcbd a8fd 153e
00000260: 9d61 163c 7d4e 083e b784 1c3e cc90 35be
00000270: 4d34 42bc 3985 04be 2fe4 9f3d 1e6e 6bbc
00000280: 08ea 0bbe 7f69 3abe 6279 0f3e e14c bcbd
00000290: 55dd ebbb b413 75bd 80af 253e 29d1 f8bd
000002a0: 2cc6 a7bd 01c3 44be 4070 033c 429b c6bd
000002b0: d887 7f3d 8006 0ebe 9e79 503e 0f42 a9bd
000002c0: 1c24 e13d 10b6 683d 1a42 3c3e d0e8 b6bc
000002d0: 0c4f d13d 69b5 31be 24b0 d9bd 4839 ad3d
000002e0: a005 47be 744d 823d 0061 f03a 906a 3ebc
000002f0: dcdf bb3d 802a cf3a 6d0e 15be d81c 913d
00000300: be64 bbbd 87af f1bd a310 61be c078 32be
00000310: 0c25 aabc ee28 d73d a556 e63d 2361 e73d
00000320: ba55 4bbc f134 d33d f2db da3d 37d7 b5bc
00000330: 4e8a b7bd 5ea8 863d 8d5d cbbd bee8 06bd
00000340: fa7e 3bbe d628 073e 8790 c73d 704b 02be
00000350: f1b1 243e a89e 273d c1d1 1cbd f7dd 243e
00000360: 2437 2cbc a120 833d 7c67 debd eb8c 673d
00000370: 5863 c0bd 43d4 373e f909 173e f240 13be
00000380: 3b48 513d 5cd8 1d3e 811d 31bd 11fa 013e
00000390: 1cfc 56bd 3345 d4bd f58d 0ebe b47f a73d
000003a0: e57f 503d 53e3 043e 9dfb 683d f411 903d
000003b0: e4d7 50be acb4 f5bd 1a10 02bc 2b63 1b3e
000003c0: 2ae1 f63c 11b5 92bc 0929 a7bd ba9a 40be
000003d0: e115 07be 672e 0cbe 8464 2a3e b323 403e
000003e0: e34f c93d 1ce6 003e 5346 1d3d a2f7 e5bd
000003f0: 7e5f 43be aedf 12be 1dac 043e 7433 183d
-0.14013535 0.061267078 0.12190205 -0.07169865 -0.052070305 0.10850856 -0.04993245 0.0006856173
0.15086257 0.1721071 -0.075528145 -0.10205548 0.023702577 0.060590684 -0.10560272 -0.08810672
0.09409073 -0.105540186 -0.11898011 0.10539234 -0.19603616 -0.0072455704 0.18190509 -0.14057796
-0.095512666 0.15991268 -0.18394685 0.0461562 0.1616574 0.14389884 -0.024124103 0.20340846
0.07738013 -0.073907994 -0.08770456 0.07779943 0.008678032 0.095520265 -0.0071461466 0.01666874
0.1603037 -0.03240545 0.20537561 -0.16579296 0.14086308 0.018913746 -0.08434557 -0.16847451
0.047646463 -0.15750994 -0.052975953 -0.18200815 -0.066169165 -0.119792126 0.14385208 0.13364182
-0.10253214 -0.055009335 0.08950115 0.17613015 0.084009685 -0.13741839 -0.17463586 -0.043174285
0.040168922 0.0509835 -0.046490144 0.18468092 0.13255703 0.19195631 -0.020898862 -0.02400778
0.12782851 -0.17008108 0.1921821 0.16637692 -0.16162173 -0.18738881 -0.20349143 0.08717355
-0.12875122 0.020445704 -0.0731699 0.18265319 0.018487588 0.14073503 -0.14124724 0.04556501
0.12806213 -0.18571565 -0.15150042 -0.1455322 -0.038973525 -0.014296323 -0.045436963 0.16005036
0.15937382 -0.09761939 -0.10750799 0.15479138 -0.037369072 0.16463238 -0.10930696 0.00078198314
-0.092498794 -0.058347955 0.19174322 -0.016912729 0.13251567 -0.04168968 -0.17441948 0.10907084
-0.028980047 -0.09747916 -0.18039548 0.054177344 -0.16724944 0.07518691 -0.14840843 0.046726882
0.012736461 0.1513277 -0.14456742 0.17030105 0.12556294 0.016170576 -0.19110867 0.17061624
-0.17707573 0.1308169 -0.14820519 0.009864505 0.20859061 0.123867124 -0.14873771 0.13899197
0.04429505 0.09360232 0.19366612 0.008539424 0.106531784 -0.14208236 -0.004681481 -0.14006463
0.047787517 0.169379 0.17576759 -0.04489812 -0.011138168 0.10457537 -0.09212437 0.14647543
0.009178546 0.13311191 0.15285002 -0.17731017 -0.01185329 -0.12941445 0.078071944 -0.014369516
-0.13663495 -0.18204306 0.14011148 -0.09194351 -0.0071980157 -0.059833243 0.16180229 -0.12149269
-0.08192095 -0.19215013 0.008022368 -0.09697582 0.06238541 -0.13869667 0.20358893 -0.08264553
0.109932154 0.056814253 0.1838459 -0.02232781 0.10220155 -0.17354359 -0.10629299 0.08458191
-0.1943574 0.06362429 0.0018339455 -0.011622086 0.09173557 0.0015805513 -0.14556284 0.0708558
-0.091500744 -0.11801057 -0.21979003 -0.17428875 -0.020769618 0.105058536 0.11246995 0.11297824
-0.0124105755 0.10312832 0.106864825 -0.022197349 -0.089619264 0.06575082 -0.09929953 -0.032936804
-0.18310156 0.13199171 0.09744363 -0.1272409 0.16083504 0.04092279 -0.038285974 0.16100298
-0.010511193 0.06402708 -0.10859582 0.056530874 -0.09393948 0.17952065 0.14749898 -0.14380243
0.051094275 0.15414566 -0.043241028 0.12693049 -0.052486524 -0.10364761 -0.1392134 0.08178654
0.05090322 0.12977342 0.056880582 0.07034674 -0.20394856 -0.11997351 -0.007938409 0.15174548
0.030136663 -0.017908605 -0.08162124 -0.18809023 -0.1319194 -0.13689576 0.16639906 0.18763618
0.0982969 0.1258778 0.038397145 -0.11228873 -0.19079396 -0.1434314 0.12956281 0.037158445

fc1.bias f4 [128]
00000000: cca0 13bd 29cb e4bc 6988 8b3d 4248 d7bd
00000010: be82 0f3e 9ceb e2bd 2a76 10be 7ceb c63d
00000020: 54d9 493d b771 303c d7ee 9c3d 6ce7 4c3e
00000030: 980c 053e 17fb 063e a620 263e 16fc 213e
00000040: f7d9 873d 76f6 e73d 4b87 6fbd 45bb 483d
00000050: 3098 d83c 0afc 823d 8390 0fbe d069 9abd
00000060: 7bf6 143b 1e9f 143e d290 1b3e 9ff9 dabd
00000070: 3301 0e3e b4d8 9bbd f0ba ef3c a1b7 cb3d
00000080: a0cb a1bd fc68 8e3b 25b0 a1ba 1fd6 0abd
00000090: 9f9b bdbd 2882 353e 7133 e9bd e5e4 2bbe
000000a0: d8c8 9e3d 773d e93c 013e 31be e430 eabd
000000b0: a3a8 2e3e 853e c5bc a077 203e 75ff 1abe
000000c0: 4004 4f3c 18c4 4fbe b8c4 28bd c887 bfbc
000000d0: 2fb0 073e 8983 3ebe cca1 1c3e 0093 103e
000000e0: e84d a73d 7e54 db3d 045d be3d 5556 6abd
000000f0: 9471 1c3e 4076 6dbb cb96 41be a0ca 223d
00000100: c8a7 ea3d 087e 8dbd 3cb8 96bd 46a6 1e3e
00000110: 33e4 103e 7b2c dd3d 9153 d43d bee9 b3bd
00000120: 7f26 213e 1142 463e 4949 13bd 58cb cd3d
00000130: eb36 9bbd 9f55 35be 01a1 15be b088 e13d
00000140: da66 d9bd ff77 a0bd d74d 3ebe 008b 623d
00000150: 3711 8f3d f830 4b3e 679f 2ebe e5f8 423e
00000160: 0ea0 993d 9c82 a43d 00de a139 c88b fc3d
00000170: 0cf2 10bd bc58 3abe 1482 b63d 5130 fabd
00000180: f235 243e 6616 943c ccab 58be 0ad3 e4bd
00000190: 8219 4fbe 225c 053e 0631 003e 3904 7d3d
000001a0: 1dd2 cf3d ce95 a8bd 70bc 783d 0a2b 0ebe
000001b0: 125c 03be fe41 9ebd 99f4 dcbb 4b5f 10be
000001c0: ef7a 59be 4fac 353e f465 40be 78ac 0abe
000001d0: 947a 483e 00af 95bd 8d36 a03d 3113 e7bd
000001e0: bce4 843b cdad d2bd 99f3 11be 14da fa3d
000001f0: 657e c9bd 51e0 c2bc c819 e33c 809a 16be
-0.03604202 -0.027928906 0.068131275 -0.10511829 0.14014718 -0.11080095 -0.14107576 0.09712884
0.049279526 0.010769299 0.076627426 0.20010155 0.12993085 0.1318172 0.16223392 0.1581882
0.0663337 0.113263056 -0.058478635 0.04900672 0.026439756 0.06395729 -0.1401997 -0.075397134
0.0022729922 0.14513823 0.15191963 -0.10692143 0.13867645 -0.07609692 0.029263943 0.09947134
-0.079001665 0.004346011 -0.001233582 -0.033895608 -0.09258198 0.17725432 -0.11386765 -0.16786535
0.07753152 0.028471692 -0.17308809 -0.114351064 0.17056517 -0.024077663 0.15670633 -0.15136512
0.012635291 -0.20289648 -0.04120323 -0.023380175 0.13250802 -0.18604864 0.15296096 0.14118576
0.08169156 0.10709475 0.09295085 -0.05721124 0.15277702 -0.0036233813 -0.18905179 0.03974402
0.11457783 -0.06908804 -0.07359359 0.15493116 0.14149551 0.107994996 0.103675015 -0.08784817
0.15737341 0.1936114 -0.035958562 0.1004855 -0.07578834 -0.17708443 -0.146122 0.11012399
-0.106153205 -0.078353874 -0.18584381 0.055308342 0.06985705 0.19842899 -0.17052995 0.19040258
0.07501231 0.08032724 0.00030873716 0.12331349 -0.035387084 -0.18197912 0.08911529 -0.12216247
0.16036204 0.018077087 -0.21159285 -0.11173065 -0.20224574 0.13023427 0.12518701 0.061771605
0.10147498 -0.08231698 0.060726583 -0.13883606 -0.12828091 -0.07727431 -0.0067430255 -0.14098851
-0.21238302 0.17741512 -0.18788892 -0.13542354 0.1957801 -0.07308769 0.07822905 -0.11282957
0.0040555876 -0.10287056 -0.14253081 0.12248626 -0.09838561 -0.023788603 0.027722254 -0.14707375

fc2.weight f4 [64, 128]
00000000: 800f acba e89f 5abd 535e c43c 77e1 9ebd
00000010: 6400 b7bc 8981 97bd 0e3a 943d e853 39bc
00000020: 0ef3 9dbd ac7b 9a3d 3144 5d3d fc20 08bd
00000030: 9d28 61bd 151d 083d 69be 823d e036 603c
00000040: 14eb 2cbd 4541 0f3d e518 50bc e056 b73c
00000050: 5433 883c 9da1 113d 65a2 3d3d 100b de3b
00000060: ff6a ac3c 1e5d a53c 389e 90bd 04c0 34bd
00000070: 89e3 1d3d 793a 9c3d bacf 783d 8a8a b43d
00000080: e10d 63bd e5f4 36bd 1606 b7bd 0cd6 493d
00000090: 6108 0fbd 6cbe c73c 9851 cb3a 1759 563d
000000a0: 1238 87bd cadf 7bbd 832a eb3c fac5 0cbb
000000b0: c0c8 81bd fbec 4c3c c644 5cbd 8aa4 1a3d
000000c0: 4fa7 af3d b7bf a0bd 95c5 17bd 5647 80bd
000000d0: af64 2ebc 029f 60bd 52af 223d 20af e13c
000000e0: 78e4 5d3b 9d06 83bd 5f86 b03d 8598 8abd
000000f0: 7732 c03d 2986 a33d a9c4 0e3d d0c3 af3d
00000100: 4c21 38bd 41f6 933d 7556 a13d 5a38 143d
00000110: 347c ae3d ff78 143d 12d2 583d 06fc 5e3c
00000120: 74f7 03bd 3a5a 06bc fd01 5b3c 1826 babc
00000130: 1345 83bd 178d 39bd 8d7f bb3d c989 a93d
00000140: 63b0 e93c efad 973d b8da 853d f2a4 293d
00000150: a2b6 adbd 05ae a93d d93b 62bd 7d82 a8bd
00000160: 1e18 233d f6cd 393d 1166 ab3d 00bc 21ba
00000170: f766 913d 7079 66bc 62f3 763d 6662 783d
00000180: d8df 5dbd 501d c13b a627 a3bd d850 173c
00000190: 04ec 9a3d fd03 54bd a704 26bd 1e03 903a
000001a0: 99c8 413d b4dd c03d 4adb 4b3d 4c5c 6dbd
000001b0: f33b a7bd 36eb 493b 95bb 103c f1cb 013d
000001c0: dbf1 5bbd 5bf9 97bd 84b5 6abd 102a 7f3d
000001d0: f5e7 823d 6004 a6bd cee3 233c 9096 543c
000001e0: 8c76 b23d 153c 983d 283e 42bd f1a4 a33d
000001f0: 4740 93bd e476 b83d 00b2 d33b ea6a 5bbd
00000200: 21f8 b23d c68a 85bd bb82 08bd 6deb 32bd
00000210: c0d4 3c3c d4f0 15bd c4c4 2c3d 17b9 813d
00000220: 18b4 18bd d3f4 643d f4bd 143d 1276 703d
00000230: 98d1 093c 6abb 12bd b2c2 8bbd 34c4 dfbc
00000240: 6a1d 473d 413d 43bd b273 a0bd 9ede 16bd
00000250: d40c 0dbd 6627 d3bc 7fb7 9d3c 3237 3cbd
00000260: 339f 933d f4bf 9f3a eabd 483d 0607 203d
00000270: 36f4 623d 2a24 533c 33fd 923d bea5 193d
00000280: b1c8 943d f04f c5ba e992 b5bd 23fd 763b
00000290: d4e5 69bd c190 55bd b71b 4dbd 89a1 87bc
000002a0: d0e1 533c aefd c83c 22b2 5dbd 927f 8dbd
000002b0: 5ee3 313d 6753 8b3c 5a91 89bd 3e53 ebbc
000002c0: d3c2 a83d e9d9 0bbd f0dd 3c3c 6be3 853d
000002d0: 93b1 723d dcf6 c6bd 9805 723c 781f 113c
000002e0: 609b 0dbb 7eba df3b a012 d93b 8ce3 55bd
000002f0: ef82 213d 4bf0 8dbd 969c 80bd 5fa2 35bd
00000300: f362 98bd d05f 35bd 7ca2 bd3c 7a65 703d
00000310: e8c2 b9bd 8623 25bc 0565 723d f07f 17bd
00000320: c07c 7cbd 68ac 893d fe70 5f3d f77d 09bd
00000330: 990d 873d 56c0 8cbd 65de c7bd e0dd eb3c
00000340: d92d d4bd 29d9 9cbc 7b45 cabc 1fa9 26bd
00000350: eb4e 073d 6535 86bc a466 b9bd 72cf e93c
00000360: 4b89 7bbd 99cb a5bd 18e5 2cbc d92e 8b3d
00000370: b577 92bd ec6e c6bc 0010 f1b8 f2bb 44bd
00000380: d893 843c a47c 62bd db52 aa3c 30bc 8c3c
00000390: 7924 a8bd 81fd b6bd 4d57 47bd 932e 4f3b
000003a0: ef6a 0f3d 560b 97bc 2c8d 38bd f689 51bd
000003b0: f8f0 5dbd ffa9 0c3d d01f c73c e298 5e3d
000003c0: 3f95 38bd eebb ccbd f908 b43d 9eb7 80bc
000003d0: 6809 aa3c 801e 43ba 0182 92bd 7151 45bd
000003e0: c36d a8bd e215 c8bc 9311 e1bc 788d 1b3c
000003f0: 0a6c 92bd a2e8 bd3b 0ae8 033d fc7a 3dbd
-0.0013127178 -0.053375155 0.023970759 -0.07757848 -0.022339053 -0.07397754 0.072376356 -0.011311509
-0.07712375 0.0754312 0.05402011 -0.03323458 -0.054970372 0.03323086 0.06383974 0.013684958
-0.042216375 0.034974355 -0.012701248 0.022380292 0.016626038 0.035554517 0.04629745 0.006776221
0.021047113 0.020186003 -0.07061428 -0.044128433 0.038547073 0.0762834 0.06074498 0.08815487
-0.055433158 -0.044667143 -0.08936708 0.049276397 -0.0349201 0.024382792 0.0015511988 0.052331056
-0.066024914 -0.06149272 0.028706795 -0.0021480308 -0.06337118 0.012507672 -0.053776525 0.037754573
0.085768335 -0.07849067 -0.037053663 -0.06263606 -0.010644122 -0.05483914 0.03971798 0.027549326
0.0033858102 -0.06397746 0.08619379 -0.06767372 0.093846254 0.079845734 0.03485552 0.0858227
-0.04495363 0.072247036 0.078778185 0.036186554 0.085197836 0.036248203 0.052934714 0.013609892
-0.03221841 -0.008200223 0.013367173 -0.022723243 -0.06409659 -0.04530057 0.09155188 0.082782336
0.02852649 0.07406222 0.06535858 0.04141707 -0.084821 0.08285145 -0.055232856 -0.08228014
0.03981792 0.045362435 0.08369077 -0.0006169677 0.07099717 -0.014067039 0.0602907 0.060640715
-0.054168552 0.005893387 -0.07966547 0.009235583 0.07564548 -0.051761616 -0.04053178 0.0010987257
0.047310445 0.094172865 0.049769677 -0.05794935 -0.08165731 0.0030810363 0.008833786 0.031688634
-0.05369745 -0.07420608 -0.057302013 0.062295973 0.063918985 -0.08106303 0.010003043 0.01297535
0.08714017 0.07433335 -0.047422558 0.079904445 -0.07189994 0.090070516 0.0064604282 -0.053568758
0.08738733 -0.065206096 -0.0333278 -0.04368155 0.011525333 -0.036606625 0.042179838 0.06334131
-0.037281126 0.055897545 0.036313966 0.05870635 0.008411787 -0.035823263 -0.068242446 -0.027315237
0.048612036 -0.04766584 -0.07834567 -0.036833398 -0.034436062 -0.025775623 0.019252537 -0.045951076
0.07208099 0.0012187944 0.04900924 0.039069198 0.05540868 0.01288704 0.071772 0.03751158
0.07264841 -0.001505373 -0.088659115 0.0037687502 -0.057103947 -0.05214 -0.05007526 -0.016556518
0.012932256 0.024535026 -0.05412496 -0.06909098 0.043429725 0.017007543 -0.06717177 -0.028726216
0.08240285 -0.034143362 0.011527523 0.06537517 0.05925138 -0.097150534 0.0147718415 0.0088576
-0.0021607503 0.0068276515 0.0066245347 -0.05221896 0.03943151 -0.06930598 -0.062798664 -0.044344302
-0.07440748 -0.044280827 0.023148768 0.058690526 -0.090703785 -0.01007927 0.05917837 -0.036987245
-0.06164241 0.06722337 0.054551117 -0.033567395 0.065943904 -0.06872623 -0.09759215 0.028792322
-0.10360307 -0.019146519 -0.024691334 -0.04068863 0.033034246 -0.016382882 -0.0905278 0.0285413
-0.06141023 -0.08095474 -0.010552667 0.06796045 -0.071517386 -0.024222814 -0.00011494756 -0.0480308
0.016183779 -0.055294648 0.020791462 0.017179579 -0.082100816 -0.08935071 -0.04866724 0.0031613454
0.03501409 -0.018438023 -0.045056507 -0.05115696 -0.054184884 0.03434181 0.024307162 0.05434502
-0.045064207 -0.09996782 0.08790774 -0.015712555 0.020756438 -0.00074432045 -0.071537025 -0.04817337
-0.082240604 -0.024424497 -0.0274742 0.009494178 -0.07149513 0.0057955543 0.03220371 -0.046259865

fc2.bias f4 [64]
00000000: 465c 213d 6723 c23c a406 e3bc 817d 52bd
00000010: eeed b0bd a187 29bd c396 49bd cdf4 893c
00000020: 2815 8ebd f3ce ab3d 1622 6f3d b267 943c
00000030: 4986 5cbd 7017 51bd b5a5 7f3d c3e3 8b3d
00000040: 8328 b2bd ce0e a7bd d969 483d bdc4 9ebd
00000050: 623e cabd 2554 91ba c410 d7bc dc2a dd3c
00000060: d560 5c3d 9ced a0bb c336 a1bd 1b20 31bd
00000070: 0090 5138 b74b 77bc a0f7 2a3c 10c6 bbbd
00000080: b20d bf3c 9ff4 fdbc 4882 983d 6825 bdbc
00000090: cfa9 4cbd d01f 0ebc 4472 d7bc 1551 98bd
000000a0: 1c65 9b3d dca9 2d3d 94e2 143d 5793 00bd
000000b0: 2845 6bbd 26e5 4d3d 5956 9f3d 84d6 2fbd
000000c0: 94b5 57bd b4cc 5c3d d1e9 52bd b890 f8bc
000000d0: f4a0 2b3d dd5e 7d3d 1870 0cbd 0f1a 88bd
000000e0: fb62 61bd bf4d 8a3b 70a9 03bd 09ea a2bc
000000f0: cea0 0e3d f4f6 503c 6c08 85bc 582c b7bd
0.03939464 0.023698522 -0.027713127 -0.05138922 -0.086391315 -0.04138911 -0.049216043 0.016840363
-0.06937629 0.08389082 0.058382116 0.018115852 -0.053839 -0.051047742 0.06241389 0.068305515
-0.08699133 -0.08157121 0.04892907 -0.077523686 -0.0987518 -0.0011087699 -0.026253112 0.026997976
0.053803284 -0.0049111377 -0.07871773 -0.04324351 4.9963593e-05 -0.015093735 0.010435015 -0.09168637
0.02332196 -0.031000433 0.07446724 -0.023089126 -0.04996663 -0.008674577 -0.026299603 -0.0743734
0.075876445 0.04239832 0.036348894 -0.031390514 -0.057439 0.05026736 0.077801414 -0.042929187
-0.0526634 0.053906158 -0.051492516 -0.030342445 0.041901544 0.061858047 -0.03428659 -0.06645595
-0.055026036 0.004220694 -0.03214401 -0.019886987 0.034821324 0.012754191 -0.016239367 -0.08944005

fc3.weight f4 [24, 64]
00000000: 6b91 8dbd deb5 b1bd c731 ccbd b2a2 e6bd
00000010: 3487 263d 6223 fbbd 5ed3 ad3d fa1c 95bd
00000020: b007 81bc 0c6c a7bd 50e7 e2bc a70b a6bd
00000030: df53 35bd 7f41 c8bd 84b2 0a3d 1837 debc
00000040: 68ed 96bd 2e0b 7bbc e9c2 8a3d 2a6b f73c
00000050: d79f 6c3d 392c 2abd d800 9bbd 10a0 0d3d
00000060: d2d3 a6bc 9e05 3f3d 8b41 25bd 80a4 21bb
00000070: 4c04 b2bd 340b a43d dc54 62bd a6c7 30bd
00000080: 1a9b 353c abec 4d3d 862c 18bc fe90 b43c
00000090: feac 16bd 2c18 613d 34bf a53d 4444 44bd
000000a0: d0c3 2d3d 67ea e7bd ec2f ed3d 79da 5ebd
000000b0: 5872 643d d0f1 e23d 56a5 f1bc e348 96bd
000000c0: f610 47bd 5bd2 a73d a671 9f3d 10ef 983c
000000d0: e3c2 9f3d 9e1d cd3d 20a5 4cbc b185 bf3c
000000e0: e927 0b3d 220e b8bd ecb0 2cbd 37bc ed3d
000000f0: 66fa 8b3d e152 48ba c07c 11bc 2650 923c
00000100: 3f75 9bbd 7d15 ecbd 934e e3bd f4c2 e7bd
00000110: 5ac6 943d f460 62bd b8e4 e2bc b60f b23d
00000120: 9858 81bd 05bb 8e3d 88dc 9bbc 2eae 5a3d
00000130: ee0e b13c ede6 48bd ea29 b2bd b051 1ebc
00000140: 64d1 19bd bfe8 46bd f863 a7bd b0bf f9bd
00000150: 0d5c 10bd 0293 283d 142d 913d b024 06bc
00000160: bf24 aabc 3149 80bc 1112 6f3d dad8 cbbd
00000170: b636 a4bd 83bb 9b3d 1856 4c3d 2021 7d3d
00000180: b1f1 ed3d 4970 c7bc 566a ddbd 2aae ae3d
00000190: 43e9 3cbd 648a 7d3d a8b2 4abc a0c1 36bc
000001a0: 525d d9bb d012 9e3d 4829 81bd 8429 923b
000001b0: 0003 a6bb fca5 4e3d 9910 d2bd 2c39 09be
000001c0: 8fde 3ebd 9258 8a3d 1c81 d1bd 3c31 43bd
000001d0: 517b 4c3d bb1b 94bd 6045 b3bb e315 4cbd
000001e0: 70d7 f93c f7a4 bb3c 1446 ab3d 2ae0 b53b
000001f0: 8493 dd3d ae39 983d 0061 85ba 61b2 32bd
00000200: 1b45 abbc 8cb8 d23c 652b ebbd 9017 9c3d
00000210: e2ce e13d f8f0 cc3c 9883 f5bd e60f b83b
00000220: 802d 5d3c aa28 8f3c f4f1 05bd d2a8 17bc
00000230: 856b 31bd 2e5f f3bd 2d2a 3fbd de2b bbbd
00000240: 5ddb ff3c f9ea 53bd 7ec6 c5bd 2f66 fd3c
00000250: 64ee a83c 3157 1bbc a2b4 debd c0a1 13bb
00000260: f376 0e3d 1905 ed3d cf70 88bd 4287 a0bd
00000270: 749e 3b3d f70a 553d fe0d 8bbd e9bf ae3a
00000280: 1786 4e3b a49e 85bd 9e31 80bc 1739 9cbd
00000290: f12d a4bd 6418 b4bd 2bfb 93bd 58f5 573d
000002a0: b8f7 373d d955 afbd 4c68 983d f8e6 1f3d
000002b0: f4ac 743d b019 c03c a6c7 8bbd ecf5 82bc
000002c0: d18f b33d 57e5 a53d 4825 3ebd f88d 5e3d
000002d0: ca24 793d de2c b83c c432 0b3d 05b8 c73c
000002e0: f52f cd3d f397 a5bc 4899 94bc f3e9 823d
000002f0: ac32 2cbd b6b5 e3bd 8cc9 bc3d b716 09bd
00000300: d373 863d 50b3 30bd f01e f2bc cc9a 103d
00000310: 9e9f e6bd b474 543d 3c02 41bd 9e9f a13d
00000320: 604e e4bd f73b 1c3d 8873 24bd a6f6 e43d
00000330: 206c c9bd 47f1 8bbb 5422 e43c 6ac0 a1bd
00000340: d328 e43d b482 3bbc 68ee 4b3d b4b8 c0bc
00000350: a9d9 04bd 2b79 aabd eabe bf3d 5447 f03d
00000360: 0cd6 8ebd 8c30 f2bd a5a9 a53d 5ed1 d8bd
00000370: 1099 d73c ce39 283d 6603 d03d 7f41 d7bd
00000380: 4621 5bbd e4ac 9d3d 10f0 8dbc 3671 a7bd
00000390: 27cf 613d 40db 92bc 5b47 7b3d eeea ef3d
000003a0: 8855 e2bc c492 91bb 08ae 15bd 0191 a4bc
000003b0: 3414 8bbd be5c f8bd 9225 16bc 5066 ca3d
000003c0: 31a5 8a3d ee9c 9cbc 9f0c de3c 4078 bb3b
000003d0: 8908 ed3c 9f0e 933d fccb 023d 6388 e9bd
000003e0: 7d62 7abd ebd1 a5bd c428 4fbd 96c4 57bd
000003f0: 9001 023d facf 043d 10de 543d 3757 233d
-0.06912502 -0.086772665 -0.09970432 -0.112615004 0.040656283 -0.12262608 0.08487581 -0.072809175
-0.015750736 -0.08174905 -0.027698189 -0.08107691 -0.04426944 -0.097781174 0.033861652 -0.02712588
-0.073695004 -0.01532249 0.067754574 0.030202467 0.057769623 -0.04154608 -0.0756852 0.034576476
-0.020364676 0.046636216 -0.04034571 -0.00246647 -0.08692226 0.08009949 -0.05525671 -0.04315915
0.011084342 0.050274532 -0.009287959 0.022041794 -0.036786072 0.054954693 0.0809311 -0.047916666
0.04242307 -0.113240056 0.11581406 -0.05440757 0.05577311 0.11081278 -0.029497784 -0.07338121
-0.04860016 0.08194419 0.077853486 0.018668681 0.078008436 0.10015415 -0.012490541 0.023379179
0.03397361 -0.089870706 -0.042160913 0.11608165 0.06834869 -0.00076417445 -0.00887984 0.017860483
-0.07590722 -0.11527536 -0.11098971 -0.11316481 0.07264395 -0.055268243 -0.027696952 0.08694403
-0.06315726 0.06969265 -0.019026056 0.053388767 0.021613564 -0.049048353 -0.08699401 -0.0096630305
-0.037553206 -0.048561808 -0.081733644 -0.121947646 -0.035244036 0.041155823 0.07088676 -0.008187458
-0.020769475 -0.0156599 0.05836684 -0.099534705 -0.08018248 0.076041244 0.049886793 0.06179917
0.116183646 -0.024345534 -0.108112976 0.08529313 -0.046120893 0.061899558 -0.0123716965 -0.011154562
-0.006633439 0.07718432 -0.06306702 0.0044605155 -0.0050662756 0.050451264 -0.10257072 -0.13400716
-0.046598967 0.06755175 -0.10229704 -0.047654375 0.04992229 -0.07231852 -0.0054709166 -0.04982556
0.030498236 0.02290581 0.08362976 0.005550404 0.10819152 0.074328765 -0.0010176003 -0.043627147
-0.020906975 0.025722764 -0.11482886 0.07621682 0.11025788 0.025017247 -0.1198799 0.0056171296
0.013499618 0.017475445 -0.032701448 -0.0092565585 -0.04331543 -0.118833885 -0.04667108 -0.091392264
0.03123253 -0.05173776 -0.09657 0.030932514 0.020621486 -0.009481237 -0.10874297 -0.002252683
0.034781408 0.11573238 -0.066621415 -0.078382984 0.04580541 0.05201241 -0.06789778 0.001333234
0.003151303 -0.06524399 -0.01564866 -0.076280765 -0.08016575 -0.08793715 -0.07225641 0.052724212
0.044913977 -0.08561296 0.07441768 0.03903863 0.059735253 0.023449749 -0.06825189 -0.015986405
0.08767665 0.08100384 -0.046422273 0.05433461 0.0608261 0.022482332 0.03398396 0.02437974
0.10018913 -0.020214057 -0.018139496 0.063922785 -0.042040512 -0.11118643 0.092181295 -0.03346893
0.065650605 -0.043139756 -0.029555768 0.035303876 -0.11260913 0.05186911 -0.04712127 0.07891773
-0.11147761 0.038143124 -0.04014924 0.11179857 -0.09835076 -0.004270706 0.0278484 -0.07898028
0.11140599 -0.011444736 0.04978791 -0.023525573 -0.03243414 -0.08323892 0.09362586 0.11732355
-0.0697442 -0.11825666 0.08088998 -0.105868086 0.026318103 0.04107075 0.10156898 -0.10510539
-0.05349853 0.07698992 -0.017326385 -0.0817589 0.055129196 -0.017926812 0.061347347 0.11714731
-0.027628675 -0.0044425447 -0.036542922 -0.020088675 -0.06790963 -0.12127064 -0.009164231 0.09882796
0.06769789 -0.019117799 0.027105628 0.005721122 0.028934734 0.07180523 0.031932816 -0.11402967
-0.061129082 -0.08096679 -0.050575987 -0.052677713 0.03173977 0.032424904 0.051969588 0.039878096

fc3.bias f4 [24]
00000000: ae63 7b3d fff8 34bd af2b 8bbd 47ea f63c
00000010: bd28 9abb 08c0 d03d 41a7 a0bd d059 32bd
00000020: 897d eabc 42ab f6bd 5bf4 ae3d d3b5 8c3d
00000030: 7bf6 21bd e5f9 adbd 4d0b b53d 0cf0 87bd
00000040: dff3 d03d 9c2b 043e 7b61 88bd 0ebf 833d
00000050: b9b1 6b3d aacf cabd 76bf b6bd eede 803c
0.06137436 -0.044182774 -0.06795441 0.030141009 -0.0047045634 0.10192877 -0.07844401 -0.043542683
-0.028624313 -0.120443836 0.08542701 0.06870618 -0.039541703 -0.08494929 0.08840046 -0.06637582
0.10202765 0.1290726 -0.06659218 0.06432925 0.057542536 -0.0990289 -0.08923237 0.015731301

exp_avg f4 [128, 24]
00000000: 0000 0000 0000 0000 0000 0000 0000 0000
00000010: 0000 0000 0000 0000 0000 0000 0000 0000
00000020: 0000 0000 0000 0000 0000 0000 0000 0000
00000030: 0000 0000 0000 0000 0000 0000 0000 0000
00000040: 0000 0000 0000 0000 0000 0000 0000 0000
00000050: 0000 0000 0000 0000 0000 0000 0000 0000
00000060: 803a 6837 5c5a 1cb8 a461 b9b8 134b 12b9
00000070: 43e5 47b9 867f 7db9 d88c 99b9 035a b4b9
00000080: 2127 cfb9 38f4 e9b9 aa60 02ba 40c7 0fba
00000090: cc2d 1dba 5994 2aba ebfa 37ba 7861 45ba
000000a0: fec7 52ba 962e 60ba 5ee4 943a 9a48 443a
000000b0: 1c3c 93ba 1c3c 93ba 1c3c 93ba 1c3c 93ba
000000c0: ebf7 1739 9ced 0639 8ec6 eb38 dcb1 c938
000000d0: 589d a738 8c88 8538 c8e7 4638 60be 0238
000000e0: c052 7a37 0082 b2b5 a07a 93b7 e0e6 0db8
000000f0: 0010 52b8 d01c 8bb8 6031 adb8 0046 cfb8
00000100: 085b f1b8 f4b7 09b9 c85d 2739 5402 c63a
00000110: 40d9 bcb7 40d9 bcb7 40d9 bcb7 40d9 bcb7
00000120: 0000 0000 0000 0000 0000 0000 0000 0000
00000130: 0000 0000 0000 0000 0000 0000 0000 0000
00000140: 0000 0000 0000 0000 0000 0000 0000 0000
00000150: 0000 0000 0000 0000 0000 0000 0000 0000
00000160: 0000 0000 0000 0000 0000 0000 0000 0000
00000170: 0000 0000 0000 0000 0000 0000 0000 0000
00000180: 0000 0000 0000 0000 0000 0000 0000 0000
00000190: 0000 0000 0000 0000 0000 0000 0000 0000
000001a0: 0000 0000 0000 0000 0000 0000 0000 0000
000001b0: 0000 0000 0000 0000 0000 0000 0000 0000
000001c0: 0000 0000 0000 0000 0000 0000 0000 0000
000001d0: 0000 0000 0000 0000 0000 0000 0000 0000
000001e0: f0a0 eeb6 b0d3 de37 d0a7 7c38 e6f2 c438
000001f0: eec8 0539 6618 2939 ea67 4c39 74b7 6f39
00000200: 6883 8939 362b 9b39 f4d2 ac39 a87a be39
00000210: 6a22 d039 32ca e139 0072 f339 d38c 023a
00000220: ae60 0b3a 8c34 143a 9831 1a3a bc00 c639
00000230: d63b 433a d63b 433a d63b 433a d63b 433a
00000240: d26b d8b8 a299 cdb8 71c7 c2b8 3ef5 b7b8
00000250: 0e23 adb8 dd50 a2b8 ac7e 97b8 7bac 8cb8
00000260: 4bda 81b8 3410 6eb8 d26b 58b8 71c7 42b8
00000270: 0e23 2db8 ac7e 17b8 4bda 01b8 d26b d8b7
00000280: 0e23 adb7 4bda 81b7 0e23 2db7 0e23 adb6
00000290: 6343 07b9 6343 07b9 6343 07b9 6343 07b9
000002a0: 0000 0000 0000 0000 0000 0000 0000 0000
000002b0: 0000 0000 0000 0000 0000 0000 0000 0000
000002c0: 0000 0000 0000 0000 0000 0000 0000 0000
000002d0: 0000 0000 0000 0000 0000 0000 0000 0000
000002e0: 0000 0000 0000 0000 0000 0000 0000 0000
000002f0: 0000 0000 0000 0000 0000 0000 0000 0000
00000300: 2081 2938 13ae e038 c94d 3639 8044 7c39
00000310: a11d a139 0919 c439 6414 e739 dc07 053a
00000320: 9185 163a 4303 283a ee80 393a a4fe 4a3a
00000330: 4a7c 5c3a 04fa 6d3a a877 7f3a b07a 883a
00000340: 9039 913a 5ef8 993a 2c44 9d3a 1015 6e3a
00000350: 366d d23a 366d d23a 366d d23a 366d d23a
00000360: b0ce 2c39 aece ac39 fd9a 013a aece 2c3a
00000370: 5402 583a fd9a 813a d834 973a adce ac3a
00000380: 7e68 c23a 5402 d83a 2a9c ed3a fc9a 013b
00000390: eb67 0c3b d834 173b bc01 223b acce 2c3b
000003a0: 929b 373b 7e68 423b 954c 163b f292 393b
000003b0: 7401 873b 7401 873b 7401 873b 7401 873b
000003c0: e341 50b7 2a63 bf37 8973 7338 c09a c338
000003d0: e9bd 0639 58ae 2b39 e39e 5039 578f 7539
000003e0: f03f 8d39 32b8 9f39 7430 b239 b2a8 c439
000003f0: f220 d739 2f99 e939 6c11 fc39 d744 073a
0.0 0.0 0.0 0.0 0.0 0.0 0.0 0.0
0.0 0.0 0.0 0.0 0.0 0.0 0.0 0.0
0.0 0.0 0.0 0.0 0.0 0.0 0.0 0.0
1.3841898e-05 -3.7277452e-05 -8.8396744e-05 -0.00013951612 -0.00019063526 -0.00024175466 -0.0002928737 -0.0003439934
-0.0003951127 -0.0004462318 -0.00049735105 -0.00054847077 -0.0005995899 -0.0006507091 -0.00070182857 -0.00075294776
-0.00080406654 -0.0008551864 0.0011359563 0.0007487625 -0.0011233124 -0.0011233124 -0.0011233124 -0.0011233124
0.00014492839 0.00012867752 0.00011242657 9.617556e-05 7.992488e-05 6.367368e-05 4.742274e-05 3.1171716e-05
1.4920428e-05 -1.3299868e-06 -1.7580867e-05 -3.383204e-05 -5.0082803e-05 -6.633403e-05 -8.25848e-05 -9.883568e-05
-0.000115087314 -0.00013133866 0.00015961297 0.0015106895 -2.2512511e-05 -2.2512511e-05 -2.2512511e-05 -2.2512511e-05
0.0 0.0 0.0 0.0 0.0 0.0 0.0 0.0
0.0 0.0 0.0 0.0 0.0 0.0 0.0 0.0
0.0 0.0 0.0 0.0 0.0 0.0 0.0 0.0
0.0 0.0 0.0 0.0 0.0 0.0 0.0 0.0
0.0 0.0 0.0 0.0 0.0 0.0 0.0 0.0
0.0 0.0 0.0 0.0 0.0 0.0 0.0 0.0
-7.1116883e-06 2.6563037e-05 6.023777e-05 9.391252e-05 0.0001275872 0.00016126185 0.00019493667 0.00022861158
0.00026228582 0.00029596098 0.0003296357 0.0003633101 0.00039698492 0.00043065991 0.00046433508 0.0004980091
0.00053168356 0.0005653582 0.0005882024 0.0003776605 0.0007447576 0.0007447576 0.0007447576 0.0007447576
-0.00010319766 -9.803778e-05 -9.28779e-05 -8.7718e-05 -8.255812e-05 -7.739824e-05 -7.2238356e-05 -6.707847e-05
-6.1918596e-05 -5.6758712e-05 -5.159883e-05 -4.643895e-05 -4.127906e-05 -3.6119178e-05 -3.0959298e-05 -2.5799414e-05
-2.063953e-05 -1.5479649e-05 -1.0319765e-05 -5.1598827e-06 -0.00012899707 -0.00012899707 -0.00012899707 -0.00012899707
0.0 0.0 0.0 0.0 0.0 0.0 0.0 0.0
0.0 0.0 0.0 0.0 0.0 0.0 0.0 0.0
0.0 0.0 0.0 0.0 0.0 0.0 0.0 0.0
4.0412997e-05 0.00010713576 0.0001738585 0.00024058111 0.00030730388 0.00037402686 0.00044074946 0.00050747185
0.0005741949 0.00064091774 0.0007076402 0.0007743633 0.00084108545 0.0009078088 0.0009745308 0.001041254
0.0011079777 0.0011746993 0.0011998466 0.0009082118 0.0016054276 0.0016054276 0.0016054276 0.0016054276
0.00016480195 0.00032960385 0.00049440545 0.0006592077 0.0008240093 0.0009888109 0.0011536134 0.0013184153
0.0014832166 0.0016480186 0.0018128206 0.0019776216 0.0021424245 0.0023072269 0.0024720272 0.0026368303
0.002801631 0.0029664333 0.002293383 0.0028316346 0.0041200463 0.0041200463 0.0041200463 0.0041200463
-1.2413107e-05 2.2815151e-05 5.8043315e-05 9.327149e-05 0.00012849983 0.00016372779 0.00019895616 0.00023418419
0.00026941253 0.0003046408 0.00033986906 0.0003750972 0.00041032542 0.00044555354 0.00048078166 0.0005160099

exp_avg_sq f4 [128, 24]
00000000: 0000 0000 0000 0000 0000 0000 0000 0000
00000010: 0000 0000 0000 0000 0000 0000 0000 0000
00000020: 0000 0000 0000 0000 0000 0000 0000 0000
00000030: 0000 0000 0000 0000 0000 0000 0000 0000
00000040: 0000 0000 0000 0000 0000 0000 0000 0000
00000050: 0000 0000 0000 0000 0000 0000 0000 0000
00000060: f72b 8736 75f2 8b37 59f0 2338 7465 9538
00000070: 6644 ed38 87ca 2c39 ca2b 6d39 e8e2 9b39
00000080: 5c4c c639 44d2 f539 443a 153a a019 323a
00000090: 4087 513a 0583 733a 8f06 8c3a 9f92 9f3a
000000a0: d665 b43a 3280 ca3a 8c87 e53a 4f26 093b
000000b0: 9d63 403b 9d63 403b 9d63 403b 9d63 403b
000000c0: 0b34 7d37 fd9d 2e38 82e0 aa38 7d2d 0d39
000000d0: 44df 5239 c842 9339 2710 c439 bdd7 fb39
000000e0: d34c 1d3a f32a 403a 2086 663a 392f 883a
000000f0: f8d9 9e3a 3943 b73a 126b d13a 8251 ed3a
00000100: 387b 053b 022d 153b 2f0b 2e3b 3b4a 523b
00000110: 3b74 953b 3b74 953b 3b74 953b 3b74 953b
00000120: 0000 0000 0000 0000 0000 0000 0000 0000
00000130: 0000 0000 0000 0000 0000 0000 0000 0000
00000140: 0000 0000 0000 0000 0000 0000 0000 0000
00000150: 0000 0000 0000 0000 0000 0000 0000 0000
00000160: 0000 0000 0000 0000 0000 0000 0000 0000
00000170: 0000 0000 0000 0000 0000 0000 0000 0000
00000180: 0000 0000 0000 0000 0000 0000 0000 0000
00000190: 0000 0000 0000 0000 0000 0000 0000 0000
000001a0: 0000 0000 0000 0000 0000 0000 0000 0000
000001b0: 0000 0000 0000 0000 0000 0000 0000 0000
000001c0: 0000 0000 0000 0000 0000 0000 0000 0000
000001d0: 0000 0000 0000 0000 0000 0000 0000 0000
000001e0: 8b83 ee36 dadd d537 0e2a 6c38 ffc0 d038
000001f0: adbd 2239 0722 6a39 bd46 9f39 2100 d039
00000200: 879e 033a cd7e 223a e0a0 443a b304 6a3a
00000210: 2555 893a e548 9f3a 7cdd b63a 0813 d03a
00000220: 72e9 ea3a 5db0 033b 2658 173b 560e 363b
00000230: 71e7 7d3b 71e7 7d3b 71e7 7d3b 71e7 7d3b
00000240: ebd7 4e35 1bad 3a35 058b 2735 bc71 1535
00000250: 3d61 0435 e6b2 e834 deb4 ca34 5ac8 ae34
00000260: 57ed 9434 bb47 7a34 ebd7 4e34 058b 2734
00000270: 3d61 0434 deb4 ca33 57ed 9433 ebd7 4e33
00000280: 3d61 0433 57ed 9432 3d61 0432 3d61 0431
00000290: a598 a135 a598 a135 a598 a135 a598 a135
000002a0: 0000 0000 0000 0000 0000 0000 0000 0000
000002b0: 0000 0000 0000 0000 0000 0000 0000 0000
000002c0: 0000 0000 0000 0000 0000 0000 0000 0000
000002d0: 0000 0000 0000 0000 0000 0000 0000 0000
000002e0: 0000 0000 0000 0000 0000 0000 0000 0000
000002f0: 0000 0000 0000 0000 0000 0000 0000 0000
00000300: be5b ac37 e000 2a38 21c7 8d38 396b d538
00000310: 3cf6 1539 77a5 4839 b161 8139 ee27 a239
00000320: 7ba5 c639 65da ee39 4c63 0d3a 1135 253a
00000330: 7de2 3e3a 8a6b 5a3a 3ed0 773a 4c88 8b3a
00000340: 5816 9c3a 3392 ad3a f0e3 c03a 3821 e03a
00000350: 067d 383b 067d 383b 067d 383b 067d 383b
00000360: 38e4 cf35 a39e 8b36 cc82 1337 848b 8137
00000370: e245 ca37 53f8 1138 ec45 4738 cd85 8238
00000380: cda4 a538 beff cc38 e796 f838 0d35 1439
00000390: b23c 2e39 6462 4a39 22a6 6839 f683 8439
000003a0: dec3 9539 cb12 a839 8d88 c239 594e e539
000003b0: c755 203a c755 203a c755 203a c755 203a
000003c0: 8524 8636 49e9 2b37 a654 a937 8dd4 0d38
000003d0: 0279 5638 ed4b 9738 5c18 cb38 0051 0339
000003e0: 63f4 2439 4676 4a39 bcd6 7339 e28a 9039
000003f0: bc19 a939 ce97 c339 3605 e039 c261 fe39
0.0 0.0 0.0 0.0 0.0 0.0 0.0 0.0
0.0 0.0 0.0 0.0 0.0 0.0 0.0 0.0
0.0 0.0 0.0 0.0 0.0 0.0 0.0 0.0
4.0284317e-06 1.6682994e-05 3.908607e-05 7.123771e-05 0.00011313781 0.00016478646 0.00022618394 0.00029732962
0.00037822395 0.00046886702 0.0005692581 0.00067939796 0.0007992871 0.0009289238 0.0010683107 0.0012174434
0.001376326 0.0015449582 0.001751171 0.0020927375 0.002935625 0.002935625 0.002935625 0.002935625
1.5092092e-05 4.163197e-05 8.1480495e-05 0.00013463754 0.00020110334 0.0002808778 0.00037396068 0.00048035188
0.00060005224 0.00073306187 0.000879379 0.001039005 0.0012119403 0.0013981826 0.0015977344 0.0018105956
0.0020367634 0.0022762422 0.002655696 0.0032087702 0.004560975 0.004560975 0.004560975 0.004560975
0.0 0.0 0.0 0.0 0.0 0.0 0.0 0.0
0.0 0.0 0.0 0.0 0.0 0.0 0.0 0.0
0.0 0.0 0.0 0.0 0.0 0.0 0.0 0.0
0.0 0.0 0.0 0.0 0.0 0.0 0.0 0.0
0.0 0.0 0.0 0.0 0.0 0.0 0.0 0.0
0.0 0.0 0.0 0.0 0.0 0.0 0.0 0.0
7.1082663e-06 2.5494886e-05 5.630595e-05 9.954161e-05 0.00015520184 0.00022328655 0.00030379547 0.00039672948
0.0005020876 0.00061987044 0.0007500779 0.0008927092 0.0010477646 0.0012152462 0.0013951506 0.0015874812
0.0017922355 0.0020094134 0.0023093312 0.002777954 0.0038742686 0.0038742686 0.0038742686 0.0038742686
7.705518e-07 6.95423e-07 6.241465e-07 5.567233e-07 4.931533e-07 4.3343533e-07 3.775703e-07 3.25558e-07
2.7739836e-07 2.330916e-07 1.9263796e-07 1.5603662e-07 1.2328833e-07 9.4392576e-08 6.934959e-08 4.815949e-08
3.0822083e-08 1.7337397e-08 7.705521e-09 1.9263802e-09 1.203986e-06 1.203986e-06 1.203986e-06 1.203986e-06
0.0 0.0 0.0 0.0 0.0 0.0 0.0 0.0
0.0 0.0 0.0 0.0 0.0 0.0 0.0 0.0
0.0 0.0 0.0 0.0 0.0 0.0 0.0 0.0
2.0546719e-05 4.0531973e-05 6.7604946e-05 0.00010176603 0.00014301477 0.00019135127 0.00024677583 0.00030928798
0.00037888795 0.00045557614 0.00053935195 0.0006302158 0.0007281674 0.00083320646 0.0009453333 0.0010645478
0.0011908514 0.0013242423 0.0014716368 0.0017099744 0.0028150692 0.0028150692 0.0028150692 0.0028150692
1.5489122e-06 4.1609906e-06 8.792336e-06 1.5442965e-05 2.4112818e-05 3.4801964e-05 4.7510417e-05 6.2238054e-05
7.89851e-05 9.775114e-05 0.00011853669 0.00014134143 0.00016616544 0.00019300875 0.00022187133 0.0002527532
0.00028565427 0.0003205746 0.00037104302 0.00043736657 0.00061162974 0.00061162974 0.00061162974 0.00061162974
3.9977626e-06 1.024671e-05 2.0185787e-05 3.3814973e-05 5.1134273e-05 7.2143834e-05 9.6843316e-05 0.00012523308
0.000157313 0.00019308281 0.0002325428 0.00027569296 0.00032253365 0.00037306402 0.00042728492 0.0004851949

exp_avg f4 [128]
00000000: 0000 0000 e875 3cb8 c0b9 71b5 0000 0000
00000010: 0000 0000 38e6 f937 0e23 adb6 0000 0000
00000020: 49ac 8638 aace 2c39 26ba 0038 0000 0000
00000030: 0000 0000 827b c238 0000 0000 0000 0000
00000040: 9800 d5b7 af91 2cb8 c29f 6938 2e40 19b8
00000050: 0000 0000 c41a 5cb9 c876 0c39 0000 0000
00000060: 5177 06b8 7f03 a3b8 0000 0000 0000 0000
00000070: c92e 85b8 76fb 96b8 0000 0000 64f9 2eb8
00000080: 0000 0000 3cb0 f837 c080 cfb5 a3f1 9eb8
00000090: 217d fd38 0000 0000 b126 682d 72b4 292e
000000a0: 0000 0000 b755 1f39 904c 8fb8 acf1 02b6
000000b0: 56d4 44b8 8d48 0d39 f890 a436 0000 0000
000000c0: 0000 0000 0000 0000 0000 0000 0000 0000
000000d0: 431c 2339 9271 9738 0000 0000 0000 0000
000000e0: 240b d237 22f1 28b9 0000 0000 10db 8737
000000f0: 7c0c e52c 0000 0000 4d8d d62d c846 a9b6
00000100: 0000 0000 babd 8db8 0000 0000 0000 0000
00000110: c3af fa37 e8f5 d8b8 fcb1 e935 d7d8 d238
00000120: 9cac 5338 a02a 7a37 312d b138 0000 0000
00000130: e804 89b7 0000 0000 fbca da38 0000 0000
00000140: 1de6 f7b6 f879 002e 7b53 f52e 0000 0000
00000150: ac54 fa37 0bcc f3b7 ffe0 1d39 5889 bb37
00000160: 21f0 e22b 0000 0000 0000 0000 0000 0000
00000170: 0000 0000 0000 0000 0000 0000 0000 0000
00000180: 0000 0000 d4d9 de29 5d1d 0439 0000 0000
00000190: ccd3 b037 eee7 adb8 0000 0000 ce0d 1138
000001a0: 1cb2 a9b7 e77d 24b9 0000 0000 4ca2 fe2b
000001b0: 0000 0000 6265 5238 4036 8d37 4efa c1b7
000001c0: 497d 5436 5261 e1b7 0000 0000 88d9 b5b8
000001d0: 0000 0000 0000 0000 305c 00b9 0000 0000
000001e0: 1823 4737 ea94 bdb8 989d 8238 0000 0000
000001f0: 264b 4fb8 9848 a6b8 0000 0000 0000 0000
0.0 -4.49325e-05 -9.00498e-07 0.0 0.0 2.9790317e-05 -5.1598827e-06 0.0
6.4217085e-05 0.00016480187 3.0690942e-05 0.0 0.0 9.273646e-05 0.0 0.0
-2.5391855e-05 -4.1143674e-05 5.5700315e-05 -3.6537815e-05 0.0 -0.00020990806 0.0001339569 0.0
-3.205921e-05 -7.773097e-05 0.0 0.0 -6.3506486e-05 -7.1993956e-05 0.0 -4.1717096e-05
0.0 2.964597e-05 -1.5460173e-06 -7.5790354e-05 0.00012087287 0.0 1.3196264e-11 3.858642e-11
0.0 0.00015195353 -6.833032e-05 -1.951218e-06 -4.6927795e-05 0.00013473835 4.9044575e-06 0.0
0.0 0.0 0.0 0.0 0.0001555542 7.221395e-05 0.0 0.0
2.5039139e-05 -0.00016111557 0.0 1.6195263e-05 6.5099575e-12 0.0 2.4391733e-11 -5.0448325e-06
0.0 -6.758743e-05 0.0 0.0 2.9884168e-05 -0.00010345486 1.7411653e-06 0.0001005397
5.0467075e-05 1.4911086e-05 8.448435e-05 0.0 -1.6333957e-05 0.0 0.00010432858 0.0
-7.3879623e-06 2.921216e-11 1.1156139e-10 0.0 2.984175e-05 -2.9062872e-05 0.00015056504 2.2356093e-05
1.6124915e-12 0.0 0.0 0.0 0.0 0.0 0.0 0.0
0.0 9.8965676e-14 0.0001259944 0.0 2.107946e-05 -8.292483e-05 0.0 3.458355e-05
-2.0229309e-05 -0.00015687161 0.0 1.8092832e-12 0.0 5.016232e-05 1.6833772e-05 -2.312395e-05
3.1663387e-06 -2.6867408e-05 0.0 -8.671271e-05 0.0 0.0 -0.00012241374 0.0
1.1869495e-05 -9.03996e-05 6.228237e-05 0.0 -4.9422633e-05 -7.9290185e-05 0.0 0.0

exp_avg_sq f4 [128]
00000000: 0000 0000 e89a 9d36 99dd f436 0000 0000
00000010: 0000 0000 90ff cf36 3d61 0431 0000 0000
00000020: 0122 9736 b758 8335 fd41 0136 0000 0000
00000030: 0000 0000 bacb 0836 0000 0000 0000 0000
00000040: 40b7 0d38 344c 1d36 96de 2138 2f5a 9936
00000050: 0000 0000 f169 de34 1773 8937 0000 0000
00000060: 1fdc 8636 253f d333 0000 0000 0000 0000
00000070: 714e af35 e023 3037 0000 0000 d031 d435
00000080: 0000 0000 6736 9d36 dea9 4b37 ff3d 1137
00000090: 6cee 2e36 0000 0000 96a6 e936 983e 5e37
000000a0: 0000 0000 77b4 3137 c260 d337 53bf a133
000000b0: a7cd b135 8723 4e36 ca71 6032 0000 0000
000000c0: 0000 0000 0000 0000 0000 0000 0000 0000
000000d0: 7388 3e36 5072 a537 0000 0000 0000 0000
000000e0: 7cc4 5d36 41e5 6235 0000 0000 d2f5 eb35
000000f0: c8a1 0b32 0000 0000 a665 5133 45b2 4f36
00000100: 0000 0000 86cc a535 0000 0000 0000 0000
00000110: eba2 0e38 f2da 2f37 0bc4 0f35 4932 4536
00000120: 6b4b 1c36 b72e 7837 ce0f c136 0000 0000
00000130: 03d9 0236 0000 0000 5a3d 7435 0000 0000
00000140: 3294 e631 7148 9635 9c81 ef37 0000 0000
00000150: 9b20 d533 d7ad ad34 0433 4f36 b218 6336
00000160: 167d 7c32 0000 0000 0000 0000 0000 0000
00000170: 0000 0000 0000 0000 0000 0000 0000 0000
00000180: 0000 0000 5f5a 302f f662 9836 0000 0000
00000190: fe80 a934 eed8 1a36 0000 0000 8500 1237
000001a0: b43c 0a34 f388 5937 0000 0000 ab87 a332
000001b0: 0000 0000 00f6 7836 5d7b d736 6aa1 4236
000001c0: 891e eb34 5457 3037 0000 0000 e353 1537
000001d0: 0000 0000 0000 0000 0a33 a834 0000 0000
000001e0: 5020 9a36 1723 3b36 2f20 3b36 0000 0000
000001f0: a418 e635 b6be 0337 0000 0000 0000 0000
0.0 4.696998e-06 7.297564e-06 0.0 0.0 6.198832e-06 1.9263802e-09 0.0
4.5041093e-06 9.78608e-07 1.9260908e-06 0.0 0.0 2.0384164e-06 0.0 0.0
3.3787685e-05 2.343918e-06 3.859269e-05 4.570254e-06 0.0 4.1427805e-07 1.6385266e-05 0.0
4.0191367e-06 9.836939e-08 0.0 0.0 1.3061345e-06 1.049877e-05 0.0 1.5809728e-06
0.0 4.685298e-06 1.2139293e-05 8.657108e-06 2.60668e-06 0.0 6.9633343e-06 1.3246805e-05
0.0 1.059204e-05 2.5198216e-05 7.5319484e-08 1.324738e-06 3.0717072e-06 1.3064389e-08 0.0
0.0 0.0 0.0 0.0 2.839163e-06 1.9722764e-05 0.0 0.0
3.3045935e-06 8.452517e-07 0.0 1.7580408e-06 8.12765e-09 0.0 4.8754053e-08 3.094917e-06
0.0 1.2352982e-06 0.0 0.0 3.4007167e-05 1.048179e-05 5.355693e-07 2.9384557e-06
2.328971e-06 1.4792829e-05 5.753688e-06 0.0 1.9497827e-06 0.0 9.098636e-07 0.0
6.710729e-09 1.1196954e-06 2.8551374e-05 0.0 9.924516e-08 3.2350246e-07 3.0875099e-06 3.384001e-06
1.4696772e-08 0.0 0.0 0.0 0.0 0.0 0.0 0.0
0.0 1.6039213e-10 4.5414736e-06 0.0 3.1572557e-07 2.3074058e-06 0.0 8.702399e-06
1.2874335e-07 1.2966094e-05 0.0 1.9037392e-08 0.0 3.709807e-06 6.4218607e-06 2.9002208e-06
4.3794378e-07 1.051075e-05 0.0 8.9006235e-06 0.0 0.0 3.1329574e-07 0.0
4.5933193e-06 2.7885596e-06 2.7883905e-06 0.0 1.7143507e-06 7.852612e-06 0.0 0.0

exp_avg f4 [64, 128]
00000000: 0000 0000 da81 453a 504f 17ba 0000 0000
00000010: 0000 0000 fc64 823a 16e9 c038 0000 0000
00000020: 0023 fdb8 24f3 ef39 76e5 f5ba 0000 0000
00000030: 0000 0000 9757 2bb9 0000 0000 0000 0000
00000040: 00f0 7db6 44ef e9b9 5811 243a 60de 13b8
00000050: 0000 0000 cd1a afb9 b02b aa3a 0000 0000
00000060: 2095 c5b8 835f 81b9 0000 0000 0000 0000
00000070: a0cd cfb9 74cf bbba 0000 0000 a079 0139
00000080: 0000 0000 82a5 8c3a e84f 8a39 58d4 c7b9
00000090: d0c8 f339 0000 0000 a12b 1c2c 98d6 65ac
000000a0: 0000 0000 bcbb 4dba 2475 97b9 d493 d738
000000b0: 00a6 7238 6610 7aba a60f 0f39 0000 0000
000000c0: 0000 0000 0000 0000 0000 0000 0000 0000
000000d0: e09d 1b3a 312e 823a 0000 0000 0000 0000
000000e0: 48b9 9ab9 9810 223a 0000 0000 0045 58ba
000000f0: e77c d2ad 0000 0000 c6f4 f82d d263 c137
00000100: 0000 0000 0060 5c37 0000 0000 0000 0000
00000110: 40a3 7639 c6ed a33a 0dfc c637 085c 9bba
00000120: a832 d939 ba98 bdba b8e7 d5ba 0000 0000
00000130: 0021 f039 0000 0000 44a1 b5ba 0000 0000
00000140: 4852 e838 8a71 0dae c55e 40ad 0000 0000
00000150: ee32 b53a 3089 94ba 64c9 a2b9 80f5 62b6
00000160: 0000 0000 0000 0000 0000 0000 0000 0000
00000170: 0000 0000 0000 0000 0000 0000 0000 0000
00000180: 0000 0000 0000 0000 c09e b638 0000 0000
00000190: 987d 37ba b047 3e3a 0000 0000 687f 6139
000001a0: a03c 0eba f8cf 30ba 0000 0000 a1b7 4aad
000001b0: 0000 0000 2a14 92ba d2d3 8e3a 9601 7d3a
000001c0: 28a4 5a37 a0ce a639 0000 0000 840d 99ba
000001d0: 0000 0000 0000 0000 2274 16ba 0000 0000
000001e0: a945 c1ba c02c 07b9 052d 943a 0000 0000
000001f0: d020 1639 d0b5 1239 0000 0000 0000 0000
00000200: 0000 0000 2e0f 7d30 876f 8031 0000 0000
00000210: 0000 0000 3e93 ab30 0f37 2e2e 0000 0000
00000220: 357c 6a31 e6a5 3830 38d4 3c31 0000 0000
00000230: 0000 0000 6587 f62f 0000 0000 0000 0000
00000240: c7cd 9931 62e5 ed2e 0e35 4831 6d35 2a30
00000250: 0000 0000 2b30 232e 8c2c 3c31 0000 0000
00000260: 2a86 5831 f391 622e 0000 0000 0000 0000
00000270: dc06 0d32 213b 5030 0000 0000 f974 7731
00000280: 0000 0000 44f2 622f 8c0e 1830 a3b2 2430
00000290: 6d25 a031 0000 0000 85bb 392e 3fae 3230
000002a0: 0000 0000 3617 ec30 6398 842f bd11 c42e
000002b0: 0225 3d31 e3fb ec30 9fad fc2e 0000 0000
000002c0: 0000 0000 0000 0000 0000 0000 0000 0000
000002d0: 8d76 b531 9d9d 6e30 0000 0000 0000 0000
000002e0: c40e 0b30 e6e3 1431 0000 0000 331f ba30
000002f0: 273a 852e 0000 0000 7831 592d bd48 e12e
00000300: 0000 0000 e2b9 7031 0000 0000 0000 0000
00000310: 183d b330 47fb 7930 7491 832e 7e98 2131
00000320: 3d6a e530 c898 3b31 d39f 9431 0000 0000
00000330: a7ab b831 0000 0000 d584 ac30 0000 0000
00000340: 2f66 3f2e 6f6f 1830 c736 ef2f 0000 0000
00000350: 9ec2 de2d a18b 092e 769c d130 abb6 9c30
00000360: f2e6 1f2d 0000 0000 0000 0000 0000 0000
00000370: 0000 0000 0000 0000 0000 0000 0000 0000
00000380: 0000 0000 3f3f eb2a e750 ae31 0000 0000
00000390: b683 9631 3f57 8631 0000 0000 8f97 8f2f
000003a0: 8e70 f52e cf1f b931 0000 0000 96f6 a72d
000003b0: 0000 0000 f811 7131 16b2 4f31 7af5 1e31
000003c0: a283 3230 d660 7631 0000 0000 ecc9 d02f
000003d0: 0000 0000 0000 0000 e368 622e 0000 0000
000003e0: bfac 1731 e6b4 2331 44ff 1530 0000 0000
000003f0: 4ff1 da30 42b9 da30 0000 0000 0000 0000
0.0 0.0007534303 -0.00057720114 0.0 0.0 0.0009948309 9.198689e-05 0.0
-0.00012070499 0.00045766786 -0.0018760401 0.0 0.0 -0.0001634046 0.0 0.0
-3.7839636e-06 -0.0004461949 0.0006258688 -3.5254634e-05 0.0 -0.0003339857 0.0012982991 0.0
-9.421469e-05 -0.0002467596 0.0 0.0 -0.0003963532 -0.0014328794 0.0 0.00012347708
0.0 0.0010730478 0.00026380946 -0.00038114446 0.0004649819 0.0 2.2193152e-12 -3.266198e-12
0.0 -0.0007848104 -0.0002888824 0.00010279534 5.7851896e-05 -0.0009539187 0.00013643372 0.0
0.0 0.0 0.0 0.0 0.0005936306 0.0009931979 0.0 0.0
-0.00029511214 0.0006182282 0.0 -0.0008250028 -2.3929704e-11 0.0 2.8303037e-11 2.3053875e-05
0.0 1.3135374e-05 0.0 0.0 0.00023521204 0.0012506775 2.372081e-05 -0.0011852989
0.00041427207 -0.0014465072 -0.0016319668 0.0 0.00045800954 0.0 -0.0013857265 0.0
0.00011077948 -3.216053e-11 -1.09349795e-11 0.0 0.0013824382 -0.0011332389 -0.00031049096 -3.3819524e-06
0.0 0.0 0.0 0.0 0.0 0.0 0.0 0.0
0.0 0.0 8.708006e-05 0.0 -0.0006999611 0.0007258607 0.0 0.00021505135
-0.0005425904 -0.0006744857 0.0 -1.1523144e-11 0.0 -0.0011144925 0.0010896868 0.00096514204
1.3032033e-05 0.00031815935 0.0 -0.0011677002 0.0 0.0 -0.0005739351 0.0
-0.0014745492 -0.00012891274 0.0011304921 0.0 0.00014317338 0.00013991375 0.0 0.0
0.0 9.2062435e-10 3.7379695e-09 0.0 0.0 1.2483736e-09 3.961192e-11 0.0
3.4122085e-09 6.7174566e-10 2.7478233e-09 0.0 0.0 4.4843343e-10 0.0 0.0
4.4762802e-09 1.0818259e-10 2.9133989e-09 6.192156e-10 0.0 3.710469e-11 2.7382923e-09 0.0
3.15084e-09 5.151608e-11 0.0 0.0 8.20884e-09 7.5753986e-10 0.0 3.6009722e-09
0.0 2.064065e-10 5.531795e-10 5.991671e-10 4.6608677e-09 0.0 4.223068e-11 6.500364e-10
0.0 1.7177857e-09 2.4118937e-10 8.916199e-11 2.7524156e-09 1.724285e-09 1.14904745e-10 0.0
0.0 0.0 0.0 0.0 5.281271e-09 8.680788e-10 0.0 0.0
5.058889e-10 2.166638e-09 0.0 1.3542149e-09 6.05847e-11 0.0 1.2346006e-11 1.0244736e-10
0.0 3.5030259e-09 0.0 0.0 1.3041328e-09 9.094276e-10 5.983028e-11 2.3515265e-09
1.6692138e-09 2.7298928e-09 4.325537e-09 0.0 5.3746194e-09 0.0 1.25524e-09 0.0
4.351913e-11 5.5455635e-10 4.3512768e-10 0.0 2.5324905e-11 3.127421e-11 1.525122e-09 1.1402411e-09
9.089384e-12 0.0 0.0 0.0 0.0 0.0 0.0 0.0
0.0 4.1788272e-13 5.073264e-09 0.0 4.3805484e-09 3.909832e-09 0.0 2.6119237e-10
1.1161304e-10 5.387825e-09 0.0 1.9095208e-11 0.0 3.508033e-09 3.0223695e-09 2.3131563e-09
6.4943084e-10 3.5852756e-09 0.0 3.7978454e-10 0.0 0.0 5.147961e-11 0.0
2.2071587e-09 2.382245e-09 5.456864e-10 0.0 1.5930172e-09 1.5914241e-09 0.0 0.0
