models/RaceModels/classif_pos_3copies1to10_1HL/model.pt (torch, 502063 bytes, 18 tensors)

fc1.weight f4 [128, 240]
00000000: 14ef 35bc ee71 963c 5dce 78bd 7c3d 74bd
00000010: 79bd 8ebb e9fc 123d a8e3 a3be bdfa 3d3e
00000020: 84e5 2bbd a3bb f33c 9736 28bd e9e2 123e
00000030: a2d1 993d 49e5 47bc 0968 3ebd e810 b5bd
00000040: 9b38 c13c 0c85 d33d bb95 d13d 74b2 8b3d
00000050: 1ade 3ebe b187 003e 404c a93e e08a 4f3d
00000060: 8af2 bcbd bcfc a9bd cabb debc fc44 08bd
00000070: 694b 1f3d ed9b cebb 2a62 93be 6b3d 223e
00000080: 3305 f13c 8aa0 db3c ba17 aebd 32bf 413c
00000090: 3098 173e 33cc 213d f2d4 a5ba d727 e2bd
000000a0: f363 033e e3e2 503d a117 bd3d eda4 953b
000000b0: fc2d 91be 0e52 603e 6414 893e dec1 7e3c
000000c0: 1e93 bfbd 8e6d 42bb ec41 fcbd dfeb b1bd
000000d0: e310 073e d702 81bd 46f6 64be 94be fc3d
000000e0: af28 cfbb 735d 433d d867 8f3a c977 763d
000000f0: dd7c 503d d390 f03c 4071 86bc 81ad 913d
00000100: c0b3 b5bc 4fa6 723d dcbe 1e3d 4532 853d
00000110: df5f 5cbe d8f7 143e aca3 763e 4490 1ebd
00000120: 80c1 10bd 8afc 9cbd 6e47 b2bc 8ed7 74bd
00000130: e036 033e 421e 7abb 9444 a4be d572 0f3e
00000140: bc95 6fbd 6eab 483d 935d b3ba 8743 193d
00000150: 4757 fe3d bcc5 2cbe 540d 7fbd 1e51 df3d
00000160: 2118 bbbc 636c be3d 8ae1 533d 396d 573d
00000170: 640b 42be 0d22 643e d27a 253e 5280 77bd
00000180: fd7a 3cbd 6516 53bd 098c a8bd 7717 5abd
00000190: d2e6 1f3e 9dc6 323b 976f 3ebe 5dfe fb3d
000001a0: 74da afbd abc8 883d 92e2 e83d fff1 8a3d
000001b0: c480 c03d b99b 0abe 1c98 8a3c 1d45 ec3d
000001c0: dee2 4e3d 3ce7 fd3c 58b4 053d 4e8b 283e
000001d0: 4e9c 38be 505c 623e fd3f 283e bb14 e9bd
000001e0: 22fa c3bd 0e78 0cbb aa5d 6ebc 1a49 303d
000001f0: 694c 093e a4ad 72bd 851e 7ebe 325e 283e
00000200: b42b 0cbd e00f 323e f901 94bd 544d ae3d
00000210: b71c 2b3e 223b 3abd facd 723d 54d1 3c3d
00000220: 16bb 003d 7646 f83d 5d16 19bc cda5 4c3d
00000230: b9ae 6dbe ba90 fa3c 15a3 a63d 1918 12bd
00000240: 21c1 1fbd 94a9 c13c 5349 76bc a851 5a3e
00000250: 1075 ec3d 2e1f 8dbc fd67 f8bd 984b 2e3e
00000260: 378b d1bd b5d9 ee3d 4898 93bd 33f0 4d3c
00000270: ca0d e63d e854 c1bd 5188 1b3d 3417 63bc
00000280: 6b3d 83bc 7c65 2e3e 6784 5a3d 4a28 d23c
00000290: f853 96be 0f51 83bc 5a3d e23d 9816 d7bd
000002a0: 3110 d6bd f4f3 a63c 1db1 1b3d ef28 3a3e
000002b0: d592 243d 6368 0cbd 82dd 60bd fc49 9a3d
000002c0: 417f 4cbd 5e98 733d 12f3 b7bd 1c33 903d
000002d0: 6ba0 323e f1f7 84bd d37e 27bd 1caf 0f3d
000002e0: 4174 0ebd 257a 553e 3f6f 13bd 8497 a7bd
000002f0: 0a11 91be d43e e4bb 0591 553e fda6 cabd
00000300: ef6d e1bd 5cde d73d df10 183e 2777 263d
00000310: bca7 15bc 89ee 0ebd 5583 adbd bfac 86bb
00000320: 80be 9ebd 8103 313c 0d52 963c 0a86 313c
00000330: a6e3 613e 7720 76be 1bb7 823c 3926 203d
00000340: 9faf 153d 1abd 3a3e 0586 eb3c 6d5b 3b3c
00000350: 7401 afbe 4fe7 243e bfbf 8d3e 15e1 b4bc
00000360: 3bbe 993b dbfe 12bd 671f 3f3d ce51 2b3e
00000370: fef3 79bd bddf d2bc 209a 61be df8e c23d
00000380: e3e2 cdbd a37b 38bc 33a0 d1ba fdfe 9c3d
00000390: 0684 8a3e 6f88 3dbe 2bff ed3c 9530 013d
000003a0: 77f0 b43d b592 ad3d 1858 58bc 03e8 eb3b
000003b0: d856 b8be f902 393e 615e 8c3e 4504 24be
000003c0: 81d1 70bd ea51 f4bb a00d 993c 848f a4bb
000003d0: aeaa 1bbd 53ea 8fbb 426e 8abd 047d 55bd
000003e0: f7e8 55bd 8dba 493d 4d4f 553d 6f8f babc
000003f0: 2ce2 27bb 16b8 bc3c e301 ac3b 8803 04bd
-0.011104364 0.018364873 -0.06074368 -0.05962895 -0.004356083 0.035885725 -0.32009625 0.1855268
-0.04196693 0.029752558 -0.041067686 0.14344372 0.075106874 -0.012200662 -0.046485934 -0.08841115
0.023586562 0.10328111 0.10233637 0.068211466 -0.18639413 0.12551762 0.33065987 0.05066955
-0.09225948 -0.083001584 -0.027189154 -0.033268914 0.038890276 -0.006305209 -0.2878583 0.15843742
0.029421424 0.02680995 -0.08500619 0.01182537 0.14804149 0.03950138 -0.0012651964 -0.11042755
0.12831096 0.050997626 0.092330225 0.00456678 -0.28355396 0.21906301 0.2677337 0.015549151
-0.09354232 -0.002966735 -0.12317261 -0.08687567 0.13190036 -0.0629937 -0.22359571 0.123410374
-0.0063219885 0.047696542 0.0010940982 0.06017283 0.05090033 0.029365933 -0.016411424 0.07113171
-0.022180438 0.059240635 0.038756236 0.06503729 -0.21520947 0.1454767 0.24085873 -0.0387118
-0.035340786 -0.076653555 -0.021762576 -0.05977588 0.12813902 -0.0038165008 -0.3208357 0.14008649
-0.058492407 0.048991613 -0.0013684504 0.037417915 0.124189906 -0.16872305 -0.06226857 0.10904144
-0.022838654 0.09298017 0.051728763 0.052594397 -0.18949658 0.22278614 0.16160133 -0.06042511
-0.04601573 -0.05153503 -0.082298346 -0.053245034 0.15615395 0.0027279027 -0.18597256 0.12304375
-0.085865885 0.066788994 0.1137134 0.06784438 0.0939956 -0.13535966 0.016918235 0.1153662
0.050509326 0.03099405 0.032642692 0.1645939 -0.18028376 0.22105527 0.1643066 -0.11380907
-0.095691934 -0.0021433863 -0.014548698 0.043038465 0.13408054 -0.059247628 -0.2481633 0.16442183
-0.034221366 0.17388868 -0.07226939 0.08510843 0.16710173 -0.04546655 0.059278466 0.04609807
0.03142842 0.12122814 -0.009343711 0.049962807 -0.23211183 0.03058659 0.08136574 -0.035667513
-0.03900254 0.023640431 -0.01503213 0.21320212 0.115457654 -0.017226782 -0.12129209 0.17021024
-0.10231631 0.11662618 -0.0720678 0.012569475 0.11233099 -0.09440023 0.0379718 -0.0138605125
-0.016020497 0.170309 0.053348925 0.025653977 -0.29360938 -0.016029863 0.11046858 -0.10502356
-0.10452307 0.020379998 0.038010705 0.18179677 0.040179092 -0.03427924 -0.054898746 0.07533643
-0.049926046 0.05947148 -0.08981909 0.07040998 0.17444007 -0.064926036 -0.040892433 0.035079107
-0.034778837 0.20847376 -0.035994764 -0.08183196 -0.28333312 -0.0069654975 0.20856102 -0.09895132
-0.11007296 0.105404586 0.14850186 0.040640976 -0.009134229 -0.034895454 -0.08472315 -0.0041099484
-0.07751179 0.010804058 0.018349672 0.01083518 0.22059497 -0.24035822 0.015956452 0.039098952
0.03654444 0.18236199 0.028750429 0.011435372 -0.34180796 0.16103862 0.27685353 -0.022079984
0.0046918667 -0.03588758 0.046660807 0.16730425 -0.061023705 -0.025741452 -0.2203145 0.09499907
-0.10053041 -0.011259946 -0.0015993178 0.07665823 0.2705385 -0.18509077 0.029052338 0.031540472
0.088349275 0.08475248 -0.013204597 0.007199289 -0.36003757 0.1806754 0.27415755 -0.16017254
-0.05879355 -0.007456054 0.018683255 -0.005021991 -0.03800457 -0.0043919473 -0.06759311 -0.052121177
-0.052224126 0.049250174 0.05207758 -0.022773473 -0.0025616987 0.023036998 0.0052492484 -0.03222993

fc1.bias f4 [128]
00000000: 7802 d43b 070b 503d c59b da3c f1af 67bb
00000010: 3720 ac3d c42a ad3d 4dae 3ebd cc49 47bd
00000020: 2193 9c3d ac1a 653d 2bf2 3abd 9056 bbbd
00000030: 9618 4dbd 80a4 28bd bad3 683d 4fb2 c23d
00000040: 0b53 afbd 9d9c 193c 69b0 48bd fb46 d5bc
00000050: f0ef 08bc 4b78 973d 1655 f23c c2c5 753d
00000060: a1d9 6ebb 62e0 b83d 1f45 583c 4326 3a3c
00000070: e450 c8bc c06f b2bc 08ce e7b9 2c71 e43c
00000080: a4c0 013d fc26 19bd 2a95 ab3b 3136 3abd
00000090: 57ad bc3b a8f8 55bd 551f d53b 8626 eb3c
000000a0: 31f5 05b8 5493 ce3d 5811 3fbd 0e39 f4bb
000000b0: 61b3 0f3d 7003 ed3c 1868 033d 5386 153c
000000c0: fa8a 2d3d 1bd8 a23b cbe3 f1bc dd8c 563d
000000d0: 5d47 acbd 3c2e adbc bc77 09bd 5723 d53b
000000e0: db43 7e3d a872 beb8 a222 2ebd 2736 21bd
000000f0: ab47 15bd 726f 6e3d e0b5 f93c 9049 a23c
00000100: 3027 05bc a977 e2bc f668 32bd 443c 92bc
00000110: 426f fbbb c360 85bd c13f 23bc c8e8 a3bd
00000120: 0e1e f53d 80de 44bd 54bd 93bd f62c 363d
00000130: ba5c a33c 2ea5 d7bb 94b4 92bc 4c57 593d
00000140: 9c1d 1fbc 2bbf 92bc 7a44 02bd 86fe 563d
00000150: 4834 fe3d 0f4f 43bd 2725 3c3d f6eb da3c
00000160: a84f 5fbc 0228 8abd a08a 6c3c c8a0 c5bb
00000170: 58d8 393d 097b 463d a54a e63d 4b60 cf3c
00000180: 7dfe 13bd af35 5ebd 7005 b83c 33b8 a8bd
00000190: 762e 4b3d f545 ba3d 4b6a 253c cd4c 833c
000001a0: 4f3c 523c 8ba0 253c ef57 e23d 805f 07bd
000001b0: 68f4 adbc c466 08bc 832b 17bd dffa 71bc
000001c0: 7536 34bc 0578 84bd 675c a33c 5105 42bd
000001d0: 82af 043d fe28 5a3d f0ad 79bc 2d09 8dbd
000001e0: bc84 49bd 79a4 d03b d17f 803d 38f8 4b3d
000001f0: cc6a 9b3c 482a a9bb 7d8b fd3b ecfa 043d
0.006470021 0.050791766 0.026685605 -0.0035352672 0.08404582 0.084554225 -0.046552945 -0.048654363
0.0764525 0.05593364 -0.045641106 -0.0914737 -0.050072275 -0.041172504 0.056842543 0.09506666
-0.08560761 0.009375718 -0.048996363 -0.026034823 -0.008357987 0.07395991 0.029581588 0.06000305
-0.0036445635 0.090271726 0.0132000735 0.011361661 -0.024452634 -0.021781802 -0.0004421326 0.027885996
0.031677857 -0.037390694 0.0052362876 -0.045461837 0.0057579684 -0.05223909 0.006503979 0.028704893
-3.1938023e-05 0.10086694 -0.0466474 -0.0074530905 0.03508318 0.028932303 0.032081693 0.009126264
0.042368867 0.0049696094 -0.029527565 0.05238043 -0.08412049 -0.02114021 -0.033561453 0.006504457
0.06207643 -9.0812624e-05 -0.042513497 -0.039358284 -0.0364453 0.05821175 0.030482233 0.019810468
-0.008127019 -0.027644949 -0.04355713 -0.017851003 -0.007673175 -0.065125965 -0.009963931 -0.08003384
0.11968623 -0.048063755 -0.07213846 0.04447647 0.019941676 -0.0065809703 -0.017908372 0.05306177
-0.009711649 -0.017913422 -0.031803586 0.052488826 0.124123156 -0.047682818 0.04593387 0.026723843
-0.013629831 -0.06745912 0.014437348 -0.0060311295 0.045372337 0.04845718 0.11244706 0.02531447
-0.03613137 -0.054250415 0.02246353 -0.08238258 0.049604855 0.090953745 0.010096143 0.016027832
0.0128317615 0.010109077 0.11051928 -0.03305006 -0.021234706 -0.0083252825 -0.03690673 -0.014769285
-0.010999312 -0.064682044 0.019941522 -0.04736835 0.03239394 0.05326175 -0.015239224 -0.06886516
-0.04919885 0.006367263 0.06274379 0.049797267 0.018971823 -0.005162511 0.0077375756 0.03246586

fc2.weight f4 [64, 128]
00000000: 3397 27bd f10c 833c 75c7 26bd 4062 8a3d
00000010: 43da 803d 955d ef3c 80f6 e53c eb6c 8d3d
00000020: 7109 2d3c c01e 05bc 9082 b1bb f196 823d
00000030: 0130 37bd fa58 7d3d 0f7a 863d 7aab 6bbd
00000040: f8b2 9bbd 3b15 823d a03b 773c b7ce c83b
00000050: e2b4 ebbc 3417 f3bc f676 7d3c 7794 57bd
00000060: 63f0 bfbd 9e84 0c3c 1b4b 533d 32a2 143d
00000070: fc58 b6bc b8bd 9c3d 5f00 8a3d d692 2cbd
00000080: e656 76bc 01ba 0fbd 0373 1ebc 5a83 703d
00000090: 6dd7 853c 2695 afbd 733f 48bd eae2 613d
000000a0: 38d6 9d3d 0d47 743c 0070 f2b9 a88c c1bd
000000b0: fc63 04bd bf34 4c3d f00b 0bbc bf0a 81bd
000000c0: 0354 3ebd 491e 93bd 30a9 26bc 6696 58bd
000000d0: acb2 8c3d 3b52 f1bc db2f b8bd 51a4 76bd
000000e0: 21de 51bd 2c2a b4bc e311 1e3d 4f8f 9c3b
000000f0: 699d 6cbd fe39 b0bd 0336 95bd e09f 73bd
00000100: 84a7 1dbd 0874 9fbd 0b0c 6cbd 0411 8b3c
00000110: 6598 61bd 33ad a63d 49fc f1bc c0b2 a33c
00000120: a020 a1bc d3c7 db3b 2356 a8bd 6434 78bd
00000130: c515 56bc 5197 2cbc d583 a63d a410 83bd
00000140: b4e5 a3bd 52e2 d83c d032 f0bb 8be2 45bd
00000150: 79d3 3c3c a9e3 8abd 8aa1 a2bd 6517 13bd
00000160: 35bd abbd b9b5 ba3b d730 633c ed58 4b3d
00000170: db3e 1e3d ab4e 0bbc 4306 873d 57c2 92bd
00000180: 1ee8 afbb 1854 043d 628d 41bd 3f8c f5ba
00000190: 53bf 07bd 4dec 25bd 0f3d 3d3d db4a c5bc
000001a0: 08c6 8abc f3a6 af3c f6d0 2ebd b0b0 bf3b
000001b0: 2596 3dbc 311c 373c 8edc 35bd cac4 ef3c
000001c0: 1a86 3c3d be66 483d 9d98 c63b 4674 473d
000001d0: d5e4 59bd 4cb3 a53d d37f 8f3d 2175 033d
000001e0: d112 74bd 30fa 0b3c 6660 d1bc 64b7 1c3d
000001f0: e5af dcbc 721d 793d e720 893d 2b73 8e3b
00000200: c184 0cbd 52f6 5f3d 4f82 863d 3616 1d3d
00000210: 10ee 22be 5d8f 6f3c fa01 95bb c564 16bd
00000220: 14f2 9e3d da0b acbe d91e adbd 6408 2b3e
00000230: 7003 773b 8031 163a 0910 143d 525b 603e
00000240: da02 c43d 0d12 a93d 5f06 b4bd 3ffd 003e
00000250: ff8d 4fbd ca70 5a3e ce25 86be 124c b8bd
00000260: eb7c e7bc a8e5 57bd 32ad d8bd 7241 eebd
00000270: 8040 39bd 6b82 99bd eba6 833c 9831 88bd
00000280: 5b9d e2bc e027 0a3d d7fc 2b3c da48 90bd
00000290: 7e4e a83d dced 823d 466c f9bd 3bb7 cf3a
000002a0: 1319 4d3d 2231 923e 8840 3ebd 26dc 723d
000002b0: 8013 26bd 5636 9e3c b7c2 92bd e2ee 283d
000002c0: a4de 173d 5b99 86bc 695d a73c 2198 a63c
000002d0: 290d c43d 2158 3cbe 06fb 433b 51fd 893d
000002e0: 27f3 603d fcb0 db3e 9dbb 2bbc b0e4 a23d
000002f0: 3a4e e6be 0d07 20be c113 213c c85a 443d
00000300: c227 7b3d c799 243e f2de 4ebe 2764 993d
00000310: fe43 923d e37e 74bb dbd2 713e f1e0 dbbc
00000320: f3af fa3d 1d4e 2b3c ada8 acbd 8c2b 033e
00000330: 4e49 9fbd c938 c7bc 2b95 a1bd 78b7 ad3c
00000340: 4588 a83d e811 18bf a0df 58bd a3d2 9a3d
00000350: d292 293e 8e19 663d 5b22 11bd 2c7f 13bd
00000360: 3601 513d 2fde 5fbd f3aa d73e c8a4 05bd
00000370: 4fb7 843d 7cda 04bf d0a1 cd3e e127 693e
00000380: 64f8 2fbd 10b6 993d 05e8 a43d 73d9 07be
00000390: 9c45 32bd e6f7 873d 6325 a03e 28b0 dbbc
000003a0: e9c1 553e 366a b23d 0ae5 bcbd e3c2 35bc
000003b0: 4cc9 ecba ea41 633d d8d6 d73e 15db 6b3d
000003c0: b9e1 6b3d a45f 9e3c ea18 af3d bc3f cd3c
000003d0: ceb2 643e 3f81 9abd 32a5 513d d883 c9bc
000003e0: 08e0 2ebc bb86 a53d e253 173e 993c 16bd
000003f0: 0afb a3bd 5277 1f3d fe11 a9bd 90dd 2f3d
-0.04091568 0.015997382 -0.04071756 0.06757021 0.0629163 0.029219428 0.028071642 0.0690554
0.010561333 -0.008125007 -0.0054171756 0.06376446 -0.044723514 0.061852433 0.065662496 -0.05753658
-0.07602495 0.06351706 0.015089899 0.006128158 -0.028772775 -0.02967415 0.015470257 -0.05263182
-0.09372022 0.00857654 0.051585298 0.036287494 -0.022259228 0.076533735 0.06738352 -0.04213222
-0.015035367 -0.035089497 -0.009670976 0.058719017 0.016338075 -0.0857337 -0.048888635 0.055148043
0.077068746 0.014909518 -0.00046241283 -0.09450656 -0.032321915 0.04985499 -0.008486733 -0.06300878
-0.04646684 -0.07183511 -0.010172173 -0.052877806 0.068700165 -0.029458156 -0.08993503 -0.060215298
-0.05123723 -0.021992765 0.038591277 0.004777826 -0.057767306 -0.08604811 -0.072856925 -0.05947864
-0.038489833 -0.07785803 -0.057628673 0.016975887 -0.055076975 0.08138504 -0.029539244 0.019982696
-0.019668877 0.0067071705 -0.08219554 -0.06059684 -0.013066714 -0.0105341235 0.08130614 -0.06399658
-0.08002797 0.026475105 -0.007330276 -0.04831175 0.011525028 -0.06781704 -0.079409674 -0.035910983
-0.08385698 0.0056979326 0.013866625 0.049645353 0.038634162 -0.008502643 0.06592991 -0.07165974
-0.0053682467 0.03230676 -0.047253974 -0.0018733813 -0.033141445 -0.040508557 0.04620081 -0.024083545
-0.016940132 0.021441912 -0.04267975 0.00584992 -0.011571442 0.011176155 -0.04439979 0.029268641
0.046026327 0.048926108 0.0060606734 0.04869487 -0.053196747 0.08090839 0.070068024 0.032094125
-0.059588257 0.008543536 -0.025558662 0.038260832 -0.026939342 0.060819097 0.06695729 0.004347225
-0.03430629 0.05467827 0.06567823 0.03835126 -0.15911126 0.014621583 -0.0045473548 -0.036717195
0.077610165 -0.33602792 -0.08453149 0.1670242 0.0037691258 0.0005729422 0.036148105 0.21909836
0.095708564 0.08255396 -0.08790278 0.12596606 -0.050672527 0.21332088 -0.26200718 -0.08998884
-0.028257808 -0.05270925 -0.105799094 -0.116335765 -0.045227528 -0.074955784 0.016070804 -0.06650084
-0.027662924 0.033729434 0.010497293 -0.07045145 0.08218096 0.06393024 -0.12178855 0.0015847454
0.05007274 0.2855311 -0.04644826 0.05929198 -0.04054594 0.019313019 -0.07166045 0.04124344
0.03707756 -0.016430547 0.020430284 0.020336213 0.095728226 -0.18392994 0.002990426 0.067377694
0.05491939 0.42908466 -0.010481742 0.07953775 -0.44981557 -0.1562769 0.00983137 0.04793814
0.061317213 0.16074286 -0.20202234 0.07489806 0.07141875 -0.0037307076 0.23615591 -0.026840659
0.12240591 0.010455635 -0.0843061 0.1280958 -0.07777654 -0.02431907 -0.0788978 0.021205649
0.08229116 -0.5940232 -0.05294764 0.07559707 0.16559914 0.056176715 -0.035433155 -0.036009952
0.051026545 -0.05465525 0.4212261 -0.03262785 0.06480276 -0.5189588 0.40162516 0.22769119
-0.042961493 0.07505429 0.08052067 -0.13266544 -0.043523416 0.0663908 0.31278524 -0.026817396
0.20874752 0.087116644 -0.09223373 -0.011093828 -0.0018065362 0.055482782 0.421561 0.05758198
0.057588313 0.019332714 0.08549674 0.025054805 0.22333834 -0.07544183 0.051182933 -0.024599
-0.01067353 0.080823384 0.14778093 -0.036678884 -0.08006866 0.038932152 -0.08255385 0.042935908

fc2.bias f4 [64]
00000000: a25b 073d 64ff e23d 078c 513d 19c9 583c
00000010: 9c27 713d ebe3 863b a6b5 cf3b 80f0 3cbc
00000020: 857a 96bb 86df f93c 0d65 1d3e c6ca aebd
00000030: a259 9ebc 7ec4 3bbd 0e18 f53c eeb4 6c3d
00000040: 315e 0b3d 62c6 2f3e d76e b83c 9265 9bbd
00000050: 8c82 953d 0999 593d 5f5d 933d e758 093d
00000060: 4101 18bd 35df 963c 1ba7 54bc bd6e 39bd
00000070: bdfd 803c 9465 5a3d c169 a23d 83d4 ca3c
00000080: bfe2 023b ef9d b33c 9da7 603d 2e11 3abb
00000090: 9595 c5bd 4488 d6bd 9aaa 5dbd 891f eb3c
000000a0: aa4d cabb 089e 023e 4513 a03d af6c 823b
000000b0: 1513 63bd 5a90 73bd 844d 023d 4800 babc
000000c0: 8c08 30bd b0a9 1a3d 58de ee3c 11dd d43d
000000d0: 01ed 62bc 6856 b9bd d4fd a0bc 8899 453d
000000e0: 508e 57bc e546 73bd 8a74 cbbc 300e 8ebd
000000f0: f4ff bc3d fc97 c7bd 3385 953d 2583 dfbc
0.033046372 0.11083868 0.05115893 0.013231539 0.058875665 0.0041165254 0.006338793 -0.011531949
-0.004592242 0.030502092 0.15370579 -0.0853477 -0.01932985 -0.045841686 0.029918697 0.057789735
0.034025375 0.17165521 0.02251379 -0.075877324 0.073002905 0.05312446 0.071955435 0.03353205
-0.03711057 0.01841698 -0.012979294 -0.045271624 0.015745992 0.05331953 0.07930327 0.024759537
0.0019971577 0.021925895 0.05484735 -0.0028391588 -0.09647671 -0.10475209 -0.054117776 0.02870156
-0.006173809 0.12755597 0.07816175 0.0039802413 -0.05543812 -0.059463836 0.031812206 -0.022705212
-0.0429769 0.037759483 0.029158756 0.103937276 -0.013850451 -0.09049684 -0.019652285 0.048242122
-0.013156489 -0.059393782 -0.024835844 -0.069363 0.09228507 -0.097457856 0.07300796 -0.027284214

fc3.weight f4 [24, 64]
00000000: 7c83 17bd 1795 36be f6b2 8bbe 582f 0bbd
00000010: 6cb4 5fbd 5e31 5b3d eaf4 9f3e 3857 bebd
00000020: ceff 6dbe e2ba d73d fd5b babe b335 eb3c
00000030: 33d6 dabe 1e0b b1bd 3612 363e 4845 323e
00000040: 480b bdbd 414f 173e cab2 e3bd 5474 0ebd
00000050: 907e a0bd 725c 08be 122c 243c 006f aa3d
00000060: 1818 3abf 3eb4 08be e6e9 e43d 10e1 00bf
00000070: 5a71 6e3d f507 f93d a028 aebc fab4 1f3e
00000080: a795 be3b 6696 26bd 420b 69bd 63a7 b83d
00000090: 8634 46be cdf4 1ebe 97fb 2d3e 1db8 3b3d
000000a0: c543 193e 347e 053d b668 513c e4d8 2bbe
000000b0: fb97 983e 0eed 393d 803b 66bb 9d76 8d3d
000000c0: b87a d03d e2c1 31bf eba6 18be 3929 683d
000000d0: 59a7 63bd a4b8 213d 5b4f e4bd 98d0 8dbd
000000e0: 1871 a7bd 163f 06bd ecae 833d ece4 d2bd
000000f0: 1ed7 84bf 24c8 11bc 7452 a4bd a653 db3d
00000100: fe8a 6aba 10f3 153e e42b 03bf e35d 98be
00000110: de98 73be d47a 69bc 12eb f43c 6a77 ac3b
00000120: 0c6e 3abe 8df9 86bd 1fe4 0c3e 46c1 d13c
00000130: 6f3e 303e ae44 863c d008 b3be 473b 813d
00000140: 0299 76bc 4317 a0be 82f2 8cbc f5a1 91bd
00000150: e720 cb3d c025 c5bd 39a1 c2bd f9ba 7b3d
00000160: 0469 e4bd 2e5c b9bd 348d 1c38 99cd 2fbe
00000170: 717c 77be 0e1a 9c3d c93a 703e 6f33 353e
00000180: b7ad 38bd 6ded 573d edf5 2a3e e0d7 e13d
00000190: c0a0 37bd 5937 d7bd 365e 0e3e 0616 e93d
000001a0: e581 793e c017 053e 1508 73be ff0f f53d
000001b0: cca7 12bf 6852 dfbd 9cb7 ebbd 7708 a9be
000001c0: e3b6 263e 160e 0a3d b779 a4bd 216f 533e
000001d0: a65f 87bd e7b8 c0bd 89c4 1bbd 3c9f 9f3d
000001e0: 8201 e4bd 4be5 16be 2d61 1bbe dad8 37bb
000001f0: 5bb2 87bd cc8b 38bd 0d9e 42bd 656c 8cbd
00000200: 050d c13d 6692 903d 0390 0f3e 0571 ae3d
00000210: 5e00 eb3d 4216 993d d0d2 313e 7812 8abd
00000220: 3ed1 47be a252 86bd c2dd 5a3d f7d0 e3bd
00000230: 1e68 cabd 3cd6 b4bd 3d41 583e 21ad 67be
00000240: afb3 e23d 772a fb3d c783 afbd f7e8 f03c
00000250: 1f49 b03c 1ad4 503d ebb8 d6bd cb58 333d
00000260: dfcd 38be 868c 94bd 66d1 f9bd 0b17 11be
00000270: 42dc 473d 93a6 563d 0952 8e3e ac58 67bd
00000280: 0514 8e3c 8167 1abe 361b d8be 2fca a43d
00000290: a678 ee3c aa64 043d 8209 b4bd fd32 76be
000002a0: 7d3e 0cbe 99a0 323c 572b b53c 8671 de3b
000002b0: 5c17 693e 0bb8 20bd 300a 25bd 13b1 80be
000002c0: a92e 8cbd 4f36 26be 197f c6bd c204 9dbd
000002d0: 5859 803d 452c 9cbc 2115 903d b34d b23d
000002e0: 987d c83c ef2d 22bd 912d f0bc f156 fdba
000002f0: a03b 713e 7551 a73d aa61 b0bd f42c 4f3d
00000300: 0dbc e4bd 93f8 1f3e d08f 7a3e 36b8 d5be
00000310: 5059 be3c c358 093c 6b4f 0e3e 324e 02bd
00000320: 3cec 37be eac1 28be ad8a 69be 35e6 283e
00000330: bcd7 223e df20 183d 0dba 44bd 9450 86bc
00000340: e802 b3bd 90aa 48be 9e9b ac3d 191f ca3c
00000350: 281e debd d405 87bd 77c8 0ebe 722b f93c
00000360: 4d32 1abe 6b2a 473d 83d8 a03d 141f 983c
00000370: d1a4 df3d 2db6 a4bd 7f63 e03d 6f68 a5bc
00000380: 320a c33d 6bc6 973c 030c acbd c8e8 8abd
00000390: 0b79 783d a58e 9c3c 36f3 0e3c 4905 dabe
000003a0: 30ed 50bc f1a4 a23e e0e5 13be 0fdb 8dbd
000003b0: 24d4 07be e8b9 9bbd e05e d6bc 4d49 02bf
000003c0: d4ea 293e 34fc 63bb 6f20 363e df27 633e
000003d0: 960a a1bc 8954 f0be 8589 07be 6575 943c
000003e0: 206f 99bd 5161 363d 111c 443e 0471 b0bd
000003f0: 70eb 09be 73bd babd 6ac5 79bd e865 2fbc
-0.036990628 -0.17830311 -0.27284974 -0.033980697 -0.054615423 0.053513877 0.31241542 -0.092939794
-0.23242113 0.10533692 -0.36398306 0.02871213 -0.42741546 -0.086446986 0.17780384 0.17409241
-0.09230667 0.14776327 -0.11118086 -0.034778908 -0.0783664 -0.13316515 0.010020273 0.08321953
-0.72693014 -0.13350007 0.11177425 -0.5034342 0.05821357 0.12159721 -0.021259606 0.15596381
0.00581618 -0.040670775 -0.056895502 0.090163015 -0.19355974 -0.15523072 0.16990505 0.04582988
0.14967258 0.03259106 0.012781313 -0.16781956 0.29803452 0.04539209 -0.003513068 0.06907389
0.10179657 -0.69436467 -0.14907424 0.056679938 -0.055579517 0.039482728 -0.11147948 -0.06924552
-0.08175868 -0.032775007 0.06429848 -0.1029757 -1.0378149 -0.008897815 -0.08023539 0.10709314
-0.0008947103 0.14643502 -0.51238847 -0.2975913 -0.23788783 -0.014250476 0.029897247 0.0052632587
-0.18206042 -0.06590567 0.13758896 0.025604855 0.17211317 0.01639017 -0.3496766 0.063101344
-0.015051128 -0.31267747 -0.01720548 -0.07110969 0.09918385 -0.09626341 -0.09503407 0.061457608
-0.11152843 -0.09050785 3.7324804e-05 -0.17168273 -0.24168564 0.07622157 0.23459925 0.17695402
-0.045087542 0.05271666 0.16695376 0.11027503 -0.044831038 -0.105086036 0.13903126 0.11381154
0.24365957 0.12997341 -0.23733552 0.11965942 -0.5728729 -0.109043896 -0.1150963 -0.3301427
0.16280703 0.03370484 -0.08031028 0.20647861 -0.0661004 -0.09410267 -0.038029227 0.077940434
-0.111331 -0.14735906 -0.15173788 -0.0028052838 -0.066258155 -0.045055196 -0.04751401 -0.06856612
0.094263114 0.07059173 0.1401978 0.085176505 0.114746794 0.074749485 0.17365575 -0.06741804
-0.19513413 -0.0655873 0.05343414 -0.11123841 -0.0988314 -0.088299245 0.21118636 -0.22624637
0.11069428 0.12263959 -0.085700564 0.029407961 0.021519242 0.050983526 -0.10484489 0.04378585
-0.18047284 -0.07253365 -0.12198143 -0.14168946 0.04879404 0.05240495 0.27796963 -0.05648105
0.01734353 -0.15078546 -0.4220826 0.08046376 0.029110264 0.032322563 -0.08790876 -0.24042888
-0.13695712 0.010902547 0.022115393 0.0067884354 0.22762817 -0.039238017 -0.04029292 -0.25135097
-0.06844837 -0.16231655 -0.09692211 -0.07666923 0.06267041 -0.019064078 0.0703528 0.08706226
0.02447395 -0.039594587 -0.029318603 -0.0019328279 0.23557901 0.081698336 -0.08612378 0.05057998
-0.1116868 0.15622167 0.24468923 -0.41742104 0.023235947 0.008382979 0.13897483 -0.031812854
-0.1796121 -0.16480222 -0.22806807 0.16494067 0.15902609 0.037140723 -0.048028994 -0.016395845
-0.08740789 -0.19596314 0.08428119 0.024673032 -0.108455956 -0.065929085 -0.13943659 0.030416224
-0.1505825 0.048624437 0.07853796 0.018569507 0.10920108 -0.0804256 0.109564774 -0.0201914
0.09523429 0.01852723 -0.084007286 -0.06782681 0.06066231 0.019110987 0.008724978 -0.42582157
-0.012751862 0.31766465 -0.14443159 -0.06926548 -0.13264519 -0.07603818 -0.026168287 -0.508931
0.16593486 -0.0034787776 0.1778581 0.22183178 -0.019658368 -0.46939495 -0.13236053 0.018122384
-0.074918985 0.044526402 0.19151331 -0.08615306 -0.13468719 -0.09118166 -0.060979284 -0.010705449

fc3.bias f4 [24]
00000000: 3fa3 04bd 1c0e 003d 985c 373d 104e 4fbd
00000010: fa72 e0bd 353e 493d 60c4 003d bf20 a33d
00000020: c345 2e3d 491c 4bbd 67e6 d0bd 8b07 3fbc
00000030: f231 253e 0805 27bd a25f cebd aaec d1bc
00000040: acb1 363e 2381 7bbb d0d3 2bbd d826 36be
00000050: ea26 273d 54d6 b23d 2796 dc3d 0fb2 f6bd
-0.032382246 0.031263456 0.04476604 -0.050611556 -0.1095943 0.04913159 0.031437278 0.0796523
0.042547 -0.04958752 -0.10200196 -0.011659513 0.16132334 -0.040776283 -0.10076834 -0.025625546
0.17841214 -0.0038376532 -0.041950047 -0.17788255 0.040808596 0.08732286 0.10770827 -0.12045681

exp_avg f4 [128, 240]
00000000: 36ea 8f3a 2ef0 ca3a 5e7e 383a c159 e93a
00000010: 5c59 e53a fc44 cc3a 61bc c93a ff18 ee39
00000020: 8579 233a da9f 063b 2450 3b3a 58a0 053a
00000030: e847 1f3b ec31 753a 1ee0 823a 036a 463a
00000040: 9e4f da3a eeec d63a c668 123b 5398 adb9
00000050: e992 493a 420f 333a a6a5 b738 3aa9 b63a
00000060: a25c a13a bc88 dd3a 00a3 333a af14 df3a
00000070: 5e85 da3a 1eec d63a b740 b63a 1bb2 103a
00000080: 09d6 c339 417e ef3a 388f 123a 3679 7f3a
00000090: 8aab 1b3b d520 213a ef02 693a bf4a 123a
000000a0: d204 b93a b05c e53a 4ec5 183b 14f3 87b8
000000b0: dc68 643a f8a8 003a e097 2139 69e5 c33a
000000c0: 8f31 a13a c0a6 cb3a 9468 153a 33d3 d93a
000000d0: 8893 c83a 6ac0 e63a 6c49 af3a 7c66 313a
000000e0: c171 9c39 90a2 e13a 7ab4 153a fa7b 663a
000000f0: 2621 1d3b f2c0 2d3a b2bf 9c3a bbe7 ab39
00000100: ea66 b53a 48b4 e53a 98d8 183b f8a5 c5b8
00000110: 4cfb 123a a2aa 263a 323b ae39 3460 ce3a
00000120: 7fb1 993a 7722 d63a ea9f fd39 6635 e73a
00000130: 2896 cc3a b4d5 ec3a 204e a53a ada0 163a
00000140: 5b5d a939 ec26 df3a 7c8a 073a 4c77 503a
00000150: 5d0d 1f3b a6c3 683a a4de 943a 1455 9139
00000160: cbb9 ae3a d99d ed3a 7a20 1b3b a620 54b9
00000170: 77ee 2b3a f04d 183a b56f c939 8e36 cc3a
00000180: 4406 9a3a 1be9 ca3a 7774 1a3a 6553 df3a
00000190: 67d1 d73a 22ec df3a 85c0 8f3a 4d40 243a
000001a0: be05 e339 c031 dc3a 2331 063a 5c7c 283a
000001b0: f502 1f3b 0218 823a c0a6 9c3a 5ddc 8b39
000001c0: bd47 b83a ea78 e73a 3175 1e3b 4e8e 18b9
000001d0: 7c67 2e3a 06e3 3d3a 8756 b939 b6ae b93a
000001e0: 7c56 943a b72a bd3a 4903 2d3a 88e6 bd3a
000001f0: 8fd4 df3a d01f e53a 8450 8c3a adfd de39
00000200: e4a9 0d3a 2e4d d83a e95b 353a 38f3 0b3a
00000210: 855f 103b aa64 6a3a 405a 9b3a b81d d039
00000220: a226 c13a e456 e23a 5e4d 183b aa81 66b9
00000230: a3ce 0c3a ee40 933a 4ce9 183a de61 ce3a
00000240: 4f68 9e3a 9afa b73a c9b1 113a 91bf b93a
00000250: 5d5b e33a e41e e73a 7d3a 813a 12fa 103a
00000260: ca1d 233a 2d61 d83a 9c55 283a 01fe 113a
00000270: 6596 023b a5a4 733a b137 a53a 2ef3 d639
00000280: b8a6 a63a 06a6 d83a 93cc 183b d04a c938
00000290: 9abc 283a 42f9 9e3a be58 023a 6a17 d33a
000002a0: a9b4 9d3a 8009 bf3a f96d ad39 9d67 d13a
000002b0: 8d66 eb3a c4c4 dd3a e8b0 973a e02d 3e3a
000002c0: c24b 143a 4971 ee3a 5d4f 3d3a d52d 223a
000002d0: 0a74 f43a 6d49 613a f2e4 813a 7e7f b139
000002e0: b8cc a93a 3002 e43a c44b 1c3b b0e3 8737
000002f0: b878 433a 14b6 823a b4b4 c839 a237 d43a
00000300: d0b1 aa3a 7070 bc3a 32fa 6939 5ef4 d43a
00000310: 41c9 f93a 6a68 ec3a 6d99 ae3a 6c37 273a
00000320: 3510 133a 4abb e63a 7a70 4e3a e485 1b3a
00000330: 4dd3 003b 27d0 8d3a 0861 773a 68f1 2d39
00000340: 8ce5 a63a 90a5 e83a ee38 1a3b e06f bcb7
00000350: fe8a 5b3a be01 4d3a 3376 8639 6800 d33a
00000360: b2a8 993a 0a85 ca3a a916 8e39 eede d93a
00000370: 7209 e03a 2898 fd3a 435c a93a 22b8 073a
00000380: 8a54 443a 29aa eb3a 5ac4 423a 24f1 2a3a
00000390: 8003 f33a 4ab5 8a3a 082b 603a 00f4 2336
000003a0: b226 a23a d7d5 143b f411 183b 1a46 75b9
000003b0: 5642 873a 2b4b 153a 5abd 4139 28fc e13a
000003c0: 0400 0000 0400 0000 0400 0000 0400 0000
000003d0: 0400 0000 0400 0000 0400 0000 0400 0000
000003e0: 0400 0000 0400 0000 0400 0000 0400 0000
000003f0: 0400 0000 0400 0000 0400 0000 0400 0000
0.0010979834 0.0015482956 0.0007037873 0.0017803238 0.0017497945 0.0015584524 0.0015391224 0.0004541352
0.00062360644 0.0020542056 0.0007145426 0.00050974404 0.0024304334 0.0009353447 0.0009985005 0.00075688976
0.0016655808 0.0016397515 0.0022340282 -0.00033110622 0.0007689433 0.00068305817 8.7569744e-05 0.0013935931
0.0012310932 0.0016901712 0.0006852597 0.0017019714 0.0016671827 0.0016397273 0.0013904785 0.0005519704
0.00037352767 0.001827188 0.0005590799 0.000974554 0.0023753368 0.0006146555 0.0008888682 0.0005580596
0.0014115816 0.0017498937 0.0023310962 -6.4825785e-05 0.0008713135 0.0004907991 0.00015410734 0.0014945689
0.0012298095 0.0015537366 0.0005699482 0.0016618728 0.0015302757 0.0017604951 0.0013373322 0.00067672855
0.00029839392 0.0017214585 0.0005710792 0.00087922777 0.0023976057 0.00066281774 0.0011958985 0.00032788314
0.0013839875 0.0017525041 0.002332246 -9.424606e-05 0.0005606904 0.0006357824 0.0003323197 0.0015745223
0.0011725872 0.0016337176 0.00048375066 0.0017639815 0.0015608715 0.001806906 0.0012611784 0.00057459885
0.00032303747 0.001702515 0.0005170477 0.0007952347 0.002426944 0.00088792515 0.0011357856 0.00027719943
0.0013330517 0.0018128707 0.002367048 -0.00020230058 0.00065586664 0.00058099534 0.00038420936 0.0015580223
0.0011751135 0.0015480848 0.00058919884 0.0017038403 0.0016465605 0.0017083923 0.001096741 0.0006265685
0.00043301092 0.0016799495 0.0005119016 0.00064272224 0.0024263237 0.0009925368 0.0011951551 0.0002667633
0.0014059466 0.0017659937 0.0024178738 -0.00014548862 0.00066529936 0.0007243607 0.00035350418 0.0014166448
0.0011317278 0.0014432286 0.0006599916 0.0014488259 0.0017076897 0.0017480794 0.0010705148 0.00042532143
0.0005404039 0.0016502494 0.0006918298 0.00053386716 0.002202959 0.0008941392 0.0011852458 0.00039694994
0.0014736245 0.0017268327 0.0023239474 -0.00021982813 0.00053713674 0.001123456 0.0005833104 0.001574572
0.001208553 0.0014036477 0.0005557803 0.0014171471 0.0017345954 0.0017633107 0.000985935 0.00055304274
0.00062223955 0.0016508453 0.0006421448 0.00055691606 0.0019926068 0.00092942483 0.0012605098 0.00040998444
0.0012714481 0.0016528971 0.0023315295 9.598362e-05 0.0006436795 0.0012128728 0.000497233 0.0016105
0.001203199 0.0014574975 0.00033079067 0.0015976314 0.001795964 0.0016919603 0.0011573108 0.0007254761
0.0005657041 0.0018191721 0.0007221604 0.0006186639 0.0018650305 0.000859401 0.000991015 0.0003385506
0.0012954688 0.0017395671 0.002384887 1.619928e-05 0.0007456648 0.0009972476 0.00038281607 0.0016190896
0.0013022963 0.0014376771 0.00022313817 0.0016247144 0.0019057171 0.0018036489 0.0013320871 0.0006378803
0.000561002 0.0017603424 0.00078750367 0.0005932732 0.0019657195 0.001081948 0.0009436761 0.00016588497
0.0012733205 0.0017749537 0.0023532468 -2.2463442e-05 0.00083748985 0.0007820389 0.00025646537 0.0016098144
0.0011723249 0.0015451026 0.00027101234 0.0016622224 0.0017092659 0.0019347714 0.0012921173 0.0005177279
0.0007489404 0.0017979789 0.00074297714 0.0006520918 0.0018540472 0.0010582593 0.0008551334 2.443092e-06
0.0012371151 0.0022710466 0.002320406 -0.00023391136 0.0010319452 0.00056951 0.00018476453 0.0017241286
6e-45 6e-45 6e-45 6e-45 6e-45 6e-45 6e-45 6e-45
6e-45 6e-45 6e-45 6e-45 6e-45 6e-45 6e-45 6e-45

exp_avg_sq f4 [128, 240]
00000000: bf0f f538 69d9 0038 66e0 8c38 c6d5 0438
00000010: 6060 8038 4412 4338 7bba b737 80e7 cd37
00000020: 76ff e438 eb20 2338 9de5 d037 c9c2 b738
00000030: 5b63 9638 1626 be37 ea49 0638 644e 3638
00000040: 881c 4d38 1583 a138 b12a 0439 b18a 8438
00000050: 69b0 2138 363b 3738 5dd0 d537 3019 2e38
00000060: 2007 f438 da17 fb37 5afd 8838 b22d 0638
00000070: 6517 8038 5cf9 3b38 2f68 b837 3325 c837
00000080: bc26 e338 04a8 2738 53bb c037 dffa b138
00000090: 2b97 9238 5d75 c637 49a9 0738 d3fd 3138
000000a0: db64 4638 e52f a538 9add 0339 959a 8538
000000b0: 2b92 2838 c2f6 3738 5d94 de37 520b 3938
000000c0: 0103 f338 3acd fb37 0642 8a38 2e8f 0738
000000d0: d720 8038 115e 3f38 24a2 bf37 ed8e cd37
000000e0: c259 e138 b623 2438 34af c237 8e71 b338
000000f0: b59a 9138 fb43 c037 e07c 0438 d598 3538
00000100: 4b25 3f38 6e2a a538 ac36 0439 f7a2 8638
00000110: 7e94 2a38 f56c 3538 6e04 ea37 0263 4238
00000120: d608 f438 df2c f937 9df6 8a38 a893 0938
00000130: 3eb4 8138 4d3e 3f38 a781 c037 9838 d337
00000140: 76ae e138 2f0d 2538 86f3 ca37 c451 b238
00000150: 9f0e 9238 33f9 b137 3fad 0438 e4c1 3838
00000160: 37ba 4138 043e a238 451b 0539 747a 8538
00000170: 0951 2938 4b14 3438 47c7 f137 bf91 4138
00000180: 386f f238 ac9f 0038 95cb 8738 3043 1438
00000190: 2f67 8038 ab3a 4438 8e84 c437 6027 d537
000001a0: c73a e138 a860 2738 70a8 c537 7702 b238
000001b0: 110d 8938 cf6b b337 d095 0738 82de 3838
000001c0: cb8d 3738 25d6 a138 109f 0439 9486 8038
000001d0: 43c0 2838 dace 2f38 954b f437 caaf 3f38
000001e0: fbc0 ec38 c8fc 0238 876d 9238 b129 1538
000001f0: 8876 7f38 984b 3938 4327 cb37 12a5 df37
00000200: 772f de38 cde7 2c38 7d16 c437 8342 b538
00000210: 4448 8938 c3da b637 d737 0638 2645 3938
00000220: 329f 3d38 1dca 9e38 2ad4 0539 3b68 8438
00000230: 4217 2638 e562 2938 a391 f037 75b4 3f38
00000240: 2efc ea38 1254 0538 543a 9138 9580 1538
00000250: 9fa8 7c38 87f3 3238 3286 cb37 43d5 d237
00000260: 7255 e138 06b4 2b38 5488 ca37 cb2d bb38
00000270: aad2 8e38 520c ba37 6bce 0438 ced9 3438
00000280: 074a 4538 47b7 a538 90ce 0539 5f6e 8938
00000290: ce8e 2038 5d7d 2738 9bae ed37 3797 4638
000002a0: fa53 e938 2a9b 0538 ca6a 9938 a1e8 1438
000002b0: 71c4 7a38 9f30 3238 6b30 bd37 6a0f cf37
000002c0: 69c6 e038 892b 2a38 654a be37 4d48 c038
000002d0: 0b94 8a38 c036 c437 cea2 0b38 c595 3838
000002e0: a506 4138 3c97 a238 39a3 0639 608a 8a38
000002f0: b158 1e38 54c2 2c38 eed1 f137 f70f 4338
00000300: 8d1d eb38 1aab 0938 d3fe 9f38 4928 1538
00000310: fa2e 8238 0c96 3438 330a cf37 8584 c537
00000320: f351 e038 23f9 3438 aa71 b937 3d8d c138
00000330: 3ecb 8838 89e6 c137 2043 0c38 7564 3c38
00000340: 547b 4238 4c82 a138 4d94 0539 6994 8a38
00000350: d228 1c38 fbe2 2e38 2c11 e937 a9b0 3838
00000360: 717e ec38 79ac 0838 79ce a038 c24e 1e38
00000370: ccc2 8238 e699 3438 920b ab37 6599 be37
00000380: 3483 dc38 ff5c 3e38 a7af c137 dc1d c138
00000390: 3824 8d38 ea22 bb37 64e4 0f38 a397 4438
000003a0: 6e5f 4038 57f1 a338 da5e 0439 3062 9338
000003b0: db34 1538 b119 2a38 ebba e737 2984 3838
000003c0: 627e 7f31 c346 0831 a990 ac31 e398 ce30
000003d0: 69a7 c431 c921 5131 4db2 0f31 8ca6 a430
000003e0: 16d4 f930 e229 8031 5b77 be30 b167 c530
000003f0: b135 c731 c6ee f530 4418 3531 0488 8c30
0.00011685443 3.0720057e-05 6.717518e-05 3.1670344e-05 6.121467e-05 4.6508634e-05 2.1902137e-05 2.4545705e-05
0.000109194705 3.8892886e-05 2.4902454e-05 8.7624016e-05 7.171064e-05 2.26675e-05 3.2016927e-05 4.346519e-05
4.890238e-05 7.701494e-05 0.00012604405 6.320084e-05 3.8549686e-05 4.3685744e-05 2.5488605e-05 4.150829e-05
0.00011636154 2.9932638e-05 6.532176e-05 3.1990647e-05 6.107873e-05 4.481651e-05 2.1983024e-05 2.385918e-05
0.00010831418 3.997238e-05 2.2975413e-05 8.486746e-05 6.98998e-05 2.365809e-05 3.2344167e-05 4.243648e-05
4.7300808e-05 7.876734e-05 0.00012575687 6.370727e-05 4.019045e-05 4.386041e-05 2.653355e-05 4.411798e-05
0.000115877025 3.0017098e-05 6.5926506e-05 3.2319855e-05 6.1096325e-05 4.5625555e-05 2.2844477e-05 2.450446e-05
0.00010745555 3.9133905e-05 2.3208187e-05 8.556536e-05 6.942955e-05 2.291984e-05 3.158755e-05 4.32961e-05
4.557268e-05 7.875716e-05 0.00012608868 6.4199725e-05 4.0669453e-05 4.3255237e-05 2.7897036e-05 4.6345413e-05
0.000116364725 2.9704008e-05 6.626288e-05 3.280086e-05 6.184772e-05 4.559597e-05 2.2948558e-05 2.5179514e-05
0.00010761332 3.9351344e-05 2.4193676e-05 8.5029315e-05 6.964546e-05 2.1216087e-05 3.16326e-05 4.4049593e-05
4.6188212e-05 7.736313e-05 0.00012694027 6.364743e-05 4.036821e-05 4.2934244e-05 2.8822235e-05 4.6150522e-05
0.00011560175 3.0666284e-05 6.475222e-05 3.5348523e-05 6.122735e-05 4.678468e-05 2.3426746e-05 2.5409914e-05
0.00010739784 3.990592e-05 2.3562665e-05 8.4881605e-05 6.535103e-05 2.1388665e-05 3.2326032e-05 4.4076245e-05
4.3762655e-05 7.716966e-05 0.00012647756 6.128583e-05 4.023338e-05 4.1915897e-05 2.9122262e-05 4.5701665e-05
0.00011289302 3.1229836e-05 6.9822236e-05 3.5563196e-05 6.090713e-05 4.417784e-05 2.4217768e-05 2.6660538e-05
0.00010594626 4.1223877e-05 2.3375493e-05 8.643141e-05 6.5461296e-05 2.179796e-05 3.2000095e-05 4.4171837e-05
4.5209374e-05 7.5716736e-05 0.00012762906 6.313665e-05 3.9599145e-05 4.0384843e-05 2.8678047e-05 4.5706012e-05
0.000112049616 3.1787968e-05 6.925003e-05 3.564412e-05 6.0238523e-05 4.266531e-05 2.4261975e-05 2.5133259e-05
0.000107447515 4.0937237e-05 2.414376e-05 8.9253845e-05 6.810327e-05 2.2178665e-05 3.1663494e-05 4.311819e-05
4.7037403e-05 7.901951e-05 0.00012760819 6.553227e-05 3.827997e-05 3.9932656e-05 2.8333909e-05 4.734771e-05
0.00011125948 3.185418e-05 7.3154995e-05 3.5502602e-05 5.9787595e-05 4.248379e-05 2.2553102e-05 2.46835e-05
0.00010718109 4.0571704e-05 2.2684408e-05 9.1687405e-05 6.607928e-05 2.3390516e-05 3.3291806e-05 4.4008502e-05
4.6020974e-05 7.7529316e-05 0.00012840041 6.606127e-05 3.7752736e-05 4.1188978e-05 2.8827195e-05 4.650649e-05
0.000112111775 3.2822696e-05 7.6291755e-05 3.5561887e-05 6.207633e-05 4.3055086e-05 2.4681072e-05 2.354594e-05
0.000106964166 4.314737e-05 2.2106648e-05 9.229265e-05 6.522842e-05 2.3114744e-05 3.3441116e-05 4.491625e-05
4.6368063e-05 7.701348e-05 0.00012739115 6.607996e-05 3.7231315e-05 4.1696225e-05 2.778376e-05 4.4033546e-05
0.000112769085 3.2585554e-05 7.667853e-05 3.7743484e-05 6.235167e-05 4.3058673e-05 2.0390176e-05 2.2721195e-05
0.00010514856 4.538614e-05 2.3089187e-05 9.208519e-05 6.73015e-05 2.2308395e-05 3.4306562e-05 4.6871264e-05
4.5865243e-05 7.817399e-05 0.00012623836 7.027795e-05 3.5573594e-05 4.0555085e-05 2.7624386e-05 4.3992102e-05
3.7179224e-09 1.9830828e-09 5.022305e-09 1.5031926e-09 5.723383e-09 3.0432707e-09 2.091059e-09 1.1979906e-09
1.8177413e-09 3.730052e-09 1.3858242e-09 1.4363107e-09 5.7977663e-09 1.789396e-09 2.635276e-09 1.0224999e-09

exp_avg f4 [128]
00000000: 91f0 173b 0400 0000 0400 0000 0400 0000
00000010: e440 0b3a 6db1 983a 0400 0000 0400 0000
00000020: 49cb d03a a847 6eba 0400 0000 e015 cc37
00000030: 0400 0000 0400 0000 0400 0000 d172 9fbb
00000040: 4355 613b 0400 0000 0400 0000 3d3b e73a
00000050: 2607 ac3b e9a2 0c3b 7037 9fb9 3668 733a
00000060: ee2a 19ba 9d57 3cb9 e013 82bb be6c 5c3b
00000070: 0400 0000 dc29 c939 833c d5ba 0000 0000
00000080: 22b1 7bbb 0000 0000 25b3 443b 0400 0000
00000090: 2b35 9c3b 0400 0000 19c4 2bbc 0400 0000
000000a0: 0400 0000 b054 4fb8 0400 0000 9883 86bb
000000b0: 70f1 e23b 0400 0000 0000 0000 0400 0000
000000c0: f004 f739 c88e c4b9 5775 f6ba 0400 0000
000000d0: 11ce 0fba c62a bfbb 0400 0000 12a3 373a
000000e0: 1c46 4ebb 0bb3 3b3c 0400 0000 a2fe 5e3a
000000f0: 9c92 b93b 9109 99bb 0400 0000 0400 0000
00000100: d12d 8b3a 27ec 8fbb befc f2ba de17 10bb
00000110: 0400 0000 0400 0000 ee8a ca3b 10d4 3939
00000120: 00bb 2fb9 0400 0000 6f1c 08bb 7ac9 a1b9
00000130: 0400 0000 acba e439 0400 0000 0000 0000
00000140: afd7 1fbb 7ac5 eaba 0000 0000 0000 0000
00000150: 1b04 e63a 0400 0000 7f40 d03b 7230 e53a
00000160: b892 1c39 0400 0000 f27e 93ba 0400 0000
00000170: 8b87 b9ba cc24 0eba c007 f6bb 750c 833b
00000180: 0400 0000 0400 0000 0400 0000 d299 383b
00000190: 0400 0000 993c f13a 26ef 6e3a 4cff 983b
000001a0: f540 13bc de80 3abb 68ca 4ebc 5cd0 81ba
000001b0: 0400 0000 0400 0000 c2d1 0bbc 0400 0000
000001c0: 0400 0000 0400 0000 0400 0000 0000 0000
000001d0: c543 23ba 0400 0000 0000 0000 0400 0000
000001e0: 0000 0000 0400 0000 ebd4 85ba 0400 0000
000001f0: 0400 0000 0000 0000 0400 0000 b1dd f43a
0.002318416 6e-45 6e-45 6e-45 0.00053120987 0.0011649557 6e-45 6e-45
0.0015929724 -0.0009089657 6e-45 2.4328881e-05 6e-45 6e-45 6e-45 -0.004865982
0.0034383095 6e-45 6e-45 0.0017641556 0.0052498756 0.0021459407 -0.00030368147 0.0009285243
-0.0005842884 -0.00017961716 -0.0039696544 0.0033634151 6e-45 0.00038368895 -0.0016268644 0.0
-0.003840514 0.0 0.0030014005 6e-45 0.0047670803 6e-45 -0.010483765 6e-45
6e-45 -4.9431517e-05 6e-45 -0.0041050427 0.0069257542 6e-45 0.0 6e-45
0.0004711519 -0.00037490414 -0.001880328 6e-45 -0.00054857234 -0.0058339564 6e-45 0.00070051954
-0.0031474894 0.011456261 6e-45 0.0008506571 0.005663229 -0.00467033 6e-45 6e-45
0.0010618513 -0.004392165 -0.0018538458 -0.0021986882 6e-45 6e-45 0.0061811125 0.00017721974
-0.00016758963 6e-45 -0.00207689 -0.00030858425 6e-45 0.0004362663 6e-45 0.0
-0.0024390032 -0.0017911636 0.0 0.0 0.0017548831 6e-45 0.006355345 0.0017485751
0.00014931976 6e-45 -0.0011253043 6e-45 -0.0014154775 -0.0005422353 -0.007508248 0.0039992877
6e-45 6e-45 6e-45 0.0028167856 6e-45 0.00184049 0.00091146154 0.0046691056
-0.008987655 -0.0028458158 -0.0126215 -0.0009904015 6e-45 6e-45 -0.008533897 6e-45
6e-45 6e-45 6e-45 0.0 -0.0006228055 6e-45 0.0 6e-45
0.0 6e-45 -0.0010210549 6e-45 6e-45 0.0 6e-45 0.0018681792

exp_avg_sq f4 [128]
00000000: 41ac 1839 373b 1e32 54a3 3231 0bbb c631
00000010: cf45 fc39 81b1 1239 2d19 5731 5e18 4332
00000020: 9480 9939 5289 7d39 7d79 042c f74b c339
00000030: 289b 972f 9eec 422c 3881 812b 1383 7f39
00000040: 78a8 e539 3eef f430 e9ef 952b bd7b 9238
00000050: 6f8a 3b3a ce5c d839 9286 b839 584b 5339
00000060: 7d1e de38 739a 9c39 73f3 ab39 399c b739
00000070: b08f 0232 3062 3b39 5691 7039 0000 0000
00000080: 037a b439 0000 0000 ad5f 2f39 752e 7031
00000090: 1057 d039 25c6 3d2f 3241 113a b7f6 9132
000000a0: 91d1 aa2f eb59 9339 0518 e831 f7cc 4e39
000000b0: 546d bb39 1870 6e2e 0000 0000 bfbd 172f
000000c0: 1534 bb39 ef33 0a3a 77f3 6239 557e e631
000000d0: 2e83 d139 85a8 ce39 79f4 b12f 09d2 0939
000000e0: dc25 f939 1f54 653a 311e 4e31 c123 4039
000000f0: 949f d539 8e41 8939 f4fc 5631 1308 7632
00000100: c273 7a39 e3f4 d539 c81c 6e39 2af0 b139
00000110: 7c4c 4e31 b5dd a231 a25d a539 f77b 7639
00000120: a882 093a dfa7 3132 f2bf dc39 ea23 5f39
00000130: ac3b 042f a2f7 2f3a 50b0 102d 0000 0000
00000140: b3a9 7639 ff10 d639 0000 0000 0000 0000
00000150: 045d 0a3a 98b3 0e2c e691 c439 ef06 4839
00000160: 4e24 d938 d666 3c30 ec6e f539 1422 ea2f
00000170: 987d f739 1aec a939 cb29 f939 ca85 9f39
00000180: 0dc0 b42f bd2f 352e 52cb fb32 d5d4 fb38
00000190: 5c32 b62d 3f64 e239 a41d da39 4684 1839
000001a0: 4f77 0e3a 1dd3 9439 aa49 143a 8877 b639
000001b0: 4e5e 8830 d30b fb30 1ca0 143a 8f33 7330
000001c0: c9cb 9f2e b4b7 0d2d 2444 8c32 0000 0000
000001d0: 5c06 9d39 217f 0b32 0000 0000 6b9d 4730
000001e0: 0000 0000 70ba 512e 04e2 df39 17fb 1432
000001f0: 4a4c 4931 0000 0000 2f72 8a2e 1443 6139
0.00014560019 9.210274e-09 2.599525e-09 5.7838228e-09 0.00048117197 0.0001398977 3.1300929e-09 1.1356034e-08
0.00029278232 0.00024179116 1.8825768e-12 0.00037249897 2.7576985e-10 2.7700407e-12 9.201867e-13 0.00024367524
0.00043803803 1.7821333e-09 1.0653675e-12 6.9848706e-05 0.0007154112 0.00041267875 0.00035195478 0.00020150596
0.00010591464 0.00029869712 0.00032797045 0.00035020875 7.599667e-09 0.00017870287 0.00022942325 0.0
0.0003442318 0.0 0.00016724943 3.4951004e-09 0.00039737718 1.7259845e-10 0.0005541026 1.6992415e-08
3.1071726e-10 0.0002810502 6.7548194e-09 0.00019722046 0.00035748875 5.4214494e-11 0.0 1.3800781e-10
0.00035706224 0.0005272021 0.00021643737 6.7082433e-09 0.00039961323 0.0003941694 3.236982e-10 0.00013143582
0.00047521188 0.0008748192 2.9994107e-09 0.00018323866 0.0004074542 0.00026179518 3.1284886e-09 1.43209204e-08
0.00023884981 0.0004080898 0.0002270817 0.00033939007 3.0020422e-09 4.7400257e-09 0.00031541014 0.00023506569
0.00052456046 1.03409254e-08 0.0004210468 0.00021280316 1.202653e-10 0.00067126204 8.2246016e-12 0.0
0.00023523606 0.00040829924 0.0 0.0 0.00052781426 2.0279108e-12 0.00037492736 0.0001907607
0.000103541286 6.854014e-10 0.00046812685 4.2588566e-10 0.00047205086 0.000324101 0.0004752412 0.00030426524
3.287827e-10 4.1197035e-11 2.9312705e-08 0.00012008256 2.0713369e-11 0.00043180768 0.00041602284 0.00014545125
0.00054346485 0.0002838605 0.0005656729 0.00034802803 9.922105e-10 1.8266014e-09 0.000566961 8.8476154e-10
7.2666824e-11 8.055712e-12 1.6329132e-08 0.0 0.00029950112 8.119771e-09 0.0 7.261948e-10
0.0 4.7686688e-11 0.0004270227 8.671825e-09 2.9292715e-09 0.0 6.2957965e-11 0.0002148266

exp_avg f4 [64, 128]
00000000: 0400 0000 0400 0000 0400 0000 0400 0000
00000010: 0400 0000 0400 0000 0400 0000 0400 0000
00000020: 0400 0000 0000 0000 0000 0000 0400 0000
00000030: 0400 0000 0000 0000 0000 0000 0400 0000
00000040: 0000 0000 0000 0000 0000 0000 0400 0000
00000050: 0400 0000 0400 0000 0400 0000 0400 0000
00000060: 0400 0000 0400 0000 0400 0000 0400 0000
00000070: 0400 0000 0400 0000 0400 0080 0000 0000
00000080: 0400 0000 0000 0000 0400 0000 0000 0000
00000090: 0400 0000 0400 0000 0400 0000 0400 0000
000000a0: 0400 0000 0400 0000 0000 0000 0400 0000
000000b0: 0400 0000 0400 0000 0000 0000 0400 0000
000000c0: 0400 0080 0400 0000 0400 0000 0400 0000
000000d0: 0400 0000 0400 0000 0400 0000 0400 0000
000000e0: 0400 0000 0400 0000 0400 0000 0400 0000
000000f0: 0400 0000 0400 0080 0400 0000 0400 0000
00000100: 0400 0000 0400 0000 0400 0000 0400 0000
00000110: 0400 0000 0400 0000 0400 0000 0400 0000
00000120: 0400 0000 0400 0000 0400 0000 0400 0000
00000130: 0400 0000 0400 0000 0000 0000 0000 0000
00000140: 0400 0000 0400 0000 0000 0000 0000 0000
00000150: 0400 0000 0000 0000 0400 0000 0400 0000
00000160: 0000 0000 0400 0000 0400 0000 0400 0000
00000170: 0400 0000 0400 0000 0400 0000 0400 0000
00000180: 0400 0000 0400 0000 0400 0000 0400 0000
00000190: 0400 0000 0400 0000 0400 0000 0400 0000
000001a0: 0000 0000 0400 0000 0400 0000 0400 0000
000001b0: 0400 0000 0400 0000 0400 0000 0400 0000
000001c0: 0000 0000 0400 0000 0400 0000 0000 0000
000001d0: 0400 0000 0400 0000 0000 0000 0400 0000
000001e0: 0000 0000 0000 0000 0400 0000 0400 0000
000001f0: 0400 0000 0000 0000 0400 0000 0400 0000
00000200: d448 1b3a 0400 0080 0400 0080 0400 0080
00000210: 40f3 ecb9 74a1 24bb 0400 0080 0400 0080
00000220: 4f8a 3aba 50e0 1cba 0400 0000 0c5c d43a
00000230: 0400 0080 0400 0080 0400 0080 c88e caba
00000240: f4bc f33a 0400 0000 0400 0000 804e 1639
00000250: 604f 71b9 cc03 1f3b 26d5 3b3b 14e2 cc3a
00000260: c8eb a539 d70b 943a 9eed ad3a fac4 b33a
00000270: 0400 0000 0078 953a 00de 0737 0000 0000
00000280: 92d4 553b 0000 0000 f6c5 48ba 0400 0000
00000290: b295 e4ba 0400 0080 1e42 bfba 0400 0080
000002a0: 0400 0080 d4f0 093b 0400 0000 07a6 753b
000002b0: 8fb5 643b 0400 0080 0000 0000 0400 0080
000002c0: e088 733b e80b 3fbb 82f7 123b 0400 0080
000002d0: 58eb da3a 2c99 abba 0400 0080 5329 88ba
000002e0: 2caf a7ba f613 d9ba 0400 0080 d91d 1d3b
000002f0: d5d8 f03b 8803 81b9 0400 0080 0400 0080
00000300: 2a20 bd3a ee26 95bb a42e c5ba 5012 32bb
00000310: 0400 0080 0400 0000 df04 21bb 659e 0e3b
00000320: a730 813b 0400 0080 806d 013a cede e339
00000330: 0400 0080 9c00 f13a 0400 0080 0000 0000
00000340: 1449 5f3a a4f5 123b 0000 0000 0000 0000
00000350: cb0e 0bbb 0400 0000 0bbe 433b 574f 0c3a
00000360: ec55 6c3a 0400 0080 e0e8 5d3a 0400 0080
00000370: 2ef1 9e3b 1411 683a 20f2 8f38 809f 613a
00000380: 0400 0080 0400 0080 0400 0080 d7fe a13a
00000390: 0400 0080 3eaf 25bb d073 db3a 4338 2b3b
000003a0: 68a5 c3bb 4f4b 383b 4420 2fba c25c ebba
000003b0: 0400 0080 0400 0080 20b1 bd3a 0400 0080
000003c0: 0400 0080 0400 0080 0400 0080 0000 0000
000003d0: 0180 b93b 0400 0080 0000 0000 0400 0080
000003e0: 0000 0000 0400 0080 c501 61bb 0400 0080
000003f0: 0400 0080 0000 0000 0400 0080 08aa 94ba
6e-45 6e-45 6e-45 6e-45 6e-45 6e-45 6e-45 6e-45
6e-45 0.0 0.0 6e-45 6e-45 0.0 0.0 6e-45
0.0 0.0 0.0 6e-45 6e-45 6e-45 6e-45 6e-45
6e-45 6e-45 6e-45 6e-45 6e-45 6e-45 -6e-45 0.0
6e-45 0.0 6e-45 0.0 6e-45 6e-45 6e-45 6e-45
6e-45 6e-45 0.0 6e-45 6e-45 6e-45 0.0 6e-45
-6e-45 6e-45 6e-45 6e-45 6e-45 6e-45 6e-45 6e-45
6e-45 6e-45 6e-45 6e-45 6e-45 -6e-45 6e-45 6e-45
6e-45 6e-45 6e-45 6e-45 6e-45 6e-45 6e-45 6e-45
6e-45 6e-45 6e-45 6e-45 6e-45 6e-45 0.0 0.0
6e-45 6e-45 0.0 0.0 6e-45 0.0 6e-45 6e-45
0.0 6e-45 6e-45 6e-45 6e-45 6e-45 6e-45 6e-45
6e-45 6e-45 6e-45 6e-45 6e-45 6e-45 6e-45 6e-45
0.0 6e-45 6e-45 6e-45 6e-45 6e-45 6e-45 6e-45
0.0 6e-45 6e-45 0.0 6e-45 6e-45 0.0 6e-45
0.0 0.0 6e-45 6e-45 6e-45 0.0 6e-45 6e-45
0.0005923633 -6e-45 -6e-45 -6e-45 -0.00045194663 -0.0025120648 -6e-45 -6e-45
-0.00071159465 -0.0005984353 6e-45 0.0016201749 -6e-45 -6e-45 -6e-45 -0.0015453929
0.0018595741 6e-45 6e-45 0.00014334358 -0.0002301312 0.0024263738 0.0028660982 0.0015631341
0.00031646923 0.0011295032 0.0013269668 0.001371532 6e-45 0.0011403561 8.098315e-06 0.0
0.0032627922 0.0 -0.0007658893 6e-45 -0.0017439632 -6e-45 -0.0014591848 -6e-45
-6e-45 0.0021048086 6e-45 0.0037482993 0.0034898256 -6e-45 0.0 -6e-45
0.0037160441 -0.0029151384 0.0022425358 -6e-45 0.0016702218 -0.0013091913 -6e-45 -0.0010388292
-0.0012793294 -0.0016561735 -6e-45 0.002397409 0.007350067 -0.00024607428 -6e-45 -6e-45
0.0014429141 -0.00455176 -0.0015043807 -0.002717156 -6e-45 6e-45 -0.0024569554 0.002176189
0.0039425674 -6e-45 0.0004937276 0.00043462816 -6e-45 0.0018387022 -6e-45 0.0
0.00085176644 0.0022424245 0.0 0.0 -0.0021218534 6e-45 0.0029867913 0.0005352399
0.0009015489 -6e-45 0.0008465182 -6e-45 0.004850528 0.00088526425 6.863871e-05 0.0008606836
-6e-45 -6e-45 -6e-45 0.0012359273 -6e-45 -0.0025281454 0.0016742889 0.0026126064
-0.0059706457 0.002812106 -0.0006680528 -0.0017956721 -6e-45 -6e-45 0.0014472343 -6e-45
-6e-45 -6e-45 -6e-45 0.0 0.005661011 -6e-45 0.0 -6e-45
0.0 -6e-45 -0.003433333 -6e-45 -6e-45 0.0 -6e-45 -0.0011342177
