models/RaceModels/reg_pos_3copies_1to10_1HL_mse/model.pt (torch, 505135 bytes, 18 tensors)

fc1.weight f4 [128, 240]
000000 cc 2c 55 3d c2 c5 16 3c 9d 38 f5 3c 81 4f 64 bc
       0.052044675 0.009202423 0.029934222 -0.013934971
000010 d8 44 df bc 74 f3 88 3d 3f b8 d8 3b 9a fb 39 3c
       -0.027254507 0.0668706 0.0066137607 0.01135149
000020 07 af e0 3b 8d ad 1b bc 9b a9 88 bd c0 fd 56 bd
       0.0068568024 -0.009501827 -0.06672975 -0.05248809
000030 0a 2a 2b b9 9d c9 18 3c 43 ab 40 3c 73 74 90 3d
       -0.00016323492 0.009325412 0.011759582 0.07053461
000040 87 4f 50 bb 58 1b 11 bd 00 4b 82 3d 38 3e 5b 3d
       -0.0031785683 -0.035426468 0.06361961 0.053526133
000050 73 6e 0b bc 9f 65 35 bd 02 6b e7 bb 18 85 99 3d
       -0.00851022 -0.044286367 -0.007062317 0.07496089
000060 6a 69 3b 3c 52 e5 94 bb 0e fd a4 3d b1 c0 ea 3c
       0.011438707 -0.0045439387 0.08056079 0.028656336
000070 5d 9d a2 bd ba 95 11 3d e6 df 1b bd d6 ff e2 3c
       -0.07940171 0.03554318 -0.038055323 0.027709883
000080 24 29 91 3a 37 b3 23 bd 12 ec 08 be 2e 48 ca bd
       0.0011074883 -0.039965834 -0.13371304 -0.098770484
000090 81 96 15 3d 9a 8c 01 bd c4 65 29 bc 63 0c 21 3b
       0.036520485 -0.03162823 -0.010339204 0.0024574033
0000a0 54 ce 5a 3d 05 fc 73 bd 11 a1 76 3d f2 b0 eb bb
       0.053419426 -0.059566516 0.0602122 -0.0071927244
0000b0 e4 7e a9 bc a7 f3 0a 3d fb f0 9e bc f0 72 d6 3d
       -0.020690389 0.03392377 -0.019402018 0.10471141
0000c0 53 8d b9 3c c4 f8 7a 3d 84 b2 9d bd 8c a1 cc bc
       0.022650396 0.061272398 -0.07700065 -0.024979375
0000d0 b2 35 39 3c 43 1b 1a bc ad 23 47 3d 2b a9 5b 3d
       0.011304306 -0.009405914 0.048618007 0.053628128
0000e0 a1 cd 90 bc d1 ed 2b bc 0e b2 64 bd 6e f5 14 bb
       -0.017676177 -0.010493712 -0.05583387 -0.0022729295
0000f0 39 f9 21 bd 84 6b 30 bc c1 2e a5 ba c3 f6 60 3d
       -0.039544318 -0.010767821 -0.0012602435 0.05492283
000100 ee f1 0e 3b 9e 0b 35 bd 4c b9 9d 3b d1 a4 29 3c
       0.0021811682 -0.044200532 0.004813349 0.010354237
000110 72 db 40 bd 76 4c 50 bd 2c 28 68 3d c8 a0 8d 3c
       -0.04708428 -0.05085417 0.056678936 0.01728858
000120 6d 4e 87 3d 21 8f 05 3d 44 12 15 3c 48 23 8d 3c
       0.066067554 0.0326072 0.009098593 0.017228737
000130 2a 73 3e 3c e0 d6 45 3d 27 0e 44 bb be b4 b0 3c
       0.011624137 0.048300624 -0.0029915662 0.02157056
000140 5d 4a be bd 03 0b 0c 3d 7c 98 ac bd 27 d9 6c bc
       -0.092915274 0.03419019 -0.084275216 -0.01445607
000150 72 b8 97 3d a5 81 8a bd b5 66 e8 bd af 1c 4b 3d
       0.07408227 -0.06763009 -0.11347715 0.0495879
000160 a8 1e c6 3c 00 c0 e3 bb 57 32 fb 3c e7 de 04 bd
       0.02418454 -0.0069503784 0.030663652 -0.03243914
000170 6f b4 93 3c 8f 6d 37 bc 24 53 30 bd df 01 15 bd
       0.018030373 -0.011195554 -0.04304804 -0.036378738
000180 ff 25 63 3d 45 de 89 3d 3a 02 84 bd 48 01 78 bd
       0.055456158 0.06731848 -0.06445737 -0.060548097
000190 0e 25 1e 3d 2b 6d a1 bb e5 1c ac 3d 45 6e 9d 3c
       0.038609557 -0.004926344 0.08403949 0.01921762
0001a0 c2 14 f0 bd 32 da f4 3c 3a ae 36 3c 3b 4b 25 bd
       -0.11722709 0.0298892 0.011149937 -0.04035495
0001b0 05 17 63 3d 51 1c 8f bc 46 e5 3f bd 24 b7 e4 3d
       0.055441875 -0.017469557 -0.04684951 0.11167744
0001c0 8b e8 de 3d 9f 99 96 bd 30 2e 91 3c b6 45 f4 3d
       0.10884198 -0.0735352 0.01772222 0.11927359
0001d0 5e 30 0e 3d b9 86 81 3d e8 bd 0f bd 11 ac 33 bd
       0.034714095 0.063245244 -0.035093218 -0.043865267
0001e0 1a 4a 9b bb ef 19 ee 3c 03 9a 56 3d 92 2d 01 be
       -0.004739058 0.0290651 0.05239297 -0.1261504
0001f0 c5 56 e4 3c e8 42 09 bd 41 69 1b bd 51 a0 26 bd
       0.027873406 -0.033511072 -0.037942175 -0.040680233
000200 c8 26 8c 3b c1 71 eb 3d bb 4a 36 bd b1 5c 96 bd
       0.004277084 0.11496306 -0.044504862 -0.07341898
000210 3f 87 e3 3d 1c c0 56 3c b2 2f dc 3c 5e f5 9f 3d
       0.111097805 0.013107326 0.026878212 0.07810472
000220 72 18 84 3d 8d ac ad bc c3 57 e5 bc 00 fd 7d 3d
       0.06449975 -0.021200443 -0.02799595 0.062008858
000230 63 95 04 bd 66 8d 48 bc 4b 3b 89 bc 4a 1c a8 3b
       -0.03236903 -0.012240743 -0.016751906 0.0051303254
000240 ed cb 19 3d 5f 2a 4d bd b1 f9 ec 3c ef 85 ad bd
       0.037547994 -0.050089236 0.028927656 -0.084728114
000250 f0 6f 8d 3d c5 dc ea 3d c4 c6 a9 bc 8d a6 15 3d
       0.06906116 0.1146789 -0.020724662 0.03653579
000260 1d 25 22 bd 6d 33 b1 3c 3f 1d 33 bd 9c 42 0b be
       -0.039586175 0.021630967 -0.043729063 -0.13599628
000270 64 a3 18 3d 8c b2 8a bd 4a 9a ff 3c 27 c0 c1 3c
       0.037265196 -0.06772336 0.0312015 0.023651196
000280 ba 47 07 bc 1c 8d c9 bc e1 15 47 3d 84 5b 09 3e
       -0.008256847 -0.024603419 0.04860485 0.13413817
000290 6d 40 4c bc 59 31 97 bc f4 82 c5 bc 2f 68 5c bd
       -0.012466532 -0.018456148 -0.024110295 -0.053810295
0002a0 5a 03 01 bc 4c e5 d7 bc 5a fb d2 bc 85 5d f0 bc
       -0.007874334 -0.026354454 -0.02575462 -0.029341469
0002b0 23 04 4e 3d fc 05 9e 3d da b2 08 3e 95 e6 3a 3d
       0.050296914 0.07715985 0.13349476 0.045630056
0002c0 fc 10 48 bc fa 59 9d bc 7f c5 23 bd ff db 61 bd
       -0.012211081 -0.019207943 -0.03998327 -0.055141445
0002d0 c1 d2 9f 3d fa 66 57 bd 87 e8 ac bd a3 8b 40 3d
       0.0780387 -0.05258844 -0.084427886 0.047008168
0002e0 c2 63 01 bd 41 b5 45 3d 68 ba cf bc f7 70 61 3d
       -0.031589277 0.04826856 -0.02535744 0.055039372
0002f0 13 9d 2f 3c c8 9f c9 bd 8e 07 fb 3c be 94 61 bd
       0.010718602 -0.09844929 0.03064325 -0.055073492
000300 0a e4 88 3c d7 3b 51 bc f2 1c 5b bc 7d 66 c0 bd
       0.0167103 -0.012770615 -0.0133736 -0.09394548
000310 fa 6d c3 3d c7 29 87 3d fc 15 89 3e 15 db 8e bd
       0.09542461 0.06599765 0.26774585 -0.0697538
000320 5f d0 86 bd ce 4b 35 be 84 b5 ab 3d e7 3a fc bd
       -0.065827124 -0.17704698 0.08384231 -0.12315922
000330 31 50 cb 3d 45 c7 dd bd 2e 45 08 bd 17 67 10 3e
       0.09927405 -0.10829023 -0.0332691 0.14101826
000340 e9 1f 48 3c 96 6c 19 3d 73 45 20 3d 1b 6e 00 3e
       0.012214639 0.03745707 0.039128732 0.12542002
000350 88 98 d4 bc 05 db a5 3c 80 03 b1 3c 79 05 ad 3d
       -0.025951639 0.020246038 0.021608114 0.084483095
000360 22 da 81 3d 42 2f 9a bc 99 d2 b8 bd 3f 81 e6 bc
       0.06340434 -0.018821362 -0.09024543 -0.028137801
000370 dd 8e b6 3c 6c 1e e4 3d c9 4f 43 3e 53 07 0e be
       0.02228492 0.11138615 0.19073404 -0.13869981
000380 b0 9d ec bd d7 f0 15 be df 90 fd bc 40 71 67 bd
       -0.11553514 -0.14642654 -0.030952869 -0.056504488
000390 0a d8 05 3e c9 cc dd bd 45 ec 46 3d 39 ae 4f 3e
       0.13070694 -0.10830075 0.048565168 0.20281304
0003a0 f5 4f 93 3d 83 3c b8 3b eb 83 14 bc c3 77 f4 3d
       0.07192985 0.005622448 -0.009064655 0.11936905
0003b0 68 a0 b5 3c 12 db 16 bd bb ea f4 ba 19 64 61 bc
       0.022171214 -0.036830015 -0.0018685678 -0.013756775
0003c0 31 9d 18 bd 79 58 82 3d a2 6f 0d 3d 82 fd 16 3d
       -0.037259284 0.06364531 0.03453029 0.036862858
0003d0 e3 63 98 3c 66 e9 3d 3d c2 33 8e 3c db 98 13 be
       0.018602317 0.046365164 0.017358664 -0.14413778
0003e0 01 b7 e6 3c 49 bd 16 3b ac 53 5e 3c ab 5c a8 3c
       0.028163435 0.0023001006 0.013569754 0.020552
0003f0 85 a9 f6 3c df 30 04 3e e7 a1 0e bc 68 68 b3 bc
       0.03011013 0.12909268 -0.008705593 -0.02190037

fc1.bias f4 [128]
000000 3a df 40 b9 51 f6 a4 3d f5 9c da 3c a9 c7 8e bb
       -0.00018393705 0.080547936 0.026686171 -0.0043572974
000010 76 4d 1a 3d 91 0e 4e 3d 7e 29 49 bd 1c 0b 69 bd
       0.03767153 0.05030686 -0.049111836 -0.05689536
000020 6c ce b3 3c c2 06 ec bb 06 f1 3a bd 50 01 85 bd
       0.021949016 -0.007202954 -0.045640014 -0.06494391
000030 72 6b 54 bd 40 5e 90 3b 06 e8 6f 3d 3e c7 41 3c
       -0.05186028 0.0044057667 0.058570884 0.011827288
000040 77 d8 20 bd 61 5b 15 3d 04 a5 48 bd c6 c2 53 bd
       -0.039268937 0.0364641 -0.048985496 -0.051699422
000050 a5 0e 8e bd af cf 54 3d ee 15 30 bc 22 6e 14 3d
       -0.06936387 0.051955875 -0.010747416 0.036237843
000060 6c f5 8d 3c 6a 0f 54 3d 32 b5 1a 3d 57 dc ba bc
       0.01732894 0.051772512 0.037770458 -0.022810144
000070 ca bd ae bc d2 14 99 bc d8 ad a7 3c 2c 71 e4 3c
       -0.021330733 -0.018686686 0.020468637 0.027885996
000080 3a 21 b7 3d fc 26 19 bd f7 81 39 3d 8d e8 bb bb
       0.08941884 -0.037390694 0.04528996 -0.0057345093
000090 3e 8e 43 3d 35 1e 98 bc 93 29 04 bd be 38 09 3d
       0.047743075 -0.018569091 -0.03226621 0.03350138
0000a0 74 c3 eb 3b ed 20 19 3d 6c 23 3d bd 23 f9 9a bc
       0.0071949307 0.037384916 -0.04617636 -0.018917626
0000b0 e4 b4 a6 3c 19 99 7a 3d 18 68 03 3d 55 eb 22 3d
       0.020349927 0.06118116 0.032081693 0.03977521
0000c0 25 1e 20 3d a3 8c e7 bc 27 f4 53 bd 92 1c a8 3d
       0.039091248 -0.028265303 -0.051746514 0.08208574
0000d0 3f ce 61 bd 8c ba 07 bd 66 ff 26 bd a3 a3 0e 3c
       -0.055128332 -0.03313689 -0.04077091 0.008706006
0000e0 c3 6c 0a 3d c6 9a 11 bd 4e c0 f6 bc bd c5 8f 3c
       0.03379513 -0.035547994 -0.030120995 0.017550344
0000f0 89 c0 5b bc c8 47 da bb c0 e8 90 3a 8a 17 86 3a
       -0.013412603 -0.006661389 0.0011055693 0.0010230404
000100 93 d1 fb bc 71 4c 80 3c 7b 99 a8 3b 07 45 f2 3c
       -0.030739581 0.01566145 0.0051452494 0.02957393
000110 0d 5e 87 bb 96 53 84 bd 7b e7 e2 3c 42 19 9d bb
       -0.004131085 -0.06461255 0.02769827 -0.0047942707
000120 f7 4f d5 3d 3c 09 54 bd 94 28 34 bd 0f fe d9 bc
       0.10415643 -0.05176662 -0.04398401 -0.026610402
000130 8f a4 3b 3d 3e 7b 47 3c 41 38 91 bc 4c 57 59 3d
       0.045811232 0.012175379 -0.01772702 0.05306177
000140 c7 ce 2e bd 59 d1 6e 3c 7a 44 02 bd 86 fe 56 3d
       -0.042677667 0.01457628 -0.031803586 0.052488826
000150 25 cd 27 3d 3f cf 50 bc 75 c4 d5 bc d0 8d 89 3c
       0.040967125 -0.012744724 -0.026094655 0.016791254
000160 99 21 8c bb e3 51 99 bd 75 3e 60 3c b5 ae 99 bb
       -0.004276466 -0.07486322 0.013686766 -0.004690016
000170 a0 63 d4 3c a5 49 16 3d aa 24 b5 3c 81 37 83 bc
       0.025926411 0.036691327 0.02211221 -0.016017677
000180 52 9d d0 bc 86 09 5d bd a7 88 d8 3c 7d 3e 51 bb
       -0.025465641 -0.05396416 0.026432348 -0.0031928115
000190 0c 50 40 3d 26 05 f9 3c 28 3b 02 bd e3 bb fe 3c
       0.04695134 0.030397963 -0.031794697 0.03109545
0001a0 48 d6 c8 bc 90 f6 82 3c 11 c6 4d 3d b5 73 49 3d
       -0.02451624 0.01598671 0.05023772 0.049182612
0001b0 fd 35 af bc ad 79 d4 bb e1 3d 07 bd 66 9b 04 bc
       -0.021388048 -0.0064842314 -0.033017997 -0.0080936905
0001c0 ff fd 2f bc fb 5b 26 bd 3a 49 2a 3c 51 05 42 bd
       -0.01074171 -0.040615063 0.010393435 -0.04736835
0001d0 39 74 f0 3c ae e3 be 3d f0 ad 79 bc 4d d4 87 bd
       0.029352294 0.0932077 -0.015239224 -0.0663229
0001e0 bc 84 49 bd e1 d0 1f 3d 2e 13 3d 3b d1 6f 99 3d
       -0.04919885 0.03901756 0.0028850543 0.074920304
0001f0 15 c3 78 3c 48 2a a9 bb da b5 47 3c dc 1a 21 bd
       0.01518323 -0.005162511 0.012189353 -0.039332256

fc2.weight f4 [64, 128]
000000 e9 c8 62 bd e6 a8 86 3c 2a a7 26 bd 5c 61 89 3d
       -0.055367384 0.016437959 -0.040686764 0.06708023
000010 43 65 99 3d 3b 75 ef 3c 01 7a 2a 3d da 22 4c 3d
       0.07490017 0.029230705 0.04162026 0.049837925
000020 ae 1d 50 3c c0 1e 05 bc 90 82 b1 bb b8 be 7f 3d
       0.012702389 -0.008125007 -0.0054171756 0.062437743
000030 8f c1 20 bd 13 8e 24 3d 0f 7a 86 3d 88 99 88 bd
       -0.03924709 0.040174555 0.065662496 -0.06669909
000040 f8 b2 9b bd 4f 29 62 3d a0 3b 77 3c cc a7 bc 3b
       -0.07602495 0.055215176 0.015089899 0.0057573076
000050 2d ca eb bc cd f4 f2 bc d3 34 68 3b 7d 33 99 bd
       -0.028782928 -0.029657746 0.0035431876 -0.07480524
000060 2c f2 c0 bd 02 19 0b 3c 26 45 ea 3c 6c 9b 8d 3c
       -0.094211906 0.008489849 0.028597426 0.017286025
000070 0b a4 2f bd 04 bd 9c 3d b0 9a 92 3d d6 92 2c bd
       -0.042881053 0.07653239 0.071584105 -0.04213222
000080 b2 04 02 bd 01 ba 0f bd 4b 8b 07 bd d2 fb 1b 3d
       -0.03174276 -0.035089497 -0.033091825 0.03808195
000090 21 b7 ce bb 60 04 d7 bd 9e b6 45 bd 5b 1f 23 3d
       -0.0063084518 -0.10498881 -0.04826986 0.039824825
0000a0 1d 83 5d 3d 1b 7e 71 3c 00 70 f2 b9 71 e8 f2 bd
       0.054080117 0.014739539 -0.00046241283 -0.11860741
0000b0 97 4c 61 bd a7 da d5 3c f0 0b 0b bc f8 0c 69 bd
       -0.055004682 0.026105238 -0.008486733 -0.056897134
0000c0 f7 3d 5f bd 9a 58 b9 bd 3d 88 54 3b cb f7 9a bd
       -0.054502454 -0.090501025 0.0032429837 -0.07566794
0000d0 d7 b4 50 3d 14 28 55 bd 29 c2 dc bd 91 7a 78 bd
       0.050953712 -0.052040175 -0.107792206 -0.060663763
0000e0 f8 fd 9a bd 93 1a b4 bc b4 98 99 3c ea 94 81 bc
       -0.07567972 -0.021985328 0.018749572 -0.015818078
0000f0 ab 92 80 bd 57 0b e9 bd e2 71 b7 bd 54 c6 a3 bd
       -0.06277975 -0.11379116 -0.08957268 -0.079968125
000100 0c c9 87 bd e6 8f cd bd d2 db 71 bd 24 07 cd 3c
       -0.066301435 -0.10037212 -0.059047528 0.025027819
000110 b9 5b 62 bd 96 ae a6 3d 20 a1 f1 bc 78 45 80 3b
       -0.055263255 0.081387684 -0.029495776 0.0039145313
000120 b1 d0 31 bd da b1 d7 3b 42 f4 a8 bd 56 b5 ad bd
       -0.043411914 0.006582481 -0.082497135 -0.08481853
000130 65 7d 08 bd fb aa 35 bc d5 83 a6 3d a4 10 83 bd
       -0.03332271 -0.011088128 0.08130614 -0.06399658
000140 bf d6 a3 bd 23 ea d8 3c d0 32 f0 bb 8b e2 45 bd
       -0.07999944 0.026478833 -0.007330276 -0.04831175
000150 5f a9 36 3c ff e1 b9 bd 5a 25 d3 bd ca 12 16 bd
       0.01114878 -0.090763085 -0.103098586 -0.036639012
000160 35 bd ab bd ae fe 8b bc c4 e5 cd bb 7d f1 4b 3d
       -0.08385698 -0.017089214 -0.0062834937 0.049790848
000170 66 7c 1e 3d d2 3a 43 bc e3 72 2a 3d 66 ec 94 bd
       0.038692854 -0.011915879 0.04161347 -0.07271652
000180 c1 e4 87 bc f3 63 04 3d 25 ab 5c bd 1a fd 9a bc
       -0.01658857 0.03232188 -0.053874154 -0.018919516
000190 8a bf 07 bd f4 8a 2d bd 2c 27 39 3d 67 4a 44 bd
       -0.03314165 -0.042368844 0.045203373 -0.047922518
0001a0 08 c6 8a bc 2b 42 79 ba f5 48 2f bd e1 ea e1 3b
       -0.016940132 -0.0009508456 -0.042794187 0.006894455
0001b0 9f 37 4d bc 48 ef 4a bc 1e b8 78 bd 09 2d 19 3c
       -0.012525468 -0.012386151 -0.060722463 0.009349116
0001c0 1a 86 3c 3d 2e ca f5 3c b3 bc 8c bc 46 74 47 3d
       0.046026327 0.030003633 -0.017179823 0.04869487
0001d0 ce 14 55 bd e2 0d 77 3d d3 7f 8f 3d 2f d4 01 3d
       -0.052021794 0.060315974 0.070068024 0.031696495
0001e0 d1 12 74 bd b5 90 d4 bc 53 d8 d0 bc 32 e7 72 3c
       -0.059588257 -0.025947908 -0.025493776 0.014825629
0001f0 d5 c2 c1 bc 72 1d 79 3d 9b 61 3c 3d 59 6b 87 3b
       -0.023652473 0.060819097 0.04599152 0.00413267
000200 c4 1a 47 bd 1a 26 bb 3c 4e 97 5c 3d 00 66 2c 3d
       -0.04860951 0.022845317 0.053855233 0.042089462
000210 95 2c 83 bc f6 f4 e1 bc 10 10 1c bb df 9e e4 bd
       -0.01601247 -0.027582627 -0.0023813285 -0.11163115
000220 80 f9 b1 bc 8d bb 25 bd 6c 75 96 bd 8f aa 97 3d
       -0.021725416 -0.040462065 -0.07346615 0.07405578
000230 16 5e 10 3b ee 59 33 bd 1b 04 32 3d 8a c3 df 3d
       0.0022028736 -0.043786936 0.043460947 0.10925968
000240 98 ce 80 3d ef 08 5c 3e f1 65 a9 bd 8b 6d 2a 3d
       0.06289405 0.21487783 -0.08271397 0.041608375
000250 23 02 98 bd 2c e4 b8 3d 9f 91 19 be dd 1f b3 bd
       -0.074222825 0.09027895 -0.14996956 -0.08746312
000260 89 01 83 bc 79 00 89 bd 5a 9a 40 3d 50 a3 4c bd
       -0.015991943 -0.06689543 0.0470222 -0.049960434
000270 f3 f4 a6 bd a7 da b8 bc 32 f5 6a 3d 98 31 88 bd
       -0.08152189 -0.022565199 0.057362743 -0.06650084
000280 1b 2b b4 3d e0 27 0a 3d 34 91 41 bd b9 f8 8e bc
       0.08797284 0.033729434 -0.047257617 -0.017452585
000290 26 5c 2b 3d 21 e3 2e 3e f5 97 90 bd 69 1e 28 3c
       0.041835926 0.1707883 -0.070602335 0.010261157
0002a0 8d e8 1f 3d dc f4 cc 3d 7f c6 24 bd e3 73 7a 3d
       0.039040137 0.10007641 -0.040228363 0.061145674
0002b0 ee 7f 56 3c 58 e2 25 3d b7 c2 92 bd 86 e1 d7 bd
       0.013092024 0.04049906 -0.07166045 -0.10541062
0002c0 c8 95 72 3d 89 fa bf bd cb fb 82 bd 41 20 56 3d
       0.059224874 -0.09373958 -0.06395682 0.052276853
0002d0 96 bf be 3b 0b 57 c1 bd e8 0a 32 3d 88 33 5c bb
       0.0058211787 -0.0944043 0.043467432 -0.003360005
0002e0 2d 69 de 3d 7f b5 8d 3d 49 8f 92 3b 8d eb 75 3e
       0.108599044 0.06919383 0.0044726473 0.24015637
0002f0 ee 8b 44 bd b1 19 00 bd df 8a 31 bd 00 32 b6 3d
       -0.04798501 -0.0312745 -0.04334533 0.088962555
000300 4c a2 a2 3d 64 14 26 3d 99 10 3a bd 9b 9f 6f 3d
       0.07941112 0.04054679 -0.045425985 0.05850182
000310 a0 31 9b 3d fb 7e 0f bc ca 08 26 3d 0b 33 61 be
       0.075778246 -0.008758302 0.040535726 -0.21992128
000320 fc 9a 43 3e 39 a8 8c 3c 56 74 6b bd 71 b0 ce 3d
       0.1910209 0.017170059 -0.057483993 0.10092247
000330 94 75 92 bd 51 f1 47 3c 56 9e a1 bd 78 b7 ad 3c
       -0.071513325 0.01220353 -0.07891528 0.021205649
000340 98 73 51 3d a3 a7 76 bd a0 df 58 bd a3 d2 9a 3d
       0.05113563 -0.060218465 -0.05294764 0.07559707
000350 10 ad 87 3d c7 12 af 3a 7d 54 e4 bc 6d c7 32 bd
       0.06624806 0.0013357037 -0.027872318 -0.04364722
000360 1d ac 15 3d 37 b3 dd bd 93 0c 1a 3e 6a c0 03 bd
       0.036541093 -0.10825198 0.15043859 -0.032165922
000370 61 a3 56 bd c2 db 88 bd a1 64 d8 3d 7b 05 66 3d
       -0.052401904 -0.066825405 0.105660684 0.05615757
000380 cd 5a 4a bd 17 5e ae 3d 98 38 6a 3e 0b 40 c3 bd
       -0.049403 0.0851404 0.22873151 -0.095336996
000390 59 5b 39 bd d9 6c 06 bd 8f d2 c8 3d 1a 74 b6 3c
       -0.04525313 -0.03281865 0.09805786 0.022272158
0003a0 3c c9 a4 3d 7c 1d 80 3d 56 93 85 bd 74 1c d4 bc
       0.08046195 0.06255624 -0.06522243 -0.025892474
0003b0 9e 54 f1 3b c0 63 6d 3d bb f0 23 3e 41 c9 f9 3c
       0.0073648235 0.057956457 0.160098 0.030491473
0003c0 83 98 87 3d ab be 3a 3c 3f bf a4 3d bc 3f cd 3c
       0.06620886 0.011397998 0.0804429 0.025054805
0003d0 5a 7b 9a 3d 91 1f 07 be 32 a5 51 3d 77 00 b5 bc
       0.07543059 -0.13195635 0.051182933 -0.022094948
0003e0 08 e0 2e bc d1 fd a3 3d 12 bf 1a bd be 1a 42 bd
       -0.01067353 0.08007396 -0.037779875 -0.047388785
0003f0 b0 5a 3a be 52 77 1f 3d 84 9a f7 bd 0f d4 d7 bc
       -0.18198657 0.038932152 -0.120900184 -0.026346235

fc2.bias f4 [64]
000000 91 47 ad 3c 74 4d bd 3d 26 5f 11 bc 4a 2a 3b bd
       0.02115229 0.09243289 -0.008872783 -0.045694627
000010 b7 6f 59 3d 35 a4 6a 3b 6e 96 12 3d 4a a6 18 bc
       0.053085055 0.0035803441 0.035787992 -0.00931699
000020 43 7f 27 bd b8 4e af 3b 6b ab 30 3e 04 2b c7 bd
       -0.04089285 0.00534996 0.17252891 -0.097250015
000030 00 97 a8 bd 76 dc c0 3c 21 ae e6 3d 5e 31 cc 3d
       -0.08231926 0.023542624 0.11263681 0.099703535
000040 87 1b 32 3d 94 8b 32 3e f3 e9 c4 3c 56 bf bb bd
       0.043483283 0.17436057 0.024037337 -0.09167354
000050 9f a0 49 3e c1 df 88 3d ca 6d b7 3d 2e 09 02 3e
       0.19690178 0.06683303 0.089564875 0.12698814
000060 9e c6 76 3d c1 1f 01 3d d0 41 d1 bb af 48 bb bd
       0.06024801 0.031524424 -0.0063860193 -0.09144723
000070 09 58 ee bc fb 37 f4 3d b4 c4 f7 3d 47 69 36 bc
       -0.029094713 0.1192474 0.12098065 -0.0111334985
000080 9d 99 a8 3c b6 5c 54 3d e1 02 43 3d 19 69 6a 3d
       0.020581061 0.05184623 0.047610167 0.057229135
000090 0e 7d 08 3d df 12 de bd e4 82 68 ba fc 30 ab 3d
       0.033322386 -0.10843443 -0.0008869602 0.083589524
0000a0 62 cd 4d bd 02 79 45 3e 03 7e de bc e8 4f c0 3d
       -0.050244696 0.19284442 -0.027159696 0.09390241
0000b0 67 24 07 3a 75 97 96 bd 19 2c bf 3d 68 27 1d bc
       0.00051552657 -0.07353107 0.09334583 -0.009591915
0000c0 fb 32 26 3c 74 dd eb 3c bf dc 95 3d 9f 0f 6a 3d
       0.010143991 0.02879212 0.073174946 0.057143804
0000d0 e3 d3 27 3d ea 07 af bd d3 46 cf 3d ce 6d f9 bc
       0.040973555 -0.08546431 0.101209305 -0.030447867
0000e0 50 8e 57 bc e3 c9 9e bd 32 4d fb 3c 2e 5e 39 bd
       -0.013156489 -0.077533506 0.030676458 -0.045255832
0000f0 86 f8 f0 3d e6 5e 02 bd 56 45 10 3e 64 b2 76 3d
       0.11766152 -0.031828783 0.1408895 0.06022872

fc3.weight f4 [24, 64]
000000 91 76 dd bc a5 f3 5a bd b7 69 de bd 3b 10 b2 bd
       -0.027034076 -0.053455014 -0.10860007 -0.08694502
000010 27 71 e2 bc b1 dc 85 3d 75 e0 7c 3d d2 61 93 bd
       -0.027641846 0.06536234 0.061737496 -0.07196392
000020 e0 d8 4e 3d a1 8e 32 3c e5 e4 3c bc 8c 23 78 bd
       0.050499797 0.010898263 -0.011529182 -0.060580775
000030 47 d4 c0 bd e5 7d 9d bd fd c1 3c 3e 7f c6 f1 bd
       -0.09415489 -0.07690028 0.18433376 -0.11805438
000040 3c ea 8f bd 7c 6c 26 3e 9d 5c e0 bd e4 2d b8 bb
       -0.070270985 0.16252321 -0.109551646 -0.005620705
000050 e4 1e 74 38 4e 96 d6 bd 1c 81 42 bd 9c 8b bd 3d
       5.8202902e-05 -0.10477887 -0.04748641 0.09255144
000060 69 78 24 3e f1 8a be bd 22 91 f7 3d c6 4d 83 bd
       0.16061558 -0.09303845 0.12088229 -0.064113185
000070 fd 22 53 be ca 96 38 3e be ab 8b 3d cf 3d 6b 3d
       -0.20618816 0.18026271 0.068198666 0.057431992
000080 1e 1b e6 3c 32 db 7c bb c6 a6 aa 3d da 0b 02 3e
       0.028089102 -0.00385828 0.08332591 0.12699834
000090 3b a2 98 bd f0 18 d7 bd 65 87 68 3d 1c 69 99 3d
       -0.07452818 -0.10502803 0.056769747 0.07490751
0000a0 93 38 a4 bc 6a 5a 7e 3d 02 15 8b bd b9 3f 6a bc
       -0.020046508 0.062097944 -0.06791116 -0.014297419
0000b0 3a 5f a0 3d d4 55 83 3d 5b f3 b2 3d e9 c5 98 bd
       0.07830663 0.06412855 0.087378226 -0.07459623
0000c0 c0 a7 b1 3d d3 53 07 bd 3a cd 92 bd 7e 0b 3e 3d
       0.08674574 -0.033038925 -0.0716805 0.04639768
0000d0 72 14 76 bd bb b8 8f 3c 41 fd c5 bd 0c 96 9f 3d
       -0.060078092 0.017544141 -0.09667445 0.07792291
0000e0 18 71 a7 bd ce 02 0c 3c 59 51 cb 3d 74 c6 80 bd
       -0.08175868 0.008545591 0.09927625 -0.06287852
0000f0 19 f3 d8 bd 72 fc 2e bd b4 22 e5 bc 2b d5 59 3e
       -0.10593242 -0.04272122 -0.02797065 0.21272723
000100 c3 56 16 3c 87 26 ec 3d d3 3b 82 bd 23 96 bc bd
       0.009175959 0.11530786 -0.06359067 -0.09208324
000110 26 b3 75 bd e1 5a 2f 3d 56 88 8c bc 69 d8 8f 3b
       -0.059985302 0.04281128 -0.017154854 0.004389812
000120 5c b4 30 bc c2 c9 40 bd 8e dc 01 3e 3e aa bc bd
       -0.0107851885 -0.04706741 0.12681791 -0.092121586
000130 a5 6b fb 3d 9b 4b 25 3c ff 17 f8 bd d7 a3 48 bc
       0.12276391 0.0100888265 -0.12113952 -0.012246094
000140 a3 a9 9f bc 90 fe 50 bd b1 17 1a 3c 24 a9 bf bd
       -0.019490069 -0.05102402 0.0094050625 -0.09358433
000150 bd 76 19 3e 8a f3 df bd 5a a4 c6 3d 57 e9 9d 3e
       0.14986701 -0.10935123 0.09699316 0.30842087
000160 cf 38 12 be aa 4c fd 3b d0 a3 16 3c ec 36 e8 bc
       -0.14279483 0.0077300863 0.009194329 -0.028346501
000170 a1 30 7a 3d 9b d2 af 3d 26 c0 57 3a 3d db cd 3d
       0.061081532 0.08585092 0.00082302315 0.10051582
000180 12 91 85 3d f7 37 05 bd 2d f6 fe 3d 10 a5 14 3e
       0.065218106 -0.032524075 0.12449298 0.14516091
000190 fb 26 ef 3c 5e 32 a3 bd 7b 2c 40 3e 67 43 b7 bd
       0.029193392 -0.07968591 0.18766968 -0.08948403
0001a0 7f 4d ca 3d 70 cc 0e 3e 32 93 cb bd 94 df 01 3e
       0.098780625 0.13945174 -0.09940185 0.12682945
0001b0 3e df 5b 3b 90 1e 5e be dd ac 56 be 6d 1f a7 bd
       0.003354981 -0.21691346 -0.2096438 -0.08160291
0001c0 c7 2e f3 3d 58 ea 1b 3e 75 e0 13 3c 4a 5b 22 3d
       0.118741564 0.15226114 0.009025683 0.03963784
0001d0 31 53 80 3c 47 3a b1 bd cd b0 66 bd 1b 7e 8b 3d
       0.015664669 -0.08653694 -0.056320954 0.06811162
0001e0 82 01 e4 bd d7 df 12 be 96 3b ef bd 15 17 4d bc
       -0.111331 -0.143432 -0.11681287 -0.01251771
0001f0 7a bb e8 bd 2d 93 a0 bd 72 41 be bd 36 e2 9a bd
       -0.11363883 -0.078405716 -0.092898265 -0.075626776
000200 67 9d da 3d c6 d6 2b 3e 9b 25 22 3d c3 b6 91 bd
       0.10674553 0.16781148 0.039586645 -0.07114937
000210 f0 c9 95 3c fd a9 97 3d 0d 24 7c 3d 11 96 42 bd
       0.018284768 0.074054696 0.06155782 -0.047506396
000220 5c 25 c5 bd 07 b4 bf bd 4a af 9e 3d b4 b8 c1 bd
       -0.09626266 -0.09360509 0.077482775 -0.094590575
000230 f4 86 0e 3d f5 8d d8 bd 53 e2 25 3e 17 f5 d9 bd
       0.03479667 -0.10573951 0.16199617 -0.1064245
000240 4b 82 00 3e ce eb af 3d ad e7 c7 bd c6 dc 9f 3c
       0.12549703 0.08589898 -0.097609855 0.019514453
000250 eb 84 68 3c c4 e4 a9 3d 23 ad 97 bd b6 0e 7c 3d
       0.014191846 0.08295587 -0.0740607 0.061537467
000260 46 3a 72 3c f4 6a ce bd 54 10 e7 bd f5 e9 be bd
       0.014784401 -0.100789934 -0.11282411 -0.093219675
000270 cd 2c e3 3b 4e fb 46 3d 95 86 d9 3d 11 25 00 3c
       0.006932831 0.048579507 0.106213726 0.007821337
000280 cf 00 26 3b a2 b2 f1 bd b5 43 85 bd 1b 07 06 bd
       0.0025330072 -0.1180165 -0.06507055 -0.03272162
000290 64 62 66 3d 49 e8 95 3d 45 4d c5 bc 6b e0 e9 bc
       0.056246176 0.073196955 -0.024084697 -0.028549394
0002a0 06 80 7d bd 82 22 02 3d 0e 90 f0 bd ad 9a f8 3d
       -0.06188967 0.03177119 -0.11746226 0.12138877
0002b0 4e dd f8 3d 94 c2 7a bd 10 a2 c0 bd 20 23 24 3b
       0.121515855 -0.06122072 -0.09405911 0.002504535
0002c0 ba 0a af 3c 14 4a 4d be b9 65 63 bd a5 72 12 be
       0.02136742 -0.2004779 -0.055516932 -0.14301546
0002d0 f0 cf f8 bd 33 4e 54 bd b5 16 2b 3e 05 29 8e 3c
       -0.12149036 -0.05183239 0.16707881 0.017353544
0002e0 98 7d c8 3c fb d8 a7 39 6b ea 8d bd 2c 0c bf 3c
       0.02447395 0.00032014385 -0.06929477 0.023321234
0002f0 90 5d 16 3e de 74 87 3d e8 1e c8 bd ee 27 35 bb
       0.14684129 0.066140875 -0.0977152 -0.0027642208
000300 84 9c c6 bd bd 3c 15 3b 1e 67 d4 3d d4 f2 72 3d
       -0.09697822 0.0022771799 0.103712305 0.05931361
000310 6f a6 1b 3b b3 38 55 3d b7 96 c2 3d 53 7b cb bc
       0.0023750325 0.052056026 0.09501403 -0.024839079
000320 04 e7 4f bd 7c 60 76 bd 3b 34 dd bd 7e 18 5f 3d
       -0.050757423 -0.06015061 -0.10800978 0.054466717
000330 81 1b c2 3d ea 73 11 3e 9c ef 7f 3c 8c 16 12 be
       0.09477902 0.14204374 0.015621092 -0.14266413
000340 9e 6c 8e bd dd 88 0d 3c 6e 1b 26 3d f4 8b 4e 3c
       -0.06954311 0.008638588 0.040553503 0.01260661
000350 9d d8 c6 bd 2d 9b 75 bc 0e a5 86 bd 25 26 f1 3d
       -0.097092845 -0.01499061 -0.065744504 0.117748536
000360 ce c0 f9 3d 42 61 e1 3d 8c 9f b3 3d 7f df 62 bc
       0.12194978 0.110048786 0.087706655 -0.013847231
000370 27 fb 4a 3d 9e 10 51 3c 87 a7 a9 3d 3f 28 78 3d
       0.049555924 0.0127603095 0.082839064 0.060585257
000380 15 b5 04 3e d2 29 48 3d f2 ec 8d bd 85 23 06 be
       0.12959702 0.048868008 -0.06929959 -0.13099487
000390 a7 f4 e5 3d 8a ac 65 3d 4a 28 86 3d a3 66 ae 3c
       0.11228304 0.05607275 0.06550653 0.021289175
0003a0 17 7c 2d 3d 86 1a 49 3e 6d e4 b8 bd aa 56 7c bd
       0.04235467 0.19639024 -0.09027944 -0.061606087
0003b0 99 c7 7d 3d dd 43 e1 3c 68 e3 af bd 5c 31 a4 bd
       0.06195793 0.02749818 -0.08588296 -0.08017227
0003c0 cb 58 1c 3e 84 63 40 bc 47 0d ac 3d b0 92 c3 3d
       0.15268247 -0.011742476 0.0840097 0.09549463
0003d0 b9 53 23 bc 5f 3b d0 bd 75 0f 62 bd 76 e3 98 3d
       -0.0099686915 -0.10167574 -0.055190522 0.0746526
0003e0 20 6f 99 bd 8c 85 28 3e ce 39 a4 3d 74 6a eb bc
       -0.074918985 0.16457194 0.08018838 -0.028737284
0003f0 71 9e ae bd ba c4 0d bd eb ec 62 bd 3e 76 95 bc
       -0.08526314 -0.03461144 -0.055401724 -0.018244859

fc3.bias f4 [24]
000000 f4 3c a1 3d 5d 8d d2 3d 24 9a cb 3d 04 e8 0c 3d
       0.07872954 0.10280869 0.09941509 0.034400955
000010 92 b0 6f bd a9 1b 2b 3d fc 5d b9 3d 88 cb 81 3e
       -0.058518 0.041774426 0.09051129 0.25350595
000020 3b 92 f0 3d ac 02 16 3b ad 92 b3 bd 79 99 0b 3e
       0.11746641 0.0022889776 -0.087682106 0.13632764
000030 4c ae 5a 3e 72 bf e9 3d 50 a8 09 3d 3d 3d 0a 3d
       0.21355551 0.114134684 0.03360778 0.033749808
000040 5a e7 77 3e 82 e7 a1 3d a9 e3 82 3d 0b 0b 19 bd
       0.24209347 0.07905485 0.06391079 -0.037364047
000050 da e8 2c 3e c5 91 c1 3d f4 3a 16 3e a6 76 2d bd
       0.16885701 0.094516315 0.14670926 -0.04234948

exp_avg f4 [128, 240]
000000 ee e4 36 b9 3a 82 19 b9 d6 31 23 b9 96 93 ab b8
       -0.00017442156 -0.0001463973 -0.00015563457 -8.1814054e-05
000010 41 b9 1d b9 2b a4 f8 b8 73 0e a3 b8 1a cc a2 b8
       -0.00015041699 -0.0001185614 -7.775137e-05 -7.762779e-05
000020 bb a5 e0 b8 45 68 03 b9 76 1c 77 b8 fc 1f dc b8
       -0.00010712022 -0.00012531977 -5.8915895e-05 -0.00010496375
000030 84 dd 22 b9 dc aa 6b b8 86 fa 98 b8 5a 62 b3 b8
       -0.00015532045 -5.618749e-05 -7.2945884e-05 -8.5537045e-05
000040 fe 34 14 b9 47 a6 36 b9 b0 76 3d b9 f9 89 9e b8
       -0.00014134121 -0.00017418816 -0.00018068659 -7.5597265e-05
000050 3a 4b 0c b9 97 e6 bc b8 9c db f8 b8 c1 e2 74 b8
       -0.00013379465 -9.007489e-05 -0.00011866467 -5.8385314e-05
000060 f0 d6 38 b9 8e 44 13 b9 f5 26 20 b9 4e c6 af b8
       -0.00017627678 -0.00014044551 -0.00015273302 -8.3815874e-05
000070 9c dd 13 b9 62 1f f3 b8 6a 3a a1 b8 2e b8 aa b8
       -0.00014101568 -0.000115929884 -7.687959e-05 -8.140538e-05
000080 86 d0 dc b8 39 31 07 b9 07 11 80 b8 0a 4b eb b8
       -0.00010529258 -0.0001289294 -6.106687e-05 -0.0001121965
000090 9d 9e 26 b9 6e ac 71 b8 9a a6 98 b8 11 34 ab b8
       -0.00015890082 -5.7619465e-05 -7.278957e-05 -8.1636135e-05
0000a0 eb 69 0e b9 05 68 3b b9 d4 fb 41 b9 45 6f 95 b8
       -0.00013581633 -0.0001787246 -0.00018499728 -7.125599e-05
0000b0 68 22 09 b9 e1 00 b8 b8 98 ac ff b8 85 59 82 b8
       -0.00013078155 -8.7739674e-05 -0.000121914956 -6.2155574e-05
0000c0 ca f0 3e b9 4e bf 1a b9 70 b6 12 b9 ae a4 ad b8
       -0.00018209513 -0.00014757851 -0.00013991608 -8.279957e-05
0000d0 01 0c 0f b9 fc 90 f6 b8 76 ac b0 b8 c4 e3 ac b8
       -0.00013642015 -0.000117571995 -8.424457e-05 -8.244024e-05
0000e0 d2 09 e4 b8 99 36 08 b9 d7 58 72 b8 33 31 00 b9
       -0.000108737164 -0.0001299031 -5.7780035e-05 -0.0001222536
0000f0 81 35 28 b9 94 64 70 b8 33 a9 a4 b8 b7 85 9e b8
       -0.0001604166 -5.731413e-05 -7.851645e-05 -7.5589334e-05
000100 3b b3 19 b9 93 cf 3a b9 41 46 40 b9 c6 4b 98 b8
       -0.00014657986 -0.0001781567 -0.00018336718 -7.262039e-05
000110 4b ff 08 b9 f0 ec c2 b8 8c 7d fa b8 8e b6 69 b8
       -0.00013065075 -9.294774e-05 -0.00011944314 -5.5721546e-05
000120 60 30 3c b9 41 5a 1a b9 d6 b2 13 b9 f4 e6 ac b8
       -0.00017947098 -0.00014720207 -0.00014085634 -8.2446175e-05
000130 f2 4d 13 b9 16 38 fe b8 18 92 bb b8 1d 40 af b8
       -0.0001404805 -0.00012122111 -8.944067e-05 -8.356592e-05
000140 80 42 db b8 f9 d8 0e b9 58 e1 6c b8 7b 2e f8 b8
       -0.0001045512 -0.00013623004 -5.6476652e-05 -0.00011834219
000150 6a b6 2d b9 ab 90 7c b8 62 6e 9b b8 4a e1 97 b8
       -0.0001656652 -6.0216214e-05 -7.411536e-05 -7.2422044e-05
000160 24 ff 18 b9 a8 54 38 b9 be 48 45 b9 2b c9 9a b8
       -0.00014590897 -0.00017579144 -0.00018814483 -7.380763e-05
000170 98 84 09 b9 0b 70 c3 b8 f0 4a f7 b8 3e 49 50 b8
       -0.00013114733 -9.319194e-05 -0.00011791836 -4.9659277e-05
000180 dc 2d 3b b9 2b 2d 1c b9 e3 b6 12 b9 15 d2 ac b8
       -0.00017850794 -0.00014894146 -0.00013991776 -8.24073e-05
000190 dc b9 12 b9 0f 49 fa b8 46 3b af b8 5c 44 b5 b8
       -0.00013992883 -0.00011934537 -8.355691e-05 -8.6434855e-05
0001a0 8b 8d ce b8 32 9c 0e b9 93 d2 84 b8 d4 47 f1 b8
       -9.84921e-05 -0.00013600363 -6.333473e-05 -0.000115051545
0001b0 1e 15 26 b9 ce 4d 81 b8 ae 68 9c b8 cc db a1 b8
       -0.0001583886 -6.1656916e-05 -7.458158e-05 -7.7180186e-05
0001c0 e9 18 1b b9 8d 1e 36 b9 7f b4 46 b9 05 c2 a6 b8
       -0.00014791232 -0.00017368254 -0.00018949991 -7.951636e-05
0001d0 18 c2 09 b9 a6 32 ca b8 51 05 fd b8 b2 52 56 b8
       -0.00013137644 -9.6415446e-05 -0.0001206497 -5.1098592e-05
0001e0 06 e4 3a b9 ab 36 19 b9 98 0d 16 b9 51 b3 9f b8
       -0.00017823288 -0.00014611582 -0.00014310179 -7.615111e-05
0001f0 16 14 17 b9 2c c9 fb b8 13 b1 ad b8 a5 82 ad b8
       -0.00014407965 -0.00012006084 -8.2822655e-05 -8.273617e-05
000200 51 d1 da b8 d4 f6 09 b9 1d b3 84 b8 6b c1 e6 b8
       -0.00010434038 -0.00013157289 -6.327613e-05 -0.000110032815
000210 c0 e0 29 b9 e1 6b 7a b8 37 a4 a8 b8 47 6e 97 b8
       -0.00016200822 -5.9705115e-05 -8.041452e-05 -7.220782e-05
000220 45 1e 1f b9 ab ab 35 b9 1a 61 45 b9 0f 11 a8 b8
       -0.00015174698 -0.00017325456 -0.00018823557 -8.014042e-05
000230 de ed 0b b9 6a b9 c7 b8 d4 2d ff b8 7c 64 5e b8
       -0.00013344685 -9.5235955e-05 -0.00012167884 -5.3022508e-05
000240 ac 14 36 b9 93 a6 12 b9 8b 28 17 b9 01 81 93 b8
       -0.00017364573 -0.00013985699 -0.00014415586 -7.033535e-05
000250 62 09 18 b9 58 64 03 b9 fe 5e a8 b8 95 1b b8 b8
       -0.00014499345 -0.00012530515 -8.028558e-05 -8.778941e-05
000260 59 5e df b8 9b d7 07 b9 e1 44 8e b8 f2 7b e0 b8
       -0.00010651042 -0.00012954923 -6.783917e-05 -0.00010704239
000270 6e 3c 25 b9 b6 fe 7f b8 0f c2 b6 b8 93 14 9b b8
       -0.00015758138 -6.1033956e-05 -8.7145825e-05 -7.394808e-05
000280 31 f8 23 b9 b4 d0 32 b9 09 54 45 b9 ff ca 9f b8
       -0.0001563735 -0.00017053151 -0.0001881869 -7.619522e-05
000290 35 b2 0e b9 e4 44 cc b8 db d6 f8 b8 21 f2 56 b8
       -0.00013608563 -9.74031e-05 -0.000118655815 -5.1247076e-05
0002a0 e6 57 3a b9 9a 2a 0d b9 5b c9 1a b9 eb 84 9a b8
       -0.00017771087 -0.00013462678 -0.00014761595 -7.36805e-05
0002b0 cc cd 15 b9 1d 13 02 b9 fd bc af b8 ec 4c b1 b8
       -0.00014286413 -0.00012404886 -8.379852e-05 -8.4543455e-05
0002c0 0b 09 df b8 76 bb 09 b9 0e 4e 94 b8 9e ba d8 b8
       -0.00010635153 -0.00013135173 -7.071729e-05 -0.00010334443
0002d0 6e b9 2c b9 86 70 7f b8 9a e9 b7 b8 3f 9f a0 b8
       -0.00016472276 -6.0901533e-05 -8.769632e-05 -7.6590564e-05
0002e0 ab 7e 1f b9 16 5d 3b b9 fa 69 44 b9 46 6a 98 b8
       -0.00015210609 -0.00017868387 -0.00018731496 -7.26772e-05
0002f0 ce 89 0c b9 de 18 cd b8 aa 7a f9 b8 b9 4a 56 b8
       -0.00013402777 -9.7797936e-05 -0.00011896093 -5.1091167e-05
000300 96 f9 3e b9 6d da 05 b9 bf 8d 14 b9 2d 72 a0 b8
       -0.0001821279 -0.00012765238 -0.00014167184 -7.6506614e-05
000310 22 f1 0f b9 44 e2 fa b8 0a 55 c2 b8 15 7d b3 b8
       -0.00013727372 -0.00011963074 -9.2664806e-05 -8.5586835e-05
000320 e9 7b db b8 e0 21 00 b9 c2 48 a2 b8 7b 57 dc b8
       -0.00010465814 -0.0001221965 -7.738314e-05 -0.00010506712
000330 36 7b 26 b9 0b 33 73 b8 58 ac b3 b8 fc c3 a9 b8
       -0.00015876893 -5.7983252e-05 -8.567487e-05 -8.095053e-05
000340 92 9e 1b b9 bc 8a 3e b9 f3 f5 42 b9 19 8a a1 b8
       -0.00014841024 -0.00018171495 -0.00018592905 -7.702801e-05
000350 26 65 0c b9 78 56 d0 b8 53 fa f3 b8 0e be 7f b8
       -0.00013389121 -9.934319e-05 -0.000116337695 -6.097374e-05
000360 4d bf 3c b9 8d 85 07 b9 8e 73 12 b9 34 ee a4 b8
       -0.00018000342 -0.00012924355 -0.00013966692 -7.864498e-05
000370 c3 7f 14 b9 3c 1f 00 b9 af 7c bf b8 14 30 ad b8
       -0.00014161975 -0.00012218667 -9.130814e-05 -8.258238e-05
000380 06 b6 cf b8 b3 23 04 b9 ce 1a 8d b8 87 32 db b8
       -9.904434e-05 -0.000126018 -6.728397e-05 -0.00010452145
000390 0e 1c 27 b9 fa cd 52 b8 03 d6 cf b8 89 3f ac b8
       -0.00015936812 -5.0259732e-05 -9.910392e-05 -8.2134335e-05
0003a0 1f 92 1c b9 58 fb 42 b9 ed 01 3f b9 da 36 9a b8
       -0.00014931754 -0.00018594915 -0.00018215897 -7.353509e-05
0003b0 02 37 10 b9 ac 85 d2 b8 13 1a fe b8 c5 4b 8a b8
       -0.00013753402 -0.00010038479 -0.000121165205 -6.594466e-05
0003c0 20 45 e7 b8 b3 9b 36 b8 92 35 cd b8 f9 4a cc b7
       -0.00011027814 -4.3537188e-05 -9.78514e-05 -2.4353607e-05
0003d0 9a 8a 13 b8 8e a2 79 b8 e8 82 9b b7 f8 0e d3 b7
       -3.5176614e-05 -5.9517617e-05 -1.8538398e-05 -2.516013e-05
0003e0 f8 ea 85 b8 64 e8 1a b8 9c 6d ad b7 c7 1b 71 b8
       -6.3857005e-05 -3.693289e-05 -2.0674248e-05 -5.7484747e-05
0003f0 21 73 50 b8 98 81 6e b7 a0 c6 bc b7 68 ad 71 b8
       -4.9698287e-05 -1.4216079e-05 -2.2503838e-05 -5.7620375e-05

exp_avg_sq f4 [128, 240]
000000 3c fb c5 34 ec d9 f0 33 03 1f 8f 34 5d 70 07 34
       3.6876907e-07 1.1215511e-07 2.665839e-07 1.2613732e-07
000010 2c 71 7e 34 78 f0 45 34 bd 4e af 33 35 0b ce 33
       2.3696765e-07 1.8434537e-07 8.163395e-08 9.594661e-08
000020 12 99 43 34 72 fd 23 34 ea 03 e0 33 8b d8 41 34
       1.8216477e-07 1.5272761e-07 1.0431525e-07 1.8053304e-07
000030 90 9b 87 34 28 38 aa 33 c3 47 00 34 35 9e 03 34
       2.5258896e-07 7.926457e-08 1.1947036e-07 1.2257881e-07
000040 1a 47 80 34 00 df ac 34 4d ef e1 34 56 0e 12 34
       2.389359e-07 3.219975e-07 4.208363e-07 1.3602525e-07
000050 18 38 5f 34 3a fc d3 33 da 56 1b 34 5d 8f 0a 34
       2.07889e-07 9.871333e-08 1.4467096e-07 1.2904407e-07
000060 03 a1 c6 34 18 b5 f2 33 95 1a 90 34 f0 81 09 34
       3.6997525e-07 1.1301944e-07 2.684143e-07 1.280639e-07
000070 19 20 79 34 72 aa 4e 34 63 74 b4 33 5d ef d3 33
       2.3201609e-07 1.9247253e-07 8.403074e-08 9.868993e-08
000080 5c 12 45 34 da 6a 22 34 ed fb e9 33 19 0b 45 34
       1.8353734e-07 1.5126298e-07 1.0895733e-07 1.8351092e-07
000090 8c ac 89 34 27 5c b4 33 de 62 03 34 a4 9c 06 34
       2.5643783e-07 8.3986656e-08 1.2236293e-07 1.2536708e-07
0000a0 10 59 7e 34 5c c2 ad 34 90 97 e0 34 4f 79 18 34
       2.3687994e-07 3.2365176e-07 4.1833528e-07 1.4200235e-07
0000b0 99 26 65 34 f3 a2 d5 33 65 40 1a 34 39 cf 0e 34
       2.1341329e-07 9.948226e-08 1.4365794e-07 1.3300168e-07
0000c0 ea 44 c7 34 89 bc f2 33 c4 e8 8f 34 2e a7 08 34
       3.711678e-07 1.13032975e-07 2.6805185e-07 1.2726807e-07
0000d0 24 14 73 34 8f 25 4e 34 a0 83 bb 33 36 d5 d2 33
       2.2638466e-07 1.9198909e-07 8.7318085e-08 9.81767e-08
0000e0 e0 0b 46 34 1d f9 22 34 37 b8 f0 33 73 0d 47 34
       1.8444507e-07 1.5178053e-07 1.12093794e-07 1.8538212e-07
0000f0 6f 92 88 34 26 d7 b4 33 e2 e0 03 34 21 2b 0a 34
       2.5438518e-07 8.4210384e-08 1.2282138e-07 1.2867942e-07
000100 50 eb 77 34 01 46 ae 34 10 6c e0 34 a3 ef 17 34
       2.3089274e-07 3.246096e-07 4.1801877e-07 1.415015e-07
000110 ec a9 67 34 96 07 d5 33 55 fb 15 34 6d a4 13 34
       2.1575369e-07 9.919965e-08 1.396814e-07 1.375026e-07
000120 0d 66 c9 34 8a ff ee 33 ae e0 90 34 ab d7 09 34
       3.751342e-07 1.1129221e-07 2.6985566e-07 1.2837579e-07
000130 95 17 74 34 6f 3b 4d 34 92 89 c2 33 d9 2a d3 33
       2.273285e-07 1.9113735e-07 9.058853e-08 9.833247e-08
000140 f6 01 46 34 c6 3c 26 34 a5 da f4 33 00 c0 48 34
       1.84409e-07 1.5482064e-07 1.14019066e-07 1.86963e-07
000150 56 7b 88 34 27 88 b8 33 f3 70 03 34 cb f5 09 34
       2.5421713e-07 8.592934e-08 1.2241416e-07 1.2848538e-07
000160 35 d7 77 34 83 b3 b0 34 e1 ff de 34 5c cc 17 34
       2.308196e-07 3.2913167e-07 4.15369e-07 1.4137316e-07
000170 76 7e 67 34 9c ab d1 33 94 ee 10 34 fb 8b 17 34
       2.1559558e-07 9.7635365e-08 1.349784e-07 1.4113895e-07
000180 7c d2 ca 34 e8 ea ed 33 a2 6a 92 34 34 8f 08 34
       3.777858e-07 1.1078902e-07 2.7272205e-07 1.2718084e-07
000190 7c d4 70 34 ae 3f 49 34 e6 4c c1 33 86 6c d2 33
       2.2429043e-07 1.874275e-07 9.0012506e-08 9.798627e-08
0001a0 db db 45 34 c7 b1 24 34 26 25 f6 33 b0 5a 4a 34
       1.8427038e-07 1.5338365e-07 1.1462025e-07 1.8845708e-07
0001b0 c6 e5 88 34 86 2b ba 33 c6 6d 03 34 ae 5a 07 34
       2.5499156e-07 8.669217e-08 1.2240261e-07 1.2605844e-07
0001c0 e5 ca 7b 34 38 8e b3 34 59 a4 db 34 4a eb 19 34
       2.3450009e-07 3.3444826e-07 4.0911507e-07 1.4334833e-07
0001d0 a7 53 66 34 de 54 d5 33 5f 80 13 34 66 8f 1c 34
       2.1450852e-07 9.934023e-08 1.3737143e-07 1.45808e-07
0001e0 b2 c2 cb 34 8f 7d ec 33 87 ce 92 34 bc f8 06 34
       3.7953356e-07 1.10124454e-07 2.7344888e-07 1.2570212e-07
0001f0 50 2a 74 34 53 5a 49 34 24 b9 bf 33 cc 6a d5 33
       2.2739664e-07 1.8752444e-07 8.9278075e-08 9.938012e-08
000200 59 02 43 34 a4 0c 26 34 a1 2d f4 33 d6 3f 48 34
       1.8161644e-07 1.5464553e-07 1.1370435e-07 1.8649675e-07
000210 54 d8 86 34 95 b5 b6 33 f8 c4 07 34 f3 71 07 34
       2.5116844e-07 8.508065e-08 1.2644512e-07 1.2614309e-07
000220 c0 83 7b 34 36 bb b4 34 b3 2c dc 34 dc 03 20 34
       2.3424127e-07 3.3663827e-07 4.1010716e-07 1.4902565e-07
000230 fb c9 67 34 0d 22 da 33 d2 89 16 34 bf d7 1c 34
       2.1587032e-07 1.015761e-07 1.4019977e-07 1.460712e-07
000240 61 d6 cb 34 1c 07 eb 33 d9 2b 94 34 85 ff 04 34
       3.7967678e-07 1.09443334e-07 2.7599052e-07 1.2386415e-07
000250 22 18 78 34 d6 db 4c 34 8a 88 c3 33 a7 50 df 33
       2.310558e-07 1.9078956e-07 9.1052314e-08 1.0398917e-07
000260 71 32 43 34 ae 89 25 34 38 33 f0 33 5a f2 44 34
       1.817914e-07 1.541691e-07 1.11851875e-07 1.834209e-07
000270 9a 9c 85 34 60 a5 bb 33 36 1c 09 34 f2 18 05 34
       2.4887123e-07 8.7379476e-08 1.2769382e-07 1.2395665e-07
000280 47 58 7e 34 0b f9 b5 34 72 2d da 34 fe dc 1d 34
       2.3687709e-07 3.389508e-07 4.063873e-07 1.4702161e-07
000290 70 ee 6b 34 c5 6a e0 33 ec 12 17 34 34 85 1b 34
       2.1972824e-07 1.0450234e-07 1.4069855e-07 1.4483959e-07
0002a0 94 ec cb 34 3a 20 e8 33 c3 77 97 34 58 eb 01 34
       3.798383e-07 1.0809204e-07 2.821308e-07 1.2099679e-07
0002b0 d1 e1 72 34 7a 9b 49 34 15 bf c3 33 38 89 e5 33
       2.2620158e-07 1.8776146e-07 9.115153e-08 1.06886034e-07
0002c0 a6 b9 46 34 e7 82 25 34 71 19 e7 33 e2 3f 44 34
       1.8507725e-07 1.5414444e-07 1.07614035e-07 1.8277163e-07
0002d0 69 71 87 34 97 ce b8 33 bc e0 07 34 7c e7 04 34
       2.5228226e-07 8.605746e-08 1.2654613e-07 1.2377672e-07
0002e0 66 c4 7f 34 2e 00 b6 34 3b c4 d9 34 59 3d 23 34
       2.3820175e-07 3.3900272e-07 4.0562176e-07 1.5202876e-07
0002f0 3d dc 6e 34 09 1a e5 33 3e f7 18 34 cc 44 1d 34
       2.22456e-07 1.0668379e-07 1.424605e-07 1.4646793e-07
000300 6f 47 d0 34 d3 0d e8 33 4a 20 9a 34 76 2a ff 33
       3.8794994e-07 1.08058565e-07 2.870823e-07 1.18820864e-07
000310 04 ec 6e 34 2a a7 4e 34 66 5b c4 33 5f 79 eb 33
       2.2251339e-07 1.9246059e-07 9.1435865e-08 1.09651175e-07
000320 1d 0b 47 34 b6 17 24 34 dd 83 e6 33 7a cc 44 34
       1.8537362e-07 1.5282316e-07 1.07341954e-07 1.832831e-07
000330 01 a3 8a 34 ed 96 bc 33 99 ca 06 34 06 51 05 34
       2.5823104e-07 8.7818854e-08 1.2553427e-07 1.2416066e-07
000340 89 99 7e 34 8e 23 b3 34 ce e2 d9 34 6f e5 24 34
       2.3711449e-07 3.3367218e-07 4.0584422e-07 1.5357158e-07
000350 aa ae 6c 34 ea 2d e8 33 a6 d9 19 34 9c e4 16 34
       2.2042755e-07 1.08116936e-07 1.4328415e-07 1.4053006e-07
000360 c0 a4 d3 34 a0 ef ed 33 3e 7b 98 34 4f b6 06 34
       3.9421684e-07 1.107976e-07 2.8401877e-07 1.2546046e-07
000370 d0 fa 6c 34 8b f2 4a 34 e9 94 c1 33 07 78 e6 33
       2.2070458e-07 1.8900953e-07 9.0143494e-08 1.07320425e-07
000380 0a dd 3f 34 19 c4 27 34 a9 86 e7 33 80 0d 3d 34
       1.7868675e-07 1.5624427e-07 1.078127e-07 1.7606908e-07
000390 9c 1a 8a 34 e9 28 c7 33 20 90 0a 34 c6 90 07 34
       2.5723864e-07 9.274101e-08 1.2904684e-07 1.2625523e-07
0003a0 5c fa 81 34 41 ed b4 34 9c 7e d8 34 e9 91 24 34
       2.4210283e-07 3.3700238e-07 4.0325256e-07 1.5326772e-07
0003b0 4d c2 68 34 50 cc ec 33 dd f5 1b 34 5b 1d 16 34
       2.167737e-07 1.10267706e-07 1.4524944e-07 1.3980518e-07
0003c0 aa 7c 16 35 ad 71 3b 34 d1 e3 e8 34 a6 7e 1f 34
       5.6060765e-07 1.7457087e-07 4.3379126e-07 1.4854103e-07
0003d0 15 fb a5 34 df 9c 9b 34 fd 1e 06 34 9a e6 11 34
       3.091633e-07 2.8985139e-07 1.2490996e-07 1.358807e-07
0003e0 43 0d 83 34 d4 bc 55 34 52 79 11 34 33 78 83 34
       2.44103e-07 1.9905866e-07 1.3548313e-07 2.4488108e-07
0003f0 16 1e ae 34 b5 85 d1 33 12 98 12 34 d0 2b 2f 34
       3.2431916e-07 9.756642e-08 1.3652632e-07 1.6314084e-07

exp_avg f4 [128]
000000 64 3d 66 b9 8f a0 c5 b8 04 00 00 00 04 00 00 00
       -0.00021957379 -9.4235984e-05 6e-45 6e-45
000010 04 00 00 00 04 00 00 00 04 00 00 00 c7 c7 43 b8
       6e-45 6e-45 6e-45 -4.667768e-05
000020 04 00 00 00 04 00 00 00 04 00 00 00 04 00 00 00
       6e-45 6e-45 6e-45 6e-45
000030 04 00 00 00 40 26 db 38 04 00 00 00 2d 9f 52 38
       6e-45 0.000104498584 6e-45 5.0216146e-05
000040 04 00 00 00 eb 21 fc 38 04 00 00 00 04 00 00 00
       6e-45 0.00012022614 6e-45 6e-45
000050 04 00 00 00 04 00 00 00 fb 31 0d 39 3c 53 18 b8
       6e-45 6e-45 0.00013465427 -3.6317142e-05
000060 04 00 00 00 04 00 00 00 80 3f 72 b7 2d ea ef b8
       6e-45 6e-45 -1.4439109e-05 -0.00011440027
000070 94 79 cf b7 04 00 00 00 04 00 00 00 00 00 00 00
       -2.4732937e-05 6e-45 6e-45 0.0
000080 b9 25 c0 b9 00 00 00 00 8e e9 42 b9 a8 15 9a b9
       -0.000366492 0.0 -0.00018588288 -0.00029389304
000090 54 c6 a6 b9 9b 7a 22 b9 04 00 00 00 24 0e d3 37
       -0.00031809753 -0.00015495198 6e-45 2.5159745e-05
0000a0 ce a7 dd 38 04 00 00 00 04 00 00 00 cc 01 81 38
       0.00010569357 6e-45 6e-45 6.151534e-05
0000b0 e3 ed 2f b9 ea fe b1 39 00 00 00 00 22 88 94 39
       -0.0001677792 0.00033949997 0.0 0.00028330187
0000c0 04 00 00 00 30 88 36 39 04 00 00 00 f7 0e 9a b8
       6e-45 0.00017407606 6e-45 -7.34608e-05
0000d0 78 c9 b9 b8 32 53 11 b8 2e 29 ec b8 04 00 00 00
       -8.859014e-05 -3.4648176e-05 -0.00011261027 6e-45
0000e0 6b 1f 30 b9 04 00 00 00 2e 39 39 b9 8f 6c a4 b8
       -0.00016796372 6e-45 -0.00017664276 -7.84035e-05
0000f0 04 00 00 00 a8 1e 86 38 01 83 20 39 9a 3e 3d b9
       6e-45 6.395328e-05 0.00015307592 -0.00018047765
000100 28 fe b6 37 97 27 a8 b8 04 00 00 00 04 00 00 00
       2.1814441e-05 -8.0182384e-05 6e-45 6e-45
000110 04 00 00 00 04 00 00 00 04 00 00 00 73 f3 2a b9
       6e-45 6e-45 6e-45 -0.00016303155
000120 56 6e de 38 04 00 00 00 04 00 00 00 2c 82 02 39
       0.000106063366 6e-45 6e-45 0.00012446259
000130 dd d2 73 39 04 00 00 00 04 00 00 00 00 00 00 00
       0.00023252839 6e-45 6e-45 0.0
000140 04 00 00 00 04 00 00 00 00 00 00 00 00 00 00 00
       6e-45 6e-45 0.0 0.0
000150 04 00 00 00 9e f6 88 b9 3f 04 36 39 04 00 00 00
       6e-45 -0.00026123686 0.00017358454 6e-45
000160 04 00 00 00 96 19 77 39 00 2d f2 35 04 00 00 00
       6e-45 0.00023565287 1.8043502e-06 6e-45
000170 04 00 00 00 f3 03 ed b7 99 d1 13 b8 04 00 00 00
       6e-45 -2.825444e-05 -3.5242734e-05 6e-45
000180 cc 44 10 b9 04 00 00 00 d4 1d ff 38 7d 55 26 39
       -0.00013758539 6e-45 0.000121649035 0.0001586284
000190 04 00 00 00 04 00 00 00 04 00 00 00 63 71 c7 38
       6e-45 6e-45 6e-45 9.5101794e-05
0001a0 04 00 00 00 3f ab 4f b8 04 00 00 00 48 7f 13 b9
       6e-45 -4.951213e-05 6e-45 -0.00014066428
0001b0 04 00 00 00 e5 82 68 b9 70 8f 52 b6 46 92 82 39
       6e-45 -0.00022174006 -3.137593e-06 0.00024904514
0001c0 04 00 00 00 02 75 e6 b8 18 4f 21 b9 00 00 00 00
       6e-45 -0.00010989049 -0.00015383621 0.0
0001d0 04 00 00 00 c2 06 0e 38 00 00 00 00 04 00 00 00
       6e-45 3.3861732e-05 0.0 6e-45
0001e0 00 00 00 00 5f 46 e6 39 04 00 00 00 e9 fb 0c 39
       0.0 0.0004392145 6e-45 0.00013445284
0001f0 14 d8 5a b8 00 00 00 00 fa 0b 72 37 04 00 00 00
       -5.217649e-05 0.0 1.4427113e-05 6e-45

exp_avg_sq f4 [128]
000000 56 94 1b 35 eb 58 57 35 c1 88 ba 2b 9a 75 8a 2e
       5.7957857e-07 8.0223134e-07 1.3254052e-12 6.296404e-11
000010 eb a2 78 2c 55 7c b3 30 51 4c a3 2d 69 0a 72 35
       3.5333357e-12 1.3059301e-09 1.8564846e-11 9.0167174e-07
000020 b7 93 7f 2f 4b b0 00 2f d6 20 18 2a 61 59 94 2f
       2.3244594e-10 1.1704164e-10 1.3511704e-13 2.698455e-10
000030 57 4b 1b 28 51 62 68 35 76 03 57 2c 03 18 a9 34
       8.620565e-15 8.6569804e-07 3.0555259e-12 3.1496174e-07
000040 30 77 1a 2c a6 63 7f 35 a0 44 d8 27 80 3c 06 31
       2.1950879e-12 9.513991e-07 6.0026447e-15 1.9533957e-09
000050 f8 61 37 2f 82 7a 22 2e d1 90 e6 34 1b ad 09 35
       1.6678559e-10 3.6943344e-11 4.2946206e-07 5.128838e-07
000060 7c 58 bc 30 ed d0 77 2f 55 7a 14 35 e2 69 c5 34
       1.3703949e-09 2.2538744e-10 5.5312313e-07 3.677115e-07
000070 bc c3 f4 34 8c af 60 30 6e fc 6f 2d 00 00 00 00
       4.5590957e-07 8.174019e-10 1.3641628e-11 0.0
000080 c7 6d b6 35 00 00 00 00 73 91 77 35 78 01 06 36
       1.3592006e-06 0.0 9.2226327e-07 1.996841e-06
000090 92 f5 49 35 ce 49 c3 34 90 a1 70 30 19 fc 5f 35
       7.5235687e-07 3.637528e-07 8.7541085e-10 8.3440824e-07
0000a0 d5 e3 69 35 46 ce f5 2f 68 5b 4b 2a 9e d7 1c 36
       8.7130803e-07 4.4711806e-10 1.8061735e-13 2.3371317e-06
0000b0 d4 eb 27 35 ba e6 70 35 00 00 00 00 b9 ed 6b 35
       6.2555523e-07 8.974272e-07 0.0 8.7890254e-07
0000c0 9c 86 97 2c 4e d1 63 35 d1 f5 c9 2d fa ac c5 35
       4.3066228e-12 8.486867e-07 2.2960219e-11 1.4727987e-06
0000d0 cb 81 25 35 ab e6 f9 34 1e 4f 4e 35 9d c0 8d 30
       6.1656164e-07 4.6547697e-07 7.685611e-07 1.0313844e-09
0000e0 d8 9e 65 35 11 45 50 2d 6d c7 88 35 bf d5 92 35
       8.5540296e-07 1.1838767e-11 1.019083e-06 1.0940056e-06
0000f0 5f 1c d9 2d 1c 00 96 35 27 6d 91 35 5d 75 26 35
       2.4682643e-11 1.1175903e-06 1.0835109e-06 6.2010605e-07
000100 40 59 2f 35 68 db 5d 35 cb 49 03 31 62 ee 4d 2f
       6.5322456e-07 8.2648194e-07 1.9104955e-09 1.8729332e-10
000110 8b 4d 64 30 77 22 e4 2f 16 f0 9b 2c d8 a5 79 35
       8.305611e-10 4.1497447e-10 4.43202e-12 9.3001063e-07
000120 62 1d a4 35 11 6e 20 31 6a e5 b7 30 ec 75 42 35
       1.2227504e-06 2.334563e-09 1.3380206e-09 7.244223e-07
000130 c0 26 35 35 3f af cf 2f 6e 9b 8e 23 00 00 00 00
       6.7484143e-07 3.77776e-10 1.5461498e-17 0.0
000140 00 7a 38 2f 15 62 9a 2e 00 00 00 00 00 00 00 00
       1.6778046e-10 7.020532e-11 0.0 0.0
000150 58 e2 d4 2f e6 e7 64 35 dd 0f 5b 35 5e 49 52 30
       3.8723402e-10 8.5274075e-07 8.160694e-07 7.6501816e-10
000160 c5 ac 59 2b 6f 2b 06 35 c0 9d 8a 35 41 0e f7 2f
       7.7333653e-13 4.9982094e-07 1.0327713e-06 4.4939166e-10
000170 2d 0f 6a 2b 71 c2 4d 35 bb 03 9e 35 86 5e 45 2d
       8.315456e-13 7.66514e-07 1.1773003e-06 1.1219142e-11
000180 8b 47 74 35 33 7d b7 2f b7 62 45 35 47 7b 09 35
       9.100119e-07 3.3376465e-10 7.353187e-07 5.121587e-07
000190 5f 9a 07 2d b6 08 87 2f 22 53 38 30 51 74 d8 35
       7.708139e-12 2.4562546e-10 6.705695e-10 1.6127107e-06
0001a0 5e 55 f2 28 7f f9 07 36 a1 65 34 30 9f a7 16 35
       2.690442e-14 2.0261793e-06 6.562804e-10 5.6123275e-07
0001b0 43 d4 8d 30 65 85 28 35 e9 b8 4f 35 35 e2 58 35
       1.0319429e-09 6.277899e-07 7.738259e-07 8.0795445e-07
0001c0 60 69 13 32 6f 8f de 35 26 8b 52 35 00 00 00 00
       8.580486e-09 1.6582034e-06 7.8433584e-07 0.0
0001d0 47 57 af 2e 92 7d 33 35 00 00 00 00 97 06 bb 2e
       7.973582e-11 6.6865425e-07 0.0 8.504946e-11
0001e0 00 00 00 00 06 a7 46 35 f9 3e 7f 2e 41 8c 25 35
       0.0 7.40038e-07 5.8036218e-11 6.1671386e-07
0001f0 5f 9e 0b 35 00 00 00 00 77 98 00 35 f9 c8 6e 2f
       5.2011995e-07 0.0 4.790558e-07 2.1717374e-10
