models/preliminary_results_models/RaceMultiOutputModel4v1/model.pt (torch, 496559 bytes, 18 tensors)

fc1.weight f4 [128, 240]
00000000: d96c de3c 1b31 0abd f731 83bc 82f9 e23c
00000010: b558 80bd 8aca 1c3d 4ed3 75bc 6cf8 d53c
00000020: 26b1 c237 55c3 adbc 5610 5c3c fe5a 41bc
00000030: fbbc 653c 6854 14bd fdf8 86bc c894 97bc
00000040: 9ac3 debb 86f6 85bc ecc2 1c3d 1910 9839
00000050: bdc1 c8bc fa2a 12bd 8526 c3bb ec8f a4bc
00000060: 2a31 4ebc 3d99 403c 351d 4e3d 6730 523d
00000070: 8be3 69bd 52fd 2a3d 962a 8d3c a4fd 763d
00000080: d26d 293d 43dc 6bbd 1f75 80bd b373 23bd
00000090: ca2c 573d 2b4f 7ebc 238d d03c b9b2 a6bc
000000a0: d787 8c3d ad3c dfbc 3e97 243d 325f babb
000000b0: fd2c 09bd 253c 1c3d 50e5 debc aa13 eb3c
000000c0: 41c7 42ba e68c ff3b 76ad 88bd d159 00bd
000000d0: 3869 203d 8c2f 60bc c2cc 823d 0544 603d
000000e0: 63f7 a03b 6e70 20bd f415 1f3d 4179 d13c
000000f0: 885e 36bd 7726 163d 2f48 1b3d 3bce 673d
00000100: 72ee 05bd ea9a 90bb e71e 763b 2b61 543c
00000110: 3e5b 48bd fb05 34bd 9f36 fb3c a797 9bbc
00000120: ac2b f53c 7fee 873b 4310 a43c 5782 513c
00000130: 4c4e c73c 3d99 063d 1ef3 69bd d393 f73c
00000140: fb62 2abd 9009 35bd f759 d13b c1fe 1fbc
00000150: 7273 233d 06e1 0cbd 3497 6abd a4f3 493d
00000160: 092d 82bb d1e5 303d d042 133c d610 7ebd
00000170: daf8 5a3a 6f2d f33a 04d8 5bbd 46dd 33bd
00000180: 6c58 c93b af9f 2cbb 788d 39bd 7568 16bd
00000190: a815 763d ccbc 1cbc 41db 1d3d 39e0 013d
000001a0: 6b1f 18bd 4498 51bd c7f1 843d a4b3 f13b
000001b0: 8cee 283d 4d89 433c 95a8 933c 35d0 303d
000001c0: 58b8 463d 6438 56bd 02bd 02b9 6097 213d
000001d0: 75fc 173d d714 e43c 53ce 71bd 08d1 61bd
000001e0: 22fd febc 0568 873c c11b 953d 1b2b f9bc
000001f0: fa1c 3c3d 968c cbbc 6870 4ebd b806 46bb
00000200: b738 4f3d d2b6 983d 3099 39bd 10b0 d93b
00000210: c0a0 4a3d 0415 113d 4226 003d 364e 143d
00000220: a294 d93c fc2d 413b cfe4 62bd 627e 88bd
00000230: f4a1 ecbc b7e1 70bb e4fb 0fbd 9e6c cc3c
00000240: 5876 a63c ffb4 5fbc 6b54 d83c d45c ca3c
00000250: cc23 2d3d 7fab 2d3d 1453 b7bc 0120 873d
00000260: 7b4a 8dbb 9ea5 d1b9 960b 78bd fce4 31bd
00000270: 1ab8 20bd b4a9 ecbc 05c0 243d 9db3 f0bc
00000280: 41d7 38bd 3fcd d63c 902f c03c 191c 323d
00000290: e05e 03bd cde6 703c b2ce b3bc c078 4cbc
000002a0: 7141 36bd db16 adbc 96db 83bc ac0a fb3c
000002b0: 43b2 6f3c 09ed 963c 9813 893d e230 863d
000002c0: 238e 413d 2dc5 663b 1e9a 23bd 8a4d 693d
000002d0: f092 8fbc b472 a8bb 725c 54bd d79e 13bc
000002e0: f458 18bd 92c3 843d bb0f 49bd c06f 2fbd
000002f0: a576 1f3c 2b3a c0bc d2d6 be3c a5d5 b5bc
00000300: c7fe fbbc fd7c 343b 9452 3b3d 9795 3cbd
00000310: fc5f f43c 8b3c 263d 79e1 803d ffa4 39bd
00000320: 5c51 493c af15 52bd a9c4 513d 0fe4 eebc
00000330: 8fa7 0d3d 2475 20bb d67a 17bc 2063 d6bb
00000340: 5df2 bb3b 2a15 cd3c 61ab 463c 5460 af3c
00000350: 3677 68bd cbff 453d 13d8 6b3d 41bb 5e3d
00000360: 8a01 473d 9d2e 38bd 6ce6 b3bc 4b3c 723d
00000370: d2c9 53bd 5f32 653d 55a1 5abd 918e 44bd
00000380: d97a ee3c 2e9f 48bd a671 8fbc 5b55 353d
00000390: 1c71 463d 4c48 6f3d 937e 5bbc f1a8 4ebd
000003a0: 82b2 813d 2a5a 62bc 7af3 d9bc b761 803c
000003b0: 603e 39bd b74e 2d3d 985f 243d c2d9 53bd
000003c0: b054 71bd aa24 3dbc 94be ad3c abc5 febb
000003d0: ed3f 1ebd 2c8f 91bb 456a 88bd 162b 53bd
000003e0: ec2d 48bd 3c94 413d 1b89 513d 950b e2bc
000003f0: 3384 32bb 5d88 bd3c 7e64 083b c5fa 1bbd
0.027151512 -0.033738237 -0.016015036 0.027706865 -0.062669195 0.038279094 -0.015003992 0.026119433
2.3209093e-05 -0.021211306 0.013431629 -0.011801479 0.014022107 -0.03621331 -0.016476149 -0.018503562
-0.00679822 -0.016352903 0.03827183 0.00029003693 -0.024506444 -0.035685517 -0.0059555196 -0.020088159
-0.012584964 0.011755285 0.050320823 0.05131569 -0.057101768 0.04174549 0.01723222 0.060300484
0.0413645 -0.057583105 -0.06272339 -0.03990526 0.05253295 -0.015521805 0.025457924 -0.020348893
0.06861847 -0.027250612 0.0401833 -0.0056876177 -0.03349017 0.038143296 -0.027208954 0.0286959
-0.0007430204 0.007798779 -0.0667371 -0.031335656 0.039162844 -0.013683211 0.06386711 0.05475237
0.0049123033 -0.03916972 0.038839296 0.025570514 -0.044523746 0.036657777 0.037910637 0.05659316
-0.032698102 -0.0044129984 0.003755504 0.01296262 -0.04891514 -0.043951016 0.030665694 -0.018993212
0.029928051 0.004148304 0.020027285 0.012787423 0.024329327 0.032860983 -0.05711662 0.030221855
-0.0415983 -0.044198573 0.0063888985 -0.009765328 0.03990502 -0.034394287 -0.057273105 0.04930462
-0.0039726538 0.04318792 0.008988097 -0.062027775 0.0008353122 0.0018552969 -0.053672805 -0.043912195
0.006144574 -0.0026340296 -0.04530093 -0.03672071 0.060079247 -0.009566497 0.038539175 0.031707976
-0.037139338 -0.051170602 0.06491428 0.007376151 0.04124312 0.0119345905 0.018024722 0.04316731
0.048515648 -0.052299872 -0.00012468177 0.039451003 0.037105996 0.027841968 -0.059034657 -0.05513099
-0.031126563 0.016529093 0.07280684 -0.030416062 0.04592607 -0.02484731 -0.050400168 -0.0030216407
0.050591197 0.07456745 -0.045312107 0.0066433027 0.04946971 0.035420433 0.031286485 0.0362074
0.026560131 0.0029476872 -0.05539399 -0.066647306 -0.028885819 -0.003675563 -0.03515233 0.024954136
0.020320103 -0.013653993 0.026407441 0.024702467 0.042270467 0.04239988 -0.022378482 0.06597901
-0.0043118573 -0.0003998698 -0.060557924 -0.043431267 -0.039238073 -0.028889515 0.040222187 -0.029382521
-0.045127157 0.026220916 0.02346018 0.043483827 -0.0320729 0.014703465 -0.021949146 -0.012479961
-0.044496004 -0.021129062 -0.016095918 0.030644737 0.014629903 0.018423574 0.0669319 0.065522924
0.047254693 0.003521274 -0.0399419 0.056958713 -0.01752612 -0.005140627 -0.051845975 -0.009010038
-0.037194207 0.064826146 -0.049087267 -0.042831182 0.009732877 -0.023465237 0.023295794 -0.0221966
-0.030761136 0.002754032 0.04573305 -0.046041097 0.029830925 0.040585082 0.062930055 -0.04532337
0.012287464 -0.05129021 0.05121294 -0.029161481 0.034583624 -0.0024483884 -0.009245595 -0.0065425783
0.005735679 0.025034506 0.012125821 0.021408238 -0.056754313 0.048339646 0.05757911 0.054377798
0.048585452 -0.04496633 -0.02196046 0.05913953 -0.051706143 0.05595624 -0.053376514 -0.047987524
0.029111313 -0.04897993 -0.017510246 0.044270854 0.048447713 0.058418557 -0.013396877 -0.050454084
0.06332876 -0.013815442 -0.026605356 0.015671594 -0.0452255 0.042311396 0.040130228 -0.051721342
-0.058918655 -0.011544386 0.021209039 -0.0077750287 -0.038635183 -0.0044421162 -0.06660894 -0.05155476
-0.04887192 0.047260508 0.051156145 -0.027593413 -0.0027239441 0.023136312 0.002081185 -0.03808095

fc1.bias f4 [128]
00000000: 3e2a 55bc c00d 523d 14e7 053d 0e34 17bb
00000010: 7a40 483d 63ca 583d dbd1 26bd a985 40bd
00000020: 6e8a cc3c 40fc 8eba 67f3 17bd c19b 7fbd
00000030: 999e 52bd 62df 12bd 5697 7f3d e8ca 5d3c
00000040: e042 25bd c017 5f3c 9b52 46bd e3e7 31bd
00000050: e0c4 8ebd aa2e 5f3d 0fcc b93a 1716 393d
00000060: 5414 ab3c 5127 873d 3992 c5ba e2ab bfba
00000070: 8baf c2bc 35df 63bc ce45 983c 2c71 e43c
00000080: 5a20 393d fc26 19bd a433 9f3c 89e3 2bbd
00000090: 3a8b 103d 0260 54bd 4695 bcbc 788a 143d
000000a0: 9c3e 40ba d9c6 313d bcf2 26bd cc24 40bd
000000b0: 6f7b b93c 9dc4 fe3c 1868 033d 84da 623c
000000c0: b4ca 253d a4a0 17bc 4bcc 3ebd eb58 563d
000000d0: 817c 86bd ceae 5cbd dd4d e8bc 5952 3c3c
000000e0: 115a 3b3c 5ee6 15bd 0197 32bd 8d4a d8bc
000000f0: 2a09 47bc 16ca 0dbd d23a f63c 3d20 c73c
00000100: c05d 10bd 7241 3cbc 2e1f d33b c02a 033d
00000110: ad72 3cbb dc0a 82bd 5ab9 ef3c 8db4 1cbd
00000120: b2bd 7d3d 2296 34bd 2380 17bd bc66 f0bc
00000130: ae26 bd3c 0e39 933c d0cf 4dbc 4c57 593d
00000140: 57ee 0cbd e4d3 793c 7a44 02bd 86fe 563d
00000150: 75e8 193d 3a24 45bd d219 80bc 7ca0 013d
00000160: c086 e23a f0c2 82bd 738d febc 0fb1 f93a
00000170: af0b d83c 1786 0f3d 4605 7dbc b930 5abc
00000180: 0e2d 1abd 8cb8 39bd a5ce f03c 4dd3 f9bc
00000190: 3432 4e3d a410 153d dc77 10bd 0dba ceba
000001a0: 9aec cebc 5eb9 a2bc 64ec 633d 5a54 be3b
000001b0: c86e a2bc b980 6fba 17ab 49bd bb3d 45bc
000001c0: b4f0 36bc 081e 83bd d53e ca3c 5105 42bd
000001d0: d76f e43c da5c 773d b5eb bebc 353a 7dbd
000001e0: e01d 62bd bc45 e13b 37a7 213b 7d9d 5b3d
000001f0: ba0d ef3c 482a a9bb 207b f53b 533f 0fbd
-0.01301056 0.051282644 0.032691076 -0.0023071798 0.048889615 0.052927386 -0.040727478 -0.04700247
0.024968352 -0.0010908917 -0.03709736 -0.062404398 -0.05142078 -0.035857566 0.062400185 0.013537146
-0.04034698 0.013616502 -0.048418622 -0.043434035 -0.06971145 0.05448786 0.0014175194 0.045187082
0.020883717 0.06599296 -0.0015073485 -0.0014623369 -0.023765346 -0.013908197 0.018587973 0.027885996
0.04519687 -0.037390694 0.019433804 -0.04196504 0.035289027 -0.051849373 -0.023020398 0.036264867
-0.0007333548 0.043402527 -0.040758833 -0.046910092 0.022641866 0.031099612 0.032081693 0.0138460435
0.040476516 -0.009254608 -0.046581548 0.052330893 -0.06566716 -0.053877644 -0.02835744 0.011494243
0.011435048 -0.03659665 -0.04360104 -0.026402736 -0.012148181 -0.034616552 0.030057345 0.024307365
-0.035245657 -0.011490213 0.006442926 0.03202319 -0.0028754876 -0.063497275 0.029263187 -0.038258124
0.061948486 -0.04408849 -0.036987435 -0.029345863 0.023089733 0.017971542 -0.012561753 0.05306177
-0.034406986 0.015248273 -0.031803586 0.052488826 0.037575204 -0.04813025 -0.015637312 0.03164719
0.001728259 -0.063848376 -0.031073308 0.001904996 0.026372759 0.035039987 -0.015443152 -0.01331728
-0.037640624 -0.045342013 0.02939541 -0.030496264 0.050340846 0.036392823 -0.035270557 -0.0015772
-0.025259305 -0.01986378 0.05564536 0.0058083953 -0.019828215 -0.00091363076 -0.04923543 -0.0120386435
-0.011165787 -0.064022124 0.024688164 -0.04736835 0.02788536 0.060391285 -0.023305753 -0.06182309
-0.055204272 0.006874768 0.0024666318 0.05361699 0.02918135 -0.005162511 0.0074914843 -0.0349725

fc2.weight f4 [64, 128]
00000000: 7161 33bd ff15 6f3c fc2e 0ebd 130b 8a3d
00000010: 1b76 6e3d 73a1 e53c 6405 c83c de02 8c3d
00000020: 8c46 953b c01e 05bc d35a 92bc 89cb 853d
00000030: 8fc1 20bd fa58 7d3d 0f7a 863d 90ff 48bd
00000040: c34d 9fbd 3b15 823d 3a81 e03b bc4a 5139
00000050: ad9e f8bc 4be8 f4bc c464 0d3c 5d33 46bd
00000060: 7bfb bfbd 64f4 763c a11b 503d 9ad6 133d
00000070: 3474 bdbc 8a77 903d a5d6 793d d692 2cbd
00000080: 2da7 8abc 01ba 0fbd 28ea b9bb 2e09 443d
00000090: 28f1 bc3c 7297 afbd 0c90 5bbd 9ca7 493d
000000a0: 0c10 9a3d 1918 463c 0070 f2b9 2031 c3bd
000000b0: 02cc 05bd 0958 4e3d f00b 0bbc 6574 7abd
000000c0: 23aa 46bd 309e 9ebd 53e8 dabb e15f 5fbd
000000d0: 2969 863d 6f14 15bd b34c b8bd 59f9 76bd
000000e0: c61c 5dbd c7ee abbc 1c9a 1e3d 2067 723a
000000f0: 9485 77bd b536 c6bd 76a9 99bd 77a1 80bd
00000100: f2b0 1dbd a657 a4bd 48ca 62bd fd89 f03c
00000110: d7a1 43bd c8e3 a33d 5a6f f3bc 1b22 683c
00000120: 0b03 c5bc ca81 fb3a c98b a5bd 7663 76bd
00000130: f4e7 053b 21e9 10bc d583 a63d a410 83bd
00000140: c69e a9bd 559b cf3c d032 f0bb 8be2 45bd
00000150: 7f8b 223c 1d2e 7dbd 2ddf 89bd dbc0 2ebd
00000160: 35bd abbd ede5 be3b 3caf a83c a67a 413d
00000170: ff09 203d f9c3 78bc d8cd 7b3d ff2a 9bbd
00000180: 3b3e 28bb 429c fe3c 8943 57bd 07e4 e3bb
00000190: 4571 11bd 278b 28bd 03d4 403d 193a f4bc
000001a0: 08c6 8abc 54dd a63c 5e4c 38bd b8a6 af3b
000001b0: 2659 49bc b3f9 923b 9419 57bd 0923 ee3c
000001c0: e9ec 233d 9d6f 4a3d 53ff 473b 4674 473d
000001d0: 256b 72bd 8230 963d 3933 833d fd10 ed3c
000001e0: d112 74bd 4240 593b 06ec d9bc 3fdd 0e3d
000001f0: 1bdb 04bd 721d 793d fb92 863d 947f c23b
00000200: 55fb 30bd 773c 5a3d 2eaf 743d f494 183d
00000210: 8288 83bc 32c0 05bd d53b 01bc 1620 24bd
00000220: 1069 e2bc 2497 62bd 71f7 96bd 0796 853d
00000230: c073 6fbb 2062 9bbb 9ca4 fa3c af64 a83d
00000240: 86c1 3a3d ef2f ac3d bef3 abbd d2bb 0d3d
00000250: 029a 9bbd f9c1 a33d da45 7fbd 60d6 8abd
00000260: 349f aebc a86b 9dbd cb7a 823b 9f2c 56bd
00000270: bbd4 1cbd 8fe7 c2bc 5af7 6a3d 9831 88bd
00000280: 3e3c 7cbc e027 0a3d 0746 cd3b d55a 9cbd
00000290: 0ef9 433d b048 583d dbe6 96bd 87a6 6f3a
000002a0: 4374 403d b14a bf3d 10cb 39bd 3a38 7e3d
000002b0: 633d b23c b0b0 8d3c b7c2 92bd f451 1e3d
000002c0: f9bb 3a3d 3f25 97bd ff34 9ebd a1e6 943c
000002d0: e234 89ba bf4d 7ebd b88e 8e3a 2d82 3b3b
000002e0: 539b bc3d d45a ac3d 0a6a 6dbc a884 ad3d
000002f0: 8606 64bd c0eb 73bd e3f2 44bb b950 393d
00000300: 949a 953d c38e 8e3c 10f1 4fbd 887d 2a3d
00000310: 5224 8d3d a720 dc3a 8563 e23c 36d4 67bd
00000320: 8c8a 883d 097e 503c 7788 6bbd 3a34 1f3d
00000330: a4e3 a6bd 56e9 ce3b e686 acbd 78b7 ad3c
00000340: ab86 443d 4e3d 79bd a0df 58bd a3d2 9a3d
00000350: 5b78 723d 3642 643d fa96 79bc 6f8a 5fbd
00000360: 8437 fb3c 185c 65bd dc9c 9d3d e580 16bd
00000370: 61a3 56bd 2373 58bd 7c4e ac3d 78ff 543d
00000380: 91f7 2fbd f0e0 9a3d 5191 a03d b033 f7bc
00000390: 7f83 39bd 9a01 44bd 83d6 b23d c154 2c3c
000003a0: dd83 af3d d075 3e3d b8cc 8dbd 33f7 cbbc
000003b0: b322 6bbb c64e 443d af06 bc3d 8a5d 4b3d
000003c0: 5e0f 523d 9895 5a3c 74fe a53d bc3f cd3c
000003d0: 23dd 783d 79d1 a2bd 523e 6a3d bfba d4bc
000003e0: 08e0 2ebc fd3a 993d 554a 4ebd c51a 2abd
000003f0: d3b2 a3bd 5277 1f3d a846 b3bd b766 7dbc
-0.0437941 0.014592647 -0.034712777 0.067403935 0.058218103 0.028031087 0.024416633 0.068364844
0.004555529 -0.008125007 -0.017865574 0.06532962 -0.03924709 0.061852433 0.065662496 -0.04907185
-0.07778504 0.06351706 0.0068513425 0.00019959634 -0.0303491 -0.029895922 0.008629981 -0.048388828
-0.09374138 0.015072916 0.0508076 0.036093332 -0.023126699 0.0705405 0.060995717 -0.04213222
-0.016925419 -0.035089497 -0.0056736656 0.047860317 0.023064211 -0.08573808 -0.05360417 0.04923211
0.07522592 0.012090706 -0.00046241283 -0.09530854 -0.03266526 0.050376926 -0.008486733 -0.06114616
-0.0485021 -0.077450156 -0.0066805272 -0.054534797 0.065630265 -0.03639644 -0.08999004 -0.06029639
-0.05398252 -0.020987881 0.03872119 0.0009246934 -0.060430124 -0.09678403 -0.07503025 -0.06280797
-0.038498826 -0.0802453 -0.05536869 0.029362673 -0.047761764 0.0800243 -0.029716183 0.014168288
-0.024049303 0.001918846 -0.080833025 -0.060153447 0.0020432444 -0.008844645 0.08130614 -0.06399658
-0.08282237 0.025342623 -0.007330276 -0.04831175 0.009920954 -0.061811555 -0.067320205 -0.04266439
-0.08385698 0.005825749 0.02059137 0.047236107 0.039072033 -0.015183442 0.061475605 -0.0757656
-0.0025671858 0.031080369 -0.05255464 -0.006954673 -0.035508413 -0.04114833 0.04707719 -0.02981286
-0.016940132 0.02036921 -0.044994704 0.0053604506 -0.012289321 0.004485333 -0.052514628 0.02906944
0.040020857 0.04942285 0.0030517175 0.04869487 -0.059184212 0.07333471 0.06406254 0.028938765
-0.059588257 0.0033149873 -0.026601803 0.034878965 -0.032435518 0.060819097 0.06571003 0.0059356187
-0.04320844 0.05328032 0.059737377 0.037251428 -0.016056303 -0.032653995 -0.0078878 -0.040069662
-0.027637988 -0.05531992 -0.073714145 0.06522756 -0.0036537498 -0.004741922 0.03059607 0.08222329
0.045594715 0.0840758 -0.083960995 0.034602948 -0.07597734 0.07995982 -0.062322475 -0.0677917
-0.021316148 -0.076865494 0.003981923 -0.052288648 -0.038288813 -0.023792056 0.0573648 -0.06650084
-0.015395222 0.033729434 0.0062644514 -0.07634512 0.04784494 0.052803695 -0.07368251 0.0009141941
0.046985876 0.09340418 -0.04535967 0.06206534 0.021757787 0.017296165 -0.07166045 0.038652375
0.04558942 -0.07380151 -0.07724952 0.018176379 -0.0010468031 -0.062085863 0.0010876274 0.0028611526
0.09209313 0.084157616 -0.014490614 0.08472568 -0.055670284 -0.059551 -0.0030051998 0.045243
0.07304874 0.017402058 -0.050767004 0.041623622 0.06891693 0.0016794399 0.027635345 -0.056598864
0.06667051 0.012725362 -0.05750319 0.038868167 -0.08148888 0.006314437 -0.08424167 0.021205649
0.047979992 -0.06084948 -0.05294764 0.07559707 0.05919681 0.055727206 -0.0152337495 -0.05457538
0.03066612 -0.05599603 0.07695934 -0.036744017 -0.052401904 -0.052844178 0.08413407 0.052001446
-0.042960707 0.07562435 0.07840217 -0.030176014 -0.04529142 -0.04785309 0.08732321 0.010518254
0.08570073 0.046499074 -0.06923813 -0.024898147 -0.0035878837 0.047926687 0.09180962 0.049649753
0.051284187 0.01334133 0.08105174 0.025054805 0.060757767 -0.0795011 0.05718834 -0.025967954
-0.01067353 0.07481954 -0.050363857 -0.041529436 -0.079930924 0.038932152 -0.08753711 -0.015466384

fc2.bias f4 [64]
00000000: 867f dc3c 62fe f93c 3a7f da3c b4bc 1dbd
00000010: b2e0 7d3d 84ad 933c e9f3 abbc 085b b6bb
00000020: 3c17 cfbc f6cd 7d3c f335 9b3d 2bfc a5bd
00000030: 3a79 a2bd ff8e 2fbd 92b8 3fbc 710b 933d
00000040: 73bb 3b3d 8a54 893d 17fc 043d 28ee 88bd
00000050: 8d63 a23d f66d 913d 89bf be3d 720d 413d
00000060: 7549 d0bc 5f03 c03c d041 d1bb 403b bbbd
00000070: fb2e 943b a97a 933d e81d ad3c 4824 82bb
00000080: a404 7d3b 7d51 513d a16e 5a3d aa10 08bb
00000090: 9cdf 9dbd c13a bdbd 5d9d 85bd 65de 313d
000000a0: e13c 41bd deeb 873d 47c0 d53b 37b2 a13c
000000b0: cf4c 90bd c3fb 7ebd 67a8 d33c 6c7c a13b
000000c0: 8902 9cbd 337e 13bd ce99 9d3d 101d 783d
000000d0: 3d44 25bc a107 85bd ce67 6f3b e29b a8bc
000000e0: 5d05 cabc 4df0 fdbc d7a8 3c3d 8699 1abd
000000f0: a0ed 463d aa2a a0bd feed 973d 00c8 b3bc
0.026916277 0.030516807 0.026671994 -0.03851004 0.061981864 0.018027075 -0.020990329 -0.005565051
-0.025279634 0.015490999 0.07578649 -0.08104738 -0.079332784 -0.04286098 -0.01170172 0.07179917
0.045833062 0.06705578 0.032466974 -0.0668605 0.07929144 0.071010515 0.09313876 0.047131963
-0.025425652 0.023439107 -0.0063860193 -0.091421604 0.004522202 0.0720113 0.021132424 -0.00397161
0.0038607502 0.051103104 0.05332816 -0.0020761886 -0.07708666 -0.09239722 -0.06524155 0.043424983
-0.0471772 0.06636785 0.0065231654 0.0197383 -0.070459 -0.062251817 0.025837136 0.0049281623
-0.07617671 -0.036009025 0.076953515 0.06057459 -0.01008707 -0.06495596 0.0036530378 -0.020582143
-0.02466076 -0.030998373 0.046059456 -0.037744068 0.04856646 -0.078206375 0.0741844 -0.021945953

fc3.weight f4 [24, 64]
00000000: 1416 0ebd ab33 fbbd ee88 f1bd e2f7 d8bd
00000010: 9841 41bd ef50 993d 82a0 e63d a4b5 aebd
00000020: 20f2 073d b86f 00bc ff9d 6bbc 0402 9dbd
00000030: 2dc2 1abe 696c a6bd 57c8 d43d c149 c7bd
00000040: 7a01 a8bd c67e be3d a44b f1bd 7a65 0e3d
00000050: 2976 95bd 074d e2bd 6ad0 483d e1d4 993d
00000060: 7b92 b23d 49a9 fdbd 2291 f73d dc62 ffbc
00000070: 23f2 83bb 6ad8 f63d a207 4c3d 22c2 303d
00000080: 5743 963c 951b 64bc 0d7d 903d d451 d73d
00000090: c7e1 f8bd 78c8 efbd 40f6 19bc 86b9 423d
000000a0: 902e 853c 9f06 fd3c db21 e2bb 2339 17bd
000000b0: 8574 ce3d 3e0c 993d f170 213b 7a70 bebd
000000c0: b7b4 3f3d a7fc adbd c004 b7bd dcf8 a13d
000000d0: 4a46 5bbd 2060 c93c de25 a5bd 1b68 ab3d
000000e0: af8b 99bd 8ce3 383b f017 a73d 5405 15bd
000000f0: f00b f9bd 6215 de3c 182e a4bd bc47 ec3d
00000100: ca84 fa3a 920b b73d d161 85bd 8803 e7bd
00000110: 8faf 99bd 40b7 293c 8910 4a3d 4802 d5bb
00000120: 313c 89bc 4684 41bd 3dd9 0f3e 28fd bebd
00000130: a13a b23d c761 973c a80e fdbd 26fa 3e3d
00000140: 7e51 dfbc 8baa 5fbd bb16 023c 240b 003d
00000150: b3cb bf3d 3ab0 e6bd 0ddc 7ebd ed62 983d
00000160: d14d c6bd 0fa1 b9bd d0a3 163c 0def 80bd
00000170: 2040 46bd 34e2 d03d 1480 fb3b 0504 af3d
00000180: 6299 4abd fa18 29bd 1fd8 e33d 1e50 003e
00000190: 7653 473c 53bd aebd 8e1f b53d d18a 273d
000001a0: dec6 023e 4235 ca3d 3637 b0bd 5b99 453d
000001b0: dde2 40bd 201e b4bd 627c dfbd 8c54 febd
000001c0: 69b9 023e 4f8e 7bbd 6f38 363c a982 c33d
000001d0: aef5 9abd cabf aebd 8d38 63bd c2a8 8e3d
000001e0: dcb9 d8bd d4d2 74bd 9e5d dcbd 5eb7 0fbd
000001f0: 9225 42bd ea36 8ebd 14c4 59bd 8f9a 97bd
00000200: 371f bb3d fe80 d73d d216 273d 4aed c5bd
00000210: b599 7dba c056 ac3d 4742 fa3a a31c 82bd
00000220: 36d9 e1bd 6704 d6bd 7541 643d ce39 dabc
00000230: 6372 2f3d 7a18 b1bd 4486 bf3d 20f3 ddbd
00000240: 96a2 e43d 8e03 353d a47a f1bd ba91 433d
00000250: ed93 c13c ddd4 a33d 83b0 e9bd 79c5 153d
00000260: 904e 403d af96 91bd 5410 e7bd aa30 1cbd
00000270: 9b23 83bc e832 673d cbf2 f13d 76de 99bb
00000280: 0495 863c ff46 04be 6042 a4bd 8556 c33d
00000290: eca8 c9bb 3dc0 783d 76a3 7ebd 5324 79bd
000002a0: a805 fbbc 6934 283d 51e0 c0bd 994f 513d
000002b0: 674a e83d 84b5 0fbd 8e81 3dbd cba3 b3bc
000002c0: 5b04 623b fbf1 86bd f72e 90bd 79d6 98bd
000002d0: 3cbc 733d 2d53 a9bd d3bf e53d b43a 5c3c
000002e0: a0de f03c 2d04 b53c 03f3 4bbd 8bf3 403d
000002f0: a068 b33d e12e f03d cc21 a2bd 7498 5f3d
00000300: 76d1 ecbd fa3c 4e3d 5832 d03d 6aaf 2c3d
00000310: ebce adbc be72 023d ff2c 2f3b dabd 2abd
00000320: 16e0 9bbd ea41 a4bd b0a2 ebbb a269 5f3c
00000330: 66ee 483d 8034 223d f559 253b 8fa5 9fbd
00000340: b2f8 abbd 0e7b 873c f71a 0a3d f9e3 753d
00000350: 9e98 ecbd 7cdd 14bd 1e0b 04be 8fb8 0b3d
00000360: b029 973d c366 2c3d 8c9f b33d 3e21 0bbc
00000370: 4bdc d93d 60a3 58bd 9137 3a3d b029 313d
00000380: 37fb c03d 6d8a 1e3d 8521 b0bd 26d8 84bd
00000390: 02a6 7f3d e789 983d b955 c0bc 898c 76bd
000003a0: 61fe e7ba d8bf ce3d e798 34bd 49b9 7dbd
000003b0: 3cab d93c 6e82 38bd 15aa 03bd 3d07 f5bd
000003c0: cbfe b73d 3a1c 26bd 5aa4 833d c022 d13d
000003d0: 6e75 8cba 968f 0cbe 7be6 7abd 0c55 043d
000003e0: 65a2 8abd aefc 893d f613 b83d 9797 ecbc
000003f0: 17f8 e1bd 5976 89bd 53ab 9cbd 7847 d8bb
-0.034689024 -0.12265714 -0.117936954 -0.10594155 -0.047181696 0.0748614 0.11261083 -0.08530739
0.033189893 -0.007839136 -0.014380931 -0.076664 -0.15113135 -0.08126146 0.10389774 -0.09730864
-0.08203407 0.09301524 -0.117820054 0.034764744 -0.07297928 -0.11049848 0.049026884 0.075113066
0.08719345 -0.12385804 0.12088229 -0.03117507 -0.0040266677 0.120529965 0.049811967 0.04315389
0.018342657 -0.013922592 0.070551015 0.10513654 -0.121524386 -0.11708158 -0.0093970895 0.04754021
0.016257554 0.030886946 -0.0069010085 -0.036919724 0.10080818 0.07473038 0.0024633969 -0.09298797
0.046803202 -0.08495455 -0.08936453 0.07908794 -0.05353383 0.024581969 -0.08063863 0.08369466
-0.07497346 0.00282118 0.081588626 -0.036382034 -0.1216048 0.027109805 -0.08016604 0.1153712
0.001911306 0.08937754 -0.065127976 -0.112799704 -0.07504188 0.010358632 0.049332175 -0.006500516
-0.016752334 -0.047245286 0.14047714 -0.093256295 0.08702589 0.018479241 -0.12356311 0.04662528
-0.027260538 -0.054606 0.00793999 0.031260625 0.093650244 -0.11264081 -0.062221576 0.074407436
-0.09682811 -0.090639226 0.009194329 -0.06295595 -0.048400998 0.10199395 0.00767518 0.085456885
-0.049462683 -0.041283585 0.11125206 0.12530562 0.012165895 -0.085322045 0.08843909 0.04090387
0.12771174 0.09873439 -0.08604281 0.048241954 -0.047091354 -0.087948084 -0.10912396 -0.1241847
0.12766041 -0.061415013 0.011121853 0.09546406 -0.07566391 -0.085326746 -0.055473853 0.06965782
-0.10582325 -0.059771374 -0.107600436 -0.035086982 -0.04739911 -0.06944068 -0.05316551 -0.074025266
0.09136813 0.1052265 0.040793248 -0.096644 -0.0009674088 0.08414984 0.0019093239 -0.06353118
-0.11027758 -0.104500584 0.055726487 -0.026638892 0.042833697 -0.08647247 0.09351781 -0.10837388
0.11163823 0.044192843 -0.1179097 0.047746398 0.023630107 0.07999585 -0.1141062 0.036565278
0.046949923 -0.07108819 -0.11282411 -0.038132347 -0.016008189 0.056445032 0.11813887 -0.004695709
0.016428478 -0.12917708 -0.080204725 0.09537987 -0.0061541703 0.060730208 -0.062167607 -0.060825657
-0.030642346 0.041065607 -0.09417785 0.0511013 0.11342316 -0.035085216 -0.04626613 -0.021928689
0.003448746 -0.06589123 -0.07040208 -0.074627824 0.059505686 -0.08267818 0.11218228 0.01344173
0.02940303 0.022096718 -0.0497923 0.04710726 0.0876019 0.117276914 -0.079166025 0.05458875
-0.11563389 0.05035112 0.10165852 0.042159475 -0.02121683 0.031847708 0.00267297 -0.041684963
-0.076111004 -0.080203846 -0.0071910247 0.013636025 0.04905548 0.03960085 0.002523062 -0.0779525
-0.08397044 0.01653817 0.033717122 0.060031865 -0.11552547 -0.036344036 -0.12894866 0.034111556
0.07380998 0.04209019 0.087706655 -0.008491812 0.10637721 -0.05289018 0.04546315 0.043252647
0.094229154 0.03870623 -0.08600143 -0.064865395 0.062414177 0.07448178 -0.023478376 -0.06019262
-0.0017699712 0.10095185 -0.04409113 -0.06194428 0.026570909 -0.045046262 -0.032144625 -0.11964271
0.08984145 -0.040554263 0.06427832 0.10211706 -0.0010716149 -0.13726649 -0.06125496 0.03230767
-0.067692555 0.06737648 0.08988182 -0.028880877 -0.110336475 -0.06712026 -0.07649865 -0.0066003166

fc3.bias f4 [24]
00000000: b159 b4bd b66c bc3c c93b 93bd aa59 62bd
00000010: 110f 00be db4f 9fbc 6ffc ac3c 9bb8 f53d
00000020: 3499 a53c 9775 b7bd 73a2 d6bd 2217 7cbc
00000030: c4d7 db3d 0f53 9d3b e5ab d5bc 766c cf3b
00000040: 6780 153d 72a0 65bd cd07 cbbd 0055 cabd
00000050: 7dfc 833d 9b59 8c3d 778a 103e 2a87 47bd
-0.0880617 0.023001056 -0.071891375 -0.05526129 -0.12505747 -0.019447258 0.021116463 0.11998101
0.020214655 -0.08957975 -0.104802035 -0.015386375 0.107345134 0.004801161 -0.026082942 0.006330068
0.036499407 -0.056061216 -0.09913597 -0.09879494 0.06444643 0.068530284 0.1411532 -0.048712887

exp_avg f4 [128, 240]
00000000: b011 0039 02f0 4339 249c d139 5c57 df39
00000010: b68c 0b3a 32fa 9d39 4666 b139 52f0 993a
00000020: 7209 b13a dc89 ef3a 6ab1 653a 3761 cc3a
00000030: 5694 543a 6c66 683a cb06 783a b6a8 943a
00000040: 92f3 d63a ceda ea3a 7898 f63a 4b91 ce3a
00000050: 4995 843a 9f11 653a ac63 383a 40a9 b739
00000060: 2024 8339 4808 9139 f499 86b9 7425 60ba
00000070: 80dd 8037 98bc 29b9 dab8 143a 5e03 0a3a
00000080: 4895 da39 406f 0639 3016 2e3a 36fb 553a
00000090: b2b4 083a b20e 133a ace4 c039 643a bbb9
000000a0: 34ed 843a fc51 c23a 3feb 0a3b dbf2 113b
000000b0: 5d7e 053b fb52 ed3a c6a5 c63a a89e 9a3a
000000c0: 0c73 6b3a a42f c73a 2471 0f3b 9b1b cf3a
000000d0: 5127 933a 5722 c83a 9d7c fe3a 7919 e33a
000000e0: 6fb9 a93a a2d2 993a 2617 dd3a b00e 513a
000000f0: dbc2 f83a 9c62 f63a dc7d e23a ade6 da3a
00000100: fede 913a d412 6d3a a9d3 a63a 2fae ef3a
00000110: 4340 063b 7886 e93a 9b49 443b baf8 4c3b
00000120: cdbd 323b 3fd9 1b3b bafa 3f3b bb92 483b
00000130: 187d 2f3b de9b 313b 5231 373b ab1e 6d3b
00000140: f6d1 a13a 1281 c93a 4c54 c63a 9abb ee3a
00000150: 36fa be3a 2829 ac3a 0091 f73a 8605 0f3b
00000160: cce9 c63a 0e44 ca3a aa42 463b e874 543b
00000170: 78b1 483b fea9 4c3b 0585 333b e21e 3b3b
00000180: 26f9 443b fb59 203b 8364 493b a7d3 363b
00000190: b2d5 2e3b f7da 1c3b 840d 243b 4821 113b
000001a0: 5c29 0f3b 737f 1d3b 43a2 1d3b 77ff 003b
000001b0: 9efb 593b c32e 513b 9090 383b ef4b 4a3b
000001c0: c482 963b 30d0 803b 4291 633b 4068 4f3b
000001d0: 4bc6 563b 8d2f 6b3b fd98 813b 0d32 4f3b
000001e0: c2dd 233b 8d24 213b 58f9 303b 8988 173b
000001f0: ebb0 053b 80ba ff3a 5050 013b 62e6 0b3b
00000200: d2c3 c93a d051 743a 01b3 593b 7b8b 6d3b
00000210: 9445 4d3b a885 443b bba4 493b 8bac 503b
00000220: c48a 8b3b 5bee 803b 606a 573b 4bd3 5f3b
00000230: be9e 463b e3f3 2f3b 29f2 2a3b a9b9 573b
00000240: 7cf8 573b 7c60 453b f41c 323b 7c8a 233b
00000250: 321d 2d3b 8161 733b 04ca 373b f07b ef3a
00000260: b40d f83a de70 043b 2cc6 ff3a 9c44 273b
00000270: 4c11 283b 1699 1e3b 862c 593b 67a0 7e3b
00000280: 668f 593b 7750 7a3b 8f87 6b3b 78c2 793b
00000290: 5ea7 823b b122 893b c073 8e3b 425a 853b
000002a0: 0e75 333b 48a4 0c3b 0e54 593b 9477 5b3b
000002b0: 8382 673b d682 673b 30d3 603b a8a1 663b
000002c0: fffb 4f3b 4e17 5a3b 8df5 1d3b d940 073b
000002d0: adfb 823b e4e3 603b 6ae8 253b 443c 393b
000002e0: e0c2 273b b6d5 213b cc98 0a3b 44a5 f03a
000002f0: 20ce fc39 001c 5c3a 44b7 6b3b 9e4b 483b
00000300: ccab 723b 5ed1 753b f074 793b bc11 7b3b
00000310: c043 773b 0e01 833b f035 723b ee00 6c3b
00000320: 2834 9f3b 0c59 9f3b 704f a13b 6573 ab3b
00000330: 169b ad3b 659f ad3b 947d ac3b a8d1 b03b
00000340: af01 bc3b 34d9 bd3b ccb2 8f3b 98a1 933b
00000350: 06c5 973b 5fb8 973b 13d4 963b d796 973b
00000360: 097a 973b 825e 8e3b 606d 893b 42b3 853b
00000370: ccac be3b 7904 bf3b 58b5 bf3b dd4c be3b
00000380: 4de7 bc3b a4d5 be3b 3051 c03b 5952 c03b
00000390: e064 c03b d5ee bf3b f6b8 a53b 789c a43b
000003a0: 2821 a43b d1ac a13b d183 a13b b2d9 a13b
000003b0: 5805 a23b 5597 a23b 9981 a43b 441c a63b
000003c0: d358 481f a609 431f 66a6 3f1f a2af 3e1f
000003d0: 6e8f 401f a614 431f 38e7 431f 372f 471f
000003e0: b3c3 441f 3af0 431f b153 721f 178c 831f
000003f0: 5c0e 821f 3c51 841f b251 851f dd12 881f
0.0001221362 0.00018686059 0.0003997992 0.00042598962 0.0005323397 0.00030131784 0.0003383627 0.0011744595
0.0013506843 0.0018275338 0.00087620935 0.0015592937 0.0008109262 0.00088653597 0.00094614614 0.0011341784
0.0016399494 0.0017917992 0.001881375 0.0015759853 0.0010115291 0.00087382825 0.0007033895 0.0003503058
0.00025013182 0.00027662725 -0.00025673176 -0.0008550503 1.5361933e-05 -0.00016187353 0.0005673297 0.0005264784
0.00041691423 0.0001282068 0.00066408794 0.00081627385 0.0005214914 0.0005609795 0.00036791468 -0.00035710924
0.0010141493 0.0014825459 0.0021197347 0.0022269997 0.0020369508 0.0018106395 0.0015155606 0.0011796551
0.0008981682 0.0015196693 0.0021887505 0.0015801074 0.0011226927 0.0015269023 0.00194158 0.0017326317
0.001294894 0.0011735747 0.0016867861 0.0007974906 0.001897897 0.0018797698 0.0017279941 0.0016700827
0.0011129079 0.0009043638 0.0012727875 0.0018286164 0.002048508 0.0017816564 0.00299511 0.0031276182
0.0027273775 0.0023780612 0.0029293732 0.0030605036 0.0026777443 0.002710096 0.0027952981 0.003618161
0.0012345898 0.0015373549 0.0015131324 0.0018213869 0.0014570418 0.0013134824 0.0018887818 0.002182336
0.0015175878 0.0015431659 0.0030252137 0.0032418314 0.0030623358 0.0031229253 0.0027392518 0.0028552343
0.003005573 0.0024467695 0.0030730076 0.002789715 0.0026677665 0.0023934224 0.002503247 0.0022145081
0.002184472 0.0024032264 0.0024053014 0.001968352 0.0033261548 0.0031918741 0.0028162338 0.0030868014
0.004593225 0.003931068 0.0034724032 0.0031647831 0.0032772 0.0035886497 0.003955005 0.0031615526
0.0025004004 0.0024588436 0.002700409 0.0023122153 0.002039964 0.0019510537 0.0019731708 0.0021347036
0.0015393442 0.00093200523 0.0033218267 0.0036246467 0.003132199 0.0029986892 0.0030768353 0.0031841125
0.0042584855 0.003934664 0.00328698 0.003415304 0.003030702 0.0026848249 0.002608428 0.0032917059
0.0032954505 0.0030117324 0.0027177902 0.002495437 0.0026415107 0.0037136974 0.0028043995 0.0018271189
0.0018924982 0.0020208876 0.0019514016 0.0025523072 0.0025645075 0.0024200133 0.003313811 0.0038852931
0.0033197044 0.0038194933 0.0035938954 0.0038110297 0.003987237 0.0041850437 0.0043472946 0.0040695975
0.0027383002 0.0021460224 0.0033161673 0.0033488022 0.0035325594 0.0035325787 0.0034305565 0.003519157
0.0031735895 0.003327805 0.0024102658 0.0020638017 0.0039972872 0.003431552 0.0025315532 0.002826468
0.0025598332 0.0024694032 0.0021148203 0.00183598 0.0004821876 0.00083965063 0.003596739 0.003056265
0.0037028668 0.0037508826 0.0038064085 0.003831013 0.003772959 0.0039979285 0.0036958419 0.0036011296
0.0048585124 0.00486291 0.0049227998 0.005232262 0.0052980287 0.0052985423 0.0052639935 0.0053960867
0.0057375054 0.005793715 0.004385328 0.0045053475 0.0046316413 0.004630133 0.004602918 0.004626136
0.004622702 0.0043447623 0.0041939467 0.004080207 0.005818939 0.0058293906 0.0058504753 0.0058075027
0.005764878 0.005823808 0.0058690533 0.0058691916 0.0058714002 0.0058573284 0.0050574495 0.0050235353
0.0050088353 0.0049339314 0.004929044 0.0049392814 0.0049444847 0.004961888 0.005020332 0.0050692875
4.242512e-20 4.1300837e-20 4.0583465e-20 4.0379345e-20 4.0776224e-20 4.1309936e-20 4.1484116e-20 4.2178944e-20
4.1666493e-20 4.1491567e-20 5.131472e-20 5.571242e-20 5.50809e-20 5.6038566e-20 5.6462845e-20 5.762945e-20

exp_avg_sq f4 [128, 240]
00000000: 79eb c939 39e6 c739 8111 d639 ae0a d639
00000010: d324 d739 a3eb d939 bf3b d839 068c d939
00000020: 43a0 d539 b118 d539 68a0 e739 46dc 183a
00000030: a85a 1e3a 022e 1d3a 8191 1b3a 8e77 2f3a
00000040: 4a6d 353a fab2 323a 1e6c 383a a9fa 3a3a
00000050: 5826 5739 862b 8339 8c96 8439 db44 8e39
00000060: 9367 9539 da1c 9339 6165 9d39 9b69 9e39
00000070: d1c0 9f39 f73d c239 60cf d339 7513 d239
00000080: 06c3 cf39 18a0 cb39 0db6 d139 d461 fa39
00000090: f960 fe39 5a0b 003a 0a7b 003a fa3b 083a
000000a0: adbf a439 d91d aa39 b55e b639 5861 b339
000000b0: e497 bc39 b105 bf39 9f08 be39 14d6 be39
000000c0: 2515 c239 ec3c c539 b0e4 003a a4fc 053a
000000d0: c966 0a3a 4415 0e3a c9ea 193a c296 1a3a
000000e0: 18b6 213a de7a 313a 7be0 313a f8f8 333a
000000f0: 43bc 243a d874 253a f860 2a3a d175 2b3a
00000100: 7f94 313a 5517 323a 73db 333a 9531 3c3a
00000110: ce03 3b3a 14e8 383a 3b0a 663a 7529 803a
00000120: c8fb 7b3a 448f 803a 31d5 823a 0b01 833a
00000130: 11b6 833a dba2 7f3a f478 863a 6fc6 843a
00000140: 95e6 883a a6a2 8a3a 2478 863a d6ee 883a
00000150: 001c 863a 95c2 883a f125 8a3a 7165 8e3a
00000160: 4842 8c3a 5fb0 893a 11fb 8b3a db99 8c3a
00000170: f0c5 893a 21bb 893a 5f87 893a f189 893a
00000180: 01af 873a 0e70 853a 63e6 843a 4b57 823a
00000190: 3885 953a c7ec 913a 5fe9 913a 9240 903a
000001a0: f034 903a e96a 903a d118 913a a9b5 933a
000001b0: 3b5c 9b3a 8c60 9a3a c775 af3a 5f1b b53a
000001c0: 53d4 be3a 712b c03a 60e1 be3a da8a c23a
000001d0: 627c c53a 7344 c63a 8778 d23a b771 d53a
000001e0: 10e3 a83a 88e0 a53a 9a81 a73a 29d9 a63a
000001f0: ccfb a53a 409d a63a dd7f a83a 6550 a83a
00000200: f274 a33a e03f a33a b3e8 dc3a 9c27 db3a
00000210: a01d d83a 0ee6 d93a 9ee7 db3a 9724 dd3a
00000220: 1879 e23a 5c32 e93a fa16 e43a 1a75 e33a
00000230: 4943 d33a 731e d23a 4db3 d63a 705a d43a
00000240: 3f3f d13a c75f cf3a b1c6 d33a 7fa4 cf3a
00000250: ecf2 d53a 5763 da3a cd62 fe3a b4cd fc3a
00000260: 406a f73a a969 f73a 4633 f63a 9119 f93a
00000270: 585d f93a 284c fb3a c06b 023b 8cd3 003b
00000280: 1d48 243b ddc7 273b 75c3 263b 55ac 273b
00000290: f242 283b 4d5d 263b ae14 293b 9808 253b
000002a0: 48a7 253b aeee 223b 097f 373b b656 393b
000002b0: 0a42 333b 170b 323b fef5 313b ff69 2f3b
000002c0: af38 2e3b 989d 2f3b 7dc9 2b3b 77f6 2c3b
000002d0: a941 5c3b d927 5b3b 571f 573b e276 563b
000002e0: 1201 543b cec7 503b 319d 4c3b 230d 4e3b
000002f0: c205 4b3b 4b3f 493b 80ae 6a3b cd9d 603b
00000300: 7c6f 693b b81c 6a3b 5ffc 683b 6704 693b
00000310: c9e7 6b3b 2a08 6b3b c2a7 683b fb20 693b
00000320: 7066 903b 2f29 903b 7c33 933b 8c8c 943b
00000330: 447a 943b 0971 943b 8311 943b 7a67 943b
00000340: 333a 963b 05be 953b 8fc5 ac3b ca9e ac3b
00000350: 295a ac3b 4411 ac3b 4031 ac3b 49a7 ac3b
00000360: 6ed5 ab3b 7414 ab3b 74e0 aa3b 64f6 aa3b
00000370: 86f1 c43b 7bd0 c43b b3a7 c43b 68a5 c43b
00000380: 439a c43b 1980 c43b d759 c43b 4464 c43b
00000390: cb63 c43b fe94 c43b 32c7 c53b d7bb c53b
000003a0: 8de0 c53b 65fe c53b 46ef c53b 98da c53b
000003b0: d8c6 c53b 93ca c53b 46b2 c53b be99 c53b
000003c0: 8691 d839 55bc ce39 3734 c639 c30f c439
000003d0: 6f36 c839 df0b cc39 c1bf cb39 dbf1 d239
000003e0: 2ff1 d039 3da4 cf39 d4ba 273a eb4f 4c3a
000003f0: 57a8 4b3a 07d0 4f3a 20e3 523a 510d 523a
0.00038513148 0.00038127767 0.00040830302 0.00040825218 0.00041035432 0.00041565028 0.00041243245 0.0004149379
0.0004074593 0.00040644922 0.00044179265 0.0005831163 0.00060407305 0.00059959304 0.00059344625 0.0006693535
0.00069208874 0.0006816831 0.00070351537 0.0007132688 0.00020518282 0.00025018695 0.00025289168 0.00027135652
0.00028496663 0.0002805952 0.00030020907 0.0003021479 0.00030470503 0.0003704873 0.00040399563 0.00040068818
0.0003962742 0.00038838456 0.00039999225 0.00047756603 0.00048518906 0.0004884504 0.0004901147 0.00051969255
0.00031423327 0.00032447165 0.00034784307 0.00034214067 0.00035971322 0.000364346 0.00036246047 0.00036399125
0.00037018317 0.00037620158 0.00049168896 0.0005111194 0.00052795984 0.0005420039 0.00058714725 0.00058970985
0.00061687967 0.0006770323 0.00067854644 0.00068654073 0.00062841567 0.00063116616 0.0006499435 0.00065406883
0.0006774142 0.0006793638 0.00068610086 0.0007179019 0.0007134051 0.00070536253 0.0008775328 0.000977798
0.00096124085 0.0009808321 0.0009981749 0.0009994818 0.0010048767 0.00097517454 0.0010259436 0.0010129939
0.0010444695 0.0010577037 0.0010259193 0.0010447155 0.0010231733 0.0010433967 0.0010539872 0.0010863972
0.0010700906 0.0010504833 0.0010679682 0.0010727005 0.001051126 0.0010508039 0.0010492614 0.001049338
0.0010351838 0.001018049 0.0010139461 0.0009944228 0.00114075 0.0011133187 0.0011132172 0.0011005572
0.0011002105 0.001101819 0.0011070018 0.0011269349 0.0011853048 0.0011778041 0.0013386541 0.0013817361
0.0014559127 0.0014661384 0.0014563017 0.0014842406 0.0015066976 0.0015126601 0.0016057648 0.00162845
0.0012885053 0.0012655417 0.0012779713 0.0012729514 0.0012663542 0.0012711659 0.0012855489 0.0012841342
0.0012470766 0.0012454949 0.0016854018 0.0016720179 0.0016488321 0.0016624348 0.0016777401 0.0016871867
0.001727852 0.0017791498 0.0017401867 0.0017353625 0.0016118075 0.0016030803 0.001638034 0.0016201269
0.0015964283 0.001582139 0.0016157237 0.001584187 0.0016323007 0.0016661686 0.0019408107 0.0019287379
0.001887627 0.0018876094 0.0018783591 0.0019004812 0.0019025011 0.0019172477 0.001990065 0.0019657342
0.0025067397 0.0025601306 0.0025446091 0.0025584896 0.0025674668 0.0025385201 0.002579968 0.0025182124
0.002527671 0.0024861502 0.0027999303 0.0028280444 0.0027352595 0.0027167255 0.002715468 0.002676606
0.002658408 0.0026796814 0.0026212626 0.0026392022 0.0033608472 0.00334405 0.0032825076 0.0032724668
0.003234927 0.0031857374 0.0031221623 0.0031440936 0.0030978774 0.0030707892 0.0035809577 0.0034273744
0.0035619428 0.0035722684 0.0035550816 0.0035555603 0.003599631 0.003586302 0.0035500382 0.0035572636
0.0044067428 0.0043994407 0.0044922214 0.004533356 0.0045311768 0.0045300764 0.004518689 0.004528937
0.0045845746 0.0045697712 0.0052725743 0.0052679526 0.0052597714 0.0052510817 0.0052548945 0.0052689654
0.0052439487 0.005220944 0.005214745 0.0052173603 0.006010237 0.006006298 0.0060014366 0.0060011633
0.0059998347 0.0059967157 0.005992155 0.005993398 0.0059933416 0.0059992066 0.006035709 0.006034355
0.0060387314 0.006042289 0.0060404865 0.0060380213 0.006035667 0.0060361116 0.0060332147 0.0060302904
0.00041307154 0.000394317 0.00037804406 0.00037395777 0.0003818753 0.00038918757 0.00038862045 0.00040234518
0.00039852547 0.00039604484 0.0006398384 0.0007793891 0.000776892 0.0007927422 0.00080447085 0.00080128486

exp_avg f4 [128]
00000000: a69b 5339 6773 c21d 0000 0000 438a 321e
00000010: 0fa6 b138 cbc6 e51d db44 c139 dedf 6c1c
00000020: c686 e01d 0000 0000 c839 a0b8 696c fa19
00000030: 36bd 551a 0000 0000 0000 0000 0000 0000
00000040: f28e b11c 0000 0000 d9d1 b41c 5369 cdb8
00000050: 0b9b 7a1d dbed 211b c0ac c1b7 cae6 ce1d
00000060: c03a 731e b840 6eb8 087b a11c d21d 84b9
00000070: 1ed6 141d b097 2038 4d69 191d 0000 0000
00000080: 0dd2 dcb7 0000 0000 d85a 431d 6096 a0b8
00000090: 0000 0000 1e54 a21b daa0 7039 ae03 17b9
000000a0: f786 6c1c dee0 a639 0000 0000 62e7 fd1d
000000b0: 716f 331e cf36 a01d 0000 0000 2500 0b1c
000000c0: 2dc0 e919 0ef5 0639 f32e e3b6 54d1 b21d
000000d0: 9f13 af1d 8ac6 c1b9 9c43 c2b5 b1a9 e437
000000e0: e5d9 451e db20 5e1d 198e 8a1d 1f7a a31e
000000f0: fa29 2a1b 497f 831c 33db d01c 6fca f1b6
00000100: 9aae 091d 30b6 0e38 36b7 102a 6259 941c
00000110: 34a2 bf20 dc92 cd1d cf51 071c 7a7c 291d
00000120: 5059 7f37 0067 aeb7 56ab e3b7 90ed 341c
00000130: 8e07 081d 162e 6e1d 0000 0000 0000 0000
00000140: 7d85 4bb9 55b8 7d1d 0000 0000 0000 0000
00000150: 0b25 d71c 4167 8f1c 97f4 be1b b4cb 16b8
00000160: 0000 0000 275e 001e 351d e91a 8c2c 0c3a
00000170: 0c56 d419 2af2 4739 3e84 8db8 e9bd 4e1e
00000180: 0dca 8e1d 5ce1 20b9 68ce 19b9 5b08 6439
00000190: e5f4 bf1c ee01 0338 9be3 b91d 7916 4bb9
000001a0: ef74 c11a 2d2e 6d1d 2902 0c36 4f9a 801d
000001b0: 15af 521d 8074 b5b9 d5c7 9d38 6a30 261c
000001c0: 67f1 061b 8924 f518 3b32 b71d 0000 0000
000001d0: 8d7b 581d d1c8 18b9 7b5e 281b dcc3 ea38
000001e0: 01fb 241b e37a d41c eac1 e51c 8a65 34ba
000001f0: 3810 b7b8 0000 0000 5878 c81b c24a 1f1d
0.00020180512 5.1470696e-21 0.0 9.451833e-21 8.4709485e-05 6.0821342e-21 0.0003686313 7.837519e-22
5.943166e-21 0.0 -7.640157e-05 2.589318e-23 4.420021e-23 0.0 0.0 0.0
1.1749828e-21 0.0 1.1965645e-21 -9.79478e-05 3.316738e-21 1.3394463e-22 -2.3087836e-05 5.4766376e-21
1.2876462e-20 -5.6803896e-05 1.0685889e-21 -0.0002519922 1.9698333e-21 3.8288243e-05 2.030382e-21 0.0
-2.6323856e-05 0.0 2.5855e-21 -7.657404e-05 0.0 2.6855011e-22 0.00022948105 -0.00014401853
7.826029e-22 0.00031829526 0.0 6.7207787e-21 9.499227e-21 4.240832e-21 0.0 4.599143e-22
2.4169255e-23 0.00012870526 -6.770593e-06 4.7332648e-21 4.6342402e-21 -0.00036959752 -1.4473803e-06 2.7258737e-05
1.0474153e-20 2.9398441e-21 3.667522e-21 1.7308804e-20 1.4075634e-22 8.701755e-22 1.3820947e-21 -7.205926e-06
1.8222066e-21 3.4025114e-05 1.2853333e-13 9.816923e-22 3.2463996e-19 5.4414897e-21 4.477349e-22 2.2431317e-21
1.5219979e-05 -2.079038e-05 -2.7140293e-05 5.9864046e-22 1.8003356e-21 3.1522864e-21 0.0 0.0
-0.00019409317 3.3579569e-21 0.0 0.0 1.4237082e-21 9.489637e-22 3.1590926e-22 -3.59525e-05
0.0 6.795734e-21 9.641373e-23 0.0005347214 2.195504e-23 0.00019068332 -6.748036e-05 1.0944822e-20
3.7796003e-21 -0.00015342742 -0.0001466811 0.00021746887 1.2702624e-21 3.123463e-05 4.920443e-21 -0.0001936796
8.0011846e-23 3.1390561e-21 2.0862883e-06 3.404087e-21 2.7883784e-21 -0.0003460981 7.523565e-05 5.4987366e-22
1.1162222e-22 6.3367907e-24 4.8491634e-21 0.0 2.8651236e-21 -0.0001457066 1.3927163e-22 0.00011194471
1.3646866e-22 1.4060749e-21 1.5204074e-21 -0.00068815856 -8.729141e-05 0.0 3.3164995e-22 2.1082124e-21

exp_avg_sq f4 [128]
00000000: 56cc 2237 c148 1037 0000 0000 1422 ca36
00000010: 53b6 1f37 b594 2f36 5cd6 0a37 52ea f833
00000020: 8fc6 b635 0000 0000 a9c3 1936 fd19 032f
00000030: 8e02 bf2f 0000 0000 0000 0000 0000 0000
00000040: bff7 4334 0000 0000 963a 8434 b083 0a37
00000050: 71d0 1235 a036 8731 8f64 8836 3686 f135
00000060: 4b94 5633 bd24 2b35 b433 4c35 9654 3d36
00000070: cf34 7c35 8e9c 5836 f45d fe34 0000 0000
00000080: 9201 3833 0000 0000 5248 e135 e2c1 4a37
00000090: 0000 0000 fa22 7232 9dc2 be36 40ee 7136
000000a0: 0a57 0034 00c2 8f36 0000 0000 51d1 d936
000000b0: f917 3b37 7d89 3d36 0000 0000 f668 5933
000000c0: e6e0 0c2f 6e37 8137 b889 2536 7ed1 d635
000000d0: 0827 0835 ee3f 8837 f685 5036 3668 2d36
000000e0: c25e 6f35 84db 8d35 0be9 3e36 5a40 9736
000000f0: 2e22 7231 f70e 4933 7f80 5034 a631 8736
00000100: 05c5 d634 afae 1536 3822 9136 7546 c933
00000110: 6b1a 0937 36ca 1c36 663c 3633 83e4 4734
00000120: f49a 5b36 69b0 c636 25a8 4236 ad11 ed33
00000130: 9ab0 c934 a841 c935 0000 0000 0000 0000
00000140: d2d4 1a38 0048 5736 0000 0000 0000 0000
00000150: 5262 f934 ca16 5434 b761 8432 9f09 f836
00000160: 0000 0000 ad13 2b37 bc1c 0c31 7078 4a36
00000170: c682 bc2e 4568 e736 6954 cf35 63a9 1d36
00000180: 6f05 f935 d8ae 3d36 54e0 8637 0ef9 2837
00000190: c153 6b35 8fdb d435 8b4f 7935 097b ee36
000001a0: a9fd c030 57ea 5f36 da90 6236 d42f 3235
000001b0: b2db b235 1157 7c36 88bf 6d36 232d 2233
000001c0: 41cd 3b31 bfb9 cb2c fa6f 8d36 0000 0000
000001d0: 0150 4a34 5184 3a37 e4af 1231 5280 4236
000001e0: 645b 8c31 cf6d 1233 e773 b434 83aa d536
000001f0: 280b da36 0000 0000 6e7d 6332 729d b435
9.703528e-06 8.600008e-06 0.0 6.0240363e-06 9.519589e-06 2.616359e-06 8.27535e-06 1.15910225e-07
1.3617845e-06 0.0 2.2912666e-06 1.1923613e-10 3.4744513e-10 0.0 0.0 0.0
1.825092e-07 0.0 2.4629543e-07 8.256102e-06 5.469256e-07 3.9352273e-09 4.0648224e-06 1.799496e-06
4.996063e-08 6.3755925e-07 7.607116e-07 2.821243e-06 9.395416e-07 3.2277635e-06 4.7379547e-07 0.0
4.2842267e-08 0.0 1.6784854e-06 1.208528e-05 0.0 1.4094207e-08 5.685097e-06 3.6050478e-06
1.1952594e-07 4.2843167e-06 0.0 6.4914716e-06 1.115165e-05 2.8243223e-06 0.0 5.061971e-08
1.2812826e-10 1.540381e-05 2.4667079e-06 1.6005213e-06 5.0720746e-07 1.6242233e-05 3.107239e-06 2.5839668e-06
8.917233e-07 1.0569206e-06 2.8447855e-06 4.507642e-06 3.5235064e-09 4.681257e-08 1.9418256e-07 4.0290934e-06
4.0003957e-07 2.230441e-06 4.3253203e-06 9.372608e-08 8.171987e-06 2.3363514e-06 4.243011e-08 1.8616451e-07
3.2723738e-06 5.9213967e-06 2.9006126e-06 1.1039388e-07 3.7567662e-07 1.4994775e-06 0.0 0.0
3.6914666e-05 3.2079406e-06 0.0 0.0 4.6451402e-07 1.9752329e-07 1.5411258e-08 7.392096e-06
0.0 1.0196975e-05 2.0389015e-09 3.017045e-06 8.57248e-11 6.896475e-06 1.5447268e-06 2.349342e-06
1.8553527e-06 2.8264967e-06 1.6078506e-05 1.0071568e-05 8.76662e-07 1.5859131e-06 9.287548e-07 7.107276e-06
1.4041933e-09 3.3365993e-06 3.376094e-06 6.6379766e-07 1.3325973e-06 3.7601606e-06 3.5427238e-06 3.7759616e-08
2.7328755e-09 5.790229e-12 4.2151632e-06 0.0 1.8841821e-07 1.1117271e-05 2.1345778e-09 2.8982945e-06
4.084926e-09 3.4093144e-08 3.3611943e-07 6.367745e-06 6.498205e-06 0.0 1.3241658e-08 1.3456868e-06

exp_avg f4 [64, 128]
00000000: 9ef1 5420 6827 8f1e 0000 0000 880a 151f
00000010: 2abd 2b21 43ed 0e1f 6945 e220 0274 0d1d
00000020: 2c06 831f 0000 0000 2b85 9e20 3a68 7018
00000030: 0000 0000 0000 0000 0000 0000 0000 0000
00000040: 1c06 851c 0000 0000 a133 901d 179a 3f20
00000050: 9eba 901f 8ccd 1e1b 9d60 5920 ce03 231d
00000060: 07a3 8c1c 9066 8c1f 4214 321d f0ec 8820
00000070: 38ed 881c f7bc 4820 1ad4 521d 0000 0000
00000080: 75ad cc1b 0000 0000 ac5c 031c 8d2e d71f
00000090: 0000 0000 f534 071c 48ef 0721 8b78 2721
000000a0: 32e8 471d 826f 7320 0000 0000 ad07 d61e
000000b0: b2f7 e31e 5eb3 ac1d 0000 0000 c0eb a01d
000000c0: 0000 0000 805a 5b20 5bef 671e 1d49 a41f
000000d0: 392c e91f bf82 1820 ba51 421e 9b74 121f
000000e0: e5a7 3e1e 6de9 0d1e 83c0 be1d ecb0 0720
000000f0: 97c8 f91b cd75 a91e 70e8 d01d 572b aa1e
00000100: 5485 191e 7361 911f f62b 9a1d 00db 0f9d
00000110: e501 8e1d 6074 ff1e 4f8f 731c 3875 071f
00000120: 62bc fe20 4456 1b20 8690 f21e cd93 4c1d
00000130: 6d43 c99d 0b91 2e1e 0000 0000 0000 0000
00000140: 3a14 6620 8863 821e 0000 0000 0000 0000
00000150: 4cc9 411b b4ab 4f9c c9e3 1b9d b955 2321
00000160: 0000 0000 9b3f 4b1e 0000 0000 545e aa20
00000170: 2d57 701a be53 8a20 94c8 df1f 414b 1d1f
00000180: 3234 801c 2fb1 081f 5e54 0720 1eb4 b020
00000190: a4f5 711c f916 061e 940b 021f 3ff0 e81f
000001a0: 0000 0000 4bde ad1e d3fb ac1f c45e f51e
000001b0: 8c90 da1d 9074 c920 c1ad b220 b8a9 961d
000001c0: 1dc1 561c 6db4 ad1a cab9 211f 0000 0000
000001d0: 9968 7d1f e849 6e20 b029 361c c5f3 6020
000001e0: 0000 0000 4d5d 9d1a 7dab 541d 0313 3e20
000001f0: ef7d 3521 0000 0000 8030 0d1d 9153 581d
00000200: 19b4 809d 696c fa9c 0000 0000 0271 959d
00000210: 2fb6 089d b08c 629c 8830 a19b 0000 0000
00000220: a1be f49c 0000 0000 f1fc a99c 0000 0000
00000230: 0000 0000 0000 0000 0000 0000 0000 0000
00000240: 12cf b119 0000 0000 0000 0000 e117 d49d
00000250: 3d18 709d 0000 0000 b975 369d 2a4b 529c
00000260: 6892 3b9b db46 119c 84ab 539b a7a4 d81a
00000270: 4309 cc9c 8898 5f9d ba5d 0b9c 0000 0000
00000280: d511 ec9b 0000 0000 fa4b 249b 702f db1a
00000290: 0000 0000 fb0e bd1a 461c 319d 6d0b eb9d
000002a0: c91f 149c 96f8 7b9d 0000 0000 2e6e 929d
000002b0: 8ae5 1e9d 1b69 d89b 0000 0000 5c60 829a
000002c0: 8370 7219 3ccd 319d 22dd 211b 87bb c99d
000002d0: c1a1 e29d 49b0 649d 35c9 fe9b d98e 7d9d
000002e0: 90d1 a59c c8ad df9c 143c 459b e2de 8f9d
000002f0: 0000 0000 0000 0000 7691 1119 e9b7 609d
00000300: eb1b a59c 0542 ee9d 6589 409c 290c ba1a
00000310: 5875 0b9d 81d8 f49b 9e43 621b 0000 0000
00000320: f6b6 189d c326 de9c 16fd 1e9d 0000 0000
00000330: 3595 f39b c873 729d 0000 0000 0000 0000
00000340: 0394 7b9d 8ac7 929b 0000 0000 0000 0000
00000350: 1f52 c09c cfab db1a 7a47 b89b 69a9 bc9d
00000360: 0000 0000 98af 079b 056b 611a 775b 599b
00000370: 0000 0000 57c9 619d 5aba 9c9d 4de4 f09b
00000380: 310d 1a9c d481 bc9c c413 ba9d 5570 059e
00000390: 1d67 889a 55eb f29b 795a ba9d 5a84 d99c
000003a0: 0000 0000 7da9 379d cebe 459d 1b94 dc9c
000003b0: bb4e e49c 5ec8 0c9c 977c be9d 0000 0000
000003c0: 0000 0000 0000 0000 81f0 229c 0000 0000
000003d0: d5cb 0a1b 5420 399d 86e8 fe9a 5388 249d
000003e0: 0000 0000 0000 0000 cb3e 9e19 127f 9a9d
000003f0: 8a89 af9d 0000 0000 0000 0000 a94a 1e9d
1.8037043e-19 1.5157012e-20 0.0 3.156069e-20 5.818741e-19 3.0265928e-20 3.833182e-19 1.872117e-21
5.549087e-20 0.0 2.6854364e-19 3.1071894e-24 0.0 0.0 0.0 0.0
8.802781e-22 0.0 3.8169866e-21 1.6229313e-19 6.1295104e-20 1.313587e-22 1.8412582e-19 2.1574837e-21
9.306564e-22 5.946198e-20 2.3568577e-21 2.3196088e-19 9.061045e-22 1.7003182e-19 2.7902923e-21 0.0
3.3861063e-22 0.0 4.346404e-22 9.1133054e-20 0.0 4.47362e-22 4.6056465e-19 5.674134e-19
2.6457473e-21 2.0619795e-19 0.0 2.2661306e-20 2.4137004e-20 4.5713482e-21 0.0 4.2595407e-21
0.0 1.8579965e-19 1.2278536e-20 6.957766e-20 9.87525e-20 1.2918161e-19 1.0287175e-20 3.1013156e-20
1.0093236e-20 7.512749e-21 5.0491634e-21 1.1493483e-19 4.1323223e-22 1.7942292e-20 5.5297476e-21 1.8017375e-20
8.127324e-21 6.1571105e-20 4.0808915e-21 -1.9039113e-21 3.7589046e-21 2.7047307e-20 8.058718e-22 2.8684323e-20
4.3153935e-19 1.3157554e-19 2.568252e-20 2.7075586e-21 -5.3273974e-21 9.2414775e-21 0.0 0.0
1.948845e-19 1.380545e-20 0.0 0.0 1.6029628e-22 -6.8712476e-22 -2.0631841e-21 5.534e-19
0.0 1.0759884e-20 0.0 2.8861541e-19 4.9701257e-23 2.3433525e-19 9.4776e-20 3.3308292e-20
8.483822e-22 2.8945683e-20 1.146286e-19 2.9934751e-19 8.0057694e-22 7.0986516e-21 2.7538148e-20 9.8653276e-20
0.0 1.8409026e-20 7.326144e-20 2.5979578e-20 5.7853577e-21 3.412786e-19 3.0269354e-19 3.9880154e-21
7.1056254e-22 7.1842617e-23 3.4246757e-20 0.0 5.3661355e-20 2.0183838e-19 6.027263e-22 1.9054195e-19
0.0 6.5084414e-23 2.8146624e-21 1.6099916e-19 6.1491857e-19 0.0 1.8686269e-21 2.8630565e-21
-3.4067535e-21 -1.6571636e-21 0.0 -3.955682e-21 -1.8093637e-21 -7.495896e-22 -2.6666578e-22 0.0
-1.6195842e-21 0.0 -1.1248866e-21 0.0 0.0 0.0 0.0 0.0
1.8385006e-23 0.0 0.0 -5.6140623e-21 -3.1776266e-21 0.0 -2.414836e-21 -6.958032e-22
-1.5515584e-22 -4.8068054e-22 -1.750893e-22 8.9601516e-23 -1.3501982e-21 -2.9592661e-21 -4.611238e-22 0.0
-3.9054449e-22 0.0 -1.3590311e-22 9.0652916e-23 0.0 7.819277e-23 -2.3440372e-21 -6.2215796e-21
-4.9010174e-22 -3.334809e-21 0.0 -3.87598e-21 -2.1029795e-21 -3.5802125e-22 0.0 -5.3922417e-23
1.2533828e-23 -2.3531859e-21 1.338906e-22 -5.3398156e-21 -5.998895e-21 -3.0266686e-21 -4.2150802e-22 -3.3558122e-21
-1.0972955e-21 -1.4801824e-21 -1.631487e-22 -3.808224e-21 0.0 0.0 7.5257e-24 -2.9741232e-21
-1.0926001e-21 -6.306634e-21 -6.370505e-22 7.694744e-23 -1.8457162e-21 -4.0506326e-22 1.871613e-22 0.0
-2.0211621e-21 -1.4700747e-21 -2.1041968e-21 0.0 -4.02974e-22 -3.208829e-21 0.0 0.0
-3.3296094e-21 -2.4282623e-22 0.0 0.0 -1.2726722e-21 9.085385e-23 -3.0486437e-22 -4.993835e-21
0.0 -1.1223676e-22 4.661536e-23 -1.7979373e-22 0.0 -2.9882592e-21 -4.148554e-21 -3.9852205e-22
-5.0971375e-22 -1.2474356e-21 -4.9254227e-21 -7.064191e-21 -5.641487e-23 -4.0187621e-22 -4.9327337e-21 -1.4394068e-21
0.0 -2.4307472e-21 -2.6171377e-21 -1.4596663e-21 -1.5108126e-21 -4.6581083e-22 -5.0421404e-21 0.0
0.0 0.0 -5.391215e-22 0.0 1.1480954e-22 -2.450126e-21 -1.054276e-22 -2.1775697e-21
0.0 0.0 1.6362179e-23 -4.089485e-21 -4.6464326e-21 0.0 0.0 -2.0949724e-21
