models/RaceModels/reg_pos_coef_3copies_1to5_1HL_mse/model.pt (torch, 368815 bytes, 18 tensors)

fc1.weight f4 [128, 144]
0.07425326 0.0014022113 0.095819 0.031369183 -0.006674748 -0.04906117 0.055869166 -0.04828963
0.05465447 -0.0056138695 -0.09606956 -0.12143742 0.010666966 0.038586114 0.064285226 -0.010374843
0.06466292 -0.03366006 -0.060205188 -0.1320895 0.117794484 0.012964733 -0.06900411 -0.043170936
0.015468758 -0.012011738 0.05664173 0.13663347 0.04613865 -0.009618338 0.05533915 0.026739605
-0.08959976 0.0656411 0.122379504 -0.02447165 -0.033807155 0.05883844 0.06647666 -0.022444822
0.031428825 -0.016338091 -0.03968164 -0.13222298 -0.025465783 0.053968627 -0.040522493 0.10450461
-0.017956883 0.0415982 -0.05185434 0.061224177 -0.067085676 -0.07735993 0.07338622 -0.0109853195
-0.064740345 -0.07241592 0.032048784 -0.033549134 -0.013694401 0.0798364 -0.069085225 -0.10665167
0.05831441 -0.11301492 -0.023786822 -0.060511656 -0.05001472 0.030279899 -0.11978218 0.028355844
0.12087574 0.092125684 0.08446772 0.069328055 -0.05904658 -0.13177112 0.06430171 0.022473026
0.00427066 -0.03574991 0.009994553 0.020830743 -0.014579554 0.035238016 -0.051021617 -0.04860172
0.08530771 0.01238127 -0.08029734 -0.04638675 0.07891405 0.014792702 -0.10791321 0.013344631
0.062610894 0.024638403 0.051183645 0.16718787 -0.015067222 0.017370217 -0.007128307 -0.07298944
-0.084585644 -0.011763134 -0.042574 -0.057257652 0.03183352 0.10659768 0.07989702 -0.12685172
-0.03729875 -0.07082968 -0.111593366 -0.15054627 0.071794696 -0.075468145 -0.10876911 0.08867906
0.116304286 0.11734364 -0.024180377 0.18081765 -0.079019286 -0.055826206 -0.009967104 0.053801212
-0.014581105 0.08600644 0.07914668 0.0490261 0.025051884 0.0060823024 0.012334271 -0.031234203
0.09085882 -0.073521435 -0.08063418 -0.11880563 -0.00938745 -0.014725501 -0.10419369 0.11889425
0.048599903 -0.03717933 -0.039993 -0.08536653 -0.055414185 -0.06808895 -0.02920072 0.09423076
0.011132027 -0.03202934 0.017128602 0.069352314 -0.006483016 -0.03476561 -0.019285627 0.093170516
0.014473849 0.06283057 0.011471471 0.0061756116 -0.004427718 0.04351739 -0.041111622 -0.08749726
-0.058287524 0.03718609 -0.03079324 0.025702456 0.07848501 -0.09092988 0.0153591735 -0.0034123133
-0.034838676 -0.06374732 0.009783626 0.06869935 -0.06735163 0.10228765 0.0686478 -0.07309795
0.0020684379 0.09853745 0.12104536 0.014574531 -0.022245271 -0.03049144 0.10376728 0.03397154
-0.036535345 0.07686434 0.05093959 -0.06639396 -0.03476414 -0.08990508 0.008330207 -0.053997222
0.040784046 0.059035797 0.020483831 0.054446533 0.047350697 0.030014165 -0.08055455 0.032308634
0.030060232 0.09704151 -0.037902158 -0.024359418 -0.026847009 -0.082305945 0.03413746 0.082616635
0.01193315 -0.00869027 0.013029 -0.038683627 0.053267837 -0.09758034 0.081152745 0.02584674
-0.00405122 -0.0037453559 0.073423155 0.0043800515 -0.09128848 0.07619801 -0.050896224 0.049579795
0.021728914 0.099868275 0.108496174 -0.048141386 0.07339726 0.015173084 0.09015755 0.006362765
-0.096465565 0.011380183 0.03449488 0.05765306 -0.03348354 -0.08163113 0.025012767 0.046303187
0.029205784 -0.040435955 0.09976621 -0.0458342 -0.009182928 0.05864216 0.0012910106 0.10491298
00000000: 1812 983d 67ca b73a c03c c43d f97c 003d
00000010: d8b7 dabb 5ef4 48bd 11d7 643d 59cb 45bd
00000020: 5edd 5f3d 8df4 b7bb 1ec0 c4bd 2fb4 f8bd
00000030: 80c4 2e3c 790c 1e3d f9a7 833d 3ffb 29bc
00000040: fe6d 843d 22df 09bd b799 76bd 7842 07be
00000050: 3c3e f13d 086a 543c 0752 8dbd 02d4 30bd
00000060: ac70 7d3c e1cc 44bc 2901 683d a5e9 0b3e
00000070: e2fb 3c3d 3c96 1dbc 4eab 623d 040d db3c
00000080: 1480 b7bd d76e 863d 1ba2 fa3d c578 c8bc
00000090: 5f79 0abd 9300 713d ea24 883d 34de b7bc
000000a0: 83bb 003d 76d7 85bc 3789 22bd 7665 07be
000000b0: 9e9d d0bc 350e 5d3d eafa 25bd 8306 d63d
000000c0: 501a 93bc e062 2a3d 3765 54bd 34c6 7a3d
000000d0: 3764 89bd e26e 9ebd 844b 963d c5fb 33bc
000000e0: 9696 84bd cc4e 94bd 9645 033d d16a 09bd
000000f0: 7b5e 60bc 4481 a33d 8e7c 8dbd 316c dabd
00000100: 17db 6e3d 5e74 e7bd 95dc c2bc 12db 77bd
00000110: 3cdc 4cbd 8d0d f83c 5c50 f5bd 844a e83c
00000120: b38d f73d 64ac bc3d 69fd ac3d defb 8d3d
00000130: d4da 71bd 02ef 06be 9db0 833d 5a19 b83c
00000140: e5f0 8b3b 7f6e 12bd 32c0 233c 3ca5 aa3c
00000150: 15df 6ebc bd55 103d 0bfc 50bd 9912 47bd
00000160: cfb5 ae3d cfda 4a3c ef72 a4bd 0800 3ebd
00000170: b09d a13d 175d 723c 9a01 ddbd 70a3 5a3c
00000180: 243a 803d 7ad6 c93c f1a5 513d 4c33 2b3e
00000190: 82dc 76bc fc4b 8e3c 9394 e9bb 7d7b 95bd
000001a0: 3d3b adbd 29ba 40bc 1362 2ebd 0087 6abd
000001b0: dd63 023d e24f da3d 0ca1 a33d 6be5 01be
000001c0: 93c6 18bd 270f 91bd 108b e4bd cd28 1abe
000001d0: 1909 933d 0b8f 9abd 57c2 debd 5e9d b53d
000001e0: f130 ee3d dd51 f03d ed15 c6bc 4328 393e
000001f0: ddd4 a1bd 05aa 64bd 104d 23bc a95e 5c3d
00000200: 96e5 6ebc 2524 b03d a817 a23d 98cf 483d
00000210: 9c39 cd3c 0d4e c73b af15 4a3c dfde ffbc
00000220: 3014 ba3d 6892 96bd 8823 a5bd 5e50 f3bd
00000230: d2cd 19bc 3a43 71bc 8063 d5bd d47e f33d
00000240: b110 473d 5a49 18bd b3cf 23bd a6d4 aebd
00000250: fcf9 62bd 3872 8bbd 5936 efbc 0ffc c03d
00000260: 1b63 363c 3231 03bd 4851 8c3c 9608 8e3d
00000270: 7b6f d4bb 6266 0ebd e4fc 9dbc 2fd0 be3d
00000280: b923 6d3c 50ad 803d d6f2 3b3c c95c ca3b
00000290: 6416 91bb 4a3f 323d a964 28bd c331 b3bd
000002a0: e6be 6ebd 7150 183d 1b42 fcbc f58d d23c
000002b0: c0bc a03d 7239 babd 0ba5 7b3c 1ea1 5fbb
000002c0: 00b3 0ebd f48d 82bd 804b 203c 3fb2 8c3d
000002d0: a7ef 89bd 307c d13d 3897 8c3d 61b4 95bd
000002e0: a18e 073b 01ce c93d a1e6 f73d 03ca 6e3c
000002f0: b73b b6bc 2fc9 f9bc f183 d43d be25 0b3d
00000300: 16a6 15bd 0d6b 9d3d 08a6 503d 8ef9 87bd
00000310: d864 0ebd 2820 b8bd 6c7b 083c 312c 5dbd
00000320: 2c0d 273d 85cf 713d b5cd a73c 5403 5f3d
00000330: cef2 413d 44e0 f53c c9f9 a4bd 0f56 043d
00000340: e040 f63c b3bd c63d 4b3f 1bbd 678d c7bc
00000350: 42ee dbbc 0590 a8bd b9d3 0b3d e932 a93d
00000360: 4283 433c a261 0ebc 9677 553c b972 1ebd
00000370: 602f 5a3d 34d8 c7bd 6933 a63d 8bbc d33c
00000380: 19c0 84bb a574 75bb e15e 963d 8986 8f3b
00000390: 74f5 babd b40d 9c3d 8f78 50bd 2f14 4b3d
000003a0: d600 b23c bd87 cc3d 3e33 de3d e72f 45bd
000003b0: 4d51 963d 8798 783c 86a4 b83d be7e d03b
000003c0: bd8f c5bd f273 3a3c 814a 0d3d 9d25 6c3d
000003d0: 0926 09bd 392e a7bd 93e7 cc3c 69a8 3d3d
000003e0: f840 ef3c 2ca0 25bd 3a52 cc3d a4bc 3bbd
000003f0: fe73 16bc c332 703d 2137 a93a 9edc d63d

fc1.bias f4 [128]
-0.022629794 0.05817348 -0.027858984 -0.045195855 -0.062959984 0.08084363 0.023876334 -0.013988328
0.06960542 -0.030640673 -0.026057348 0.04760191 -0.0029746508 -0.011262017 0.058477487 -0.04124414
-0.004180293 0.07112876 0.048935693 -0.07405617 0.0007743765 0.10161502 0.08594761 -0.018951325
-0.08845085 0.10022884 -0.008367206 -0.02288127 0.033324048 -0.06389776 -0.0552325 -0.0028552532
-0.023462275 0.11672762 0.08239201 -0.062279224 -0.028640945 0.01374648 -0.07854377 0.07999057
0.09102895 -0.043816637 0.0293558 -0.039919674 0.029351646 0.016535887 0.10834151 -0.030008396
-0.009925818 0.06544698 -0.033446163 0.030258233 -0.027118433 0.023964737 -0.054947108 -0.023386123
0.10309655 0.09010684 -0.0060764723 0.05171356 0.08519905 0.095043726 0.0013004602 0.07147126
0.08483175 0.054531932 0.06401393 0.027455334 0.1058862 -0.008435686 0.04315568 0.044472188
0.0040057106 0.013118273 -0.0028041517 -0.08017179 0.056950517 -0.0250359 -0.04564657 0.0702237
0.05824434 0.0062089614 -0.022283677 0.004351222 -0.026488638 -0.040853973 -0.038842853 0.0031418556
-0.06857634 -0.07122861 -0.04255572 0.08821245 0.09823049 -0.0051169214 0.09762457 -0.03809278
-0.020835137 -0.02300377 -0.06772122 -0.05681236 0.097502664 0.040777035 0.042105116 0.036396306
-0.05860105 -0.015143495 -0.055991687 -0.021605102 -0.056068514 -0.007308575 0.09160799 0.0051648975
0.080029294 0.07033698 -0.0054903203 0.05698685 -0.0543671 -0.025041178 0.08935603 0.09053808
0.06984101 0.094365984 0.09827836 0.059742708 -0.027939633 -0.002235318 -0.042506132 0.052978616
00000000: 1e62 b9bc 5147 6e3d 8638 e4bc 4a1f 39bd
00000010: 2af1 80bd 5891 a53d 4d98 c33c 4d2f 65bc
00000020: 498d 8e3d 2602 fbbc 3876 d5bc 38fa 423d
00000030: 5cf2 42bb 5384 38bc 1786 6f3d 9eef 28bd
00000040: d7fa 88bb f5ab 913d cb70 483d c3aa 97bd
00000050: 87ff 4a3a 891b d03d 4d05 b03d cf3f 9bbc
00000060: b825 b5bd c744 cd3d 9b16 09bc 8071 bbbc
00000070: cc7e 083d d4dc 82bd 793b 62bd 331f 3bbb
00000080: f533 c0bc e40e ef3d 24bd a83d 8018 7fbd
00000090: 6aa0 eabc eb38 613c 8edb a0bd 19d2 a33d
000000a0: 636d ba3d 1379 33bd 937b f03c d082 23bd
000000b0: dd72 f03c 4576 873c 27e2 dd3d 2bd4 f5bc
000000c0: e69f 22bc 1109 863d d8fe 08bd 1de0 f73c
000000d0: 7a27 debc b251 c43c 3810 61bd 4194 bfbc
000000e0: 4924 d33d ef89 b83d 251d c7bb 99d1 533d
000000f0: d77c ae3d 49a6 c23d 3474 aa3a 865f 923d
00000100: 45bc ad3d e05c 5f3d bc19 833d 02ea e03c
00000110: ddda d83d d535 0abc 03c4 303d 7828 363d
00000120: 5642 833b 06ee 563c dcc5 37bb 1c31 a4bd
00000130: f244 693d 1618 cdbc e6f7 3abd 71d1 8f3d
00000140: 9e91 6e3d 8b74 cb3b 428c b6bc b294 8e3b
00000150: b3fe d8bc 7f56 27bd af19 1fbd 97e7 4d3b
00000160: c171 8cbd 4ee0 91bd e84e 2ebd bba8 b43d
00000170: 112d c93d d9ab a7bb 64ef c73d 2d07 1cbd
00000180: 73ae aabc 6772 bcbc 6cb1 8abd 14b4 68bd
00000190: 7aaf c73d d205 273d 6a76 2c3d 4b14 153d
000001a0: a807 70bd 6c1c 78bc 8a57 65bd 2ffd b0bc
000001b0: 19a8 65bd c57c efbb f89c bb3d 4d3e a93b
000001c0: 66e6 a33d d60c 903d 25e8 b3bb 0b6b 693d
000001d0: 09b0 5ebd 2823 cdbc 4b00 b73d 076c b93d
000001e0: ce08 8f3d f442 c13d 2a46 c93d c5b4 743d
000001f0: a8e1 e4bc 6a7e 12bb e91a 2ebd 1b00 593d

fc2.weight f4 [64, 128]
-0.05851569 0.022742087 -0.05064418 0.008085462 0.053141594 0.08644489 -0.055368394 -0.04851683
-0.049561024 -0.058115132 0.00814475 0.0018750867 -0.04720942 -0.11929384 -0.06438536 -0.073811136
0.026452351 0.06842298 0.066765144 -0.0095056845 0.051150937 -0.08364723 0.08952844 -0.07506951
-0.030684816 0.020553421 -0.043424588 0.0403511 -0.042000674 -0.07737206 0.022003165 -0.100556
-0.015326181 -0.03452307 0.06145597 -0.022461312 0.0024883915 -0.11038106 0.028682493 -0.08271793
0.08408071 0.03746477 0.0145298 0.019651668 -0.027487572 0.073102586 -0.06567285 -0.044181764
-0.117442094 -0.064033896 0.07692129 0.025013015 0.025729872 -0.1222865 0.021378906 0.028375944
0.046206426 -0.06696104 -0.13369574 0.023796795 0.043395683 0.034324564 0.027099408 -0.045918774
-0.053537842 0.050662782 0.069318295 -0.025282789 0.05261499 0.07976165 -0.030874616 -0.0062782657
-0.04010234 -0.06789562 -0.053879783 -0.06941169 -0.011401146 -0.032346584 -0.07373728 0.049741924
-0.021052364 0.06902963 -0.15683582 0.0026117612 0.006838618 0.02031432 -0.03404388 -0.0339068
-0.05817934 -0.033557974 0.065328084 0.051403984 0.028073702 -0.004413216 -0.0031031764 -0.13825625
-0.034928113 0.09109765 0.016528992 -0.0581666 0.06624627 -0.101552434 -0.0064899316 -0.07721366
-0.063363075 0.0008035735 -0.07897125 0.051461857 0.012305678 0.036259335 0.08525814 -0.0011607491
0.00067736325 -0.11409783 0.05080602 -0.075696096 -0.11285359 -0.03850365 0.0032571766 0.02117393
0.022606445 0.017215587 0.09499873 0.081052974 0.081856914 0.0066492194 0.0853693 -0.0088924505
0.0815493 -0.10344913 -0.059535578 -0.09037829 0.10048389 -0.19047776 0.082600325 -0.077045694
0.05676154 -0.010345362 -0.03785385 -0.010981733 0.0363368 0.0031222808 0.06878296 0.24366856
-0.034292683 -0.059371494 -0.089086026 -0.025727965 0.058346186 0.0864494 0.015329211 -0.12178785
-0.11868521 0.07444454 0.018531986 0.028192954 -0.2004265 0.12480829 -0.11777704 0.09022003
0.05401412 0.004558216 0.008278076 -0.049766034 0.07281188 -0.032629397 -0.06886973 -0.018855166
-0.031828012 0.010479238 0.057850726 0.06329325 -0.12161415 0.024135472 -0.12588383 0.034901932
-0.025886154 -0.035548564 0.083602004 -0.09775629 -0.07042216 -0.0104527315 0.02977616 0.092043556
-0.066481866 0.0016120721 -0.06986737 -0.048324253 0.02302669 -0.0018757147 -0.047747638 0.04327712
0.029288761 -0.012025272 0.047192927 0.035998456 0.04912982 -0.140491 -0.050299596 -0.11277223
-0.06569325 -0.16220506 -0.005630286 -0.041292552 -0.14457178 -0.09966021 -0.0061725234 -0.017033407
0.09713492 -0.046261292 0.0734474 -0.020342212 0.10526234 -0.06070367 0.042759422 -0.08197306
0.03958776 0.03366416 0.081642844 0.08831441 -0.05283875 0.0024794145 -0.030557578 0.050639026
-0.09228406 0.033589303 0.030133024 -0.040769696 -0.0568416 0.09978273 0.10103957 -0.06935082
-0.07820444 0.06937012 0.031458534 -0.05326126 -0.059481416 0.021853644 -0.10389072 0.028348343
0.042385034 -0.0650012 0.057034917 0.06506438 -0.060034152 0.0680983 0.031590525 -0.10479053
-0.07407652 -0.05519417 0.10413581 -0.014215288 -0.06344821 -0.045723308 -0.029955745 -0.034243267
00000000: 26ae 6fbd 9d4d ba3c 4670 4fbd e378 043c
00000010: 00ab 593d 050a b13d f8c9 62bd 95b9 46bd
00000020: 8000 4bbd 220a 6ebd 8f71 053c 78c5 f53a
00000030: aa5e 41bd 5450 f4bd 79dc 83bd 4b2a 97bd
00000040: 9ab2 d83c 5921 8c3d 2abc 883d bbbd 1bbc
00000050: a583 513d 3d4f abbd b05a b73d 0bbe 99bd
00000060: b95e fbbc a65f a83c fbdd 31bd 3247 253d
00000070: e608 2cbd 3e75 9ebd fb3f b43c 4ef0 cdbd
00000080: aa1a 7bbc 1068 0dbd 41b9 7b3d c900 b8bc
00000090: 4814 233b 770f e2bd 8cf7 ea3c 0568 a9bd
000000a0: 8232 ac3d a974 193d 660e 6e3c 89fc a03c
000000b0: 9e2d e1bc cfb6 953d 7d7f 86bd f0f7 34bd
000000c0: 7b85 f0bd 3424 83bd e988 9d3d 18e8 cc3c
000000d0: 74c7 d23c 5871 fabd d122 af3c ab74 e83c
000000e0: f342 3d3d df22 89bd 89e7 08be 7ff1 c23c
000000f0: acbf 313d ea97 0c3d 94ff dd3c 5315 3cbd
00000100: 7f4a 5bbd c783 4f3d c0f6 8d3d da1d cfbc
00000110: d182 573d 135a a33d c3ec fcbc e9b9 cdbb
00000120: 5a42 24bd dc0c 8bbd 0cb1 5cbd b727 8ebd
00000130: dfcb 3abc da7d 04bd 9203 97bd 30be 4b3d
00000140: 0276 acbc 685f 8d3d 9299 20be 152a 2b3b
00000150: 7c16 e03b 386a a63c 9871 0bbd dbe1 0abd
00000160: 764d 6ebd 1674 09bd bbca 853d fc8c 523d
00000170: d2fa e53c bd9c 90bb a95e 4bbb 0c93 0dbe
00000180: c810 0fbd 6891 ba3d cf67 873c 1a40 6ebd
00000190: 20ac 873d b9fa cfbd 7ea9 d4bb 3222 9ebd
000001a0: 80c4 81bd e8a6 523a aebb a1bd abc9 523d
000001b0: c19d 493c ab84 143d d29b ae3d 4724 98ba
000001c0: 1491 313a 20ac e9bd f919 503d 8e06 9bbd
000001d0: c81f e7bd 01b6 1dbd 5b76 553b f374 ad3c
000001e0: 2731 b93c b407 8d3c b28e c23d 1aff a53d
000001f0: 99a4 a73d b2e1 d93b 19d6 ae3d a4b1 11bc
00000200: 5203 a73d 23dd d3bd 94db 73bd 4118 b9bd
00000210: 7fca cd3d 9a0c 43be 5c2a a93d 22ca 9dbd
00000220: ca7e 683d 987f 29bc a30c 1bbd baec 33bc
00000230: e5d5 143d 2e9f 4c3b 15de 8c3d 4084 793e
00000240: 7c76 0cbd 862f 73bd bc72 b6bd 74c3 d2bc
00000250: 69fc 6e3d 620c b13d 5f27 7b3c e96b f9bd
00000260: 3b11 f3bd 6176 983d 64d0 973c e9f4 e63c
00000270: 9b3c 4dbe 7d9b ff3d 1735 f1bd 47c5 b83d
00000280: e93d 5d3d 165d 953b c4a0 073c 78d7 4bbd
00000290: 651e 953d 67a6 05bd 930b 8dbd 2676 9abc
000002a0: 175e 02bd 1cb1 2b3c e2f4 6c3d e49f 813d
000002b0: d710 f9bd c1b7 c53c b1e7 00be 54f5 0e3d
000002c0: 330f d4bc 5f9b 11bd 8737 ab3d 7334 c8bd
000002d0: 7e39 90bd ef41 2bbc 22ed f33c 5581 bc3d
000002e0: a527 88bd 2a4c d33a a016 8fbd a7ef 45bd
000002f0: 78a2 bc3c 8bda f5ba 0793 43bd 5943 313d
00000300: fcee ef3c a505 45bc 5f4d 413d 1e73 133d
00000310: 5a3c 493d dfdc 0fbe f306 4ebd 20f5 e6bd
00000320: 2f8a 86bd 1519 26be 437e b8bb 6122 29bd
00000330: a00a 14be a71a ccbd e142 cabb a589 8bbc
00000340: acee c63d 7b7c 3dbd 976b 963d b6a4 a6bc
00000350: c893 d73d 69a4 78bd 8124 2f3d 7ee1 a7bd
00000360: c626 223d 6ee3 093d 5d34 a73d 2fde b43d
00000370: 726d 58bd ac7d 223b e353 fabc de6a 4f3d
00000380: 6dff bcbd f094 093d 88d9 f63c 20fe 26bd
00000390: bdd2 68bd e35a cc3d d6ed ce3d cd07 8ebd
000003a0: a629 a0bd ec11 8e3d aada 003d 7b28 5abd
000003b0: c9a2 73bd 6a06 b33c a8c4 d4bd c93a e83c
000003c0: ee9b 2d3d 591f 85bd 729d 693d 7940 853d
000003d0: 5fe6 75bd 1f77 8b3d 1165 013d 6b9c d6bd
000003e0: 6eb5 97bd 4813 62bd 2845 d53d 3de7 68bc
000003f0: 23f1 81bd 5d48 3bbd c065 f5bc ab42 0cbd

fc2.bias f4 [64]
0.028822996 0.016093625 0.06775697 -0.012556716 -0.052836098 0.029167771 0.039139364 0.016330427
-0.06797263 0.0608258 -0.0711559 -0.0028386966 0.07858724 -0.08395444 -0.035137728 -0.0028944798
-0.027746966 -0.0082192095 0.074543476 0.08616001 0.025340686 -0.080754824 -0.04464147 -0.04534133
-0.020676844 0.01709671 0.025484174 0.056658894 -0.06901997 -0.044029005 0.04680045 -0.011231482
0.08303281 -0.015242673 -0.08890004 0.021699667 -0.049668077 0.021901611 -0.06343467 0.072664455
-0.0640238 -0.03771481 0.071779296 0.0742963 0.03354754 -0.049325492 0.057609066 -0.07813609
-0.08102326 -0.048465203 0.048896857 0.004515255 -0.056612432 0.07058111 0.10323362 -0.025600221
0.04622141 0.03762612 -0.042822193 0.051814854 -0.008666084 0.053028084 0.04539652 0.0666708
00000000: 341e ec3c c7d6 833c 2bc4 8a3d afba 4dbc
00000010: aa6a 58bd 40f1 ee3c 9950 203d 63c7 853c
00000020: 3c35 8bbd 7924 793d 2fba 91bd 6d09 3abb
00000030: 59f2 a03d 4ef0 abbd 94ec 0fbd 50b1 3dbb
00000040: 9b4d e3bc dda9 06bc 40aa 983d a974 b03d
00000050: 4597 cf3c c962 a5bd f9d9 36bd d5b7 39bd
00000060: 7c62 a9bc 660e 8c3c 30c4 d03c 2813 683d
00000070: 585a 8dbd c257 34bd d4b1 3f3d 4004 38bc
00000080: 1b0d aa3d 68bc 79bc 3911 b6bd 80c3 b13c
00000090: c170 4bbd 026b b33c 09ea 81bd 1ad1 943d
000000a0: e91e 83bd d87a 1abd 0601 933d a928 983d
000000b0: 2569 093d 8709 4abd 7cf7 6b3d d005 a0bd
000000c0: 86ef a5bd 7383 46bd 1248 483d b4f4 933b
000000d0: 70e2 67bd d48c 903d 266c d33d 8eb7 d1bc
000000e0: a952 3d3d d91d 1a3d 5366 2fbd d03b 543d
000000f0: 31fc 0dbc fa33 593d b4f1 393d b38a 883d

fc3.weight f4 [24, 64]
0.10730748 -0.04502695 -0.090542905 0.047333766 -0.06808991 -0.0037593343 0.08184515 -0.10807784
-0.06577283 0.015301514 0.08464326 -0.20179771 -0.09871295 0.0062105292 0.10418633 0.24521665
-0.092906535 0.19378334 0.026885089 0.047403876 -0.0069432408 0.013706967 0.10572477 0.12839516
0.116719216 0.07305876 -0.021014579 -0.02052172 -0.22997826 0.009858595 0.043755222 -0.05879744
-0.08797054 -0.10543582 -0.061300714 0.15818435 -0.0882175 0.09039786 0.1351108 0.075961165
0.0076890658 0.12648158 0.051365647 -0.040208247 0.034201108 0.16524266 -0.010374052 0.020649264
-0.12740594 0.15853082 -0.006074485 0.043029346 0.017394312 -0.10169579 0.12915605 0.007640179
0.08321891 -0.045957103 -0.11890655 0.04826989 0.06548466 -0.027628865 -0.06334722 -0.09187454
-0.20134518 -0.23674576 0.07531536 -0.05690394 0.15144472 0.15276243 -0.09752148 0.0010955072
0.086257115 0.031837713 0.028247917 0.056519695 0.13439956 0.030865 -0.1053044 -0.033838067
0.13491471 -0.14010397 -0.094580255 0.07385032 0.11351989 -0.010889888 0.121072486 0.112978466
-0.09610382 -0.05212531 0.13779856 0.069438465 -0.1100794 -0.06952853 -0.10716915 0.0908265
0.009716273 -0.02228102 0.10723958 0.00032128044 -0.12197381 -0.071214184 -0.056273706 0.08629975
0.15489246 -0.005088445 0.14543132 -0.11938127 -0.07585034 -0.11590435 0.044984024 -0.13204838
-0.079068765 -0.009139874 0.033321567 -0.05122759 0.12125274 0.063210644 0.07754567 0.12948468
-0.08826488 0.010861233 -0.1030926 0.024394795 -0.014648172 0.0719119 -0.12529387 0.15575127
0.011000787 0.11549224 -0.06303316 -0.025787553 0.075111955 0.15450563 0.13694169 0.06283655
0.107155845 0.13068059 0.0072440347 -0.10871365 0.008374876 -0.102128364 0.0015683123 0.32328653
-0.12760192 -0.008804663 -0.064302325 0.06652547 0.11419709 -0.022093832 -0.03865774 -0.13331933
-0.09020803 0.0943911 -0.13526827 -0.09810897 0.10553244 -0.123111024 0.07378242 0.07271258
0.0069916006 -0.027488694 -0.021590045 -0.047358092 0.10781245 0.12139712 -0.0022140716 0.13447803
-0.116184786 -0.0839381 -0.09700472 0.059322108 -0.11309036 -0.15586323 -0.026812404 -0.094730504
-0.13457398 0.024043545 0.10766103 -0.056780968 0.09844788 0.10917928 0.054923188 -0.03470453
-0.084729575 0.13341664 0.07972538 0.028321069 0.11036385 0.07218654 -0.07291375 0.061635327
-0.0007188547 0.07714205 -0.011320429 0.008207954 0.12506954 0.13945942 -0.024276957 0.11848498
-0.10948573 0.12657847 0.043402378 -0.063072525 -0.049715903 -0.063227475 -0.021822585 -0.077015586
-0.15621419 -0.09505887 0.11127387 -0.0091176005 0.062196754 0.10999133 -0.037935704 -0.018149436
0.025352754 0.052087616 0.112069584 0.05514682 -0.036112748 -0.04751424 -0.08295574 0.12772487
0.15882781 -0.11562158 -0.046950474 0.13069424 -0.061673805 -0.05652166 0.044056807 -0.0035194214
-0.20627181 0.08012101 0.049511872 0.0994611 -0.02565358 -0.04226102 0.050787494 0.09271863
0.008126743 0.13834102 0.012896163 0.028724607 -0.13141525 -0.018133653 0.039199248 0.062762015
0.13771935 -0.068085514 0.0854731 -0.05421354 0.012463516 -0.058909878 -0.010693695 0.01849945
00000000: 06c4 db3d 2e6e 38bd 8f6e b9bd 0de1 413d
00000010: b972 8bbd 2a5f 76bb 6e9e a73d ea57 ddbd
00000020: e8b3 86bd 34b3 7a3c 7259 ad3d 0fa4 4ebe
00000030: 042a cabd b281 cb3b a55f d53d 131a 7b3e
00000040: c845 bebd 246f 463e 1e3e dc3c 912a 423d
00000050: 2084 e3bb 3093 603c 3a86 d83d 057a 033e
00000060: 7c0a ef3d d59f 953d c426 acbc 2b1d a8bc
00000070: 6c7f 6bbe f285 213c ad38 333d 96d5 70bd
00000080: e629 b4bd bcee d7bd 7516 7bbd 14fb 213e
00000090: 60ab b4bd 8322 b93d 7c5a 0a3e 8791 9b3d
000000a0: 8ff4 fb3b 6384 013e c964 523d 67b1 24bd
000000b0: 7616 0c3d 5f35 293e eef7 29bc a528 a93c
000000c0: b476 02be e755 223e 790c c7bb 8a3f 303d
000000d0: 847e 8e3c e245 d0bd 7c41 043e 775a fa3b
000000e0: ad6e aa3d 843d 3cbd 4785 f3bd a6b6 453d
000000f0: d21c 863d ee55 e2bc 30bc 81bd b828 bcbd
00000100: 6e2d 4ebe 7b6d 72be f13e 9a3d 1b14 69bd
00000110: 5314 1b3e c16d 1c3e 57b9 c7bd 1f97 8f3a
00000120: 92a7 b03d 4368 023d 2d68 e73c 3281 673d
00000130: 0aa0 093e 99d8 fc3c d5a9 d7bd c999 0abd
00000140: 1527 0a3e 6a77 0fbe 4bb3 c1bd d63e 973d
00000150: 1e7d e83d 806b 32bc daf4 f73d 4161 e73d
00000160: 14d2 c4bd 5981 55bd 111b 0d3e c135 8e3d
00000170: 4f71 e1bd f964 8ebd 807b dbbd 3e03 ba3d
00000180: 0131 1f3c b086 b6bc 6da0 db3d 8871 a839
00000190: 68cd f9bd bed8 91bd 427f 66bd ecbd b03d
000001a0: 219c 1e3e f8bc a6bb f3eb 143e 2b7e f4bd
000001b0: 6c57 9bbd 435f edbd 2b41 383d b137 07be
000001c0: ceee a1bd 69bf 15bc 327c 083d 05d4 51bd
000001d0: 5b53 f83d 9574 813d 44d0 9e3d a297 043e
000001e0: 38c4 b4bd 50f3 313c 3722 d3bd 98d7 c73c
000001f0: e3fe 6fbc 8c46 933d 094d 00be 437d 1f3e
00000200: a53c 343c 3287 ec3d 8817 81bd 6b40 d3bc
00000210: 4cd4 993d b936 1e3e 713a 0c3e 73b0 803d
00000220: 8674 db3d 22d1 053e 5e5f ed3b 43a5 debd
00000230: c736 093c ad28 d1bd d48f cd3a d085 a53e
00000240: 14aa 02be 6f41 10bc f0b0 83bd 813e 883d
00000250: 2ae0 e93d 20fe b4bc 9457 1ebd dd84 08be
00000260: fdbe b8bd 1f50 c13d c483 0abe 5bed c8bd
00000270: 6421 d83d a221 fcbd 3d1b 973d 55ea 943d
00000280: cc19 e53b f82f e1bc 9bdd b0bc 8ffa 41bd
00000290: c6cc dc3d 0e9f f83d f519 11bb 9cb4 093e
000002a0: 4af2 edbd bde7 abbd 69aa c6bd bdfb 723d
000002b0: eb9b e7bd 9c9a 1fbe b0a5 dbbc 1102 c2bd
000002c0: c3cd 09be f8f6 c43c 637d dc3d 2993 68bd
000002d0: 0b9f c93d 6399 df3d 23f7 603d 5626 0ebd
000002e0: b386 adbd 5f9e 083e 0f47 a33d 9601 e83c
000002f0: 7106 e23d 89d6 933d ce53 95bd 5375 7c3d
00000300: 8671 3cba a7fc 9d3d 5279 39bc a77a 063c
00000310: 3b12 003e 73ce 0e3e 78e0 c6bc 41a8 f23d
00000320: 0e3a e0bd c99d 013e b1c6 313d 2b2c 81bd
00000330: e7a2 4bbd 687d 81bd 47c5 b2bc 59ba 9dbd
00000340: 9df6 1fbe 3aae c2bd 8ee3 e33d fd61 15bc
00000350: 06c2 7e3d 2243 e13d 7862 1bbd 20ae 94bc
00000360: 94b0 cf3c d359 553d bd84 e53d a2e1 613d
00000370: f6ea 13bd 4b9e 42bd b3e4 a9bd 4fca 023e
00000380: c2a3 223e 02cb ecbd 244f 40bd b6d4 053e
00000390: ac9d 7cbd 4283 67bd e974 343d 18a6 66bb
000003a0: eb38 53be 7c16 a43d f6cc 4a3d 43b2 cb3d
000003b0: 7527 d2bc e419 2dbd 8c06 503d 44e3 bd3d
000003c0: 0826 053c 45a9 0d3e 6e4a 533c de4f eb3c
000003d0: b891 06be 078d 94bc 648f 203d 5f89 803d
000003e0: 4d06 0d3e 6b70 8bbd 850c af3d 040f 5ebd
000003f0: c633 4c3c 7c4b 71bd 9c34 2fbc 298c 973c

fc3.bias f4 [24]
0.120479636 0.005796655 0.03006072 -0.030950401 0.07185349 0.08276618 0.004311223 -0.07100709
0.09351929 0.08111124 0.025907006 -0.00460889 -0.0019900044 -0.08954379 -0.008942143 0.09477271
0.021910293 0.012795248 0.13086337 -0.037193026 -0.020406738 0.1078562 0.08513537 0.065544926
00000000: 07be f63d def1 bd3b e641 f63c b28b fdbc
00000010: ec27 933d 5181 a93d 2945 8d3b 2a6c 91bd
00000020: 0b87 bf3d a61d a63d ee3a d43c 2c06 97bb
00000030: bc6a 02bb bc62 b7bd 1182 12bc 3218 c23d
00000040: 377d b33c 29a3 513c 0c01 063e b757 18bd
00000050: 082c a7bc b6e3 dc3d 745b ae3d 6b3c 863d

exp_avg f4 [128, 144]
-0.00010094345 -2.2318554e-06 -6.541545e-05 -4.3062006e-05 -2.2004984e-05 -3.2811724e-05 -2.2175067e-05 -2.701284e-05
-2.8928687e-05 -3.4152195e-05 -1.1454802e-05 -2.1974014e-05 -1.881261e-05 -1.5865508e-05 -1.3149782e-05 -2.1244907e-06
-5.3662367e-05 -4.960739e-05 -4.2945223e-05 -3.2771895e-05 -6.400251e-05 -2.7885333e-05 -4.4650837e-06 -3.263867e-05
-0.00013328018 -3.7628324e-05 -7.3369294e-05 -4.386464e-05 1.87341e-05 -2.4734543e-05 -6.569745e-05 -5.9537346e-05
-5.152781e-05 -2.2974113e-05 -3.0764433e-05 -6.879053e-05 -6.165613e-05 -4.6559595e-05 -1.8620081e-05 2.5343961e-05
-5.1660783e-05 -4.8733917e-05 -4.84021e-05 -1.2492155e-05 -9.0282854e-05 -2.1227932e-05 6.174125e-06 -4.448831e-05
-0.00013214904 -4.7402806e-05 -7.773517e-05 -5.206855e-05 1.7017357e-05 -2.1178517e-05 -6.721149e-05 -6.698664e-05
-4.3411314e-05 -2.1642416e-05 -2.8533559e-05 -6.192683e-05 -5.187694e-05 -4.5875182e-05 -1.2845705e-05 2.1540647e-05
-5.4324453e-05 -4.3149896e-05 -5.0925133e-05 -2.0521278e-05 -8.8699984e-05 -2.7774726e-05 1.356171e-05 -5.551373e-05
-0.0001265062 -5.5383025e-05 -7.464317e-05 -6.0975588e-05 1.9597348e-05 -2.1066819e-05 -6.581332e-05 -6.2601364e-05
-4.464142e-05 -2.8327016e-05 -2.8315539e-05 -5.9843915e-05 -5.3299216e-05 -4.403484e-05 -9.960415e-06 1.02320255e-05
-6.244183e-05 -4.2703916e-05 -4.7998597e-05 -2.1817574e-05 -8.8301116e-05 -1.8896635e-05 1.9847532e-05 -5.7379606e-05
-0.00012642056 -5.3062344e-05 -7.9244004e-05 -6.702903e-05 1.8769177e-05 -1.8771505e-05 -6.931594e-05 -5.89381e-05
-4.526841e-05 -2.7178947e-05 -2.9899336e-05 -6.0657883e-05 -4.5885903e-05 -4.524625e-05 -7.126675e-06 8.447536e-06
-6.223254e-05 -4.458866e-05 -4.369631e-05 -2.1150114e-05 -8.781076e-05 -1.3458752e-05 1.8059898e-05 -5.9121725e-05
-0.00012986393 -5.36436e-05 -7.660912e-05 -7.02274e-05 1.3420751e-05 -1.2705339e-05 -6.945882e-05 -6.3025174e-05
-4.7702346e-05 -2.6912374e-05 -2.5521733e-05 -6.124718e-05 -4.306989e-05 -4.5649012e-05 -8.399314e-06 -2.3085286e-06
-5.082792e-05 -4.19429e-05 -4.0657258e-05 -2.0675576e-05 -8.53106e-05 -1.2811337e-05 2.1303804e-05 -6.547812e-05
-5.4278917e-05 -2.9893006e-05 -1.6070375e-05 -2.2949176e-05 -4.6783684e-05 -1.6767068e-05 -1.8536704e-05 -3.8410373e-05
-5.1317707e-05 -4.5203462e-05 -4.4304914e-05 -4.636924e-05 -4.6554065e-05 -1.2509921e-05 -2.839453e-05 -1.8076615e-05
-2.9899782e-05 -4.261767e-05 -6.862602e-05 -4.1193987e-05 -1.7234088e-06 -2.7100905e-05 -1.8345692e-05 -2.8485534e-05
-6.24256e-05 -3.1118467e-05 -4.2145526e-05 -3.6164318e-05 -5.3199175e-05 -4.1371124e-05 -5.2365e-05 -2.7264447e-05
-4.971192e-05 -2.9762132e-05 -3.8481277e-05 -5.261775e-05 -7.600708e-05 -4.4301047e-05 -3.9915096e-05 -2.1840433e-05
-3.8461294e-05 -5.4002325e-05 -8.836671e-05 -4.806472e-05 -3.518569e-05 -3.4669956e-05 -2.53398e-05 -4.187712e-05
-6.609724e-05 -3.2788274e-05 -4.312975e-05 -3.2455562e-05 -5.218811e-05 -3.9098406e-05 -4.2981992e-05 -3.3318098e-05
-4.730381e-05 -2.689975e-05 -4.052293e-05 -4.9215887e-05 -7.4202864e-05 -4.495131e-05 -3.1114887e-05 -1.9602692e-05
-2.7862125e-05 -5.7452562e-05 -8.892096e-05 -5.0253053e-05 -3.2720807e-05 -3.628502e-05 -3.0811832e-05 -3.7405724e-05
-5.7502453e-05 -2.8976827e-05 -4.3357984e-05 -3.310075e-05 -4.68771e-05 -3.7079484e-05 -3.989211e-05 -3.462523e-05
-4.7208716e-05 -3.0149908e-05 -4.1124316e-05 -4.61184e-05 -7.175777e-05 -4.4929853e-05 -3.122486e-05 -2.3300152e-05
-3.6174013e-05 -6.108544e-05 -8.950711e-05 -4.5836314e-05 -3.7544938e-05 -3.9265706e-05 -2.7363956e-05 -3.3403318e-05
-5.989275e-05 -2.3645644e-05 -4.718574e-05 -3.6817568e-05 -4.3535936e-05 -3.160425e-05 -3.864989e-05 -3.566061e-05
-4.5773406e-05 -2.6350275e-05 -4.551375e-05 -4.767728e-05 -7.2320036e-05 -4.7716014e-05 -3.269312e-05 -2.4088891e-05
00000000: 9ab1 d3b8 fcc6 15b6 a72f 89b8 7a9d 34b8
00000010: 5897 b8b7 529f 09b8 9804 bab7 a299 e2b7
00000020: e2ab f2b7 a43e 0fb8 002e 40b7 d654 b8b7
00000030: c6cf 9db7 eb16 85b7 e29d 5cb7 7992 0eb6
00000040: 8713 61b8 8811 50b8 1520 34b8 8e74 09b8
00000050: 1639 86b8 4ceb e9b7 c7d2 95b6 81e5 08b8
00000060: 20c1 0bb9 1bd3 1db8 d7dd 99b8 4cfb 37b8
00000070: 2c27 9d37 077d cfb7 0dc7 89b8 bdb7 79b8
00000080: 911f 58b8 88b8 c0b7 0f09 01b8 a243 90b8
00000090: 624d 81b8 fc48 43b8 5232 9cb7 be99 d437
000000a0: 58ae 58b8 a567 4cb8 5c03 4bb8 6695 51b7
000000b0: 3d56 bdb8 a312 b2b7 542b cf36 f698 3ab8
000000c0: 7d91 0ab9 60d2 46b8 c005 a3b8 2e64 5ab8
000000d0: 7fc0 8e37 85a8 b1b7 e5f3 8cb8 2e7b 8cb8
000000e0: 8b14 36b8 bc8c b5b7 5a5b efb7 b7de 81b8
000000f0: 7196 59b8 1a6a 40b8 e283 57b7 30b2 b437
00000100: 70da 63b8 d9fb 34b8 7298 55b8 1c25 acb7
00000110: 7104 bab8 c5fd e8b7 1a87 6337 6ad7 68b8
00000120: c0a6 04b9 124b 68b8 bf89 9cb8 0ac0 7fb8
00000130: fc64 a437 a6b8 b0b7 4205 8ab8 da48 83b8
00000140: 5c3d 3bb8 ce9f edb7 2887 edb7 ea00 7bb8
00000150: 998d 5fb8 0db2 38b8 a81b 27b7 37aa 2b37
00000160: 34f3 82b8 fb1c 33b8 1a52 49b8 e204 b7b7
00000170: 4d2e b9b8 3784 9eb7 407e a637 e2aa 70b8
00000180: c38f 04b9 428f 5eb8 cd2f a6b8 f091 8cb8
00000190: 8072 9d37 8077 9db7 b65d 91b8 4e34 77b8
000001a0: 96de 3db8 58fe e3b7 56d0 fab7 e86a 7eb8
000001b0: 9d75 40b8 cac6 3db8 ac21 efb6 e4b9 0d37
000001c0: d782 82b8 b604 3bb8 8e46 37b8 866b b1b7
000001d0: 0b27 b8b8 e6cc 61b7 567f 9737 78f9 77b8
000001e0: 152c 08b9 60ff 60b8 35a9 a0b8 0c47 93b8
000001f0: b029 6137 0429 55b7 6caa 91b8 622c 84b8
00000200: 0114 48b8 e2c1 e1b7 8117 d6b7 d471 80b8
00000210: f1a5 34b8 4177 3fb8 c7ea 0cb7 38ec 1ab6
00000220: 1030 55b8 d9eb 2fb8 6687 2ab8 7670 adb7
00000230: c8e8 b2b8 46f0 56b7 92b5 b237 4c51 89b8
00000240: 8ba9 63b8 bec2 fab7 dece 86b7 fb82 c0b7
00000250: 9939 44b8 01a7 8cb7 457f 9bb7 d31a 21b8
00000260: f83d 57b8 d998 3db8 0ad4 39b8 987c 42b8
00000270: 0c43 43b8 b4e1 51b7 ca30 eeb7 3ca3 97b7
00000280: 4bd1 fab7 60c0 32b8 50eb 8fb8 b5c7 2cb8
00000290: e04f e7b5 c056 e3b7 13e5 99b7 38f4 eeb7
000002a0: 7dea 82b8 3385 02b8 6ac5 30b8 24af 17b8
000002b0: 2e22 5fb8 e885 2db8 7ea2 5bb8 f4b5 e4b7
000002c0: c581 50b8 b1a9 f9b7 f566 21b8 e1b1 5cb8
000002d0: fe65 9fb8 e3cf 39b8 826a 27b8 f935 b7b7
000002e0: 8051 21b8 8e80 62b8 8451 b9b8 1a99 49b8
000002f0: 5994 13b8 956a 11b8 ce90 d4b7 37a5 2fb8
00000300: af9d 8ab8 2486 09b8 37e6 34b8 e520 08b8
00000310: 8ee4 5ab8 98fd 23b8 9047 34b8 09bf 0bb8
00000320: 1468 46b8 c6a6 e1b7 2af7 29b8 286d 4eb8
00000330: 5c9d 9bb8 1a8a 3cb8 5b81 02b8 7670 a4b7
00000340: 75b9 e9b7 38f9 70b8 147b bab8 cec6 52b8
00000350: b33d 09b8 be30 18b8 f43b 01b8 17e4 1cb8
00000360: ca2e 71b8 4313 f3b7 48db 35b8 a9d5 0ab8
00000370: e79d 44b8 cb85 1bb8 d451 27b8 8f3a 11b8
00000380: f901 46b8 6fea fcb7 e67c 2cb8 416f 41b8
00000390: a97c 96b8 1073 3cb8 70f7 02b8 b274 c3b7
000003a0: 8db9 17b8 ff1a 80b8 c4b5 bbb8 5e40 40b8
000003b0: 9279 1db8 3bb1 24b8 a68b e5b7 8a1a 0cb8
000003c0: 5a35 7bb8 a25a c6b7 4de9 45b8 906c 1ab8
000003d0: 5b9a 36b8 ce8e 04b8 011c 22b8 4a92 15b8
000003e0: d2fc 3fb8 c90a ddb7 04e6 3eb8 17f9 47b8
000003f0: 86aa 97b8 ae22 48b8 f81f 09b8 8012 cab7

exp_avg_sq f4 [128, 144]
1.12373435e-07 1.8424474e-08 9.6005365e-08 2.4645832e-08 3.615248e-08 5.4635546e-08 1.2081095e-08 1.7785549e-08
2.889256e-08 2.4192415e-08 2.0796252e-08 3.0368884e-08 3.822139e-08 9.043051e-09 1.7660856e-08 1.3187164e-08
6.882971e-08 6.187162e-08 9.991034e-08 2.127544e-08 7.893649e-08 3.103036e-08 2.1241394e-08 2.3352126e-08
1.923949e-07 5.2945182e-08 1.6047716e-07 5.3968375e-08 6.730246e-08 8.013774e-08 4.4742077e-08 4.688211e-08
5.0423992e-08 5.915901e-08 3.646253e-08 4.6213426e-08 6.7938245e-08 4.20137e-08 5.427707e-08 3.9934232e-08
1.16167286e-07 1.0000774e-07 1.8135904e-07 3.353758e-08 1.1990119e-07 5.8243817e-08 4.339137e-08 6.3421695e-08
1.954912e-07 5.4146522e-08 1.6409493e-07 5.6446876e-08 6.968801e-08 8.1630965e-08 4.3865544e-08 5.03309e-08
5.335945e-08 5.7446826e-08 3.5713118e-08 4.6737227e-08 6.3156726e-08 3.98354e-08 5.6538678e-08 4.233287e-08
1.1479431e-07 9.7051924e-08 1.8466795e-07 3.4553146e-08 1.1720678e-07 6.1551944e-08 4.4942126e-08 6.800457e-08
1.9211804e-07 5.5924236e-08 1.6485353e-07 5.3742347e-08 7.2394435e-08 8.4301675e-08 4.512085e-08 4.8968342e-08
5.403315e-08 5.7145975e-08 3.481575e-08 4.852468e-08 6.406444e-08 3.943895e-08 5.437778e-08 4.5314064e-08
1.1455453e-07 9.936058e-08 1.830616e-07 3.4682714e-08 1.1891169e-07 5.8864458e-08 4.666311e-08 7.304104e-08
1.9217525e-07 5.7833027e-08 1.6693025e-07 5.352329e-08 7.4253585e-08 8.3645595e-08 4.3484125e-08 5.080164e-08
5.1206797e-08 6.039609e-08 3.577818e-08 4.672553e-08 6.584491e-08 3.86413e-08 5.4750508e-08 4.2726573e-08
1.1443266e-07 1.0244615e-07 1.8210478e-07 3.443178e-08 1.191744e-07 6.021128e-08 4.5727507e-08 7.3517846e-08
1.9193747e-07 5.744657e-08 1.648742e-07 5.357694e-08 7.3918535e-08 8.8073186e-08 4.2661803e-08 4.9688296e-08
5.2435986e-08 6.1518065e-08 3.6062247e-08 4.8623374e-08 6.6278574e-08 3.6289077e-08 5.2830337e-08 4.1426553e-08
1.1843044e-07 1.0204246e-07 1.8306223e-07 3.3693414e-08 1.18703106e-07 5.9145947e-08 4.6944763e-08 7.5183614e-08
5.317648e-08 1.2703747e-08 3.0347042e-08 1.5277825e-08 2.5775831e-08 1.5833445e-08 7.863026e-09 9.418707e-09
2.6268385e-08 1.8847274e-08 1.37381155e-08 2.8834078e-08 2.7678077e-08 5.133748e-09 1.0941895e-08 1.0781257e-08
2.7490625e-08 3.6931198e-08 5.0104575e-08 1.793457e-08 2.825964e-08 8.547588e-09 1.5358385e-08 1.1421811e-08
9.8351265e-08 3.425628e-08 7.793506e-08 2.745324e-08 4.2610054e-08 3.884366e-08 2.0612285e-08 2.0003851e-08
3.8869775e-08 3.0586772e-08 2.2259103e-08 5.276833e-08 5.235603e-08 2.6507388e-08 2.5748477e-08 2.5129488e-08
4.810077e-08 6.183357e-08 8.662158e-08 3.0208493e-08 6.526768e-08 2.6490591e-08 3.2594304e-08 2.2699464e-08
1.0087479e-07 3.5105725e-08 8.1195196e-08 2.8793187e-08 4.3273864e-08 4.1456495e-08 2.2027267e-08 2.0042958e-08
4.1492783e-08 3.2062314e-08 2.5227068e-08 5.161175e-08 5.4894656e-08 2.6374249e-08 2.6479377e-08 2.462228e-08
4.866595e-08 6.261095e-08 8.6764565e-08 3.0439146e-08 6.972457e-08 2.8644317e-08 3.4205517e-08 2.339849e-08
1.0046391e-07 3.4551366e-08 8.219785e-08 3.0094732e-08 4.3056083e-08 4.1615543e-08 2.232418e-08 1.92266e-08
4.324112e-08 3.157974e-08 2.7372884e-08 5.133993e-08 5.6513247e-08 2.4412628e-08 2.450724e-08 2.4603532e-08
4.9605024e-08 6.1585446e-08 8.649502e-08 3.048513e-08 7.264529e-08 2.9511986e-08 3.5427302e-08 2.351238e-08
1.0088674e-07 3.395623e-08 8.421457e-08 3.400405e-08 4.4176e-08 4.179946e-08 2.2071164e-08 1.772039e-08
4.3109942e-08 3.226842e-08 2.9189744e-08 5.096172e-08 5.7291608e-08 2.3819782e-08 2.3604427e-08 2.5673028e-08
00000000: f351 f133 d943 9e32 822b ce33 c2b4 d332
00000010: 1246 1b33 6ba8 6a33 388d 4f32 d6c6 9832
00000020: 692f f832 afcf cf32 71a3 b232 f16e 0233
00000030: dd28 2433 c25b 1b32 a2b4 9732 c38d 6232
00000040: 89cf 9333 48de 8433 4a8e d633 30c1 b632
00000050: cb83 a933 3e46 0533 5276 b632 de97 c832
00000060: 1b95 4e34 d865 6333 a04f 2c34 dbca 6733
00000070: eb87 9033 3018 ac33 6f2a 4033 6d5b 4933
00000080: c491 5833 0516 7e33 fa9a 1c33 337c 4633
00000090: 72e5 9133 8d72 3433 451e 6933 2784 2b33
000000a0: a477 f933 d6c3 d633 98bb 4234 f60a 1033
000000b0: 30be 0034 c127 7a33 515d 3a33 7232 8833
000000c0: 36e8 5134 bb8e 6833 1232 3034 ff6f 7233
000000d0: 63a7 9533 194d af33 ad66 3c33 692b 5833
000000e0: 562d 6533 74bb 7633 fd62 1933 20bc 4833
000000f0: c7a0 8733 7c17 2b33 efd4 7233 7cd1 3533
00000100: d784 f633 dc6a d033 2449 4634 9667 1433
00000110: 1cb3 fb33 8a2e 8433 6406 4133 e809 9233
00000120: 0149 4e34 5931 7033 9802 3134 56d2 6633
00000130: 4377 9b33 5609 b533 e6ca 4133 4351 5233
00000140: 1412 6833 aa70 7533 5288 1533 7369 5033
00000150: cc93 8933 9663 2933 008d 6933 579f 4233
00000160: 0501 f633 0e60 d533 978f 4434 0cf6 1433
00000170: 655c ff33 28d2 7c33 a26a 4833 bdda 9c33
00000180: bb58 4e34 1664 7833 703d 3334 7be1 6533
00000190: 5775 9f33 a7a0 b333 4dc3 3a33 fe30 5a33
000001a0: 78ee 5b33 1ab3 8133 86aa 1933 43af 4833
000001b0: 9f66 8d33 8ff6 2533 d226 6b33 5d82 3733
000001c0: 05be f533 5e00 dc33 9588 4334 24e2 1333
000001d0: d2ec ff33 804d 8133 ed65 4433 dde0 9d33
000001e0: 5f17 4e34 2cbb 7633 4608 3134 781c 6633
000001f0: 25bd 9e33 bf22 bd33 263b 3733 dc68 5533
00000200: fa35 6133 ea1b 8433 dce2 1a33 f7d5 5033
00000210: 0855 8e33 43dc 1b33 92e7 6233 faec 3133
00000220: d353 fe33 7022 db33 c38f 4434 4db6 1033
00000230: b9e9 fe33 a807 7e33 50a0 4933 a174 a133
00000240: 2864 6433 ac3f 5a32 ed56 0233 4b3c 8332
00000250: a769 dd32 1d02 8832 f415 0732 e9cf 2132
00000260: caa4 e132 98e5 a132 df04 6c32 cfae f732
00000270: bcc0 ed32 ed64 b031 f7fa 3b32 7838 3932
00000280: 8624 ec32 489e 1e33 9032 5733 890e 9a32
00000290: 9bbf f232 b1d8 1232 72ed 8332 a839 4432
000002a0: 2e35 d333 2e21 1333 415d a733 50d2 eb32
000002b0: 4002 3733 0ed5 2633 e50e b132 efd4 ab32
000002c0: c5f1 2633 835e 0333 4934 bf32 64a3 6233
000002d0: 10de 6033 5db2 e332 802d dd32 54dc d732
000002e0: 5b97 4e33 5dc9 8433 b804 ba33 97be 0133
000002f0: 4929 8c33 6d8d e332 d1fd 0b33 a6fc c232
00000300: 81a0 d833 27c7 1633 885d ae33 e354 f732
00000310: 1edc 3933 e60d 3233 7936 bd32 ee2a ac32
00000320: cc35 3233 e3b4 0933 e9b2 d832 b8ab 5d33
00000330: 50c5 6b33 968d e232 c474 e332 f780 d332
00000340: c704 5133 bc74 8633 5353 ba33 32bc 0233
00000350: 7dbb 9533 850d f632 5de9 1233 d3fd c832
00000360: 9ebe d733 a165 1433 bf84 b033 8241 0133
00000370: aaec 3833 c6bc 3233 64c3 bf32 be27 a532
00000380: 1db8 3933 4ba2 0733 9c21 eb32 da80 5c33
00000390: f9b8 7233 f0b3 d132 fe83 d232 bd57 d332
000003a0: 4d0d 5533 f540 8433 24bf b933 c1ee 0233
000003b0: 2c01 9c33 8b81 fd32 bb28 1833 45f8 c932
000003c0: 12a7 d833 45d7 1133 73d9 b433 d90b 1233
000003d0: 07bc 3d33 fe86 3333 0197 bd32 8d37 9832
000003e0: e227 3933 8197 0a33 edbc fa32 01e1 5a33
000003f0: ca10 7633 419c cc32 afc2 ca32 9687 dc32

exp_avg f4 [128]
-8.344693e-05 -9.446965e-05 5.1376657e-05 2.6101767e-05 0.00015445409 -0.00026160426 6.0801285e-05 0.0001585375
-0.000120589146 0.0 0.00012943898 6.2004954e-05 6.6974695e-05 -2.5249048e-05 -0.00010059436 1.432094e-05
0.00023075656 0.00019519264 0.00023087689 6e-45 -2.7580167e-05 0.00022202857 5.2741645e-05 -2.0255255e-05
-3.7702608e-05 0.00015209179 0.00012855876 -6.5897155e-05 4.2988428e-05 -0.0002555378 -0.00013862088 7.2615134e-05
0.00011795285 -5.5926677e-05 0.00011373098 9.5837684e-05 6e-45 -9.733005e-05 0.0 -0.000118213655
-1.7597482e-05 5.9283426e-05 -3.7351674e-05 2.4286433e-05 -8.098649e-06 -5.659589e-06 -9.826594e-05 6e-45
1.4628069e-05 0.00013641076 0.0 9.761208e-05 6e-45 -1.1605035e-05 2.195131e-06 -2.4533005e-05
-6.4735796e-06 -8.917382e-05 -0.00011059049 8.328579e-05 5.545167e-05 6.527e-05 0.00017774978 2.0158848e-05
6.120908e-05 3.0290365e-05 -3.9954542e-05 0.00011093744 0.000104601895 -0.00021589022 6e-45 4.200911e-05
0.000110120156 -3.258814e-06 -6.18397e-05 6e-45 8.616992e-05 -0.00016876715 -3.0274532e-05 0.000117720214
0.00012998772 -0.0001210406 2.6903901e-05 -5.2165793e-05 4.6419278e-05 -7.580796e-05 -0.00014255935 3.4176002e-05
6e-45 6e-45 0.0 0.00014987498 -1.4434896e-05 7.691989e-05 7.232206e-05 -1.7629263e-05
0.000100334124 -8.496143e-06 0.00013736135 -0.00015693504 0.00014721674 8.128441e-05 6.29569e-05 2.078145e-05
0.0 -8.9104775e-05 1.1618053e-05 -0.00012390426 6.495752e-05 -6.6888606e-05 -4.7063324e-05 2.8655068e-05
9.0916044e-05 -0.00018481188 6e-45 0.00014591526 0.000109824534 9.767211e-06 0.00015850381 -0.00016804686
-3.268283e-05 0.0001500846 0.00014793575 1.3376148e-05 6e-45 2.5263631e-05 6e-45 -7.513954e-05
00000000: 3b00 afb8 021e c6b8 447d 5738 1ef5 da37
00000010: f4f4 2139 ee27 89b9 e204 7f38 163d 2639
00000020: cee4 fcb8 0000 0000 03ba 0739 a808 8238
00000030: c474 8c38 ebcd d3b7 30f6 d2b8 f843 7037
00000040: 3ef7 7139 a0ac 4c39 8b17 7239 0400 0000
00000050: f55b e7b7 57d0 6839 e936 5d38 d4e9 a9b7
00000060: de22 1eb8 d47a 1f39 bbcd 0639 4432 8ab8
00000070: 794e 3438 b4f9 85b9 c25a 11b9 f448 9838
00000080: 745d f738 d092 6ab8 db82 ee38 77fc c838
00000090: 0400 0000 ac1d ccb8 0000 0000 79e9 f7b8
000000a0: 4e9e 93b7 18a7 7838 0eaa 1cb8 b8ba cb37
000000b0: 6fdf 07b7 80e7 bdb6 2014 ceb8 0400 0000
000000c0: 146b 7537 7c09 0f39 0000 0000 16b5 cc38
000000d0: 0400 0000 3fb3 42b7 1050 1336 3acc cdb7
000000e0: a037 d9b6 d402 bbb8 d1ec e7b8 b8a9 ae38
000000f0: c794 6838 90e1 8838 5862 3a39 cc1a a937
00000100: 605d 8038 1018 fe37 dd94 27b8 16a7 e838
00000110: b75d db38 9760 62b9 0400 0000 f032 3038
00000120: 4ff0 e638 00b2 5ab6 f0af 81b8 0400 0000
00000130: 20b6 b438 16f7 30b9 10f6 fdb7 8fe0 f638
00000140: 504d 0839 2dd7 fdb8 b0af e137 98cc 5ab8
00000150: 52b2 4238 17fb 9eb8 fc7b 15b9 3458 0f38
00000160: 0400 0000 0400 0000 0000 0000 c227 1d39
00000170: 682d 72b7 0d50 a138 9cab 9738 8ee2 93b7
00000180: 796a d238 a88a 0eb7 a808 1039 ee8e 24b9
00000190: 315e 1a39 3c77 aa38 ba07 8438 d353 ae37
000001a0: 0000 0000 c3dd bab8 28eb 4237 4cec 01b9
000001b0: ce39 8838 8c46 8cb8 dc65 45b8 4a60 f037
000001c0: 2eaa be38 10ca 41b9 0400 0000 d400 1939
000001d0: 9951 e638 dadd 2337 0b34 2639 bc35 30b9
000001e0: ec14 09b8 0760 1d39 331f 1b39 1e6a 6037
000001f0: 0400 0000 3ced d337 0400 0000 3c94 9db8

exp_avg_sq f4 [128]
2.2268983e-07 1.332675e-07 5.639568e-07 4.6962955e-07 4.1874569e-07 1.4215423e-06 5.9791483e-07 7.2255256e-07
3.970838e-07 0.0 5.0734417e-07 4.1595277e-07 1.8057608e-07 3.0612676e-07 4.6311027e-07 1.4997872e-07
2.3162396e-07 2.8212844e-07 6.0260925e-07 5.046403e-14 5.1514337e-07 4.8996776e-07 5.09923e-07 3.3468947e-07
4.9893686e-07 4.6974625e-07 1.8378488e-07 2.424735e-07 3.3055565e-07 6.676941e-07 4.830614e-07 4.981655e-07
7.330012e-08 5.777932e-07 6.1681595e-07 1.0556516e-06 3.6245696e-15 2.609211e-07 0.0 2.1041755e-07
1.5931252e-07 2.505314e-07 2.834414e-07 7.745299e-07 1.0974112e-07 3.36674e-07 3.8411335e-07 2.2664396e-14
2.5127582e-07 2.3136239e-07 0.0 3.028292e-07 2.5595316e-14 2.554851e-07 6.3298364e-07 1.4500814e-07
2.1546485e-07 3.5432387e-07 3.8568632e-07 2.52904e-07 3.690037e-07 3.8967718e-07 7.338732e-07 4.967722e-07
2.8205233e-07 1.335169e-07 5.620702e-07 3.702641e-07 6.799377e-07 3.684971e-07 1.7996893e-13 3.1173295e-07
4.1480985e-07 3.983765e-07 5.620336e-07 2.5145501e-14 4.8129033e-07 3.055423e-07 1.5107321e-07 3.7292764e-07
3.696396e-07 3.5112737e-07 5.4612286e-07 3.0390078e-07 2.3652127e-07 1.9366941e-07 4.485546e-07 5.4628293e-07
3.779347e-16 1.0225186e-15 0.0 5.362282e-07 2.9735688e-07 3.939187e-07 3.326703e-07 4.4127896e-07
2.7458358e-07 4.6174864e-07 4.3029664e-07 5.052055e-07 2.4633528e-07 4.1580324e-07 2.0288981e-07 7.3251147e-07
0.0 2.538095e-07 4.624527e-07 4.1542694e-07 7.3531686e-07 3.4849936e-07 2.7692667e-07 3.967678e-07
3.717617e-07 6.253334e-07 3.3161657e-12 4.1195756e-07 2.0146634e-07 2.0627178e-07 3.497135e-07 3.5428553e-07
4.959154e-07 6.4963734e-07 2.9034493e-07 2.781941e-07 1.1509283e-15 2.2662545e-07 4.992895e-14 2.600972e-07
00000000: 841c 6f34 4b18 0f34 d162 1735 6521 fc34
00000010: f8cf e034 d2cb be35 6580 2035 6ff5 4135
00000020: c82e d534 0000 0000 6d30 0835 1d50 df34
00000030: 60e4 4134 be59 a434 64a1 f834 d609 2134
00000040: 4fb4 7834 7077 9734 fec2 2135 1145 6329
00000050: 6248 0a35 5486 0335 a4e1 0835 5faf b334
00000060: aeee 0535 6f31 fc34 6756 4534 4e2d 8234
00000070: 3977 b134 973b 3335 baab 0135 acb9 0535
00000080: 2b69 9d33 a519 1b35 4593 2535 eaaf 8d35
00000090: c196 8227 b914 8c34 0000 0000 23ef 6134
000000a0: 7e0f 2b34 c680 8634 e42b 9834 4ae9 4f35
000000b0: d2aa eb33 1fc0 b434 2338 ce34 8a24 cc28
000000c0: 16e7 8634 696c 7834 0000 0000 8794 a234
000000d0: c88a e628 9b29 8934 4eea 2935 89b3 1b34
000000e0: 875a 6734 e739 be34 5310 cf34 dcc6 8734
000000f0: 7b1b c634 d334 d134 62ff 4435 ed59 0535
00000100: fa6c 9734 d95c 0f34 2ce1 1635 b6c8 c634
00000110: f784 3635 dbd5 c534 83a0 4a2a 405c a734
00000120: 08b3 de34 73e0 d534 a8de 1635 947d e228
00000130: 0532 0135 6a09 a434 b036 2234 c936 c834
00000140: e172 c634 9482 bc34 4799 1235 ce27 a334
00000150: 79f6 7d34 71f3 4f34 e0d0 f034 47a4 1235
00000160: 51dd d925 475c 9326 0000 0000 52f1 0f35
00000170: 6ba4 9f34 c67b d334 dc99 b234 ebe8 ec34
00000180: 7b6a 9334 40e6 f734 8503 e734 759d 0735
00000190: 1040 8434 903b df34 edd9 5934 cea1 4435
000001a0: 0000 0000 5043 8834 0447 f834 d807 df34
000001b0: 9762 4535 6319 bb34 83ac 9434 5a03 d534
000001c0: 8a96 c734 96dc 2735 bb5a 692c 042b dd34
000001d0: a552 5834 8e7b 5d34 42c0 bb34 a234 be34
000001e0: 0c1f 0535 bd62 2e35 b4e0 9b34 b55a 9534
000001f0: c2dd a526 5456 7334 29dc 6029 7da3 8b34
