models/RaceModels/classif_pos_coef_3copies1to5_2HL_dropout0.5lr0.0001/model.pt (torch, 445917 bytes, 24 tensors)

fc1.weight f4 [128, 144]
000000 aa 15 b4 3d f6 d0 35 3d ad 93 2c 3d ea b7 00 3e
       0.087931946 0.044388734 0.042133022 0.12570158
000010 c7 51 53 bd 95 7b a9 3d b2 9e 9f 3d 8e 3d c1 3d
       -0.05159166 0.082755245 0.077939406 0.09435569
000020 3f fd d1 bd bf d6 15 3e 96 93 ed 3c 59 e0 36 be
       -0.10253381 0.146327 0.029001039 -0.1785902
000030 9b 68 d4 3c 21 58 10 be 26 b7 b8 bd 69 75 f5 be
       0.025928786 -0.14096119 -0.09019308 -0.4794114
000040 bc 67 3b 3e 2f 65 fb 3d 19 0c 11 3d ef 7d e5 3c
       0.1830129 0.122751586 0.035411928 0.028014151
000050 fe 6d 82 3d 94 8f 16 3c c3 ab 18 3d 0b 7f c7 bd
       0.063686356 0.009189505 0.03727318 -0.097410284
000060 9d 31 86 bd ca e0 68 bd 0e 9d 09 bd 9b 77 5e 3d
       -0.06552432 -0.056855 -0.033597045 0.054313283
000070 52 70 64 3d e9 b0 c2 bd 4d fa 94 3d 62 aa aa 3c
       0.05577118 -0.09506399 0.072743036 0.020833198
000080 a0 e5 33 be 32 7e 19 bd e7 69 b8 bd c1 4d 14 bc
       -0.17568064 -0.037473865 -0.09004574 -0.009051741
000090 d3 98 a3 bd 23 e1 a9 3d e5 57 ab 3d 72 e3 3d bf
       -0.07988133 0.082948945 0.08366374 -0.7417518
0000a0 0a fa c4 bc 5d 0d 37 bd 0e 3c 13 3a df 1a 71 bd
       -0.02404501 -0.04469048 0.0005616554 -0.058863517
0000b0 8e c8 a7 bd a0 ef a0 bd c8 b3 ba bc 25 d4 c7 3c
       -0.0819255 -0.07858205 -0.022790805 0.02439315
0000c0 11 3f 08 bd b9 30 5a bc f3 6e 2e bd 4f 1a 82 3d
       -0.03326327 -0.01331728 -0.04258628 0.06352674
0000d0 39 b4 f2 39 97 0d 82 3c 90 24 a5 3d 77 0d 5a 3d
       0.00046292113 0.01587562 0.08063614 0.053235497
0000e0 b3 01 f8 bc c5 c2 04 bc 68 a9 a4 bd 26 e3 8c 3c
       -0.030274248 -0.008103077 -0.08040124 0.017198157
0000f0 08 bd 12 3d 25 c3 83 3d d6 36 5d bd 52 95 34 bf
       0.035824805 0.06433705 -0.054007374 -0.70540345
000100 51 f8 05 3d 2d 36 20 3c 7a 23 42 3d e9 af 2e bd
       0.032707516 0.0097785415 0.047397114 -0.04264823
000110 c4 69 bf 3b 35 dd d5 bc 23 f9 6b bd b8 c6 6e bc
       0.0058414657 -0.026106456 -0.057610642 -0.014573745
000120 fd 8e 85 3d 8d 76 27 3c 0d c5 80 bd 3c 7c 06 bd
       0.065214135 0.010221136 -0.062875845 -0.032833323
000130 e9 18 64 3d 42 6f b6 bd 18 04 f9 ba d0 1f 3c 3d
       0.05568782 -0.089079395 -0.0018998412 0.045928776
000140 09 88 77 3c c3 7b 76 3d 70 8d 58 bc d6 ef 73 3c
       0.015108117 0.060176622 -0.013217315 0.014888724
000150 7a 10 97 bd 4b 80 b3 bb f2 bb 91 bd 98 3e 4c bf
       -0.073761895 -0.00547794 -0.07115926 -0.7978301
000160 41 e8 af bd ef 5d 41 bd 68 33 8c 3a f8 58 1e 3d
       -0.08589221 -0.047208723 0.0010696473 0.038659066
000170 69 1a d6 3c 8d 7a 0a bd 42 38 10 bc 1d dd b3 bd
       0.02613564 -0.03380828 -0.008802475 -0.087824084
000180 0d 05 c1 bc 8d a8 83 bd c8 45 65 3d ff 8d 51 bc
       -0.023561979 -0.06428633 0.05597475 -0.012790202
000190 2a 84 82 bb cc b2 8b bd 8d 10 bf 3d c7 00 a1 3d
       -0.0039830403 -0.06821212 0.09329329 0.078614764
0001a0 43 ca 3e 3d f7 cb bd bc 94 95 9b 3d 25 46 37 3d
       0.04657961 -0.023168547 0.07596889 0.04474463
0001b0 b9 a1 33 3d 12 2a 3e bd 51 f1 a1 bd 39 76 29 bf
       0.043855403 -0.04642684 -0.079073556 -0.6619602
0001c0 be 63 a3 b8 b1 af 9a bb b8 8c 1c bd 82 17 0e bd
       -7.791024e-05 -0.004720651 -0.038220137 -0.034690388
0001d0 82 e9 97 3c 5d d6 09 3d a8 ff 2e 3b e6 39 9b bc
       0.018543962 0.0336517 0.0026702676 -0.018948507
0001e0 b4 d3 ec 3d f2 6b 9d 3d 8c a7 c0 3d 4b 6e 03 bd
       0.11563817 0.076866046 0.09406957 -0.032087605
0001f0 ce 9c 75 3d 0b 34 dc 3c a4 d5 32 bc e4 ff fc bc
       0.059963994 0.026880285 -0.010915194 -0.030883737
000200 2a fa 81 3c 55 1e 77 3d 91 5b cb 3d 74 e7 eb bb
       0.015866358 0.06033166 0.09929574 -0.007199222
000210 86 21 05 bd 71 2e 84 bd 22 e0 4e bd 5f c7 58 bf
       -0.032502674 -0.064541705 -0.05050672 -0.84679216
000220 6f 8a ef 3c ef 87 7d bd ce 7c aa bb 20 96 53 3d
       0.029240815 -0.061897215 -0.005202866 0.051656842
000230 6e 7c b4 3d d2 c0 35 3e 5b ea c8 3c b1 ac 89 3c
       0.088127956 0.17749336 0.024525812 0.016805978
000240 aa 70 44 bd 10 6d f9 bc 86 0d dc 3b 0a 53 f8 bc
       -0.047959007 -0.030447513 0.0067154793 -0.030313034
000250 4d 99 81 3d 59 d0 91 bb e3 db 0a bc ab 55 97 3d
       0.06328068 -0.004449886 -0.008475277 0.07389387
000260 2e b0 10 bb e0 cf a0 3c ca c9 86 3d b2 cb 25 3d
       -0.0022077668 0.019630373 0.06581457 0.040477462
000270 4a d6 49 3d f5 4b 84 3d 04 26 4a bd e9 f8 96 3d
       0.049276628 0.064598 -0.04935266 0.073716946
000280 4b 5a 19 3b 0e 12 27 bd ee e0 16 3d 77 87 2e bd
       0.0023399766 -0.040788703 0.036835603 -0.042609658
000290 97 4f 9a 3c a7 4b ac bc 88 00 db 3c fd 26 b0 3c
       0.01883678 -0.021032168 0.026733652 0.021502966
0002a0 a0 ff 40 bd f2 81 80 bd 83 c6 36 bd fb 50 28 bd
       -0.047118783 -0.06274785 -0.04462291 -0.041092854
0002b0 3e 34 41 bd d7 fc 57 bd f1 8a 30 bd 74 3b e4 3c
       -0.047168963 -0.05273136 -0.043101255 0.02786038
0002c0 f9 97 14 bc 84 9f 61 3d ec 16 10 bc 56 d4 57 bd
       -0.009069436 0.055083767 -0.0087945275 -0.052692734
0002d0 90 47 bf bc 75 91 16 3d 29 2f 38 bd c9 56 85 bd
       -0.023349553 0.036759812 -0.04496685 -0.065106936
0002e0 d5 1a a5 3c 7c c9 73 bd ac 87 5e 3d ad 74 6f 3d
       0.020154396 -0.059518322 0.054328606 0.05846088
0002f0 6e 1f 6e bc 23 ff 59 bc c3 51 4c bd c1 93 07 bd
       -0.014533861 -0.013305458 -0.04988266 -0.033099893
000300 ba a6 c6 bc 49 61 96 bc dc 5e 2c 3d b7 7a 79 3d
       -0.024249423 -0.018356936 0.042082652 0.060908046
000310 7e 20 41 bd 59 47 73 3d 89 49 a9 bd eb 9c 7d 3c
       -0.047150128 0.059394214 -0.08265979 0.015479307
000320 73 4e 67 3d 3c d1 42 3d c8 9f 52 3c b3 08 34 bd
       0.0564713 0.047562823 0.012855478 -0.04395361
000330 b0 c7 e2 bb 1f 84 07 3c d6 6f fc 3c f3 aa 9c bd
       -0.0069207773 0.008271246 0.030815046 -0.076497935
000340 5e 75 36 bc 91 7e 68 bd 7c 32 4e 3d d6 92 8d 3d
       -0.011136381 -0.056761328 0.050341114 0.06912772
000350 a4 be b3 bb 23 3b e6 bb cd 4b 61 3d eb 3d 6e 3d
       -0.0054853726 -0.0070260926 0.05500393 0.05816452
000360 e4 85 fc bc 87 43 0d bd 61 cb 3b bd 26 e7 90 bd
       -0.030825563 -0.034488227 -0.045848254 -0.07075338
000370 ae e5 f9 3c 60 c2 15 3d 94 08 a5 3d e8 11 a5 bc
       0.030505028 0.036562324 0.08058277 -0.02015014
000380 d3 36 8b 3d a8 d6 a3 3d 8c 1c 30 3d c0 c2 85 bd
       0.06797566 0.07999927 0.042995974 -0.06531286
000390 90 ab 84 3d 49 47 86 3c a5 ec 55 3d 3a a6 eb bc
       0.064780354 0.016391413 0.052227635 -0.028765786
0003a0 37 42 89 bd 20 47 c6 bc 50 b4 e7 bb 20 1b 84 bd
       -0.067020826 -0.024203837 -0.0070710555 -0.06450486
0003b0 79 20 91 3c f6 64 2e bd e3 47 74 bd 15 c1 83 bd
       0.01771568 -0.042576753 -0.05963887 -0.06433312
0003c0 d4 ad 27 bc 9b 94 10 3c df 36 60 3d 09 b5 85 3d
       -0.010234315 0.008824493 0.05473983 0.0652867
0003d0 74 b4 92 3d 0e b4 ba 3b 2c 03 8d 3d 50 0c 20 3d
       0.07163325 0.0056977337 0.068853706 0.039074242
0003e0 e7 26 60 3d 09 6b 6d bd 12 a8 70 bd a8 2a 79 bc
       0.0547246 -0.057963405 -0.058754034 -0.015207924
0003f0 5c 4d cc 3c 75 9e 3e 3d cb 4b 18 bd 55 5d 20 bd
       0.024939232 0.046537835 -0.037181657 -0.03915151

fc1.bias f4 [128]
000000 b8 42 96 bd 69 73 70 bd 08 b9 44 bc ec 66 53 3d
       -0.07336944 -0.058703814 -0.0120070055 0.051611826
000010 2b 84 f4 ba b8 cf 59 bd f2 c7 ba bd 80 7e 65 bd
       -0.0018655112 -0.05317661 -0.09120168 -0.056028843
000020 bb a4 67 bd ac 2a bf 3c b7 ae a1 3d b0 cc 23 3d
       -0.056553584 0.023335777 0.07894652 0.039990127
000030 54 40 73 bd 50 18 a1 bc 23 13 67 bd d8 2e c3 bc
       -0.05938752 -0.019664913 -0.056414735 -0.023826048
000040 20 17 ff bc 86 49 3a bd 2f 11 1c bd b2 a5 8d 3d
       -0.031138957 -0.045480274 -0.038102325 0.069163695
000050 ab 6d 99 bd ff 27 93 3c 44 06 8f 3d da 15 61 3d
       -0.07491621 0.017963408 0.06983617 0.05495248
000060 72 05 51 3c d4 e8 1e 3d 93 11 8d bd 03 80 69 3b
       0.012757646 0.03879626 -0.06888118 0.003562928
000070 be b1 1b bd 3b 8a 85 3c 17 51 2d bd d1 b9 71 3d
       -0.038011305 0.016301265 -0.04231366 0.0590151
000080 7c 1f 1e bd bb 4a 82 bd 98 d2 8d 3d 87 cc 8b 3d
       -0.038604245 -0.0636191 0.06924933 0.0682612
000090 b3 f3 76 3d fd 64 b5 3d 41 13 ac bb b4 d7 69 3b
       0.060291003 0.088571526 -0.0052513187 0.0035681548
0000a0 50 ec 8a 3b ad ca b2 3d b7 75 ad 3c f9 d2 bb 3c
       0.0042395964 0.087300636 0.021174295 0.022927748
0000b0 8d b5 97 3c c5 63 72 bd 45 b8 11 bc 3e 7e 97 bb
       0.018519187 -0.05917718 -0.008894031 -0.0046232035
0000c0 d8 46 29 3c a1 0a 0d 3d 2f e7 76 3d 5d a0 20 bd
       0.010331832 0.034433965 0.060279068 -0.039215434
0000d0 0f 49 8f bd 97 1f 3c bc bb db 7f 3d f4 fb 30 bd
       -0.06996357 -0.011482141 0.06246541 -0.04320903
0000e0 b9 2a f9 ba 89 d0 a4 bc 79 de 3c bd 98 d8 de 3c
       -0.0019009925 -0.020118969 -0.046110604 0.02720289
0000f0 b0 1a a3 3c f8 10 07 3c 00 64 57 bd 1a 21 73 bd
       0.019910187 0.008243792 -0.0525856 -0.05935774
000100 bc a0 0b bd 68 39 80 3d 44 50 69 3c b8 29 ac 3d
       -0.034088835 0.062609494 0.014240328 0.08406395
000110 2b 8e aa bc 5c bc df 3c 65 3d 8a bc 92 e4 ec bb
       -0.020819744 0.027311496 -0.016874978 -0.007229396
000120 16 7c 0e 3d b6 b0 a0 bd 3b 79 03 3b 74 7f 12 3d
       0.034786306 -0.07846205 0.0020061273 0.03576608
000130 bc 3f 81 3d e2 cf fb bb fc e6 a2 bd 6b 28 18 bc
       0.063109845 -0.0076846937 -0.07954213 -0.00928698
000140 97 0a 2d bd 7e b2 b5 3c 5e 48 65 bd ba 9b 3f bd
       -0.042246427 0.022179838 -0.055977218 -0.04677937
000150 2c 94 b1 3c 37 49 86 bd 52 3a 6b 3d b1 7e aa bc
       0.0216771 -0.065569334 0.057428665 -0.020812364
000160 f8 d1 a3 3d a9 f1 f2 bc cb f9 8f 3d dc 8b 65 bd
       0.07999033 -0.029656248 0.07030066 -0.056041583
000170 23 a9 4f 3d 8c 76 15 3b 81 03 5e bd f7 29 f0 3c
       0.05069841 0.0022806255 -0.05420256 0.029316885
000180 37 6e 9f bd cc 9f 85 bc 98 97 32 3d 00 e6 32 3d
       -0.07784694 -0.016311549 0.043601602 0.043676376
000190 c2 2f 78 bc ca 3d e6 3c e9 22 8a bc 94 38 9a bd
       -0.015148105 0.028105635 -0.01686235 -0.07530323
0001a0 b7 13 46 bd f9 5e fe 3c 00 26 05 bd 84 20 41 3d
       -0.048358645 0.031051146 -0.032506943 0.04715015
0001b0 24 da a8 bd 71 2c 28 bd 55 f7 38 bd 15 3e 78 3d
       -0.08244732 -0.041058008 -0.04515775 0.06060608
0001c0 a9 6a 5c bd 18 0a 96 bd b6 12 be bc 60 8d 78 bd
       -0.053812657 -0.07326144 -0.023202281 -0.0606817
0001d0 0d 7f 91 3d 82 12 e3 3c 30 80 a2 bd 82 69 04 3d
       0.07104311 0.027718786 -0.07934606 0.032327183
0001e0 52 f4 1a bc 3a 1b 81 bc d9 3a f4 3a fc 89 f1 bc
       -0.009457665 -0.015760053 0.0018633261 -0.029484741
0001f0 eb 97 eb bc 59 c4 a7 bc a9 92 cb 3c 44 b5 19 3d
       -0.028758964 -0.020479368 0.024850206 0.037526384

fc2.weight f4 [64, 128]
000000 9d f3 64 be 97 f5 97 3d 5d 4d 73 3c 6b aa 01 be
       -0.22358556 0.074198894 0.014849988 -0.12662666
000010 e5 14 5b 39 dc 33 15 3d ad 07 7f be 60 97 4a bd
       0.00020893251 0.03642641 -0.24905272 -0.04946077
000020 fe ad 9c 3d 42 cb 69 3d dd 59 66 bd 15 2a 4a 3c
       0.07650374 0.057078607 -0.056238044 0.012339135
000030 f1 a7 3d bd 97 01 c9 3d 4a f7 89 bd da e0 8b be
       -0.04630274 0.09814756 -0.0673662 -0.27319986
000040 a0 4f 72 be 73 ab b6 3a f8 22 30 be 38 4e fb 3d
       -0.23663187 0.0013936594 -0.1720084 0.122707784
000050 a4 fe 30 3e 13 18 a9 bc a7 97 d1 bd bb 42 92 3d
       0.17284638 -0.020641362 -0.102340035 0.07141634
000060 c3 50 07 3e 75 9a 11 be 8a 60 1f 3e f8 54 22 be
       0.13214402 -0.14219077 0.1556417 -0.15852726
000070 9d 08 1c 3d c1 79 97 39 3d c8 34 3e 9e 05 bd 3c
       0.03809415 0.00028891678 0.1765451 0.023073968
000080 b2 68 18 3e 8b cc 2e bd d2 57 5e 3e f0 39 52 3d
       0.14883688 -0.042675536 0.21713188 0.051324785
000090 17 22 7a bd 61 f0 7f bd 0c f5 c8 3c e4 af 64 3d
       -0.061067667 -0.062485103 0.02453091 0.055831805
0000a0 cb 9f 44 bd b1 b4 1e bd d7 ad 2b 3e 22 2f 1a be
       -0.048003953 -0.03874654 0.16765533 -0.15057042
0000b0 57 18 f9 bd 84 05 10 be 87 c6 44 be 1a d4 e8 3d
       -0.121628456 -0.14064604 -0.19216357 0.1136858
0000c0 5c a7 a4 bb 2d fd e1 3d 3f 4b 7f 3d c3 7e 2c 3e
       -0.0050248336 0.110346176 0.06232762 0.16845231
0000d0 18 ca fb 3c 55 e7 2a be 1f c3 6b 3b 87 37 ce 3d
       0.030736014 -0.16689809 0.0035974456 0.10069185
0000e0 08 34 76 be af 58 5d bd bd 22 02 be f0 40 58 bd
       -0.24043286 -0.054039653 -0.12708564 -0.052796304
0000f0 af 7d 9b 3c 02 4b 63 3d 6e a6 2a 3d 54 29 ba 3c
       0.018980829 0.055491455 0.041662626 0.022724785
000100 93 eb 3c bd af 6b 3d 3d 87 45 f1 3c 0e 13 38 bd
       -0.0461231 0.046245273 0.029452099 -0.044940047
000110 c2 74 91 bd aa 04 57 3d 9b 3c 36 bd a7 d8 97 bd
       -0.07102348 0.052494682 -0.04449139 -0.0741437
000120 23 d6 24 bd 13 ee 0b be 5f 73 a0 bc 9e aa d7 3b
       -0.04024328 -0.13665037 -0.019586263 0.0065816185
000130 48 23 16 3b 55 3b e5 3d 16 6d 94 bd ca 8f 97 3c
       0.0022909213 0.11192957 -0.07247369 0.018501181
000140 c1 fe 51 3e 49 89 10 bd 68 17 7f 3d f4 6d 7e 3d
       0.20507337 -0.035287175 0.06227818 0.06211658
000150 64 2b 66 3e 3e 52 76 3e c3 fe ec bd 13 0a 40 be
       0.2247749 0.2405481 -0.115720294 -0.18753843
000160 19 75 46 3e dd da be 3d 62 f9 af 3e c5 86 94 bd
       0.19380607 0.093190886 0.3436995 -0.07252268
000170 51 26 3b 3d a5 39 b2 bc 8b 8a 4c 3e d0 80 e0 3d
       0.04569084 -0.021756003 0.19974725 0.10962069
000180 2e 70 58 ba 74 0e ad bd be fd 7d 3e cc 4e 02 3e
       -0.0008256462 -0.08450022 0.24803826 0.12725371
000190 9e 9f 5a bb 16 b6 b2 3d d1 a0 98 3d eb 49 33 be
       -0.00333593 0.087261364 0.07452548 -0.17508666
0001a0 d5 a7 96 3d e2 76 a9 bd c3 84 79 be f8 e5 02 3e
       0.0735623 -0.08274628 -0.24367051 0.12783039
0001b0 3e 67 ca 3d c1 6e 98 bd 54 19 84 3d 73 cc 7c 3d
       0.09882973 -0.07443 0.064501435 0.061718415
0001c0 81 6a 4b 3e 3c 3e c9 3c a0 df 6d bd e0 85 a0 3b
       0.19864847 0.024565808 -0.058074594 0.0048987716
0001d0 6d 44 a0 3e 4a 3f 54 3e 9c 9d 62 be 18 19 f9 3d
       0.31302205 0.20727268 -0.22130436 0.121629894
0001e0 59 4a c4 3d 3b 60 97 bc 1d cd 44 bd 97 35 d2 3c
       0.09584493 -0.018478503 -0.048047174 0.02566032
0001f0 34 0e 60 3e c8 85 a4 be d0 6c d8 3d 0c bb 5e 3d
       0.21880418 -0.32133317 0.10567629 0.0543776
000200 ac 69 8f be 5d e6 a4 3d 14 9f 10 3e cb 2c 3f be
       -0.2801031 0.08051751 0.14123183 -0.18669431
000210 3b b0 69 3c fc 6c d6 bd f7 b8 a5 be 60 6e e3 bb
       0.014263208 -0.10470006 -0.3236768 -0.006940648
000220 8c 77 a5 3c e8 4a 85 3b f9 26 b2 3d 4f 3e df 3c
       0.020198606 0.0040677674 0.0869884 0.02725139
000230 6d fa e4 bd b4 3d cd 3d cf 7b 9b 3d 2d 57 03 be
       -0.111805774 0.100215346 0.07591974 -0.12826224
000240 20 06 7d be 83 d4 11 3d b7 9a 1d be 9d e2 2b 3e
       -0.24709368 0.035603058 -0.1539105 0.16785665
000250 2e 5a 22 3e 5b 50 63 3a a0 e2 af bd 8a 09 6b bd
       0.15854713 0.00086713367 -0.08588147 -0.057382144
000260 48 76 9a 3d dc f3 56 be 50 56 60 3d ae ce 96 be
       0.075420916 -0.20991462 0.054769814 -0.2945456
000270 a3 99 f7 3d 83 a9 d5 3c 68 23 53 be 90 ac ca bd
       0.12089851 0.026081806 -0.20618975 -0.09896195
000280 69 e7 55 bb 2a d9 c0 3d de 4b 9a 3d 2c 2d e0 bb
       -0.0032639152 0.09416421 0.07534002 -0.0068413224
000290 07 75 1d bd 3f 85 83 3d 59 d1 04 3e 22 46 c9 3d
       -0.038441684 0.06421899 0.12970485 0.0982783
0002a0 98 48 73 bc 6c d1 85 be e8 2f 3e 3d 63 91 18 be
       -0.014848851 -0.2613634 0.046432406 -0.1489921
0002b0 e1 c5 8e bd 32 8d 9b be 96 c0 d0 be 35 fc 89 3e
       -0.06971336 -0.3038116 -0.4077193 0.2695023
0002c0 56 bc 37 be ae 08 1e bd c0 0e b4 3d f0 2a 91 3d
       -0.17942938 -0.038582496 0.08791876 0.07088268
0002d0 d7 af 4c be ab 17 51 be 60 6c fe 3a 10 e1 1f 3e
       -0.19988953 -0.20419185 0.001941096 0.15613198
0002e0 06 80 b3 bd 73 ee 91 3d 72 de ce bd e9 8e 72 bd
       -0.08764653 0.07125559 -0.10101022 -0.05921832
0002f0 b6 ff c3 3d 73 c4 a0 3d 69 ab 0c 3d 71 56 c3 3d
       0.09570257 0.0784997 0.034343157 0.09537972
000300 af ea 81 3d 3a 43 a1 be d4 ea 38 3d 7b 33 37 be
       0.063435905 -0.31496602 0.045145825 -0.17890732
000310 ed c1 1e bc e9 9b 84 bd b7 87 4d be b9 4a cf bb
       -0.00968979 -0.0647505 -0.20071302 -0.0063260463
000320 5c c1 b0 3d 36 de 0c be 2b 30 1a 3c 0c 1c a7 3d
       0.086306304 -0.13756642 0.009410898 0.081596464
000330 58 2d d3 3d 65 79 cf 3d f0 95 a7 bd cd b8 9c 3d
       0.10311383 0.10130576 -0.08182895 0.076524355
000340 90 ca 1d 3e 5f 71 e8 bd 74 ac 86 3d b5 c3 17 3e
       0.15409303 -0.11349749 0.065758616 0.1482075
000350 5f dc cd 3d 46 25 5b 3e 6c 92 fd bc 7f 30 6c be
       0.10051798 0.21400937 -0.030953608 -0.23065375
000360 22 52 ea bd 08 03 75 3d 69 38 8c 3e b5 af 9a be
       -0.11441447 0.059817344 0.27386788 -0.3021218
000370 f4 b0 ff 3c a7 26 4a bc 21 69 d6 3d b2 7d 3b bc
       0.031212308 -0.012338317 0.104692705 -0.011443542
000380 5b 40 81 3c 44 20 59 3c 09 fb 3f 3e 03 6c 4a 3e
       0.015777757 0.013252322 0.18748106 0.19767766
000390 0b 23 70 3d 31 06 2f 3e 8c 9e ff 3c 57 93 27 be
       0.05862717 0.17092206 0.03120353 -0.163648
0003a0 71 35 2e 3e 16 60 71 3d 62 4b a1 be 22 27 1d 3e
       0.17012574 0.058929525 -0.31502825 0.15346959
0003b0 34 03 16 bd 39 95 8d 3d dc d5 74 3c 84 0d 65 be
       -0.03662415 0.069132276 0.014943566 -0.22368437
0003c0 dd 2a 5a 3e 30 23 92 3b 01 5c 9a bd 90 46 51 bd
       0.21305414 0.004459761 -0.075370796 -0.051092684
0003d0 79 a4 c6 3d 6b 23 0c 3d 65 ce 5b be d6 00 b2 3d
       0.096993394 0.034213465 -0.21465452 0.08691566
0003e0 0e 57 1e 3e 49 b1 14 3d 96 c4 81 be bd 6c db bb
       0.15462896 0.036301885 -0.25345296 -0.006696312
0003f0 b4 f7 06 3e fa 99 90 be 6c f1 6b bd a5 61 09 3d
       0.13180429 -0.28242475 -0.057603285 0.033540387

fc2.bias f4 [64]
000000 d9 2e 8b 3d 23 80 d1 3d 3e e7 b7 3d 71 47 ba 3d
       0.06796045 0.10229518 0.08979653 0.090956576
000010 c0 34 8a 3d 54 3f a7 3d 93 be 34 3d f3 3e 39 3d
       0.067483425 0.08166376 0.04412706 0.04522605
000020 ab 35 5d 3c ff e7 bd 3d 44 bd 2b 3d f5 50 68 3d
       0.013501565 0.09272765 0.041928545 0.05671783
000030 e8 7b 6b 3d e4 cd 59 3d 12 4d 84 3d 41 c1 15 3d
       0.057491213 0.05317487 0.064600125 0.036561254
000040 9f a1 3a bc cc 27 e9 3d 42 50 de 3b 34 0a fd 3c
       -0.0113910725 0.11384544 0.00678447 0.030888654
000050 a7 2f d8 bc 94 9f 35 3c c5 7b e6 3d 3d 59 ae bc
       -0.02638991 0.01108541 0.11254076 -0.021282787
000060 53 66 84 bd 99 d5 0e 3d 09 4f 62 3d 38 00 86 3d
       -0.06464829 0.03487167 0.055251155 0.065430105
000070 bd ae 46 3d 50 8b 20 3d 13 58 ae 3d bb 8d c0 3d
       0.048506487 0.03919536 0.085128926 0.09402033
000080 3c 7d 9e 3c 57 81 5f 3d 9e 5c a2 3d c0 08 3b 3d
       0.019346826 0.054566707 0.079278216 0.04566264
000090 94 38 08 3e 1b 8c 35 3d c7 53 91 3d 10 cf 6e 3d
       0.13302833 0.044323068 0.070960574 0.05830294
0000a0 dd 8f 15 3e d1 0d c4 3d ce ad 02 3e f6 d1 7c 3d
       0.1460566 0.09572948 0.12761614 0.06172367
0000b0 9f e2 ba 3c 9c 1f 69 3d c6 49 88 3d ee ae e4 3d
       0.02281314 0.05691491 0.06654696 0.11166178
0000c0 50 90 2e 3d cd ae 11 bd b9 9b 94 3d 50 66 d2 3d
       0.042618096 -0.035567094 0.07256264 0.10273421
0000d0 d3 3c c3 bc 88 e8 92 3d 56 01 eb 3b 18 03 03 3e
       -0.023832714 0.07173258 0.00717179 0.12794149
0000e0 20 73 a1 3c e3 17 ca bc f8 32 be 3d e0 3e dd 3d
       0.019708216 -0.024669593 0.09287065 0.10803008
0000f0 51 9d 1b bc 5c 8e a8 3d f3 c9 6e 3d b2 f8 9f 3d
       -0.009497956 0.08230278 0.058298063 0.07811107

fc3.weight f4 [32, 64]
000000 93 80 96 3e da 2c c0 3e 75 58 66 bd 7a b2 9d be
       0.2939497 0.3753422 -0.056236703 -0.3080023
000010 b8 66 e0 3d 3e d0 b7 bc 4e c9 3b 3d 87 f6 87 be
       0.10957092 -0.022438165 0.045846276 -0.26555273
000020 e4 a8 07 bd a8 82 27 bc 33 83 03 3d 81 14 50 bd
       -0.03312005 -0.010224022 0.032107543 -0.050800804
000030 3c c6 4a 3d bc 8f cc 3c 56 a3 b3 bd 0e 55 95 3c
       0.049505457 0.024970882 -0.08771388 0.018229034
000040 4b e6 37 3d e9 a2 66 3e 9c b2 90 3e 2e 2c a4 3d
       0.04489736 0.22523083 0.28261268 0.08016239
000050 af 3c 09 be c0 20 e7 3d b0 36 68 3d 1d a9 9a 3e
       -0.13402055 0.112855434 0.05669278 0.30207148
000060 4e 4e 93 bd 72 78 a4 3d 9f 7d 0c bd b7 1d 07 be
       -0.0719267 0.080307856 -0.03429949 -0.13194929
000070 e5 78 98 3e d5 d9 04 3e 4e f8 26 3e fa f6 a4 3e
       0.29779735 0.12973721 0.16305658 0.32219678
000080 b5 b8 0e 3d 4c 17 55 3e b7 2e b7 bd 68 63 7b 3e
       0.03484412 0.20809668 -0.08944457 0.24549639
000090 a1 fb a5 3d fd 05 b4 3e 91 89 cd 3c f9 0b dc 3d
       0.08104635 0.3516082 0.02509001 0.10744471
0000a0 da 7e 84 bd 8f 7f 06 be dd 0d 16 3e 9d 1f f0 bd
       -0.064695075 -0.13134597 0.14653726 -0.1172478
0000b0 19 f9 97 bd aa ab 22 be 39 f5 96 bc e4 1e 07 be
       -0.074205585 -0.15885797 -0.018427478 -0.13195378
0000c0 c7 56 41 3e 10 50 70 be 17 aa f5 bd 43 00 74 bd
       0.18880759 -0.23468041 -0.11995333 -0.059570562
0000d0 dd 0b 17 be 3e c3 0c 3e 00 a4 d3 3d 28 1a 7a 3e
       -0.14750619 0.13746354 0.10334015 0.2442404
0000e0 db 92 ae bd 2f cd b6 bd 86 bb 5e 3e 8e 05 bf bd
       -0.08524104 -0.089258544 0.21751222 -0.09327231
0000f0 69 6b 94 bd f1 11 a3 bd 8e a1 23 3e 40 b1 49 3e
       -0.07247049 -0.079624064 0.15979597 0.19696522
000100 cc 39 87 3d c6 c6 e1 bc 07 fa 8f 3c 1f e0 36 be
       0.06602821 -0.027560603 0.017575277 -0.17858933
000110 30 52 26 3e cb 01 2e bd ea e4 61 be 0f 57 4c bc
       0.1624229 -0.04248218 -0.2205998 -0.012471928
000120 7b aa 95 3e 6f 69 89 3d 1d ec 01 be aa d0 4c be
       0.2923163 0.06709563 -0.12687726 -0.20001474
000130 f4 01 2d be 25 ba 85 3e 2d 41 d1 bd 66 4f bc bd
       -0.16895276 0.2611858 -0.102175094 -0.091948316
000140 9f b2 8d 3e 14 70 5f 3e 2d 94 87 3e ce 79 83 3e
       0.2767534 0.21820098 0.26480237 0.25678867
000150 15 16 49 3e ac 54 d0 3d eb 6d b3 3e d1 e9 90 3d
       0.1963733 0.101724 0.35044798 0.07075847
000160 5e a3 36 3d d2 c3 8e bd 97 88 e8 3c cf 1f 96 bd
       0.044589393 -0.069709435 0.028385444 -0.07330286
000170 0b 90 90 3e aa 35 09 be 67 a0 3b 3e 15 e9 1b 3e
       0.28234896 -0.13399377 0.18322907 0.15225632
000180 b8 82 c4 3e b4 85 37 be 58 5f 9c bd d6 4c 94 3d
       0.3838098 -0.17922097 -0.07635373 0.07241218
000190 e2 46 65 3e c7 53 93 3e 5c 9e 00 3e 20 58 7d 3e
       0.22390321 0.28774855 0.1256041 0.24740648
0001a0 7f 09 9b bd 65 00 c3 bd 60 d4 47 bd 6a a7 27 3e
       -0.075701706 -0.095215596 -0.04878652 0.16372457
0001b0 27 42 15 bd 06 ae 72 be 2b 43 97 3d 21 38 91 bd
       -0.03644004 -0.23699197 0.07385858 -0.07090784
0001c0 71 09 09 3e 39 ba 5d 3d b9 b9 78 bd c3 28 a0 be
       0.13382508 0.054132674 -0.060723994 -0.312811
0001d0 4b 4a 4d 3d 05 31 40 3e 61 16 f3 3c a8 a7 d8 3e
       0.05011968 0.187687 0.029673757 0.42315412
0001e0 75 76 12 3e 12 1f 4f 3e db 96 bb 3c 24 a1 ac bd
       0.14303 0.20226696 0.022899082 -0.08429173
0001f0 6d 4a 7f 3e e7 14 2c bd 7d 65 36 3d 76 ad 2b bd
       0.24930735 -0.04201212 0.04453038 -0.041913472
000200 3c 83 fd bd a7 ae 04 be 32 ea a8 3d 6b 1c cd 3e
       -0.123785466 -0.1295725 0.08247794 0.40060744
000210 f0 96 10 be be aa b7 bb 0f bd c1 bc f9 4e 20 3e
       -0.14120078 -0.005605071 -0.02364972 0.15655126
000220 c0 54 aa 3c 71 67 95 3c 7f d5 71 3e f7 0d 14 bb
       0.020792365 0.018237801 0.23616599 -0.0022591332
000230 1d 10 87 3c 51 1f a3 3c 28 f2 ad 3e 4e b2 c6 bc
       0.016487176 0.019912394 0.33973813 -0.024254944
000240 cb e3 bd bc fa bc 9a be 6f 17 32 be 9a 6f 9b bd
       -0.02317991 -0.30222303 -0.17391752 -0.07589646
000250 d8 23 e6 bc b4 b2 d9 3c c6 8e de bd e7 e7 d2 3d
       -0.028093264 0.02657447 -0.108670756 0.10298138
000260 77 8e a0 bd 95 cf ac bd 3b 99 da 3e 7b f6 93 3e
       -0.07839673 -0.08438031 0.4269503 0.28898987
000270 2f 6c 07 bd bf 62 84 3d ab d8 e9 3d 14 17 44 bd
       -0.033062156 0.06464147 0.11418279 -0.04787357
000280 0f bb 62 bc 42 4e 37 bd 6a e0 4a 3c 46 85 dd bd
       -0.013838544 -0.044752367 0.012382606 -0.108164355
000290 60 0c 0b bc fd f5 60 be 4d f3 8d 3e 55 ca 0d be
       -0.008486837 -0.21968837 0.27724686 -0.13846715
0002a0 50 2c 9e 3b 68 d8 11 3e c6 2a a1 3e 6e 54 8f 3e
       0.00482706 0.14242709 0.31477946 0.27994102
0002b0 a9 d2 6f 3e d5 71 12 3e 69 1f 39 3d 1f 47 f0 3e
       0.23420204 0.14301236 0.04519597 0.4692926
0002c0 f6 c3 27 be fb f0 8a 3d 9b 0e 9e 3e 38 6b 90 3e
       -0.16383347 0.067842446 0.30870518 0.282068
0002d0 8a a9 14 bd 8e 60 5e 3e a4 c3 1a 3e 09 89 c9 bd
       -0.036294498 0.2171652 0.15113693 -0.098405905
0002e0 c7 1b b0 b9 ac 4d a9 bc bc 5a 30 be 5b 95 e0 bb
       -0.00033590032 -0.02066692 -0.17222112 -0.006853742
0002f0 6b 2d d4 bd 25 aa 27 3e a4 3b 93 bd f3 c0 20 bd
       -0.10360225 0.16373499 -0.0718911 -0.03924651
000300 1e 3e 92 bc 10 22 8c bd 65 d3 c5 3d 4f 4f 12 3c
       -0.017851885 -0.068424344 0.09659461 0.008930041
000310 66 18 7d 3d 10 de ce 3d ee b5 02 be d2 ab 6a 3e
       0.061790846 0.10100949 -0.12764713 0.22917107
000320 e1 ab 01 3f b8 8d 16 be c5 bf 02 3e 21 31 cf bd
       0.5065289 -0.14702499 0.12768467 -0.101167925
000330 89 b0 c5 bc 39 60 76 3e 87 b8 fa 3d 7f 88 97 bd
       -0.02413203 0.24060144 0.12242227 -0.073990814
000340 fe 81 86 3e 22 41 a0 bd a3 82 33 bd 56 54 24 3e
       0.2627105 -0.07824923 -0.043825757 0.16047797
000350 cd 33 8f 3e 5e 0a 74 bc 1e c2 19 3e fd 49 c0 3e
       0.27969208 -0.01489505 0.15015456 0.3755645
000360 d8 3f a9 3e 25 a5 40 3c 13 a1 20 3e 3b b1 a5 bd
       0.3305652 0.0117581235 0.15686445 -0.08090445
000370 eb 48 85 3e 15 81 0e 3e be 29 c8 3e bb d1 cb 3c
       0.26032194 0.13916428 0.39094347 0.02488028
000380 1a 35 82 3e ee 3f da bd e5 4e ad bd 05 8c dd 3d
       0.25431138 -0.10656725 -0.084623136 0.10817722
000390 0a 2f bd 3c 57 10 0e bd ef 37 56 3e dd a0 01 be
       0.023093719 -0.03468355 0.20919774 -0.1265902
0003a0 f2 bc 0b be 67 e6 b5 bb 4d 0e e0 bd 23 40 d1 3e
       -0.13646296 -0.0055511477 -0.10940228 0.40869245
0003b0 9d 11 d0 3e 74 24 20 3e 5b 51 0a be 18 5c a6 bc
       0.40638438 0.15638906 -0.13507597 -0.020307586
0003c0 5b 5d ac 3c 86 ba 93 3e 5f 55 a7 3d 40 4f 0f bc
       0.02104061 0.28853244 0.0817058 -0.008746922
0003d0 99 56 b6 3e b3 2e 56 3c cb b7 0a 3f dc c6 19 3e
       0.35612944 0.013072657 0.54186696 0.15017265
0003e0 70 a1 cc bc 77 2c 16 3f 18 85 c2 bd 44 ce 4a be
       -0.024979323 0.586616 -0.09498042 -0.19805247
0003f0 fb 56 83 3e 87 94 2f be ea 91 e7 bc 44 68 a4 bd
       0.25652298 -0.17146502 -0.02826782 -0.080276996

fc3.bias f4 [32]
000000 3f 6c df 3d 41 c3 19 3e 13 29 5b 3e 74 c3 e1 3c
       0.10909318 0.1501589 0.21402387 0.02755902
000010 f3 73 3e 3e 76 d7 32 3e 8d 6d c8 3d 57 08 9b 3d
       0.18598919 0.17465004 0.0978652 0.0756995
000020 00 78 bb 3b cc 02 93 3e fa 05 d3 3d 67 12 d3 3d
       0.005721092 0.2871307 0.10303874 0.10306244
000030 1a 7c bd 3d 40 17 b7 bd 58 1e 5c 3d cc 18 65 3c
       0.09252186 -0.089399815 0.053739876 0.013982963
000040 c1 34 09 3c 22 90 e9 3d 91 9a d3 3d 8f 29 21 3c
       0.008374394 0.11404444 0.103322156 0.0098365685
000050 04 3f 90 3e b5 1d 64 3e 66 4a 86 3e 21 87 c8 3c
       0.28173077 0.22276957 0.26228637 0.024478497
000060 fa a1 ea 3d ea 55 a2 3e 15 0d 9b 3c 40 15 15 bd
       0.11456676 0.31706172 0.018927136 -0.03639722
000070 5d a5 c5 bc 54 78 ca bd fc e5 ac 3e 24 cd 49 3e
       -0.024126703 -0.09886232 0.33769214 0.19707161

fc4.weight f4 [24, 32]
000000 1c 35 fa be 98 0f a1 be 16 a4 df 3d 0e ea 23 be
       -0.48868644 -0.3145721 0.10919969 -0.16007254
000010 ea 01 03 bf 19 70 fc be 58 2f 2e 3d 94 e4 37 be
       -0.51174796 -0.49304274 0.04252562 -0.1795829
000020 59 b0 f8 bc bd 60 d6 be eb 49 9b bd 74 54 72 3d
       -0.030357527 -0.4187068 -0.07582458 0.059162572
000030 4f ca fb bd 3e e7 13 bf db e8 19 be 59 2f ae bf
       -0.12294447 -0.5777472 -0.15030234 -1.3608199
000040 13 5b be bc 13 67 6b be 35 2c e0 be bf 54 9e bc
       -0.023236787 -0.22988538 -0.43783727 -0.01932752
000050 e9 3e 05 3e 36 56 be be 32 b5 88 be 62 9d c1 3d
       0.1301228 -0.3717515 -0.2670074 0.094538465
000060 7e af e4 be 49 ce f1 bd b7 2f 31 be 5a 56 75 bf
       -0.4466514 -0.11806924 -0.17303358 -0.9583489
000070 26 74 31 bd 5b 61 bb be 0f 92 8b 3e 30 17 64 bf
       -0.04332366 -0.36597714 0.2725987 -0.8909788
000080 d0 03 ef 3d 4b d9 14 3e 0d b4 52 bf 0b de e9 3d
       0.11670649 0.14536016 -0.82305986 0.114193045
000090 77 f0 00 3e 7e 60 b2 3d b1 23 25 bf 81 3e 21 bf
       0.1259173 0.08709811 -0.64507586 -0.62986
0000a0 e5 29 18 3e 7e cc cb be 50 19 a0 3c af d4 14 3e
       0.14859731 -0.39804453 0.01954332 0.14534257
0000b0 cf 76 5b 3e dc 13 d1 bd b6 27 1b bc 7d cf 21 3e
       0.2143204 -0.10208866 -0.009469917 0.15801807
0000c0 51 06 20 bf ad b8 32 3e aa 6b 75 be a4 fa 15 bf
       -0.6250964 0.1745326 -0.23966852 -0.5858557
0000d0 4a 0b 71 bf d2 bc a2 be b1 58 37 3e 71 4f 1d bf
       -0.9415785 -0.31784683 0.17904927 -0.6144934
0000e0 a7 63 de bd de fe 38 3e 2a dc 43 3d 2a a6 6c 3e
       -0.10858851 0.18065974 0.047817387 0.23110262
0000f0 ac 00 d5 3d e6 26 1b 3e 33 e7 86 be 89 bd 91 3d
       0.10400519 0.15151557 -0.26348266 0.07116229
000100 63 e7 51 bf 51 77 49 bf 92 3e a4 3d 7a da 28 3d
       -0.81993693 -0.7869769 0.08019747 0.04122398
000110 1f aa cb be dc db a6 be 12 ea 03 3e 07 5f 1a 3e
       -0.3977823 -0.32589614 0.1288226 0.15075313
000120 b6 ad 9f 3c 13 6a 1d bc cd 7f 8c bd 8f 39 e2 bd
       0.019492012 -0.00960781 -0.068603136 -0.11046135
000130 43 fe 5b be 19 d7 2a 3c a6 4d 6b be 15 1c b6 be
       -0.21483712 0.01042726 -0.2297884 -0.355683
000140 23 ed d0 3b 36 c8 12 bf f6 93 82 bd ac a4 08 3e
       0.006375925 -0.5733675 -0.063758776 0.13344067
000150 ea d8 c9 3d 06 cd 48 bd f6 60 b4 be df 25 b4 3d
       0.09855826 -0.04902365 -0.35230225 0.08796286
000160 86 1e b3 3d ff 6b f0 be 18 5a a7 3d 7a 3c 02 be
       0.08746056 -0.46957394 0.08171481 -0.12718382
000170 be f4 c6 3d 6d 3f be 3d 1c f4 10 bd ee 4a ba be
       0.097146496 0.09289441 -0.03538905 -0.36385292
000180 f3 f9 18 3d 94 a2 c7 3d 09 d5 6e be 77 79 ad bd
       0.037347745 0.09747806 -0.23323454 -0.08470433
000190 8b 79 1b 3e d3 d2 e2 3d 84 7f 74 be c2 a0 bb be
       0.15183084 0.11075368 -0.23876768 -0.36646086
0001a0 14 00 9c 3d 7b c5 0c bf 62 47 93 3e c3 c0 24 3e
       0.076172024 -0.5498883 0.28765398 0.16089158
0001b0 6f 8b 1a 3e dc 38 8d be 06 38 cb bd a4 4d 8e be
       0.15092252 -0.27582443 -0.09922795 -0.2779361
0001c0 40 40 ac be 81 0e 91 3d 97 87 c3 bd ef 5c 7c be
       -0.3364277 0.070828445 -0.09547346 -0.24644826
0001d0 1a 34 a4 bd 83 c5 df be 85 f3 8e 3d a5 c6 dd bd
       -0.0801775 -0.43705377 0.069800414 -0.10828904
0001e0 4e a2 12 bf b1 12 0e 3e 22 ca 83 be 52 1c f7 bd
       -0.5727891 0.13874318 -0.25740153 -0.120659485
0001f0 7b be 82 be 2e ae 86 be 82 7b a9 3e 36 e3 d5 bd
       -0.2553595 -0.26304764 0.3310204 -0.10443728
000200 95 ca 8f bc c9 2a dd bd 19 6d 14 bf 79 a2 f9 be
       -0.017552653 -0.10799176 -0.5797897 -0.4875677
000210 c3 0a 5a 3e 7e 5f ee 3d 5e 24 c3 be f9 d2 51 3c
       0.21293168 0.116393074 -0.38113683 0.012806647
000220 0c 40 16 bf 8a 58 70 3e fb 9e ca be 2e 95 ef be
       -0.5869148 0.23471275 -0.39574417 -0.46793503
000230 e3 05 5c bd 18 bd 2b bd 92 56 c2 be 2a ce 03 3e
       -0.05371655 -0.04192838 -0.37956673 0.12871614
000240 46 ea 4c be 3f 62 7b be 53 1f 18 bc 21 bd c9 be
       -0.20011243 -0.24549197 -0.009284812 -0.39402106
000250 f4 06 27 bf 73 af cc 3d 59 93 28 3d 6e c8 61 bf
       -0.65244985 0.09994402 0.041156147 -0.88196456
000260 3d 16 37 3e dc bc 46 3e 2d bd 21 be 75 6f 90 3c
       0.17879577 0.19407982 -0.15794821 0.017631272
000270 ef 15 34 bf d8 39 0c bf af 0f dd be 82 92 91 3d
       -0.7034597 -0.5477576 -0.43176028 0.07108022
000280 c2 f1 78 bc be 04 5b be 81 ff 6a be bb 4a 4a be
       -0.015194358 -0.21388528 -0.2294903 -0.1975507
000290 ba d1 12 3e e9 0e 04 3d c8 86 48 be 67 17 5c be
       0.14337817 0.032240782 -0.19582665 -0.21493302
0002a0 49 cd 49 be da d4 6d bd 04 e3 05 bf f3 dc 06 bf
       -0.19707216 -0.05806432 -0.52299523 -0.5268089
0002b0 db 7b a1 be 4e 93 6c 3d 8d eb 2d 3e 1b c8 84 bb
       -0.31539807 0.05775767 0.16984387 -0.0040521747
0002c0 03 6e 29 bf 9d 93 85 be d5 32 9f be 9b a1 e4 bd
       -0.6618349 -0.26089182 -0.3109347 -0.11163636
0002d0 88 c0 96 be d5 4a 5e 3c 33 ee 3d be ed 01 ad be
       -0.29443765 0.013567646 -0.18547897 -0.33790532
0002e0 23 ec ea 3c 01 7a 9e bd b9 52 e8 3d 1f 51 83 be
       0.028677052 -0.07738114 0.11343903 -0.25647828
0002f0 95 98 6a be e3 9a e4 bd da cd 19 bf b9 59 91 bc
       -0.22909768 -0.11162355 -0.6007973 -0.017742978
000300 04 77 73 bd 28 db 1a bd e3 78 b1 bd ae aa 1a 3d
       -0.059439674 -0.03780666 -0.086656354 0.03776043
000310 bd da 6c 3d 93 e4 29 3d 83 d7 ba bc 10 d4 03 3e
       0.057825793 0.04147775 -0.022807842 0.12873864
000320 2c fd 78 bd a3 a7 f1 3d 26 5a 1c be f5 13 ec bd
       -0.06078832 0.11799552 -0.15268764 -0.11527244
000330 a4 fd 8c 3c 62 a7 a3 3d f8 f9 c0 bc c3 bb 12 3e
       0.017210789 0.0799091 -0.023556694 0.14329438
000340 ed 5b f2 3c a4 a7 9b bd 30 e0 c9 3d 29 0a 6a 3c
       0.02958485 -0.07600334 0.098572135 0.014284649
000350 e6 57 7d bd 59 99 26 3d 2e 30 e5 3d f7 6e 35 bc
       -0.061851405 0.040673587 0.1119083 -0.011073819
000360 cf db 42 3e 32 60 86 3d a3 fa d4 bc 17 50 1d 3e
       0.19029163 0.065613165 -0.02599842 0.15362583
000370 54 ad 01 3d aa 7f 58 3d be b8 00 be ff eb ac 3c
       0.03165944 0.052856125 -0.12570474 0.021108625
000380 c0 77 9a bd bb 4d ce 3c 2f 43 8e bd 14 a2 07 be
       -0.07542372 0.02518355 -0.06946408 -0.13245422
000390 d0 a6 c7 3d 67 21 87 3d ea 6c fb bc f2 5f ae 3c
       0.09748614 0.06598168 -0.030691583 0.021285985
0003a0 d2 ab 9e bc 0a a5 76 3c 99 35 30 3e c1 34 a3 3d
       -0.01936904 0.015053997 0.17207946 0.079690464
0003b0 e7 df 20 3e 42 68 4c bd 5f 44 84 be 5d 07 c8 bd
       0.15710412 -0.049904115 -0.25833413 -0.097670294
0003c0 51 17 05 3d db 0f 86 bd 0a f0 eb 3d 3d 07 61 bc
       0.03249294 -0.06545993 0.11520393 -0.013734636
0003d0 1e 9c cd 3b 27 41 92 bd 3d bf 7c 3d c7 a1 f8 bc
       0.006274714 -0.07141333 0.061705817 -0.030350579
0003e0 c7 67 83 bd 74 07 d2 3d b7 39 38 be bc d1 b3 bc
       -0.06416278 0.10255328 -0.17990766 -0.021950595
0003f0 11 56 5b be 03 e5 8d be 10 64 65 3e 17 31 ec bd
       -0.2141955 -0.27713785 0.22401452 -0.11532801

fc4.bias f4 [24]
000000 ae 6c 0a bc f7 e5 c8 3d cb e8 ba bc 35 cc b0 3e
       -0.008448763 0.09809487 -0.022816082 0.34530798
000010 9c 69 69 3e d5 c1 f3 3d 37 83 2a be 3d 30 2e 3e
       0.22794193 0.11902205 -0.16651617 0.17010589
000020 63 f3 1d bb 35 a3 e1 bd 18 44 08 bd 2f 65 d1 bd
       -0.0024101369 -0.110174574 -0.033268064 -0.10224377
000030 c6 36 06 3d f7 59 4f be 8f 80 7a bd 48 04 30 be
       0.03276708 -0.20249163 -0.06115776 -0.17189133
000040 be 68 8f bd f3 97 d3 bd 54 39 0b be e3 1e 2a 3e
       -0.070024 -0.103317164 -0.13596088 0.16613345
000050 27 b2 9e be 4e d9 49 3d 2a 54 30 be 8f d7 98 bd
       -0.30995294 0.049279504 -0.17219606 -0.074629895

exp_avg f4 [128, 144]
000000 be 83 95 bb 3a 41 8c ba 78 26 43 bb 95 95 6a bb
       -0.004562824 -0.0010700591 -0.0029777568 -0.0035794724
000010 e4 21 64 bb 7f ec e2 b9 eb a3 de ba e1 bf 8e b9
       -0.003481024 -0.00043282282 -0.0016986107 -0.00027227312
000020 a5 ef 72 bb 47 60 56 bb d3 ba 2d bb c6 84 56 3a
       -0.0037069109 -0.0032711194 -0.002650906 0.0008183237
000030 b3 b7 90 bb 47 65 0f bb 34 f2 80 bb de 8d 6b b9
       -0.00441643 -0.0021880434 -0.003935123 -0.00022464196
000040 8c 78 1e bc b8 45 31 bc dc 84 bd bb d4 11 01 3b
       -0.009672295 -0.010819845 -0.0057836603 0.0019694464
000050 b5 61 90 ba 96 1c 5b bb ea 4c 64 bb 79 38 70 bb
       -0.0011015447 -0.0033433787 -0.0034835883 -0.0036654754
000060 bb b0 09 bc aa 9a 09 bb 77 6c e4 bb 62 26 65 bb
       -0.008403952 -0.0020996728 -0.006970938 -0.0034965505
000070 ed ec 00 bc 5f 05 05 3a 08 c5 77 bb ba a7 5c bb
       -0.0078689875 0.0005074348 -0.0037806649 -0.0033669309
000080 74 c2 15 ba 0e 3f a8 bb 16 bb 75 bb 13 e5 13 3a
       -0.00057128747 -0.00513447 -0.0037495545 0.00056417397
000090 60 32 f2 bb 6c 68 63 bb 5a 5e 21 bc 54 3f 16 39
       -0.007391259 -0.0034699691 -0.009849155 0.00014328706
0000a0 ff 33 1a bc 6a f1 4a bc dc ed 26 bc 3d 0c f2 ba
       -0.009411811 -0.012386659 -0.010188546 -0.0018466782
0000b0 c1 fd 30 bb 51 fb cd ba 28 68 f9 bb 27 74 13 bc
       -0.0027006718 -0.0015715157 -0.0076112933 -0.008999861
0000c0 34 f2 02 bc a4 af 0f bb 65 69 ef bb 62 91 70 bb
       -0.007992316 -0.0021924758 -0.007306265 -0.0036707749
0000d0 42 43 f3 bb b3 0d 26 38 e3 9a 8d bb 24 ae 67 bb
       -0.0074237892 3.9590243e-05 -0.0043214425 -0.0035351599
0000e0 6b 14 10 ba e5 8b 9a bb 14 a0 63 bb bf 06 4c bb
       -0.00054962066 -0.0047163838 -0.0034732865 -0.003113195
0000f0 0a d7 f0 bb 6e 84 55 b9 4d 4f 18 bc 47 43 16 39
       -0.0073498534 -0.00020362597 -0.0092962505 0.00014330178
000100 b6 15 23 bc 8f df 43 bc 33 3c 29 bc c9 09 61 bb
       -0.009953907 -0.011955156 -0.010329294 -0.0034338108
000110 e4 e4 1c bb d3 26 04 bb ff 0c f1 bb c3 4d 0a bc
       -0.002394014 -0.0020164743 -0.0073562856 -0.008441391
000120 41 8e 04 bc cd e5 08 bb c7 a6 e0 bb 87 64 78 bb
       -0.008090557 -0.0020888925 -0.006855819 -0.0037901716
000130 d1 23 f2 bb 80 69 ca 37 78 b2 8f bb 12 93 67 bb
       -0.0073895236 2.4129404e-05 -0.004385289 -0.0035335463
000140 8a ce b1 ba b4 b5 91 bb e1 5d 71 bb bd b2 4c bb
       -0.0013565582 -0.0044467095 -0.0036829638 -0.0031234466
000150 60 93 f3 bb 19 91 e5 b7 fb 1c 15 bc c9 e0 0a 39
       -0.00743334 -2.7366494e-05 -0.009101148 0.00013244445
000160 86 f6 21 bc f6 73 43 bc 01 a0 2b bc cf 10 60 bb
       -0.009885436 -0.011929503 -0.01047516 -0.0034189706
000170 4f e6 23 bb 51 67 00 bb cc e6 d9 bb 3e c0 15 bc
       -0.00250091 -0.0019592831 -0.0066498276 -0.009140072
000180 74 3a 06 bc f0 16 38 bb ee 12 ee bb b9 f9 6e bb
       -0.008192647 -0.0028089844 -0.00726544 -0.0036464764
000190 d5 77 f5 bb c8 dd 89 b9 f9 25 81 bb 39 a4 54 bb
       -0.0074910917 -0.00026295916 -0.0039412943 -0.0032446517
0001a0 5a dc e9 ba a9 0f 9c bb e1 43 97 bb 7b b8 4c bb
       -0.0017842159 -0.004762609 -0.004616246 -0.0031237889
0001b0 98 5c f2 bb c6 b2 0c 3a 30 75 12 bc 07 8a 0c 39
       -0.007396292 0.00053672155 -0.0089390725 0.0001340286
0001c0 ec ea 1b bc 1a 8e 42 bc 37 62 2c bc a7 8e 66 bb
       -0.009516459 -0.0118747 -0.010521463 -0.0035180242
0001d0 a6 5b 1e bb 2c 99 12 bb 92 e7 c5 bb 50 0c 14 bc
       -0.0024163513 -0.002236913 -0.006039568 -0.009036139
0001e0 f0 c5 05 bc c2 7c 32 bb 44 f0 fd bb b9 11 70 bb
       -0.008164868 -0.0027235006 -0.007749589 -0.0036631657
0001f0 6e 09 ee bb 95 b2 a4 b9 86 39 80 bb 44 c3 47 bb
       -0.0072643077 -0.00031413572 -0.0039131073 -0.0030481378
000200 85 09 d5 ba f9 72 a6 bb 6b 7f a7 bb 93 c7 5a bb
       -0.0016253447 -0.005079624 -0.005111625 -0.0033383116
000210 b3 c4 ee bb 04 00 4c 39 05 8e 0f bc ae 2e fd 38
       -0.007286632 0.00019454962 -0.008761887 0.00012072675
000220 b5 8b 1a bc dd fb 3e bc bb 52 2b bc 8e 27 33 bb
       -0.009432723 -0.011656729 -0.010456736 -0.002733681
000230 c5 22 21 bb 75 bf 1d bb 0d ec bf bb ec 4f 17 bc
       -0.0024587375 -0.0024070416 -0.005856997 -0.009235363
000240 04 00 00 00 04 00 00 00 04 00 00 00 04 00 00 00
       6e-45 6e-45 6e-45 6e-45
000250 04 00 00 00 04 00 00 00 04 00 00 00 04 00 00 00
       6e-45 6e-45 6e-45 6e-45
000260 04 00 00 00 04 00 00 00 04 00 00 00 04 00 00 00
       6e-45 6e-45 6e-45 6e-45
000270 04 00 00 00 04 00 00 00 04 00 00 00 00 00 00 00
       6e-45 6e-45 6e-45 0.0
000280 04 00 00 00 04 00 00 00 04 00 00 00 04 00 00 00
       6e-45 6e-45 6e-45 6e-45
000290 04 00 00 00 04 00 00 00 04 00 00 00 04 00 00 00
       6e-45 6e-45 6e-45 6e-45
0002a0 04 00 00 00 04 00 00 00 04 00 00 00 04 00 00 00
       6e-45 6e-45 6e-45 6e-45
0002b0 04 00 00 00 04 00 00 00 04 00 00 00 04 00 00 00
       6e-45 6e-45 6e-45 6e-45
0002c0 04 00 00 00 04 00 00 00 04 00 00 00 00 00 00 00
       6e-45 6e-45 6e-45 0.0
0002d0 04 00 00 00 04 00 00 00 04 00 00 00 04 00 00 00
       6e-45 6e-45 6e-45 6e-45
0002e0 04 00 00 00 04 00 00 00 04 00 00 00 04 00 00 00
       6e-45 6e-45 6e-45 6e-45
0002f0 04 00 00 00 04 00 00 00 04 00 00 00 04 00 00 00
       6e-45 6e-45 6e-45 6e-45
000300 04 00 00 00 04 00 00 00 04 00 00 00 04 00 00 00
       6e-45 6e-45 6e-45 6e-45
000310 04 00 00 00 04 00 00 00 04 00 00 00 04 00 00 00
       6e-45 6e-45 6e-45 6e-45
000320 04 00 00 00 04 00 00 00 04 00 00 00 00 00 00 00
       6e-45 6e-45 6e-45 0.0
000330 04 00 00 00 04 00 00 00 04 00 00 00 04 00 00 00
       6e-45 6e-45 6e-45 6e-45
000340 04 00 00 00 04 00 00 00 04 00 00 00 04 00 00 00
       6e-45 6e-45 6e-45 6e-45
000350 04 00 00 00 04 00 00 00 04 00 00 00 04 00 00 00
       6e-45 6e-45 6e-45 6e-45
000360 04 00 00 00 04 00 00 00 04 00 00 00 04 00 00 00
       6e-45 6e-45 6e-45 6e-45
000370 04 00 00 00 04 00 00 00 04 00 00 00 04 00 00 00
       6e-45 6e-45 6e-45 6e-45
000380 04 00 00 00 04 00 00 00 04 00 00 00 00 00 00 00
       6e-45 6e-45 6e-45 0.0
000390 04 00 00 00 04 00 00 00 04 00 00 00 04 00 00 00
       6e-45 6e-45 6e-45 6e-45
0003a0 04 00 00 00 04 00 00 00 04 00 00 00 04 00 00 00
       6e-45 6e-45 6e-45 6e-45
0003b0 04 00 00 00 04 00 00 00 04 00 00 00 04 00 00 00
       6e-45 6e-45 6e-45 6e-45
0003c0 04 00 00 00 04 00 00 00 04 00 00 00 04 00 00 00
       6e-45 6e-45 6e-45 6e-45
0003d0 04 00 00 00 04 00 00 00 04 00 00 00 04 00 00 00
       6e-45 6e-45 6e-45 6e-45
0003e0 04 00 00 00 04 00 00 00 04 00 00 00 00 00 00 00
       6e-45 6e-45 6e-45 0.0
0003f0 04 00 00 00 04 00 00 00 04 00 00 00 04 00 00 00
       6e-45 6e-45 6e-45 6e-45

exp_avg_sq f4 [128, 144]
000000 5b 19 23 3b e2 05 e1 3a 23 8f f6 3a 58 ec d3 3a
       0.002488694 0.0017167891 0.0018810969 0.0016168458
000010 7b 76 81 3b ac 15 f8 3a ec 52 89 3a ea 9e 8d 3a
       0.0039508916 0.0018927357 0.0010476983 0.0010804806
000020 77 ed 07 3a c3 ce 14 3b ec 28 49 3a e9 7e 6c 3a
       0.00051852263 0.0022706247 0.00076736393 0.00090215966
000030 aa 8c 97 3b 08 4a a5 39 41 56 8b 3a df e6 67 38
       0.0046249228 0.0003152641 0.0010630564 5.5289707e-05
000040 d3 b4 33 3b 43 7f b5 3b 0c a9 b0 3b a3 10 b9 3a
       0.0027421012 0.0055388524 0.0053912457 0.0014119338
000050 60 e2 1c 3b 73 eb 81 3a 4a 3d a3 3a 8c d9 90 3a
       0.002393864 0.0009912088 0.0012454179 0.0011051162
000060 00 99 99 3b b3 c8 6c 3b a7 a4 67 3b ce 6d 1e 3b
       0.0046874285 0.0036130368 0.0035345943 0.0024174335
000070 9a 73 dd 3b f8 c7 39 3b d3 5e 10 3b 0d b4 fa 3a
       0.0067581655 0.002834795 0.0022029176 0.0019127146
000080 20 99 17 3b 18 31 6a 3b ec 7b 12 3b 69 ba 05 3b
       0.002313204 0.0035734829 0.0022351695 0.0020405299
000090 51 00 fa 3b 2a 33 fa 3a 70 fa 11 3b 87 3a 6b 37
       0.0076294322 0.0019088734 0.0022274517 1.40207185e-05
0000a0 94 80 92 3b 7f a4 0f 3c 80 29 0a 3c 4a 6a 05 3b
       0.004470894 0.008767246 0.008432746 0.0020357543
0000b0 05 b2 5b 3b d0 32 0f 3b 0e ba 14 3b 14 e6 1a 3b
       0.0033522856 0.0021850355 0.0022693905 0.0023635672
0000c0 c4 ef 9a 3b c4 4f 6e 3b 9b a2 64 3b 7b 18 1f 3b
       0.0047282893 0.0036363462 0.003488696 0.0024276066
0000d0 5f 74 dd 3b b6 db 37 3b 5a 3c 0f 3b cd ce fa 3a
       0.0067582573 0.0028054542 0.002185604 0.0019135118
0000e0 23 6d 18 3b 6c d4 7d 3b 35 b3 11 3b a0 c0 08 3b
       0.002325841 0.003873135 0.002223206 0.0020866767
0000f0 36 a6 f8 3b 84 c8 00 3b 68 a5 0f 3b a5 ae 5e 37
       0.0075881733 0.0019650767 0.0021918658 1.3272894e-05
000100 68 ac 93 3b bd 84 10 3c c6 5c 09 3c a7 8f 08 3b
       0.0045066364 0.00882071 0.008383935 0.0020837577
000110 70 5a 5b 3b 59 ec 0b 3b d8 23 16 3b 80 ce 18 3b
       0.0033470653 0.002135059 0.0022909548 0.0023316443
000120 90 e8 9b 3b 2d 3a 70 3b 00 19 66 3b d8 dd 1d 3b
       0.004757948 0.003665577 0.0035110116 0.0024088528
000130 80 c8 dc 3b b5 7c 35 3b 62 a9 0e 3b 1f c7 fb 3a
       0.0067377687 0.002769274 0.002176844 0.0019209123
000140 da 1d 1f 3b 6c 80 80 3b ab af 11 3b 98 48 09 3b
       0.0024279268 0.003921559 0.002222995 0.002094781
000150 23 a4 f9 3b bb 3f 08 3b d0 40 0d 3b 6c 47 4e 37
       0.0076184436 0.002078994 0.0021553524 1.2295186e-05
000160 81 3e 95 3b ee 80 10 3c bf eb 08 3c 9b a8 07 3b
       0.00455457 0.008819802 0.0083569875 0.0020699862
000170 44 0a 5e 3b 12 bc 0b 3b 25 0b 13 3b ac b1 1d 3b
       0.003388063 0.0021321815 0.0022437063 0.00240622
000180 46 3d 9d 3b 3c d4 69 3b 3a ee 63 3b fa 43 1e 3b
       0.004798564 0.003567948 0.0034779445 0.0024149404
000190 40 db dc 3b 22 e3 31 3b 78 fa 0b 3b 5c e1 04 3b
       0.006740004 0.0027143438 0.0021359008 0.0020275926
0001a0 d5 fc 22 3b b8 e7 7c 3b 90 fd 13 3b 17 42 09 3b
       0.0024869938 0.0038590264 0.0022581555 0.0020943934
0001b0 b6 6e f9 3b 2d 10 07 3b 04 0c 0f 3b 05 51 48 37
       0.0076120747 0.0020609007 0.002182723 1.1939793e-05
0001c0 63 dc 96 3b 9f 9b 10 3c c6 ce 08 3c d1 ab 08 3b
       0.004603909 0.008826165 0.00835008 0.0020854364
0001d0 2f 01 5e 3b 54 dd 0f 3b d5 ee 10 3b a4 07 1e 3b
       0.0033875217 0.002195199 0.0022115011 0.002411344
0001e0 e8 75 9c 3b 9e f6 6a 3b 08 35 63 3b 66 c5 1d 3b
       0.0047747977 0.0035852562 0.003466906 0.0024073957
0001f0 ad e6 dc 3b 0f ae 33 3b 27 c4 10 3b 5b 2d 05 3b
       0.006741366 0.002741698 0.0022089572 0.0020321223
000200 d2 a0 25 3b 27 f6 7c 3b d8 8b 14 3b 06 c1 09 3b
       0.0025272858 0.0038598867 0.0022666361 0.0021019592
000210 c4 e2 f9 3b a7 73 05 3b cf 0a 0d 3b 26 6a 44 37
       0.0076259095 0.0020363124 0.0021521335 1.1707225e-05
000220 ff c9 95 3b 3c d9 10 3c 32 20 08 3c 8a 3a 0c 3b
       0.004571199 0.008840855 0.008308457 0.0021397197
000230 a0 4f 5e 3b 94 92 10 3b 19 df 0f 3b 88 bc 1d 3b
       0.0033921972 0.0022060024 0.0021953045 0.0024068672
000240 f6 86 40 17 d2 8f 13 19 a3 6c 2c 16 fe 0b 08 18
       6.220889e-25 7.628766e-24 1.3928329e-25 1.7583643e-24
000250 ac 42 b5 19 01 d2 5e 19 62 2e 76 18 cc b1 ae 17
       1.874189e-23 1.1519541e-23 3.1818172e-24 1.1289369e-24
000260 20 7f e4 16 ac 42 b5 19 17 a9 21 17 d8 50 d5 10
       3.6915614e-25 1.874189e-23 5.2235327e-25 8.4138246e-29
000270 f9 c3 b4 19 df 17 db 16 ee 89 ac 18 00 00 00 00
       1.8690717e-23 3.5396423e-25 4.460023e-24 0.0
000280 fc 60 b9 18 f9 c3 b4 19 f9 c3 b4 19 85 40 0f 18
       4.791931e-24 1.8690717e-23 1.8690717e-23 1.851489e-24
000290 d3 46 a0 17 7a 04 2b 18 6e 05 d3 18 7b 91 be 17
       1.0357636e-24 2.2103492e-24 5.4547704e-24 1.2315187e-24
0002a0 ec b4 81 16 b0 fd 29 19 36 d7 00 19 d1 79 9d 18
       2.0955252e-25 8.788327e-24 6.6609064e-24 4.070655e-24
0002b0 f7 b6 c3 19 ed 2d 5c 19 89 36 26 18 5d 5f 86 17
       2.0236426e-23 1.1383008e-23 2.148253e-24 8.68362e-25
0002c0 5d 74 a4 18 f7 b6 c3 19 3c bc 06 18 00 00 00 00
       4.2510503e-24 2.0236426e-23 1.7414128e-24 0.0
0002d0 f7 b6 c3 19 36 bd 16 19 52 37 15 19 d7 cf e2 16
       2.0236426e-23 7.793029e-24 7.714291e-24 3.6643435e-25
0002e0 57 aa ca 18 f7 b6 c3 19 f7 b6 c3 19 fb b2 b6 18
       5.2387775e-24 2.0236426e-23 2.0236426e-23 4.722662e-24
0002f0 04 44 aa 17 9a 60 69 17 4f fe 98 18 8c 33 34 18
       1.1003162e-24 7.540829e-25 3.9547865e-24 2.329048e-24
000300 ec b4 81 16 13 07 1e 19 1a 74 e6 18 d1 79 9d 18
       2.0955252e-25 8.169837e-24 5.957084e-24 4.070655e-24
000310 f7 b6 c3 19 7f bd 4d 19 89 36 26 18 5d 5f 86 17
       2.0236426e-23 1.063652e-23 2.148253e-24 8.68362e-25
000320 5d 74 a4 18 f7 b6 c3 19 3c bc 06 18 00 00 00 00
       4.2510503e-24 2.0236426e-23 1.7414128e-24 0.0
000330 f7 b6 c3 19 33 f3 09 19 66 13 0a 19 d7 cf e2 16
       2.0236426e-23 7.131848e-24 7.13835e-24 3.6643435e-25
000340 57 aa ca 18 f7 b6 c3 19 f7 b6 c3 19 a8 4b 1b 19
       5.2387775e-24 2.0236426e-23 2.0236426e-23 8.028591e-24
000350 04 44 aa 17 9a 60 69 17 4f fe 98 18 8c 33 34 18
       1.1003162e-24 7.540829e-25 3.9547865e-24 2.329048e-24
000360 ec b4 81 16 13 07 1e 19 b4 47 0f 19 d1 79 9d 18
       2.0955252e-25 8.169837e-24 7.407407e-24 4.070655e-24
000370 f7 b6 c3 19 38 20 40 19 89 36 26 18 5d 5f 86 17
       2.0236426e-23 9.932674e-24 2.148253e-24 8.68362e-25
000380 5d 74 a4 18 f7 b6 c3 19 3c bc 06 18 00 00 00 00
       4.2510503e-24 2.0236426e-23 1.7414128e-24 0.0
000390 f7 b6 c3 19 33 f3 09 19 66 13 0a 19 d7 cf e2 16
       2.0236426e-23 7.131848e-24 7.13835e-24 3.6643435e-25
0003a0 57 aa ca 18 f7 b6 c3 19 f7 b6 c3 19 2e db 0c 19
       5.2387775e-24 2.0236426e-23 2.0236426e-23 7.282093e-24
0003b0 04 44 aa 17 9a 60 69 17 4f fe 98 18 8c 33 34 18
       1.1003162e-24 7.540829e-25 3.9547865e-24 2.329048e-24
0003c0 ec b4 81 16 99 d5 52 19 36 d7 00 19 d1 79 9d 18
       2.0955252e-25 1.0899881e-23 6.6609064e-24 4.070655e-24
0003d0 f7 b6 c3 19 fc 55 33 19 89 36 26 18 5d 5f 86 17
       2.0236426e-23 9.2714475e-24 2.148253e-24 8.68362e-25
0003e0 5d 74 a4 18 f7 b6 c3 19 3c bc 06 18 00 00 00 00
       4.2510503e-24 2.0236426e-23 1.7414128e-24 0.0
0003f0 f7 b6 c3 19 bf f8 fb 18 66 13 0a 19 d7 cf e2 16
       2.0236426e-23 6.513315e-24 7.13835e-24 3.6643435e-25
