models/preliminary_results_models/RaceMultiOutputModel3/model.pt (torch, 495727 bytes, 18 tensors)

fc1.weight f4 [128, 240]
00000000: 3fbe 073d fadd e0bc 3006 3dbc 7933 f73c
00000010: a813 77bd 6d39 1d3d 8409 59bc c727 0b3d
00000020: a23f 243c aceb eabb f177 993c 4d50 993b
00000030: 7f98 cd3c 346d cebc 425a b9bb cd74 c3bb
00000040: fa76 293c 3c51 093a 2491 6f3d c93a b03c
00000050: 6cce c2bc 6d11 1bbd 8e5f 18bc 895b e3bc
00000060: 39b4 abbc 31cb 243b 967f 1d3d 971e 113d
00000070: f7f4 80bd 7973 273d e4ad ae3c 8a47 7a3d
00000080: 2b2e 2e3d 468c 71bd 7e56 7fbd eb91 02bd
00000090: 9c22 673d 0ae2 2abc b89b e93c 8f1c eebc
000000a0: 3a0b 843d 608e d5bc 6b80 4b3d 7acb 2b3a
000000b0: 5e8f 0cbd 8614 033d 0374 10bd 225f 963c
000000c0: addc b1bc cfee 2dbc b230 7bbd 2eaa f7bc
000000d0: 63d9 113d 4160 89bc fb20 813d fd5c 4c3d
000000e0: 0e4c b3bb 43ca 35bd f63f 1a3d 4c4c 953c
000000f0: 2f5a 24bd 337e 3c3d d6f6 233d 829f 653d
00000100: cd8b 17bd 6131 38bc 812a cdba d1e9 243c
00000110: 5311 45bd bbe1 34bd 085a 103d 1892 72bc
00000120: 7513 083d 7c4f 253b f9c8 ab3c 3c56 5d3c
00000130: 08a5 c03c fef2 073d 9ec6 71bd 78db 0c3d
00000140: 95a0 36bd 79dc 40bd 0e0f ca3b cb85 33bc
00000150: 6c88 1c3d 5b08 19bd 70be 67bd 500a 433d
00000160: e82d 0cbc 28a0 143d e937 aa3c 7461 49bd
00000170: c924 583c 82c2 7e3c db54 2ebd 7b87 fbbc
00000180: 6639 b83c bb0b 4f3c e4b9 dabc a1f7 94bc
00000190: 398e 783d 8ca3 28bc 870d 1b3d fb28 e43c
000001a0: a8e6 29bd e834 61bd 408c 7d3d 63ba 343b
000001b0: 87b3 323d f1f8 4e3c 8053 ac3c 3893 463d
000001c0: 993b 7a3d 7121 33bd 077b dc3b 3888 403d
000001d0: 1e74 3f3d 8aa4 293d 9697 3ebd 34f1 39bd
000001e0: bf81 17bd 163f 0f3c c83a 853d 2338 2abd
000001f0: 6530 0b3d edaf 10bd 45e2 76bd 0b2c 3ebc
00000200: e0a0 1f3d ab63 7a3d 0b8f 1fbd 9409 723c
00000210: 96bd 643d b949 2b3d 83df 223d fab7 383d
00000220: 1649 283d 4559 933c 1fd2 2ebd 1163 52bd
00000230: 17c0 e9bc 4e55 e3bb 539d 1fbd 15de b93c
00000240: 0f76 9c3c 3eec 7ebc 87e6 c83c fbd8 b33c
00000250: 1121 273d d758 353d f30f 9cbc de3a 833d
00000260: 2a37 debb d248 41bb 5888 75bd b346 2bbd
00000270: 5c3d 19bd fbe9 debc 4efc 3b3d f3ce abbc
00000280: 10d3 3abd 70f7 cd3c e1e7 ad3c 99bf 2b3d
00000290: 197b 06bd e058 6d3c 09bb acbc 637d 35bc
000002a0: 35a6 3dbd 77bb c2bc 1566 a1bc e398 dd3c
000002b0: b8bb 383c e314 633c f92f 7b3d 0dad 773d
000002c0: 3242 283d eefb 0eb9 bf33 3ebd cd0b 433d
000002d0: 2cac 8dbc 071e a9ba 978c 5ebd 790d 5ebc
000002e0: 1563 30bd 4da6 6d3d 7ce5 68bd 7b54 44bd
000002f0: 64b2 52ba b3c6 09bd f954 8c3c 096a f0bc
00000300: 3516 f3bc a9c3 703b 84b2 3c3d b90c 3abd
00000310: bd67 f83c 67dd 2b3d df18 813d 31e6 36bd
00000320: 73eb 223c ffe2 56bd 7288 403d 7c95 02bd
00000330: a1e8 003d 3623 c2bb 3cd6 4cbc 5a24 1fbc
00000340: 4e77 843b f7cc c03c 37e3 6a3c fa39 c63c
00000350: 4c11 5ebd 73f2 4a3d cb66 793d 7cf1 623d
00000360: 26b9 4c3d 5de9 34bd 1fdf b5bc beae 713d
00000370: 8800 35bd 93bf 803d d23f 40bd 7c3a 33bd
00000380: 963a 123d 9da2 2dbd 51b6 2cbc c3c0 513d
00000390: 0855 5a3d 7204 873d c066 f2bb 693c 38bd
000003a0: 9f94 8d3d 3409 48bc 68f0 aebc 1b9f a93c
000003b0: e05c 24bd 60b6 423d f3ef 2d3d eb51 3fbd
000003c0: 8a14 61bd ebd1 f7bb fe8f c83c 982d d1bb
000003d0: d93e 15bd 64bc 43ba 56c7 80bd 2ad0 43bd
000003e0: e565 3dbd d96a 513d 1b17 613d a5c1 c2bc
000003f0: 923a ad39 fb6d c53c 3a16 bc3b 8c5c 0cbd
0.033140417 -0.027449597 -0.01153712 0.030175911 -0.06032148 0.038384844 -0.013246898 0.03397348
0.010024937 -0.0071692076 0.01873395 0.004678762 0.02509713 -0.025198556 -0.0056565115 -0.0059648515
0.010343308 0.000523824 0.058488026 0.021512406 -0.02378007 -0.037858415 -0.009300126 -0.027753608
-0.02095996 0.0025145526 0.038451754 0.035429563 -0.06296723 0.040881608 0.021323152 0.06110338
0.042524498 -0.058971666 -0.062338345 -0.03187744 0.05642949 -0.0104298685 0.028516635 -0.029066352
0.06447454 -0.026068866 0.049683016 0.00065534527 -0.034316413 0.032001995 -0.035266887 0.01835591
-0.021711672 -0.010616018 -0.061325736 -0.030232515 0.035607707 -0.01676953 0.06305119 0.049893368
-0.005471713 -0.044382345 0.037658654 0.018224858 -0.04012507 0.04601879 0.040030323 0.05606032
-0.03699856 -0.011242242 -0.0015652926 0.010065512 -0.048112225 -0.044160586 0.03524211 -0.014805339
0.03322168 0.0025224378 0.020969855 0.013509329 0.023516193 0.03319072 -0.059027307 0.03438899
-0.044586737 -0.04708526 0.0061663454 -0.010957192 0.03821604 -0.037361484 -0.0565781 0.047617257
-0.008555867 0.03628555 0.020778613 -0.049165204 0.013192364 0.015549304 -0.042561393 -0.03070425
0.022488307 0.012637074 -0.026699968 -0.018184485 0.06068251 -0.010292899 0.037854698 0.027851572
-0.041479737 -0.054982096 0.06190133 0.0027576915 0.043628242 0.012632594 0.02103591 0.048480242
0.061091993 -0.043733064 0.006728533 0.04700491 0.046741597 0.041416682 -0.046531282 -0.045396045
-0.03698897 0.008743068 0.06505352 -0.041557442 0.0339817 -0.035324026 -0.06027438 -0.01160718
0.03897178 0.061130207 -0.038954776 0.014772791 0.055844866 0.041818354 0.03976394 0.04509733
0.041085325 0.017986903 -0.042680856 -0.05136401 -0.028533978 -0.0069376593 -0.038968395 0.022688905
0.019099263 -0.015559254 0.024523987 0.02195405 0.04080302 0.044274177 -0.019050574 0.064077124
-0.0067814784 -0.0029492867 -0.05994448 -0.04181547 -0.037412032 -0.02721118 0.045894913 -0.020972705
-0.04561144 0.025142401 0.021228733 0.04193077 -0.03283224 0.0144865215 -0.021085279 -0.011077258
-0.046301086 -0.02377103 -0.019701997 0.027050441 0.011275224 0.01385996 0.061325047 0.06046777
0.041078754 -0.00013636026 -0.046436068 0.047618676 -0.017294012 -0.0012902626 -0.054333296 -0.013553017
-0.043063242 0.058019925 -0.05685948 -0.04793213 -0.00080374465 -0.03363676 0.017130362 -0.029347437
-0.029673675 0.0036737716 0.046068683 -0.04542229 0.030322904 0.041959193 0.06303572 -0.04465312
0.009943831 -0.052462574 0.047005124 -0.03188084 0.031471852 -0.0059246076 -0.012502249 -0.009713257
0.0040425425 0.023535235 0.014336399 0.024197567 -0.054215714 0.049547624 0.060889047 0.05540608
0.04998126 -0.044167865 -0.022201119 0.059004538 -0.04418996 0.0628654 -0.046935864 -0.043756947
0.035700403 -0.04239141 -0.0105415145 0.051209223 0.05330375 0.06592645 -0.0073975027 -0.044979487
0.06913113 -0.012209225 -0.021354869 0.02070575 -0.040127635 0.047537208 0.04246516 -0.046708982
-0.05495123 -0.007562866 0.024482723 -0.006383609 -0.03643689 -0.0007466732 -0.0628802 -0.047805943
-0.046239752 0.05112729 0.054953676 -0.023773978 0.0003304077 0.024100294 0.0057399543 -0.034267947

fc1.bias f4 [128]
00000000: 565f 46bc 5557 603d 43d2 f83c d965 2d3b
00000010: 4a5f 313d 9526 753d a173 21bd b89b 28bd
00000020: cc5c f23c 4bab afba 0c63 33bd 244a 70bd
00000030: 68eb 4abd 3a9c 1dbd 59dc 6d3d 7d25 4e3c
00000040: 769b 05bd bbcb 023c 27b8 35bd 6171 28bd
00000050: 376d 7abd 9d7a 723d d17b c03a c6f4 513d
00000060: c5da c13c b4f8 753d 25f5 3f3b 5e0d cebb
00000070: 1e10 a0bc ecba 73bc 0225 d13c ec0f e03c
00000080: a6b5 333d 3ef7 05bd 1f4c b33c 6e03 24bd
00000090: 5c41 033d 2680 47bd 064f a9bc 8f09 173d
000000a0: be70 623b 24df 373d 0712 2bbd 7082 2dbd
000000b0: 5010 e93c 060c 173d 2fcc ec3c 851f 9b3c
000000c0: 4cf3 493d 5a57 32bc 9dac 2cbd a074 703d
000000d0: d125 65bd 6e1a 4cbd 0967 d9bc 8e2d 503c
000000e0: 6af1 823c 420e 02bd bb36 20bd 3e64 a7bc
000000f0: 3af3 e8bb 6a9f febc 9927 153d 1d62 e93c
00000100: b32a f8bc a70f 40bb 5086 353c b771 303d
00000110: 0f33 08b7 8cc2 7dbd c4ec 0e3d dbec 01bd
00000120: d0f2 7c3d 1f73 2dbd b5b0 0bbd cad7 d7bc
00000130: 6b32 eb3c d83b ac3c 1c5f adbb 7953 513d
00000140: 2e47 fdbc 52fa 883c 7748 02bd 86fe 563d
00000150: 12dd 263d 2489 19bd 95ef e5bb 32a4 e63c
00000160: 2ce6 083c bd29 76bd 7b19 e6bc ea38 393b
00000170: 2596 f43c 3aed 053d bb5f 59bc e340 03bc
00000180: b331 f6bc 8bce 49bd c5fc fd3c e597 cdbc
00000190: c026 523d e899 153d 3d2a d6bc 6b61 36bb
000001a0: 3bb6 85bc 851b a2bc a1fb 813d cc0d 333c
000001b0: f413 86bc d22e 41bb a048 55bd f7be 02bb
000001c0: 0a5c 92bb 467a 70bd efc3 cb3c 5105 42bd
000001d0: bab3 043d 95c0 813d c46e 71bc cc01 81bd
000001e0: bc84 49bd 5748 6e3c 9600 423c 428b 673d
000001f0: f0ff eb3c 4888 e3bb 2ba8 5a3c f387 f7bc
-0.012107691 0.054770786 0.030373698 0.002645841 0.043303765 0.059851248 -0.039416913 -0.04116413
0.029585265 -0.001340249 -0.04379563 -0.058664456 -0.049540907 -0.038479067 0.058071468 0.01258218
-0.032618962 0.007983143 -0.044365074 -0.04112375 -0.06113931 0.059198964 0.0014685338 0.051258825
0.023663888 0.060051635 0.0029290405 -0.0062882146 -0.019538935 -0.014876109 0.025530342 0.027351342
0.043874405 -0.03270649 0.021886883 -0.040042333 0.032044753 -0.048706196 -0.020667564 0.03687435
0.0034552063 0.044890538 -0.04176524 -0.042360723 0.028450161 0.0368767 0.028905956 0.018935928
0.04930429 -0.010885084 -0.042156804 0.058704972 -0.055944268 -0.049829893 -0.026538389 0.012706174
0.015984256 -0.03175188 -0.039114695 -0.020433541 -0.007109073 -0.031081874 0.036414716 0.028489167
-0.030293798 -0.0029306205 0.011079386 0.043077197 -8.11812e-06 -0.061953112 0.034893766 -0.031720024
0.061755 -0.042346116 -0.034104068 -0.026348013 0.028710565 0.02102463 -0.005290879 0.051104996
-0.03091773 0.016720925 -0.03180739 0.052488826 0.040738173 -0.037484303 -0.007017086 0.028154466
0.0083556585 -0.0600984 -0.028088322 0.0028262683 0.02985675 0.03269694 -0.013267453 -0.008011076
-0.030052995 -0.04926924 0.031004319 -0.025096843 0.051306486 0.03652373 -0.026143188 -0.0027829062
-0.016322246 -0.019788513 0.063468225 0.010928582 -0.016366936 -0.002947737 -0.052071214 -0.001995025
-0.0044665383 -0.05871036 0.024873702 -0.04736835 0.032397963 0.0633556 -0.014735881 -0.06299171
-0.04919885 0.014543614 0.01184096 0.05652929 0.028808564 -0.006943736 0.013345758 -0.030216193

fc2.weight f4 [64, 128]
00000000: 58c9 17bd 5e4f a43c 983f 08bd ac78 913d
00000010: bc23 8b3d 9f27 073d 947b 093d 504c 933d
00000020: c508 6f3c 6a44 3bbc 5287 04bc f725 8d3d
00000030: ae6b 25bd b693 793d 9eba 7b3d 4504 56bd
00000040: 2393 7abd 3aae 8d3d 84aa 6e3c 40f5 3b3c
00000050: 0ed1 d5bc fe58 d1bc 7fad aa3c b9d5 43bd
00000060: 0aff b6bd 737a 423c ed29 5e3d 9d19 303d
00000070: 8be0 8abc b146 a93d 32fb 813d d692 2cbd
00000080: 02a8 fcbb 050f 10bd 50b7 c9bb 0726 7a3d
00000090: 0e9e ad3c 2f0b a7bd b5d4 29bd 02be 7d3d
000000a0: b51d a53d 7149 a93c 2252 10bb aa78 b7bd
000000b0: d82d f1bc d138 653d 94e2 03bc 110c 6fbd
000000c0: f287 54bd 2f67 8bbd 7ed8 3f3b dfa7 43bd
000000d0: a67c 953d 0c4e c0bc 4bf4 aebd d435 64bd
000000e0: b2b6 1fbd 2ebc 78bc 22b9 283d d9db 233c
000000f0: 923a 5dbd d17b b7bd 2fb9 8ebd 97e2 60bd
00000100: 3348 09bd c6d8 98bd c6a9 59bd 5f8c fa3c
00000110: 268b 4bbd bd70 af3d 26c5 dcbc 628e c63c
00000120: f97f 80bc 359c 4b3c 4db4 9fbd b678 64bd
00000130: ae66 27bc 90e6 8ebb f9ac a43d f782 7ebd
00000140: d7e2 99bd 6a55 0a3d 9398 05bc 8be2 45bd
00000150: 9688 8a3c cd14 9bbd 3aa5 99bd 9c44 00bd
00000160: 904d 9bbd bd3b 233c ddb6 a13c fb49 553d
00000170: f33c 563d ccf8 b5bb accc 8f3d 29d6 6bbd
00000180: 170a 263a 5b99 183d dab8 2fbd 9c63 873b
00000190: 60d3 ebbc c3d1 0fbd 8afc 4b3d 5c58 9bbc
000001a0: 3055 81ba 84a2 d33c 2084 1cbd bdd7 5d3c
000001b0: 56df 02bc 0e57 5c3c b777 24bd 029a 093d
000001c0: 9ecf 353d a8cc 5c3d f98e 283c 4674 473d
000001d0: b4d7 46bd 8824 ae3d b8ac 8d3d 269d 143d
000001e0: d112 74bd 8e83 a83b 5a3b 7bbc a496 293d
000001f0: e35b cebc e419 7c3d e342 953d 1e5c f03b
00000200: c406 43bd 901d 3e3d c674 773d 22b6 103d
00000210: 0d5b abbc 538e 32bd e222 4cbc a6b5 2bbd
00000220: 4df7 16bd f6dc 8ebd ccc1 a1bd c315 7a3d
00000230: 9e67 0ebc 7329 d6bb b404 0c3d f0b3 b33d
00000240: 54d2 dc3c 7388 a63d bef3 abbd be30 df3c
00000250: f8fa a4bd 965c 9e3d e32f 8dbd 687d 94bd
00000260: 94b9 d6bc d7e5 9dbd 10d7 b9bb 0ef7 46bd
00000270: 7a0f 52bd 2da8 e7bc 9efe 543d 4119 87bd
00000280: c7a9 a5bc a404 2a3d cb22 b43a 0d63 8abd
00000290: 09c3 493d f915 753d a70b a7bd 92d8 85bb
000002a0: 5822 203d 459e ae3d a793 2abd d21e 623d
000002b0: 06e5 483c 9dc1 623c b7c2 92bd 8cf0 f53c
000002c0: 3703 4b3d 4c8f a1bd ceee 8dbd 5eef 703c
000002d0: 261d c6bb 6b43 87bd 648a 8a3b 3989 55ba
000002e0: 57b5 8f3d 13d1 a03d a2ac 97bc 9ac8 a13d
000002f0: 2249 6bbd acdc 6fbd afcb 3b3b 15f8 1b3d
00000300: 3e9c 8b3d 384d 183c 1702 7ebd 3552 4c3d
00000310: b73e 7a3d 336d 7fbb 75ba fc3c d850 65bd
00000320: 27cf 733d b12e 203c b59d 85bd 6e9a 103d
00000330: 83f0 b7bd 3555 49ba d055 bbbd 4360 b13c
00000340: f995 0d3d 0186 8bbd 5afd 63bd a3d2 9a3d
00000350: ced2 4c3d 47c6 4d3d dcb4 d4bc cbc9 7dbd
00000360: 9bd6 533c 0a23 82bd d59f b13d 4d0b 15bd
00000370: 99f2 69bd a646 74bd 4ec3 9d3d 7209 303d
00000380: 8737 55bd 3402 8b3d 19f7 903d 9fa5 13bd
00000390: acf9 4cbd 9061 57bd d98a a73d 87d5 ff3a
000003a0: 2b0f 6c3d a4c4 263d b0a5 98bd a3fc 00bd
000003b0: d19c 81bc 9a46 623d c67f a43d 5518 603d
000003c0: ad91 713d 4aae 963c c604 9c3d bc3f cd3c
000003d0: 5bd9 883d 12ca acbd 9bd7 2a3d 35f9 0cbd
000003e0: 08e0 2ebc 1246 8d3d 2015 38bd 02ec 45bd
000003f0: f871 bdbd 41f0 0b3d c4b5 b2bd fe0e b0bc
-0.03705725 0.020057376 -0.033263773 0.071030945 0.06793925 0.03299677 0.03356512 0.0719229
0.014589493 -0.011429885 -0.0080889035 0.06892007 -0.040385894 0.060931884 0.06145727 -0.052250165
-0.061175477 0.06917997 0.014567021 0.011472046 -0.026100662 -0.02555513 0.020834683 -0.047811244
-0.089353636 0.0118700145 0.054239202 0.042993177 -0.016952774 0.082654364 0.0634674 -0.04213222
-0.007710458 -0.035170574 -0.0061558858 0.061071422 0.02119353 -0.0815643 -0.04146262 0.061948784
0.08062307 0.020664902 -0.0022021611 -0.08958562 -0.029440805 0.055962387 -0.008049626 -0.058361117
-0.05188746 -0.0680679 0.0029273327 -0.047767516 0.072991654 -0.023474716 -0.08542689 -0.055715397
-0.03899259 -0.015181584 0.04119218 0.010001146 -0.054010935 -0.08959163 -0.06968915 -0.054903593
-0.03351612 -0.07463221 -0.053140424 0.030584512 -0.04969325 0.08566425 -0.026949476 0.024237815
-0.015686022 0.012427379 -0.077980615 -0.05577918 -0.010217352 -0.0043609813 0.080408044 -0.062136617
-0.075139694 0.033772863 -0.008154052 -0.04831175 0.016910832 -0.07572327 -0.075022176 -0.03131543
-0.07583153 0.009962973 0.019740516 0.052072506 0.05230422 -0.0055533405 0.0702146 -0.057577286
0.0006333901 0.037255626 -0.042900898 0.0041317474 -0.028787315 -0.035112154 0.049801387 -0.018963031
-0.0009867307 0.02583433 -0.03821194 0.013540206 -0.007987818 0.01344849 -0.04015323 0.03359414
0.044387452 0.053906113 0.010287994 0.04869487 -0.048545554 0.085030615 0.06917709 0.03628268
-0.059588257 0.0051426357 -0.015333975 0.041403428 -0.0251903 0.06154813 0.07288148 0.0073352
-0.047613874 0.04641491 0.0604141 0.035329945 -0.02091744 -0.043592762 -0.012459489 -0.04192128
-0.03685694 -0.06975739 -0.07898292 0.06105591 -0.008691696 -0.006535703 0.034184173 0.08774555
0.026955761 0.081314944 -0.083960995 0.027244922 -0.08055681 0.07732503 -0.06893899 -0.07250482
-0.026211537 -0.07709854 -0.0056713894 -0.048575453 -0.05128429 -0.028278435 0.052000634 -0.06596614
-0.020222558 0.041508332 0.0013743279 -0.06757174 0.049258266 0.059835408 -0.081565194 -0.004084655
0.039095253 0.08526281 -0.04164472 0.055205174 0.012261635 0.013840106 -0.07166045 0.030021928
0.049563613 -0.0788866 -0.06930314 0.014705507 -0.0060459552 -0.06604656 0.004227923 -0.0008145753
0.0701701 0.07852378 -0.018514935 0.0789959 -0.05744279 -0.05856006 0.002865534 0.038078386
0.0681691 0.009295754 -0.06201371 0.049883086 0.061094966 -0.0038975 0.030850628 -0.0559853
0.059523728 0.009776757 -0.06524221 0.035303526 -0.08981421 -0.00076802383 -0.09147227 0.021652346
0.034566853 -0.068126686 -0.055661537 0.07559707 0.050005727 0.05023792 -0.025965147 -0.061960023
0.012929584 -0.063543394 0.08673064 -0.03638773 -0.057116125 -0.059637688 0.07703267 0.042977758
-0.052054908 0.067875296 0.0707838 -0.03604662 -0.050042793 -0.052583277 0.0818078 0.0019518592
0.057631653 0.040714875 -0.074534774 -0.031490933 -0.015821846 0.055243112 0.08032183 0.054710705
0.058976818 0.018393654 0.07618098 0.025054805 0.06682082 -0.08436979 0.041709524 -0.03441735
-0.01067353 0.068981305 -0.04494202 -0.048320778 -0.092502534 0.03416467 -0.08726075 -0.021491524

fc2.bias f4 [64]
00000000: f62e 1d3d 0f12 b83c f025 ec3c 7932 1bbd
00000010: de66 8a3d 9f79 ae3c 0fff 9abc 955d 42bb
00000020: 483d 9cbc 836b 863c ca46 963d 6792 8cbd
00000030: 4080 a0bd e8b2 16bd 7355 8dbb 9cfb 783d
00000040: 875f 503d 451e a33d a521 f73c 3a2e 87bd
00000050: 9ea4 a23d 1d2d 923d 9a06 b53d e7c0 383d
00000060: 59a2 9dbc 45fc dc3c ebe9 15bc 998b b4bd
00000070: 05dd db3a 121a 963d e8bb 713c edd2 f4ba
00000080: c43a e43b 7210 763d da79 693d 4ffb 813b
00000090: cae0 a2bd 602c b1bd 53cc 4dbd e2ab 343d
000000a0: b9a2 1bbd 09f7 8e3d 20cf a6bb 0901 7b3c
000000b0: e51c 8cbd a81d 4abd dcd0 f13c 371c 053c
000000c0: 2cdd 94bd 40fb 0cbd 89c4 aa3d 8fb9 803d
000000d0: f718 85bb ba60 89bd 5e7e cb3b c5be 70bc
000000e0: 9dec 18bc dcff b9bc 3d3e 433d 7c7a edbc
000000f0: 47ee 543d edd5 9abd 923e a23d fcab a1bc
0.038374864 0.022469549 0.028826684 -0.03788993 0.067579016 0.021298228 -0.01892045 -0.002965783
-0.01907219 0.016408687 0.07337721 -0.068638615 -0.07836962 -0.036791712 -0.004313165 0.06078683
0.050872352 0.07964758 0.03016741 -0.06600614 0.079415545 0.07137511 0.0883915 0.04510584
-0.019242452 0.02697576 -0.009150009 -0.08815689 0.0016774243 0.07329191 0.014754273 -0.0018678583
0.006965013 0.060074277 0.057000972 0.003966726 -0.07953031 -0.08651042 -0.050243687 0.044109233
-0.03799698 0.06980712 -0.005090609 0.015320071 -0.06841449 -0.04934469 0.029518537 0.008124403
-0.07268748 -0.0344193 0.08338267 0.062853925 -0.004061814 -0.06707902 0.0062101325 -0.0146939205
-0.009333757 -0.022705011 0.047666777 -0.02898907 0.05198505 -0.07560334 0.079220906 -0.019735329

fc3.weight f4 [24, 64]
00000000: 4b9b 00bd 11e2 ffbd 7e1f 03be 7b04 dcbd
00000010: e2e4 3fbd e3b5 703d 3a83 da3d 1a96 aabd
00000020: a2ac 043d 36a8 9cbb 509f 93bd 8d84 bcbd
00000030: 2559 e9bd c5e8 afbd 878e ce3d c86f cebd
00000040: 5fca a2bd c8c4 ce3d 6d46 f8bd cda0 cebc
00000050: 9622 91bd 8938 ecbd 29e1 4c3d 0a89 b73d
00000060: ed46 b93d beb5 04be 6801 f23d 8445 eebc
00000070: 168a 03bd f2bf ef3d 6155 603d 8b18 2c3d
00000080: 4a12 073c 6ff0 65bc b0e1 8c3d 6d39 c73d
00000090: 857b fcbd b3c7 f1bd 93a0 88b9 1cba 463d
000000a0: dbfc 2a3b 08b4 003d 74d1 03bc 06d8 d2bb
000000b0: 0106 e53d 5af9 903d 29af 77bb 0116 c3bd
000000c0: 032e 4e3d 0c9c debd 3a26 c6bd 1a7d a33d
000000d0: f04b 53bd 9cfe d23c f713 a2bd 1bf3 b63d
000000e0: 563f d4bd 86ec 5dba bc87 ae3d 8c3f 53bd
000000f0: ff0d fbbd a8d2 cd3c f5c2 87bd 0e65 f13d
00000100: 00ff 0e3b 952c a73d 9a50 90bd dc20 e3bd
00000110: 06a6 a0bd 91fe 9e3c d1ee 613d 469f 41bb
00000120: ae0c 1cbd d55a 5dbd 2a4a c13d bfc9 b2bd
00000130: 2dc5 d73d fd7b 3c3c 602e e8bd 71a5 753d
00000140: 848c c6bc 0fcf 81bd c9a0 773b 3340 93bd
00000150: 9be7 b73d 81cc dfbd c256 4ebd 9c6c 923d
00000160: 211c d0bd 0146 dbbd b07f de3b 2114 88bd
00000170: 5782 5ebd 39fd cd3d 2824 96bb b40f b93d
00000180: 8f5f 35bd 24c5 09bd 62fe f13d 4df7 f93d
00000190: bb0a a63b c247 e9bd cc35 8f3d 0a9a 4d3d
000001a0: 9dc1 ea3d 9b09 c23d 7a59 d4bd 9ae2 633d
000001b0: 7db0 25bd f4d9 c6bd 9ec3 ebbd 7284 03be
000001c0: 546c f73d a80c 45bd 5a0f 243c 81ba cb3d
000001d0: 96e7 87bd 6c6b 9dbd 87d0 4cbd dda7 8f3d
000001e0: 1f56 e7bd 5730 99bd 770a cfbd d1f3 3abd
000001f0: 6b9c 28bd 7de2 96bd 2cfe 5bbd 9e98 9abd
00000200: 88e5 cb3d 8537 db3d 50fb 393d daec bbbd
00000210: 218b c93b 5f20 ba3d 8ec0 b83b a92d 6ebd
00000220: 5e25 d7bd 3495 cfbd 42e0 193d 594b 85bd
00000230: 189e 193d 6494 a4bd 8c9b c33d 0389 dbbd
00000240: 32e6 ec3d a02e 553d d95c d7bd a157 1c3d
00000250: fb82 e73c 5911 963d 927b e8bd e44f 153d
00000260: d2e2 513d 82e5 7dbd 4cc3 d3bd 48cc acbd
00000270: 5ca1 54bc c410 843d 6d10 fc3d ef92 88bb
00000280: 8ae0 b83c 9b0e 02be c29f 98bd b223 af3d
00000290: 3f75 0f3c 2791 c23d 92df 48bd bcd3 84bd
000002a0: eb70 33bd 05cd 353d ac5f a8bd 5665 363d
000002b0: 97f1 f03d 7587 11bd b943 26bd 1aee 97bc
000002c0: 9f1b 0d3c 999f 87bd 685f a3bd a082 8ebd
000002d0: a912 893d cf62 95bd d897 ee3d dbc1 8f3c
000002e0: 9860 833c 7ebd b03c 40c1 6abd 1fb9 313d
000002f0: cc6d c23d 1476 f83d cfde a6bd d6b5 6c3d
00000300: a542 dabd 6c3a 003d ff1a d73d d71a 153d
00000310: 4fdd 75bc 4415 f63c 722d 0e3c 9911 14bd
00000320: f4fa afbd 5b5c 9cbd 7baa a4bd a622 523c
00000330: dc62 8e3d c71e 273d 6c8d 6e3b 812c a4bd
00000340: 4554 a7bd e056 383c bdfb df3c 5add 063d
00000350: 70a6 e2bd 2ee4 c1bc 5c2f 05be 13a5 323d
00000360: 9511 a23d 5c7a 163d 9e6c aa3d 6a39 623c
00000370: 5881 e23d 037b 65bd 28b4 4c3d 96eb 363d
00000380: 6c18 ca3d 1add 103d 2c73 a4bd 1726 67bd
00000390: d833 783d d126 ab3d 4760 bebc 7ca5 9bbd
000003a0: c6c7 763c 4da7 ca3d f913 3bbd e79e 6fbd
000003b0: 9547 e23c 9e71 26bd a9a5 d2bc ec8c edbd
000003c0: 437e c13d 1820 82bc 775d 8c3d d2dd e03d
000003d0: 9bb3 80bc 9e87 f9bd 7cee 61bd 4b69 013d
000003e0: 741a babd be93 da3d f5a2 c63d 3df7 b5bc
000003f0: 5511 efbd 8427 84bd 2684 47bd 57c7 9dbb
-0.0313981 -0.124942906 -0.12804982 -0.10743042 -0.04684914 0.05876721 0.10669561 -0.08329411
0.032391198 -0.0047807945 -0.07208121 -0.092049696 -0.11393956 -0.08589319 0.10085779 -0.10079914
-0.079487555 0.10096127 -0.12122808 -0.02522316 -0.07086675 -0.11534221 0.050019417 0.08961685
0.09046731 -0.12959954 0.118166745 -0.029085882 -0.03211411 0.117065325 0.054768924 0.042015593
0.008244107 -0.014034375 0.06878984 0.0972775 -0.12328247 -0.11805668 -0.00026059579 0.04851733
0.0026090655 0.03142169 -0.008045543 -0.0064344434 0.11182786 0.0707881 -0.0037793613 -0.09525681
0.05033685 -0.10869607 -0.0967526 0.079828456 -0.05158609 0.025756173 -0.07913964 0.089330874
-0.10363643 -0.00084657257 0.08521983 -0.051574275 -0.12258529 0.025124863 -0.06628982 0.11786853
0.0021819472 0.081628 -0.070466235 -0.11090252 -0.078441665 0.019408496 0.055159394 -0.0029544397
-0.03809803 -0.054041702 0.09437974 -0.08729886 0.10535655 0.0115041705 -0.1133697 0.05997223
-0.024236925 -0.063383214 0.0037785044 -0.071899794 0.08979722 -0.10927678 -0.050375707 0.07149622
-0.10161615 -0.107067116 0.006790124 -0.06644464 -0.05432352 0.10058064 -0.004581947 0.09036198
-0.044280585 -0.033635274 0.11816098 0.12205372 0.005067197 -0.1139064 0.06992683 0.05019573
0.1146271 0.09474488 -0.10368629 0.055636026 -0.040451515 -0.0970954 -0.115119204 -0.12843493
0.12081209 -0.048107773 0.010013426 0.09947682 -0.066359684 -0.07686505 -0.050003555 0.07014439
-0.11295723 -0.07479923 -0.10109418 -0.045642678 -0.041164797 -0.07367418 -0.053709194 -0.07548641
0.09955889 0.10703949 0.045405686 -0.09176035 0.0061506187 0.090882055 0.0056381887 -0.058149014
-0.10505174 -0.1013588 0.037567385 -0.06508512 0.037504286 -0.08036116 0.095511526 -0.10719492
0.11567344 0.05204642 -0.10515756 0.038169507 0.028260699 0.073275276 -0.11351694 0.036453143
0.051241703 -0.061986454 -0.10339984 -0.08437401 -0.012977924 0.0644851 0.123078205 -0.0041679065
0.022568006 -0.12700884 -0.074523464 0.0855173 0.008755981 0.09500342 -0.04904134 -0.064856976
-0.04380886 0.044384975 -0.08221373 0.044530235 0.117648296 -0.035529573 -0.04059193 -0.018546153
0.008612542 -0.06622238 -0.07977182 -0.069585085 0.06693012 -0.07294237 0.11650056 0.017548492
0.01603727 0.021574732 -0.057313204 0.043389436 0.09493598 0.121318966 -0.08147966 0.0577906
-0.10657243 0.031305715 0.10503196 0.03640255 -0.015006377 0.030039437 0.008677827 -0.036149595
-0.085927874 -0.07634803 -0.08040329 0.012825644 0.0695245 0.040800836 0.0036400212 -0.08016301
-0.0817037 0.011251181 0.027341718 0.03292594 -0.11066902 -0.023668375 -0.13006347 0.04361446
0.0791351 0.036737785 0.08321498 0.013807634 0.110598266 -0.056025516 0.049976498 0.044658266
0.09867939 0.03536711 -0.0802978 -0.05643281 0.060596317 0.08357013 -0.023239268 -0.07599923
0.015062278 0.09895191 -0.045673344 -0.05850115 0.027622024 -0.040635698 -0.025713759 -0.11599144
0.09447911 -0.015884444 0.068537645 0.10979809 -0.015710643 -0.1218407 -0.055159077 0.031594556
-0.09087077 0.10672711 0.0969905 -0.022212619 -0.11673228 -0.064528495 -0.04871001 -0.004815023

fc3.bias f4 [24]
00000000: 590a cebd eae0 0f3d d7af 87bd ea6b 0cbd
00000010: 012c 03be 5552 26bd 117d ca3c b5cc fd3d
00000020: e74b cc3c e8f5 c5bd 89a9 b6bd e576 f6bc
00000030: 0d5a ef3d c9b7 403c e78a 3ebd 766d 22ba
00000040: 35f1 aa3d 0390 6fbd 251a d5bd d90d eebd
00000050: ae12 883d 6ca0 c23d eb5c 063e 5808 a0bd
-0.100605674 0.035126604 -0.06625336 -0.034282602 -0.12809755 -0.04060586 0.02471784 0.123925604
0.024938537 -0.096660435 -0.08919055 -0.03008599 0.11687098 0.011762568 -0.046519186 -0.00061961205
0.08346788 -0.05848695 -0.10405377 -0.11623735 0.06644188 0.09503254 0.13121383 -0.078140914

exp_avg f4 [128, 240]
00000000: 821e 9e41 a242 4342 4fd0 0842 5545 3042
00000010: 7306 1a42 7cff 5342 782d 4542 f8e8 0342
00000020: ba11 db41 faeb c241 2a61 ae41 c8c6 5142
00000030: d218 1e42 ad08 3f42 0d97 6642 8f87 6742
00000040: c3f0 4342 1a9b 3e42 be21 0242 d94c 0c42
00000050: 5da9 f941 6bd0 5142 93b6 0e42 62b5 2c42
00000060: f272 3e42 a279 5b42 33ac 4542 ba0b 1c42
00000070: 58ed 1b42 0020 8541 ec50 1b40 3d01 8042
00000080: 5b5f 4442 a32b 1a42 7283 5842 638b 5842
00000090: 8c9a 4842 2b8c 2342 7a59 f541 147d 8441
000000a0: c722 db41 9564 3642 889e 0a42 ca8e 3242
000000b0: b110 4942 0f50 6c42 9749 6642 b2e1 4142
000000c0: 4070 d442 acdc cd42 851c d741 8c8f 6f42
000000d0: 0ffa 3442 62d2 6842 6057 8342 6dd8 8e42
000000e0: f51d 9d42 10c9 8342 2b57 8042 e39a 6342
000000f0: 2a8f b441 d490 a441 957b 1142 6267 6242
00000100: 0185 4342 33c8 3f42 172e 4442 54c7 1042
00000110: e2ef ea41 8250 d441 9e77 2242 32ee a142
00000120: a070 2842 d621 7842 5846 6c42 3d2f 8342
00000130: be69 7042 111c 3642 5b0b 4e42 5c1c d141
00000140: 9278 f941 08a0 3d42 0dd5 9941 74ca 0942
00000150: ed56 1c42 76a9 2542 835b 1642 96e1 0b42
00000160: 2e98 b341 2a5d f341 6644 2a42 ee28 9f42
00000170: b47c 5342 e215 2642 50a9 1942 42be 3d42
00000180: 1a87 1642 7434 e241 eb08 0642 4c9b 8941
00000190: 7503 8641 39b1 0742 5eb9 e341 ffd7 1642
000001a0: ecad 2242 4077 2042 f281 3342 3432 2c42
000001b0: e5ad 2a42 5097 fb41 c6b3 4642 590b 8142
000001c0: caa2 3842 9e0b 3242 dc39 3e42 a63e 3e42
000001d0: 2241 0a42 a0f5 be41 7586 f141 2c7a 1440
000001e0: 8573 6741 94c0 4342 be9e 4342 548d 6642
000001f0: d789 4642 4c88 1842 3e2b 3042 e6f5 9f41
00000200: d801 9341 afa1 7841 c2a8 d441 c0af 6c42
00000210: 5d5e 4142 789e 5a42 34f6 5342 95e3 4442
00000220: 11e2 2942 907c dd41 2880 c041 84aa 6cc0
00000230: a27e dc41 0e98 5942 57bc 1a42 ecd9 4642
00000240: 3f92 4842 eac3 5242 3ed9 3f42 596a 1442
00000250: 1bc7 0d42 31ce f541 ebbb 3a41 e30c 6d42
00000260: 38fd 3b42 febe 5d42 ec38 1842 9842 5742
00000270: 4cb6 4642 a0a1 3442 22c3 3842 073e 0942
00000280: 97f0 1041 ec51 8c42 4805 3e42 816e 0c42
00000290: c3a2 0542 87e0 0742 7e97 e141 d8d5 b240
000002a0: b4ba 3dc1 b47f 96c1 a911 4242 bbdf 9542
000002b0: b9ab 4042 23a0 6f42 c84f 8b42 e573 8242
000002c0: 1f1c 8342 7673 8042 1946 4842 9550 5642
000002d0: 50b8 8142 a0ee 4c41 ecf9 0342 283a 2a42
000002e0: 1c9d 5142 a6b5 4a42 7214 4242 7628 a041
000002f0: 3652 e141 2e35 c241 f693 c742 763d 4542
00000300: d191 7941 d441 8a41 40ff e741 ddd1 c041
00000310: 6885 f541 cc72 ad41 003f a441 904d 8a41
00000320: 55b8 5fc1 27ea bec1 84e4 3c40 2abc 3840
00000330: 12cb 8b40 d2b0 df40 695a 8d40 4ccd d940
00000340: 6ec4 06bf b48c 25c1 8478 b5c1 bff1 c5c1
00000350: 2951 98c1 89fe 9ec1 f3f3 a1c1 af2c d0c0
00000360: 6401 e8c0 eb94 01c1 162e 0bc1 e05a c4c0
00000370: fa4c 75c0 e6d2 d8bf b94b a03f 1b0d a7bf
00000380: 59bd c5be e709 9e3f c514 143f 3ae3 c33e
00000390: abba 883f beae edbf 20ef 9340 f9af cb40
000003a0: 6225 8b40 f9ad 5140 6a3c a440 60e0 c640
000003b0: e422 c340 4c2b ba40 1d38 9140 6e1d 1441
000003c0: b088 b23c b106 e63c e493 063d 73ea 593d
000003d0: 3422 db3e 24c6 f33c 4d32 c83c 021f 133c
000003e0: 0cb5 cdbe 389a 123c 08d0 df3c e6cf ea3c
000003f0: 7c73 b33d 5005 e33e 8171 c63c b475 863c
19.764896 48.81507 34.203426 44.067707 38.506298 52.999496 49.294403 32.97751
27.383656 24.365223 21.797443 52.444122 39.52424 47.758472 57.64751 57.88238
48.98512 47.651466 32.53295 35.075047 31.207697 52.453533 35.678295 43.17713
47.61225 54.868782 49.418163 39.01145 38.98178 16.640625 2.426814 64.00242
49.09312 38.542614 54.128365 54.13612 50.150925 40.886883 30.66869 16.561073
27.391981 45.598225 34.654816 44.639442 50.2663 59.078182 57.571865 48.470406
106.21924 102.931 26.888926 59.890182 45.244198 58.205452 65.670654 71.42271
78.55851 65.8927 64.17025 56.901257 22.569904 20.570717 36.370686 56.60096
48.879887 47.945507 49.04501 36.194656 29.36713 26.53931 40.616814 80.965225
42.109985 62.033043 59.068695 65.59226 60.103264 45.52741 51.51109 26.138847
31.183872 47.40628 19.229029 34.44771 39.08489 41.41549 37.589367 34.9703
22.449306 30.42049 42.566795 79.57994 52.87178 41.52137 38.415344 47.4358
37.631935 28.275612 33.50871 17.200829 16.751688 33.92307 28.465511 37.710934
40.669846 40.116455 44.8769 43.049026 42.66982 31.448883 49.67556 64.52216
46.158974 44.511345 47.556503 47.56118 34.563606 23.869934 30.190653 2.3199568
14.465703 48.938065 48.90502 57.638016 49.63461 38.133102 44.04223 19.995068
18.3759 15.539474 26.582401 59.17163 48.34215 54.654755 52.990433 49.222248
42.470768 27.685822 24.062576 -3.6979074 27.561832 54.39849 38.683926 49.712814
50.14282 52.691322 47.96215 37.103855 35.44444 30.72568 11.670878 59.262585
46.997284 55.436516 38.055588 53.815033 49.678024 45.157837 46.19056 34.310574
9.058738 70.16 47.505157 35.107914 33.408947 33.969265 28.19897 5.588604
-11.858082 -18.812355 48.517246 74.93697 48.167698 59.906384 69.65582 65.22636
65.554924 64.22551 50.068455 53.578693 64.859985 12.808258 32.994064 42.556793
52.403427 50.67739 48.519966 20.019756 28.165142 24.275967 99.78899 49.31002
15.5981 17.282143 28.999634 24.102472 30.69014 21.681053 20.530762 17.287872
-13.982503 -23.864332 2.9514475 2.8864846 4.368539 6.9903345 4.4172864 6.8063107
-0.5264348 -10.346851 -22.683846 -24.74304 -19.039629 -19.874285 -20.244116 -6.5054545
-7.2501698 -8.098857 -8.698751 -6.136093 -3.8328233 -1.6939361 1.2523109 -1.3050874
-0.38621023 1.2346772 0.5784419 0.38259298 1.0681967 -1.8568952 4.62294 6.365231
4.3483133 3.2762434 5.132375 6.2148895 6.098009 5.8177853 4.5381 9.257185
0.021793693 0.028079363 0.032855883 0.053202104 0.42799532 0.029757567 0.024438048 0.008979561
-0.4017719 0.008947901 0.027320877 0.028663587 0.08762261 0.4433999 0.024224045 0.016413547

exp_avg_sq f4 [128, 240]
00000000: c357 2448 3587 2848 00ab 0548 d060 0048
00000010: fd7c e147 1a3d d747 6537 cf47 6bce cb47
00000020: 9613 f247 443f d847 3695 0c48 7da2 1e48
00000030: f45e f247 cf77 fc47 d980 de47 77d2 d047
00000040: 0da7 c447 d774 cc47 3cec ca47 6a96 bd47
00000050: ed5e 0948 c844 2a48 b579 0348 e652 0948
00000060: 6238 f047 907e e447 0553 de47 53f3 ec47
00000070: 224d ec47 7a96 ea47 2998 1e48 01fb 2348
00000080: 8ace f447 e7c7 0748 d37e e047 6679 d447
00000090: a62e cc47 45e0 da47 eac6 dc47 cc5c d947
000000a0: f7dd 1048 bf8b 3048 ae12 0748 1c7d 0b48
000000b0: 668c ed47 cb9e e247 3556 dc47 2959 f047
000000c0: 6ea2 e047 6433 dc47 674b 1d48 e1f6 2d48
000000d0: 8bd8 ff47 99a5 0748 6902 e947 2c4a db47
000000e0: 219b ca47 7b44 d747 438b d747 f92f d147
000000f0: 5d95 1348 dbad 6248 fa01 0648 18c9 0a48
00000100: d842 f447 11fb ea47 a03e e347 ec5b f447
00000110: 65d2 f047 8c40 f747 af6e 1148 7b09 2448
00000120: a853 e547 9a17 f847 a8da ce47 7c5a c147
00000130: e0ba b847 2c8e ca47 20d8 c847 3a27 c447
00000140: 005b 1a48 c5d5 2d48 e42b 0248 8ced 0548
00000150: c90b eb47 e0b5 e347 c15f d347 5582 e547
00000160: d71c e847 106a db47 9179 1448 37ed 2448
00000170: ab91 f547 e733 0348 50cb e247 d4ac c947
00000180: 2f75 c347 3398 c347 f4f0 d447 fb0f cb47
00000190: 88fd 1848 794f 3548 7877 0548 1665 0848
000001a0: c53b ec47 6434 e347 1acc dc47 0a7b e847
000001b0: c591 e347 4eb3 df47 e068 1648 341e 2a48
000001c0: 4a88 0848 fd0d 0f48 cbb9 f947 df14 e347
000001d0: be1c db47 eb03 e447 c013 d047 b8ca c547
000001e0: 15aa 0f48 09a0 3b48 f267 ff47 256a 0748
000001f0: e72c eb47 db8d cd47 196d d047 235c bc47
00000200: 69b8 c647 1394 be47 4729 1f48 bf41 2f48
00000210: 0717 0c48 019a 0e48 7f2c fc47 80ab ea47
00000220: 25df f247 260c ea47 2b31 f947 b158 f147
00000230: 03cc 2548 c97c 2848 2896 fc47 959c 0648
00000240: 5c4c ea47 36dc df47 9d8e cf47 be79 c447
00000250: 9cba c747 115c c147 db13 1f48 da01 1848
00000260: 09af 0048 d0e4 0648 cde3 e147 9bf0 d447
00000270: ebe4 cf47 0aef de47 3f42 d747 848e d147
00000280: ca6f 2b48 a289 2048 82b0 f847 cf3a 0348
00000290: 311f e947 0251 e947 f554 cf47 5bb2 dd47
000002a0: 188c bc47 137a ba47 b314 0e48 c5bf 1548
000002b0: 07f1 e647 b7a0 f347 dd99 cc47 1241 cc47
000002c0: 19e5 c347 1df5 d347 7b1c ca47 021b c247
000002d0: 4cbc 0c48 efaf db47 1a9d c547 bffe cf47
000002e0: d204 b547 0ae1 b447 eeb1 b247 dfe3 9f47
000002f0: 90c4 b447 d885 ae47 7c99 e647 f89f 9c47
00000300: 630b 8747 26fc 9247 4ded 6b47 e194 6547
00000310: efb2 6047 0593 6247 3714 7547 be5f 5a47
00000320: 40fc 2647 922c 0047 7ba6 0047 704d 1047
00000330: 1c72 e046 5cc8 dc46 2b60 dc46 1509 dd46
00000340: ebd7 de46 845b fb46 fc3b 9d46 2283 7b46
00000350: 78ca 6646 1c38 a546 f913 4b46 5e1b 4b46
00000360: 1764 4a46 2546 5046 74dc 9c46 ca7a 4e46
00000370: 8a2e d745 5054 ac45 724d 9345 d3a9 3c46
00000380: 9487 8b45 5958 8a45 f242 8a45 5a56 8c45
00000390: d6c7 3a46 7122 9245 20fb 4745 4743 0f45
000003a0: 225d e844 5b78 0546 76f3 dc44 b752 d844
000003b0: 973e da44 f026 dd44 9dad 1646 62b1 e144
000003c0: a7a2 1d45 6cf0 7445 3d2f 5b45 6a65 1746
000003d0: 2ad2 1445 d3e0 bc44 d189 b944 03dc c044
000003e0: c8b7 2546 9401 c044 c7df 1f45 3389 9445
000003f0: 808e 8f45 c6cc 5946 e22a 0845 5201 0445
168287.05 172572.83 136876.0 131459.25 115449.98 110202.2 106094.79 104348.836
123943.17 110718.53 143956.84 162441.95 124093.91 129263.62 113921.695 106916.93
100686.1 104681.68 103896.47 97068.83 140667.7 174355.12 134630.83 140619.6
122992.766 116989.125 113830.04 121318.65 120986.266 120108.95 162400.64 167916.02
125341.08 139039.61 114941.65 108786.8 104541.3 112064.54 113037.83 111289.59
148343.86 180782.98 138314.72 142836.44 121624.8 116029.586 112812.414 123058.32
115012.86 112742.78 161069.61 178139.52 130993.086 138902.39 119300.82 112276.34
103734.26 110216.96 110358.52 107103.945 151125.45 232119.42 137223.9 142116.38
125061.69 120310.13 116349.25 125111.84 123300.79 126593.09 148922.73 167973.92
117415.31 127023.2 105909.31 98996.97 94581.75 103708.34 102832.25 100430.45
158060.0 178007.08 133295.56 137142.19 120343.57 116587.75 108223.51 117508.664
118841.68 112340.125 152038.27 168884.86 125731.336 134351.61 116118.625 103257.66
100074.37 100144.4 109025.91 103967.96 156662.12 185661.89 136669.88 139668.34
120951.54 116328.78 113048.2 119030.08 116515.54 114534.61 154019.5 174200.81
139809.16 146487.95 127859.586 116265.74 112185.484 116743.836 106535.5 101269.44
147112.33 192128.14 130767.89 138664.58 120409.805 105243.71 106714.195 96440.27
101744.82 97576.15 162981.11 179462.98 143452.11 146024.02 129112.99 120151.0
124350.29 119832.3 127586.336 123569.38 169776.05 172531.14 129324.31 137842.33
119960.72 114616.42 106269.23 100595.484 102261.22 99000.13 162895.42 155655.4
131772.14 138131.25 115655.6 109025.21 106441.836 114142.08 110212.49 107293.03
175551.16 164390.53 127329.016 134379.23 119358.38 119458.016 106153.914 113508.71
96536.19 95476.15 145490.8 153343.08 118242.055 124737.43 104755.73 104578.14
100298.195 108522.23 103480.96 99382.016 144113.19 112479.87 101178.2 106493.49
92681.64 92610.08 91491.86 81863.74 92553.125 89355.69 118066.97 80191.94
69142.77 75256.3 60397.3 58772.88 57522.934 58003.02 62740.215 55903.742
42748.25 32812.57 32934.48 36941.438 28729.055 28260.18 28208.084 28292.541
28523.959 32173.758 20125.992 16096.783 14770.617 21148.055 12996.993 12998.842
12953.022 13329.536 20078.227 13214.697 6885.8174 5514.539 4713.6807 12074.456
4464.9473 4427.0435 4424.368 4490.794 11953.959 4676.305 3199.6953 2292.2048
1858.9104 8542.089 1767.6082 1730.5848 1745.9559 1769.2168 9643.403 1805.5432
2522.1658 3919.0264 3506.9524 9689.354 2381.1353 1511.0258 1484.3068 1542.8754
10605.945 1536.0493 2557.986 4753.15 4593.8125 13939.193 2178.6802 2112.0825

exp_avg f4 [128]
00000000: a874 a539 7386 4034 e544 9318 86bd 8837
00000010: 38ae 7739 5fd5 3cb9 6f33 11ba 64fc 0db7
00000020: 3e63 3835 a241 45b7 e213 fc2a 662d c0b8
00000030: 5fdd b3b6 2ac7 3337 87d0 1736 63fa 7bb7
00000040: 64c5 d0b7 9c95 d137 83ef b413 0726 38ba
00000050: 3e1d 0239 9b02 dcb9 acf1 b0b9 3544 0639
00000060: 4d95 9a38 4206 f138 beb3 8e39 5e00 f639
00000070: 6cb5 6e37 ea30 fdb7 982d 3737 4a36 f613
00000080: 01b9 67b9 9b0d 92b6 81ab 7d35 a805 2fb6
00000090: 2ca2 b4b7 1e86 8837 7f84 9fba dbc0 56b8
000000a0: eddb 0b37 9b79 e739 9c88 8e37 bd9b a739
000000b0: 4f20 9d3a cbe0 1f37 1950 dd1b f025 95b6
000000c0: bfba bf39 09e3 183a 3f60 773a 30a0 af37
000000d0: 7b91 90b9 86c5 dcb9 98ad b037 8a51 3d39
000000e0: 621f cab6 6eac dc22 bdba 2c37 53d6 3039
000000f0: d9f1 013a e570 28b9 c4e6 383a ae4d 0fb9
00000100: cca1 b4b8 1885 d038 25be 0db8 3292 fcb9
00000110: c558 2835 c0d1 2f37 d2e2 9bb7 aa01 35ba
00000120: 2e43 e2b9 9859 453a 4620 8fb8 b37a 2639
00000130: 39b2 13b8 b310 c139 a778 0bb8 b583 101a
00000140: c9b1 8d39 ec1d 03b6 6e28 ca37 0000 0000
00000150: af44 91b4 6ffa 1db9 a265 ad39 c5ba d9b7
00000160: aef7 d2b8 4dc8 5739 87fb 9038 fda6 4db9
00000170: 2f37 e939 a8d6 98b8 ae3f c939 f7b4 6239
00000180: ba5b 5935 c07b e9b5 9eac 8bb9 70cb 483a
00000190: d871 95b4 a0b9 c4b5 6c90 58b9 7889 d739
000001a0: 3dd7 a637 dad7 14b8 91d9 1039 4435 6637
000001b0: deeb 5c37 3085 48b8 6f47 2bb9 7da6 a0b7
000001c0: dec1 f4b8 42a9 16b8 7714 a838 0000 0000
000001d0: b6de 6bba ec2c 89b9 a73a 5038 e26d 9937
000001e0: 0000 0000 bccc 19b9 336f d539 e2a1 3337
000001f0: 1978 9839 1827 87b7 873f 5935 b982 b839
0.00031558168 1.7930306e-07 3.8068175e-24 1.6300717e-05 0.00023620657 -0.00018008564 -0.0005538975 -8.463019e-06
6.868976e-07 -1.1757396e-05 4.477799e-13 -9.1637296e-05 -5.3603867e-06 1.0715603e-05 2.2622132e-06 -1.50190635e-05
-2.488745e-05 2.4984409e-05 4.5674565e-27 -0.00070247095 0.0001240866 -0.0004196361 -0.00033749396 0.00012804645
7.371102e-05 0.00011492941 0.0002721827 0.0004692105 1.4228146e-05 -3.0182728e-05 1.0918266e-05 6.2152664e-27
-0.00022098796 -4.352723e-06 9.4499416e-07 -2.6080324e-06 -2.153319e-05 1.6274917e-05 -0.0012170224 -5.1201187e-05
8.336251e-06 0.00044150357 1.6991333e-05 0.00031968756 0.0011987778 9.529477e-06 3.6613145e-22 -4.4449625e-06
0.00036569496 0.0005832171 0.0009436644 2.0936219e-05 -0.00027574212 -0.00042108836 2.106167e-05 0.0001805482
-6.0237226e-06 5.9813687e-18 1.0295477e-05 0.0001686451 0.00049569976 -0.00016063785 0.000705343 -0.0001366648
-8.613206e-05 9.9430035e-05 -3.3794106e-05 -0.0004817411 6.2714054e-07 1.0479649e-05 -1.8583061e-05 -0.000690485
-0.00043156132 0.0007528304 -6.824783e-05 0.00015876703 -3.5213514e-05 0.0003682427 -3.325255e-05 2.9884894e-23
0.00027026076 -1.9537938e-06 2.4099103e-05 0.0 -2.7058329e-07 -0.0001506598 0.00033072854 -2.5955387e-05
-0.00010059714 0.00020578616 6.913306e-05 -0.00019612531 0.00044482338 -7.287908e-05 0.00038385153 0.00021620454
8.097228e-07 -1.7395869e-06 -0.00026640756 0.0007659709 -2.7836245e-07 -1.4657162e-06 -0.00020653167 0.00041110418
1.988897e-05 -3.5486977e-05 0.0001381396 1.372147e-05 1.3167939e-05 -4.7807756e-05 -0.00016334442 -1.9151013e-05
-0.00011670937 -3.592042e-05 8.014676e-05 0.0 -0.0008997725 -0.00026164146 4.964569e-05 1.829019e-05
0.0 -0.00014667487 0.00040709376 1.0706923e-05 0.0002908118 -1.6111459e-05 8.0931244e-07 0.0003519261

exp_avg_sq f4 [128]
00000000: a364 6137 73d7 6734 614a c331 e594 0d37
00000010: 58bd 5f36 a4f3 0b37 fb87 7b37 2543 e735
00000020: 54c0 9932 0ff4 5732 e546 e32f 4a57 d636
00000030: a2d5 9332 0d3d 6134 0f77 9133 41fe 0036
00000040: 5141 4433 5f2c c933 b274 4f2e cf5d 9f37
00000050: 6456 b536 94a5 9e37 24bf c737 a75f c336
00000060: a2d0 4737 4cad a636 758e af37 02d1 d637
00000070: c0f7 b933 2fa7 2f37 bb44 0233 dde3 ec2e
00000080: 5cdc 9937 b317 8f33 1bab 6f32 2c66 ad33
00000090: 787c 2e35 eb0a 7236 1360 cc37 b967 3b37
000000a0: 841f b633 e3e6 9d37 629e 5735 6046 8f37
000000b0: bdac 1a38 33d6 3533 32ae b230 b85a 7636
000000c0: 100b ce37 3783 8e37 80f3 4837 aec4 a536
000000d0: 98e4 0138 c581 c737 84d1 a134 62d0 ee36
000000e0: 4589 8233 5d9f 6a35 d339 7e33 bb48 4137
000000f0: e44f 8536 4938 b736 223a 4238 8975 3b38
00000100: db34 0737 63e6 bb37 a125 1834 64d8 6536
00000110: bfa2 ac36 14f1 0537 81c4 0134 d608 1238
00000120: fb7b c937 11e2 2137 a5f5 9637 bc22 c336
00000130: 44a5 f736 d2ee a037 bb20 4233 ee17 1c30
00000140: 8d4e 8b37 f69c 5032 36b2 3c34 0000 0000
00000150: 6d6f c433 633e f833 41a0 2d37 a8ac b936
00000160: eb14 4c35 1a28 c338 0193 2735 7f59 1437
00000170: f35d d635 3fb9 d236 1bb5 ae37 4058 b936
00000180: a746 e731 bf43 3933 f6cc f537 e38b 1438
00000190: d5b9 8d34 c819 af33 6d9e ef37 8d74 e537
000001a0: b10c 0934 189d 8b37 6e10 6d37 2b97 2a36
000001b0: 2214 f534 49b7 3b37 1208 1238 339f 8134
000001c0: 0339 b134 5397 6c35 b3ae 8137 0000 0000
000001d0: 5bc5 ad37 44c7 c837 c2df 8333 4da5 1c36
000001e0: 0000 0000 31f8 d637 f860 0538 dd24 7135
000001f0: 86a1 4a37 7d14 0535 7b64 3d36 b15c 5437
1.3434476e-05 2.1591931e-07 5.683703e-09 8.438922e-06 3.3339802e-06 8.341773e-06 1.4992426e-05 1.7230383e-06
1.7899005e-08 1.257014e-08 4.1341433e-10 6.387859e-06 1.7210201e-08 2.0976968e-07 6.773745e-08 1.9221482e-06
4.569421e-08 9.367863e-08 4.7169997e-11 1.899796e-05 5.4042775e-06 1.8912171e-05 2.3811655e-05 5.8225883e-06
1.19099e-05 4.96736e-06 2.0927962e-05 2.5608115e-05 8.659799e-08 1.0469738e-05 3.0330494e-08 1.0772514e-10
1.8341634e-05 6.663267e-08 1.3950536e-08 8.074525e-08 6.5001177e-07 3.6067165e-06 2.4363433e-05 1.1170218e-05
8.480768e-08 1.8823373e-05 8.032422e-07 1.70797e-05 3.6877336e-05 4.233716e-08 1.3000714e-09 3.6709662e-06
2.4562265e-05 1.698882e-05 1.1977623e-05 4.9402797e-06 3.096889e-05 2.3783077e-05 3.014103e-07 7.1172117e-06
6.078566e-08 8.7403697e-07 5.9191574e-08 1.152063e-05 3.9730094e-06 5.4603775e-06 4.6307345e-05 4.4693737e-05
8.058933e-06 2.239942e-05 1.4169792e-07 3.4249615e-06 5.1449456e-06 7.983548e-06 1.2085549e-07 3.481734e-05
2.40188e-05 9.648983e-06 1.799578e-05 5.8154965e-06 7.380413e-06 1.9184696e-05 4.5198913e-08 5.6786476e-10
1.660667e-05 1.2142882e-08 1.7573697e-07 0.0 9.1472295e-08 1.1559748e-07 1.0348916e-05 5.5335295e-06
7.602636e-07 9.305794e-05 6.2426267e-07 8.842325e-06 1.5971585e-06 6.280053e-06 2.082675e-05 5.5237033e-06
6.731017e-09 4.3135284e-08 2.9301718e-05 3.541623e-05 2.6398507e-07 8.153762e-08 2.8564793e-05 2.73532e-05
1.2763736e-07 1.6643244e-05 1.4130126e-05 2.5419965e-06 4.5649455e-07 1.1188743e-05 3.481663e-05 2.4143955e-07
3.30103e-07 8.8137057e-07 1.5459349e-05 0.0 2.0715108e-05 2.3934648e-05 6.140864e-08 2.334203e-06
0.0 2.5626361e-05 3.179998e-05 8.983314e-07 1.2077746e-05 4.9576175e-07 2.8221682e-06 1.2657766e-05

exp_avg f4 [64, 128]
00000000: 6010 f340 d542 e535 020e 279f 5187 60c0
00000010: 66c9 a334 853a bf27 83d1 1228 1557 d928
00000020: 1ee3 dd27 e671 ea34 998c 8127 00e1 fc3f
00000030: c116 9333 861e 3120 87cf 2e40 14cb 0541
00000040: 9ca8 39c0 46cf 803f 29f8 521d 3494 d9c0
00000050: 8974 e13e a20b ef40 36b4 e3bf 84e7 41bf
00000060: d764 4940 461a 9b27 82c9 c73f cf42 e8c0
00000070: d611 a135 2dc6 61c0 2120 bf27 0000 0000
00000080: 520e a8c0 3bf7 5936 2e6f 8128 f914 0ec0
00000090: 3441 f81f d278 4a34 cfbf b6c0 27df 14c1
000000a0: 1b1b 0334 b94e 943f c7f7 5040 0c16 4fbe
000000b0: 0fc5 8928 89b8 f43e dd2a a69d 0de5 1f40
000000c0: 3826 823f 40f9 7cc0 12a1 15c1 fd1e 10ab
000000d0: 1b54 713f 2b8e 13c1 d7bb d33e 8d99 06bd
000000e0: b15c 15c0 a997 e5a8 05d7 d740 d50e 3fc0
000000f0: cfdf 0bc0 1431 7d28 2cdf 423e 42ce cd40
00000100: cb91 eb35 1918 edbf 0fe3 0eba 411b 8cc0
00000110: a525 d03f 2759 e235 ed61 67be 6cd2 833d
00000120: 20f5 dac0 9d5c 20c0 7289 aa40 f45e 1b23
00000130: 54b4 7dbe 9cba 5cbf 2865 0c36 2618 24a1
00000140: 05d5 de27 4c07 84bf 9eaa abba 0000 0000
00000150: 5630 9727 f569 c740 7f41 2327 ae9e 4326
00000160: 19d0 fdbf 9e0e 8635 9888 54bf 3f9e a240
00000170: 7b39 cbc0 bed5 6d35 9c8f a0c0 4b90 e5c0
00000180: 02fc 1e26 35cd eb34 bcdf 1636 6563 42c1
00000190: 8534 691f b138 9f1f fd87 553f beb9 2240
000001a0: 00cb efc0 d20c f840 605f d740 41af cfc0
000001b0: 8f1f 0827 8d75 8b40 99e4 25c0 e071 5628
000001c0: 5337 0e40 950d e61e 00e2 a927 0000 0000
000001d0: a667 86c0 eb0a d140 b0eb 1435 7755 223f
000001e0: 0000 0000 008c d440 e052 3abe d0e8 c240
000001f0: 6a52 b540 dba5 903e 2ca2 85c0 5ab3 8dc0
00000200: 3cb2 09c2 f6e4 9bbf 0204 769e 95d4 8dc0
00000210: 0388 b0c0 6e77 a641 7eff 6740 2064 9940
00000220: fc6c 6c37 bf75 1d40 0000 0000 4803 7a41
00000230: bcba 8fbd c4de d020 5df9 1c3f ea37 bcbf
00000240: b29d f140 7efc 773e 0000 0000 814b 0442
00000250: 5932 3341 d077 e341 ea7d 5bc1 492a debf
00000260: d882 cabf 0d30 7d40 2373 be41 2946 ffc0
00000270: 6704 49bf 800e a7bf c40e e4b8 ad1c e39b
00000280: ebc5 4741 4f84 bbc0 34fb df1b 65b2 c5bf
00000290: 1889 7bc0 5417 15bf 082c ac41 8af3 35c1
000002a0: b010 1fbd 65f2 f4c1 32b2 48c0 03b1 443f
000002b0: 5a64 2c41 d9ad 3fbf 0000 0000 1b60 2b41
000002c0: 68d2 0742 60c9 a5c1 bc97 a5c1 d3c2 dec0
000002d0: df4f 88c1 bae8 20c1 976e c8c0 0891 61c1
000002e0: 46ef ee40 0eb8 2ba8 91e3 06bf d373 cc41
000002f0: e8c4 b040 df40 87c0 2013 6ec1 4f01 8d41
00000300: 94c6 9dc1 af8f 8241 41c9 43bf 661b d241
00000310: 5a43 753f 7ab4 99be 1292 4e3e 04ff 9ac1
00000320: d152 c1c1 7b00 e8c1 cc58 8b41 2fc3 5f41
00000330: a169 3141 e3ca 0b41 b2b6 bfbf c86c b09e
00000340: 7cd9 0b41 d1dd 8737 4442 713e 0000 0000
00000350: 0684 5337 220a b940 58a2 4042 1d61 e2bf
00000360: c264 0640 5878 2bc1 e397 5140 9a56 9e40
00000370: 5425 a8bf 5400 59bf 508d c4c0 dbda 3942
00000380: cdde 3536 e107 96be a70e a641 0729 4141
00000390: 047e 75ad ec87 5f3f aef1 2840 42b7 6f41
000003a0: f369 1f41 05a9 6640 2326 b541 ba9f bf3f
000003b0: 0d80 8c40 cde5 34c2 a7a0 3b42 7983 27c1
000003c0: 5592 8fc0 d886 2c40 c000 1cc0 0000 0000
000003d0: 1991 96c0 b70a 3dc2 e340 d03f 22c9 943f
000003e0: 0000 0000 b452 f041 1848 9fc1 d56a 8c3f
000003f0: a754 4542 fc82 833e 5605 05c0 b0de 42c1
7.595749 1.708128e-06 -3.5375213e-20 -3.508259 3.0507653e-07 5.3076596e-15 8.150059e-15 2.4129605e-14
6.1586063e-15 4.3668769e-07 3.595713e-15 1.9756165 6.84936e-08 1.5002583e-19 2.7314165 8.36208
-2.900916 1.0063255 2.7921564e-21 -6.799341 0.44034222 7.47017 -1.7789371 -0.7574389
3.1467798 4.304963e-15 1.560837 -7.2581553 1.2000626e-06 -3.5277207 5.3047984e-15 0.0
-5.251748 3.2479427e-06 1.4370094e-14 -2.22003 1.05139955e-19 1.885667e-07 -5.710914 -9.304481
1.2210187e-07 1.1586524 3.2651231 -0.20223254 1.5295516e-14 0.4779704 -4.3984154e-21 2.4983552
1.0167913 -3.952713 -9.351824 -5.120208e-13 0.9426896 -9.222209 0.41354248 -0.03286128
-2.3337824 -2.548988e-14 6.7449975 -2.9852803 -2.1855352 1.4054963e-14 0.19030446 6.431428
1.7551296e-06 -1.8522979 -0.00054507045 -4.378327 1.6261488 1.6864259e-06 -0.2259595 0.06436619
-6.8424225 -2.5056527 5.329278 8.422674e-18 -0.24775821 -0.86222243 2.0920506e-06 -5.559732e-19
6.1848334e-15 -1.0314727 -0.0013097113 0.0 4.1963325e-15 6.231684 2.26563e-15 6.7869267e-16
-1.9829131 9.988032e-07 -0.83020926 5.081817 -6.3507667 8.8600416e-07 -5.0175304 -7.173864
5.5158796e-16 4.392147e-07 2.2481972e-06 -12.149266 4.9383112e-20 6.743291e-20 0.83410627 2.5425868
-7.4935303 7.751565 6.7303925 -6.4901433 1.88909e-15 4.3580995 -2.5920775 1.1904079e-14
2.2221267 2.4357815e-20 4.7151952e-15 0.0 -4.2001524 6.5325828 5.5477267e-07 0.6341166
0.0 6.64209 -0.18195677 6.0909195 5.6663103 0.28251538 -4.1760464 -4.4281435
-34.424057 -1.2179248 -1.302396e-20 -4.4322 -5.516603 20.808315 3.624969 4.7934723
1.4092071e-05 2.4603117 0.0 15.625801 -0.07018039 3.5383985e-19 0.61318 -1.4704564
7.5505 0.24217412 0.0 33.073734 11.199792 28.433502 -13.718241 -1.7356654
-1.582118 3.9560578 23.80622 -7.9773145 -0.7852234 -1.30513 -0.000108746375 -3.757253e-22
12.48582 -5.859901 3.7054592e-22 -1.5445067 -3.9302425 -0.5823872 21.5215 -11.371958
-0.038834274 -30.618357 -3.1358762 0.768326 10.7745 -0.74874645 0.0 10.710963
33.955475 -20.723328 -20.69909 -6.9612823 -17.039 -10.056818 -6.2634997 -14.097908
7.466708 -9.532317e-15 -0.5269099 25.556555 5.5240364 -4.226669 -14.879669 17.625639
-19.721962 16.320158 -0.76478964 26.263378 0.95805895 -0.30020505 0.20172909 -19.37452
-24.165438 -29.000235 17.418358 13.985152 11.088288 8.737033 -1.4977629 -1.8679716e-20
8.740597 1.6196545e-05 0.23560435 0.0 1.2607319e-05 5.782487 48.15854 -1.7685887
2.0998998 -10.716881 3.2748954 4.9480715 -1.3136392 -0.84766126 -6.14225 46.463726
2.710079e-06 -0.29302886 20.757154 12.072516 -1.3954619e-11 0.87316775 2.639751 14.982241
9.9633665 3.6040661 22.643621 1.497062 4.390631 -45.224415 46.906887 -10.469598
-4.486613 2.6957302 -2.4375458 0.0 -4.705212 -47.260464 1.6269802 1.1623881
0.0 30.040382 -19.910202 1.0970103 49.33267 0.2568587 -2.0784507 -12.179367
