models/RaceModels/classif_pos_3copies1to10_2HL_dropout0.5lr0.0001/model.pt (torch, 618909 bytes, 24 tensors)

fc1.weight f4 [128, 240]
0.038064018 0.0124308 -0.0011615121 0.054449156 -0.03981136 0.024182426 -0.09066817 -0.03873466
0.021430884 -0.0678156 0.05424931 0.06552982 -0.06263451 -0.042970084 -0.17929329 0.08302808
0.081614405 -0.057923257 -0.025862632 -0.010001208 -0.034837823 0.022884533 0.06969802 0.033720393
0.03400032 -0.09184195 -0.008750754 0.0361759 0.05519241 -0.011188887 -0.070737764 -0.13749048
0.011264239 0.013495163 0.12407268 0.050266277 -0.0068975734 -0.07052924 -0.15793349 0.11507584
-0.0051582945 0.0071132765 -0.02052907 0.01978985 -0.04942826 0.0048559774 0.11000532 0.07167356
0.039742377 -0.067393705 -0.04037788 0.0012063276 -0.010775363 0.005435074 -0.049373858 -0.023174977
-0.011391844 0.04596256 -0.0214514 0.04804272 -0.076318726 0.05588923 -0.1129483 0.016989216
0.06639439 -0.08142872 -0.020070402 -0.010789756 0.024053365 0.08639005 0.09894028 0.020313779
0.076443486 -0.11219487 0.020052271 0.006821861 0.036866996 0.028846877 0.06511524 -0.02191678
0.04897103 -0.03833816 -0.0025822413 -0.07637562 0.023162127 -0.028981807 -0.037459854 -0.04011762
0.06467229 -0.0282794 -0.040078234 -0.019722192 -0.028753305 0.0005887489 0.03276699 0.015896166
0.024561938 -0.16284205 0.031536743 -0.005648908 0.101784214 -0.06079766 0.0460692 0.027506981
0.08095925 -0.025096232 -0.017434685 0.06631055 -0.052191358 0.062355924 -0.044469737 -0.023957206
0.05079563 -0.053335793 0.05724461 -0.035128795 0.004901337 -0.0074990257 -0.021274552 -0.04703107
-0.009427054 -0.15018333 -0.025193125 0.027613182 0.10091288 0.061144996 0.06865351 0.026978519
-0.04430206 -0.05741734 -0.006158566 -0.010584742 -0.069468886 -0.036235206 -0.00035044912 -0.03510641
-0.034684833 -0.032990262 0.07908004 0.016171424 -0.08079917 0.026542552 -0.0029161884 -0.044184394
0.014980207 -0.12504202 -0.021206904 -0.044055346 0.04434653 0.027332678 -0.03788787 0.013910531
-0.033116836 -0.048673686 -0.040177613 0.0066039287 0.093120016 -0.030049391 -0.02980445 -0.009884761
-0.029334942 -0.0047296565 -0.04109331 -0.020414637 -0.016430026 0.027206175 0.0070540756 0.008209373
0.088581994 -0.17113051 -0.0051401407 -0.01528283 0.01100312 0.034850705 -0.029171607 0.0042705676
0.014811741 -0.03430067 0.02644143 -0.059121016 0.03950453 0.05091165 0.027065413 -0.026876973
0.0401519 -0.043728847 -0.00058997946 0.0063993786 0.0052197673 -0.032199163 0.06700568 -0.041144684
0.026391586 -0.24243541 0.07194494 0.037646566 0.0015622135 -0.04947413 -0.07299092 -0.053616766
0.031558577 -0.0708908 0.07754513 -0.04335011 0.061402585 0.02816976 0.064742275 -0.04705156
0.0047354847 -0.07605917 -0.009630707 -0.061749868 -0.08314657 0.015755204 0.054227978 0.0025886004
-0.02327563 -0.20488752 0.043336663 -0.0008071836 0.019876672 0.031334136 0.026731921 0.016342029
0.053878695 -0.041893538 0.0077665104 -0.08379814 0.011827061 0.096883126 -0.03146445 -0.1721158
-0.0069785994 0.04537193 0.052145652 0.0283195 -0.04568484 -0.007399891 0.1098646 0.0018158471
0.039364874 -0.06359806 -0.063432485 -0.06500566 0.10436732 -0.10532129 0.011296872 -0.09273914
-0.024436861 -0.037874945 0.04911298 -0.06575225 0.03836417 -0.019801103 0.049527958 0.056190275
00000000: 04e9 1b3d 8eaa 4b3c e13d 98ba 1406 5f3d
00000010: 3d11 23bd 391a c63c 3cb0 b9bd 3ca8 1ebd
00000020: d28f af3c e8e2 8abd 8634 5e3d 8034 863d
00000030: 8646 80bd 6601 30bd a998 37be a00a aa3d
00000040: 7425 a73d f040 6dbd dfdd d3bc 1bdc 23bc
00000050: 1bb2 0ebd 5878 bb3c d6bd 8e3d 651e 0a3d
00000060: eb43 0b3d a217 bcbd 535f 0fbc 2e2d 143d
00000070: 7011 623d 9851 37bc f6de 90bd 4eca 0cbe
00000080: a58d 383c d11a 5d3c d119 fe3d 03e4 4d3d
00000090: 0a05 e2bb a271 90bd 51b9 21be e2ac eb3d
000000a0: e906 a9bb 7d16 e93b 952c a8bc 531e a23c
000000b0: 4a75 4abd e41e 9f3b 784a e13d 96c9 923d
000000c0: e7c8 223d b605 8abd 4763 25bd a31d 9e3a
000000d0: 268b 30bc b518 b23b 3e3c 4abd 73d9 bdbc
000000e0: dba4 3abc 3d43 3c3d d9ba afbc 71c8 443d
000000f0: fe4c 9cbd 1bec 643d 7051 e7bd f82c 8b3c
00000100: c8f9 873d 1ac4 a6bd af6a a4bc 84c7 30bc
00000110: 900b c53c 44ed b03d 34a1 ca3d 1569 a63c
00000120: 678e 9c3d 6dc6 e5bd a944 a43c eb89 df3b
00000130: d901 173d 4950 ec3c 245b 853d d28a b3bc
00000140: d995 483d 7908 1dbd d23a 29bb d26a 9cbd
00000150: 80be bd3c 416b edbc 816f 19bd 6052 24bd
00000160: e872 843d 33aa e7bc 1329 24bd 6f90 a1bc
00000170: 0d8c ebbc 4556 1a3a ae36 063d ad38 823c
00000180: 1e36 c93c 11c0 26be ac2c 013d 7a1a b9bb
00000190: 3e74 d03d f806 79bd 0fb3 3c3d 5256 e13c
000001a0: f7cd a53d 9d96 cdbc 2fd3 8ebc d3cd 873d
000001b0: 9bc6 55bd ed68 7f3d e625 36bd e741 c4bc
000001c0: 140f 503d a276 5abd 5379 6a3d 36e3 0fbd
000001d0: 659b a03b 63ba f5bb f847 aebc a7a3 40bd
000001e0: ee73 1abc a9c9 19be d061 cebc 0a35 e23c
000001f0: 69ab ce3d 2d73 7a3d 369a 8c3d 0e02 dd3c
00000200: 1476 35bd 722e 6bbd cccd c9bb a06b 2dbc
00000210: b445 8ebd 5e6b 14bd 7cbc b7b9 bdcb 0fbd
00000220: af11 0ebd cc20 07bd b7f4 a13d ef79 843c
00000230: 097a a5bd c46f d93c 861d 3fbb b2fa 34bd
00000240: 8b6f 753c 040b 00be 1aba adbc 6173 34bd
00000250: b5a4 353d c8e8 df3c 5030 1bbd ffe8 633c
00000260: 85a5 07bd 0f5e 47bd 4891 24bd c565 d83b
00000270: b5b5 be3d 242a f6bc 7628 f4bc b1f3 21bc
00000280: d54f f0bc 3cfb 9abb 7551 28bd 993c a7bc
00000290: 4398 86bc 7cdf de3c e025 e73b 9b80 063c
000002a0: 7a6a b53d d63c 2fbe a06e a8bb d664 7abc
000002b0: 6e46 343c 9dbf 0e3d 4bf9 eebc 1ef0 8b3b
000002c0: f2ac 723c dc7e 0cbd b39b d83c e128 72bd
000002d0: 81cf 213d bc88 503d 49b8 dd3c 192d dcbc
000002e0: 5276 243d 051d 33bd daa8 1aba e1b1 d13b
000002f0: 950a ab3b 45e3 03bd 463a 893d 5487 28bd
00000300: 2b33 d83c fd40 78be de57 933d 4933 1a3d
00000310: 30c3 cc3a 63a5 4abd 437c 95bd 419d 5bbd
00000320: 9143 013d 322f 91bd fbcf 9e3d e38f 31bd
00000330: 4781 7b3d 45c4 e63c 9997 843d 23b9 40bd
00000340: 202c 9b3b e9c4 9bbd 1dca 1dbc 6eed 7cbd
00000350: c048 aabd 0f11 813c 281e 5e3d 82a5 293b
00000360: 89ac bebc 09ce 51be c981 313d 2d99 53ba
00000370: 67d4 a23c 3958 003d e7fc da3c b8df 853c
00000380: e8af 5c3d 8f98 2bbd 367e fe3b 5c9e abbd
00000390: 4ac6 413c a96a c63d dee0 00bd 203f 30be
000003a0: bcac e4bb ebd7 393d ae96 553d 4cfe e73c
000003b0: 0720 3bbd c97a f2bb b100 e13d b801 ee3a
000003c0: 103d 213d b33f 82bd e4e8 81bd b021 85bd
000003d0: 89be d53d b0b2 d7bd 8416 393c 05ee bdbd
000003e0: d02f c8bc c222 1bbd b12a 493d 1ea9 86bd
000003f0: bf23 1d3d ec35 a2bc d4dd 4a3d c627 663d

fc1.bias f4 [128]
-0.055608783 0.0013415505 0.0013619438 -0.016036691 0.009300509 0.024113426 0.0037470101 -0.03583122
-0.022315148 -0.016744478 -0.042934436 0.0539377 0.006096107 -0.017463414 -0.022199675 0.0063027474
0.038475424 0.05231545 -0.058311146 -0.062371086 -0.03638781 0.05856037 0.00097016245 0.023588935
-0.015710078 0.01896888 -0.0059188763 0.040399298 -0.004571817 0.007361224 0.044429883 0.013763876
0.040038195 0.05554515 0.049934834 0.012394391 0.014110317 -0.035393987 -0.010803323 -0.05747359
-0.039281145 0.07980235 0.012731895 -0.028331667 -0.052544806 0.035690963 0.040340725 0.0012369212
-0.014347239 -0.021741759 -0.03797299 0.040873628 0.05199568 -0.0029872619 -0.005869286 0.042083077
0.040552553 0.003767368 0.044421725 0.04566184 -0.0629486 -0.053769153 -0.06319694 -0.02898553
-0.025740055 -0.05590507 0.049560748 0.0035753825 0.029530004 0.006173931 0.018944427 -0.069586165
-0.04612503 0.036661793 -0.0055892584 -0.03529709 -0.01264634 -0.026651204 0.0026855366 -0.056853592
0.022848725 -0.0019546307 0.00809195 0.015791321 0.033300195 -0.033912074 -0.030667042 0.00102809
0.013334762 0.015041256 0.007515656 0.022849666 -0.0042753704 0.03151546 0.023082927 0.023887211
-0.011964781 -0.0087294 0.047239963 -0.023786547 0.023922632 -0.016895186 0.0052543483 -0.042167127
0.016586525 0.043169554 0.04727638 0.02956154 0.021193111 -0.050120514 -0.059761275 -0.029948343
0.028224032 0.015394266 0.050831858 0.007023551 -0.024090374 -0.045341752 0.06324262 0.05578253
0.044092134 -0.055677697 -0.039581615 -0.03946527 -0.033729147 0.058426213 0.05835368 -0.0065324283
00000000: 09c6 63bd f7d6 af3a 4083 b23a 615f 83bc
00000010: 2961 183c 8589 c53c 6690 753b c2c3 12bd
00000020: 42ce b6bc b72b 89bc 05dc 2fbd c7ed 5c3d
00000030: dac1 c73b 6f0f 8fbc 18dc b5bc 4787 ce3b
00000040: 6898 1d3d ba48 563d abd7 6ebd d378 7fbd
00000050: 620b 15bd 00dd 6f3d 8052 7e3a 953d c13c
00000060: 6cb2 80bc a064 9b3c 22f3 c1bb bc79 253d
00000070: 2ecf 95bb 6c36 f13b 1cfc 353d e181 613c
00000080: 17ff 233d 5083 633d 7888 4c3d d811 4b3c
00000090: f62e 673c 49f9 10bd 6c00 31bc 6d69 6bbd
000000a0: 44e5 20bd 6a6f a33d 7099 503c d017 e8bc
000000b0: 3939 57bd b030 123d 513c 253d 3020 a23a
000000c0: af10 6bbc c61b b2bc 9189 1bbd 1b6b 273d
000000d0: 6cf9 543d f0c5 43bb 2453 c0bb 4e5f 2c3d
000000e0: 6f1a 263d f2e5 763b 8ef3 353d e907 3b3d
000000f0: 32eb 80bd 0b3d 5cbd 666d 81bd 1073 edbc
00000100: cfdc d2bc b7fc 64bd 3600 4b3d f750 6a3b
00000110: e8e8 f13c b04e ca3b 5831 9b3c 3183 8ebd
00000120: 99ed 3cbd ad2a 163d 1926 b7bb ae93 10bd
00000130: 9832 4fbc a053 dabc d4ff 2f3b 50df 68bd
00000140: 402d bb3c 4319 00bb 1994 043c cd5c 813c
00000150: c965 083d 63e7 0abd 7339 fbbc fac0 863a
00000160: 0c7a 5a3c 9a6f 763c e445 f63b 392f bb3c
00000170: 6818 8cbb 5b16 013d 6818 bd3c 1daf c33c
00000180: ee07 44bc c205 0fbc b17e 413d 01dc c2bc
00000190: 65f9 c33c c667 8abc ab2c ac3b 70b7 2cbd
000001a0: 77e0 873c 8fd2 303d e1a4 413d 0b2b f23c
000001b0: 2d9d ad3c 2b4b 4dbd 3dc8 74bd 3a56 f5bc
000001c0: 1636 e73c 3b38 7c3c 1135 503d d125 e63b
000001d0: 2d59 c5bc 46b8 39bd 5985 813d 397c 643d
000001e0: f499 343d 4c0e 64bd 5520 22bd 56a6 21bd
000001f0: 9327 0abd 5350 6f3d 4504 6f3d fb0d d6bb

fc2.weight f4 [64, 128]
0.016557269 0.07331038 -0.06209851 0.026588885 0.05475907 0.16864114 -0.0556481 0.029180089
0.15741381 -0.24436277 0.006722937 -0.020483522 -0.002604432 0.09775976 0.3508146 -0.13601205
-0.087568484 -0.1672571 -0.18238138 0.08917349 -0.0035185798 -0.032093517 -0.042215683 -0.028946042
0.08343657 -0.17818268 -0.09799593 0.049739238 0.073871754 0.053220324 -0.0017469787 0.034911282
-0.06431793 -0.026417987 0.018693527 -0.34695148 -0.04010871 0.06275929 -0.05932021 -0.09261809
0.032203477 -0.03865718 0.12828258 0.03503749 -0.051051043 0.010974292 -0.2705609 -0.12177496
0.2583925 0.06566463 0.24106842 -0.280894 0.27591687 0.07478184 0.11118257 -0.024803549
0.070788205 0.045805726 -0.03346927 -0.2066249 0.15223946 -0.12917127 0.0711807 0.049616806
-0.07950794 -0.029406486 0.0026558845 -0.08997142 -0.19410597 0.027359866 -0.19334961 -0.06394227
0.027837722 0.06135619 0.08972735 0.06945148 -0.109478086 0.01795382 0.076355025 0.119566895
-0.018412061 -0.048517462 -0.32953608 0.2732965 -0.33509418 0.058671705 0.23355074 0.106458396
0.16803594 -0.11904985 -0.20379613 -0.17518337 -0.08115046 -0.058073726 0.043808546 -0.21812579
-0.19890623 -0.13315329 0.023751508 0.006128236 0.048241768 0.0068577947 0.22057492 0.05600051
0.0075431457 -0.33305314 0.24249865 0.21932085 -0.19952406 0.023046965 -0.0039352 -0.034060195
0.0992596 0.19112518 0.04063262 0.006209626 0.080737524 0.0037383428 0.14862187 -0.16688533
-0.02733439 -0.23215973 -0.090526074 -0.07404016 0.13625997 0.040913966 -0.2064661 -0.0050576287
-0.02618816 0.019849157 -0.05330195 0.03065451 -0.025514185 -0.10101037 0.15055338 0.061805826
-0.05944825 0.05667407 0.0475864 0.042522363 0.08574911 -0.07000966 0.20678318 0.05374072
-0.0037607104 -0.07456072 -0.046788055 -0.017815059 -0.017205112 0.049581844 -0.059187345 0.0025054007
-0.02412264 -0.24258296 0.015937027 0.01436234 0.068969585 0.014281466 0.078816466 0.25060594
0.49474347 0.03669429 -0.016594648 0.23803504 0.021310123 0.017546667 -0.023572437 0.00838371
0.041432645 -0.069293246 0.11762306 -0.038071886 -0.0009188205 -0.016485766 0.4270968 0.08540854
-0.04406501 -0.0057915896 0.08431475 -0.07945309 0.37024313 0.001091674 0.2433333 0.02275893
-0.07119892 0.20510288 -0.09037912 -0.06680403 0.07282875 -0.14336556 0.23417233 -0.020144047
-0.22790775 0.033715233 0.022877876 -0.052561373 0.056040972 0.069928624 -0.07180902 -0.12916528
-0.17181624 -0.019365158 0.30514562 -0.14145854 -0.18571042 0.090984695 0.039463587 0.09566542
-0.010455244 -0.02428886 -0.0123549 0.19840696 0.008210074 -0.017274732 0.24726398 0.19371502
0.13406354 -0.21648118 0.037490707 0.05480279 0.0641328 -0.024420254 0.032131243 -0.049657986
0.079330996 0.011571307 -0.0130928345 -0.049364682 0.011025614 -0.02633974 -0.21472456 0.058453307
0.037633788 -0.08831116 0.1325208 0.0782037 -0.04229534 -0.13237868 -0.1353246 -0.063853644
0.07439549 0.37608173 -0.077429555 -0.03000109 -0.07066498 -0.21825114 0.24826175 0.110071644
-0.044868696 -0.08706521 -0.14507626 -0.0020562187 0.46160504 0.105229616 -0.10250853 -0.08771487
00000000: 1ca3 873c c123 963d 025b 7ebd efd0 d93c
00000010: 0c4b 603d 43b0 2c3e 43ef 63bd 150b ef3c
00000020: 1631 213e 3c3a 7abe 154c dc3b 0fcd a7bc
00000030: 1eaf 2abb 4536 c83d f99d b33e be46 0bbe
00000040: 1b57 b3bd 7245 2bbe 2fc2 3abe 97a0 b63d
00000050: f997 66bb 7e74 03bd 5aea 2cbd 4020 edbc
00000060: cbe0 aa3d 8575 36be 17b2 c8bd 5fbb 4b3d
00000070: 134a 973d 8efd 593d e1fa e4ba 22ff 0e3d
00000080: 1eb9 83bd 896a d8bc 2b23 993c a0a3 b1be
00000090: 0849 24bd f187 803d c0f9 72bd 8eae bdbd
000000a0: cbe7 033d fe56 1ebd 825c 033e 7983 0f3d
000000b0: e61a 51bd 84cd 333c f586 8abe 2665 f9bd
000000c0: 064c 843e 2d7b 863d a4da 763e 57d1 8fbe
000000d0: fa44 8d3e 3927 993d b0b3 e33d d030 cbbc
000000e0: 68f9 903d c99e 3b3d 1317 09bd 7a95 53be
000000f0: a9e4 1b3e 7945 04be 30c7 913d fe3a 4b3d
00000100: 0fd5 a2bd dfe5 f0bc 590e 2e3b f042 b8bd
00000110: b7c3 46be cc21 e03c 71fd 45be 2af4 82bd
00000120: ef0b e43c a150 7b3d f9c2 b73d 943c 8e3d
00000130: 0c36 e0bd e413 933c 0660 9c3d 7ddf f43d
00000140: e4d4 96bc 3fba 46bd f4b8 a8be 85ed 8b3e
00000150: 7791 abbe be51 703d ed27 6f3e dc06 da3d
00000160: 9d11 2c3e 68d0 f3bd efaf 50be 4563 33be
00000170: 3632 a6bd b7de 6dbd 9770 333d 5e5c 5fbe
00000180: 13ae 4bbe 5659 08be 8692 c23c 5fcf c83b
00000190: 2999 453d 5ab7 e03b 64de 613e ca60 653d
000001a0: 7e2c f73b f185 aabe 9151 783e a595 603e
000001b0: 0950 4cbe fdcc bc3c daf2 80bb b482 0bbd
000001c0: 9e48 cb3d 52b6 433e 646e 263d 1e7a cb3b
000001d0: b759 a53d fcfe 743b 5530 183e fde3 2abe
000001e0: 5fec dfbc 48bb 6dbe bc65 b9bd 5ea2 97bd
000001f0: bc87 0b3e 6795 273d d96b 53be 77ba a5bb
00000200: 8d88 d6bc b39a a23c 2553 5abd 2b1f fb3c
00000210: 2003 d1bc 86de cebd aa2a 1a3e 1b28 7d3d
00000220: 0280 73bd 1223 683d f5e9 423d ee2b 2e3d
00000230: 3b9d af3d 3a61 8fbd f8be 533e 3b1f 5c3d
00000240: 4076 76bb 4ab3 98bd d5a4 3fbd e3f0 91bc
00000250: bcf1 8cbc 5516 4b3d 6e6e 72bd a631 243b
00000260: d89c c5bc ab67 78be 5e8e 823c 0550 6b3c
00000270: ed3f 8d3d cffc 693c 876a a13d 6c4f 803e
00000280: 044f fd3e c04c 163d 80f1 87bc 75bf 733e
00000290: 9192 ae3c 07be 8f3c fc1a c1bc d45b 093c
000002a0: 47b5 293d 9ee9 8dbd 5ce4 f03d 44f1 1bbd
000002b0: 00dd 70ba 280d 87bc 6fac da3e acea ae3d
000002c0: 837d 34bd 60c7 bdbb 36ad ac3d 4db8 a2bd
000002d0: 8290 bd3e 8016 8f3a 5d2c 793e f070 ba3c
000002e0: bdd0 91bd 7d06 523e b018 b9bd 8dd0 88bd
000002f0: 3d27 953d 6cce 12be dfca 6f3e 2105 a5bc
00000300: a660 69be fc18 0a3d 626a bb3c 984a 57bd
00000310: 388b 653d bd36 8f3d 9c10 93bd e743 04be
00000320: 99f0 2fbe aea3 9ebc 0c3c 9c3e 82da 10be
00000330: df2a 3ebe 2f56 ba3d 92a4 213d 3bec c33d
00000340: 794c 2bbc 6ef9 c6bc 356c 4abc 322b 4b3e
00000350: 8c83 063c bd83 8dbc c532 7d3e 3b5d 463e
00000360: f447 093e 3ead 5dbe db8f 193d e478 603d
00000370: 0f58 833d fc0c c8bc 0d9c 033d 2c66 4bbd
00000380: 4a78 a23d 9495 3d3c 5483 56bc 9f32 4abd
00000390: c7a4 343c 70c6 d7bc c1e0 5bbe bc6c 6f3d
000003a0: e325 1a3d 7bdc b4bd 88b3 073e 4329 a03d
000003b0: e13d 2dbd 478e 07be 8892 0abe b3c5 82bd
000003c0: aa5c 983d c98d c03e 6393 9ebd d9c4 f5bc
000003d0: cdb8 90bd 3a7d 5fbe 5438 7e3e 3e6d e13d
000003e0: 3dc8 37bd 3f4f b2bd df8e 14be a0c1 06bb
000003f0: 7f57 ec3e a082 d73d feef d1bd dba3 b3bd

fc2.bias f4 [64]
0.037694663 -0.00050740375 0.06816907 0.05071337 -0.006032273 0.030250082 0.04760159 0.08732829
0.09293513 0.0878193 -0.056843318 0.08830772 0.06743478 0.058746472 0.015499032 0.072382495
0.141709 0.06862078 0.05426326 0.09626769 0.026886664 0.0350054 0.0036990049 0.098050416
0.072815135 0.06635235 0.04897766 0.05216115 -0.010567386 0.05089151 0.057015013 0.045988217
0.032829396 0.12938295 0.051476523 -0.024217106 -0.0021808587 0.060556356 0.07730584 0.02431903
0.051971167 0.087755315 0.119402304 0.12440226 0.061452117 0.10417892 0.0954557 0.08569047
0.077099696 0.06513902 0.08599142 0.06778333 0.03904356 0.05126595 0.12542869 0.09446264
0.09756895 0.047354616 0.10995849 0.024687732 0.044960935 0.03461553 0.049591735 0.011934791
00000000: b865 1a3d 4a03 05ba 3a9c 8b3d d3b8 4f3d
00000010: 60aa c5bb 05cf f73c e3f9 423d 2dd9 b23d
00000020: c654 be3d 9bda b33d 8ad4 68bd aeda b43d
00000030: 3f1b 8a3d 24a0 703d a7ef 7d3c 463d 943d
00000040: 2a1c 113e 0d89 8c3d 2743 5e3d ff27 c53d
00000050: 6c41 dc3c d361 0f3d 016b 723b a8ce c83d
00000060: 1a20 953d bee3 873d cc9c 483d eea6 553d
00000070: d422 2dbc 9e73 503d 9388 693d 245e 3c3d
00000080: 1e78 063d f77c 043e 0cd9 523d f462 c6bc
00000090: bdec 0ebb f109 783d 8652 9e3d b438 c73c
000000a0: b8df 543d 0fb9 b33d 3289 f43d 9dc6 fe3d
000000b0: 37b5 7b3d c25b d53d 477e c33d 7c7e af3d
000000c0: 72e6 9d3d 9b67 853d 451c b03d fdd1 8a3d
000000d0: 24ec 1f3d 3ffc 513d 6170 003e a175 c13d
000000e0: 3bd2 c73d eaf6 413d eb31 e13d ed3d ca3c
000000f0: f528 383d 04c9 0d3d b420 4b3d 248a 433c

fc3.weight f4 [32, 64]
0.45482334 0.13322937 0.24060379 -0.03235384 0.18626274 -0.093837544 -0.05451798 0.027539305
-0.1163677 0.018450748 0.10550354 0.03789053 0.004898865 -0.02931478 -0.08085593 0.48135468
0.03410705 -0.33707923 0.15061547 0.061713863 -0.08105276 0.32159987 0.040999018 0.21477439
0.27323878 -0.39793354 0.19402362 0.31773663 -0.18837997 0.27137643 -0.001457484 0.14296788
0.2512736 0.05093641 0.34970123 -0.010136997 0.15053928 0.25861388 -0.19313794 -0.09823182
0.109662905 0.047433443 -0.020156655 0.02305472 -0.21876155 0.13521463 0.20576936 0.16127886
0.021046067 0.015274697 0.20760602 -0.089079626 -0.15071505 0.006598683 0.19884858 0.35624766
-0.108562656 0.16279234 -0.18117209 0.1428627 -0.043175347 -0.34894094 -0.14292401 -0.049224444
0.16054699 -0.05572862 -0.11282804 -0.27608812 0.060198084 -0.1491175 0.024016825 0.012731544
-0.12647331 0.26270798 0.041838482 0.4852364 -0.08040264 -0.045216586 0.103916585 0.13831584
0.10076187 -0.2963548 -0.19835904 0.29900494 -0.32182744 -0.042547382 0.07670847 0.5228175
0.04130942 -0.01491016 -0.19261843 -0.28635463 0.2590539 0.13150936 -0.21499084 0.09698045
0.13996334 -0.03364278 0.111015424 -0.092929944 -0.03560842 -0.10605597 -0.009920389 0.40990794
0.13785528 0.18096848 -0.11532721 0.011664845 0.19274627 -0.017756158 0.24369638 -0.027724052
-0.17642154 0.16398875 0.14701124 0.043790083 -0.103047326 -0.11561102 0.48645738 -0.10545491
-0.28434294 -0.013346834 0.2515191 -0.21305177 0.042518333 0.008447024 -0.27133998 -0.032592595
0.041034706 0.26184595 -0.023352997 -0.0522017 0.5960387 0.29776397 0.18221574 0.09952962
-0.038474146 0.02342895 0.43927318 0.227591 -0.09459039 0.14156441 0.1084834 -0.11534916
-0.15476125 -0.044323757 0.10538633 0.04372835 0.022474602 0.31428942 0.63312036 0.044264995
-0.053108033 0.07062447 -0.02850962 0.19438936 0.16543958 0.12785251 -0.07075195 -0.06879223
-0.097708344 0.009234126 -0.06580274 0.37928134 0.1342736 0.23526417 -0.124846324 0.28878853
-0.004235666 -0.12176624 0.025973056 0.036821727 0.06505405 -0.07978843 -0.22640672 -0.11331086
0.0032495183 0.15506229 0.082595244 -0.040548377 0.43910027 0.088474676 -0.047987156 -0.071988955
-0.013704581 0.230666 0.06480264 -0.08696288 -0.006249787 0.1789034 -0.0040495526 -0.044606626
0.0067661866 0.3215024 0.03002612 -0.05167107 0.30775538 0.44244134 0.2045843 0.12280723
0.1044659 -0.045730032 0.1276948 -0.109464705 -0.13415243 0.041283093 -0.070620574 -0.0024635387
0.15183936 0.16922307 -0.08161954 -0.09112042 0.083788745 0.4034277 0.23050305 -0.09889914
0.06503581 -0.030258132 0.017615546 0.401355 -0.069631785 0.009023098 -0.030826267 -0.07509317
0.042742815 0.033596665 -0.08231576 0.49872273 -0.023134908 0.2566653 -0.14453268 -0.062260173
-0.06312068 -0.09993926 0.26678422 0.08616958 -0.25792462 -0.0673938 -0.16972776 -0.043587416
0.2912224 -0.040045626 0.33089876 -0.20441183 0.20917015 0.09698994 -0.1542266 0.4006378
0.10013251 -0.051752657 -0.112552896 -0.09659309 -0.016180668 -0.09225536 0.085532054 -0.08669358
00000000: 9bde e83e 486d 083e d760 763e 7685 04bd
00000010: a9bb 3e3e e62d c0bd 3f4e 5fbd 1c9a e13c
00000020: 3052 eebd 0626 973c 3d12 d83d 1a33 1b3d
00000030: a886 a03b 8d25 f0bc cb97 a5bd 1f74 f63e
00000040: d6b3 0b3d a695 acbe f13a 1a3e adc7 7c3d
00000050: fdfe a5bd bda8 a43e 96ee 273d d1ed 5b3e
00000060: f4e5 8b3e f2bd cbbe 21ae 463e 60ae a23e
00000070: aee6 40be daf1 8a3e 0c09 bfba 2c66 123e
00000080: efa6 803e b2a2 503d 0a0c b33e a615 26bc
00000090: f826 1a3e 0a69 843e f4c5 45be c42d c9bd
000000a0: f296 e03d 9249 423d 921f a5bc 41dd bc3c
000000b0: 0703 60be b475 0a3e 34b5 523e 4926 253e
000000c0: cd68 ac3c b942 7a3c ac96 543e 616f b6bd
000000d0: 0c55 1abe c439 d83b f69e 4b3e 1866 b63e
000000e0: 1956 debd 09b3 263e 2d85 39be 9a4a 123e
000000f0: a2d8 30bd 63a8 b2be ac5a 12be 929f 49bd
00000100: 6e66 243e b243 64bd 6312 e7bd 6c5b 8dbe
00000110: 4492 763d 42b2 18be efbe c43c f797 503c
00000120: 3882 01be a981 863e d45e 2b3d e870 f83e
00000130: 24aa a4bd 0735 39bd 38d2 d43d aba2 0d3e
00000140: 3d5c ce3d d1bb 97be a21e 4bbe 2d17 993e
00000150: 91c6 a4be 2a46 2ebd 5519 9d3d 5ed7 053f
00000160: 1134 293d be49 74bc c43d 45be 139d 92be
00000170: b6a2 843e 64aa 063e 8f26 5cbe b09d c63d
00000180: 8d52 0f3e 03cd 09bd 0e5c e33d 0e52 bebd
00000190: 22da 11bd df33 d9bd 2189 22bc 74df d13e
000001a0: ef29 0d3e cd4f 393e ac30 ecbd e81d 3f3c
000001b0: 475f 453e 5d75 91bc 8b8b 793e 8d1d e3bc
000001c0: d9a7 34be abec 273e 1d8a 163e 3b5d 333d
000001d0: 7a0a d3bd 78c5 ecbd f110 f93e bef8 d7bd
000001e0: 6695 91be aeac 5abc 1dc7 803e 3e2a 5abe
000001f0: b427 2e3d 6365 0a3c 13ed 8abe d07f 05bd
00000200: 0214 283d ac10 863e c94e bfbc 73d1 55bd
00000210: fe95 183f 8574 983e c396 3a3e 2fd6 cb3d
00000220: 1197 1dbd 12ee bf3c 6ae8 e03e 9d0d 693e
00000230: 9bb8 c1bd 43f6 103e 8b2c de3d 2e3c ecbd
00000240: bc79 1ebe d48c 35bd cad4 d73d 801c 333d
00000250: a81c b83c 8bea a03e 2d14 223f 364f 353d
00000260: cf87 59bd 90a3 903d 028d e9bc 010e 473e
00000270: fe68 293e c5eb 023e 66e6 90bd f1e2 8cbd
00000280: 501b c8bd bb4a 173c 96c3 86bd 2a31 c23e
00000290: 057f 093e 17e9 703e 6eaf ffbd 17dc 933e
000002a0: 57cb 8abb 9460 f9bd 72c5 d43c 61d2 163d
000002b0: 0f3b 853d 1e68 a3bd 2ad7 67be 860f e8bd
000002c0: dff5 543b a6c8 1e3e b227 a93d 0e16 26bd
000002d0: c0d1 e03e 3632 b53d 2e8e 44bd f26e 93bd
000002e0: 2e89 60bc b533 6c3e 3fb7 843d 9819 b2bd
000002f0: 03cb ccbb 7432 373e 1cb2 84bb 70b5 36bd
00000300: e3b6 dd3b f69b a43e 56f9 f53c 0ba5 53bd
00000310: 1d92 9d3e ac87 e23e 8c7e 513e 5b82 fb3d
00000320: 38f2 d53d 6a4f 3bbd 6dc2 023e 082f e0bd
00000330: 415f 09be 7618 293d 85a1 90bd 5273 21bb
00000340: c77b 1b3e d048 2d3e 2528 a7bd 589d babd
00000350: 6f99 ab3d 138e ce3e fe08 6c3e a28b cabd
00000360: 7f31 853d e7df f7bc 7a4e 903c 677e cd3e
00000370: 1c9b 8ebd 9ed5 133c 5e87 fcbc 73ca 99bd
00000380: 1713 2f3d a89c 093d 2a95 a8bd 9658 ff3e
00000390: 6b85 bdbc a269 833e 6000 14be 8604 7fbd
000003a0: 6a45 81bd f4ac ccbd f197 883e ad79 b03d
000003b0: b20e 84be c305 8abd 1dcd 2dbe b888 32bd
000003c0: 1a1b 953e e206 24bd 906b a93e 5651 51be
000003d0: b330 563e a9a2 c63d 94ed 1dbe 6620 cd3e
000003e0: 4612 cd3d 98fa 53bd 2282 e6bd 99d2 c5bd
000003f0: 528d 84bc 61f0 bcbd 6e2b af3d 678c b1bd

fc3.bias f4 [32]
-0.0171275 0.30054063 -0.056112748 -0.025282629 0.13892782 0.1566443 0.12759596 0.42247367
0.04576366 0.044778094 0.25736916 0.1896915 0.14800341 0.16707206 0.10199709 0.049700227
0.30772293 0.24623331 0.18269596 0.267268 0.12031252 0.18741214 0.24127261 0.24664365
0.08732949 0.13231826 0.07748131 0.027968815 0.18821798 -0.018348342 0.22656682 0.18684766
00000000: f94e 8cbc 76e0 993e 7bd6 65bd 841d cfbc
00000010: 1843 0e3e 5d67 203e 84a8 023e 784e d83e
00000020: ad72 3b3d 3c69 373d e4c5 833e 7d3e 423e
00000030: 358e 173e f014 2b3e dae3 d03d 7792 4b3d
00000040: dc8d 9d3e 9624 7c3e a614 3b3e 5ad7 883e
00000050: 6966 f63d f8e8 3f3e 2b10 773e 2790 7c3e
00000060: ced9 b23d 707e 073e 85ae 9e3d db1e e53c
00000070: 37bc 403e 434f 96bc 2201 683e fe54 3f3e

fc4.weight f4 [24, 32]
0.17243248 -0.11982936 -0.45706466 -0.13670622 0.08181378 0.16266105 -0.48557618 -0.16610667
0.14442734 -0.19025536 -0.05670041 -0.5965006 -0.22185297 0.008528287 -0.029328026 -0.7931594
0.028467 -1.0407727 -0.9066848 -0.53358513 -0.6887035 0.03996752 -0.48720825 -0.8352094
-0.16033742 -1.1545252 0.07456311 0.03811305 0.14361559 -0.8177271 -0.8394683 0.14166087
-0.058970675 0.12207611 0.2222279 -0.37842363 -0.23183931 -1.0135239 0.19637692 0.076395035
-0.68930566 0.20532157 0.1232458 0.17207462 0.19206657 0.1553384 0.16560186 0.12069375
0.12253652 -0.15282772 0.14012498 0.14861599 0.09913632 -0.7765289 -0.03518239 0.082592964
-0.062710665 0.1576372 -0.13691115 0.17272611 -0.9261844 0.11443497 -0.7730599 -0.40104133
0.0941051 -0.38220498 0.14781465 0.17562345 0.1505832 0.11940841 -0.6105576 -0.35665792
0.1375058 -0.16609998 -0.30507126 -0.54816663 -0.7474293 0.05917288 0.057030026 -0.2968767
-0.13493781 -0.07602751 -0.37654153 -0.6614782 -0.4292063 0.17457189 -0.36202252 -0.24429017
-0.29933822 0.07510012 -0.007535086 -0.11727827 0.116293445 0.03710375 0.03635731 0.13300143
0.21291608 0.13055559 -0.054068066 0.1332046 0.12621555 -0.19156185 0.13275957 -0.4674737
-0.42798382 -0.1948833 0.16544232 -0.3774119 -0.26694158 0.1686894 0.2126647 -0.70380515
0.1667522 -0.100278266 -0.07370997 -0.04198639 0.19067138 -0.051903374 0.15082951 0.07291308
-0.6695849 -0.42219427 0.19541539 0.09442725 -0.23461007 -0.5503385 -0.19865583 -0.3299349
-0.82037467 -0.3467888 0.074736156 0.21105497 -0.87803763 -0.6486982 -0.65694183 0.2757892
-0.6684862 -0.448695 0.14129469 0.12885328 -0.3333495 -0.29796678 -0.5064368 -0.33614355
0.29426903 0.19022414 -0.2116988 0.17860429 -0.14831528 -0.016410233 0.2247624 0.113297656
-0.40014288 0.23003101 -0.45307922 -0.36532947 -0.5977777 -0.28443423 0.21721934 -1.1012446
-0.47741306 -0.4579248 -0.14473884 0.25994134 -0.5702492 -0.091293596 -0.66650456 0.16392711
-0.33676866 -0.63308245 0.05472177 0.00263895 -0.11707755 -0.31796515 -0.525941 -0.67459875
0.20239703 0.12188874 -0.28505978 0.025553882 -0.28934368 -0.16658986 0.14427167 -0.008301706
-0.25897303 0.07188597 -0.28097153 -0.3750552 -0.14464961 -0.72577846 0.15769275 -0.43458444
-0.47454372 -0.17683555 0.2133009 0.15957518 0.021936014 -0.03795107 -0.2419738 0.101868734
0.07719752 0.0751045 -0.10170969 0.16140912 0.014930095 -0.093399175 -0.17895144 0.11925359
-0.035984214 0.12804273 0.08815736 0.052583326 -0.25820008 0.12431438 -0.013108165 0.052197736
0.039043754 0.23967601 -0.63131434 -0.09127391 -0.023127655 0.17806251 0.105734564 0.0064016343
0.045916077 0.028917937 0.15686351 0.16721325 0.07373586 -0.019332841 0.0662375 -0.37051815
-0.005160134 -0.053505465 0.037305426 -0.26111585 -0.35414764 0.13110012 0.080582626 -0.0039692726
0.06391199 0.060213607 0.06463362 -0.06140193 0.049413275 0.059389904 -0.06999102 0.09366723
-0.1748067 0.11021653 0.010021605 -0.046976317 -0.030029736 0.055704147 0.030477343 -0.04598372
00000000: 2492 303e 1869 f5bd 6104 eabe b7fc 0bbe
00000010: fc8d a73d 9e90 263e 719d f8be de17 2abe
00000020: c3e4 133e 4dd2 42be b03e 68bd 43b4 18bf
00000030: 6d2d 63be 3aba 0b3c 5441 f0bc 7f0c 4bbf
00000040: a033 e93c 0a38 85bf 7f1c 68bf 0999 08bf
00000050: df4e 30bf fbb4 233d 5c73 f9be 49d0 55bf
00000060: 7e2f 24be 7bc7 93bf 8bb4 983d 6e1c 1c3d
00000070: f70f 133e 9056 51bf 65e7 56bf 8c0f 113e
00000080: 3c8b 71bd 0a03 fa3d b68f 633e bec0 c1be
00000090: 4967 6dbe 27bb 81bf 0817 493e 0075 9c3d
000000a0: 5676 30bf d13f 523e 4b68 fc3d 5434 303e
000000b0: 19ad 443e 0811 1f3e 8993 293e 492e f73d
000000c0: 6df4 fa3d df7e 1cbe ec7c 0f3e ca2e 183e
000000d0: fc07 cb3d 99ca 46bf 691b 10bd 8026 a93d
000000e0: 736e 80bd a56b 213e 7032 0cbe 1ddf 303e
000000f0: 6c1a 6dbf e25c ea3d 41e7 45bf 4a55 cdbe
00000100: 2dba c03d 5fb0 c3be b95c 173e a2d6 333e
00000110: 7b32 1a3e 658c f43d 814d 1cbf de9b b6be
00000120: 52ce 0c3e 1d16 2abe 4d32 9cbe a654 0cbf
00000130: 8757 3fbf 435f 723d 5198 693d 3900 98be
00000140: 232d 0abe 50b4 9bbd 0dca c0be a356 29bf
00000150: eec0 dbbe f9c2 323e 045b b9be 3427 7abe
00000160: dc42 99be 17ce 993d e2e8 f6bb 972f f0bd
00000170: 422b ee3d 1afa 173d 67eb 143d 8731 083e
00000180: ac06 5a3e 5db0 053e 7a76 5dbd c966 083e
00000190: a63e 013e ca28 44be 20f2 073e b658 efbe
000001a0: b220 dbbe 7d8f 47be b669 293e 223c c1be
000001b0: 91ac 88be eabc 2c3e c6c4 593e 932c 34bf
000001c0: 17c1 2a3e b15e cdbd 41f5 96bd ecf9 2bbd
000001d0: 5c3f 433e a298 54bd 0d73 1a3e 7453 953d
000001e0: ea69 2bbf d929 d8be f91a 483e 1363 c13d
000001f0: 9f3d 70be fce2 0cbf 6f6c 4bbe 3aed a8be
00000200: 1304 52bf 4d8e b1be 450f 993d cb1e 583e
00000210: 13c7 60bf 1611 26bf 572d 28bf 3e34 8d3e
00000220: e921 2bbf 5abb e5be 8eaf 103e 1df2 033e
00000230: c9ac aabe 1a8f 98be d8a5 01bf 021b acbe
00000240: 6eaa 963e 1eca 423e 92c7 58be 0be4 363e
00000250: f6df 17be c16e 86bc 1d28 663e 9a08 e83d
00000260: 87df ccbe 408d 6b3e 00fa e7be 770c bbbe
00000270: f607 19bf 5da1 91be bf6e 5e3e 95f5 8cbf
00000280: 7c6f f4be 1f75 eabe 6b36 14be 0817 853e
00000290: dafb 11bf 23f8 babd 0ba0 2abf 82dc 273e
000002a0: f16c acbe b111 22bf ef23 603d 3cf2 2c3b
000002b0: 5bc6 efbd 54cc a2be 12a4 06bf 81b2 2cbf
000002c0: 2b41 4f3e cea0 f93d 5bf3 91be 6056 d13c
000002d0: db24 94be 8896 2abe f4bb 133e e103 08bc
000002e0: 1d98 84be f438 933d 80db 8fbe 3c07 c0be
000002f0: 071f 14be 9ecc 39bf 357a 213e da81 debe
00000300: 65f7 f2be 6114 35be 8d6b 5a3e ad67 233e
00000310: 28b3 b33c 9572 1bbd fbc7 77be 8ea0 d03d
00000320: bc19 9e3d 63d0 993d 2c4d d0bd 6f48 253e
00000330: 5b9d 743c 1148 bfbd 0c3f 37be 3a3b f43d
00000340: 2f64 13bd a21d 033e d98b b43d 9d61 573d
00000350: cd32 84be 8a98 fe3d a1c3 56bc 4bcd 553d
00000360: 58ec 1f3d a16d 753e d19d 21bf d1ed babd
00000370: 3576 bdbc 0556 363e 5d8b d83d cdc4 d13b
00000380: 7f12 3c3d 4fe5 ec3c d4a0 203e f339 2b3e
00000390: d402 973d e85f 9ebc 87a7 873d 8eb4 bdbe
000003a0: 5716 a9bb 8c28 5bbd 93cd 183d fab0 85be
000003b0: d752 b5be 1c3f 063e 8108 a53d ac10 82bb
000003c0: 4ae4 823d 8ba2 763d a25e 843d 9780 7bbd
000003d0: 9365 4a3d d442 733d 7457 8fbd 9bd4 bf3d
000003e0: 8700 33be 34b9 e13d a831 243c 3d6a 40bd
000003f0: ec00 f6bc 082a 643d 9fab f93c 6d59 3cbd

fc4.bias f4 [24]
-0.25244048 0.121662915 -0.039178398 0.06078438 0.20026346 0.08917638 0.05816537 0.07159217
0.17055523 -0.18286143 0.13631126 0.017703615 0.20239577 0.009529792 -0.11989137 -0.19501205
0.16190207 0.1363743 -0.0610601 -0.0020193395 -0.11028971 0.17679231 -0.106398985 0.0050585316
00000000: e13f 81be 682a f93d 8779 20bd 0bf9 783d
00000010: dd11 4d3e 1ba2 b63d d03e 6e3d ea9e 923d
00000020: 08a6 2e3e 0740 3bbe 2e95 0b3e 2c07 913c
00000030: d640 4f3e d822 1c3c 9b89 f5bd 3db1 47be
00000040: a8c9 253e b4a5 0b3e 281a 7abd e556 04bb
00000050: 92df e1bd 0b09 353e b6e7 d9bd 0ac2 a53b

exp_avg f4 [128, 240]
-0.0053821187 -0.003122309 -0.0043026935 0.0018434192 -0.0014071772 -0.0022910412 5.342273e-05 -0.0035416025
0.001013648 -0.0021997634 -0.0023783369 0.0016149823 -0.0029321988 -0.0005190177 -0.0007605329 -0.003365928
-0.005322044 -0.0029676736 -0.0019285092 -0.0001243758 -0.005902053 -0.00085476786 -0.004255181 0.001891644
-0.0054222657 -0.0027203965 -0.0043551195 0.0020611954 -0.0017268467 -0.0022582104 0.00032272624 -0.0033598843
0.0010376514 -0.00201118 -0.0028823316 0.0016961498 -0.0027903384 -0.0012184831 -0.0006042371 -0.0032935
-0.005293469 -0.003041259 -0.0017466303 0.00016761501 -0.005892072 -0.0013543712 -0.004432355 0.0020178335
-0.0053684283 -0.0023646734 -0.004463765 0.0021444948 -0.0018207328 -0.0026909215 4.1440187e-05 -0.003531175
0.0012266107 -0.0021366565 -0.0025642046 0.0019708462 -0.0026397859 -0.0015182397 -0.0006750616 -0.0029361628
-0.0052308803 -0.0034411252 -0.0018782824 0.00011363777 -0.006182602 -0.0013012178 -0.004121759 0.0020243262
-0.005341569 -0.001975621 -0.0044454895 0.0019134551 -0.0016406474 -0.0023620003 -0.00014712378 -0.0037855348
0.0013471649 -0.002083263 -0.0024997478 0.0019182535 -0.0032581238 -0.0013064749 -0.0015805867 -0.001910879
-0.0051271003 -0.0032365439 -0.0020568555 -0.00016295107 -0.006223412 -0.0012849788 -0.0037936762 0.0019195536
-0.00533388 -0.0019366466 -0.0044734795 0.001779705 -0.0017144494 -0.0024424656 -0.00031611713 -0.003623468
0.0015939251 -0.001972716 -0.0025529414 0.001559268 -0.0026267208 -0.0013907519 -0.0024563917 -0.0016142284
-0.0050778827 -0.003176115 -0.001941557 -3.3347984e-05 -0.0060984744 -0.0013537332 -0.0042448696 0.0020991971
-0.0053335708 -0.0015801963 -0.0048251203 0.0023257344 -0.0018618971 -0.0025681355 -0.00034457108 -0.0038799848
0.0014521529 -0.0014397721 -0.0025216558 0.0014762827 -0.00292571 -0.0014204064 -0.0024950108 -0.0011962745
-0.005127432 -0.0034557465 -0.0018957492 9.47729e-05 -0.0061219917 -0.0013052686 -0.0043529016 0.0024144633
-0.0053081037 -0.0015915481 -0.004976388 0.0024665333 -0.0018006249 -0.0025599205 -0.00023175642 -0.003929192
0.0013994542 -0.0017191813 -0.0025144464 0.001259781 -0.0031931696 -0.0014270013 -0.002179618 -0.0011732378
-0.005135975 -0.0032700384 -0.001922056 -0.00013712805 -0.0061159832 -0.0011939723 -0.0042698747 0.0026062266
-0.005457664 -0.00131178 -0.0049010804 0.0021072011 -0.0014188299 -0.0026436916 -8.777283e-05 -0.0040607606
0.0013470994 -0.0019735117 -0.0027253777 0.001159814 -0.003288946 -0.0014489405 -0.0019472133 -0.001092067
-0.005016462 -0.0034921858 -0.0020274185 0.00034203334 -0.0060989438 -0.001150257 -0.0039066453 0.0025403642
-0.0055086613 -0.00074295746 -0.0045207376 0.001381357 -0.0015823068 -0.0025357436 0.00011603843 -0.003937459
0.001224983 -0.002010002 -0.003141447 0.0009864848 -0.0031608152 -0.0012728921 -0.0019383394 -0.00108628
-0.0049014054 -0.0036108235 -0.0018633001 0.0004053797 -0.0060761655 -0.0011960343 -0.004005331 0.0023194316
-0.005403245 -0.00074926065 -0.0042535756 0.0013235402 -0.0025714962 -0.0027792263 0.00017977788 -0.0037454914
0.0012012667 -0.0019259502 -0.0025375162 0.0010044654 -0.0032355075 -0.0016557404 -0.0016505194 -0.00042275363
-0.00530542 -0.003742892 -0.0019163188 0.000948697 -0.0061556017 -0.0007367502 -0.004092665 0.0020275938
0.006828648 0.007740941 0.00747538 -0.0019489813 0.0061983466 0.0035429033 4.64099e-05 0.0026274128
0.0050384793 0.004157393 -4.277978e-05 0.0053090313 0.0058672815 -0.0017953832 0.0015045921 0.0028996214
00000000: 7c5c b0bb a79f 4cbb 9cfd 8cbb e29e f13a
00000010: 0871 b8ba 4b25 16bb 3812 6038 3b1a 68bb
00000020: 62dc 843a e829 10bb dfdd 1bbb d0ad d33a
00000030: 222a 40bb b00e 08ba 805e 47ba e796 5cbb
00000040: 8a64 aebb 4d7d 42bb 08c6 fcba e06a 02b9
00000050: 0266 c1bb 8012 60ba 0c6f 8bbb 0af1 f73a
00000060: 43ad b1bb ae48 32bb 64b5 8ebb 1f15 073b
00000070: 5c57 e2ba 7cfe 13bb 9533 a939 8131 5cbb
00000080: ce01 883a 00ce 03bb 80e5 3cbb 5851 de3a
00000090: 1cde 36bb 82b5 9fba aa65 1eba c3d7 57bb
000000a0: d674 adbb dc4f 47bb 30ef e4ba d0c1 2f39
000000b0: 4812 c1bb 2885 b1ba 4a3d 91bb a13d 043b
000000c0: a4e9 afbb a3f8 1abb c644 92bb a78a 0c3b
000000d0: a8a5 eeba 2c5a 30bb 10d0 2d38 496b 67bb
000000e0: 3ac6 a03a 2607 0cbb 370c 28bb 5029 013b
000000f0: 4200 2dbb acff c6ba 9ef6 30ba a36c 40bb
00000100: ce67 abbb 8084 61bb b330 f6ba d050 ee38
00000110: 6d97 cabb a08d aaba d20f 87bb 8faa 043b
00000120: 5408 afbb 6c79 01bb 78ab 91bb e6cc fa3a
00000130: fe0a d7ba cacb 1abb 3d45 1ab9 bc16 78bb
00000140: 5a93 b03a 5a87 08bb cfd2 23bb e86d fb3a
00000150: 3f86 55bb 063e abba b02b cfba 7676 faba
00000160: 3c01 a8bb 321c 54bb 4fcc 06bb d8dd 2ab9
00000170: c4ed cbbb bc6c a8ba 539f 78bb 8899 fb3a
00000180: d4c7 aebb 14d7 fdba 4496 92bb fe44 e93a
00000190: 60b7 e0ba c611 20bb 86bc a5b9 b577 6dbb
000001a0: 40eb d03a af48 01bb 404f 27bb 5a60 cc3a
000001b0: 1025 2cbb e449 b6ba 6afb 20bb 8494 d3ba
000001c0: 5e64 a6bb 5e26 50bb d87b feba 20df 0bb8
000001d0: b6d5 c7bb c06f b1ba 8c18 8bbb af92 093b
000001e0: 3cc5 aebb 971e cfba 0b1c 9ebb 596b 183b
000001f0: e60a f4ba 2a4e 28bb 8ca7 b4b9 5847 7ebb
00000200: 2a56 be3a bcb6 bcba 5d42 25bb d47f c13a
00000210: 45bd 3fbb ee2c baba 5683 23bb 50cc 9cba
00000220: 0404 a8bb ce79 62bb ca7a f8ba d0c0 c638
00000230: fd9a c8bb 8c15 abba c9a2 8ebb f93b 1e3b
00000240: 9aef adbb 7e9b d0ba f810 a3bb 90a5 213b
00000250: f202 ecba 57c4 27bb a403 73b9 74c0 80bb
00000260: e46d b73a 2756 e1ba 69c9 24bb 3c1f a53a
00000270: 7f44 51bb 380a bbba ecd7 0ebb 54c7 99ba
00000280: ae4b a8bb 244e 56bb 7fed fbba 08ca 0fb9
00000290: 9668 c8bb 107f 9cba 4eea 8bbb 3acd 2a3b
000002a0: 34d6 b2bb 08f0 abba 3e99 a0bb f818 0a3b
000002b0: 08f8 b9ba c941 2dbb ae12 b8b8 2110 85bb
000002c0: 2891 b03a 0856 01bb 409c 32bb e604 983a
000002d0: 5c8b 57bb 60ea bdba a339 ffba b023 8fba
000002e0: 2261 a4bb 28dd 64bb 70de 04bb f052 b339
000002f0: a6d9 c7bb 38c4 96ba 5103 80bb 3d7c 263b
00000300: 0082 b4bb 08c3 42ba b222 94bb a60e b53a
00000310: 6865 cfba b82e 26bb a859 f338 cd05 81bb
00000320: 9c8f a03a 3dba 03bb bce0 4dbb f04c 813a
00000330: ae25 4fbb 2cd7 a6ba e10f feba 8261 8eba
00000340: f89b a0bb 91a3 6cbb fa39 f4ba 2489 d439
00000350: 921a c7bb 40c4 9cba 273f 83bb 9b01 183b
00000360: b40d b1bb 086a 44ba 9461 8bbb a47a ad3a
00000370: 8c86 28bb ae23 36bb c282 3c39 eb76 75bb
00000380: d273 9d3a 2a70 fcba 754c 26bb 44a8 833a
00000390: cf0a 54bb 6e05 d9ba 3e56 d8ba 08a5 ddb9
000003a0: 17d9 adbb 4f4b 75bb fd2c fbba fab1 783a
000003b0: eeb4 c9bb 7822 41ba c31b 86bb 61e1 043b
000003c0: dac2 df3b b8a7 fd3b 08f4 f43b f674 ffba
000003d0: 801b cb3b 0e30 683b 40a8 4238 ac30 2c3b
000003e0: d419 a53b bd3a 883b 706e 33b8 62f7 ad3b
000003f0: 5342 c03b 1053 ebba bc35 c53a 9307 3e3b

exp_avg_sq f4 [128, 240]
0.002709857 0.00022543264 0.0024710097 0.0008131409 0.0009912581 0.0011465027 0.00038207328 0.00058432715
0.001053909 0.0005643218 0.0007666368 0.0011192036 0.0010236257 0.00051128113 0.00040869982 0.0010754629
0.0019590466 0.0011290824 0.0016240404 0.000977952 0.0023148316 0.001005314 0.001002266 0.00042111552
0.0027079831 0.00020144969 0.0024610602 0.00080767117 0.0010252285 0.0011388513 0.00038954598 0.00057947356
0.0010754116 0.00055271585 0.0007897777 0.0011325545 0.0010412023 0.00054238806 0.00040396117 0.0010787783
0.001955189 0.0011365986 0.0016454852 0.0009688447 0.0023093668 0.0010210264 0.0010127005 0.00042935114
0.0027557155 0.0001817655 0.002463461 0.00080117804 0.0010201561 0.0012074155 0.00039264568 0.0005759771
0.0010810043 0.00054625847 0.0007652817 0.0011344122 0.0010366063 0.00056035316 0.00043641945 0.0010356038
0.0019696688 0.001158248 0.0016369359 0.000958732 0.0022994967 0.000995002 0.001037262 0.00043468457
0.0027571153 0.0001647768 0.0024594057 0.0008032343 0.0010331267 0.0012153795 0.00039336877 0.0005976509
0.00111268 0.0005440779 0.0007639949 0.001131638 0.001059943 0.0005579844 0.0004328093 0.0009963166
0.0019892072 0.0011574664 0.0016489498 0.0009528797 0.0022969912 0.0009901362 0.0010318676 0.000430452
0.002757894 0.00016401379 0.0024687808 0.00079672976 0.0010463062 0.0012254164 0.00038353272 0.00058875995
0.001113109 0.00054828956 0.0007672389 0.0011719087 0.0010587267 0.0005566449 0.00043881903 0.0009566997
0.0019768488 0.0011516442 0.0016460683 0.0009617656 0.0022987826 0.0009779133 0.0010477935 0.00044088362
0.0027282084 0.00014744946 0.0024754112 0.00080610794 0.0010152286 0.001256812 0.0004042101 0.00064559164
0.0011225712 0.00054992526 0.00076355395 0.001169364 0.0010360611 0.00055976235 0.0004512575 0.0009345613
0.001979302 0.0011511811 0.0016550433 0.0009792357 0.002291344 0.0009885248 0.0010347362 0.00045996578
0.0027480263 0.00014498128 0.0024849274 0.0007847886 0.0010398593 0.0012606396 0.00040752414 0.0006551226
0.0011202965 0.00056923245 0.00075628894 0.0011859132 0.0010388751 0.00055749237 0.000443251 0.0009222377
0.0019874522 0.0011738795 0.0016372127 0.0009802533 0.0022890286 0.0009914718 0.0010375446 0.00045313683
0.0027413438 0.0001293184 0.0024883605 0.0008183641 0.001041731 0.001252826 0.0004172818 0.0006847634
0.0011112493 0.0005831746 0.0007453862 0.0011746271 0.0010539102 0.00055729295 0.00043960594 0.00091143267
0.0019919567 0.0011674546 0.0016212551 0.0010020848 0.0022903641 0.0009853288 0.0010657631 0.000453615
0.002738266 0.00011911331 0.0025136454 0.0008213321 0.0010228843 0.0012491936 0.00042951351 0.00068631605
0.0011156768 0.0005841435 0.0007603272 0.0011808479 0.001045017 0.00058234954 0.00045220877 0.0008851884
0.0020110195 0.0011845275 0.0016185977 0.0009965409 0.0022884961 0.0009849411 0.0010682453 0.00047496986
0.0027121594 0.00011940016 0.0025267054 0.0008045728 0.0010214115 0.0012628615 0.00042495818 0.000720172
0.0011274215 0.00059291354 0.0007541549 0.0012051748 0.0010363294 0.0006024733 0.0004385825 0.00085512595
0.002014832 0.0011697109 0.0016495666 0.0009826585 0.0023089398 0.0009817367 0.0010623089 0.00046502645
0.0012533582 0.0009779138 0.0011610374 0.00065426464 0.001769671 0.00095655245 0.0004788624 0.0005230366
0.00044763548 0.0014407233 0.00061697216 0.00042472023 0.0020818526 0.0006615842 0.0008446889 0.0004517202
00000000: db97 313b 1d62 6c39 aaf0 213b f628 553a
00000010: 1aed 813a 3f46 963a 0251 c839 882d 193a
00000020: 5123 8a3a ffee 133a 20f8 483a 3eb2 923a
00000030: 2e2b 863a 7f07 063a c346 d639 8cf6 8c3a
00000040: 5963 003b b8fd 933a c1dd d43a a02e 803a
00000050: 6eb4 173b bec4 833a 775e 833a 2bc9 dc39
00000060: 6b78 313b 3d3c 5339 bd49 213b e5b9 533a
00000070: f660 863a 8245 953a fa3b cc39 d0e7 173a
00000080: d3f4 8c3a 22e4 103a 1609 4f3a 3972 943a
00000090: f478 883a 0c2f 0e3a c0ca d339 cb65 8d3a
000000a0: a122 003b ecf9 943a 52ad d73a 11fa 7d3a
000000b0: bf58 173b f6d3 853a 97bc 843a 891a e139
000000c0: 3c99 343b 4e98 3e39 0472 213b 2606 523a
000000d0: c2b6 853a 2442 9e3a 03dc cd39 2bfd 163a
000000e0: 7cb0 8d3a c932 0f3a 2f9d 483a 8fb0 943a
000000f0: bcde 873a aae4 123a 3acf e439 19bd 873a
00000100: 8f15 013b 5bd0 973a 748e d63a 6a53 7b3a
00000110: 27b3 163b ba6a 823a bdf4 873a 60e6 e339
00000120: b8b0 343b efc7 2c39 fb2d 213b 2490 523a
00000130: fb69 873a 5e4d 9f3a 103d ce39 acab 1c3a
00000140: 58d7 913a 73a0 0e3a d446 483a 7853 943a
00000150: c9ed 8a3a b345 123a aeea e239 d696 823a
00000160: 5c5d 023b 21b6 973a 9321 d83a adca 793a
00000170: 1e89 163b 75c7 813a bb3f 873a 4aae e139
00000180: c9bd 343b 1efb 2b39 45cb 213b a1db 503a
00000190: 3624 893a 279e a03a e414 c939 0357 1a3a
000001a0: bee5 913a 17bb 0f3a 8820 493a bb9a 993a
000001b0: f9c4 8a3a cfeb 113a 4b11 e639 08cb 7a3a
000001c0: 058e 013b c4f2 963a e3c0 d73a ff1e 7c3a
000001d0: 2ca7 163b 532d 803a 1e56 893a 6626 e739
000001e0: becb 323b aa9c 1a39 823a 223b fd50 533a
000001f0: 6b11 853a 9dbb a43a 29ec d339 ec3c 293a
00000200: 3d23 933a dc28 103a 3d29 483a 5845 993a
00000210: 71cc 873a 04bd 123a c296 ec39 59fd 743a
00000220: 2db7 013b 3ae3 963a 0aee d83a b359 803a
00000230: 602a 163b 6391 813a fc9f 873a 9027 f139
00000240: 3b18 343b 1e06 1839 2ada 223b 45ba 4d3a
00000250: e34b 883a 0c3c a53a f7a8 d539 89bc 2b3a
00000260: ead6 923a 8b38 153a b141 463a a570 9b3a
00000270: dd2a 883a ae24 123a 2464 e839 53c2 713a
00000280: ea3f 023b dcdc 993a be97 d63a d87b 803a
00000290: 8703 163b 46f4 813a 38fe 873a ff92 ed39
000002a0: 1ea8 333b a599 0739 c313 233b 7c87 563a
000002b0: b18a 883a dd35 a43a 9dc6 da39 b281 333a
000002c0: 57a7 913a 2fe0 183a 0566 433a f2f5 993a
000002d0: 5c23 8a3a 4c17 123a e97a e639 36ed 6e3a
000002e0: 7d8b 023b 4705 993a 4b80 d43a 6358 833a
000002f0: ef19 163b 2626 813a 13b1 8b3a 2dd3 ed39
00000300: 7b74 333b 79cc f938 f9bb 243b aa4e 573a
00000310: 4d12 863a fbbb a33a 5430 e139 e4e9 333a
00000320: e73b 923a 3521 193a b250 473a aec6 9a3a
00000330: f4f8 883a d1a8 183a 6f16 ed39 fd0b 683a
00000340: 4fcb 033b 2642 9b3a 2027 d43a 5d9e 823a
00000350: 98fa 153b 2419 813a 5d04 8c3a 6005 f939
00000360: 7cbe 313b 7966 fa38 1597 253b f7e9 523a
00000370: e2e0 853a 9a86 a53a eccc de39 edc9 3c3a
00000380: fdc5 933a c16d 1b3a 7bb2 453a f5f6 9d3a
00000390: 72d5 873a 4cef 1d3a 8cf1 e539 882a 603a
000003a0: 460b 043b fc50 993a 4536 d83a 8ccc 803a
000003b0: 9551 173b 9ead 803a 2c3d 8b3a cbce f339
000003c0: b947 a43a 582d 803a f32d 983a f582 2b3a
000003d0: 4ef4 e73a 26c1 7a3a d30f fb39 641c 093a
000003e0: 9eb0 ea39 a7d6 bc3a 4dbc 213a fcac de39
000003f0: b16f 083b 2a6e 2d3a 1d6e 5d3a dcd4 ec39

exp_avg f4 [128]
-0.0038195085 0.0073586917 0.0 6e-45 0.010704663 0.009960797 0.0044487687 0.0061067534
0.0033939457 0.0027814335 6e-45 6e-45 6e-45 0.0020985755 -0.004021505 0.0035323799
0.0 -0.005143856 0.0003031785 0.0011244079 -0.007394751 0.007298257 0.0 -0.011195183
0.0 -0.0011675083 -0.013814155 0.0019035619 -0.0069429628 0.0212664 6e-45 -0.0059581883
-0.020863784 0.0035619794 -0.0064231483 0.0033922505 -0.05050551 0.01942337 0.0 -0.008666298
-0.010674378 -0.01697274 -0.012578831 0.00036458723 0.0 6e-45 -0.0007294307 0.0007606008
-0.012419847 0.0 0.012413858 -0.0020772745 0.05390431 0.0 -0.0037485466 6e-45
-0.0028478121 -0.0070737028 -0.0017958387 -0.0093081305 0.00019231765 0.007064703 -0.00840553 6e-45
0.00015004109 6e-45 0.0093753645 0.015630508 0.008880756 0.0 -0.0022355174 0.0030472784
-0.008312858 -0.009817844 -0.009907862 0.008534636 -0.010604525 6e-45 6e-45 0.0067028743
-0.030986665 0.003342585 -0.0075072665 0.011359044 -0.012067315 -0.014308994 0.0046056486 -0.008758982
-0.017377239 -0.0074735857 -0.009741645 -0.012456922 0.0 -0.0058983886 -0.0059587797 0.000638539
0.019262254 -0.011977196 0.0055898745 -0.0068297363 0.025923837 0.006022189 -0.0006768247 6e-45
0.010361325 -0.02304559 -0.004659748 0.03129046 0.03103259 -0.0068676053 -0.004133019 6e-45
0.012390632 0.001998301 6e-45 0.00981119 6e-45 0.0033493836 0.0074094557 -0.009091356
0.0012318294 0.01192175 -0.009447199 0.0 -0.0120323505 -0.014664525 0.003771744 6e-45
00000000: b850 7abb 2e21 f13b 0000 0000 0400 0000
00000010: 9c62 2f3c 9c32 233c fac6 913b 291b c83b
00000020: f66c 5e3b b648 363b 0400 0000 0400 0000
00000030: 0400 0000 4188 093b d4c6 83bb 807f 673b
00000040: 0000 0000 cb8d a8bb eef3 9e39 de60 933a
00000050: ab4f f2bb 3826 ef3b 0000 0000 006c 37bc
00000060: 0000 0000 1407 99ba c454 62bc f080 f93a
00000070: cb81 e3bb e036 ae3c 0400 0000 e83c c3bb
00000080: 87ea aabc 1970 693b 4679 d2bb 8550 5e3b
00000090: dede 4ebd c21d 9f3c 0000 0000 17fd 0dbc
000000a0: 96e3 2ebc 6a0a 8bbc 7117 4ebc 1226 bf39
000000b0: 0000 0000 0400 0000 4437 3fba 0e63 473a
000000c0: 9d7c 4bbc 0000 0000 7f63 4b3c e222 08bb
000000d0: c4ca 5c3d 0000 0000 2daa 75bb 0400 0000
000000e0: 5ca2 3abb 85ca e7bb 5962 ebba 2181 18bc
000000f0: e0a8 4939 067f e73b 59b7 09bc 0400 0000
00000100: 5954 1d39 0400 0000 219b 193c 8d0b 803c
00000110: 9780 113c 0000 0000 c281 12bb d9b4 473b
00000120: a732 08bc 06db 20bc 9654 22bc dcd4 0b3c
00000130: 9abe 2dbc 0400 0000 0400 0000 c9a3 db3b
00000140: bfd7 fdbc 450f 5b3b 84ff f5bb 491b 3a3c
00000150: fdb5 45bc 4570 6abc fbea 963b d581 0fbc
00000160: b65a 8ebc fbe4 f4bb 6c9b 1fbc 1e18 4cbc
00000170: 0000 0000 4547 c1bb de41 c3bb a063 273a
00000180: e0cb 9d3c 003c 44bc 442b b73b fbcb dfbb
00000190: 3a5e d43c c855 c53b f06c 31ba 0400 0000
000001a0: 8cc2 293c 1bca bcbc cdb0 98bb 6d2a 003d
000001b0: 0f38 fe3c a609 e1bb 476e 87bb 0400 0000
000001c0: 1402 4b3c edf5 023b 0400 0000 1dbf 203c
000001d0: 0400 0000 5581 5b3b 05cb f23b e9f3 14bc
000001e0: 5675 a13a 7253 433c 6dc8 1abc 0000 0000
000001f0: 5623 45bc 7a43 70bc 5d2f 773b 0400 0000
