models/preliminary_results_models/RaceMultiOutputModeltvt4v3/model.pt (torch, 257583 bytes, 18 tensors)

fc1.weight f4 [128, 24]
00000000: 60bf 583c da8d e03d e18b 0c3e 28d3 7e3d
00000010: fae6 22be 519c e2bc bcad c2bd 102a bbbd
00000020: fe82 e93d 7b23 35bd a8b8 e23d 69b1 44be
00000030: 9e66 45be c028 9c3b 8438 ea3d ae84 8ebd
00000040: 5c69 373e f863 223e 322e 3a3e f4a1 3d3e
00000050: 4f8a c3bd 57b0 03be 1c29 9a3d 873d 533d
00000060: d007 953d 328d 343e f1c7 793d 0cd4 1d3e
00000070: 872e 4dbd bed4 1bbe b709 313e 7ce4 d0bb
00000080: 1e1f 59bd 8123 4ebe b32f 263d ade8 e5bd
00000090: 9664 dcbc 4b27 f6bc bc4c 083e b2c8 383e
000000a0: 24c8 d5bd 30dd 663c 08a8 c4bc 0297 f83d
000000b0: be2f 0dbd bae1 8f3d 47c1 06be 9403 d73b
000000c0: 8e0f 213d f21e fb3d 83ce 9e3d 9e52 603d
000000d0: 72c6 30bd 2ae7 dfbc 77c7 86bd f96a a2bd
000000e0: 7d25 f63d d05b aa3d 8e24 abbd d543 89bd
000000f0: b01f c03b 12e9 b73a 74cd df3c 1b18 143e
00000100: 87aa 0d3d 477b ad3d a55d eb3c e4c6 a73d
00000110: 505b cabb cfb3 98bd f31b 26be 9f72 9d3a
00000120: 939c dfbd 1313 473e c694 213e c852 a6bd
00000130: e9ff d03c df37 0a3d 814b 1ebd 7b14 043e
00000140: cd0b d93d 2df2 abbd 9186 d1bc 66e2 073d
00000150: 6410 d3bc 0590 c63d 9d11 1bbe 4739 fa3c
00000160: f22e 453e 0509 3c3e 34a8 4dbe 3f3d 57be
00000170: 9c19 18bd 56e0 0c3d cbff d03d 4c81 463d
00000180: d0b8 4e3e d52f 503e 040e a5bd 853a ccba
00000190: 2b89 023e abd1 313e e865 083e 4ec8 d33d
000001a0: 6748 3abe f074 8abd 3887 9ebc 3d87 373e
000001b0: 7e66 1e3d a8d2 4a3e ba56 343e 235f 3ebe
000001c0: 5005 bebb 1302 fb3d 187b 813d 9f77 293e
000001d0: 56cc f43d 5d15 c5bd d9e3 1d3e 99e2 cf3d
000001e0: 60c5 b3b8 6dd2 54be 6cc5 5cbe c0b3 383e
000001f0: 6c7d 8e3d 1cf3 303e 597e c0bd 2933 09be
00000200: 008d 243e cddf 5a3d 93e2 df3d 2e00 343e
00000210: 4745 f4bd f929 e4bd 00b4 15be 575d 29be
00000220: 463a d5bd 5376 233e 14ed 983d c024 dd3c
00000230: 897b 423d 21cd 06bd eec3 b83d 63a0 d1bd
00000240: 35dd 193e 8aad 2b3e 3a05 d93b 0e20 25bd
00000250: 6762 ed3d c57c 123e d5f4 f2bd 5690 d13d
00000260: 1fd6 3c3d 3de3 4bbe c73a d83d df93 93bd
00000270: e3ec 6cbd 9240 40be 9029 14bd da69 ce3d
00000280: 8fc8 673d f063 043e 465c d43d 4f21 3e3d
00000290: 5cdb 223c 1070 853d 6496 49bc 4704 0c3e
000002a0: 796c 53bd 40bb 043e 1fd2 04be a459 183e
000002b0: d2ce 3e3e 0844 063d a825 0cbe fb12 3dbe
000002c0: 3ff8 0cbd 226a 45bd 3c9c 1dbd 0c52 1e3d
000002d0: fef6 6dbd 9778 d33d eac0 983c 5257 bc3d
000002e0: 3997 603d d574 913d 090b d43c 4605 11bd
000002f0: 304a 903d 812d 4b3e 1a41 d6bd e833 b63d
00000300: 8085 3b3b 405a 2fbe 4cd2 a0bd a377 f4bd
00000310: 0056 7bba 3f6d adbd 62cc 063e 59da 09be
00000320: 167a 28be 22ce 4b3e 605f 62bd 807c bcbd
00000330: 3c9e 0bbd c8c2 8e3d 869a adbd 0e81 b3bd
00000340: 79b5 47be 1c10 59bd a0ac d93d f263 2d3e
00000350: 8c35 333e dab0 b1bd b089 38bc 035b e0bd
00000360: ec30 aabd e0af 043c 55f5 fbbd ddc9 f7bd
00000370: 0054 353c e25e 05be 0cc7 0a3d 8680 85bd
00000380: 7dc9 32be e52d 32be 68e5 9abc ce5d 2c3e
00000390: a898 fcbd 4718 cdbd 7644 153e 0060 ed3c
000003a0: 413c b7bd ea9e 4b3e 9691 05be 9318 1cbe
000003b0: 746d 0c3d 769f 1a3e 4b0f 0abe 1879 f33c
000003c0: 5085 113e 40a4 62bc 82fb 0fbe a34e eabd
000003d0: d4b6 d63d d41c 963d de05 463e b080 2a3e
000003e0: 8277 45be ee3e 4c3e f0c1 41be c0df 4e3d
000003f0: 4018 ac3d 5059 3b3d 6ca1 f73d b988 c0bd
0.013229221 0.10964556 0.13725235 0.062213093 -0.15908423 -0.027662428 -0.095057935 -0.09138882
0.11401938 -0.04422329 0.11070377 -0.19208302 -0.19277427 0.0047656 0.11436561 -0.069589004
0.17911285 0.15858448 0.18181685 0.18518811 -0.09547865 -0.12860237 0.07527372 0.05157235
0.07276881 0.17631987 0.060981695 0.1541292 -0.0500932 -0.15217873 0.17288862 -0.0063748937
-0.05300819 -0.20130731 0.040572833 -0.1122602 -0.026903432 -0.030048033 0.13310522 0.18045309
-0.104385644 0.014090821 -0.024005905 0.121381775 -0.03446936 0.07025476 -0.13159667 0.006561706
0.039321475 0.12261762 0.07754233 0.05476629 -0.043158002 -0.027331907 -0.06581014 -0.0793056
0.12018869 0.08318293 -0.08356582 -0.06702391 0.0058631524 0.0014031252 0.027319647 0.1446232
0.034586456 0.08470779 0.028731177 0.08192232 -0.006175436 -0.07456171 -0.162216 0.0012012309
-0.10918536 0.1944087 0.15779409 -0.08121258 0.025512652 0.03374469 -0.038646225 0.12898438
0.10597954 -0.08395801 -0.025576862 0.033174895 -0.025764652 0.09695438 -0.15143438 0.03054489
0.1925619 0.18362816 -0.20083696 -0.21019457 -0.037133798 0.03439363 0.10205039 0.04846315
0.20187688 0.20330746 -0.08059314 -0.0015581405 0.12747638 0.17365138 0.13320124 0.103409395
-0.18191682 -0.06760585 -0.019351587 0.17922683 0.038671963 0.19806921 0.17611209 -0.1859098
-0.005798973 0.12256255 0.063223064 0.16549538 0.119530365 -0.09623215 0.15418948 0.10150642
-8.572149e-05 -0.20783396 -0.21559685 0.18037319 0.06957516 0.17280239 -0.09399099 -0.13398422
0.16069412 0.05343609 0.109318875 0.17578194 -0.11927276 -0.11140818 -0.14619446 -0.16539513
-0.104115054 0.15963106 0.07467094 0.026995063 0.047481094 -0.03291047 0.090217456 -0.102356695
0.1502579 0.16765419 0.0066229375 -0.040313773 0.115910344 0.14305408 -0.11863104 0.10232608
0.04610264 -0.19910903 0.10558086 -0.072059385 -0.0578431 -0.18774632 -0.03617245 0.10078783
0.056587752 0.12928748 0.10369162 0.046418484 0.009939995 0.06515515 -0.012303922 0.13673507
-0.05161712 0.12962055 -0.1297078 0.14877945 0.18633583 0.032779723 -0.1368624 -0.18464272
-0.034416433 -0.04819692 -0.038479075 0.038652465 -0.05809688 0.10325735 0.018646676 0.091963425
0.054831717 0.07102362 0.025884168 -0.03540542 0.070454 0.19841577 -0.10461636 0.08896619
0.0028613508 -0.17124271 -0.07852611 -0.119368814 -0.0009587705 -0.08468103 0.13163903 -0.134622
-0.16452822 0.19902852 -0.055266738 -0.09203434 -0.03408645 0.06970745 -0.08476739 -0.087648496
-0.1950282 -0.05299388 0.10628629 0.16932657 0.17500895 -0.0867631 -0.011263296 -0.10954859
-0.08310112 0.0080985725 -0.12302653 -0.12099049 0.01106739 -0.13024476 0.033881232 -0.065186545
-0.17459674 -0.1740032 -0.018908218 0.16832659 -0.12333804 -0.10014396 0.14576897 0.02897644
-0.089470394 0.1988484 -0.13043818 -0.1524375 0.03428407 0.15099892 -0.13482396 0.029720828
0.14211011 -0.013833106 -0.14060786 -0.1144078 0.104840904 0.07329717 0.19338176 0.16650653
-0.1928387 0.19945881 -0.18921638 0.050506353 0.08403063 0.045739472 0.12091336 -0.09401078

fc1.bias f4 [128]
00000000: 84fe d8bd 75b8 ef3d 35c2 96bd 89ea cfbd
00000010: 7dcd 9e3d f79b fc3c 64a7 51be bc5a e63d
00000020: a0ac b53b 8048 833a 90ac 233c 9fb9 773d
00000030: de31 10be 8d58 bcbb 5f2e f43d 045b a8bd
00000040: e295 30be fcf5 c73c b0c7 1c3d 8d4c b6bd
00000050: 174c 673d 14bf 02be 00e3 0e3b 66e8 5ebd
00000060: b22a b3bd c945 973d 45e5 bdbd 10d2 cf3c
00000070: 200a 4abc 779b 673d c351 0c3e ab56 ab3d
00000080: 66b1 073e 53b8 aa3d 2373 c93d 9768 ebbc
00000090: 9925 533d 6461 19be adf2 0f3e e28b acbd
000000a0: a690 3c3e 47c4 063e 1fcf 19be f901 ce3d
000000b0: ee32 9bbc d065 61bd f94f 61bb 0ced 68bd
000000c0: 3c71 e83d 602f c63c f7d4 5cbb e275 c83d
000000d0: e2d0 143e 1b90 dfbd 2091 033c 6713 7cbb
000000e0: 599a 4e3c cf74 0b3d 248e b23d ce2a 323e
000000f0: d515 2abd 1845 403e 7fc6 113e 42b2 c93b
00000100: 19af bebd 20c0 26be 51d7 4cbe 12a8 053e
00000110: 0484 cf3d 9546 26bd b773 f3bd 01c7 223e
00000120: 0eb2 a0bc 3e95 84bd 88ea f53d 68c7 b1bc
00000130: cc41 debd 83be 183e 5186 853d 688b c63d
00000140: 3090 013e bfbb fcbd 7f5a 02be 6850 c2bd
00000150: a028 e03d 0eab f9bd 146e 2a3d 959d 6d3d
00000160: 80e1 efba 9edd 16bd c5ee cc3d 3101 8e3d
00000170: b8d4 1b3e 4fea 11be 405e 36bd 1ef2 29bd
00000180: 309f 9e3c 3e30 40be 20b2 003d f63b 473e
00000190: ca86 923d 167f 183e 991e dcbd 3667 27be
000001a0: 665a 9b3d 6770 fdbd dce8 dc3d 4149 203d
000001b0: 3f18 523d ef28 323e ed75 3d3e be67 e33b
000001c0: 44f9 873d 20b8 833d 0048 cc3d 90fa 943d
000001d0: e2a7 65bd 1c0a 0e3c e072 5ebc b0e0 833d
000001e0: 3c52 81bd b737 3e3d 0188 293e 78f9 40bd
000001f0: 22fc 3e3e 2fa8 72bd 8a26 b53c 92e9 6dbd
-0.1059542 0.11705104 -0.07361261 -0.10152156 0.077540375 0.030836089 -0.2047401 0.11247775
0.00554426 0.0010016114 0.009989873 0.060479756 -0.14081523 -0.0057478608 0.11922907 -0.08220485
-0.17244676 0.024409287 0.038276374 -0.0890132 0.05646905 -0.12768203 0.0021802783 -0.05442085
-0.08748378 0.07386357 -0.09272245 0.02536872 -0.012331516 0.056544747 0.13703065 0.0836614
0.13251266 0.08335938 0.09836414 -0.028736396 0.051549528 -0.14978558 0.14057417 -0.08425118
0.18414554 0.13160811 -0.15020417 0.1005897 -0.018945184 -0.055028737 -0.0034379943 -0.05686669
0.11349723 0.024192512 -0.0033696273 0.09788109 0.14532807 -0.10916158 0.008030206 -0.0038463713
0.012610042 0.034046944 0.087185174 0.17399141 -0.041524727 0.18776357 0.14235877 0.006155283
-0.09310741 -0.16284227 -0.20004012 0.13052395 0.10132602 -0.040594656 -0.11887305 0.15896226
-0.019616153 -0.06473778 0.12007624 -0.02170153 -0.108523935 0.14916424 0.065197594 0.096945584
0.1265266 -0.12340497 -0.12729834 -0.094879925 0.109452486 -0.12190829 0.041608885 0.05801161
-0.0018301457 -0.036832444 0.10006479 0.06933821 0.15217865 -0.14249538 -0.044523478 -0.041490667
0.019363016 -0.18768403 0.031419873 0.19456467 0.07154615 0.1489223 -0.107480235 -0.16347966
0.075856015 -0.12374955 0.10786602 0.03913236 0.051292654 0.17398427 0.18502016 0.0069398573
0.066393405 0.064316034 0.099746704 0.072743535 -0.05606831 0.008669402 -0.013577193 0.0643934
-0.06314513 0.046439853 0.16555788 -0.047112912 0.18650869 -0.059242424 0.022113103 -0.058084078

fc2.weight f4 [64, 128]
00000000: 8fb5 97bd 80c8 4ebc 4fa3 8cbd 5e37 83bd
00000010: 7bd2 8abd 0ee3 333d e8a2 6dbd ff01 b13d
00000020: e366 b13d 8829 63bc 680b 2d3c d48e df3c
00000030: f5b8 983d 1240 d4bc 7245 003d 80ef 523a
00000040: 0e58 133d eb7e 99bd 20b1 3abb e0e8 e6bb
00000050: 99f1 8a3d 1fda 823d 0033 f039 2c69 b3bc
00000060: 80d5 87bc dbfb 963d 82e6 403d bebc 1b3d
00000070: ae86 7fbd d9d5 a9bd b78c 893d 5a35 8ebd
00000080: 78e8 b0bc 6e95 94bd 565d 40bd bc9b 8bbd
00000090: fad4 183d d7c5 b13d 70e9 c5bc 989b 3c3c
000000a0: 500f 78bc 8a51 633d a896 9cbd 2a37 a5bd
000000b0: 73e7 a43d 980d 43bd 1e40 aebd 1095 b63c
000000c0: 1213 2abd 2152 b43d 2b52 93bd bc65 8c3c
000000d0: d45e c13c c880 f93c 809c b83a 21b1 ac3d
000000e0: 62de 4b3d 5181 b2bd 3122 843d 7209 09bd
000000f0: c05e 5b3b 4cec 963c c1a0 823d c3c0 a33d
00000100: 60f1 e0bb 5ecd adbd 67f2 b23d bc07 90bd
00000110: d634 9cbd b9f6 3cbd 76d6 103d 9ae2 0a3d
00000120: 96ec 80bd 2aa9 343d 4971 ad3d cea1 82bd
00000130: 6d28 46bd 73b8 30bd 86ab 6abd 4099 c03a
00000140: 6095 7abb e75d 2cbd d2f3 5d3d de17 503d
00000150: 8011 b83a ae99 693d 2830 a73c 2033 69bd
00000160: 0030 4bbd a852 923c 66a9 28bd 5a75 71bd
00000170: 5a8d 18bd 68d7 17bd a76c 39bd a4ae b0bd
00000180: 4e55 283d 8d2a 34bd 6850 fc3c 2a08 07bd
00000190: fac0 54bd 3ffa 03bd 2e0e 6dbd 05e6 aa3d
000001a0: 59da 0ebd 0bc1 b33d 90b9 98bc 1be9 8a3d
000001b0: 1c27 9bbc 32e6 35bd e775 a73d a9c5 3dbd
000001c0: 4632 8abd 2874 c2bc 9ac2 1d3d 5d2a 903d
000001d0: 42e9 233d 6015 d83b 8009 a33c e436 c5bc
000001e0: d65d 133d 582c fa3c 6a00 a2bd 4035 333b
000001f0: 0085 75bd 5da6 a7bd 4d58 3bbd 8068 9cbc
00000200: 53d8 a9bc e534 bc3d bc74 0d3d 5091 11be
00000210: 1bf2 1bbd f48b 3b3d 0d61 39bc db36 043d
00000220: 20d1 ae3c c609 4c3d 8277 2f3d b496 43ba
00000230: aadd 3d3d c2e9 16bd 6d4a bf3d 8f87 58bd
00000240: c6a5 b0bd afe0 363d 2867 253c dfdb 9c3d
00000250: d231 b13d 87e4 b33d 8d5b 903d d214 a83d
00000260: 20bc fabb 02ec 6dbd abb0 bf3d 047b ab3c
00000270: 409c 363c d63f 393d 2093 65bd c99a 07bc
00000280: 538f 883d b950 9fbc 0678 b4bd a573 a4bc
00000290: b94b b83d 0043 3d3a ee61 9e3d 7d25 e3bc
000002a0: 1f51 21bd 1b4f 66bd aff5 933d 4910 04bc
000002b0: 9699 7b3d 1608 e3bc 6515 93bb 411b a43d
000002c0: 5004 efbc 90a7 37bc 9f47 b23d c0ec 28bd
000002d0: ac5a b8bb 2a9a 3ebc 5c8b cc3c 651a d4bc
000002e0: 2ec1 8abb 1213 6fbd 50b5 d43c 0549 833d
000002f0: 0ed9 6e3a 9adb 24bd 87cc 57bb 6694 29bd
00000300: 1f47 4e3d 40fa 35bd 1879 02bd d180 b13d
00000310: 9cd0 963c c01a e3bd 240f ca3c ecec 073d
00000320: 4818 1ebd 20b9 d6bb e026 9b3b 17a1 973d
00000330: acee 2cbd 708e 39be 40f8 a23b 8036 043b
00000340: 9ad2 af3c 149f 18bc 0ba9 3fbd 7876 5cbd
00000350: 7a93 13bd ea29 933c 5bcd 06bb ede3 57bd
00000360: 1887 903c fbc2 433d 8deb 5cbd ffd6 703c
00000370: eb35 aa3d ae9f efbd c01f efbb e010 37bd
00000380: f939 743c 649f b93c 6873 063e d842 35bd
00000390: 1f6e 20bd 7036 a93b 5ed8 bebc c20b e6bc
000003a0: e4e1 2a3d 75f2 42bc d9d3 983d 3b82 e23c
000003b0: ac5a 03bc bde4 993d f541 f3bc bfe8 103d
000003c0: 29f3 aa3d f2ce 27bd b0ba 163c 401c 583c
000003d0: c56e 88bd 6123 da3d 410d a03d b913 b23d
000003e0: e05e 90bb 60b4 e03d 97b3 9bbd 903c a2bc
000003f0: 7650 8f3d ec40 553d fee6 183d 29b4 973d
-0.074076764 -0.012621045 -0.06867086 -0.06407045 -0.06778427 0.043917708 -0.058016688 0.08642959
0.08662202 -0.013864882 0.0105618015 0.027289785 0.07457153 -0.025909457 0.03131623 0.00080465525
0.035972647 -0.07494911 -0.0028486922 -0.007046804 0.06784362 0.063892595 0.00045814365 -0.021900736
-0.016581297 0.07372256 0.04709483 0.038021795 -0.0623843 -0.08292741 0.06716292 -0.0694377
-0.021595225 -0.07255064 -0.046964012 -0.06816813 0.037312485 0.08680313 -0.024159163 0.011511706
-0.01514037 0.055497684 -0.07645923 -0.08067162 0.08051958 -0.047620386 -0.08508323 0.022287875
-0.041522093 0.08804727 -0.07193407 0.017138354 0.023604788 0.030456915 0.0014084727 0.08432222
0.049772628 -0.087160714 0.06451834 -0.033456273 0.0033473223 0.018423222 0.063783176 0.07995751
-0.0068647116 -0.08486436 0.08737641 -0.07032725 -0.07627265 -0.04613373 0.035360776 0.03390751
-0.06295125 0.04410664 0.08468873 -0.06378518 -0.048378397 -0.043144654 -0.057292484 0.001469411
-0.0038236007 -0.04208174 0.054187603 0.05080401 0.0014043301 0.057031326 0.020408705 -0.056933522
-0.049606323 0.01786168 -0.041177176 -0.058949806 -0.03724418 -0.03707066 -0.045269635 -0.0862706
0.041096978 -0.043985892 0.03080006 -0.03296677 -0.05194185 -0.032221075 -0.05787485 0.08344654
-0.0348762 0.087770544 -0.01864317 0.067827426 -0.018939547 -0.044408984 0.08176785 -0.04633108
-0.0674787 -0.023737028 0.038515665 0.0703933 0.040017374 0.006594345 0.01990199 -0.024074025
0.03597816 0.030538723 -0.07910235 0.0027344972 -0.05994129 -0.08186028 -0.045738507 -0.019092798
-0.020733034 0.09189776 0.034535155 -0.14215589 -0.038072687 0.045787767 -0.011314643 0.032278877
0.021339953 0.04981401 0.04283858 -0.0007461116 0.046353973 -0.036844023 0.093403675 -0.052863654
-0.08625369 0.04464787 0.010095395 0.076591246 0.086520806 0.087838225 0.07048712 0.08207096
-0.007651821 -0.058086403 0.093598686 0.020932682 0.011145651 0.045226894 -0.056048512 -0.00827665
0.06667962 -0.019447671 -0.08811955 -0.020074675 0.08998818 0.00072197616 0.07733522 -0.027727837
-0.039384004 -0.056227785 0.07224595 -0.008060523 0.061425768 -0.027713817 -0.0044886344 0.08013011
-0.029176861 -0.011209384 0.08705067 -0.041241407 -0.0056260433 -0.011633435 0.024968795 -0.025891492
-0.0042344546 -0.058367796 0.025965363 0.06410412 0.0009111323 -0.04024849 -0.0032928304 -0.04140129
0.050360795 -0.04442811 -0.031853765 0.08667148 0.01841002 -0.110890865 0.024665423 0.03318493
-0.038597375 -0.0065528303 0.004734859 0.07403772 -0.042219803 -0.18120742 0.0049734414 0.0020174086
0.021462727 -0.009315271 -0.04679207 -0.053823918 -0.036029316 0.017964322 -0.0020569179 -0.0527076
0.017642543 0.04779337 -0.053935576 0.014699697 0.08311065 -0.11700378 -0.007297486 -0.044693828
0.0149064 0.022659011 0.13129961 -0.0442532 -0.03916752 0.00516396 -0.023296531 -0.028081778
0.041719332 -0.011898627 0.07462282 0.02764999 -0.008017223 0.075143315 -0.029694537 0.035378214
0.0834716 -0.040968843 0.009199783 0.013190329 -0.066617526 0.10651279 0.07815028 0.08695168
-0.004405841 0.10971904 -0.076026134 -0.01980427 0.069977686 0.052063867 0.037329666 0.0740741

fc2.bias f4 [64]
00000000: 35cb a8bd 331a 023d 8ad6 1c3d d8e9 053d
00000010: 8230 163d a10e 4e3d 69cb 04bd 172a 5abd
00000020: da56 233d a89a 773d c7cd 2e3d 3320 a53d
00000030: bbed 9abd 6759 6ebd ede4 c23c 9fa5 debc
00000040: bde6 dc3c 54d6 153c 296e 003d 5301 8f3d
00000050: dcac 353d f448 1abd ef03 0c3d c569 a3b9
00000060: a05d 64bb ce98 d93c 7aaa d2bc f8f7 4bbd
00000070: d4bd 903d 80ce 44bb e03b 803c 068a a7bd
00000080: 0465 3fbd cfa9 89bd f7a0 7ebc 7818 a4bd
00000090: 196b 913d 637b 9ebc 6ce7 933d a01a bf3c
000000a0: 3f5f 8bbd 968e 96ba f7fb a23d bbd6 91bd
000000b0: 8cd6 983c ce64 883d f011 88bd e7d2 3ebd
000000c0: d4f1 df3c 7ff4 453c 801d 6fbd 6509 9b3d
000000d0: 5946 d33b e0eb 8d3c 59cc a83d adac 403c
000000e0: d9a8 99bd bd2f 46bd 9f98 10bd 93d7 8abd
000000f0: 0e55 86bd 88a6 9fbc 9506 20bd f5f3 69bd
-0.08241884 0.031763267 0.038290538 0.032693714 0.036667354 0.05030692 -0.03242055 -0.053262796
0.03987775 0.060450226 0.042676713 0.08062782 -0.07564875 -0.05819073 0.023790801 -0.027178584
0.026965493 0.009145338 0.031355057 0.069826744 0.044354305 -0.03766723 0.03418344 -0.00031168587
-0.0034845844 0.02656212 -0.025716055 -0.04979703 0.07067457 -0.003003031 0.01565355 -0.08180623
-0.046727195 -0.067218415 -0.015541307 -0.080124795 0.071005054 -0.019345945 0.072218746 0.023328125
-0.06805276 -0.0011486586 0.07958215 -0.07121035 0.018656991 0.06659852 -0.06644046 -0.04658785
0.027336992 0.012082218 -0.058377743 0.07570151 0.006447595 0.017324388 0.08242101 0.011759919
-0.07502908 -0.04838537 -0.0353018 -0.06779399 -0.06559192 -0.019488588 -0.039068777 -0.05711742

fc3.weight f4 [24, 64]
00000000: 8a4c a33d 3944 9c3d 44ec 113d b304 853c
00000010: c6af c5bd b5cd 48ba 1b9f 65bd 678c faba
00000020: d58c ebbd af32 7d3d 2d6a 213c 1459 a53d
00000030: 011f 363c 00b9 153c 823f 0ebb 828f dc3a
00000040: a1d4 833d ccad c13c 37fd c3bd 09ce c73d
00000050: 7188 b1bb 545e 0a3d 2a5b 383d f6bb c7bc
00000060: f88a 15bd 8318 7dbd 7505 9fbd 8679 823d
00000070: 1125 903d b71d 12be 8cf5 ca3d 1a2e afbd
00000080: 762b b03d 8ab9 e6bd 224b 973d 5fb8 b03d
00000090: ff5b 0c3c d608 d03d f42b 06be 844e 91bd
000000a0: 0d4b e53d bb2e 9e3c 945d 5c3d 08c5 96bd
000000b0: aafc bfbd fd16 36bd c40a df3d 8478 f03d
000000c0: d04e 333d 3960 9abd 6e80 3a3e 6563 cfbc
000000d0: 8ccc 2a3d 0ebb 35bd 6f17 cc3d fd80 b53d
000000e0: ea92 fabd 3267 a63d 58ec bcbd c692 c5bd
000000f0: d504 acbd 5d59 00be ead8 9c3d 7bfa a3bd
00000100: a0af b1bb 8819 2ebd ea7d bb3d f736 34bd
00000110: 7c1f 8f3d d836 cc3d 12b2 85bd 07c2 ffbd
00000120: d4fb 84bd 7d91 db3d da38 e7bd b06e 943c
00000130: 3a9c b6bc c876 6a3d 7090 a93d 5c43 323d
00000140: 4108 323d ac28 133c d7ec ef3c 6dbc 2dbd
00000150: 4616 83bd d03f 673c 5560 fbbd b34b 50bd
00000160: 76a2 ae3d 4b42 d2bd 01da c9bd 292c 44bb
00000170: c878 12bd e3ea 00be f869 bc3d 482e f03c
00000180: 7793 883d 8288 c13c 3e7a 97bd 770c e93d
00000190: cd54 8bbd 6552 03bc 1462 8b3d ec43 763d
000001a0: b756 a4bd 0332 343d 5cb5 f7bd e726 633d
000001b0: 0759 043d 8cd9 1bbd ba30 bc3d b06f 4f3d
000001c0: c08c 073c 1730 b63d 2493 923d 361a 89bd
000001d0: 57b4 a33d b9a4 03bd 81e5 2f3e 14f6 073e
000001e0: 175b 93bc 4822 ad3d a88a 8b3c 1220 df3d
000001f0: c564 45bd dde2 6fbd 59d2 74bb 15ae c63d
00000200: 4817 b03c ca6b 723e 767d ed3d e084 7c3c
00000210: e077 3ebd b4f4 553d 9cab 603d 0df4 b3bc
00000220: a7c2 c9bc 905e f2bd 06af dd3d fc95 b83d
00000230: be50 6fbd f6c5 ffbd 4d97 9b3d 2f7c aa3c
00000240: b9fe bc3c f062 1b3c 4b52 ee3d 5e51 aa3c
00000250: c92c d1bd 3e21 c9bd 46c7 da3d 1795 c63d
00000260: 5e09 b4bd a3e0 d9bd 714d 5fbd 891f f8bd
00000270: ba8a 8bbd 319f 113d e8d9 8dbc d00e a53c
00000280: b968 61bd bc25 f8bd a8a2 4b3d a329 2bbd
00000290: 58ff bcbc 6f4f d1bc fb26 093d 6e9b d1bd
000002a0: 82f0 6dbd 15dc bc3e 8a0e b0bd b9d6 31bd
000002b0: aba2 533d cb1f 94bc fc9b 98bd 60f4 70bd
000002c0: 9824 a0bd 0b6e cdbd e355 6e3d f133 b03d
000002d0: bd66 1ebe c0e3 c6bd e2ee 893e 458f 1cbe
000002e0: 9e97 f63b 4084 643b d037 3e3c 5758 dd3d
000002f0: d99f 3fbd f48b 32bc a812 e43d 708b 743d
00000300: a4d9 afbd c997 b139 920f dcbd ff41 13bd
00000310: c031 f5bd e630 af3d 1a77 493d b0f2 acbd
00000320: a41f e5bd cfca e73d 8c25 8f3c 0ecc 82bd
00000330: 819e 1a3d 9052 44bc b85a c9bd 03f3 583d
00000340: 1241 ef3d a3e2 313d 02b8 18bc d370 7b3d
00000350: 2f60 febd 28ea f83d 3bc8 84bd 015f d13d
00000360: b0fc 8f3c 59c2 1c3d eb0e 773d 79c6 c6bd
00000370: 5c66 91bc c0df f4bd 5010 3c3d 681d 4ebd
00000380: e316 b83d 98b7 833c 59d0 8bbd 821e 8fbd
00000390: 58d2 de3d b210 a83d 87b5 bb3c 9867 c7bc
000003a0: 520a 3a3d 5ce0 ddbd 2050 31bd b7d4 11bd
000003b0: f9f4 4a3d dafe 0abe d05f 61bc b0bf 9e3c
000003c0: be31 aa3d 5451 f5bd 8282 f5bc d3e3 ee3d
000003d0: 86ee 413d 5321 06be 1ce6 8d3e ec5f 80bd
000003e0: ef02 75bc 10a4 9b3c 0041 e7bc fe07 8cbd
000003f0: ab37 8ebd dda3 38bc 2556 8c3d ebe3 723d
0.07973583 0.076302 0.03562571 0.016237592 -0.09652667 -0.0007660047 -0.056059938 -0.001911533
-0.11501471 0.061815914 0.009851974 0.08073631 0.01111579 0.009138346 -0.0021705334 0.0016827437
0.0643704 0.023642443 -0.09569781 0.09756095 -0.0054178764 0.033781365 0.045008816 -0.024381619
-0.036509484 -0.061790954 -0.07764713 0.06370835 0.0703832 -0.14269148 0.099101156 -0.08553715
0.086020395 -0.112658575 0.07387377 0.08628916 0.008566855 0.10157935 -0.13102704 -0.07095054
0.111959554 0.019309392 0.05380018 -0.073617995 -0.09374364 -0.044455517 0.10890725 0.117417365
0.043776333 -0.07537884 0.18213055 -0.02531595 0.041698977 -0.044367842 0.09965407 0.08862493
-0.12235053 0.08125152 -0.092247665 -0.096471354 -0.08399359 -0.1253409 0.076585606 -0.0800676
-0.0054225475 -0.042504817 0.091548756 -0.04399773 0.06988427 0.09971398 -0.06528105 -0.1248818
-0.06493345 0.10721109 -0.112901405 0.018119186 -0.022291292 0.057242185 0.082795024 0.04352127
0.043464903 0.008981865 0.029287739 -0.042416025 -0.06400733 0.014114335 -0.12274233 -0.050853442
0.08527081 -0.10266551 -0.09856034 -0.0029933548 -0.035759717 -0.12589602 0.091998994 0.029318944
0.06668752 0.023624662 -0.07396363 0.113793306 -0.06803284 -0.00801525 0.06805816 0.06012337
-0.08024352 0.043993007 -0.120951384 0.055457022 0.032311466 -0.038049266 0.09188981 0.050643623
0.0082733035 0.08895891 0.07156971 -0.066944525 0.079933815 -0.032139514 0.17177393 0.13277465
-0.017987771 0.08453804 0.01703389 0.10894789 -0.048191804 -0.058565963 -0.0037356822 0.09701172
0.021495476 0.23673931 0.115961954 0.015412539 -0.04650104 0.05223532 0.05485116 -0.021966958
-0.02462895 -0.118344426 0.10824399 0.09012982 -0.05842661 -0.1248893 0.07597218 0.020811168
0.02307068 0.009484038 0.1163679 0.020790752 -0.1021362 -0.098207936 0.1068254 0.096964054
-0.08790849 -0.10638549 -0.054517213 -0.1211539 -0.06813569 0.035552207 -0.01731582 0.020148665
-0.055031512 -0.12116572 0.049715668 -0.041787755 -0.023070976 -0.025550572 0.03348444 -0.10234724
-0.058090694 0.3688666 -0.08596523 -0.043417666 0.051668804 -0.018081566 -0.07451627 -0.058826804
-0.0781948 -0.10030755 0.058187377 0.08603657 -0.15468879 -0.097114086 0.26940066 -0.15289028
0.0075253984 0.0034868866 0.011609986 0.10807865 -0.046783302 -0.010897625 0.11136371 0.05970329
-0.085864335 0.0003387316 -0.10745157 -0.03595161 -0.1197238 0.085542485 0.04918585 -0.084447265
-0.111876756 0.113179795 0.017473958 -0.063865766 0.037748817 -0.011982575 -0.09831756 0.05296613
0.11682333 0.04342903 -0.009321215 0.061386894 -0.12420689 0.12154037 -0.064835034 0.10223199
0.017576545 0.038271282 0.06031696 -0.097058244 -0.017749004 -0.119567394 0.045913994 -0.050321013
0.0898874 0.016078755 -0.068268485 -0.06988241 0.10879964 0.082063094 0.022913707 -0.02434139
0.04542 -0.10833809 -0.043289304 -0.03560325 0.04955003 -0.1357378 -0.013755754 0.019378513
0.08310269 -0.11978403 -0.029969458 0.11664548 0.047346614 -0.1309865 0.27714622 -0.06268296
-0.014954313 0.01899913 -0.028229237 -0.06837462 -0.069442116 -0.011269537 0.06852368 0.05929939

fc3.bias f4 [24]
00000000: e9ed eabd 5bba edba 0eca 8f3d f8da 2bbd
00000010: 6273 323c 3f2c ae3d 34ca 9e3d d83d 87bd
00000020: 0777 933d 7bf8 47bc e128 3c3e 0f9e b73b
00000030: 1669 ec3d eece 8f3d 762e d13d 53fc 3cbd
00000040: 8439 073c 0bdc e53d 098a 0ebe ff3b aa3d
00000050: 57be e63d 4ca6 9dbd 68da 91ba 1161 d53c
-0.11471159 -0.0018137203 0.07020961 -0.04195687 0.010891767 0.08504533 0.07753411 -0.06603593
0.07200437 -0.012205238 0.18374969 0.005603559 0.11543481 0.070218906 0.1021394 -0.046139073
0.008253459 0.112236105 -0.13919844 0.083122246 0.11266773 -0.07697734 -0.0011127712 0.026047261

exp_avg f4 [128, 24]
00000000: 9e37 8734 9e37 0735 bad3 4a35 9e37 8735
00000010: da04 a935 bad3 ca35 77a3 ec35 9e37 0736
00000020: a11e 1836 da04 2936 2eec 3936 bad3 4a36
00000030: 17bc 5b36 77a3 6c36 5388 7d36 9e37 8736
00000040: 1eac 8f36 a11e 9836 96cd 9d36 59aa bc36
00000050: 0947 d336 0947 d336 0947 d336 0947 d336
00000060: 5df2 d034 60ca f034 2151 0835 2a3d 1835
00000070: 7b29 2835 d914 3835 1202 4835 61ed 5735
00000080: 36d9 6735 70c5 7735 64d9 8335 5ece 8b35
00000090: 49c6 9335 f8ba 9b35 3cb0 a335 8ca6 ab35
000000a0: a89f b335 4892 bb35 8850 9335 039a 2b36
000000b0: 0539 1836 0539 1836 0539 1836 0539 1836
000000c0: d0aa 2ab4 d0aa aab4 ff01 00b5 d0aa 2ab5
000000d0: d953 55b5 ff01 80b5 ff53 95b5 d0aa aab5
000000e0: 3afd bfb5 d953 d5b5 5cab eab5 ff01 00b6
000000f0: a3aa 0ab6 ff53 15b6 40ff 1fb6 d0aa 2ab6
00000100: 9e54 35b6 3afd 3fb6 be10 56b6 5e4d 1bb6
00000110: 7d53 85b6 7d53 85b6 7d53 85b6 7d53 85b6
00000120: 2471 3cb6 8e16 6eb6 84dd 8fb6 67b0 a8b6
00000130: ea82 c1b6 9255 dab6 2628 f3b6 36fd 05b7
00000140: 9a66 12b7 d1cf 1eb7 0139 2bb7 a4a2 37b7
00000150: 5a0b 44b7 0876 50b7 0fdd 5cb7 b147 69b7
00000160: deaf 75b7 bc0c 81b7 3e81 87b7 99b6 9db7
00000170: 9e73 c4b7 9e73 c4b7 9e73 c4b7 9e73 c4b7
00000180: 77f2 df35 0fdf 3b36 72e2 8336 66d5 a936
00000190: 86c8 cf36 45bb f536 15d7 0d37 77d0 2037
000001a0: 2eca 3337 a6c3 4637 3cbd 5937 79b6 6c37
000001b0: 16b0 7f37 a854 8937 7cd1 9237 104e 9c37
000001c0: d4ca a537 d847 af37 b055 b737 6ca6 c737
000001d0: a9ea f737 a9ea f737 a9ea f737 a9ea f737
000001e0: 24a2 a633 24a2 2634 f2f2 7934 24a2 a634
000001f0: dc4a d034 f2f2 f934 cdcd 1135 24a2 2635
00000200: 9a76 3b35 dc4a 5035 c41e 6535 f2f2 7935
00000210: cd63 8735 cdcd 9135 ea37 9c35 24a2 a635
00000220: 5f0c b135 9a76 bb35 982e 0236 982e 0236
00000230: 982e 0236 982e 0236 982e 0236 982e 0236
00000240: a8c0 1a34 aef4 4b35 c49d b835 649f 0536
00000250: 8ff0 2e36 4443 5836 4ac9 8036 0e72 9536
00000260: 9e1a aa36 08c3 be36 906c d336 dd15 e836
00000270: 92bc fc36 89b2 0837 1807 1337 505b 1d37
00000280: 74af 2737 f203 3237 c0f9 3437 5ca4 5237
00000290: 8865 6f37 8865 6f37 8865 6f37 8865 6f37
000002a0: 5108 af34 3ade 2a35 a839 7e35 c2c8 a835
000002b0: b174 d235 1024 fc35 eee7 1236 dabf 2736
000002c0: 6a96 3c36 716c 5136 1b45 6636 551a 7b36
000002d0: 0ff6 8736 4263 9236 89cd 9c36 b638 a736
000002e0: afa9 b136 fe11 bc36 2e66 ee36 4fca 1037
000002f0: 71db 0237 71db 0237 71db 0237 71db 0237
00000300: 0000 0000 0000 0000 0000 0000 0000 0000
00000310: 0000 0000 0000 0000 0000 0000 0000 0000
00000320: 0000 0000 0000 0000 0000 0000 0000 0000
00000330: 0000 0000 0000 0000 0000 0000 0000 0000
00000340: 0000 0000 0000 0000 0000 0000 0000 0000
00000350: 0000 0000 0000 0000 0000 0000 0000 0000
00000360: 0000 0000 0000 0000 0000 0000 0000 0000
00000370: 0000 0000 0000 0000 0000 0000 0000 0000
00000380: 0000 0000 0000 0000 0000 0000 0000 0000
00000390: 0000 0000 0000 0000 0000 0000 0000 0000
000003a0: 0000 0000 0000 0000 0000 0000 0000 0000
000003b0: 0000 0000 0000 0000 0000 0000 0000 0000
000003c0: 0000 0000 0000 0000 0000 0000 0000 0000
000003d0: 0000 0000 0000 0000 0000 0000 0000 0000
000003e0: 0000 0000 0000 0000 0000 0000 0000 0000
000003f0: 0000 0000 0000 0000 0000 0000 0000 0000
2.5186176e-07 5.037235e-07 7.5558967e-07 1.007447e-06 1.2592893e-06 1.5111793e-06 1.7630945e-06 2.014894e-06
2.2667593e-06 2.5185786e-06 2.7704623e-06 3.0223587e-06 3.2743026e-06 3.526189e-06 3.777929e-06 4.029788e-06
4.281769e-06 4.5335187e-06 4.702898e-06 5.6226677e-06 6.2965596e-06 6.2965596e-06 6.2965596e-06 6.2965596e-06
3.8919362e-07 4.485073e-07 5.0782006e-07 5.671342e-07 6.264524e-07 6.857568e-07 7.450882e-07 8.0439173e-07
8.637029e-07 9.230198e-07 9.82353e-07 1.0416368e-06 1.1010062e-06 1.1602815e-06 1.2195737e-06 1.2788964e-06
1.3383005e-06 1.3975159e-06 1.0975791e-06 2.5570632e-06 2.2682955e-06 2.2682955e-06 2.2682955e-06 2.2682955e-06
-1.5894625e-07 -3.178925e-07 -4.768662e-07 -6.35785e-07 -7.94707e-07 -9.537324e-07 -1.1125811e-06 -1.27157e-06
-1.4304308e-06 -1.589414e-06 -1.7484231e-06 -1.9074648e-06 -2.0662926e-06 -2.2251622e-06 -2.3841421e-06 -2.54314e-06
-2.7020355e-06 -2.8608615e-06 -3.189823e-06 -2.3141833e-06 -3.973428e-06 -3.973428e-06 -3.973428e-06 -3.973428e-06
-2.808004e-06 -3.5477892e-06 -4.28752e-06 -5.027326e-06 -5.7670886e-06 -6.506868e-06 -7.2466382e-06 -7.986373e-06
-8.726167e-06 -9.46592e-06 -1.02056665e-05 -1.0945518e-05 -1.1685153e-05 -1.2425247e-05 -1.3164491e-05 -1.3904574e-05
-1.4644085e-05 -1.5383928e-05 -1.6153437e-05 -1.8800887e-05 -2.341886e-05 -2.341886e-05 -2.341886e-05 -2.341886e-05
1.6685361e-06 2.7995009e-06 3.930466e-06 5.0614353e-06 6.1924247e-06 7.32337e-06 8.454333e-06 9.58528e-06
1.0716305e-05 1.1847273e-05 1.29782675e-05 1.4109181e-05 1.5240183e-05 1.6371094e-05 1.7502105e-05 1.8633e-05
1.9763982e-05 2.089508e-05 2.1855201e-05 2.3800145e-05 2.9553967e-05 2.9553967e-05 2.9553967e-05 2.9553967e-05
7.7594706e-08 1.5518941e-07 2.3278315e-07 3.1037882e-07 3.8797486e-07 4.655663e-07 5.431619e-07 6.2075765e-07
6.9835517e-07 7.7594973e-07 8.535392e-07 9.311326e-07 1.008733e-06 1.0863238e-06 1.1639179e-06 1.2415153e-06
1.3191128e-06 1.3967103e-06 1.939863e-06 1.939863e-06 1.939863e-06 1.939863e-06 1.939863e-06 1.939863e-06
1.4412456e-07 7.597945e-07 1.3754984e-06 1.9911322e-06 2.6068044e-06 3.2225662e-06 3.8381304e-06 4.4538237e-06
5.0694935e-06 5.685146e-06 6.3009284e-06 6.916684e-06 7.5321377e-06 8.1478e-06 8.763534e-06 9.37919e-06
9.9948265e-06 1.0610545e-05 1.07869855e-05 1.2555243e-05 1.426915e-05 1.426915e-05 1.426915e-05 1.426915e-05
3.260234e-07 6.365332e-07 9.4706274e-07 1.2575404e-06 1.5680181e-06 1.8785959e-06 2.1890696e-06 2.4996612e-06
2.8101736e-06 3.1206548e-06 3.4312895e-06 3.7417242e-06 4.0519585e-06 4.362694e-06 4.6730897e-06 4.98359e-06
5.294765e-06 5.604931e-06 7.104848e-06 8.6301725e-06 7.7996965e-06 7.7996965e-06 7.7996965e-06 7.7996965e-06
0.0 0.0 0.0 0.0 0.0 0.0 0.0 0.0
0.0 0.0 0.0 0.0 0.0 0.0 0.0 0.0
0.0 0.0 0.0 0.0 0.0 0.0 0.0 0.0
0.0 0.0 0.0 0.0 0.0 0.0 0.0 0.0
0.0 0.0 0.0 0.0 0.0 0.0 0.0 0.0
0.0 0.0 0.0 0.0 0.0 0.0 0.0 0.0
0.0 0.0 0.0 0.0 0.0 0.0 0.0 0.0
0.0 0.0 0.0 0.0 0.0 0.0 0.0 0.0

exp_avg_sq f4 [128, 24]
00000000: a1f3 1533 a1f3 1534 18b2 a834 a1f3 1535
00000010: 9d4c 6a35 18b2 a835 f79c e535 a1f3 1536
00000020: 50c8 3d36 9d4c 6a36 55c0 8d36 18b2 a836
00000030: 92fb c536 f79c e536 28cb 0337 a1f3 1537
00000040: f847 2937 50c8 3d37 6144 5c37 4be3 8437
00000050: db0b b737 db0b b737 db0b b737 db0b b737
00000060: 04b2 5732 555f 0733 8f76 8333 f14a da33
00000070: 9216 2434 4c8e 6634 7246 9a34 0009 c734
00000080: 118f f934 23ec 1835 9bf2 3735 a6da 5935
00000090: 82a4 7e35 fb27 9335 8f6e a835 eb25 bf35
000000a0: 3c4e d735 63e7 f035 fc9c 0a36 978b 2136
000000b0: 7a33 6e36 7a33 6e36 7a33 6e36 7a33 6e36
000000c0: 18d5 c633 e72d b134 ca92 4335 17e7 ac35
000000d0: 46d2 0636 f000 4236 afff 8336 ec66 ac36
000000e0: 0f36 da36 a2b6 0637 2b06 2337 a509 4237
000000f0: fec0 6337 3b16 8437 00a6 9737 a68f ac37
00000100: 42d3 c237 f570 da37 b48c fd37 a4ea 1838
00000110: bd80 5238 bd80 5238 bd80 5238 bd80 5238
00000120: 9bf9 3a34 371b 0935 3d7c 8b35 3a2b ec35
00000130: 344d 3336 df64 7d36 6a2e aa36 581a dc36
00000140: 3c3b 0a37 41a1 2937 4c3f 4c37 7815 7237
00000150: c191 8d37 d9b4 a337 1074 bb37 2bcf d437
00000160: 46c6 ef37 b82c 0638 6b04 1c38 d129 4038
00000170: b82e 8438 b82e 8438 b82e 8438 b82e 8438
00000180: 2eac 5e34 dc47 2335 034d a735 7768 0e36
00000190: 9a17 5936 2eda 9936 291f cf36 662d 0637
000001a0: a0c6 2837 185b 4f37 ffea 7937 243b 9437
000001b0: 5b7e ad37 4cbf c837 dbfd e537 199d 0238
000001c0: ff39 1338 edd5 2438 35d5 3d38 71c9 6338
000001d0: cca9 a138 cca9 a138 cca9 a138 cca9 a138
000001e0: 7946 7d33 312b 3234 936d b834 58d8 1e35
000001f0: 826f 7435 447e ae35 603f ec35 b2bd 1936
00000200: 3919 4236 fd31 6f36 1484 9036 d5cd ab36
00000210: 6f76 c936 7a7d e936 b5f1 0537 0554 1837
00000220: a0e5 2b37 afa6 4037 32f6 5e37 cad2 8537
00000230: 41bc ba37 41bc ba37 41bc ba37 41bc ba37
00000240: ea3a 6333 fc1a 1d34 42e6 9b34 c638 0235
00000250: b817 4435 e2c7 8935 ac50 b835 06a6 ed35
00000260: 1ae4 1436 595b 3636 ee38 5b36 84be 8136
00000270: 9493 9736 f21b af36 5757 c836 0046 e336
00000280: cfe7 ff36 5e1e 0f37 746a 2637 6f2f 4937
00000290: 5afb 8d37 5afb 8d37 5afb 8d37 5afb 8d37
000002a0: e138 1433 bcf6 f633 f7af 8334 2d5e e434
000002b0: ece3 2f35 e3f6 7a35 deb3 a935 f69a dc35
000002c0: a018 0b36 3e3b 2b36 39b5 4e36 bb86 7536
000002d0: f7d7 8f36 3398 a636 2304 bf36 c51b d936
000002e0: 45df f436 3d27 0937 835e 2037 1dc1 3e37
000002f0: 799c 8537 799c 8537 799c 8537 799c 8537
00000300: 0000 0000 0000 0000 0000 0000 0000 0000
00000310: 0000 0000 0000 0000 0000 0000 0000 0000
00000320: 0000 0000 0000 0000 0000 0000 0000 0000
00000330: 0000 0000 0000 0000 0000 0000 0000 0000
00000340: 0000 0000 0000 0000 0000 0000 0000 0000
00000350: 0000 0000 0000 0000 0000 0000 0000 0000
00000360: 0000 0000 0000 0000 0000 0000 0000 0000
00000370: 0000 0000 0000 0000 0000 0000 0000 0000
00000380: 0000 0000 0000 0000 0000 0000 0000 0000
00000390: 0000 0000 0000 0000 0000 0000 0000 0000
000003a0: 0000 0000 0000 0000 0000 0000 0000 0000
000003b0: 0000 0000 0000 0000 0000 0000 0000 0000
000003c0: 0000 0000 0000 0000 0000 0000 0000 0000
000003d0: 0000 0000 0000 0000 0000 0000 0000 0000
000003e0: 0000 0000 0000 0000 0000 0000 0000 0000
000003f0: 0000 0000 0000 0000 0000 0000 0000 0000
3.4913345e-08 1.3965338e-07 3.142202e-07 5.586135e-07 8.728328e-07 1.2568808e-06 1.7107512e-06 2.234454e-06
2.8279792e-06 3.4913312e-06 4.224518e-06 5.027523e-06 5.900344e-06 6.843005e-06 7.8555095e-06 8.937816e-06
1.00899415e-05 1.1311917e-05 1.3128943e-05 1.5841468e-05 2.182082e-05 2.182082e-05 2.182082e-05 2.182082e-05
1.2555123e-08 3.151884e-08 6.1217285e-08 1.0165048e-07 1.5281901e-07 2.1472187e-07 2.873599e-07 3.7073187e-07
4.648396e-07 5.6968037e-07 6.852585e-07 8.1156975e-07 9.4861764e-07 1.0963989e-06 1.2549152e-06 1.4241645e-06
1.6041517e-06 1.7948736e-06 2.065498e-06 2.4072122e-06 3.5494727e-06 3.5494727e-06 3.5494727e-06 3.5494727e-06
9.258855e-08 3.3002217e-07 7.2856767e-07 1.2882255e-06 2.0089951e-06 2.8908798e-06 3.9338697e-06 5.137981e-06
6.5031995e-06 8.029545e-06 9.716993e-06 1.1565547e-05 1.3575189e-05 1.5745978e-05 1.8077902e-05 2.057089e-05
2.3224977e-05 2.6040225e-05 3.022547e-05 3.645815e-05 5.01878e-05 5.01878e-05 5.01878e-05 5.01878e-05
1.7413406e-07 5.107608e-07 1.0392465e-06 1.7595951e-06 2.6718017e-06 3.7758653e-06 5.071798e-06 6.5595777e-06
8.239233e-06 1.011073e-05 1.2174085e-05 1.4429323e-05 1.6876382e-05 1.9515328e-05 2.2346183e-05 2.536884e-05
2.8583348e-05 3.1989737e-05 3.7197413e-05 4.581531e-05 6.3029525e-05 6.3029525e-05 6.3029525e-05 6.3029525e-05
2.0738e-07 6.08268e-07 1.2464883e-06 2.1220455e-06 3.2349258e-06 4.585155e-06 6.1727083e-06 7.997593e-06
1.0059826e-05 1.2359371e-05 1.4896271e-05 1.7670514e-05 2.0682046e-05 2.3930937e-05 2.7417138e-05 3.1140724e-05
3.5101544e-05 3.929988e-05 4.5259676e-05 5.4308624e-05 7.7087054e-05 7.7087054e-05 7.7087054e-05 7.7087054e-05
5.8970247e-08 1.6593255e-07 3.4352396e-07 5.917441e-07 9.105935e-07 1.3000758e-06 1.7601815e-06 2.2909194e-06
2.8922934e-06 3.5642872e-06 4.3069103e-06 5.120159e-06 6.0040543e-06 6.9585485e-06 7.983695e-06 9.079468e-06
1.0245858e-05 1.1482901e-05 1.3289553e-05 1.5952992e-05 2.226059e-05 2.226059e-05 2.226059e-05 2.226059e-05
5.2906138e-08 1.4631581e-07 2.9038534e-07 4.851139e-07 7.3050205e-07 1.0265469e-06 1.3732547e-06 1.7706195e-06
2.2186491e-06 2.7173285e-06 3.266668e-06 3.8666785e-06 4.517331e-06 5.2186597e-06 5.970632e-06 6.7732763e-06
7.6265783e-06 8.530535e-06 9.919157e-06 1.1991578e-05 1.6925555e-05 1.6925555e-05 1.6925555e-05 1.6925555e-05
3.4510666e-08 1.15001484e-07 2.4528683e-07 4.253683e-07 6.552425e-07 9.3491525e-07 1.264383e-06 1.6436377e-06
2.0726948e-06 2.551547e-06 3.0801878e-06 3.6586268e-06 4.2868737e-06 4.964904e-06 5.692725e-06 6.4703368e-06
7.2977587e-06 8.174972e-06 9.558748e-06 1.1369845e-05 1.5927699e-05 1.5927699e-05 1.5927699e-05 1.5927699e-05
0.0 0.0 0.0 0.0 0.0 0.0 0.0 0.0
0.0 0.0 0.0 0.0 0.0 0.0 0.0 0.0
0.0 0.0 0.0 0.0 0.0 0.0 0.0 0.0
0.0 0.0 0.0 0.0 0.0 0.0 0.0 0.0
0.0 0.0 0.0 0.0 0.0 0.0 0.0 0.0
0.0 0.0 0.0 0.0 0.0 0.0 0.0 0.0
0.0 0.0 0.0 0.0 0.0 0.0 0.0 0.0
0.0 0.0 0.0 0.0 0.0 0.0 0.0 0.0

exp_avg f4 [128]
00000000: e037 8734 53d8 c233 52ab 2ab4 cd74 7bb5
00000010: f6aa 9e35 24a2 a633 aa36 1935 2f7f a734
00000020: 0000 0000 0000 0000 0000 0000 1a31 2db3
00000030: 0000 0000 85fc 3734 3124 9ab4 0000 0000
00000040: 75aa 1035 1eff b4b3 0000 0000 7d6a e0b4
00000050: 7885 cb34 0000 0000 0000 0000 c5b8 4db5
00000060: 0000 0000 2225 21b5 d0ec 0fb5 10c5 5f33
00000070: 0000 0000 95be 90b3 3237 1b34 4212 8a35
00000080: 0000 0000 77da aa34 eb0f 4936 8888 09b5
00000090: 20fd 1534 0000 0000 3bd9 7d34 be2e 9634
000000a0: 261e 1335 f8f8 d432 4720 4db5 18ee 9135
000000b0: c78f e4b4 0000 0000 a0c6 52b4 0000 0000
000000c0: 0000 0000 0000 0000 60fc f9b4 0400 0000
000000d0: 14ac abb5 24da 8734 0000 0000 a65b f134
000000e0: 7c48 2cb4 bac9 5135 0000 0000 0000 0000
000000f0: b222 2fb5 267f 3335 e743 37b5 1898 81b4
00000100: 2e1d 3b35 0000 0000 0000 0000 0000 0000
00000110: 0000 0000 26a8 22b3 9dd9 4534 0400 0000
00000120: d6a1 7bb4 0000 0000 0000 0000 0000 0000
00000130: 0400 0000 f762 57b5 0400 0000 0000 0000
00000140: 0400 0000 4678 b533 0400 0000 0000 0000
00000150: 0000 0000 f7ec 9a33 0400 0000 c92d 2835
00000160: 0000 0000 4e8d 4cb5 bf4e bd34 94e4 1835
00000170: 0000 0000 0785 5eb3 0000 0000 c7f0 d833
00000180: 27a9 cd34 0000 0000 30a0 05b4 0000 0000
00000190: 7808 d432 0000 0000 0400 0000 bbcb b733
000001a0: 4a68 96b5 0400 0000 0000 0000 3647 dc33
000001b0: df18 86b4 d2cc 0a33 a746 d434 c1c7 5d34
000001c0: 0000 0000 0000 0000 0000 0000 0000 0000
000001d0: 8d7d 25b5 760c 7bb4 0000 0000 0000 0000
000001e0: 0000 0000 0e61 f433 1491 7b34 0000 0000
000001f0: e03b c1b0 972b 04b5 68b0 16b5 1722 48b5
2.5186364e-07 9.073178e-08 -1.589481e-07 -9.3674754e-07 1.1821674e-06 7.7594706e-08 5.707649e-07 3.1198712e-07
0.0 0.0 0.0 -4.032436e-08 0.0 1.7135069e-07 -2.8711068e-07 0.0
5.389223e-07 -8.428309e-08 0.0 -4.1800732e-07 3.7908808e-07 0.0 0.0 -7.6637326e-07
0.0 -6.003121e-07 -5.361626e-07 5.210046e-08 0.0 -6.740189e-08 1.445558e-07 1.0287115e-06
0.0 3.1823922e-07 2.99606e-06 -5.1235156e-07 1.3968793e-07 0.0 2.3641489e-07 2.7973687e-07
5.480564e-07 2.4793266e-08 -7.641542e-07 1.0872636e-06 -4.257292e-07 0.0 -1.9630033e-07 0.0
0.0 0.0 -4.656349e-07 6e-45 -1.2790574e-06 2.5304428e-07 0.0 4.495643e-07
-1.6045118e-07 7.815212e-07 0.0 0.0 -6.524307e-07 6.686772e-07 -6.8271623e-07 -2.4138785e-07
6.970539e-07 0.0 0.0 0.0 0.0 -3.7871494e-08 1.8426222e-07 6e-45
-2.3435072e-07 0.0 0.0 0.0 6e-45 -8.0237754e-07 6e-45 0.0
6e-45 8.450347e-08 6e-45 0.0 0.0 7.2142875e-08 6e-45 6.2651503e-07
0.0 -7.620155e-07 3.526129e-07 5.695704e-07 0.0 -5.180939e-08 0.0 1.0102081e-07
3.83073e-07 0.0 -1.2444866e-07 0.0 2.46839e-08 0.0 6e-45 8.55866e-08
-1.1206223e-06 6e-45 0.0 1.02575015e-07 -2.497754e-07 3.2316912e-08 3.9539484e-07 2.0654899e-07
0.0 0.0 0.0 0.0 -6.164999e-07 -2.338073e-07 0.0 0.0
0.0 1.13797896e-07 2.3428976e-07 0.0 -1.4059616e-09 -4.9237264e-07 -5.613606e-07 -7.4555413e-07

exp_avg_sq f4 [128]
00000000: a4f3 1533 7522 c331 9a71 ac33 8091 d833
00000010: 3d6f 0434 32f9 1833 8a9f e832 98e8 da32
00000020: 0000 0000 0000 0000 0000 0000 dc97 b032
00000030: 0000 0000 977e 8832 7936 7033 0000 0000
00000040: c208 1a33 a344 1033 0000 0000 eca6 c732
00000050: 4ed3 f332 0000 0000 0000 0000 66ab cf32
00000060: 0000 0000 5932 bd32 9fce 1732 a5c0 b332
00000070: 0000 0000 eb85 2033 fbea 0433 1fa4 5934
00000080: 0000 0000 8361 9833 db1e d733 6747 1d32
00000090: 14bc 8a31 0000 0000 1bcd 4532 99eb 2e32
000000a0: b87a 2332 5560 2333 f91e 2e34 99a2 9133
000000b0: 733b 9633 0000 0000 8dd8 8c32 0000 0000
000000c0: 0000 0000 0000 0000 b86c 4432 0663 f62f
000000d0: 8be2 2834 b05e ed32 0000 0000 c7ad 5932
000000e0: 33e5 fe31 6ab9 ca33 0000 0000 0000 0000
000000f0: ded9 3a33 3a12 8d33 e36f 3233 c18f 4933
00000100: 0419 8732 0000 0000 0000 0000 0000 0000
00000110: 0000 0000 c697 7530 879b e132 ebb0 0b31
00000120: cd4b a932 0000 0000 0000 0000 0000 0000
00000130: 53be 8c2c 04ba e432 f2cd ef2f 0000 0000
00000140: 8ebb 2532 911b 7d32 6a2d b92d 0000 0000
00000150: 0000 0000 bab2 bc31 58ca 7f31 e1b2 6c32
00000160: 0000 0000 23ad 5d32 1e1c 0033 794c 1333
00000170: 0000 0000 acfc bc2f 0000 0000 a74b 9d31
00000180: 7685 0433 0000 0000 f7a5 8b32 0000 0000
00000190: 1d00 d82f 0000 0000 f34e e630 4b38 5132
000001a0: 4fdc a334 33ca e12c 0000 0000 e35d d532
000001b0: c9df de32 b466 c331 4be8 b432 0afa a432
000001c0: 0000 0000 0000 0000 0000 0000 0000 0000
000001d0: b1d5 ba32 6b9e 5a32 0000 0000 0000 0000
000001e0: 0000 0000 cfa4 9733 4436 2a32 0000 0000
000001f0: 7c7d 1032 e549 7133 2610 0f33 e2a0 cd32
3.4913356e-08 5.6791642e-09 8.030038e-08 1.008475e-07 1.2333926e-07 3.56169e-08 2.7080905e-08 2.5484312e-08
0.0 0.0 0.0 2.0558154e-08 0.0 1.589005e-08 5.5928897e-08 0.0
3.5863884e-08 3.3590037e-08 0.0 2.3242556e-08 2.8385013e-08 0.0 0.0 2.4175915e-08
0.0 2.2025391e-08 8.836337e-09 2.0925947e-08 0.0 3.73747e-08 3.094736e-08 2.0269407e-07
0.0 7.095789e-08 1.001733e-07 9.154838e-09 4.0377106e-09 0.0 1.1513545e-08 1.0181702e-08
9.515752e-09 3.803901e-08 1.621628e-07 6.781665e-08 6.995733e-08 0.0 1.6396621e-08 0.0
0.0 0.0 1.1433421e-08 4.48175e-10 1.5728635e-07 2.763349e-08 0.0 1.2670575e-08
7.41843e-09 9.4400846e-08 0.0 0.0 4.350465e-08 6.5691395e-08 4.1545615e-08 4.6929703e-08
1.5727444e-08 0.0 0.0 0.0 0.0 8.9346164e-10 2.6264173e-08 2.0327728e-09
1.970866e-08 0.0 0.0 0.0 4.0001696e-12 2.6627283e-08 4.362018e-10 0.0
9.646909e-09 1.4732806e-08 2.1052233e-11 0.0 0.0 5.491839e-09 3.7222403e-09 1.377768e-08
0.0 1.290326e-08 2.9827895e-08 3.4295656e-08 0.0 3.4376535e-10 0.0 4.577902e-09
3.0855027e-08 0.0 1.6257202e-08 0.0 3.9290252e-10 0.0 1.6757141e-09 1.2178201e-08
3.0521412e-07 6.4173332e-12 0.0 2.4839158e-08 2.5945967e-08 5.686923e-09 2.1060393e-08 1.9205817e-08
0.0 0.0 0.0 0.0 2.1750425e-08 1.272529e-08 0.0 0.0
0.0 7.061464e-08 9.907641e-09 0.0 8.410435e-09 5.6179392e-08 3.330947e-08 2.3938302e-08

exp_avg f4 [64, 128]
00000000: 0000 0000 0000 0000 0000 0000 0000 0000
00000010: 0000 0000 0000 0000 0000 0000 0000 0000
00000020: 0000 0000 0000 0000 0000 0000 0000 0000
00000030: 0000 0000 0000 0000 0000 0000 0000 0000
00000040: 0000 0000 0000 0000 0000 0000 0000 0000
00000050: 0000 0000 0000 0000 0000 0000 0000 0000
00000060: 0000 0000 0000 0000 0000 0000 0000 0000
00000070: 0000 0000 0000 0000 0000 0000 0000 0000
00000080: 0000 0000 0000 0000 0000 0000 0000 0000
00000090: 0000 0000 0000 0000 0000 0000 0000 0000
000000a0: 0000 0000 0000 0000 0000 0000 0000 0000
000000b0: 0000 0000 0000 0000 0000 0000 0000 0000
000000c0: 0000 0000 0000 0000 0000 0000 0000 0000
000000d0: 0000 0000 0000 0000 0000 0000 0000 0000
000000e0: 0000 0000 0000 0000 0000 0000 0000 0000
000000f0: 0000 0000 0000 0000 0000 0000 0000 0000
00000100: 0000 0000 0000 0000 0000 0000 0000 0000
00000110: 0000 0000 0000 0000 0000 0000 0000 0000
00000120: 0000 0000 0000 0000 0000 0000 0000 0000
00000130: 0000 0000 0000 0000 0000 0000 0000 0000
00000140: 0000 0000 0000 0000 0000 0000 0000 0000
00000150: 0000 0000 0000 0000 0000 0000 0000 0000
00000160: 0000 0000 0000 0000 0000 0000 0000 0000
00000170: 0000 0000 0000 0000 0000 0000 0000 0000
00000180: 0000 0000 0000 0000 0000 0000 0000 0000
00000190: 0000 0000 0000 0000 0000 0000 0000 0000
000001a0: 0000 0000 0000 0000 0000 0000 0000 0000
000001b0: 0000 0000 0000 0000 0000 0000 0000 0000
000001c0: 0000 0000 0000 0000 0000 0000 0000 0000
000001d0: 0000 0000 0000 0000 0000 0000 0000 0000
000001e0: 0000 0000 0000 0000 0000 0000 0000 0000
000001f0: 0000 0000 0000 0000 0000 0000 0000 0000
00000200: 85c8 66b7 542c 35b5 6e69 75b5 50cb bab6
00000210: b071 27b8 b0b0 6eb3 d2d5 99b7 76e0 97b7
00000220: 0000 0000 0000 0000 0000 0000 040a 5db7
00000230: 0000 0000 257e 0cb7 5947 15b7 0000 0000
00000240: 2edf cfb6 28c3 fdb6 0000 0000 dcb3 25b7
00000250: 1cd0 92b7 0000 0000 0000 0000 59fc 62b7
00000260: 0000 0000 829b c5b6 7978 5eb7 5d84 86b6
00000270: 0000 0000 a29a 8eb7 fac5 1cb7 70c3 66b7
00000280: 0000 0000 ee47 9bb7 ed1e 1fb5 a4b4 0eb7
00000290: 2417 b0b7 0000 0000 20f6 f2b6 0567 a5b5
000002a0: feea b1b5 9564 a0b7 80ed 16b8 4161 f9b5
000002b0: e6d0 d0b6 0000 0000 1d2e 4eb7 0000 0000
000002c0: 0000 0000 0000 0000 4816 47b7 0000 0000
000002d0: b733 26b7 d607 c6b7 0000 0000 0119 65b5
000002e0: eab4 f5b7 b1ad e1b7 0000 0000 0000 0000
000002f0: f2c5 00b7 c8e7 a7b7 eb86 3bb7 3e4e 1cb7
00000300: 7274 cfb6 0000 0000 0000 0000 0000 0000
00000310: 0000 0000 17ae a2a4 bf0d 40b5 0000 0000
00000320: 6821 3fb6 0000 0000 0000 0000 0000 0000
00000330: 0400 0000 691a 77b6 0000 0000 0000 0000
00000340: 0400 0000 b67c 5ab6 0400 0000 0000 0000
00000350: 0000 0000 4881 dbb7 0400 0080 e346 09b7
00000360: 0000 0000 9725 e1b5 10da 5db7 a019 0eb7
00000370: 0000 0000 0400 0000 0000 0000 3382 91b4
00000380: 3eeb c9b6 0000 0000 cc0a 14b4 0000 0000
00000390: 0400 0000 0000 0000 0400 0000 cdc0 02b6
000003a0: 4198 15b8 0400 0000 0000 0000 9415 90b7
000003b0: 4969 15b7 460f 8ab7 76d2 1fb7 5895 a6b7
000003c0: 0000 0000 0000 0000 0000 0000 0000 0000
000003d0: e0f5 1db7 e89a 71b7 0000 0000 0000 0000
000003e0: 0000 0000 6df6 5db7 1601 bcb7 0000 0000
000003f0: 25d4 8db7 3154 57b7 1c51 84b7 c1af 9cb5
0.0 0.0 0.0 0.0 0.0 0.0 0.0 0.0
0.0 0.0 0.0 0.0 0.0 0.0 0.0 0.0
0.0 0.0 0.0 0.0 0.0 0.0 0.0 0.0
0.0 0.0 0.0 0.0 0.0 0.0 0.0 0.0
0.0 0.0 0.0 0.0 0.0 0.0 0.0 0.0
0.0 0.0 0.0 0.0 0.0 0.0 0.0 0.0
0.0 0.0 0.0 0.0 0.0 0.0 0.0 0.0
0.0 0.0 0.0 0.0 0.0 0.0 0.0 0.0
0.0 0.0 0.0 0.0 0.0 0.0 0.0 0.0
0.0 0.0 0.0 0.0 0.0 0.0 0.0 0.0
0.0 0.0 0.0 0.0 0.0 0.0 0.0 0.0
0.0 0.0 0.0 0.0 0.0 0.0 0.0 0.0
0.0 0.0 0.0 0.0 0.0 0.0 0.0 0.0
0.0 0.0 0.0 0.0 0.0 0.0 0.0 0.0
0.0 0.0 0.0 0.0 0.0 0.0 0.0 0.0
0.0 0.0 0.0 0.0 0.0 0.0 0.0 0.0
-1.3755755e-05 -6.749226e-07 -9.142303e-07 -5.5669007e-06 -3.9921782e-05 -5.557439e-08 -1.833859e-05 -1.8105125e-05
0.0 0.0 0.0 -1.3174958e-05 0.0 -8.374021e-06 -8.897704e-06 0.0
-6.1950623e-06 -7.5627067e-06 0.0 -9.876643e-06 -1.7501465e-05 0.0 0.0 -1.3529404e-05
0.0 -5.889161e-06 -1.3260281e-05 -4.0089203e-06 0.0 -1.6999726e-05 -9.34442e-06 -1.3754572e-05
0.0 -1.8510935e-05 -5.927712e-07 -8.505918e-06 -2.099161e-05 0.0 -7.2408147e-06 -1.2323441e-06
-1.3255919e-06 -1.9120323e-05 -3.5983976e-05 -1.858025e-06 -6.223202e-06 0.0 -1.2289293e-05 0.0
0.0 0.0 -1.1866512e-05 0.0 -9.906412e-06 -2.3607088e-05 0.0 -8.5345533e-07
-2.929052e-05 -2.6902972e-05 0.0 0.0 -7.675482e-06 -2.0015883e-05 -1.1177482e-05 -9.316542e-06
-6.1826368e-06 0.0 0.0 0.0 0.0 -7.055122e-17 -7.1545577e-07 0.0
-2.8480663e-06 0.0 0.0 0.0 6e-45 -3.682124e-06 0.0 0.0
6e-45 -3.2557123e-06 6e-45 0.0 0.0 -2.6167036e-05 -6e-45 -8.182341e-06
0.0 -1.6774746e-06 -1.3223398e-05 -8.469826e-06 0.0 6e-45 0.0 -2.7103087e-07
-6.0176526e-06 0.0 -1.3787502e-07 0.0 6e-45 0.0 6e-45 -1.9483734e-06
-3.5666166e-05 6e-45 0.0 -1.7176186e-05 -8.905606e-06 -1.6457994e-05 -9.52614e-06 -1.9858286e-05
0.0 0.0 0.0 0.0 -9.4151765e-06 -1.4400786e-05 0.0 0.0
0.0 -1.3230002e-05 -2.2411852e-05 0.0 -1.6907297e-05 -1.2834601e-05 -1.5773396e-05 -1.1674057e-06
