models/RaceModels/FINAL_reg_pos_coef_3copies_1to5_1HL_mse/model.pt (torch, 366639 bytes, 18 tensors)

fc1.weight f4 [128, 144]
00000000: e49f dd3b f10f bebd a4b6 a43d 95d5 cebc
00000010: 4df7 67bc 58fa 9b3c a765 0e3e c798 623d
00000020: 2d6c 61bd f065 d2bd b7c4 ccbc c3ce 86bd
00000030: ca02 8c3c 838c 793d 8e0d 873d 4c01 b43a
00000040: 9af8 1cbe 34d9 20be daf4 0fbd 3c3e 96bd
00000050: 9ee2 b93c 5a8e b23d 2ade ec3c df74 00be
00000060: 28e8 8b3d 6599 1c3c 16ca e0bc 3343 573d
00000070: 0ccf ef3b a606 833d a267 103e 5bb9 3c3d
00000080: e864 2d3d 2329 523d 0c4e b43d ff45 91bb
00000090: b761 b23d b6a6 523d a0e1 d43c 574d 0a3d
000000a0: ad5e 1fbd 764e ae3c 6b8e 353d 99c6 893a
000000b0: 28c9 15bd 16a0 ba3c 01f0 bbbc 0c7c e73d
000000c0: fbda 403d 93fe 663d efa9 aa3d 4a33 0e38
000000d0: e1ad cf3d 0d23 70bd eed9 473c 40f5 0e3c
000000e0: cdbc 8d3d 7bf4 20bd 9ee9 41bd 1764 b13c
000000f0: a2b4 87bd 7a11 4c3d 74bf 2fbc 4388 0a3e
00000100: 18e5 3cbd 52a0 bdbd 35b9 1dbd 73c0 bbbd
00000110: a375 28bd 5b2a 123e 5fcd a63d ea24 24bd
00000120: 5bb8 333d f1e3 833d 2934 1f3c 55f8 953d
00000130: de6e 8dbb f916 c23d c41f 613d f1f2 4dbc
00000140: 0b57 973d d877 db3c 5537 883d 0ece 5c3c
00000150: 4eaf 423d 3591 403d ef63 f53c 3938 d53d
00000160: d1ca 29bb 1824 d6bd 3748 973b 9843 943c
00000170: bd75 4e3d 7645 343d b194 853d cc10 c1bc
00000180: b4d6 e7bc 7217 c3bd d835 5abd f627 9fbb
00000190: 9589 c83d bd6c 1a3d d026 3fbd 4adf 603d
000001a0: 6ba6 783d 89f9 ab3c bf57 3abd 7d27 a8bd
000001b0: 3518 a1bd 4163 80bd 91e7 013e 53cc 3f3c
000001c0: 6a9d 8abd 7636 a0bd 84be b93c f1ac 913c
000001d0: 93d5 c5bc 7195 6f3b 1704 183e 48b3 a6bd
000001e0: 1e66 9dbd 5a20 c8bd 0060 963b b9fd 323b
000001f0: 098f ff3d 7b7f d23c 6acb c43d 2acf 033d
00000200: 7794 78bd 69d6 99bd 23d3 9a3d 95c5 2ebd
00000210: e710 91bd 6425 213d 2d35 aebb 1cb6 d33c
00000220: ce9d 243d 6504 a0bd 87f1 7d3d 4679 6fbd
00000230: 7ebd afbc 5e91 063e 9dee dd3d ec79 b5bd
00000240: 9999 c7bd bdb0 adbd 7f32 0cbd 66a5 1d3d
00000250: b90a a8bd 91a5 4bbd 71c5 553c 1e37 423d
00000260: a33f 693c 7e14 10bd aa00 b23c a3c7 cdbc
00000270: 5924 2bbd 2b61 d2bc 4b5b 3dbc 20b2 403d
00000280: 28eb 39bd 930e 28bd efcd 7bbb 741d 95bd
00000290: 7338 3abd 1fec 4cbd 6fb7 22bd 75bb ebbc
000002a0: 56f5 8a3d 9791 443d c04e 223d 7bc7 8c3d
000002b0: c3e5 89bc 174a 6d3d b38e f63b 8cee 01bd
000002c0: 5b32 533d 3628 103e 3ecc 94bd 83d5 833d
000002d0: 34ac b53d 7ad6 013e 1863 d33d 9e38 023d
000002e0: f88b b73d bfca e03c b0b1 1a3c 6060 0bbc
000002f0: b2c2 3c3d b230 ca3d 8e3f f8bc ed3d 39bc
00000300: c7c4 3dbc 97de 4abd c565 8cbd 8992 023e
00000310: df92 1bbd 5720 893c debc 6a3d da0b 443d
00000320: e7c8 8d3d 350d 003e 579e c7bd 434e 8fbc
00000330: cd94 6dbd 6f96 36bd a6d9 83bd cbad 03bd
00000340: 75ac 9b3d d28e 863d 4fa9 f23c a83d 643d
00000350: e870 1d3b 67aa 293d d94a fe3c f99f e8bc
00000360: c0b1 23bd 3c90 183d 0afb e83c f925 183d
00000370: 7e8a d5bb 371e c03d 200a ae3c 0c13 e5bc
00000380: 02ce bbbd 9a28 d23d 64a2 52bd 82b7 11bd
00000390: ae07 ef3c 7362 b0bd 8085 b1bc 7c5a a93d
000003a0: cdb7 993d de94 973d f2a0 ba3a 5c93 573d
000003b0: 3b56 d4bc e5fc 70bd 3c01 8cbc 6c27 263d
000003c0: bc6b b2bc 5c96 9abb 977d c33d c334 4b3d
000003d0: 5823 163d 9200 cf3d 2067 0f3d 1630 c73d
000003e0: 4ef5 a8bd ad3d 593d 55cf 123d bbc3 b5bd
000003f0: 0971 b23d 5a49 223d 6a09 ac3d 5ec4 c33d
0.006763445 -0.09280384 0.080426484 -0.025248328 -0.014158082 0.019040272 0.13905965 0.05532148
-0.055034805 -0.10273349 -0.024996145 -0.065824054 0.017091174 0.060925018 0.06594382 0.0013733297
-0.15329209 -0.15707856 -0.035145618 -0.07336089 0.022691067 0.08718558 0.02891453 -0.12544583
0.0683139 0.0095580565 -0.027440112 0.05255432 0.007318383 0.063977525 0.14102033 0.046075206
0.04233256 0.051308762 0.08803949 -0.004433393 0.08710044 0.05142852 0.025986493 0.033765163
-0.03890865 0.021277647 0.044325273 0.0010511457 -0.03656879 0.022781413 -0.022941591 0.11302957
0.047083836 0.056395125 0.083331935 3.3903205e-05 0.10140587 -0.058627177 0.012197955 0.008725464
0.069207765 -0.039295655 -0.047341935 0.021654172 -0.0662625 0.049821354 -0.010726798 0.13528542
-0.04611692 -0.09259094 -0.038506705 -0.09167566 -0.041127812 0.1427397 0.0814464 -0.040074266
0.043876987 0.06439961 0.009717026 0.07322756 -0.004316195 0.09477038 0.054961935 -0.012570129
0.07389649 0.026790544 0.06651179 0.013476862 0.047530465 0.04701348 0.029954879 0.10411114
-0.0025908242 -0.10456103 0.004616763 0.018098637 0.050405253 0.044011556 0.06522501 -0.02356758
-0.02830062 -0.09525956 -0.053274006 -0.0048570586 0.09791867 0.037701357 -0.046667874 0.054900445
0.060705584 0.020993011 -0.045493837 -0.08210657 -0.07865945 -0.06268931 0.12685992 0.0117064295
-0.067683056 -0.078228876 0.022673853 0.01778266 -0.024149692 0.003655758 0.1484531 -0.08139664
-0.07685493 -0.097717956 0.004589081 0.0027311875 0.12478454 0.025695553 0.09609111 0.03217999
-0.060688462 -0.075115986 0.075598024 -0.042668898 -0.07083302 0.0393423 -0.0053163976 0.025843672
0.040189557 -0.07813338 0.061997917 -0.058465265 -0.021452662 0.1314139 0.108365275 -0.088611454
-0.09746093 -0.08480976 -0.034227844 0.038487814 -0.0820517 -0.049718443 0.013047562 0.047415845
0.014236364 -0.035175793 0.021728832 -0.025119608 -0.04178271 -0.025681099 -0.0115574105 0.047044873
-0.045390278 -0.041029524 -0.0038422307 -0.07281008 -0.04546399 -0.05002987 -0.039725717 -0.02877591
0.06785075 0.047990408 0.039625883 0.068739854 -0.016833192 0.057931986 0.0075243353 -0.031721637
0.051561695 0.1407784 -0.072655186 0.064372085 0.08870736 0.12679473 0.10321635 0.031792276
0.08962244 0.027440427 0.009441778 -0.008506864 0.046084113 0.09872569 -0.030303743 -0.011306268
-0.01158256 -0.049528684 -0.068553485 0.12751211 -0.037981864 0.016739054 0.057309024 0.047862865
0.06923085 0.12505038 -0.09746998 -0.017493373 -0.058003236 -0.04457706 -0.064379975 -0.032148164
0.07601253 0.065702096 0.029621748 0.055722862 0.0024023596 0.041422274 0.03104155 -0.028396593
-0.039964437 0.037246928 0.028440017 0.03714559 -0.0065167537 0.09380763 0.021245062 -0.027963184
-0.09170152 0.102616504 -0.0514244 -0.035575397 0.029178467 -0.08612528 -0.021670103 0.08269212
0.0750576 0.07401441 0.0014238639 0.052630767 -0.025920024 -0.05883493 -0.017090432 0.04056494
-0.021779887 -0.0047176313 0.09545439 0.049610864 0.0366548 0.10107531 0.035010457 0.097259685
-0.08249913 0.053037334 0.03584226 -0.08875223 0.08712966 0.039620735 0.08400233 0.095589384

fc1.bias f4 [128]
00000000: df5c 2c3a 4123 c43d 61bd 9c3d 475f c43d
00000010: 9f0f 9ebd f841 893b b91a f43c 0f06 9d3c
00000020: 3644 41bd 6719 b93c 9057 6a3d 82c8 07bc
00000030: c524 a73b 5a46 92bb 179f 9b3d a902 b73d
00000040: d3f5 70bd c626 debc 3ed9 2539 2381 6f3d
00000050: 5ffc 40bd 8007 2bba a5a8 17bd 7ac8 173c
00000060: 7ca9 e1bc 7300 cc3c 39e6 03bd 5dfe e43c
00000070: 19f2 a2bd 9713 8d3d a33d 653d 765f 8fbd
00000080: 4de2 7abb eab0 073d f2ff 3c3d 20df af3c
00000090: 941a 833b cbf5 493d 6538 4e3c 451d 993d
000000a0: e372 823d 7c58 e43c ca7a 76bd 4bd7 b53c
000000b0: 488a 8fbc a297 903d 7a5d 063d e1de c83c
000000c0: 1f45 6f3d b823 44bc da3f 8f3d 2ae8 c73c
000000d0: 0194 343d edae 54bd 5736 793d d0df 523c
000000e0: 4c3f da3d e59c 5f3d 75b8 913d 3312 753d
000000f0: d60f d13c d2a3 f9bc e9a6 3dbd e698 90bd
00000100: 0618 98bd de5f 983a 42a3 a3bc e330 f2bc
00000110: c739 6d3d 0a87 7b3c a62a 5b3d d241 b83d
00000120: dcec 973c 5712 a53b 579e be3d 4a99 cebb
00000130: 9665 84bc 3fc2 9a3d 1ecc d23d 3197 78bd
00000140: 0dac a6bb 0ae9 d73d 97eb 7f3c 8777 f23d
00000150: f823 813c a085 483d aff6 a33d 1ee3 12bc
00000160: 33dc b23c 6466 9abd 70fe 1cbc 92ca c33d
00000170: 65b4 843c 3bee 36bd 5d5e 67bd 701c a4bd
00000180: d7bd 1d3d 9e7f 89bd 774b a63d 2033 8f3d
00000190: 8846 573d aaf8 0b3d 90d9 9e3d 19bb 8fbd
000001a0: fa84 943b 1199 98bd f68a 0ebd 9a97 353d
000001b0: b22f 323d 2907 2b3d b6e9 0fbc 8026 99bd
000001c0: 1d9b 8bbc 0dfc ed3c 4d50 91bc f101 733d
000001d0: df5b af3d efd3 183d fe36 08bd 321b a53b
000001e0: 94b6 853d 014f a0bc 3ed2 d8bc 0d37 0b3c
000001f0: 9a31 c63c 7ca8 cdbc a901 3ebd eb25 073d
0.0006575118 0.09577037 0.07653309 0.09588485 -0.07717823 0.0041887723 0.029797899 0.019167928
-0.04718419 0.02259512 0.057212412 -0.008287551 0.005100819 -0.004463953 0.07598703 0.08936054
-0.058828186 -0.027118098 0.00015816555 0.058472764 -0.04711568 -0.000652425 -0.037026066 0.009264106
-0.027546637 0.024902558 -0.03220198 0.027953321 -0.07956333 0.06888502 0.055966984 -0.070006296
-0.0038281858 0.033127703 0.046142526 0.021468699 0.004000971 0.049306672 0.012586688 0.07476286
0.06369569 0.027874224 -0.060175695 0.022197386 -0.017521992 0.07060172 0.03280399 0.02452034
0.05841553 -0.011971407 0.069946006 0.024402697 0.04408646 -0.051924635 0.06084284 0.012870744
0.10656604 0.054592986 0.071152605 0.05983181 0.025520246 -0.030473623 -0.046301756 -0.07060413
-0.07426457 0.001162525 -0.019975308 -0.029564327 0.05791643 0.01535202 0.05350747 0.08996929
0.01854556 0.0050375867 0.09307545 -0.0063048946 -0.016161721 0.07556581 0.102928385 -0.060691062
-0.005086428 0.105424955 0.015620134 0.11839204 0.015764222 0.04895556 0.080060355 -0.008965282
0.021833515 -0.07539061 -0.009582147 0.095601216 0.0161993 -0.044660788 -0.056486476 -0.080132365
0.038511124 -0.06713794 0.081198625 0.06992173 0.0525575 0.03417269 0.077563405 -0.07018108
0.0045324536 -0.0745107 -0.034800492 0.04433403 0.043502517 0.041754875 -0.008783748 -0.074780464
-0.017041737 0.029050851 -0.017738486 0.059328023 0.08562445 0.03731149 -0.03325557 0.0050386423
0.06528965 -0.019568922 -0.026467439 0.008497012 0.024193574 -0.025104754 -0.046388302 0.032995146

fc2.weight f4 [64, 128]
00000000: 4402 903d 7ce3 8abd 0e16 363c 9580 2bbd
00000010: c286 90bc e209 273d bf87 113d 5da4 2fbe
00000020: 1ac7 13bd 34e9 1d3c 9f30 8b3d 9ecf d33d
00000030: 52e9 703b c787 28bd a448 843d 95bb 19bd
00000040: 460f 373d 8066 e13a eae0 ab3d fc86 633d
00000050: 22ed 7e3d 26e0 c63c 5260 383d fe6d 203d
00000060: 0d30 99bc acbc 93bd feac 413d 62d0 d73d
00000070: 00c8 6aba 56b4 0d3d b1bf 6e3c 82f9 fdbd
00000080: 14df bfbc c953 033d 22ea ab3d 7f02 8c3c
00000090: 7299 34bd 18bc 9e3c f639 ce3d 9ed2 b8bd
000000a0: f061 c5bd 511d c2bd 5e02 273d 463d 30bd
000000b0: 2bf3 0dbe a911 03bd 452e 03bc 261f 953d
000000c0: e9ff c6bd 7be2 4abd fa1e 0abd 3214 11be
000000d0: 1c37 0e3c a4b7 27bd 659b 24bd bad6 0cbd
000000e0: 393e 1f3d f8ec 6ebd 41eb e3bd c2b2 43bd
000000f0: 165a d03d 426e b2ba 1d04 283d 41fe f2bc
00000100: 99f5 773d 40b7 0b3c ccba 10bb 4a33 d13c
00000110: 21e6 733c 015f c7bc a0b7 9b3d fb55 043d
00000120: 8bf3 78bd 953a a03d a080 8ebd b524 fdbc
00000130: 9bd2 9b3d 52b6 81bc 7f80 2e3d 0c8a 19bd
00000140: 0452 b0bd d74e a03c 7ae7 7d3d f074 a63a
00000150: 883b 40ba 3744 e0bc a668 4fbd 4a46 07bd
00000160: feaf 193d ebf2 1ebc 446e d5bb 15d0 993d
00000170: 4f5b c03c 76bd 81bd d59d b63c 53d7 983d
00000180: c1ee f2bc 75f4 2dbd 3284 923d 16b7 3bbd
00000190: 511b d7bc cec0 b03c 69bf 933d 8449 7ebd
000001a0: fe5e 24bc a1dd 5fbd e6be 19bd 506c ff3a
000001b0: bcb3 ec3a d04b 05bc f4d7 ae3d ce23 8c3d
000001c0: aa02 0e3d db28 7f3d aabc afbd 4120 aabc
000001d0: 4c28 8ebc 6675 86bd d8b8 4abd 7fe2 39bd
000001e0: 899c 9bbd 5190 893d 03f4 ef3d 19a5 8a3b
000001f0: f8ef 5cbd a153 8a3d 4665 583c 676e 083d
00000200: 9988 5f3c adef 883d 6853 b6bd 1cd2 c8bc
00000210: eebf 4d3c e379 ad3d 361d abbd 9146 6e3d
00000220: 6eff 853d 47f6 a13d 12d6 bc3c c197 a4bc
00000230: c2a1 5cbc 315d 6c3c db8c 6ebd 91ea f6bb
00000240: d0d9 b23b 392a b33d 11ee 00bd ad0f a7bd
00000250: 8bd4 89bd 4ec2 63bd 8392 b8bd e6a9 bbbd
00000260: bf59 56bb 31ac 3d3c 07aa 823d adf9 f4bc
00000270: 0920 92ba 3051 a03d 8a2d abbd 04ca 88ba
00000280: c822 a63d 97fa 563d 0556 b0bd 5aee abbd
00000290: 9a6d 11bb 16dd 923c 4516 e5bb 5fe7 6dbc
000002a0: 9f71 4fbc b91e e5bc e3cc 81bd 6a3a 88bd
000002b0: 7a88 1cbd 6ed3 9c3d a590 98ba 1889 a3bd
000002c0: cbd6 ee3b 6480 59bd 424a 8a3d 19a9 9ebd
000002d0: e78a 3abc 20d2 6bbd 012c 973c e99e 80bd
000002e0: 8487 6d3c 5fcc 8f3d 3ebc 7e3c f849 783d
000002f0: 93e2 b8bd 934f 47bd fa6f 94bd ed1f 47bd
00000300: 699c 623d 3ad7 3fbd 2802 24bc 0680 14bd
00000310: 5eb8 5bbd e60d 083d b155 8abd bf2d bcbd
00000320: b114 483b 3cd5 3f3d 95a7 96bd 4b6b 84bd
00000330: 2de2 873d eb3c 353c 6057 04bb b34e 2cbc
00000340: 3168 8d3c 7e4e 57bd 473e 4ebd 9a91 ce3b
00000350: e4fc 0cbc f1ba 9b3b be6f 9dbc 1329 89bd
00000360: af13 7f3d 29ba 4d3d 7a53 f9bc 9a42 87bd
00000370: 5d69 a1bd b456 a63c b1ab 883d 7c1e e43c
00000380: 9888 63bd 0ec3 ae3d 7d2e 863d 1dd7 913d
00000390: f3f2 7ebc 23ac a4bd 5774 403d 42fa 333d
000003a0: 81de 3b3d a9dd 18bd 99fc b6bd 0609 06bd
000003b0: 7b30 7abd 2f86 f13b ab3c 693d 3ae6 10bd
000003c0: 3565 abbc 3b1e cc3b 3389 16bd f02f 33bd
000003d0: 0ef3 663d c9d3 083d 6719 153d 427d 8c3d
000003e0: 9364 cc3c e444 963d a12a a23d 1c51 d5bc
000003f0: 0534 9f3d b64d 703d f802 a7bd 7949 43bd
0.07031682 -0.067816705 0.011113657 -0.041870672 -0.017642383 0.04078091 0.03552985 -0.17152543
-0.03607855 0.0096381195 0.06796383 0.10342334 0.0036760163 -0.041145112 0.064591676 -0.037532408
0.0446923 0.0017196685 0.08392508 0.055548653 0.062237866 0.024276804 0.045013733 0.039167397
-0.01869967 -0.07213721 0.04728412 0.10537793 -0.0008956194 0.03459581 0.01457207 -0.124011055
-0.023421802 0.032062326 0.08394267 0.017091034 -0.04409165 0.0193768 0.10069649 -0.09024547
-0.09637821 -0.09478248 0.040773742 -0.043027185 -0.13862292 -0.031999264 -0.008006637 0.07281332
-0.0971678 -0.049532395 -0.033720948 -0.1416786 0.008680131 -0.040946618 -0.04018726 -0.034384467
0.0388777 -0.05833146 -0.111288555 -0.0477779 0.101734325 -0.0013613182 0.041019548 -0.029662253
0.060536955 0.008527577 -0.0022083996 0.025537152 0.01488641 -0.024337294 0.07603383 0.03230856
-0.060779136 0.07823674 -0.06958127 -0.030901292 0.07608529 -0.015834007 0.042603012 -0.037485167
-0.08609393 0.019568844 0.06198833 0.0012699645 -0.00073330896 -0.027376277 -0.05063691 -0.033026017
0.037521355 -0.009701471 -0.006513389 0.075103916 0.02348104 -0.06334965 0.022292057 0.07462945
-0.029654862 -0.04246946 0.071541205 -0.0458289 -0.026258143 0.021576311 0.07214243 -0.06208183
-0.0100324135 -0.05465472 -0.03753557 0.0019487236 0.0018058936 -0.008135751 0.085372835 0.06842767
0.03467051 0.062294822 -0.08580907 -0.020767333 -0.0173532 -0.06565361 -0.049492687 -0.04538202
-0.07598216 0.06716979 0.117164634 0.004231107 -0.05393979 0.06754232 0.013207739 0.033308413
0.013643407 0.066863395 -0.08902627 -0.02451425 0.012557967 0.08470514 -0.08355181 0.058172766
0.0654286 0.07908302 0.023051295 -0.020091893 -0.0134663 0.014426515 -0.0582398 -0.0075352867
0.005458094 0.08748288 -0.031477038 -0.08157287 -0.067299925 -0.055605225 -0.0901232 -0.09163265
-0.0032707301 0.011576698 0.063800864 -0.029904211 -0.0011148463 0.07827985 -0.08358295 -0.0010436182
0.08112103 0.052485075 -0.08610157 -0.08395071 -0.0022190572 0.017927688 -0.00699118 -0.014520495
-0.012661367 -0.027968751 -0.06337907 -0.066517666 -0.03821609 0.076575145 -0.0011639787 -0.07985133
0.007288789 -0.05310096 0.06752445 -0.077470966 -0.011385656 -0.057573438 0.0184536 -0.0628031
0.0144976415 0.070214026 0.01554781 0.060617417 -0.090275906 -0.048659872 -0.0724792 -0.04861443
0.055324946 -0.046836115 -0.01001028 -0.036254905 -0.053642623 0.03321638 -0.067546256 -0.09188413
0.0030529911 0.046834216 -0.073561825 -0.06465777 0.066349365 0.011061887 -0.002019368 -0.01051681
0.017261596 -0.05256509 -0.05035236 0.006303978 -0.008605216 0.0047525098 -0.019218322 -0.066972874
0.06227463 0.050226364 -0.030435313 -0.066045 -0.078814246 0.020305015 0.066733725 0.027846567
-0.055550188 0.085332975 0.06551836 0.07121108 -0.015560853 -0.08040645 0.04698595 0.043939836
0.045866493 -0.037320767 -0.08934898 -0.03272345 -0.06108139 0.0073707323 0.056942623 -0.03537581
-0.020922283 0.0062291897 -0.036751937 -0.04374689 0.05638414 0.0334051 0.03640118 0.068598285
0.024950301 0.073373586 0.07918287 -0.026039653 0.07773594 0.05866786 -0.08154863 -0.04767749

fc2.bias f4 [64]
00000000: 5f86 53bc bef1 713d 30d5 9a3d 257e 84bc
00000010: 0dce 46bd 8169 3f3c c039 d6bc bc92 e5bc
00000020: 3814 9e3c 108b fc3c 2947 a9bd ec28 1bbd
00000030: 9809 3cbd f8d9 99bc 286a 1fbd fba8 01bc
00000040: def8 453d 1897 0f3d a6f7 ba3d 6472 6a3d
00000050: 9526 933d 0bf2 84bd b371 8dbd c199 983d
00000060: 3460 72bd 3fb5 0f3d 0978 1a3d 9fcf 7d3d
00000070: e493 053b 2a68 453a 1fc8 90bb fc26 aa3d
00000080: eca4 6f3d 411e 863d a615 8bbd afc3 023c
00000090: 1a1f 64bc 4444 e23c f70f 85bd 0a1a 5ebd
000000a0: a904 88bc 44f9 c8bc 12dc c03d 876e f93c
000000b0: 37ef 84bd c53c 19bd dbbb 993d eb58 26bd
000000c0: d896 a4bd 7f9a 81bd 644b 5fbc 730b 853d
000000d0: 331d 7c3d fee7 373d 326f e5bc 5535 53bc
000000e0: 08b3 01bd 8755 193d 6411 203d bc53 ca3d
000000f0: d447 b93a 60ee 233d d657 913b 29a2 5d3d
-0.0129104545 0.059068434 0.075601935 -0.016173432 -0.04853635 0.011682869 -0.026150584 -0.02802407
0.01929675 0.030828029 -0.08265526 -0.037880823 -0.045907587 -0.018780693 -0.038919598 -0.007913823
0.04833304 0.035056204 0.091292664 0.057237998 0.07185093 -0.064914785 -0.06906452 0.07451201
-0.059173778 0.03508496 0.03771213 0.06196558 0.002038234 0.0007530475 -0.0044183875 0.08308217
0.05850689 0.06548739 -0.067912385 0.007981225 -0.013923431 0.027620442 -0.06497186 -0.05422405
-0.016603785 -0.024532922 0.09416975 0.030448211 -0.06490939 -0.03741147 0.07506534 -0.040612143
-0.08036584 -0.06328296 -0.013628814 0.064963244 0.061551284 0.04489898 -0.028007124 -0.012891133
-0.031664878 0.03743508 0.039079085 0.09879252 0.0014135786 0.040022254 0.0044355197 0.054109726

fc3.weight f4 [24, 64]
00000000: 1896 c33c 0702 fdbc 9b53 2e3d 2602 623d
00000010: 32c3 1cbc efb2 1b3d f91e 143e 080e 8b3c
00000020: fc8c f2bd 3020 5a3d f232 a0bd f5c0 513d
00000030: c69e 323c a4f6 013d 629e e33b 538f b93d
00000040: 76e6 e63d 80c9 1d3e bbe4 3b3d 8dfa a43d
00000050: 944c 813c 9a24 febc a4dd 48bd 8ac3 c2bc
00000060: 523e d3bd 8d2a 52bd 5241 c23d 1436 99bd
00000070: aa2f f03d e43d f73d 415d 1abe ce9a 623c
00000080: e24b d1bd 8afc 19bd aad5 f1bd 743e 31be
00000090: 625e dc3d bebf 183e f40f a23d 8d56 dcbd
000000a0: d457 b23d 607d 4cbc cc26 cbbd 7371 26bd
000000b0: 45fd aabd 504c 003b f41e eabd f7a6 2d3d
000000c0: a8ab 8f3d 4cf5 8dbc 4cc0 09be 3edd c33b
000000d0: f782 70bd 45cf 9b3d 639b a23d e601 15bd
000000e0: ffac e2bd b03e abbd f445 7abd b40a 55bd
000000f0: 296e f83d 4732 0f3e a1ce ba3c 9e31 0d3e
00000100: 8f67 a0bd d618 0ebd b4b4 e53d ba49 53bd
00000110: 3d45 f3bc df44 803d 779d e83d 24ab 99bd
00000120: 6d20 9d3d 18a5 bbbd c07c 1ebb 49ea 6c3d
00000130: 5592 f53c 73dd b93d 9746 d73d 8555 23ba
00000140: 1f13 a7bd c389 21bd 2cf3 5a3d 646b 023e
00000150: a95f e13c 4fae 90bb 5664 43bb 0299 c5bc
00000160: 5d94 1cbd 8992 b7bc 2d9a 7d3c 9b08 0bbe
00000170: 1ed6 58be 0212 8e3b e606 623d 5f12 e93c
00000180: c06a 163e 7dc4 aebd 7d90 bebb 55ea b2bc
00000190: 3519 9d3d dcff c5bd 65db c73d 6e08 283d
000001a0: 0a6a a0bd 140a babd f0e1 143e 7fc1 b8bd
000001b0: 25b7 23be cc4e a53d 3c38 22bb af0b 003e
000001c0: e503 b93d 1c7e f73d e87e 013d 8f4c 7fbd
000001d0: 781c 00be f1f5 73bd f4a4 293c 455f 7b3d
000001e0: a853 aabd 8299 ec3c 553f 0f3e 3016 fd3d
000001f0: de02 063d 5954 a1bd 562d b03b 699e ecba
00000200: 9561 c4bc 597e 983d 5a92 5b3d 6a33 c73d
00000210: 2a03 de3d 99c9 a7bc 57ed 273c c7e2 0ebe
00000220: 93b0 23bd ce16 d53d 2867 143d 6255 bfbd
00000230: 186c 30bd fbad 033e 42f5 273d d27f b63b
00000240: 5b6a f63d d0c9 8cbc 38c0 f4bd 34e0 17bd
00000250: 934b b13b 80a0 143d a114 85be f378 8abc
00000260: 53a9 00bb 3c7f be3d 2e08 ddbd ba42 313e
00000270: ce34 86bd ab7d 4fbd 50aa a9bd 4ee2 2d3d
00000280: 11d3 b7bc 9add a83b ccfa a3bc 073b ffbd
00000290: 0860 393d 085a 75bd 4de9 e53d e8ec 3a3d
000002a0: a34d 20bd c09b 283d 1a1f ed3c 192d e9bd
000002b0: 7e44 03be 22ae c43d fa2f 733c 9da6 b53d
000002c0: 3ca3 173e ec52 82bd b97e 8bbc 990e f03d
000002d0: c300 9d3d a8e7 093e 0090 b0bd af99 583e
000002e0: 3c73 87bd ce21 6abc 2466 023e f1bd 3f3d
000002f0: 3eb4 d23d 7bce e2bd ce30 bd3c fe58 1f3d
00000300: 8039 59be 6d68 1c3b 4ac0 213e 3520 19be
00000310: 1293 b13d 79fa c3bc 784b 4ebd 043b 093e
00000320: 85e5 cd3d 7366 f23d e0b7 e23b 0fb6 733d
00000330: f32b e83b 38c2 f8bd 73f7 0a3d 474c a63d
00000340: 9a7c aebd a37e 003e d1c3 893d d825 893c
00000350: b816 2e3d a0e4 8b3d 2e91 0b3c 267d 51bd
00000360: cb98 a73d b5b5 1a3d 3e14 7d3d 8d5e c63a
00000370: 68fb 873d d832 b63d 83be 89bd 263f 483d
00000380: dfe1 a53d 535f efbc 64f9 48bc d40d 203d
00000390: 16b8 843c bac3 073d f9f5 b1bd bf71 903c
000003a0: 2b25 c9bd 0006 323b d4b5 143e a7e4 bbbd
000003b0: ec6e 3d3e a92e d73c 3d08 a1bd 0159 a13d
000003c0: 2d92 30be 6b02 f4bd dd47 b33d bd7a 0fbd
000003d0: 9d08 4f3e e23a 213e 16cd 16bd 7d15 dd3c
000003e0: 730f 8d3d 7aea 983d e0ec c43d e589 99bd
000003f0: 8fa5 473c 3867 d0bd 1d4c 573e 9a1b e43d
0.023875281 -0.030884756 0.0425602 0.05517783 -0.009568023 0.03801244 0.1446494 0.016974464
-0.11843297 0.053253353 -0.07822217 0.05120941 0.010902112 0.031729355 0.006946371 0.0906054
0.11274426 0.15408897 0.04587243 0.08055601 0.015783586 -0.031023312 -0.049039498 -0.02377488
-0.10314621 -0.05131011 0.09485115 -0.07481018 0.11727841 0.120723516 -0.15074636 0.013830854
-0.102195516 -0.037594356 -0.11808331 -0.1730898 0.107601896 0.14916894 0.07913199 -0.10758696
0.08708158 -0.012481064 -0.09919509 -0.040635537 -0.083490886 0.0019576736 -0.11431685 0.04239556
0.07015163 -0.01732888 -0.13452262 0.005977302 -0.058718648 0.07607893 0.07939794 -0.036378764
-0.11068153 -0.08361566 -0.06110187 -0.05201216 0.121303864 0.13984023 0.022803606 0.13788459
-0.07832252 -0.034691654 0.11216107 -0.051583983 -0.029696101 0.06263136 0.11358159 -0.075033456
0.076722 -0.091623485 -0.0024183244 0.05784062 0.029977003 0.09075441 0.10511511 -0.00062307
-0.08157944 -0.03943802 0.053454563 0.12736279 0.027511435 -0.0044153105 -0.0029814444 -0.024120811
-0.038227428 -0.02240874 0.015478653 -0.13577501 -0.21175429 0.004335643 0.05518236 0.028451143
0.1468916 -0.08533571 -0.005815564 -0.021840254 0.076708235 -0.09667942 0.09758643 0.041023664
-0.07832725 -0.090839535 0.14539313 -0.090212815 -0.15987833 0.0807167 -0.0024752757 0.12504457
0.09033946 0.120846 0.031615168 -0.06232887 -0.1251086 -0.05956072 0.010354269 0.061370153
-0.083167374 0.028881792 0.13989003 0.123577476 0.032717578 -0.07877416 0.005376498 -0.0018052581
-0.023972312 0.07445974 0.05360637 0.09726603 0.10840447 -0.020481871 0.010249457 -0.13953696
-0.039963316 0.1040474 0.03623119 -0.09342457 -0.043071836 0.12859337 0.04100538 0.0055694366
0.120320044 -0.017186075 -0.11950725 -0.03707905 0.0054106205 0.036285877 -0.259923 -0.016903376
-0.0019632175 0.09301612 -0.10792576 0.1731061 -0.065530404 -0.050656956 -0.08284438 0.04245215
-0.022439511 0.00515337 -0.02001705 -0.124624304 0.0452576 -0.059900314 0.11226139 0.045636088
-0.03913654 0.04116416 0.028945494 -0.11385555 -0.12819096 0.09603526 0.0148429815 0.088696696
0.14808363 -0.06363472 -0.0170282 0.11721534 0.07666161 0.13467276 -0.08621216 0.21152376
-0.06613776 -0.014290286 0.12734276 0.046812 0.10288285 -0.11074539 0.023094561 0.03890323
-0.21213341 0.0023865954 0.15796009 -0.14953692 0.086706296 -0.023923146 -0.05036494 0.13401419
0.10053543 0.11835947 0.0069188923 0.059499796 0.0070853173 -0.12146419 0.033927392 0.081200175
-0.085198596 0.12548308 0.06726802 0.016741678 0.042502135 0.06830716 0.0085185 -0.05114474
0.0818344 0.037770946 0.061786883 0.001513438 0.06639749 0.088964164 -0.0672579 0.048888348
0.08099722 -0.029220259 -0.012266491 0.039075688 0.01620106 0.033145644 -0.08689494 0.017632363
-0.09821542 0.002716422 0.14522487 -0.09174471 0.18499345 0.026267366 -0.078628995 0.07878304
-0.17243262 -0.11914524 0.08753941 -0.03502916 0.2021813 0.15745118 -0.03681668 0.026987785
0.06887712 0.07466598 0.09615493 -0.074970044 0.012185468 -0.101759374 0.21025129 0.11138077

fc3.bias f4 [24]
00000000: d309 86bb 045f b1bd c399 043e 814f c13c
00000010: e87d 77bc 3eaf d7bd a647 89bc 7736 a93d
00000020: 620d ac3d c3ec 50bd 5490 70bd f7a0 3fbd
00000030: ec9e ddbd bd2c 913d 6b52 063d 003b 0a3e
00000040: d940 b7bd 13e6 443d f2c2 463d 0979 dc3c
00000050: 62f8 e0bc 6489 cfbb fb12 433d eda1 b23d
-0.0040905266 -0.08660701 0.1294928 0.02359748 -0.015105702 -0.10531472 -0.016757797 0.082623415
0.0840099 -0.051007044 -0.058731392 -0.046784367 -0.108213276 0.07088611 0.032793444 0.13499069
-0.089479156 0.04807098 0.048525758 0.026913183 -0.027462188 -0.006333517 0.047625523 0.08722291

exp_avg f4 [128, 144]
00000000: 48f9 0db9 a108 98b7 cc11 fdb8 2e0f 5fb8
00000010: 2cc1 6fb8 6577 d2b8 cc62 55b6 2b7c b8b7
00000020: 1d3c 0db9 7bb1 58b8 fba9 54b8 bf21 fab8
00000030: 7dc6 61b8 fe02 01b8 895b e2b7 70c5 50b8
00000040: 1775 84b8 70ab a2b6 6690 9ab8 f3ad 41b8
00000050: 8d4c 63b8 8db8 65b8 fc51 90b8 caf2 0cb8
00000060: 948d 45b9 3cc8 85b8 6eec 18b9 21f9 f4b8
00000070: 21aa cdb8 50d2 16b9 fafe 0838 f812 88b7
00000080: 4218 24b9 a319 d8b8 3876 96b8 2efa 14b9
00000090: f54b 09b8 ab4f c5b8 1e9c fdb7 be5d d7b8
000000a0: 4362 10b9 26a4 e8b7 9719 f3b8 3582 8eb8
000000b0: 0a9c cdb8 35b0 8db8 30ec 60b7 58dd 1cb8
000000c0: e643 47b9 c4e7 4db8 fa82 12b9 085b e7b8
000000d0: be1b c0b8 8787 05b9 18ae 3d38 55d3 cfb7
000000e0: f70a 22b9 5f02 d7b8 b7aa 93b8 7dbf 18b9
000000f0: 6592 10b8 8cbd c6b8 b302 3ab8 6568 d1b8
00000100: 74fb 16b9 65ed e5b7 eec7 f1b8 17d9 97b8
00000110: cc68 c6b8 05fa 79b8 9caa 4ab7 8654 09b8
00000120: 3235 45b9 2276 22b8 f9a0 0bb9 a624 e0b8
00000130: 613f c3b8 9f2c 16b9 fcf7 1b38 b2e6 03b8
00000140: 12ff 27b9 0769 b1b8 69eb 8fb8 f9bb 24b9
00000150: 09fb 0cb8 2395 b9b8 b323 46b8 df39 d7b8
00000160: 8c07 0cb9 967a 06b8 4992 ebb8 224a 9ab8
00000170: 5a01 b3b8 3cd4 3bb8 16f2 fcb7 b15d 1fb8
00000180: c36b 42b9 6467 f1b7 5e53 0fb9 7602 ccb8
00000190: ede5 c6b8 abe0 20b9 3012 3538 e0d7 19b8
000001a0: 4b9b 25b9 6cb0 b1b8 9063 92b8 fb3d 27b9
000001b0: 5870 ffb7 081f b2b8 87c6 71b8 04b7 f1b8
000001c0: 3c01 0bb9 2bbe 04b8 72d6 eab8 3c78 93b8
000001d0: 7fab a5b8 96f8 54b8 1638 15b8 5ae0 e2b7
000001e0: 72fb 47b9 da22 afb7 edc6 0fb9 d804 c0b8
000001f0: 433a d5b8 81d8 22b9 db43 1238 eb81 42b8
00000200: 0e99 23b9 58ab acb8 0d50 96b8 6c78 21b9
00000210: 9348 0cb8 6418 9fb8 724b 5fb8 0460 e5b8
00000220: 1872 01b9 6cdd 2cb8 6eea e0b8 167f 92b8
00000230: ac6b 9bb8 9759 64b8 f200 50b8 a442 b7b7
00000240: 836b 7738 4fe0 2838 d242 3238 319f 0138
00000250: 2520 5138 ee39 1538 a0c0 8d37 33e3 e937
00000260: 93a8 6c38 2f1c 2e38 6df1 0b38 2f43 3938
00000270: aea9 1638 a3e0 b337 f80b 3038 2985 3438
00000280: f4d6 e737 abea ed37 1e3c b438 4cd8 0538
00000290: e85b 8a36 16f7 a537 72d6 dd37 757b 9b37
000002a0: c6b5 8b38 35c1 3538 bc0d 8938 63f4 2c38
000002b0: 5094 3b38 e448 9438 e9ae 2538 3e22 fa37
000002c0: a698 4038 0641 3538 344f e937 671c 6238
000002d0: 40ec 4c38 0850 d636 6254 3d38 fe20 9638
000002e0: 04ae 7438 7ee6 4938 1899 d438 3aa5 5938
000002f0: 1ad7 2e38 e1e5 e937 22cd 4e38 7ea7 cb37
00000300: c64d 8e38 a401 7238 689f 8d38 1441 3138
00000310: 9667 4738 a997 9738 1eb4 2b38 6000 f737
00000320: 1e6e 5e38 825f 1b38 9338 1038 a992 8038
00000330: 84af 6638 f492 8f37 f85e 3638 d3e2 a138
00000340: 4307 6138 96f6 5338 6216 d338 9d94 7838
00000350: 8707 2938 8c17 de37 4a0b 6a38 b431 0338
00000360: 7e1c 8d38 0dd5 6138 fd7a 9838 d6d4 2438
00000370: d775 2c38 06ad 9a38 8b70 2938 de3b e737
00000380: b62d 6238 7856 3438 ef57 2138 31ce 7738
00000390: 1662 8038 983b a537 43d0 2338 9415 9838
000003a0: 1290 5038 cd8b 6138 d044 d738 f1e9 6638
000003b0: f14e 2438 08ee d337 2de4 5a38 d685 0238
000003c0: de17 9138 b483 6938 210c 9a38 7a96 3338
000003d0: 54e6 4538 eda3 8c38 2064 1938 677f bc37
000003e0: 4183 7238 1f4e fb37 e857 2c38 5616 8338
000003f0: 8f20 7a38 c12c 9137 4668 2238 a3c4 9338
-0.00013539672 -1.812383e-05 -0.00012067295 -5.318148e-05 -5.7161946e-05 -0.00010035819 -3.179698e-06 -2.199233e-05
-0.00013469202 -5.1663705e-05 -5.0703045e-05 -0.00011927215 -5.3829037e-05 -3.0758783e-05 -2.6983924e-05 -4.9774942e-05
-6.31606e-05 -4.847934e-06 -7.3701885e-05 -4.617679e-05 -5.419231e-05 -5.476973e-05 -6.881726e-05 -3.3604716e-05
-0.00018840126 -6.379231e-05 -0.00014583927 -0.000116812305 -9.806851e-05 -0.00014383462 3.2662392e-05 -1.6221296e-05
-0.00015649296 -0.00010304458 -7.174577e-05 -0.00014207579 -3.2734086e-05 -9.408531e-05 -3.0232648e-05 -0.0001026946
-0.00013769515 -2.7732993e-05 -0.000115919094 -6.7953406e-05 -9.804226e-05 -6.756225e-05 -1.3406432e-05 -3.739944e-05
-0.00019003413 -4.9091657e-05 -0.00013972438 -0.00011031894 -9.160441e-05 -0.00012734356 4.522325e-05 -2.4774732e-05
-0.00015453609 -0.000102524406 -7.041304e-05 -0.00014567185 -3.4468616e-05 -9.4766816e-05 -4.434837e-05 -9.9853416e-05
-0.00014398788 -2.7409473e-05 -0.00011529015 -7.240677e-05 -9.460896e-05 -5.9599075e-05 -1.2079861e-05 -3.2742064e-05
-0.00018807201 -3.873383e-05 -0.0001331604 -0.00010687979 -9.31013e-05 -0.00014321737 3.7185833e-05 -3.1447686e-05
-0.00016021382 -8.4595806e-05 -6.86262e-05 -0.00015710284 -3.3612396e-05 -8.849266e-05 -4.7240126e-05 -0.00010262778
-0.00013354252 -3.2062257e-05 -0.00011232921 -7.3571005e-05 -8.535637e-05 -4.4781933e-05 -3.0153471e-05 -3.799581e-05
-0.00018541426 -2.8777584e-05 -0.000136686 -9.7279364e-05 -9.484203e-05 -0.00015342484 4.31707e-05 -3.6679092e-05
-0.00015793477 -8.472879e-05 -6.9803675e-05 -0.0001594945 -3.0450683e-05 -8.4934814e-05 -5.764377e-05 -0.00011525865
-0.00013256533 -3.164836e-05 -0.00011197933 -7.0319016e-05 -7.899757e-05 -5.0776252e-05 -3.5576602e-05 -2.7045771e-05
-0.0001907179 -2.0877855e-05 -0.00013711648 -9.156176e-05 -0.000101674836 -0.00015530178 3.4872308e-05 -4.63742e-05
-0.00015601909 -8.2335144e-05 -7.167468e-05 -0.00015399017 -3.344619e-05 -7.586254e-05 -5.3237607e-05 -0.00010937455
-0.00012344902 -4.121421e-05 -0.00010724818 -6.985494e-05 -7.4110314e-05 -5.4442873e-05 -4.9591945e-05 -2.1846332e-05
5.8989517e-05 4.0263225e-05 4.250074e-05 3.0904255e-05 4.985942e-05 3.557832e-05 1.6898208e-05 2.7881562e-05
5.642378e-05 4.151108e-05 3.3365028e-05 4.4170007e-05 3.5920813e-05 2.1443067e-05 4.1972817e-05 4.303936e-05
2.7637441e-05 2.8361877e-05 8.5942665e-05 3.1911113e-05 4.12342e-06 1.9784591e-05 2.6445112e-05 1.8534929e-05
6.6618944e-05 4.33337e-05 6.535227e-05 4.12356e-05 4.47224e-05 7.070767e-05 3.9501963e-05 2.9818268e-05
4.5918532e-05 4.321432e-05 2.7812646e-05 5.390905e-05 4.8857415e-05 6.387014e-06 4.51397e-05 7.158703e-05
5.8336198e-05 4.8136797e-05 0.00010137464 5.189071e-05 4.168516e-05 2.788281e-05 4.9305272e-05 2.427748e-05
6.785574e-05 5.7698824e-05 6.753096e-05 4.2260697e-05 4.754177e-05 7.22849e-05 4.0937324e-05 2.944487e-05
5.303148e-05 3.704383e-05 3.4384964e-05 6.130833e-05 5.4999735e-05 1.7115359e-05 4.3480628e-05 7.7193276e-05
5.3650943e-05 5.053597e-05 0.00010065433 5.9266215e-05 4.029975e-05 2.6475427e-05 5.580046e-05 3.1279124e-05
6.728711e-05 5.38426e-05 7.270833e-05 3.9298866e-05 4.1117743e-05 7.37552e-05 4.0397554e-05 2.7565224e-05
5.392517e-05 4.2995875e-05 3.8467286e-05 5.908142e-05 6.1217856e-05 1.9697283e-05 3.9056187e-05 7.251944e-05
4.972524e-05 5.377438e-05 0.00010264816 5.5054148e-05 3.9174167e-05 2.5264002e-05 5.2187756e-05 3.111906e-05
6.9185844e-05 5.5674187e-05 7.3455514e-05 4.2817068e-05 4.718297e-05 6.706254e-05 3.657129e-05 2.2470673e-05
5.7819536e-05 2.995791e-05 4.1089865e-05 6.250727e-05 5.9634967e-05 1.7306187e-05 3.8720922e-05 7.046133e-05

exp_avg_sq f4 [128, 144]
00000000: de67 d434 22cb 1c33 29b7 a634 aa1a cd33
00000010: 724c d633 4946 0834 e498 f232 3b3a 0f33
00000020: 059b 9034 bc39 b233 4480 9033 192d 5c34
00000030: f8a4 ce33 88e8 0733 cc77 3233 47d1 9e33
00000040: f1a5 4734 550c e033 9859 8b34 11f4 b233
00000050: 08e1 2734 76f0 8533 afed 8e33 44fa 8233
00000060: c5eb 4f35 5792 e433 27f6 1335 57d7 8634
00000070: 4a4f 4b34 a0da 9c34 8135 e033 b690 0934
00000080: bd89 d734 430d 3334 5f24 2a34 7416 be34
00000090: 356f 3834 de1b 0d34 a61a 0f34 ff99 3a34
000000a0: 9aa1 9c34 57fe 5534 8f02 0535 e67a 1e34
000000b0: 242f d034 05a7 ea33 e994 0f34 ea2c fe33
000000c0: 16a3 4f35 508b fa33 c523 1335 757d 8a34
000000d0: 8199 4634 9dee 9234 73b4 eb33 cfee 0d34
000000e0: 3a76 d334 fb08 2d34 cfc5 3234 15bc c034
000000f0: 8828 3834 c5a4 0d34 b61e 2034 2de2 3734
00000100: 9ed2 9a34 7eea 4a34 a46c 0535 dbbd 2834
00000110: ff99 d734 0705 e333 6a35 0c34 5234 0234
00000120: 037f 4f35 dd8d fb33 0986 1835 d04e 8934
00000130: c546 4734 6118 a034 5bc7 f133 f4d9 1034
00000140: 1483 d834 5045 2834 3810 2834 da2b c434
00000150: 5ce3 3934 b010 0e34 42fe 2334 a9e7 3234
00000160: b752 9b34 8a9d 4634 81bc 0435 c4e9 2634
00000170: 0c4a d934 7a8a e833 4c1e 0c34 d447 f233
00000180: 2288 4f35 d8cd fc33 ce28 1b35 5b32 8a34
00000190: 00ab 4e34 bba1 9f34 92ad ea33 368c 1734
000001a0: 8b23 e334 8ea3 2b34 1b34 2234 01f4 c634
000001b0: dd8c 3b34 b17f 0a34 eeaa 2a34 6035 3034
000001c0: ed8c 9b34 d236 4834 975f 0235 d015 2334
000001d0: cf7d d534 6c2f f733 767a 0d34 2968 e833
000001e0: c975 4e35 2356 f333 3ac6 1935 d913 8d34
000001f0: df4b 5734 b905 a134 31e2 e733 6c02 1434
00000200: 2323 e234 7deb 2934 0df2 2934 5a34 c634
00000210: 86dd 3c34 ea80 0434 776c 2b34 d51c 3134
00000220: c955 9a34 b952 4b34 66e0 0435 bb03 3134
00000230: ec0f d834 fddb 0034 d29a 1134 ee12 ec33
00000240: ad72 e533 275d 3e33 68ae b633 dd29 0333
00000250: 6e98 9533 9c91 7933 dae4 bb32 2bfc af32
00000260: ea69 5833 fdc1 2233 d37b e232 fb24 4c33
00000270: 1f5a 9d33 5fee 8632 63b8 0b33 9cb3 3733
00000280: 8461 5433 cdf0 a333 366b 1f34 f425 4133
00000290: c65a 4333 0b08 d432 676f 0a33 0fb7 a832
000002a0: 9305 5f34 032f af33 ec9f 3934 e9f5 9233
000002b0: da65 0e34 1c33 0934 dba9 8a33 e4a9 6633
000002c0: 39ec fe33 d3d3 b833 edf2 8933 e75f c733
000002d0: 46ba 2034 1920 6233 5470 9f33 bb33 ca33
000002e0: 6575 fa33 d61f 3234 eec1 a334 afdd cf33
000002f0: 96ad cd33 7d04 7733 5344 aa33 93f8 5933
00000300: 1999 5d34 087a ce33 4f09 4134 89e2 ad33
00000310: 401e 1434 61c2 0b34 bba3 a133 a4cb 8433
00000320: 870b 0c34 61c0 c033 b78d 9533 5624 de33
00000330: cee3 2a34 a4cb 7233 9e7c b233 9b10 e733
00000340: 450c 0034 61b0 3934 4f04 a634 e719 db33
00000350: d973 df33 1c02 9d33 4783 b833 a00c 7133
00000360: 1134 5e34 c67b cd33 ef86 4634 7a44 ac33
00000370: e1c7 1834 0452 1034 64b6 9c33 0d1c 8d33
00000380: 5a92 0a34 f5c8 c233 acee 9433 a645 e033
00000390: 492e 2934 1d5b 6f33 d8db b433 129e e833
000003a0: 1fd0 0034 28d1 3934 7009 a634 e7dd d333
000003b0: 8d09 e233 0a80 9a33 124e c133 5351 6d33
000003c0: d650 6034 d0a9 d233 de87 4734 975f ac33
000003d0: 56f5 1834 4e5d 0f34 19ac 9533 4cb7 8c33
000003e0: 6595 0934 7d7a c233 d4fd 9233 ae10 e233
000003f0: 8650 2a34 abb4 7733 d758 ba33 43de e433
3.956365e-07 3.650633e-08 3.1053176e-07 9.5509066e-08 9.979057e-08 1.2691557e-07 2.8242034e-08 3.3347742e-08
2.6934882e-07 8.299273e-08 6.728854e-08 2.0505503e-07 9.62263e-08 3.1643623e-08 4.155281e-08 7.395516e-08
1.8593688e-07 1.0433056e-07 2.5955956e-07 8.333166e-08 1.5634953e-07 6.237035e-08 6.655625e-08 6.09912e-08
7.74566e-07 1.06436964e-07 5.5119966e-07 2.5116125e-07 1.8934693e-07 2.9216335e-07 1.0440545e-07 1.2811765e-07
4.0147088e-07 1.6675499e-07 1.5845715e-07 3.5406595e-07 1.7176792e-07 1.3141786e-07 1.3327607e-07 1.7378623e-07
2.9174845e-07 1.9929699e-07 4.9550084e-07 1.4759607e-07 3.8777318e-07 1.0926855e-07 1.3372086e-07 1.18359665e-07
7.735083e-07 1.1666873e-07 5.481382e-07 2.5795785e-07 1.8496031e-07 2.7368233e-07 1.0975864e-07 1.3218526e-07
3.9387834e-07 1.6115148e-07 1.6649504e-07 3.5899635e-07 1.715108e-07 1.3191591e-07 1.4912334e-07 1.7125485e-07
2.883798e-07 1.8898024e-07 4.9704454e-07 1.5715288e-07 4.0158918e-07 1.0571426e-07 1.3057948e-07 1.2126227e-07
7.7298336e-07 1.1713903e-07 5.681946e-07 2.5575582e-07 1.8559065e-07 2.982006e-07 1.12586996e-07 1.3490336e-07
4.0328507e-07 1.5671435e-07 1.565212e-07 3.653975e-07 1.731218e-07 1.3230851e-07 1.5273056e-07 1.666182e-07
2.8931183e-07 1.84975e-07 4.944814e-07 1.5544998e-07 4.0473276e-07 1.08285306e-07 1.3049538e-07 1.12820686e-07
7.731161e-07 1.1772107e-07 5.780138e-07 2.5741141e-07 1.9247454e-07 2.9733732e-07 1.09280464e-07 1.411398e-07
4.2307906e-07 1.5985117e-07 1.5106382e-07 3.705791e-07 1.7466978e-07 1.2898705e-07 1.5894668e-07 1.6410695e-07
2.8973537e-07 1.8646395e-07 4.8567875e-07 1.5188493e-07 3.976588e-07 1.151046e-07 1.31762e-07 1.08222885e-07
7.691238e-07 1.13312375e-07 5.72854e-07 2.6277738e-07 2.0051037e-07 2.999275e-07 1.079792e-07 1.3784455e-07
4.2121346e-07 1.5825022e-07 1.5827409e-07 3.6918465e-07 1.7589454e-07 1.2340357e-07 1.5965075e-07 1.6494899e-07
2.8747152e-07 1.8935943e-07 4.9500375e-07 1.6485767e-07 4.024472e-07 1.200096e-07 1.35605e-07 1.099305e-07
1.0684503e-07 4.4322544e-08 8.50676e-08 3.053889e-08 6.96608e-08 5.810726e-08 2.1873735e-08 2.0487354e-08
5.0387747e-08 3.7894996e-08 2.6366171e-08 4.7531085e-08 7.327275e-08 1.5708052e-08 3.2531158e-08 4.277136e-08
4.9448786e-08 7.6340804e-08 1.4847032e-07 4.4970832e-08 4.5484533e-08 2.4683706e-08 3.223195e-08 1.964102e-08
2.0770521e-07 8.157624e-08 1.7287647e-07 6.8433856e-08 1.3261834e-07 1.2777713e-07 6.457022e-08 5.3705563e-08
1.1870765e-07 8.606698e-08 6.4237476e-08 9.284104e-08 1.4968927e-07 5.2648918e-08 7.424447e-08 9.415768e-08
1.1662886e-07 1.6589124e-07 3.0502218e-07 9.679513e-08 9.5776315e-08 5.751325e-08 7.92867e-08 5.0750327e-08
2.0637926e-07 9.61482e-08 1.7977912e-07 8.097147e-08 1.3794579e-07 1.3016098e-07 7.526929e-08 6.183771e-08
1.304271e-07 8.97569e-08 6.964131e-08 1.034429e-07 1.5915359e-07 5.6530226e-08 8.311439e-08 1.0759796e-07
1.1925393e-07 1.7293634e-07 3.0923044e-07 1.0202694e-07 1.0405319e-07 7.311266e-08 8.592047e-08 5.6123667e-08
2.0694303e-07 9.568571e-08 1.8489276e-07 8.02183e-08 1.4228819e-07 1.3440882e-07 7.297493e-08 6.5709266e-08
1.2905494e-07 9.070383e-08 6.935201e-08 1.0443482e-07 1.575619e-07 5.572939e-08 8.4218925e-08 1.0832095e-07
1.1996643e-07 1.7305558e-07 3.0926776e-07 9.865817e-08 1.05256824e-07 7.194474e-08 9.001464e-08 5.5254826e-08
2.0891034e-07 9.809776e-08 1.8582747e-07 8.026762e-08 1.4245356e-07 1.3351857e-07 6.9696576e-08 6.5525995e-08
1.2813469e-07 9.0561095e-08 6.844826e-08 1.0526979e-07 1.5861778e-07 5.7673486e-08 8.67746e-08 1.06575065e-07

exp_avg f4 [128]
00000000: 9e84 2db9 017b e138 960b 0138 e2c3 f3b8
00000010: 60a6 3638 0400 0000 0aa8 7139 2332 70b8
00000020: 0400 0000 0674 0339 506f 17b9 5fd0 1d38
00000030: 86f7 1438 0400 0000 f437 c837 742c f038
00000040: 0000 0000 0000 0000 0400 0000 984b 9d38
00000050: 2428 51b8 6326 d9b7 50fb 35b6 d4aa 9138
00000060: a033 1739 5c4f 2db7 eddf 06b9 e2cb bab7
00000070: 0400 0000 5456 7138 29ec 3fb9 014f 0ab9
00000080: a5e4 7b38 4424 d038 24e3 afb9 74ea 8439
00000090: fb69 2939 65d6 e938 aaa8 8bb7 6e50 7538
000000a0: 6b75 00b8 5620 f6b8 0400 0000 0677 d638
000000b0: 1daf 3339 593e 9138 2d9c 21b9 a60f e8b8
000000c0: a8ba 3c38 2312 dc38 d292 3138 fecc bc39
000000d0: 0649 b838 1f82 88b7 c08e d237 b809 bab6
000000e0: 8548 2bb6 75b5 ac38 4e7a 2c39 aa5d 1738
000000f0: c3da 0f38 68a6 2238 b05f c536 a08c 4cb6
00000100: 3415 e937 2312 7e38 706e 80b8 3731 74b8
00000110: 6256 0a39 41cc e738 a00d 20b9 c878 9b38
00000120: c283 0eb8 aa6e a1b8 170c aa38 d420 3d36
00000130: 0400 0000 7d6b 5cb8 34f7 66b8 1554 8339
00000140: 0400 0000 78b1 1739 4643 f2b6 f475 0538
00000150: 4e40 7838 f790 b1b8 f1e0 4bb9 05c8 1438
00000160: a6c9 0539 e203 e238 ff8f 8db9 b8fb 23b7
00000170: 640b a0b8 0000 0000 c373 eb38 0000 0000
00000180: ebf2 c138 0400 0000 e00a 5d39 13a0 3239
00000190: f97d cf38 eeec 6538 e9af adb8 0400 0000
000001a0: 2446 6e39 90dd ae37 d03a 2637 1abb dab7
000001b0: 0400 0000 a7eb 0739 c812 75b8 ce00 94b8
000001c0: c002 fdb5 d6b3 1438 398e 7139 205c 05b9
000001d0: 402b 8439 8161 1438 0400 0000 002b 56b6
000001e0: 4e47 1e39 30d4 8738 70bf 2237 cb58 3c38
000001f0: 56e5 0e38 0000 0000 6115 4439 348b ef37
-0.0001654797 0.00010751747 3.0766787e-05 -0.00011623629 4.354713e-05 6e-45 0.0002304615 -5.7267152e-05
6e-45 0.00012536356 -0.0001444195 3.7625778e-05 3.5516474e-05 6e-45 2.3867913e-05 0.00011452372
0.0 0.0 6e-45 7.500424e-05 -4.9866867e-05 -2.5886291e-05 -2.7117385e-06 6.945958e-05
0.00014419714 -1.0330081e-05 -0.00012862655 -2.2267868e-05 6e-45 5.7539277e-05 -0.00018303156 -0.00013190137
6.0056005e-05 9.924968e-05 -0.00033547834 0.00025351683 0.00016156577 0.0001115024 -1.6648632e-05 5.8487458e-05
-3.0626932e-05 -0.00011736217 6e-45 0.00010226485 0.00017136005 6.925752e-05 -0.00015412337 -0.00011065537
4.499653e-05 0.00010493796 4.2336826e-05 0.00036010885 8.7874054e-05 -1.6273056e-05 2.5100424e-05 -5.5443634e-06
-2.5523198e-06 8.235398e-05 0.0001644876 3.6088437e-05 3.4297595e-05 3.8778788e-05 5.882197e-06 -3.0480223e-06
2.7785638e-05 6.057521e-05 -6.124086e-05 -5.821997e-05 0.00013192886 0.000110529836 -0.00015263865 7.413473e-05
-3.3978147e-05 -7.697691e-05 8.1084836e-05 2.8182303e-06 6e-45 -5.2552194e-05 -5.50665e-05 0.00025048913
6e-45 0.00014466594 -7.2199937e-06 3.1819523e-05 5.9187696e-05 -8.4670195e-05 -0.00019443386 3.5472232e-05
0.00012758988 0.00010777243 -0.000270009 -9.774165e-06 -7.631516e-05 0.0 0.000112272355 0.0
9.248204e-05 6e-45 0.00021080254 0.00017035035 9.8939934e-05 5.4818513e-05 -8.282049e-05 6e-45
0.00022723578 2.084559e-05 9.908064e-06 -2.6074751e-05 6e-45 0.0001296239 -5.8430043e-05 -7.05734e-05
-1.8850769e-06 3.5453435e-05 0.00023036533 -0.00012718188 0.00025209226 3.5376757e-05 6e-45 -3.1913514e-06
0.00015094617 6.476825e-05 9.700525e-06 4.4905388e-05 3.4069024e-05 0.0 0.00018699981 2.8555842e-05

exp_avg_sq f4 [128]
00000000: 3145 4d35 afbc c734 08f3 fe34 28be ad34
00000010: d251 2c35 f7a5 c028 96d1 3535 6834 4334
00000020: 2619 632a 283c 0a35 c094 3535 fb57 0935
00000030: d45e cc34 375d 162b a3cb 8934 1cb8 eb34
00000040: 0000 0000 0000 0000 2219 6029 6305 f334
00000050: a9c4 2334 4d4b 8a34 a52b 0935 bdc1 9b34
00000060: 2d94 3634 54a3 5934 2ed1 a434 5983 1b35
00000070: 82f2 1b29 cbfd 2635 1be9 5a35 55a8 1f35
00000080: 6b1d e434 1b2f ea34 7145 0736 4436 5535
00000090: ce49 e534 d711 0234 2850 ab34 d9c7 5934
000000a0: 282a b134 ba3e d034 0dea 0328 d057 3c35
000000b0: 13b0 1d35 0ef8 1334 e08f 9634 c7fe 6234
000000c0: 7bf9 9934 e8b0 ae34 2821 8e34 7339 7935
000000d0: fca7 5f34 a02b 4834 aa33 e733 5311 dc34
000000e0: d6b3 8334 c9c3 aa34 82ff 0a35 bb24 a034
000000f0: d7af 2a34 bda0 2434 e4fd 9f34 9482 f334
00000100: 35f5 a934 77a1 0635 60cd 2834 145e 8833
00000110: bd21 b734 93e1 c934 73db ed34 5875 8834
00000120: 07d4 bf34 aabf 0c35 22b1 0935 c8f0 9734
00000130: 4447 c929 ef7c ba34 7ec9 4434 a4ee 4235
00000140: 9a9d 0d28 4130 0035 5b3e 9734 0a55 3534
00000150: 4611 5835 fa96 fc34 8439 3f35 0a78 8f34
00000160: 2ad5 c234 b4c2 a434 e329 2335 b1e0 0535
00000170: 0d48 8335 0000 0000 fa27 e634 0000 0000
00000180: 621e d734 09f6 8b28 71f1 6135 9d07 f534
00000190: 4a27 0f34 a97b 9634 ef05 2e35 f69e fb28
000001a0: f98d 0f35 d601 2035 ea23 3e34 6c4e 0b35
000001b0: cda2 ea2b 4b9c 3835 98c0 5034 831b 3035
000001c0: 1ae1 bf34 7fd4 eb34 5665 f334 2572 3535
000001d0: 7e57 ef34 2c3e 9134 6e03 802b db72 4535
000001e0: b38f b334 4f91 8c34 8dc9 fd34 cf7b c034
000001f0: c6b5 cc34 0000 0000 000b e634 fdde cf34
7.646914e-07 3.7203924e-07 4.7488015e-07 3.2362118e-07 6.419406e-07 2.1388258e-14 6.773274e-07 1.8179855e-07
2.0170375e-13 5.1496545e-07 6.7644214e-07 5.1164506e-07 3.8066958e-07 5.3420067e-13 2.5666404e-07 4.3906118e-07
0.0 0.0 4.975979e-14 4.5266196e-07 1.5252103e-07 2.5759292e-07 5.109999e-07 2.9011963e-07
1.7003977e-07 2.0269118e-07 3.069958e-07 5.7933136e-07 3.4627256e-14 6.2209136e-07 8.155054e-07 5.947707e-07
4.2489714e-07 4.362017e-07 2.0156988e-06 7.942765e-07 4.2708274e-07 1.2113684e-07 3.1909553e-07 2.0282404e-07
3.2999492e-07 3.878866e-07 7.3227125e-15 7.016324e-07 5.874328e-07 1.3780684e-07 2.804436e-07 2.1140578e-07
2.8679992e-07 3.2538742e-07 2.6473685e-07 9.284333e-07 2.0829606e-07 1.8642322e-07 1.07661734e-07 4.0990798e-07
2.45315e-07 3.180742e-07 5.178082e-07 2.9829047e-07 1.5896454e-07 1.5332166e-07 2.9800788e-07 4.5357285e-07
3.1657115e-07 5.015385e-07 1.5720934e-07 6.350106e-08 3.4110954e-07 3.7603294e-07 4.430436e-07 2.5417353e-07
3.5730793e-07 5.243297e-07 5.129424e-07 2.8301133e-07 8.938556e-14 3.47361e-07 1.8327225e-07 7.26179e-07
7.861247e-15 4.7753934e-07 2.817131e-07 1.6887876e-07 8.0491407e-07 4.7048508e-07 7.123674e-07 2.6723166e-07
3.6290413e-07 3.0689046e-07 6.0783185e-07 4.987333e-07 9.78123e-07 0.0 4.2869925e-07 0.0
4.0068977e-07 1.55388e-14 8.4170375e-07 4.5640346e-07 1.3332206e-07 2.8029652e-07 6.4828686e-07 2.7935536e-14
5.347825e-07 5.9607316e-07 1.7708194e-07 5.1895654e-07 1.6671886e-12 6.877278e-07 1.9441575e-07 6.5605144e-07
3.5740305e-07 4.3926772e-07 4.533601e-07 6.7593857e-07 4.4580878e-07 2.705359e-07 9.095899e-13 7.3555356e-07
3.3445903e-07 2.6182758e-07 4.727157e-07 3.585287e-07 3.813022e-07 0.0 4.2848842e-07 3.8719e-07

exp_avg f4 [64, 128]
00000000: f4d6 29b9 ea30 4ab9 30f3 0bb6 3e4f fbb7
00000010: 6e13 04b9 0000 0000 d858 1eb9 4d8d 4b37
00000020: 0400 0000 d15c 53b9 167a c0b8 83d2 9bb8
00000030: f640 01b9 0000 0000 33f5 f3b8 1287 b2b8
00000040: 0000 0000 0000 0000 0400 0000 82b0 87b9
00000050: 76a7 2bb9 5c47 3fb9 ff37 21b9 f61c 80b9
00000060: d116 05b9 e813 a1b8 6fae 1eb9 e8ba bab8
00000070: 0000 0000 b477 5cb9 d863 f9b6 a1bf c4b8
00000080: 2e06 78b8 7693 3cb9 a636 b2b8 06b4 97b8
00000090: 85a6 84b8 4754 8d37 387c b2b8 6364 fab8
000000a0: e763 e537 34a4 9cb8 0000 0000 2027 01b9
000000b0: 145f 2837 2673 5eb9 76b1 21b9 2277 21b9
000000c0: 6ecf 58b8 3c95 9db8 62f8 50b8 c428 6738
000000d0: 96d3 f1b8 1455 aab7 088b 7eb8 d046 80b8
000000e0: d693 92b8 4a43 edb8 1518 bdb7 0feb f1b8
000000f0: 1dfc 17b9 39a2 60b9 8ad1 dfb8 3ba1 66b7
00000100: fd37 05b9 9ee9 dcb8 8ec2 28b9 5289 8cb8
00000110: 10e5 89b7 ecc3 e9b7 eb3d d2b8 66d3 1ab9
00000120: 3ecc 2db9 ec0b 50b9 ab57 75b9 66c1 f6b8
00000130: 0400 0000 e1b9 84b8 aa0a 87b9 12e0 b7b7
00000140: 0000 0000 4e8d c6b8 6c86 1db9 ea1c feb8
00000150: a7e5 17b9 3194 f2b8 3994 38b8 5e58 20b9
00000160: dcd5 deb8 937e 25b9 06ac 21b9 5e31 02b9
00000170: c07e 1eb9 0000 0000 34c3 dab8 0000 0000
00000180: c557 52b9 0400 0000 f816 fab8 1e9d 64b8
00000190: 44b9 cab8 bc8b 15b9 6a8c d1b8 0400 0080
000001a0: d211 e0b8 e8bf 8236 6289 20b9 f383 06b9
000001b0: 0400 0080 f3a4 43b8 b8ca 40b8 c7c3 ceb8
000001c0: 101b 1737 ebb7 d0b8 9c4d 97b8 acaf 04b8
000001d0: 0d0a e2b8 cf06 0ab9 0400 0080 8ddf 1ab9
000001e0: 7d7c c6b8 5823 edb8 888a 7cb9 e2d0 ebb8
000001f0: 661a 3f37 0000 0000 8ab2 15b9 4f20 0cb9
00000200: 0400 0000 0400 0000 0400 0000 0400 0000
00000210: 0400 0000 0400 0000 0400 0000 0400 0000
00000220: 0400 0000 0400 0000 0400 0000 0400 0000
00000230: 0400 0000 0400 0000 0400 0000 0400 0000
00000240: 0000 0000 0000 0000 0400 0000 0400 0000
00000250: 0400 0000 0400 0000 0400 0000 0400 0000
00000260: 0400 0000 0400 0000 0400 0000 0400 0000
00000270: 0400 0000 0400 0000 0400 0000 0400 0000
00000280: 0400 0000 0400 0000 0400 0000 0400 0000
00000290: 0400 0000 0400 0000 0400 0000 0400 0000
000002a0: 0400 0000 0400 0000 0000 0000 0400 0000
000002b0: 0400 0000 0400 0000 0400 0000 0400 0000
000002c0: 0400 0000 0400 0000 0400 0000 0400 0000
000002d0: 0400 0000 0400 0000 0400 0000 0400 0000
000002e0: 0400 0000 0400 0000 0400 0000 0400 0000
000002f0: 0400 0000 0400 0000 0400 0000 0400 0000
00000300: 0400 0000 0400 0000 0400 0000 0400 0000
00000310: 0400 0000 0400 0000 0400 0000 0400 0000
00000320: 0400 0000 0400 0000 0400 0000 0400 0000
00000330: 0400 0000 0400 0000 0400 0000 0400 0000
00000340: 0400 0000 0400 0000 0400 0000 0400 0000
00000350: 0400 0000 0400 0000 0400 0000 0400 0000
00000360: 0400 0000 0400 0000 0400 0000 0400 0000
00000370: 0400 0000 0000 0000 0400 0000 0000 0000
00000380: 0400 0000 0400 0000 0400 0000 0400 0000
00000390: 0400 0000 0400 0000 0400 0000 0400 0000
000003a0: 0400 0000 0400 0000 0400 0000 0400 0000
000003b0: 0400 0000 0400 0000 0400 0000 0400 0000
000003c0: 0400 0000 0400 0000 0400 0000 0400 0000
000003d0: 0400 0000 0400 0000 0400 0000 0400 0000
000003e0: 0400 0000 0400 0000 0400 0000 0400 0000
000003f0: 0400 0000 0000 0000 0400 0000 0400 0000
-0.00016197172 -0.00019282443 -2.0854168e-06 -2.9958432e-05 -0.00012595739 0.0 -0.00015101151 1.2132642e-05
6e-45 -0.00020157105 -9.178014e-05 -7.430187e-05 -0.00012326599 0.0 -0.00011632815 -8.51286e-05
0.0 0.0 6e-45 -0.00025880715 -0.00016370215 -0.00018241763 -0.00015375017 -0.0002443564
-0.00012692368 -7.680786e-05 -0.00015133036 -8.903985e-05 0.0 -0.00021025428 -7.4324016e-06 -9.381702e-05
-5.9133563e-05 -0.0001798401 -8.4978805e-05 -7.233773e-05 -6.325267e-05 1.6847755e-05 -8.510839e-05 -0.000119396274
2.7345448e-05 -7.469245e-05 0.0 -0.00012316974 1.0035717e-05 -0.00021214466 -0.00015420266 -0.00015398537
-5.1691597e-05 -7.5141405e-05 -4.982239e-05 5.5112658e-05 -0.000115311865 -2.0305197e-05 -6.0687802e-05 -6.1167055e-05
-6.989359e-05 -0.00011313574 -2.254177e-05 -0.000115355586 -0.00014494402 -0.00021422737 -0.00010672498 -1.3746608e-05
-0.00012704726 -0.00010533932 -0.00016094206 -6.701298e-05 -1.6438338e-05 -2.7866998e-05 -0.000100251134 -0.00014765337
-0.00016574652 -0.00019840867 -0.0002339768 -0.00011766217 6e-45 -6.328873e-05 -0.00025757152 -2.191964e-05
0.0 -9.467696e-05 -0.00015022763 -0.000121170495 -0.00014486034 -0.00011567062 -4.400706e-05 -0.00015291708
-0.00010625619 -0.00015782779 -0.0001541824 -0.00012416157 -0.00015115272 0.0 -0.000104314095 0.0
-0.00020059857 6e-45 -0.00011925207 -5.4505763e-05 -9.666619e-05 -0.00014261802 -9.992051e-05 -6e-45
-0.000106844716 3.8966427e-06 -0.00015309968 -0.00012828391 -6e-45 -4.6645244e-05 -4.5965164e-05 -9.859312e-05
9.006602e-06 -9.95247e-05 -7.214697e-05 -3.163486e-05 -0.00010778392 -0.00013163242 -6e-45 -0.00014769864
-9.4645635e-05 -0.00011307624 -0.000240842 -0.00011244581 1.13906335e-05 0.0 -0.00014276258 -0.00013363476
6e-45 6e-45 6e-45 6e-45 6e-45 6e-45 6e-45 6e-45
6e-45 6e-45 6e-45 6e-45 6e-45 6e-45 6e-45 6e-45
0.0 0.0 6e-45 6e-45 6e-45 6e-45 6e-45 6e-45
6e-45 6e-45 6e-45 6e-45 6e-45 6e-45 6e-45 6e-45
6e-45 6e-45 6e-45 6e-45 6e-45 6e-45 6e-45 6e-45
6e-45 6e-45 0.0 6e-45 6e-45 6e-45 6e-45 6e-45
6e-45 6e-45 6e-45 6e-45 6e-45 6e-45 6e-45 6e-45
6e-45 6e-45 6e-45 6e-45 6e-45 6e-45 6e-45 6e-45
6e-45 6e-45 6e-45 6e-45 6e-45 6e-45 6e-45 6e-45
6e-45 6e-45 6e-45 6e-45 6e-45 6e-45 6e-45 6e-45
6e-45 6e-45 6e-45 6e-45 6e-45 6e-45 6e-45 6e-45
6e-45 6e-45 6e-45 6e-45 6e-45 0.0 6e-45 0.0
6e-45 6e-45 6e-45 6e-45 6e-45 6e-45 6e-45 6e-45
6e-45 6e-45 6e-45 6e-45 6e-45 6e-45 6e-45 6e-45
6e-45 6e-45 6e-45 6e-45 6e-45 6e-45 6e-45 6e-45
6e-45 6e-45 6e-45 6e-45 6e-45 0.0 6e-45 6e-45
