models/RaceModels/reg_pos_3copies_1to10_2HL_mse/model.pt (torch, 538909 bytes, 24 tensors)

fc1.weight f4 [128, 240]
0	0x3c8eebba	0.017446388
1	0xbd8646ce	-0.06556474
2	0x3d6ca254	0.057771996
3	0xbd61b843	-0.055107366
4	0x3d0d701f	0.034530755
5	0x3ab6c299	0.0013943493
6	0xbd5ffee4	-0.054686442
7	0xbd61cf8c	-0.055129573
8	0x3bbaa9e9	0.0056965244
9	0x3cf2ed95	0.029654304
10	0xbd28cee1	-0.04121292
11	0x3cdca8aa	0.026935894
12	0xbd6dcdd8	-0.058057636
13	0xbd3ac0df	-0.045594092
14	0xbbac6d65	-0.0052620643
15	0xbd88c094	-0.06677356
16	0xbd35a393	-0.04434545
17	0x3d049ac6	0.032374166
18	0x3bc411c7	0.0059835645
19	0x3cc82230	0.024430364
20	0x3d63cb13	0.05561359
21	0xbc84323c	-0.016137235
22	0xbd6e30d7	-0.058152046
23	0xbb34f37c	-0.0027610948
24	0x3c077634	0.008267928
25	0x3d4de0da	0.050263263
26	0xbd08133a	-0.03322146
27	0x3d3a1e67	0.04543915
28	0x3cb1dfb4	0.021713115
29	0xbd1c6d5e	-0.03819024
30	0xbba62522	-0.0050703445
31	0xbca10f1b	-0.019660523
32	0xbc3c4c48	-0.011492796
33	0x3cb7f390	0.022455007
34	0x3d26a3cb	0.04068355
35	0x3d5a23b5	0.05325671
36	0xbb58f124	-0.0033102715
37	0x3d09f579	0.033681367
38	0xbd8dae38	-0.06917995
39	0xbd0cb8ed	-0.034356046
40	0xbd160e5e	-0.036634795
41	0xbd542a64	-0.05179824
42	0xbd344cad	-0.044018436
43	0xbce3ccb4	-0.027807571
44	0x3cf73593	0.030176913
45	0xbc0a73e3	-0.008450481
46	0xbbaf47ca	-0.005349134
47	0x3d07e980	0.033181667
48	0x3ca72eaa	0.020407993
49	0x3c9bc539	0.019014942
50	0xbd3b5cdc	-0.045742854
51	0x3d01a789	0.031653915
52	0xbd07f364	-0.0331911
53	0xbd65add4	-0.05607398
54	0x3cedb505	0.02901698
55	0xbd5f33d0	-0.05449277
56	0x3d03d615	0.032186586
57	0xbcdf643c	-0.027269475
58	0xbcd801c2	-0.026368026
59	0xbb82d6e3	-0.0039929016
60	0x3cd45bb4	0.025922634
61	0xbc4dd7d7	-0.012563667
62	0x3cfeb921	0.031094136
63	0x397a3834	0.00023862795
64	0xbd8d5662	-0.06901242
65	0x3cc345ad	0.023836935
66	0xbd80ca40	-0.06288576
67	0xbd2c8926	-0.042122982
68	0xbcf91f8b	-0.030410549
69	0x3d3421fb	0.04397772
70	0xbd784e74	-0.060621694
71	0xbcdcc8ed	-0.026951278
72	0x3ba8d3bb	0.0051521934
73	0x3d1de01d	0.03854381
74	0x3cbc4e4d	0.022986555
75	0x3c30e4f9	0.010796779
76	0x3b050bdc	0.0020301258
77	0xba6cc282	-0.00090316695
78	0x3c42a8be	0.011881052
79	0x3c97a036	0.018509012
80	0xbd8adcbd	-0.06780384
81	0xbd5578f9	-0.05211732
82	0xbd6bbe80	-0.05755472
83	0x3d098f7f	0.033584114
84	0x3d48e513	0.049046587
85	0x3cd8c484	0.026460893
86	0x3d40dfdb	0.047088485
87	0x3c4bb1b6	0.012432506
88	0xbd347d11	-0.044064585
89	0x3cc2da43	0.023785716
90	0x3b5a32a5	0.0033294347
91	0xbd598e54	-0.05311425
92	0xbd5163b4	-0.051120475
93	0x3d4b8939	0.049691413
94	0xbd146213	-0.036226343
95	0x3d4ba561	0.049718264
96	0xbd88c5d2	-0.06678356
97	0xbd5a8425	-0.05334868
98	0x3d2a4d5f	0.041577693
99	0xbd4e557c	-0.050374493
100	0x3d44186f	0.047874864
101	0x3cbd5b71	0.023114892
102	0xbd665d4c	-0.05624132
103	0xba93a2b3	-0.0011263698
104	0xbd4ac6f4	-0.049506143
105	0xbcc4835c	-0.023988418
106	0x3cea48d5	0.028599182
107	0x3bed25f7	0.007237192
108	0xbd75f012	-0.060043402
109	0xbc260935	-0.010134031
110	0xbcb99bf5	-0.022657374
111	0x3d3a9148	0.045548707
112	0x3d519032	0.051162906
113	0x3d4b8bc1	0.049693827
114	0xbba582b5	-0.005050982
115	0x3d47fe3e	0.04882645
116	0x3d2fb090	0.042892992
117	0xbd664970	-0.05622238
118	0x3d30de1d	0.043180574
119	0xbd6c05de	-0.057622783
120	0xbd78d627	-0.060751107
121	0x3d4bfcd5	0.049801666
122	0x3cb57d0b	0.022154352
123	0xbd6a7ac2	-0.057245977
124	0xbc6ee373	-0.014580595
125	0x3c0c9237	0.008579782
126	0x3d1abc3b	0.037777167
127	0xbd4be0b2	-0.049774833
128	0xbab9c1de	-0.0014172157
129	0xbd341e14	-0.043973997
130	0x3be75b15	0.0070604184
131	0xbc766e6c	-0.015040975
132	0x3d03994d	0.03212862
133	0xbd414fd6	-0.047195278
134	0xbc578080	-0.013153195
135	0x3d5bce18	0.053663343
136	0x3cb333d0	0.021875292
137	0xbb178b0d	-0.0023123652
138	0xbd3885a2	-0.045049317
139	0xbc0990f7	-0.008396379
140	0x3cfb559e	0.030680474
141	0xbd5fec4f	-0.05466872
142	0xba864ec4	-0.0010246863
143	0xbceec99f	-0.029148875
144	0xbd2b251a	-0.04178343
145	0xbd8c4eb2	-0.068509474
146	0x3cfac69f	0.030612288
147	0xbd0e99ba	-0.034814574
148	0xbd5cca38	-0.05390379
149	0xbd78ed8e	-0.060773425
150	0xbd66338f	-0.056201514
151	0x3d3f8125	0.04675402
152	0x3cda2d22	0.02663285
153	0xbd0d0bb3	-0.034434985
154	0xbd1513d1	-0.03639585
155	0x3c0a8a04	0.008455757
156	0xbd4a96ef	-0.049460348
157	0xbc6cf1e7	-0.014461971
158	0xbd2abacd	-0.041682053
159	0x3d243d4e	0.040097527
160	0xbd465b4f	-0.048426922
161	0xbd2e0dbd	-0.04249357
162	0x3d2ce215	0.042207796
163	0xbcd27505	-0.025690565
164	0xbd50a114	-0.050934866
165	0x3d5106cb	0.05103187
166	0xbd85f46a	-0.06540759
167	0xbd80121c	-0.06253454
168	0xbb8bf115	-0.0042706826
169	0x3cb08f61	0.021552743
170	0xbcaccb36	-0.021092992
171	0xbcefc4c2	-0.029268626
172	0xbd7502a2	-0.059816964
173	0x3d31e574	0.043431714
174	0x3d2586cb	0.04041175
175	0x3d2bc633	0.041937064
176	0xbd864f74	-0.06558123
177	0x3d1c590c	0.03817086
178	0xbd7b4beb	-0.061351698
179	0x3cf4b4a9	0.029871302
180	0xbd6e551d	-0.05818664
181	0x3c364d45	0.011126821
182	0xbd3896dd	-0.04506575
183	0xbbca67ac	-0.0061769094
184	0xbd12804f	-0.035766896
185	0xbb4a39af	-0.0030857136
186	0x3cf0b90b	0.02938511
187	0x3cc7bca9	0.024381952
188	0xba3370dc	-0.00068451255
189	0x3ba5bb6b	0.0050577424
190	0x3d406149	0.04696778
191	0xbccd52b9	-0.02506386
192	0x3c82d0c2	0.015968684
193	0xbd6f5139	-0.05842707
194	0x3c0c2832	0.008554505
195	0xbc6324a7	-0.013863719
196	0x3d72411e	0.05914413
197	0x3b1b5ff0	0.0023708306
198	0x3d27d035	0.040970046
199	0xbc99191f	-0.018688736
200	0x3d174e53	0.03693993
201	0xbc7615dc	-0.01501986
202	0xbd118de2	-0.0355357
203	0x3cbde482	0.02318025
204	0xbb44839c	-0.0029985672
205	0xbd65cdad	-0.05610435
206	0xbd3f5601	-0.04671288
207	0xbc479562	-0.012181612
208	0x3d56c8c5	0.052437562
209	0xbb9637c0	-0.0045842826
210	0xbc829da0	-0.015944302
211	0xbd37c5c2	-0.04486633
212	0xbd82abc1	-0.06380416
213	0xbd6b0c42	-0.057384737
214	0xbd4dc476	-0.050236188
215	0x3d4501d4	0.048097447
216	0x3ca60cda	0.0202698
217	0xbd0d9e52	-0.034574814
218	0xbd289a05	-0.04116251
219	0x3ba13171	0.004919224
220	0xbc7c6a2a	-0.015406171
221	0x3b58bf32	0.0033072946
222	0x3d3090ad	0.043106724
223	0x3c3b1441	0.011418403
224	0x3c2e9b14	0.010657091
225	0x3d567ba0	0.05236399
226	0xbd65c3cf	-0.05609494
227	0xbc421e30	-0.011848018
228	0x3d35523b	0.044267874
229	0xbd656054	-0.05600007
230	0x3c3ef601	0.011655332
231	0xbd616b58	-0.05503401
232	0x3d2447a7	0.040107395
233	0x3d35b396	0.04436072
234	0x3d128a07	0.035776164
235	0xbd5b30f4	-0.053513482
236	0x3c0f612f	0.008751198
237	0xbc9915ed	-0.018687213
238	0xbd74bea7	-0.059752133
239	0xbd08c518	-0.03339109
240	0x3d0f3eda	0.03497205
241	0x3dd75196	0.10513608
242	0xbda3932a	-0.07987054
243	0xbc76df16	-0.015067836
244	0x3dac0920	0.08400178
245	0xbe270a21	-0.16312458
246	0x3e1b6535	0.15175326
247	0xbe2dade2	-0.16960862
248	0x3dc0daae	0.0941671
249	0xbdf7f930	-0.121080756
250	0xbd0bcfed	-0.03413384
251	0x3e4ca2d5	0.1998399
252	0xbc8fc4d8	-0.017549917
253	0x3c30e9ac	0.010797899
254	0x3b27ce12	0.0025605005
255	0x3e5db484	0.21650892

fc1.bias f4 [128]
0	0xbc6abadc	-0.014326777
1	0xbd2a1e97	-0.04153308
2	0xbd5140cb	-0.051087182
3	0xbd84c150	-0.06482184
4	0x3beea62a	0.007282992
5	0x3c8054ad	0.015665377
6	0x3d2cefb6	0.042220794
7	0x3b5e1001	0.003388405
8	0xbc3b1a06	-0.011419779
9	0xbcc7b438	-0.024377927
10	0x3c3de90e	0.011591209
11	0xbcd5cddd	-0.02609914
12	0xbc328573	-0.010896075
13	0x3c9d6b40	0.01921618
14	0xbcaa9dd0	-0.020827204
15	0xbd14abee	-0.036296777
16	0x3c40d51d	0.01176956
17	0xbd54c59c	-0.051946267
18	0xbd3117c3	-0.04323555
19	0x3d396a5b	0.045267444
20	0x3dc062db	0.09393855
21	0x3c688a77	0.014193169
22	0x3d12ec65	0.035869975
23	0xbd26b1ca	-0.040696897
24	0xbd792127	-0.060822632
25	0xbbac92d0	-0.005266525
26	0xbc88fdc9	-0.016722577
27	0xbb289bf4	-0.002572772
28	0xbc3e70bb	-0.011623557
29	0xbd8c32a3	-0.06845596
30	0x3d542b2e	0.05179899
31	0x3b616ff3	0.0034399002
32	0x3d2be16e	0.041963033
33	0x3c3dfe39	0.011596256
34	0xbd766e7b	-0.060163956
35	0x3dd3bbe1	0.103385694
36	0xbca5c970	-0.020237654
37	0xbd88d62f	-0.06681477
38	0x3d1da2ca	0.038485326
39	0xbc05f05e	-0.008174984
40	0xbd99e8a2	-0.07515074
41	0xbbadd02b	-0.0053043566
42	0xbd6f0902	-0.0583582
43	0xbc62b21c	-0.01383641
44	0xbd83bfff	-0.06433105
45	0x3d450461	0.04809988
46	0xbd533dbc	-0.051572546
47	0x3d450a0c	0.048105285
48	0x3c5e1831	0.013555572
49	0xbd6a50be	-0.057205908
50	0x3cc7b01c	0.024375968
51	0xbd849863	-0.06474378
52	0x3c8f6111	0.01750234
53	0xbbe84081	-0.0070877676
54	0xbd289fc2	-0.041167982
55	0xbb5e3d78	-0.003391115
56	0xbd4f6adb	-0.050639015
57	0x3c30ba16	0.010786554
58	0xbdd760b2	-0.1051649
59	0xbd01c702	-0.03168393
60	0xbd298b7c	-0.04139279
61	0x3c418cce	0.011813356
62	0xbd3dd81b	-0.046348672
63	0x3cd91f14	0.026504077
64	0xbd17ac2b	-0.037029427
65	0xbdc4b043	-0.09603932
66	0xbcb9d5f0	-0.022685021
67	0xbd31871f	-0.043341752
68	0xbcac1bcf	-0.021009354
69	0xbcc76362	-0.024339382
70	0x3c4fa33c	0.012673195
71	0xbc5fcfe7	-0.013660408
72	0xbbd8cfa7	-0.006616551
73	0xbda9b516	-0.082864925
74	0x3c9ec64b	0.019381663
75	0x3d037f49	0.03210381
76	0xbb2e332a	-0.002658079
77	0x3d052ffc	0.032516465
78	0xbd4d73e6	-0.050159357
79	0xbd65d6d3	-0.056113075
80	0xbd311dbc	-0.043241248
81	0xbc4e6472	-0.01259719
82	0xbcbfa0c2	-0.023392085
83	0x3cc88afa	0.024480332
84	0xbdce2567	-0.10065728
85	0x3cfe8fbc	0.031074397
86	0xbce7764c	-0.02825465
87	0x3d44c173	0.04803605
88	0x3cb5d137	0.022194488
89	0xbd13d0be	-0.036087744
90	0xbdd5c963	-0.10438802
91	0xbcbdf03e	-0.023185845
92	0xbd482b6b	-0.04886953
93	0xbc9c6e67	-0.019095613
94	0xbd54a04a	-0.051910676
95	0xbd1854fe	-0.03719043
96	0xbd007309	-0.031359706
97	0xbd618dce	-0.055066876
98	0xbd00d552	-0.031453438
99	0xbc92033f	-0.017823813
100	0xbc68fa59	-0.014219844
101	0xbceb9074	-0.028755404
102	0x3d5147bb	0.051093798
103	0xbdb59446	-0.088661715
104	0xbc65c3be	-0.014023719
105	0xbd6175bf	-0.055043932
106	0xbd8f848e	-0.07007705
107	0xbd04f154	-0.03245671
108	0xbd81da7e	-0.06340502
109	0x3d716ae9	0.058939848
110	0xbd07b7a3	-0.033134114
111	0xbd8474f7	-0.06467622
112	0xbc82eee7	-0.015983058
113	0x3d2cfd25	0.042233605
114	0xbd02b50b	-0.031910937
115	0x3d54a111	0.051911417
116	0xbd6137af	-0.054984745
117	0x3d235321	0.0398742
118	0x3d2e1d42	0.04250837
119	0x3cdd83f1	0.027040454
120	0xbafbcd95	-0.0019211048
121	0xbcc4b9fc	-0.024014466
122	0x3c7f561f	0.015584498
123	0xbb9a11e0	-0.004701838
124	0x3d411520	0.047139287
125	0x3d3d75b3	0.046254825
126	0xbd8e19d4	-0.0693852
127	0x3a9498c0	0.0011337027

fc2.weight f4 [64, 128]
0	0xbca845b8	-0.020541057
1	0x3c578a6d	0.013155562
2	0xbd98d5d2	-0.07462658
3	0x3a988b3c	0.0011638175
4	0x3d59ebcd	0.053203393
5	0x3be61422	0.007021443
6	0xbdc056d8	-0.09391564
7	0x3d5b5c51	0.053554837
8	0x3d4697d4	0.04848464
9	0xbda3eb40	-0.08003855
10	0xbcbb9b5f	-0.022901235
11	0xbdbe3d86	-0.092890784
12	0xba61af66	-0.0008609205
13	0xbd47a3cb	-0.04874019
14	0xbc7c05b8	-0.015382223
15	0x3cc77367	0.02434702
16	0x3c269fe1	0.010169954
17	0xbdb0c07c	-0.086304635
18	0x3d621b2b	0.05520169
19	0x3d9f06c8	0.07764965
20	0xbda4309a	-0.080170825
21	0xbd0ff265	-0.035143275
22	0x3d530762	0.051520713
23	0x3be23670	0.006903462
24	0x3d9d0113	0.076662205
25	0xbcf6966e	-0.030101027
26	0xbd5b56a4	-0.053549424
27	0xbc59d33b	-0.01329499
28	0xbdbccf04	-0.092191726
29	0x3d2ea7e3	0.042640578
30	0xbd3e7003	-0.04649354
31	0xbd170503	-0.036870014
32	0xbce056f4	-0.027385212
33	0xbdb15c1f	-0.08660149
34	0xbd0d1f99	-0.034453962
35	0xbd5e3338	-0.054248065
36	0xbdb2451c	-0.08704588
37	0xbd61b250	-0.055101693
38	0xbd1043bf	-0.035220858
39	0xbcd40fb6	-0.025886398
40	0x3d48fe74	0.04907079
41	0xbd34d8cd	-0.04415207
42	0xbd9d16d6	-0.07670371
43	0xbdbd2aaf	-0.09236657
44	0x3cd585bf	0.026064752
45	0x3b6c4f96	0.003605818
46	0x3d137a64	0.036005393
47	0x3d166788	0.03671983
48	0x3c4207a4	0.011842642
49	0xbd5602e3	-0.052248847
50	0x3d654bf6	0.055980645
51	0x3ccf7570	0.025324553
52	0x3c1e3e04	0.00965834
53	0x3d1af5ea	0.03783218
54	0x3d872f02	0.06600763
55	0xbc9ad580	-0.018900633
56	0xbe03a080	-0.12854195
57	0xbd7fc93b	-0.062447768
58	0xbdc16864	-0.09443739
59	0xbd8c4316	-0.06848733
60	0xbd99bfe2	-0.07507302
61	0xbddc1bc4	-0.107474834
62	0xbdc1c4b9	-0.0946135
63	0xbb2e7a27	-0.0026623101
64	0xbb2b8c54	-0.0026176171
65	0xbd60044c	-0.054691598
66	0xbd0209cd	-0.031747628
67	0xbd101aff	-0.035181995
68	0x3ce19a33	0.027539348
69	0x3dad2695	0.084546246
70	0xbdd1b690	-0.10239899
71	0x3ca49567	0.020090772
72	0x3d4d8c72	0.050182767
73	0x3cff697a	0.031178225
74	0xbd5810bd	-0.052750338
75	0xbc908495	-0.017641345
76	0x3da8bb91	0.082389005
77	0xbd69c1b2	-0.057069488
78	0xbdf6d279	-0.12051863
79	0x3b24ab3e	0.0025126482
80	0xbdaba12f	-0.08380353
81	0xbdce7749	-0.100813456
82	0xbd295f36	-0.041350566
83	0xbd009e39	-0.031400893
84	0xbdbed9b1	-0.09318865
85	0xbd5cf0c4	-0.05394055
86	0xbd44bc1b	-0.048030954
87	0xbdacc996	-0.08436887
88	0xbc9a9562	-0.01887006
89	0xbacb913a	-0.0015530952
90	0x3d6bc6df	0.057562705
91	0xbb8e9b32	-0.004351997
92	0x3d0bd922	0.03414262
93	0xbd9cc20d	-0.076542
94	0xbd15922c	-0.036516353
95	0xbd11269d	-0.035437215
96	0x3d964588	0.07337481
97	0x3c9340c4	0.017975219
98	0x3d7fa5b5	0.06241389
99	0x3cbda3fe	0.023149487
100	0x3bf92278	0.007602986
101	0xbd875568	-0.06608087
102	0x3d38dc42	0.04513193
103	0xbddf93ed	-0.109168865
104	0xbd8a512c	-0.067537636
105	0xbd919259	-0.07107992
106	0x3d957148	0.07296997
107	0xbdbcb467	-0.092140965
108	0xbd15ec52	-0.036602326
109	0x3d7d76e5	0.061880965
110	0xbd14d12f	-0.036332306
111	0xbd6a9246	-0.057268403
112	0xbd9ecea0	-0.07754254
113	0xbd5a31d2	-0.05327017
114	0xbd60def5	-0.05490013
115	0x3d82b027	0.06381255
116	0x3d8fdefe	0.07024954
117	0xbcd65618	-0.0261641
118	0x3ccdb931	0.02511272
119	0xbd92e823	-0.07173183
120	0x3d8dd8d7	0.069261245
121	0xbd966b80	-0.07344723
122	0xbd7f8e53	-0.06239159
123	0x3da372af	0.079808585
124	0xbe010cd6	-0.12602553
125	0xbd7e098a	-0.062020816
126	0xbdbabc6e	-0.09117971
127	0xbc7bae90	-0.015361443
128	0x3da674fd	0.081277825
129	0xbd9b1963	-0.075732015
130	0x3d26997a	0.04067371
131	0xbd745836	-0.059654437
132	0x3d8c5319	0.06851787
133	0xbd9d683b	-0.07685896
134	0xbd26f80a	-0.040763892
135	0xbdaf09dd	-0.08546803
136	0x3da536cd	0.08067093
137	0x3c40a358	0.011757694
138	0x3c2214d0	0.009892657
139	0xbd8b1e1a	-0.06792851
140	0xbd36b332	-0.044604488
141	0xbc341fc0	-0.010993898
142	0xbd932844	-0.071854144
143	0xbdd192b3	-0.10233059
144	0xbd8f70f1	-0.07003964
145	0x3d11200a	0.035430945
146	0x3d3306e6	0.04370775
147	0x3d5a00a2	0.05322326
148	0xbd1093ae	-0.03529709
149	0xbd2bcf5e	-0.041945808
150	0xbd89b83e	-0.067245945
151	0xbcfe82ea	-0.031068284
152	0x3d2a0e92	0.0415178
153	0xbd816fd3	-0.06320157
154	0x3d92659f	0.07148289
155	0x3d0c7dd4	0.034299687
156	0xbdc89b44	-0.097952396
157	0x3da8769b	0.08225747
158	0xbd83da1d	-0.06438086
159	0x3b67da00	0.003537774
160	0x3b8906db	0.0041817254
161	0x3d045a06	0.032312416
162	0xbdd4d3cf	-0.10391962
163	0x3c95a615	0.01826767
164	0xbd09c1d3	-0.03363211
165	0xbdb85c7f	-0.09002017
166	0x3b80bf20	0.003929034
167	0x3d531d5a	0.051541664
168	0x3d831ffe	0.064025864
169	0x3d9980f1	0.07495297
170	0x3d3b3282	0.045702465
171	0xbda59a02	-0.08086015
172	0x3da4dea9	0.080502816
173	0xbd03b75c	-0.032157287
174	0xbcf60534	-0.030031778
175	0xb9868d95	-0.00025663959
176	0x3cac3501	0.021021368
177	0xbd04e4df	-0.03244483
178	0x3d1a6daa	0.03770224
179	0xbc8ada28	-0.016949728
180	0xba3379ff	-0.0006846487
181	0xbc61dcd1	-0.013785557
182	0xbd91cbeb	-0.071189724
183	0xbca3ac9b	-0.019979766
184	0xbcd36aa6	-0.02580769
185	0xbdd2c90c	-0.10292253
186	0x3d3d5bf2	0.046230264
187	0x3c2d2338	0.010567479
188	0x3da5b2f9	0.08090777
189	0xbd0480ae	-0.03234928
190	0x3a099d0f	0.0005249539
191	0xba6d7280	-0.00090578943
192	0x3d8c0cd6	0.06838386
193	0xbd3d371c	-0.046195135
194	0x3d57b66e	0.052664213
195	0xbd662669	-0.056188975
196	0xbd0c8086	-0.034302257
197	0x3d7f5ef2	0.062346406
198	0x3be83fe9	0.007087697
199	0xbd718201	-0.058961872
200	0xbc982b2c	-0.018575273
201	0xbd9cf64b	-0.07664164
202	0x3d2dfd92	0.04247815
203	0x3cd59af0	0.026074857
204	0x3cb2ebdc	0.021840982
205	0x3ca56c2f	0.020193188
206	0xbd9e9314	-0.07742897
207	0xbdab2825	-0.08357266
208	0xbca96428	-0.020677641
209	0xbd8c246c	-0.068428844
210	0x3c4abbd0	0.01237388
211	0x3d70dafc	0.05880259
212	0x3d2b8df6	0.04188343
213	0x3c2d763f	0.010587274
214	0xbd726b45	-0.05918433
215	0xbd80b364	-0.06284216
216	0x3bea7560	0.0071551055
217	0x3c98f2a4	0.018670388
218	0xbdbd69b1	-0.09248675
219	0x3d109e00	0.03530693
220	0xbcc24f7c	-0.023719542
221	0xbd9a412d	-0.075319625
222	0x3cbcdcf4	0.023054577
223	0xba98f280	-0.001166895
224	0xbd86bc22	-0.06578852
225	0xbd83b306	-0.064306304
226	0x3d89a1f2	0.06720342
227	0x3b4a7500	0.0030892491
228	0x3d532062	0.051544555
229	0x3d5d542e	0.054035358
230	0x3d1a2676	0.037634335
231	0xbd444380	-0.047915936
232	0xbccf8ab8	-0.025334701
233	0xbcd25760	-0.02567643
234	0xbd20b1e1	-0.03923214
235	0xbdcb5de2	-0.09930016
236	0xbd90f6ce	-0.07078324
237	0x3cef2b78	0.029195532
238	0xbd6b6860	-0.057472587
239	0xbd7f6ae9	-0.062357817
240	0xbd0bd1db	-0.03413568
241	0xbd6af070	-0.057358205
242	0x3d146b9e	0.036235444
243	0xbd092ebc	-0.033491835
244	0xbd40c035	-0.047058303
245	0xbd6933aa	-0.056934036
246	0xbd1b1499	-0.03786144
247	0x3dae15c1	0.08500243
248	0x3d212caa	0.039349236
249	0xbd6a27a1	-0.0571667
250	0x3d9adb47	0.07561355
251	0xbd74e564	-0.059789076
252	0x3d3dccb3	0.046337795
253	0xbd639a6a	-0.055567183
254	0x3ceddf00	0.029036999
255	0x3d39defa	0.045378663

fc2.bias f4 [64]
0	0x3becf7f1	0.0072317054
1	0xbd89a8c8	-0.067216456
2	0x3d6db71d	0.05803596
3	0xbd87606e	-0.066101894
4	0x3e0a3cb4	0.13499719
5	0x3cc0c92b	0.023533424
6	0x3ba6a149	0.0050851447
7	0xbd6a355b	-0.05717979
8	0x3dc24429	0.09485657
9	0x3c123c31	0.008925484
10	0x3dc16cee	0.09444605
11	0x3d0d3ce3	0.034481894
12	0x3cda6ad3	0.026662266
13	0x3d639ec1	0.05557132
14	0xbdb04390	-0.086066365
15	0xbdf36559	-0.11884565
16	0x3defc698	0.117078006
17	0x3d9335c0	0.071879864
18	0x3d59b78c	0.05315356
19	0xbd3ebf7c	-0.046569332
20	0xbdc09fd1	-0.094054826
21	0xbdb427c0	-0.08796644
22	0x3dc91b2f	0.09819638
23	0xbc8bb557	-0.017054243
24	0xbadaffd0	-0.0016708318
25	0xbc9b277e	-0.01893973
26	0xbda1b1fa	-0.078952745
27	0xbcc22089	-0.023697155
28	0xbdb96223	-0.09051921
29	0xbdbc16a4	-0.09184006
30	0xbbe6e98f	-0.0070468853
31	0xbcce3295	-0.025170604
32	0x3d512a79	0.051065896
33	0x3db48d73	0.08816042
34	0xbd92061e	-0.07130073
35	0xbdc2bc94	-0.09508625
36	0x3cd79f96	0.026321214
37	0x3e37f5a2	0.17964795
38	0xbda2c273	-0.079472445
39	0xbbc32db7	-0.0059563774
40	0x3ca62db4	0.020285465
41	0x3d368d90	0.0445686
42	0x3d086a90	0.03330475
43	0xbd5aacce	-0.053387456
44	0x3dfe803e	0.12426804
45	0x3dd49dd2	0.10381664
46	0xbdc15ac4	-0.0944114
47	0xbcd5b068	-0.026085094
48	0xbd446901	-0.047951702
49	0x3d5c7477	0.053822007
50	0xbd30e806	-0.043190025
51	0x3d270fce	0.040786557
52	0x3dd1b6f1	0.102399714
53	0xbdae1b4c	-0.085013
54	0xbbf38c4a	-0.0074324952
55	0xbd2ab146	-0.041672967
56	0x3d79d83f	0.060997244
57	0xbd6933ec	-0.056934282
58	0x3c58c899	0.01323142
59	0xbd9b47b4	-0.07582036
60	0x3c7395ac	0.0148672275
61	0x3e226d0c	0.1586191
62	0x3d34b4df	0.044117805
63	0xbde6ae73	-0.11263742

fc3.weight f4 [32, 64]
0	0x3d4c38ff	0.049859043
1	0xbd1a2e62	-0.03764189
2	0xbc8dfbcc	-0.01733198
3	0x3e95875c	0.29204834
4	0x3d85d29e	0.06534313
5	0xbdcf9f6e	-0.10137831
6	0x3dd05c19	0.10173816
7	0xbccf203f	-0.02528393
8	0x3e5e55ca	0.21712413
9	0x3e055c6e	0.1302354
10	0x3cf88ccb	0.030340573
11	0xbd875dbf	-0.066096775
12	0x3d812fb2	0.06307925
13	0xbb247b53	-0.002509792
14	0xbdd08899	-0.10182304
15	0x3dced8b3	0.10099926
16	0xbd621876	-0.05519911
17	0xbe1396d3	-0.14413004
18	0x3dcaa45e	0.09894632
19	0xbde35581	-0.11100293
20	0xbd00a2d2	-0.031405278
21	0xbda37338	-0.079809606
22	0x3d202c74	0.039104894
23	0xbd63279f	-0.055457707
24	0xbd90b74d	-0.07066212
25	0xbe8245ad	-0.25443783
26	0xbd06d65b	-0.03291927
27	0x3e237246	0.1596156
28	0x3d17a771	0.03702492
29	0x3cb37e3f	0.021910785
30	0x3db486d1	0.08814777
31	0x3bd077bf	0.006361931
32	0xbecee2ca	-0.404074
33	0xbd7a1ea7	-0.06106439
34	0xbdaab448	-0.08335167
35	0xbdb6f7f6	-0.089340135
36	0x3d35fe8e	0.044432215
37	0x3dabcb7b	0.0838842
38	0x3d567851	0.052360836
39	0x3e494ca5	0.19658144
40	0xbdda229f	-0.10651135
41	0x3d265073	0.040604066
42	0x3e1b5009	0.1516725
43	0x3d1fb3e8	0.03898993
44	0xbd6ff00c	-0.058578536
45	0x3e05a603	0.1305161
46	0x3aba426f	0.0014210473
47	0xbd93ddd3	-0.07220044
48	0xbe1a73b0	-0.15083194
49	0x3e12eebb	0.14348881
50	0x3db87e95	0.090085186
51	0x3d539e9d	0.051664937
52	0x3e33dcb8	0.17564666
53	0x3c41501b	0.011798884
54	0x3d6661c6	0.056245588
55	0xbde893b3	-0.113562964
56	0xbe00638f	-0.12537979
57	0xbe0bd221	-0.13654377
58	0xbd700214	-0.05859573
59	0xbd58ded0	-0.052946866
60	0xbd25daa1	-0.040491704
61	0xbd436207	-0.047700908
62	0x3dbd95e1	0.09257103
63	0x3d8159dc	0.063159674
64	0x3cb8091c	0.022465281
65	0x3c2b7380	0.010464549
66	0x3e35e7f9	0.17764272
67	0xbef24b33	-0.47322997
68	0xbec9e6e4	-0.39433968
69	0x3e08e2b9	0.13367738
70	0xbd363b8a	-0.044490375
71	0xbe011127	-0.126042
72	0xbd5daa46	-0.054117464
73	0x3d9093cc	0.0705944
74	0xbe8ea149	-0.27857426
75	0xbb4dc0cd	-0.0031395436
76	0x3e743732	0.2384918
77	0xbeaaa260	-0.33327007
78	0xbd9b0894	-0.075699955
79	0x3d9ea3b8	0.077460706
80	0xbc2be282	-0.010491015
81	0x3e83f1e8	0.25770497
82	0x3cb300d5	0.021850983
83	0xbee5b3e4	-0.44863808
84	0x3ddcf705	0.10789303
85	0xbd832187	-0.06402879
86	0xbe912e5a	-0.28355676
87	0xbddf5b25	-0.10906056
88	0xbe956094	-0.29175246
89	0x3ec44d03	0.38340005
90	0xbc80b821	-0.0157128
91	0xbd935aa8	-0.07195026
92	0x3d8b00f5	0.06787292
93	0xbdc0bc6a	-0.09410937
94	0x3dc7aa86	0.09749322
95	0x3d87d78b	0.066329084
96	0xbd95d90e	-0.073167905
97	0x3cba590f	0.022747545
98	0x3da42b96	0.08016126
99	0xbde2060e	-0.11036311
100	0x3dea0914	0.11427513
101	0xbe412d0e	-0.18864843
102	0x3cd7e500	0.026354313
103	0xbe882fbe	-0.26598924
104	0xbce90c3f	-0.028448222
105	0x3e16a375	0.14710791
106	0x3b5707c2	0.003281102
107	0xbd8dd52c	-0.06925425
108	0x3e885022	0.26623636
109	0x3bce9d51	0.0063053747
110	0xbd926147	-0.071474604
111	0xbde6afaa	-0.11263974
112	0x3cb3b9d7	0.021939201
113	0x3d87be29	0.06628067
114	0x3e4c2a2a	0.1993796
115	0x3d5a7f54	0.053344086
116	0x3e0469f0	0.12931037
117	0x3c24d69c	0.0100609325
118	0x3da84d70	0.08217895
119	0x3d58d33b	0.05293582
120	0x3d78a8c8	0.060707837
121	0xbdd55757	-0.104170494
122	0x3b00f642	0.001967803
123	0xbd101f1c	-0.03518592
124	0x3d7e00a4	0.06201233
125	0xbea159ae	-0.31513733
126	0x3e6b78fe	0.22995374
127	0xbde75278	-0.112950265
128	0x3dc42a06	0.09578328
129	0xbd206f0b	-0.0391684
130	0x3e282f38	0.16424263
131	0xbdb72bd3	-0.08943906
132	0xbe973d37	-0.2953889
133	0xbbcb5cb9	-0.0062061218
134	0xbcd50ae6	-0.026006173
135	0x3db25a71	0.087086566
136	0x3d80d21d	0.06290076
137	0x3e6e9a20	0.23300982
138	0x3e022109	0.12707914
139	0x3da9eb8e	0.082968816
140	0xbd384ef6	-0.044997178
141	0x3db32f95	0.0874931
142	0x3bde3023	0.0067806407
143	0x3e0ad79e	0.13558814
144	0x3e1a770e	0.15084478
145	0x3c2fa1dd	0.010719744
146	0x3d9aad8d	0.075526334
147	0xbea289b8	-0.31745696
148	0xbdd22b66	-0.10262184
149	0x3dfc8648	0.123302996
150	0xbd60c864	-0.054878607
151	0x3db74127	0.08947974
152	0x3e2def37	0.16985784
153	0x3c07d5e1	0.008290739
154	0x3d743745	0.05962302
155	0xbd299b00	-0.041407585
156	0xbd49c6a5	-0.049261708
157	0xbde7720d	-0.1130105
158	0xbda5b58b	-0.08091267
159	0xbdd37805	-0.10325626
160	0x3ded69f7	0.11592477
161	0x3ce2b538	0.027674302
162	0xbd91b625	-0.071148194
163	0x3dbcf1d8	0.092258155
164	0x3e0ec6d7	0.13943039
165	0x3e058d44	0.1304217
166	0xbd83a358	-0.0642764
167	0xbddb7740	-0.107161045
168	0xbdc05214	-0.09390655
169	0x3d6d1183	0.05787803
170	0xbe577f23	-0.21044593
171	0xbd5dc76e	-0.05414527
172	0xbde435f1	-0.11143101
173	0x3d0b2fe3	0.033981215
174	0x3bed72d5	0.007246355
175	0xbe13239e	-0.14369056
176	0xbda98a09	-0.08278281
177	0x3d0c88ab	0.034310024
178	0xbe8de8f8	-0.27716804
179	0xbc8bc95c	-0.01706379
180	0x3ddf4a29	0.10902817
181	0xbdd2037f	-0.10254573
182	0x3c9d957a	0.019236315
183	0xbc6a0fe8	-0.014286019
184	0x3d29af74	0.04142709
185	0x3e154927	0.14578687
186	0xbda776fd	-0.08176992
187	0x3ddbe690	0.10737336
188	0x3bbf1f55	0.0058325925
189	0xbdb04013	-0.08605971
190	0x3e73ec80	0.23820686
191	0x3d6cdf19	0.05782995
192	0xbd216dd6	-0.03941139
193	0xbde821d6	-0.11334579
194	0x3e771977	0.24130808
195	0xbdbcb437	-0.09214061
196	0xbdac6ee2	-0.08419587
197	0x3d7fa62f	0.062414344
198	0x3ddf64b1	0.10907877
199	0xbd9396d5	-0.07206503
200	0x3de4a446	0.11164145
201	0xbdd14f4b	-0.10220202
202	0xbe1039bb	-0.14084522
203	0xbcc4d741	-0.024028422
204	0x3dbb2bde	0.091392264
205	0xbd2100d2	-0.039307423
206	0x3d618a71	0.05506367
207	0xbd0687ac	-0.03284423
208	0xbd6c5c91	-0.057705466
209	0x3e8467b3	0.25860366
210	0xbca42c09	-0.020040529
211	0x3da8a2fe	0.08234213
212	0x3cc23659	0.023707556
213	0xbdc04e46	-0.093899295
214	0x3e87f2cc	0.26552427
215	0xbd77abf6	-0.06046673
216	0x3e361dab	0.17784755
217	0x3f005574	0.5013039
218	0xbd76c5c6	-0.060247205
219	0x3db8c6f5	0.09022323
220	0xbc06b7d0	-0.008222535
221	0xbc611353	-0.013737517
222	0xbdf56f5e	-0.11984132
223	0x3d60e7a1	0.0549084
224	0x3c01f68f	0.007932319
225	0x3e69c55e	0.22829196
226	0x3dcc544b	0.09977015
227	0x3cda6580	0.026659727
228	0x3d500abc	0.050791487
229	0x3d1747f0	0.03693384
230	0xbd2dd062	-0.042435057
231	0xbe0cbfdd	-0.13745065
232	0xbd4281aa	-0.04748694
233	0xbea7e93d	-0.32795134
234	0xbd8c7a65	-0.068592824
235	0xbda46a76	-0.08028118
236	0x3e1a6a8d	0.15079708
237	0xbe63844c	-0.22218436
238	0x3c2e3cf8	0.010634653
239	0x3cf5802b	0.029968342
240	0xbe84a10b	-0.25904116
241	0xbd467bfe	-0.048458092
242	0xbe7398d0	-0.23788762
243	0xbd8f87c4	-0.07008317
244	0xbe574c98	-0.21025312
245	0x3cef1c72	0.029188368
246	0xbd594db8	-0.053052634
247	0xbdcf7fbb	-0.101317845
248	0xbe374eca	-0.1790115
249	0x3d6d7522	0.057973035
250	0xbdc1ab9e	-0.094565615
251	0xbd8723d2	-0.06598629
252	0xbde001c8	-0.1093784
253	0xbe413d9b	-0.18871157
254	0xbdfa5950	-0.12224066
255	0xbeece350	-0.46267176

fc3.bias f4 [32]
0	0x3e7f071a	0.24905053
1	0x3dab7c6b	0.0837334
2	0x3e2f0611	0.17092158
3	0x3d986eee	0.07443033
4	0xbdcef3f1	-0.10105122
5	0x3d273224	0.040819302
6	0x3e71d177	0.23615061
7	0xbd5cc4ec	-0.053898737
8	0x3d1e7dd2	0.03869421
9	0xbdfe55a4	-0.124186784
10	0x3e2930f4	0.1652258
11	0xbdf16d14	-0.11788383
12	0xbcec61d7	-0.028855247
13	0x3e486ddd	0.1957316
14	0x3e41c1de	0.1892161
15	0xbd30d4af	-0.04317158
16	0xbe1a9187	-0.15094577
17	0x3e22962f	0.15877603
18	0x3da59939	0.080858655
19	0xbd8d7c59	-0.06908483
20	0x3db84ea1	0.08999372
21	0x3e1f30e9	0.15546001
22	0x3e08fd50	0.13377881
23	0xbc2195f6	-0.009862414
24	0x3e2f7be9	0.17137112
25	0x3e053735	0.13009341
26	0x3e2444fe	0.16041943
27	0xbdcb23fd	-0.099189736
28	0xbc242846	-0.010019368
29	0x3d991872	0.07475366
30	0x3ddeb7a8	0.108748734
31	0x3ceda50a	0.02900936

fc4.weight f4 [24, 32]
0	0x3e29e7be	0.16592309
1	0x3d29f94c	0.041497514
2	0x3e3a616b	0.18201225
3	0xbdeae4a4	-0.11469391
4	0xbc6a0e53	-0.014285642
5	0x3e39c789	0.18142523
6	0xbe06c5d4	-0.13161403
7	0x3d2692c8	0.040667325
8	0x3e1b85d3	0.15187769
9	0x3af6f6d0	0.0018841866
10	0x3d650956	0.055917107
11	0x3e354353	0.17701463
12	0xbde06a66	-0.10957794
13	0xbd82cc35	-0.06386606
14	0x3e706076	0.23474297
15	0xbe1f7ab1	-0.15574147
16	0x3e1b6f04	0.15179068
17	0xbdc2c0d0	-0.09509432
18	0x3da430cf	0.08017122
19	0xbc661586	-0.0140432175
20	0xbe1e7bea	-0.15476957
21	0x3a809f4b	0.0009813098
22	0x3b1e3924	0.0024142945
23	0x3e031e98	0.1280464
24	0x3cf76883	0.030201202
25	0x3da7e79e	0.08198474
26	0xbd374efe	-0.044753067
27	0xbd24b5b7	-0.04021236
28	0xbe19b6a1	-0.15011074
29	0xbd16aa6f	-0.036783632
30	0x3d85295c	0.06502029
31	0x3e126125	0.1429487
32	0xbce99b0f	-0.02851632
33	0x3e14be8a	0.1452581
34	0xbdb8cddc	-0.090236396
35	0x3e6361f5	0.22205336
36	0x3e9d1e3a	0.30687124
37	0xbe08843d	-0.13331695
38	0x3e164c16	0.14677462
39	0xbd70ad51	-0.058759037
40	0x3e30cb46	0.17265043
41	0x3e207965	0.15671308
42	0x3e24070d	0.16018315
43	0xbdd849c8	-0.10560948
44	0x3b90039a	0.0043949606
45	0x3e403551	0.18770339
46	0x3e3cf578	0.18453014
47	0x3e31ee6b	0.17376105
48	0xbda6d50f	-0.081461065
49	0x3ccb2dd7	0.024802132
50	0x3e618dd4	0.2202676
51	0x3d5db6cb	0.054129403
52	0x3d98a8f1	0.07454098
53	0xbec445e2	-0.38334566
54	0x3dbefb61	0.093252905
55	0x3dc0e3dc	0.09418461
56	0xbde63fd6	-0.112426445
57	0xbe424f28	-0.18975508
58	0x3c749aed	0.014929515
59	0xbd484aca	-0.04889945
60	0xbe8ef15e	-0.27918524
61	0xbdd66504	-0.10468486
62	0xbdc20c09	-0.09474952
63	0x3e2073c4	0.15669161
64	0x3e953160	0.29139233
65	0xbe2c4de0	-0.16826582
66	0x3e45f1c4	0.19330508
67	0x3f0cff93	0.55077475
68	0x3c420c39	0.011843734
69	0xbdcd27c1	-0.10017348
70	0xbe072b7a	-0.13200179
71	0x3e795684	0.2434941
72	0x3d32c5f4	0.043645814
73	0x3e1c7b0e	0.15281317
74	0x3df1f434	0.11814156
75	0xbe17775b	-0.14791624
76	0xbdd26a34	-0.10274163
77	0xbc251e1c	-0.010077979
78	0x3cc6c37b	0.024263134
79	0xbe22f213	-0.15912656
80	0x3bdeb900	0.006796956
81	0x3e63260d	0.22182484
82	0xbe2152ba	-0.15754214
83	0xbd45430e	-0.04815965
84	0x3c81d5f3	0.01584909
85	0xbd6fd64e	-0.058553986
86	0x3b8973a3	0.004194693
87	0x3cd6307d	0.026146168
88	0x3df4e960	0.11958575
89	0xbca51ca0	-0.020155251
90	0xbe22b797	-0.15890346
91	0xbdcae176	-0.099062845
92	0x3ddfc30f	0.10925876
93	0xbdf6e08d	-0.120545484
94	0x3cd05302	0.025430206
95	0x3dfc8abf	0.12331151
96	0xbdbed516	-0.09317987
97	0x3e52e262	0.2059417
98	0xbd2c19b7	-0.04201671
99	0xbe8194f8	-0.25308967
100	0x3e416f2e	0.18890068
101	0xbe4d404b	-0.20044057
102	0x3dba31cf	0.090915315
103	0x3eab382a	0.33441287
104	0x3e8c4cab	0.27402243
105	0xbd034931	-0.032052223
106	0xbcba0ddd	-0.022711689
107	0xbd69340b	-0.056934398
108	0xbd236a32	-0.039896198
109	0xbe1eb2d8	-0.15497911
110	0x3c831922	0.016003195
111	0x3e399fb0	0.18127322
112	0xbdac0073	-0.08398523
113	0xbe2c9fc8	-0.16857827
114	0xbdf47f37	-0.11938327
115	0x3dc83272	0.09775247
116	0xbc0bd766	-0.008535242
117	0x3e0322ce	0.12806246
118	0x3e283734	0.16427308
119	0x3de3431b	0.11096784
120	0xbd925c96	-0.071465656
121	0x3dfb2aa0	0.122639894
122	0xbcba553c	-0.022745721
123	0x3e1655b1	0.14681126
124	0xbe853b23	-0.2602168
125	0x3e13a7b3	0.14419441
126	0x3eaf5220	0.34242344
127	0x3d6a27f1	0.057166997
128	0xbdcfed66	-0.10152702
129	0xbe491dad	-0.19640227
130	0x3daf4993	0.08558955
131	0x3e888430	0.2666335
132	0x3dad1c76	0.08452694
133	0x3b89825c	0.0041964483
134	0x3e62c86d	0.22146769
135	0xbd11ffbe	-0.035644285
136	0xbe1dac9e	-0.1539788
137	0x3e3ccc96	0.18437418
138	0xbda91cac	-0.08257422
139	0x3dc44e49	0.09585244
140	0x3dcaf7ed	0.09910569
141	0x3cca1793	0.024669444
142	0xbe20a32e	-0.15687248
143	0xbd4b3b3d	-0.04961704
144	0xbdeb7877	-0.11497586
145	0xbd53d753	-0.05171902
146	0x3dc87d7b	0.097895585
147	0xbd805d46	-0.062677905
148	0x3af2d476	0.0018526453
149	0x3dff9eb8	0.12481445
150	0x3e3e044e	0.1855633
151	0x3e04c0c1	0.12964155
152	0x3e91e2e4	0.28493416
153	0x3ce783f5	0.028261164
154	0x3e1ad1e0	0.15119123
155	0xbd28ab1c	-0.041178808
156	0xbbbb7c94	-0.005721638
157	0xbc84c9dc	-0.016209535
158	0xbe273b37	-0.16331182
159	0x3d978974	0.07399264
160	0x3e07d014	0.1326297
161	0xbdbb4e6b	-0.091458164
162	0x3e1b9adf	0.15195797
163	0x3eb6aa80	0.35676956
164	0x3cbbeef6	0.022941094
165	0xbc0add9a	-0.0084756855
166	0x3e0247bf	0.12722681
167	0x3dc3d65e	0.09562372
168	0xbdc35e3a	-0.09539457
169	0x3d958cdc	0.073022574
170	0x3e8305af	0.25590274
171	0x3e199ea7	0.15001927
172	0x3e10a519	0.1412548
173	0x3e3da8c6	0.18521413
174	0xbc81ae87	-0.015830291
175	0x3e183f3b	0.1486787
176	0x3dc482bf	0.0959525
177	0xbe4858f2	-0.1956518
178	0x3d1b7a7b	0.037958603
179	0x3d25a399	0.040439222
180	0xbc7850aa	-0.015155951
181	0x3d290b01	0.04127026
182	0x3e55586a	0.20834509
183	0xbf0bdf34	-0.54637456
184	0xbc23fbd4	-0.010008771
185	0x3d3e889b	0.046516996
186	0x3d46fa8e	0.04857879
187	0xbe2c4f83	-0.16827206
188	0xbe758ba8	-0.23979056
189	0xbd807bed	-0.06273637
190	0xbca39f2f	-0.019973366
191	0xbc70d48e	-0.0146991145
192	0x3e98a771	0.29815248
193	0x3f158d20	0.58418465
194	0xbe7af4d6	-0.2450746
195	0x3ebe9e25	0.3723003
196	0xbe0cb2ff	-0.13740157
197	0xb9e2f00e	-0.00043284934
198	0xbaf6705b	-0.0018801795
199	0x3d5c1a75	0.05373617
200	0xbc8495d2	-0.016184721
201	0xbdbdd2e1	-0.092687376
202	0xbd087586	-0.033315204
203	0xbd9bbebf	-0.07604741
204	0x3dd07a63	0.101795934
205	0xbe6bc602	-0.23024753
206	0xbb8d2c8a	-0.004308288
207	0xbd5855f2	-0.05281634
208	0x3c990e70	0.018683642
209	0xbd8bf0b4	-0.0683302
210	0x3ea3af90	0.3196988
211	0xbcf1d23a	-0.02951919
212	0x3ead4429	0.33841065
213	0xbe130661	-0.14357902
214	0xbcaebcd1	-0.021330269
215	0x3eaa470b	0.33257326
216	0x3e1f040e	0.1552889
217	0x3cf0dc33	0.029401874
218	0x3e20306e	0.15643474
219	0x3e08835f	0.13331364
220	0x3f5d4769	0.8643709
221	0x3e159ebd	0.14611335
222	0xbdb80223	-0.089847825
223	0xbda798e3	-0.08183458
224	0xbe1d8164	-0.1538139
225	0xbd229333	-0.03969116
226	0xbce9eadb	-0.02855437
227	0x3ec11a84	0.37715542
228	0xbddfce52	-0.10928024
229	0x3e0f66fd	0.1400413
230	0x3e147526	0.14497814
231	0x3ed84bfa	0.42245466
232	0x3de908a3	0.113786004
233	0xbddf03b9	-0.10889382
234	0x3e7bb4f6	0.2458075
235	0x3dc882d9	0.09790582
236	0xbe0dd166	-0.1384941
237	0xbc851c4f	-0.01624885
238	0x3e3be457	0.18348823
239	0xbe1ca5e6	-0.1529766
240	0x3dbcb226	0.092136666
241	0x3d91fc29	0.07128174
242	0x3d939fcc	0.07208213
243	0x3db59a38	0.088673055
244	0x3e16a595	0.14711602
245	0x3e93a343	0.28835496
246	0xbe3ed743	-0.18636803
247	0x3eebd73f	0.46062657
248	0x3e73e61d	0.2381825
249	0xbea124d8	-0.31473422
250	0xbde60e19	-0.11233158
251	0x3d697ef1	0.057005826
252	0x3e7469e4	0.23868519
253	0x3d861132	0.065462485
254	0x3da988f8	0.08278078
255	0xbe22178e	-0.15829298

fc4.bias f4 [24]
0	0x3e08d2dd	0.13361688
1	0x3e5864a1	0.21132137
2	0x3e8bc0fe	0.2729568
3	0x3df9f56c	0.12205014
4	0x3e5a0898	0.21292341
5	0x3b5d13c6	0.003373371
6	0x3e5fcf47	0.21856414
7	0x3e267ddb	0.16258948
8	0x3e4d8430	0.20069957
9	0x3e1b5ace	0.15171358
10	0x3cbb3d09	0.022856252
11	0x3e82f4e9	0.25577477
12	0x3df22efd	0.118253686
13	0x3eb99bf6	0.362518
14	0x3e32b817	0.17453037
15	0x3d48da51	0.049036328
16	0x3dd829ad	0.10554824
17	0x3e00021f	0.12500809
18	0x3e509062	0.20367578
19	0x3e22aa38	0.15885246
20	0x3e651653	0.22371797
21	0x3dc8f612	0.09812559
22	0x3e9106b3	0.28325424
23	0x3e273f4a	0.16332737

exp_avg f4 [128, 240]
0	0x00000004	6e-45
1	0x00000004	6e-45
2	0x00000004	6e-45
3	0x00000004	6e-45
4	0x00000004	6e-45
5	0x00000004	6e-45
6	0x00000004	6e-45
7	0x00000004	6e-45
8	0x00000004	6e-45
9	0x00000004	6e-45
10	0x00000004	6e-45
11	0x00000004	6e-45
12	0x00000004	6e-45
13	0x00000004	6e-45
14	0x00000004	6e-45
15	0x00000004	6e-45
16	0x00000004	6e-45
17	0x00000004	6e-45
18	0x00000004	6e-45
19	0x00000004	6e-45
20	0x00000004	6e-45
21	0x00000004	6e-45
22	0x00000004	6e-45
23	0x00000004	6e-45
24	0x00000004	6e-45
25	0x00000004	6e-45
26	0x00000004	6e-45
27	0x00000004	6e-45
28	0x00000004	6e-45
29	0x00000004	6e-45
30	0x00000004	6e-45
31	0x00000004	6e-45
32	0x00000004	6e-45
33	0x00000004	6e-45
34	0x00000004	6e-45
35	0x00000004	6e-45
36	0x00000004	6e-45
37	0x00000004	6e-45
38	0x00000004	6e-45
39	0x00000004	6e-45
40	0x00000004	6e-45
41	0x00000004	6e-45
42	0x00000004	6e-45
43	0x00000004	6e-45
44	0x00000004	6e-45
45	0x00000004	6e-45
46	0x00000004	6e-45
47	0x00000004	6e-45
48	0x00000004	6e-45
49	0x00000004	6e-45
50	0x00000004	6e-45
51	0x00000004	6e-45
52	0x00000004	6e-45
53	0x00000004	6e-45
54	0x00000004	6e-45
55	0x00000004	6e-45
56	0x00000004	6e-45
57	0x00000004	6e-45
58	0x00000004	6e-45
59	0x00000004	6e-45
60	0x00000004	6e-45
61	0x00000004	6e-45
62	0x00000004	6e-45
63	0x00000004	6e-45
64	0x00000004	6e-45
65	0x00000004	6e-45
66	0x00000004	6e-45
67	0x00000004	6e-45
68	0x00000004	6e-45
69	0x00000004	6e-45
70	0x00000004	6e-45
71	0x00000004	6e-45
72	0x00000004	6e-45
73	0x00000004	6e-45
74	0x00000004	6e-45
75	0x00000004	6e-45
76	0x00000004	6e-45
77	0x00000004	6e-45
78	0x00000004	6e-45
79	0x00000004	6e-45
80	0x00000004	6e-45
81	0x00000004	6e-45
82	0x00000004	6e-45
83	0x00000004	6e-45
84	0x00000004	6e-45
85	0x00000004	6e-45
86	0x00000004	6e-45
87	0x00000004	6e-45
88	0x00000004	6e-45
89	0x00000004	6e-45
90	0x00000004	6e-45
91	0x00000004	6e-45
92	0x00000004	6e-45
93	0x00000004	6e-45
94	0x00000004	6e-45
95	0x00000004	6e-45
96	0x00000004	6e-45
97	0x00000004	6e-45
98	0x00000004	6e-45
99	0x00000004	6e-45
100	0x00000004	6e-45
101	0x00000004	6e-45
102	0x00000004	6e-45
103	0x00000004	6e-45
104	0x00000004	6e-45
105	0x00000004	6e-45
106	0x00000004	6e-45
107	0x00000004	6e-45
108	0x00000004	6e-45
109	0x00000004	6e-45
110	0x00000004	6e-45
111	0x00000004	6e-45
112	0x00000004	6e-45
113	0x00000004	6e-45
114	0x00000004	6e-45
115	0x00000004	6e-45
116	0x00000004	6e-45
117	0x00000004	6e-45
118	0x00000004	6e-45
119	0x00000004	6e-45
120	0x00000004	6e-45
121	0x00000004	6e-45
122	0x00000004	6e-45
123	0x00000004	6e-45
124	0x00000004	6e-45
125	0x00000004	6e-45
126	0x00000004	6e-45
127	0x00000004	6e-45
128	0x00000004	6e-45
129	0x00000004	6e-45
130	0x00000004	6e-45
131	0x00000004	6e-45
132	0x00000004	6e-45
133	0x00000004	6e-45
134	0x00000004	6e-45
135	0x00000004	6e-45
136	0x00000004	6e-45
137	0x00000004	6e-45
138	0x00000004	6e-45
139	0x00000004	6e-45
140	0x00000004	6e-45
141	0x00000004	6e-45
142	0x00000004	6e-45
143	0x00000004	6e-45
144	0x00000004	6e-45
145	0x00000004	6e-45
146	0x00000004	6e-45
147	0x00000004	6e-45
148	0x00000004	6e-45
149	0x00000004	6e-45
150	0x00000004	6e-45
151	0x00000004	6e-45
152	0x00000004	6e-45
153	0x00000004	6e-45
154	0x00000004	6e-45
155	0x00000004	6e-45
156	0x00000004	6e-45
157	0x00000004	6e-45
158	0x00000004	6e-45
159	0x00000004	6e-45
160	0x00000004	6e-45
161	0x00000004	6e-45
162	0x00000004	6e-45
163	0x00000004	6e-45
164	0x00000004	6e-45
165	0x00000004	6e-45
166	0x00000004	6e-45
167	0x00000004	6e-45
168	0x00000004	6e-45
169	0x00000004	6e-45
170	0x00000004	6e-45
171	0x00000004	6e-45
172	0x00000004	6e-45
173	0x00000004	6e-45
174	0x00000004	6e-45
175	0x00000004	6e-45
176	0x00000004	6e-45
177	0x00000004	6e-45
178	0x00000004	6e-45
179	0x00000004	6e-45
180	0x00000004	6e-45
181	0x00000004	6e-45
182	0x00000004	6e-45
183	0x00000004	6e-45
184	0x00000004	6e-45
185	0x00000004	6e-45
186	0x00000004	6e-45
187	0x00000004	6e-45
188	0x00000004	6e-45
189	0x00000004	6e-45
190	0x00000004	6e-45
191	0x00000004	6e-45
192	0x00000004	6e-45
193	0x00000004	6e-45
194	0x00000004	6e-45
195	0x00000004	6e-45
196	0x00000004	6e-45
197	0x00000004	6e-45
198	0x00000004	6e-45
199	0x00000004	6e-45
200	0x00000004	6e-45
201	0x00000004	6e-45
202	0x00000004	6e-45
203	0x00000004	6e-45
204	0x00000004	6e-45
205	0x00000004	6e-45
206	0x00000004	6e-45
207	0x00000004	6e-45
208	0x00000004	6e-45
209	0x00000004	6e-45
210	0x00000004	6e-45
211	0x00000004	6e-45
212	0x00000004	6e-45
213	0x00000004	6e-45
214	0x00000004	6e-45
215	0x00000004	6e-45
216	0x00000004	6e-45
217	0x00000004	6e-45
218	0x00000004	6e-45
219	0x00000004	6e-45
220	0x00000004	6e-45
221	0x00000004	6e-45
222	0x00000004	6e-45
223	0x00000004	6e-45
224	0x00000004	6e-45
225	0x00000004	6e-45
226	0x00000004	6e-45
227	0x00000004	6e-45
228	0x00000004	6e-45
229	0x00000004	6e-45
230	0x00000004	6e-45
231	0x00000004	6e-45
232	0x00000004	6e-45
233	0x00000004	6e-45
234	0x00000004	6e-45
235	0x00000004	6e-45
236	0x00000004	6e-45
237	0x00000004	6e-45
238	0x00000004	6e-45
239	0x00000004	6e-45
240	0x38892168	6.5388915e-05
241	0x3739ac2c	1.1066946e-05
242	0x38605ea4	5.3493903e-05
243	0x37729e8e	1.446124e-05
244	0x370a8d63	8.25836e-06
245	0x383df6cc	4.529096e-05
246	0x374823b1	1.1929239e-05
247	0x37127485	8.729407e-06
248	0x387ab92a	5.9777092e-05
249	0x37e52dea	2.7320308e-05
250	0x37e8d192	2.7754144e-05
251	0x38acd9ec	8.24219e-05
252	0xb7aed877	-2.0843216e-05
253	0x3866fdc7	5.507262e-05
254	0xb78efc7a	-1.7045288e-05
255	0x382b690e	4.0867417e-05

exp_avg_sq f4 [128, 240]
0	0x1ecc1aac	2.1610371e-20
1	0x1c82a057	8.644125e-22
2	0x1cbc1a49	1.2447591e-21
3	0x1d2733be	2.2129016e-21
4	0x1dbc1a49	4.9790364e-21
5	0x1bbc1a49	3.1118977e-22
6	0x1e12f462	7.779713e-21
7	0x1e82a057	1.38306e-20
8	0x1ecc1aac	2.1610371e-20
9	0x1d539d74	2.8007019e-21
10	0x1e000396	6.777005e-21
11	0x1ecc1aac	2.1610371e-20
12	0x1d9e0ed9	4.1837604e-21
13	0x1e2733be	8.8516064e-21
14	0x1d82a057	3.45765e-21
15	0x1e6bc7ff	1.2482155e-20
16	0x1ddcc271	5.8434563e-21
17	0x1e539d74	1.12028075e-20
18	0x1ecc1aac	2.1610371e-20
19	0x1d000396	1.6942513e-21
20	0x1c2733be	5.532254e-22
21	0x1a2733be	3.4576588e-23
22	0x1b2733be	1.3830635e-22
23	0x1e3cc166	9.992631e-21
24	0x1ecc1aac	2.1610371e-20
25	0x1c82a057	8.644125e-22
26	0x1cbc1a49	1.2447591e-21
27	0x1d2733be	2.2129016e-21
28	0x1dbc1a49	4.9790364e-21
29	0x1bbc1a49	3.1118977e-22
30	0x1e12f462	7.779713e-21
31	0x1e82a057	1.38306e-20
32	0x1ecc1aac	2.1610371e-20
33	0x1d539d74	2.8007019e-21
34	0x1e000396	6.777005e-21
35	0x1ecc1aac	2.1610371e-20
36	0x1d9e0ed9	4.1837604e-21
37	0x1e2733be	8.8516064e-21
38	0x1d82a057	3.45765e-21
39	0x1e6bc7ff	1.2482155e-20
40	0x1ddcc271	5.8434563e-21
41	0x1e539d74	1.12028075e-20
42	0x1ecc1aac	2.1610371e-20
43	0x1d000396	1.6942513e-21
44	0x1c2733be	5.532254e-22
45	0x1a2733be	3.4576588e-23
46	0x1b2733be	1.3830635e-22
47	0x1e3cc166	9.992631e-21
48	0x1ecc1aac	2.1610371e-20
49	0x1c82a057	8.644125e-22
50	0x1cbc1a49	1.2447591e-21
51	0x1d2733be	2.2129016e-21
52	0x1dbc1a49	4.9790364e-21
53	0x1c2733be	5.532254e-22
54	0x1e12f462	7.779713e-21
55	0x1e82a057	1.38306e-20
56	0x1ecc1aac	2.1610371e-20
57	0x1d539d74	2.8007019e-21
58	0x1e000396	6.777005e-21
59	0x1ecc1aac	2.1610371e-20
60	0x1d9e0ed9	4.1837604e-21
61	0x1e2733be	8.8516064e-21
62	0x1d82a057	3.45765e-21
63	0x1e6bc7ff	1.2482155e-20
64	0x1ddcc271	5.8434563e-21
65	0x1e539d74	1.12028075e-20
66	0x1ecc1aac	2.1610371e-20
67	0x1d000396	1.6942513e-21
68	0x1bbc1a49	3.1118977e-22
69	0x1a2733be	3.4576588e-23
70	0x1b2733be	1.3830635e-22
71	0x1e3cc166	9.992631e-21
72	0x1ecc1aac	2.1610371e-20
73	0x1c2733be	5.532254e-22
74	0x1d2733be	2.2129016e-21
75	0x1cbc1a49	1.2447591e-21
76	0x1d9e0ed9	4.1837604e-21
77	0x1e82a057	1.38306e-20
78	0x1e12f462	7.779713e-21
79	0x1e6bc7ff	1.2482155e-20
80	0x1ecc1aac	2.1610371e-20
81	0x1d000396	1.6942513e-21
82	0x1ddcc271	5.8434563e-21
83	0x1ecc1aac	2.1610371e-20
84	0x1d82a057	3.45765e-21
85	0x1e000396	6.777005e-21
86	0x1d539d74	2.8007019e-21
87	0x1e539d74	1.12028075e-20
88	0x1dbc1a49	4.9790364e-21
89	0x1e3cc166	9.992631e-21
90	0x1ecc1aac	2.1610371e-20
91	0x1c82a057	8.644125e-22
92	0x1bbc1a49	3.1118977e-22
93	0x1a2733be	3.4576588e-23
94	0x1b2733be	1.3830635e-22
95	0x1e2733be	8.8516064e-21
96	0x1ecc1aac	2.1610371e-20
97	0x1c2733be	5.532254e-22
98	0x1e82a057	1.38306e-20
99	0x1cbc1a49	1.2447591e-21
100	0x1d82a057	3.45765e-21
101	0x1e539d74	1.12028075e-20
102	0x1e000396	6.777005e-21
103	0x1e6bc7ff	1.2482155e-20
104	0x1ecc1aac	2.1610371e-20
105	0x1d000396	1.6942513e-21
106	0x1ddcc271	5.8434563e-21
107	0x1ecc1aac	2.1610371e-20
108	0x1d539d74	2.8007019e-21
109	0x1dbc1a49	4.9790364e-21
110	0x1d2733be	2.2129016e-21
111	0x1e3cc166	9.992631e-21
112	0x1d9e0ed9	4.1837604e-21
113	0x1e2733be	8.8516064e-21
114	0x1ecc1aac	2.1610371e-20
115	0x1c82a057	8.644125e-22
116	0x1bbc1a49	3.1118977e-22
117	0x1a2733be	3.4576588e-23
118	0x1b2733be	1.3830635e-22
119	0x1e12f462	7.779713e-21
120	0x1ecc1aac	2.1610371e-20
121	0x1c2733be	5.532254e-22
122	0x1e82a057	1.38306e-20
123	0x1cbc1a49	1.2447591e-21
124	0x1d82a057	3.45765e-21
125	0x1e539d74	1.12028075e-20
126	0x1e000396	6.777005e-21
127	0x1e6bc7ff	1.2482155e-20
128	0x1ecc1aac	2.1610371e-20
129	0x1d000396	1.6942513e-21
130	0x1ddcc271	5.8434563e-21
131	0x1ecc1aac	2.1610371e-20
132	0x1d539d74	2.8007019e-21
133	0x1d9e0ed9	4.1837604e-21
134	0x1d2733be	2.2129016e-21
135	0x1e3cc166	9.992631e-21
136	0x1dbc1a49	4.9790364e-21
137	0x1e2733be	8.8516064e-21
138	0x1ecc1aac	2.1610371e-20
139	0x1c82a057	8.644125e-22
140	0x1bbc1a49	3.1118977e-22
141	0x1a2733be	3.4576588e-23
142	0x1b2733be	1.3830635e-22
143	0x1e12f462	7.779713e-21
144	0x1ecc1aac	2.1610371e-20
145	0x1c2733be	5.532254e-22
146	0x1e6bc7ff	1.2482155e-20
147	0x1cbc1a49	1.2447591e-21
148	0x1d9e0ed9	4.1837604e-21
149	0x1e3cc166	9.992631e-21
150	0x1e000396	6.777005e-21
151	0x1e82a057	1.38306e-20
152	0x1ecc1aac	2.1610371e-20
153	0x1d000396	1.6942513e-21
154	0x1ddcc271	5.8434563e-21
155	0x1ecc1aac	2.1610371e-20
156	0x1d539d74	2.8007019e-21
157	0x1d82a057	3.45765e-21
158	0x1d2733be	2.2129016e-21
159	0x1e539d74	1.12028075e-20
160	0x1dbc1a49	4.9790364e-21
161	0x1e2733be	8.8516064e-21
162	0x1ecc1aac	2.1610371e-20
163	0x1c82a057	8.644125e-22
164	0x1bbc1a49	3.1118977e-22
165	0x1a2733be	3.4576588e-23
166	0x1b2733be	1.3830635e-22
167	0x1e12f462	7.779713e-21
168	0x1ecc1aac	2.1610371e-20
169	0x1c2733be	5.532254e-22
170	0x1e6bc7ff	1.2482155e-20
171	0x1cbc1a49	1.2447591e-21
172	0x1d9e0ed9	4.1837604e-21
173	0x1e3cc166	9.992631e-21
174	0x1e000396	6.777005e-21
175	0x1e82a057	1.38306e-20
176	0x1ecc1aac	2.1610371e-20
177	0x1d000396	1.6942513e-21
178	0x1ddcc271	5.8434563e-21
179	0x1ecc1aac	2.1610371e-20
180	0x1d539d74	2.8007019e-21
181	0x1d82a057	3.45765e-21
182	0x1d2733be	2.2129016e-21
183	0x1e539d74	1.12028075e-20
184	0x1dbc1a49	4.9790364e-21
185	0x1e2733be	8.8516064e-21
186	0x1ecc1aac	2.1610371e-20
187	0x1c82a057	8.644125e-22
188	0x1bbc1a49	3.1118977e-22
189	0x1a2733be	3.4576588e-23
190	0x1b2733be	1.3830635e-22
191	0x1e12f462	7.779713e-21
192	0x1ecc1aac	2.1610371e-20
193	0x1c2733be	5.532254e-22
194	0x1e6bc7ff	1.2482155e-20
195	0x1cbc1a49	1.2447591e-21
196	0x1d9e0ed9	4.1837604e-21
197	0x1e2733be	8.8516064e-21
198	0x1e000396	6.777005e-21
199	0x1e82a057	1.38306e-20
200	0x1ecc1aac	2.1610371e-20
201	0x1d000396	1.6942513e-21
202	0x1ddcc271	5.8434563e-21
203	0x1ecc1aac	2.1610371e-20
204	0x1d539d74	2.8007019e-21
205	0x1d82a057	3.45765e-21
206	0x1d2733be	2.2129016e-21
207	0x1e539d74	1.12028075e-20
208	0x1dbc1a49	4.9790364e-21
209	0x1e3cc166	9.992631e-21
210	0x1ecc1aac	2.1610371e-20
211	0x1c82a057	8.644125e-22
212	0x1bbc1a49	3.1118977e-22
213	0x1a2733be	3.4576588e-23
214	0x1b2733be	1.3830635e-22
215	0x1e12f462	7.779713e-21
216	0x1ecc1aac	2.1610371e-20
217	0x1c2733be	5.532254e-22
218	0x1e539d74	1.12028075e-20
219	0x1cbc1a49	1.2447591e-21
220	0x1d9e0ed9	4.1837604e-21
221	0x1e2733be	8.8516064e-21
222	0x1e000396	6.777005e-21
223	0x1e82a057	1.38306e-20
224	0x1ecc1aac	2.1610371e-20
225	0x1d000396	1.6942513e-21
226	0x1ddcc271	5.8434563e-21
227	0x1ecc1aac	2.1610371e-20
228	0x1d539d74	2.8007019e-21
229	0x1d82a057	3.45765e-21
230	0x1d2733be	2.2129016e-21
231	0x1e6bc7ff	1.2482155e-20
232	0x1dbc1a49	4.9790364e-21
233	0x1e3cc166	9.992631e-21
234	0x1ecc1aac	2.1610371e-20
235	0x1c82a057	8.644125e-22
236	0x1bbc1a49	3.1118977e-22
237	0x1a2733be	3.4576588e-23
238	0x1b2733be	1.3830635e-22
239	0x1e12f462	7.779713e-21
240	0x3519f323	5.735075e-07
241	0x3454d440	1.9821255e-07
242	0x34d28132	3.920955e-07
243	0x3452cc05	1.9631996e-07
244	0x34bc72c8	3.5101243e-07
245	0x34964859	2.7992317e-07
246	0x3412f00b	1.3684637e-07
247	0x340c4c2a	1.3066224e-07
248	0x34ac059e	3.2041584e-07
249	0x348e5d23	2.6517327e-07
250	0x3411549f	1.3534962e-07
251	0x34ad1738	3.2240655e-07
252	0x34b6744b	3.3984756e-07
253	0x33f22c2e	1.12770394e-07
254	0x3432d034	1.6653286e-07
255	0x345578eb	1.988116e-07

exp_avg f4 [128]
0	0x00000004	6e-45
1	0x3871b2a4	5.762525e-05
2	0xb8a48c4a	-7.84626e-05
3	0x00000004	6e-45
4	0x00000004	6e-45
5	0x00000004	6e-45
6	0x00000004	6e-45
7	0x00000004	6e-45
8	0x00000004	6e-45
9	0x00000004	6e-45
10	0x00000004	6e-45
11	0x397f58d1	0.00024351782
12	0xb86a85f6	-5.591471e-05
13	0x00000004	6e-45
14	0x00000000	0.0
15	0x39750864	0.00023368147
16	0xb8a0283f	-7.636891e-05
17	0x00000004	6e-45
18	0x00000004	6e-45
19	0x00000004	6e-45
20	0x390791c4	0.00012928905
21	0x00000004	6e-45
22	0xb847c447	-4.7628095e-05
23	0x00000000	0.0
24	0x00000004	6e-45
25	0x00000000	0.0
26	0x00000004	6e-45
27	0x00000004	6e-45
28	0xb853fc34	-5.0541203e-05
29	0x00000004	6e-45
30	0x37d1d028	2.5011672e-05
31	0x00000004	6e-45
32	0xb93af7c8	-0.00017830648
33	0x00000004	6e-45
34	0x3943d15c	0.00018674642
35	0xb953feff	-0.00020217522
36	0x00000004	6e-45
37	0xb9373e56	-0.00017475462
38	0x00000000	0.0
39	0x00000004	6e-45
40	0x39084011	0.00012993837
41	0x00000004	6e-45
42	0x00000000	0.0
43	0x00000004	6e-45
44	0x00000004	6e-45
45	0x00000004	6e-45
46	0xb838a8d0	-4.4026237e-05
47	0x383c06a4	4.4828877e-05
48	0x36a94c94	5.0455074e-06
49	0x397afdb3	0.00023936368
50	0x00000000	0.0
51	0x38866fb8	6.410427e-05
52	0xb814fd72	-3.552199e-05
53	0x39421508	0.00018509116
54	0x00000004	6e-45
55	0x38b02024	8.398321e-05
56	0x39287668	0.00016065838
57	0x37b18ebe	2.1166514e-05
58	0x37fb445c	2.9953364e-05
59	0x00000004	6e-45
60	0x3870b21a	5.738633e-05
61	0xb8d04fa3	-9.9330464e-05
62	0xb873fc3e	-5.8170634e-05
63	0x00000004	6e-45
64	0x38b44f8f	8.597888e-05
65	0xb8b72607	-8.733203e-05
66	0x00000000	0.0
67	0x00000004	6e-45
68	0x00000004	6e-45
69	0x00000000	0.0
70	0x38ac7706	8.223769e-05
71	0xb9081382	-0.00012977238
72	0x00000004	6e-45
73	0x385a70ca	5.2080293e-05
74	0x00000004	6e-45
75	0x00000004	6e-45
76	0x00000004	6e-45
77	0xb920af66	-0.0001532413
78	0xb7dd2cee	-2.6366175e-05
79	0x3835455b	4.3218355e-05
80	0x00000000	0.0
81	0xb92a5384	-0.00016243575
82	0x00000004	6e-45
83	0xb92f01be	-0.0001668995
84	0xb796d0c8	-1.7978615e-05
85	0xb95f8805	-0.00021317608
86	0x00000004	6e-45
87	0x00000004	6e-45
88	0x00000004	6e-45
89	0x00000004	6e-45
90	0x390f49e3	0.00013665068
91	0x00000004	6e-45
92	0x00000000	0.0
93	0x39b4310c	0.00034368818
94	0x00000004	6e-45
95	0x00000004	6e-45
96	0x00000004	6e-45
97	0x00000004	6e-45
98	0xb8bd463a	-9.025303e-05
99	0x00000004	6e-45
100	0x00000004	6e-45
101	0xb95af16e	-0.0002088004
102	0x00000004	6e-45
103	0xb8776d84	-5.8991383e-05
104	0x00000004	6e-45
105	0xb6b3efdc	-5.362539e-06
106	0x00000004	6e-45
107	0x38855d40	6.3593034e-05
108	0x00000004	6e-45
109	0x00000004	6e-45
110	0x38902e34	6.875061e-05
111	0x394796d2	0.00019034304
112	0x00000004	6e-45
113	0xb79eeefe	-1.8946357e-05
114	0x00000004	6e-45
115	0x00000004	6e-45
116	0x00000004	6e-45
117	0x00000004	6e-45
118	0x00000004	6e-45
119	0x00000004	6e-45
120	0x00000004	6e-45
121	0x00000004	6e-45
122	0x00000004	6e-45
123	0x00000000	0.0
124	0x3958285f	0.00020614405
125	0x00000004	6e-45
126	0x00000004	6e-45
127	0x00000000	0.0
