models/RaceModels/reg_pos_coef_3copies_1to5_2HL_mse/model.pt (torch, 418909 bytes, 24 tensors)

fc1.weight f4 [128, 144]
00000000: f313 c4bd 49b0 26bc 921d bbbd e092 663d
00000010: dea7 f3bd 76e6 80bd f8ef 99bd 7432 a7bd
00000020: 785d 43bd d426 9cbd 0300 b5bd 5dd7 a23b
00000030: 5cb6 923b 66ab 9d3d 6568 a6bc 1605 e53b
00000040: 5405 1cbd c311 bbbc 1c7c 1ebc d991 49bd
00000050: f2ba 20be 44eb 1ebd 27c9 b0bd 7842 b0bd
00000060: ed3e ef3d 58c4 b13c 21fb 203d 370f fe3d
00000070: 1760 fc3d ed5b 8e3d 1845 8b3b 3e03 123e
00000080: 4df4 3bbd 1deb dc3d c7d8 71bd 19ab e13d
00000090: 6375 33bd 2be7 2b3b ee17 153e 6f3c f93c
000000a0: f8b4 243d eee3 933d 4129 4d3d a666 203d
000000b0: 0572 923c 67cd 333c 476b 423d bfa0 ca3d
000000c0: 7a45 933d 770e 15bd a22e 283d 20e3 943d
000000d0: 5af2 0cbd efcc 79bd 9bcd 2dbd 4896 bd3d
000000e0: 02f6 8dbd 12bd 5d3b 9672 cfbd 1dd3 0abd
000000f0: 511d dfbc 91a6 5f3d cd5b debc 34c8 8fbd
00000100: 0b6c bdbd 5044 ffbb 4214 e83d be9a e33c
00000110: 4795 2ebd 0251 b7bc 74b4 bfba 0231 75bd
00000120: f3c7 d43d bef8 323d 395a 9b3c 4e53 c7bd
00000130: 4126 bcbc c559 a0bd 912b 4f3d b541 8dbc
00000140: 8591 c13d 95c4 c83c 90eb 09bc 1c60 61bd
00000150: 150c ebbc a495 b1bc 3d65 db3d b4f1 96bd
00000160: 8d50 a2ba f99c 13bd 4829 ad3d 7a21 ebbc
00000170: ddf6 ad3c 0e10 57bd 1f5f 953d 5163 043d
00000180: 0259 193c e441 9ebc 5ef9 80bd 07fa a2bd
00000190: 3314 cd3c 619d 4cbd 9a64 e23d eb46 9dbd
000001a0: da84 a63d 5526 1c3d 4c2a 323d 2547 e73d
000001b0: e662 0abc afdb 373d e295 9dbb f384 6cbd
000001c0: aa4a 94bd 7c98 773d a506 94bc 2486 8d3d
000001d0: 9f1d bd3c b412 c4bc 89b5 16bd 2cd2 bc3d
000001e0: 8930 26bd bc4b 0e3d bc31 c23b 357b adbc
000001f0: 7197 103d 0858 36bc 4432 ab3d 91d0 11be
00000200: 9c9d 9dbd 4d9a 1b3d 8d6f 023d e14f bbba
00000210: fa56 453d 2091 0b3e b8a2 823d 8156 17bd
00000220: c05f 96bd 6ac7 923d 1e80 70bc 2acf 353d
00000230: 6f81 9a3d 49e7 0dbd 7e42 e4bc 938b 2fbd
00000240: ee01 f5bd 0173 d6bd 71fd 91bd d494 2d3d
00000250: cc68 fdbb 8c48 02bd f564 ed3c 3e27 3b3c
00000260: 5244 16be 5d82 5d3c f805 66be 558b 253e
00000270: ad3b 963d 855a 06be e58d 74bd 1a22 753c
00000280: cd7e 713d f7ae 3f3d 1ba8 f93d a51d f63d
00000290: 9f56 443c 19ec 05bc 00b1 62bd 92f3 4f3d
000002a0: 5438 abbd 71d3 ec3c 34db 803d e59c 293d
000002b0: d0b1 523d 072b 41bd 59c6 823d 00fe 313c
000002c0: 86fc 92bb 4d6c 173d 652c 04bd 778d f53d
000002d0: 8dae a43c c408 fe3b 7519 fbbc ee3f 41bc
000002e0: 2b58 003d 2638 da3d 2fe2 803d d7f9 473d
000002f0: 08c4 3abc d54a 89bd 6351 103d 89c8 c6bc
00000300: 5e9f 43bd 1215 bcbd fdeb 43bd 8bdc 1e3e
00000310: cccb e8bd b552 523c e716 bcbc 07f9 a03d
00000320: 4521 54bc 86f4 cc3d 1cd6 183d 94bc d63d
00000330: 52e9 133d 6cdc 0abe 2106 d9bb db18 8bbc
00000340: 29f3 be3d 96b8 d53b 7c79 253c fd79 bdbd
00000350: f816 e3bc 6045 45bd ff0c 163c 6289 0c3b
00000360: 5bd2 8ebd b88f b1bd 6f75 883a 46a1 1d3e
00000370: 68ff dbbd cefc 57bd de48 3fbc d7a8 5ebc
00000380: 69f1 b8bd 0fce a33b 18c7 e83c 251b c43d
00000390: cee9 4f3d 0b56 11bd f2ac 58ba b293 523d
000003a0: cf47 a03b b784 d8bc 27e0 733d 9b60 9fbc
000003b0: cce8 10bd 8fc5 983d d315 aabd 7608 af3d
000003c0: 3b5c 0dbe a960 96bd 0d18 993c 47be b03b
000003d0: b892 42bd 2f71 053d b6fc b5bd 20ea 3a3e
000003e0: 5a51 d8bd 41c9 703c c359 0c3d e00e 993d
000003f0: 8cc8 26bd 2269 a4bd 3c8a a33b c0a2 023e
-0.095741175 -0.010173866 -0.091364995 0.056292415 -0.118972525 -0.06293957 -0.075164735 -0.0816392
-0.04769656 -0.076245934 -0.08837893 0.004969521 0.0044773053 0.07698707 -0.020313451 0.0069891317
-0.03809102 -0.022835618 -0.009673145 -0.049211357 -0.15696314 -0.038798586 -0.08632117 -0.08606428
0.11681924 0.02170007 0.039301995 0.12405246 0.12323015 0.06951127 0.00425018 0.1425905
-0.04588728 0.10787032 -0.059044626 0.110189624 -0.04381312 0.0026230316 0.1455991 0.030424325
0.040211648 0.072212085 0.05008817 0.039160393 0.017876634 0.010974265 0.04746559 0.09893941
0.07190986 -0.036390748 0.041060098 0.07269883 -0.034410812 -0.060986456 -0.04243241 0.092571795
-0.06931688 0.0033834619 -0.101292774 -0.03389274 -0.027235659 0.05460221 -0.027143383 -0.070206076
-0.09249123 -0.007790126 0.11331989 0.027783748 -0.04262283 -0.022377495 -0.0014625923 -0.05986119
0.103897 0.04369425 0.01896392 -0.09732686 -0.02296746 -0.07829622 0.050578658 -0.017243246
0.09451584 0.0245078 -0.008417979 -0.055023298 -0.028692285 -0.0216778 0.10712669 -0.0737032
-0.0012383625 -0.036038373 0.084551394 -0.028702486 0.021235878 -0.052505545 0.072935335 0.032321278
0.0093596 -0.019318528 -0.06297563 -0.07957845 0.025034046 -0.049954776 0.110543445 -0.07679542
0.08130808 0.038122494 0.04349737 0.112928666 -0.008446431 0.04488724 -0.004809127 -0.057743978
-0.072408035 0.060448155 -0.018069575 0.06910351 0.023085414 -0.0239347 -0.03679422 0.092197746
-0.04057363 0.034740195 0.005926339 -0.021176914 0.035300676 -0.011129387 0.08359197 -0.14239718
-0.07696077 0.03798895 0.031844664 -0.0014290774 0.04817865 0.1362958 0.063786924 -0.03694773
-0.073424816 0.071669415 -0.014678983 0.04438702 0.07544219 -0.0346444 -0.027863737 -0.042857718
-0.11963259 -0.10471154 -0.07128418 0.04237826 -0.00773344 -0.031807467 0.028978804 0.01142293
-0.146745 0.013519851 -0.22463214 0.16166432 0.07335601 -0.13120468 -0.059705634 0.014961744
0.058958817 0.04679772 0.12190267 0.12017373 0.011983543 -0.008173966 -0.05534458 0.050769396
-0.08360353 0.028909417 0.0629181 0.041409392 0.051439106 -0.047160175 0.06385488 0.010863781
-0.0044856695 0.036968518 -0.0322689 0.11989873 0.020102764 0.00775251 -0.030651787 -0.011795027
0.031334084 0.10655241 0.06293141 0.04882225 -0.011399277 -0.06703726 0.035233866 -0.024265544
-0.047759406 -0.09183706 -0.047832478 0.15513818 -0.11366996 0.012837102 -0.02296014 0.07859998
-0.012947385 0.10007577 0.037313566 0.10485187 0.036111183 -0.13560647 -0.006623045 -0.016979625
0.09323723 0.0065222485 0.010099765 -0.09251783 -0.027720913 -0.048161864 0.009158372 0.0021444191
-0.06973716 -0.0866999 0.0010410975 0.15393552 -0.10742074 -0.052731328 -0.011675088 -0.013590059
-0.0903042 0.0049989293 0.028415248 0.0957549 0.050760083 -0.035482448 -0.0008265517 0.051410384
0.0048913728 -0.02643047 0.05953994 -0.019455245 -0.035378262 0.07459556 -0.08304944 0.08546536
-0.13804714 -0.07342655 0.018688226 0.0053937766 -0.047503203 0.032578643 -0.088860914 0.18253374
-0.105623916 0.01469642 0.03426529 0.0747354 -0.0407186 -0.08027865 0.004990844 0.12757397

fc1.bias f4 [128]
00000000: 1a5a 0bbd 8063 e13d 30d1 213d 636f 14bb
00000010: 5c6a 2cbc abce 4d3d a503 34bd 1a70 4d3c
00000020: 773c c8bc e5e4 35bd 1269 8cbd 3ef7 bcbd
00000030: 0fc9 ad3c 261b 693d 62ef 68bd bdc3 8b3d
00000040: dd80 86bd 0520 8ebd 2b3b 0d3c ab63 323c
00000050: 588f 59bd 98a3 a33c 9b37 ae3c ff64 753d
00000060: 0fab 9b3d 806f 0f3c d7a4 24bc d233 2f3d
00000070: f276 273d 54ca 693c b21e 60bd 2f56 843d
00000080: 706d a63c ae32 093c c78a a33b fb22 913d
00000090: 6c28 f7bc 430e d73c 3ed5 093d a1e1 bd3d
000000a0: 3943 933d c558 8e3d 15a0 4b3c ecbe 943d
000000b0: e438 bebd c296 663d c972 943d f5c8 d03d
000000c0: 8bb5 663d a332 b33c 004d f1ba 5702 72bb
000000d0: 0a80 c03c 13df 063d 8793 483c 2e08 8abd
000000e0: 8338 87bd 4526 f2bc e87b a6bd 1f6e 3fbd
000000f0: 4a96 1cbd 52f9 b73d 952e cebc b1b3 debb
00000100: dda3 2b3c a92f ecbc cac2 633d b131 5d3d
00000110: 0ab9 73bd d76f 96bd d46c f4bc c8a0 fbbc
00000120: f96f eebc 8671 823d b987 b53d 2042 5cbb
00000130: 6f16 91bd b456 803c 9a12 67bd 4c02 1f3d
00000140: 33f3 27bc 28b4 f13d bf45 d63c b7ee aa3d
00000150: fb3d 8b3d e62c d8bc 8b2c 82bd 8dc0 b53c
00000160: ec37 4c3d 339d 983c 93a5 a2bd abb2 8f3d
00000170: c605 55bd d3a2 c13d 64e1 f43d d23a 103d
00000180: 1fe3 633d 9e45 50bc 84d6 f8bc db76 b33d
00000190: ccd0 29bd 5db6 843d eca6 00bb 789f 08bc
000001a0: be66 863d 10b7 a1bc 9774 07bd 3df5 613c
000001b0: 1da5 c9bc 6de6 49bd d975 c3bc 82b4 b8bd
000001c0: aa39 a03a dc88 68bc 9a65 7c3c b1e2 ef3c
000001d0: 95d2 633d 5087 74bc 4aab 8cbd d6f3 12bd
000001e0: c476 5e3c 0b8b fb3c c0a5 a23d 7aed 38bd
000001f0: d406 af3d e8a0 3b3c f56d 12bd ad43 863d
-0.034021474 0.11005306 0.039506137 -0.00226494 -0.010523405 0.050245922 -0.04394879 0.012538934
-0.024442894 -0.044407744 -0.06855978 -0.09226845 0.021214036 0.056910656 -0.05686892 0.068244435
-0.065675475 -0.06939701 0.008620064 0.0108880205 -0.05311522 0.019975469 0.02126675 0.05991077
0.07600986 0.008754611 -0.0100490665 0.04277403 0.04088492 0.01426943 -0.054716773 0.06461751
0.020315856 0.008373899 0.004990909 0.0708675 -0.030170642 0.026251918 0.03365063 0.09271551
0.07190556 0.06950525 0.012428303 0.07262978 -0.09288195 0.056296118 0.07248456 0.101945795
0.056325477 0.021874731 -0.0018409789 -0.0036927664 0.023498554 0.032927584 0.0122422045 -0.067398414
-0.06602576 -0.029559264 -0.08129102 -0.04673588 -0.038229264 0.08983101 -0.025168696 -0.006796323
0.01047608 -0.02883132 0.055605687 0.054002468 -0.05950264 -0.073455505 -0.02983705 -0.030716315
-0.029106127 0.06369309 0.08863778 -0.003360875 -0.07084357 0.015666343 -0.056414224 0.03882055
-0.010250854 0.1180194 0.026156304 0.083463125 0.06798931 -0.026388597 -0.06356152 0.022186542
0.04985802 0.018629646 -0.07941737 0.070165 -0.05200746 0.094548844 0.11957052 0.035212345
0.05563652 -0.0127119105 -0.030375727 0.08762904 -0.04145889 0.064800955 -0.0019630743 -0.008338802
0.06562565 -0.019740611 -0.033070173 0.0137913795 -0.024614865 -0.049292017 -0.023859905 -0.09018804
0.0012224216 -0.014192786 0.015405083 0.0292829 0.05562075 -0.014924839 -0.06868608 -0.03587707
0.013578121 0.03070595 0.079417706 -0.04514835 0.08546224 0.011451937 -0.035749394 0.06555877

fc2.weight f4 [64, 128]
00000000: 95ac 463d d011 143c e8fb 1e3c b01f 293d
00000010: b7a6 cf3c f019 a2bd 870e 833d 236b 9fbc
00000020: 2a72 103d 757a a03a da13 243c e9fb 91bd
00000030: 269a 5b3d 1878 4fbd 277e 9dbd 91cc 71bd
00000040: 0225 973d 25f8 87bd 1c33 80bd 6c1a 2dbc
00000050: 40a9 323d cf4d 97bd 5b27 ac3d c9cf a33d
00000060: 3f2f 9e3d 047b 8ebd 4f90 fc3c ac61 8bbd
00000070: 637d 38bd 7964 cb3c 6606 f93c 7207 89bc
00000080: 584e e73c e80b 88bd 2070 b6bd 0e2d 69bd
00000090: 5897 33bc 4355 abbd eaf8 29bd 295e 14bd
000000a0: 1856 86bd ea63 24bd 363c d23c b9c8 633d
000000b0: bd28 913d 2d5c 33bd 8aa1 543d 333f aa3d
000000c0: e23a b7bc 0174 653d 3c0e ebbc 08a7 953d
000000d0: 3303 ae3d 7e7f 763d ba19 523d bd67 a73d
000000e0: 6dff 4e3c bf1a d93c b0b8 0f3d e2f9 92bd
000000f0: d644 b6bd 034c 953d 4441 443d 20bc 7dbb
00000100: 85d7 a13b 8b98 a7bd 07d9 97bd 5f2d a93d
00000110: 9df8 10bd 4bec a1bd a7b8 47bc a6df 98bd
00000120: d11a 383d 4159 7cbd c7ad c13c 0dca b43d
00000130: 410a 953c 07c2 8638 2449 f43c 69d4 8bbc
00000140: 57f5 99bd 06d2 b03c a44e a13d 1f10 52bd
00000150: 2c6e b0bd bff6 843d 83af aa3d a83e 46bd
00000160: 94aa a9bd 5e2b 1bbd 1bac 9ebd 3c41 a1bd
00000170: 9651 3ebd cbd8 29bd 7f1b 533d 63f4 8cbc
00000180: 93a6 a53d d724 743c 428e 383d b625 9bbc
00000190: 430f a83d 203b 8c3d 0709 b2bd ba42 393d
000001a0: fe13 afbd 8d1d 10bc 19b4 6abd 4a67 20bd
000001b0: b66b 41bd 43ee 97bd 3fe6 1a3c 27a1 36bd
000001c0: 4c5b 0d3d 9b39 b6bd f3a9 fcbc 9099 09bd
000001d0: 3edc 803d 4c83 89bd 8ef4 833d afb4 51bd
000001e0: 94f9 f4bc 98c7 b1bd dfef 983d 5f3c 64bc
000001f0: 1441 b13d 7d64 3dbd d207 a0bd 44fe 233d
00000200: 6173 d53d 8723 4d3d 7f27 91bc 65b8 5fbc
00000210: b292 acbd af73 253d 4ca6 943d 8bb1 653d
00000220: 99df a13d f701 39bd 6d0d 61bc a6ef 2f3e
00000230: f3c4 3cbd ea58 69bd a3e3 bc3c 68a4 c6bd
00000240: 9971 d03d 60aa 10bd f607 ac3d b3ae 7cbe
00000250: 14d9 03be eb17 a2bd c25c 03bd 865c a9bd
00000260: 9a68 403d 777e a33d babd e9bb ae45 08bd
00000270: d3da b03d 7215 9dbd 9d7f a63d 1caf fdbd
00000280: 7bb9 68bd ca86 abbd de3e ef3d 811f b13d
00000290: e9ba 863d 0085 4dbd cce5 c33d dd5f e23c
000002a0: c6bc 133e 72d9 b53c 209d 2cbd d944 113e
000002b0: faac aebd 06d3 a2bd dfec 82bd e208 043d
000002c0: 66f4 163e a33e 513d 9915 9bbd 53ac fe3d
000002d0: d32d 7f3c 3c34 ce3d 4bf9 003d 2283 9fbb
000002e0: 508e bd3d dbe0 5bbd b28d 92bd bc31 9d3d
000002f0: 3589 843d 2869 d43c 7810 aebd d04c 2e3d
00000300: 5dad e33d 7fd2 9b3d 3a60 a1bd 8b1d 65bd
00000310: d7fe 0b3d f71e df3d 755a 1a3e 22a5 78bd
00000320: e0fa bcbc a26f ef3c 3a83 c3bd 3897 6cbc
00000330: d7d6 523c 89fd 983d d128 233e ad1e ad3d
00000340: 06cb d13d 6904 153d 6455 1ebd 8099 a33d
00000350: afcc 243e 586a 33bc c0aa 433d 11f4 213c
00000360: 862b b93d a695 f73d 42e0 ed3d 7f10 a3bc
00000370: 79e3 38bd 5441 a33d 8c46 d7bc 0084 a43d
00000380: e3e2 b73a 75da 913d 13e0 923d aa00 72bc
00000390: ec2c a43d c087 143d 83ca 823d 006a 9e3b
000003a0: 8724 143d c7e5 a53d 6831 883c e532 323d
000003b0: 6dba 00be 220f b5bc dad3 ca3d a11a 54bd
000003c0: bedd debd 3c63 be3c efc6 08bd 3d9a ddbd
000003d0: 0527 e8bd 41e7 4abd eafc a43d 21e2 c0bc
000003e0: bb4f 533d f5af 4d3c 3b05 dfbd e227 18bd
000003f0: a77a f9bc fb37 3ebd 5151 c3bc e777 ac3c
0.04850443 0.00903745 0.009703614 0.041289985 0.02534805 -0.079151034 0.06399255 -0.019460266
0.035265125 0.0012243526 0.010014499 -0.07128126 0.053613804 -0.05065164 -0.07690077 -0.05903298
0.073801056 -0.06639127 -0.06259748 -0.0105653815 0.04361844 -0.07387888 0.08405944 0.07998616
0.07723855 -0.06957057 0.03083053 -0.06805739 -0.045041453 0.024828183 0.030398559 -0.016727183
0.0282356 -0.06642896 -0.08908105 -0.056927733 -0.010961376 -0.08365872 -0.04149715 -0.03622261
-0.0655939 -0.040134348 0.025663476 0.055611346 0.07087848 -0.043789078 0.05191187 0.083128355
-0.022366945 0.056018833 -0.02869331 0.07307249 0.08496704 0.06018018 0.051294066 0.081740834
0.01263414 0.026502011 0.03508824 -0.071765676 -0.08899848 0.07289889 0.047913805 -0.0038716868
0.004939022 -0.08183392 -0.074144416 0.08260607 -0.035393346 -0.079063974 -0.012190021 -0.074645326
0.04494745 -0.061608557 0.023642434 0.08827601 0.018193366 6.425758e-05 0.029820032 -0.017069058
-0.07517498 0.021584522 0.07876328 -0.051284906 -0.086147636 0.064923756 0.083342575 -0.048399597
-0.08284488 -0.037883155 -0.0774767 -0.078737706 -0.046464525 -0.041466516 0.051539894 -0.017206376
0.08088412 0.014901361 0.045057543 -0.01893888 0.08206036 0.06847215 -0.08693128 0.04522965
-0.08548735 -0.008796108 -0.05730066 -0.039161004 -0.04722186 -0.07418492 0.009454309 -0.04458728
0.034510896 -0.08897706 -0.030842757 -0.033593714 0.06292008 -0.06714496 0.064431295 -0.051197704
-0.029904164 -0.086806476 0.07467627 -0.013930409 0.08654991 -0.04623841 -0.078139916 0.04003741
0.104223974 0.05008271 -0.017719029 -0.013654803 -0.084264174 0.040393528 0.07258281 0.05607752
0.07903976 -0.04516789 -0.013736111 0.17181262 -0.046086263 -0.05696956 0.023057764 -0.09699327
0.10177917 -0.035318732 0.08399956 -0.24676017 -0.12875777 -0.07914718 -0.032070883 -0.082696006
0.046974756 0.07983106 -0.007133213 -0.033269577 0.086354874 -0.07670106 0.08129809 -0.12386915
-0.056817513 -0.08375318 0.11681913 0.08648587 0.06578619 -0.050175667 0.09565315 0.027633602
0.1442748 0.022198413 -0.042142034 0.1418642 -0.085290864 -0.07950406 -0.06392836 0.032235034
0.14741668 0.051085126 -0.07572479 0.12435212 0.01557489 0.10068557 0.031487744 -0.004867927
0.092556596 -0.053681236 -0.071559325 0.07675502 0.06471483 0.025929049 -0.08499235 0.042553723
0.11117051 0.07608508 -0.07879682 -0.055936377 0.03417858 0.10894578 0.15073569 -0.060704358
-0.023068845 0.029228035 -0.09546514 -0.01444035 0.012868605 0.07470233 0.15933539 0.084531166
0.10243802 0.03638116 -0.038655654 0.07988262 0.16093706 -0.010950647 0.04777026 0.00988485
0.090415046 0.1208909 0.116150394 -0.019905327 -0.04513881 0.07971445 -0.026278757 0.080329895
0.001402941 0.071217455 0.07171645 -0.014770666 0.08016381 0.036262274 0.06386282 0.0048344135
0.036167648 0.08100467 0.016625121 0.043505568 -0.12571116 -0.022101942 0.09903689 -0.051783208
-0.10882138 0.023240678 -0.033392843 -0.10820434 -0.113355674 -0.049536947 0.08056052 -0.023545327
0.05158971 0.012554158 -0.108896695 -0.03714741 -0.030453993 -0.046440106 -0.023842486 0.021053268

fc2.bias f4 [64]
00000000: 1cb6 6dbd be86 7e3d 6a23 843d e76d a6bd
00000010: 43f0 0cbc e0d4 21bd d09c 073d a1f2 12bd
00000020: 7c36 843c a51e 80bd 729a 2ebc 75c4 9f3d
00000030: ff39 97bd 3c3a 063d cda5 7c3d 1c95 af3d
00000040: 940f adbd c65c 57bd c3d3 a4bc 26f5 263d
00000050: 6db7 63bc bb0d dc3b 451f 7ebb 8100 1e3d
00000060: c4a3 39bd 84b6 2d3d f943 563d 4a43 43bd
00000070: 1084 e9bc 7780 e43d 3a9a a43d f1ad 923d
00000080: 3a17 073d be8a 8ebd b06e aa3d 08f7 243a
00000090: 7d7c a03d 14dc bd3c 2ff9 af3c 8857 0a3d
000000a0: cc6b 903c 95f8 863d 793e 80bc 37d5 7bbd
000000b0: 056c 613d 8faa 8c3d dbce 143d 2f63 e3bb
000000c0: 3ec6 b0bd b3a4 3f3d 3e91 a53d cfb2 05bd
000000d0: 5df3 a5bd d1b8 e3bc d384 80bd 51e1 36bd
000000e0: 43a0 8bbd 9520 983c 2ebf dbbd 101a 1d3d
000000f0: c997 7c3d e547 bf3c d43d f13a 6ee5 82bc
-0.058035 0.06214022 0.06452067 -0.08126431 -0.008602205 -0.039509654 0.033108532 -0.03587592
0.016139261 -0.06255845 -0.01065694 0.07801143 -0.07384109 0.03277038 0.061681557 0.08573362
-0.08450237 -0.05257871 -0.020120507 0.040761136 -0.013898713 0.006715504 -0.0038775962 0.0385747
-0.045322195 0.04241039 0.052310918 -0.047671594 -0.028505355 0.11157315 0.08037229 0.07162083
0.032981135 -0.06960057 0.08321893 0.0006292914 0.07836244 0.02317623 0.021481125 0.033774883
0.017629527 0.06590382 -0.01565479 -0.061482634 0.055034656 0.06868469 0.036330085 -0.006939314
-0.08631562 0.04678793 0.080843434 -0.03264123 -0.081030585 -0.027798088 -0.06275334 -0.044648472
-0.06817677 0.018570224 -0.10729824 0.038354933 0.06166819 0.023349712 0.0018405267 -0.015978541

fc3.weight f4 [32, 64]
00000000: 3507 c73c 0906 2fbd c14d 6ebd f009 bbbc
00000010: c00f 77be 69db 1fbe 291e aebc 1cf5 0a3e
00000020: 263c fc3d cbbd 983d c2b7 9cbd 020c d8bc
00000030: 93ed ccbd f99f 88bd d01e 14be 6524 01bc
00000040: acb7 97bd bc71 fe3d 8706 22be 9ffe 3d3e
00000050: db40 1e3e 8c06 193d 5fa0 e33c f22f 83bd
00000060: 6bb6 11bd dc7f d7bd 2aab 773d 3c82 603d
00000070: 58c7 8fbd 86fe 00be 34b1 f23c bdd6 1fbe
00000080: cea9 873e e79c c3bc 0f51 ab3d a135 e63d
00000090: c7e2 99bb e41a 0ebe 9ab5 c23d 2356 3d3e
000000a0: 6663 7abd 9dfd 2fbc 721c 963d da0b 1a3e
000000b0: f7cd 3c3e 7c31 e73e db1a 1dbb 1ba8 90bd
000000c0: 40c0 96bc 18ed 3f3d 160c 0cbe 4095 bd3b
000000d0: ddad 71bd 489c 7dbe a5bf 1e3e 2806 c4bd
000000e0: 4e2d 103e 4044 9cbd 001d 04be a3ed c4bd
000000f0: 52ba 603d 253d 94bd a9b0 6dbc 941a e63d
00000100: c205 a9bd 7cad 9fbd 405d 7abb d24e f1bd
00000110: 08b7 b0bd eea2 b0bd 2cad 0bbd 40c4 9a3b
00000120: 863c d3bd 48c5 bbbd d44c b8bd 8a21 f8bd
00000130: 088e 8ebd d4af 7fbd fa89 a03d 00a3 9f3c
00000140: 8ab1 c23d 80fd b4ba 0496 9c3d 1067 00bd
00000150: 909d 0fbc 40b8 163d 9aad cbbd 9a0b b6bd
00000160: c009 973d 5ae0 aabd eaf7 d2bd a8d0 7fbd
00000170: 24f0 d13d a84d a03d 4ce5 60bd 26a0 e13d
00000180: f8de f03c 7819 a2bc 1acd debd e8dd 913c
00000190: c0c4 78bd 6e71 bcbd 689f 01bd 72e1 983d
000001a0: c02f 3b3b 9475 38bd 8c50 ae3d 6cae cabd
000001b0: 442a 4abd 98d5 b13d 80c0 da3c 6cc5 81bd
000001c0: 0862 d8bc e808 a9bc 5014 76bc 6084 cc3c
000001d0: 20cf afbc 00ce 9bb9 0061 083b 5044 a7bc
000001e0: 3429 1e3d 0ce8 3c3d fc5e c23d 1ec7 af3d
000001f0: a08d d4bb 32ce bd3d 4071 b43c 1c1c 3ebd
00000200: aff0 e83c b141 513d a03b 833d 902a 3dbd
00000210: c7c4 21bd 7742 703d ef2d 83bd 67dd 9f3d
00000220: 601c a13d f355 01bd 8eb4 4cbd 8d0d 163e
00000230: f073 5dbe e793 45bd b272 cc3d 4359 813b
00000240: 8c95 cc3c 6c9f 283d 2c07 2ebd f212 00be
00000250: 6052 da3d 6ea8 b83c d37d de3d f36e 01be
00000260: a266 053c e2b2 e53d 4829 7c3d 18ef d43b
00000270: 18cd 8a3d 3095 40ba a064 e93d 5aad 963d
00000280: 94b5 113d 450b 613e 48f7 173e 7025 3cbe
00000290: 72e6 163e 0bcf bdbd 78b3 f93d 6990 413e
000002a0: 9d41 86bd 6608 9abd 87e6 a53d 7f79 853d
000002b0: d947 43bc 2fd3 de3e 1d04 433e ebe8 133d
000002c0: 1a08 9fbd d92d 5bbc 22dd 8a3e 03ef cfbd
000002d0: d416 0abd 0107 cc3d ac6f 71bb b0ae a6bc
000002e0: 9862 9b3d 0973 be3d f3c9 f33d 7c74 6bbc
000002f0: 9ef3 90bd a96a 01be bbc9 213d 17a4 21bc
00000300: 06a8 91bd d04e ae3d 380b a43d 887a 9ebc
00000310: 005f c4bd 505e 54bd 00d8 3c3b 90b8 8fbd
00000320: 247d aa3d 0e4b 9bbd 443c 46bd 2e63 ea3d
00000330: b87e 4d3d cc3e 74bd 3434 91bd e4cd 5abd
00000340: 8697 b0bd f4a9 533d 4c35 153d b422 ed3d
00000350: 32d4 b7bd 7ed4 93bd e0af d33c 720c c7bd
00000360: 40ac f43b b0bd a8bc 7047 3ebd 7e1f f4bd
00000370: b82e e63c 5009 cbbd 3cf7 d1bd dcf8 e93d
00000380: 48ff e33c d079 893d c8ea 36bd a411 2a3d
00000390: 1663 c33d 70d3 a3bd 54f1 373d 00ac 27bb
000003a0: 6845 8c3c 901b efbd 16d2 f3bd 2463 9fbd
000003b0: 920f f5bd 50a2 c6bc ea56 c43d 348f cf3d
000003c0: 48d6 48bd a079 e0bb 1235 a33d e07c ca3b
000003d0: f891 c73c e052 3cbd 962a adbd c0fd aabb
000003e0: e8e1 283d 5a19 b23d 2a41 dbbd 8221 91bd
000003f0: 38f1 aa3c 0031 7bbd 5e1e 8ebd 004c 1c3c
0.024295429 -0.042730365 -0.05817962 -0.022831887 -0.24127102 -0.15611042 -0.021254616 0.13570064
0.1231616 0.07458075 -0.076522365 -0.026372913 -0.10006251 -0.06671137 -0.14464879 -0.007882212
-0.074080795 0.12424037 -0.15822802 0.18554161 0.15454428 0.03735976 0.027786432 -0.06405629
-0.035574358 -0.10522434 0.06046597 0.0548117 -0.07020444 -0.12597093 0.029625513 -0.1560926
0.26496738 -0.023878528 0.0836507 0.11240698 -0.0046962234 -0.13877445 0.09507294 0.1848989
-0.06112995 -0.010741618 0.07329644 0.15043584 0.18437944 0.4515494 -0.0023972306 -0.070633136
-0.018402219 0.04685697 -0.13676485 0.0057856143 -0.0590037 -0.24766648 0.15502794 -0.09571487
0.14079782 -0.07630205 -0.12901688 -0.09615638 0.05486519 -0.07238225 -0.014507451 0.11235538
-0.08253051 -0.077967614 -0.0038202554 -0.11782612 -0.086286604 -0.08624826 -0.034100696 0.004723102
-0.10314278 -0.09168488 -0.08999029 -0.12115772 -0.06960684 -0.062423542 0.07838817 0.019486904
0.09506519 -0.0013808459 0.07645801 -0.031348288 -0.008765593 0.03679681 -0.09945221 -0.088889316
0.073749065 -0.08343573 -0.10301192 -0.06245485 0.10250881 0.07827312 -0.054906175 0.11016874
0.029403195 -0.019787535 -0.10878964 0.017806008 -0.06073451 -0.092013225 -0.031646162 0.07464875
0.0028562397 -0.045034006 0.08511457 -0.098965496 -0.049356714 0.08683318 0.02670312 -0.06336483
-0.026413932 -0.02063413 -0.015019491 0.024965465 -0.02146107 -0.00029717386 0.002080977 -0.020418316
0.038613513 0.046119735 0.09490773 0.085829005 -0.0064866096 0.09267844 0.022026658 -0.046413526
0.02843508 0.05108804 0.06407857 -0.04618317 -0.039494302 0.058657136 -0.064052455 0.07805901
0.0786674 -0.03157611 -0.049976878 0.14653607 -0.21626258 -0.048236754 0.09982814 0.0039474084
0.024973653 0.04116766 -0.04248731 -0.12507227 0.10660243 0.022541251 0.10863843 -0.1263998
0.008142145 0.1121576 0.061562806 0.0064982288 0.067774 -0.00073464494 0.11396146 0.07357283
0.035573557 0.21976955 0.14840424 -0.18373656 0.14736345 -0.09268006 0.12192434 0.18902744
-0.065554835 -0.07521133 0.0810061 0.06517314 -0.011918985 0.43520495 0.19044538 0.0361108
-0.07765217 -0.01337763 0.27121836 -0.1015301 -0.033713177 0.099622734 -0.0036840243 -0.02034697
0.07587165 0.09299285 0.11903753 -0.014371034 -0.07077716 -0.12638344 0.039499026 -0.009865782
-0.07112126 0.08511126 0.08009952 -0.019345537 -0.09588432 -0.051847756 0.002881527 -0.070176244
0.0832465 -0.07582675 -0.048397318 0.11444698 0.050169677 -0.0596302 -0.07090035 -0.05341901
-0.08622651 0.05167575 0.03642778 0.11578885 -0.0897602 -0.07218264 0.0258407 -0.09719171
0.007466823 -0.020598263 -0.046454847 -0.11920069 0.02809845 -0.099138856 -0.10252234 0.11424419
0.027831689 0.06712687 -0.0446575 0.04152073 0.095403835 -0.07999313 0.044907883 -0.0025584698
0.01712294 -0.11675179 -0.11905305 -0.077825814 -0.119658604 -0.024247319 0.0958689 0.10134736
-0.04903248 -0.0068504363 0.07969107 0.006179437 0.024361596 -0.045977473 -0.08455388 -0.0052182376
0.041231066 0.08696242 -0.107057884 -0.07086469 0.020866975 -0.061326027 -0.06939386 0.009539604

fc3.bias f4 [32]
00000000: 1acb 113e e0bb dc3c 7f0e c03d d0e9 bdbc
00000010: cda6 e53d 52f1 3d3d b56a e03d 65b2 50bd
00000020: 0e36 15bc 7c69 cdbd c105 b63d cf2d 8d3d
00000030: d56b 933d e2ef e03d 0501 293d 112f d73d
00000040: ac0b 643d eae9 bdbd 8cba 4abc 2f56 d83d
00000050: 3c56 b9bd 386e fc3c 6d34 b33c 6776 013e
00000060: 09be ccbb 5ad7 a1bd de0e bf3c 4916 0f3e
00000070: 712e 90bc 7aae c5bd 21df bc3c f7ec dcbd
0.14237633 0.026945055 0.09377765 -0.02318278 0.11213455 0.04637272 0.10957853 -0.05095138
-0.009107126 -0.10029885 0.08887816 0.06893503 0.07198302 0.10983254 0.041260738 0.10507024
0.055675194 -0.09273131 -0.012373578 0.10563313 -0.09049651 0.030814275 0.021875584 0.12642823
-0.00624824 -0.07902403 0.023322519 0.13973345 -0.01760027 -0.096524194 0.023055615 -0.10787385

fc4.weight f4 [24, 32]
00000000: f2ac c33d b04f 2c3c ffb6 053e e936 c8bd
00000010: 4f25 a3bd bdd2 ae3c b5d0 fe3d 463c 713e
00000020: ebb9 3a3e c76c 96bd 4f27 293e 83d3 dcbd
00000030: 7b6f 593e 49bd c6bd abdc 073e 3761 4e3a
00000040: 5f05 cbbd 7997 8abd fc86 053e d676 bfbd
00000050: e813 813d 710b 44bd 3aef 203d bca8 2f3e
00000060: be31 89bc 5ad7 d0bd d441 aa3d 0e2d 4ebe
00000070: f52a 403e ae66 0dbe b402 923b e872 b23d
00000080: de30 933c 6020 343d 06f9 0c3e 9b96 27be
00000090: 8473 c4bd e4c0 683d c4ee 8a3c a62d f7be
000000a0: f018 c43c fdbf fb3d 1665 873d 5ffe 1a3d
000000b0: dcec 903d 9e55 1f3e e3c2 863d b5be fb3d
000000c0: d9fc f0bb 7e47 1d3d 591b 143e eaeb ea3d
000000d0: bbfd 20be 78b6 b5bc b244 9ebd fddb 2cbd
000000e0: c2a8 333d bb62 88be 3799 42bd 38f1 9e3c
000000f0: 486e a83d d96d 203e 85c5 d9bd 4a88 8abe
00000100: ccaa 8c3e 7c64 28bd e68a 7c3d 5094 9ebd
00000110: 1cf3 abbd 0180 8a3d 3808 a1bd 39a5 db3c
00000120: 2928 913d 8ff8 1bbd bec2 dc3d 6ad2 483e
00000130: eb6f a1bc ec31 b43d 6492 603e cc5c aabd
00000140: 0479 943c 0b67 28bd 9e4c 1b3e b8b4 3cbe
00000150: 2454 f5bd 7ddd 83bd d414 a7bd 0396 073e
00000160: 8ca7 0ebe 60bb 83bd fd8b 9cbc ea5c f03c
00000170: 605f 093e fc87 70bd ddd1 0f3e f5b2 eebd
00000180: f3af 633e 4014 08bc 5b2e 34bd a3fb 8cbd
00000190: 8eb2 ddbd b1b1 dfbd f790 a0bd 8720 a1bd
000001a0: 0227 18be a933 af3d ae76 b7bb b8b3 453e
000001b0: 0410 8d3c 82e2 d3bb f152 c53e 0bd6 27be
000001c0: 1243 2dbd 66a8 1abe 3b8b 1abe f683 2f3e
000001d0: 567d ccbd 524f 483d 7444 dbbd 4a60 eb3d
000001e0: 92fd 323e e1ab bcbd 3c35 673d 663f 6dbd
000001f0: 9169 3fbd e55f aebd cb8f 9f3c b25c 6b3c
00000200: 16b5 adbd d02c b7bd d478 fbbd 7813 1c3d
00000210: f119 ea3c 440e 0e3e ccef 1b3e 1802 08be
00000220: d580 933d 7771 3f3e d257 3dbd 1a4c 33be
00000230: b94d 393d bcbf 4b3e 5346 03be ce3a d9be
00000240: 285e 1fbe e9ed 873e 31f2 893d 177a c4bd
00000250: 155c 1c3e 4d32 b5bc 6434 b13b 9328 323e
00000260: 15a4 b73d cf65 a83d c6eb 9c3b e8b7 51bd
00000270: b565 4f3d 38b6 db3c db2b f23d 1ed3 3f3d
00000280: b1b2 083d e95e 173e b1e0 49be 2afc d73d
00000290: b4ef d9bd 1dea 8f3e 4150 6dbe 95ce 963c
000002a0: b8b0 993d b213 fe3d 52fd 103e 1915 503e
000002b0: 6fd4 bb3c 9579 dabd 2077 16be f018 f93d
000002c0: a5e9 a5bd c4b6 723d bda6 353e d504 af3d
000002d0: 567c 07be 89a2 e7bd fc34 233d 360b 573e
000002e0: 867b ea3d b941 0a3e be7b 3dbd d55e 573d
000002f0: aebb 573d 906d 69bc 0eb2 c7bd 75d8 95bd
00000300: a946 0cbd bfb8 04be da53 e3bb 60c2 113d
00000310: 3196 27be d650 eabd fc8f 8b3e 5bf4 0dbd
00000320: 8240 003d a8e7 f3bb 62ec 2e3e adbd 403e
00000330: 511f 993c cf80 093e c2da 0bbe 425d 2b3b
00000340: 1db4 7b3e 2ea6 44bc ee20 20bd aeb1 98bd
00000350: 7db5 0f3e df3c 10be d4b2 dc3d ffc4 35bc
00000360: 26cb 483c 3d7d a23e ec97 0e3e 93fc 25be
00000370: 01b4 e3bd 59ae 18be d48a a53d 1fa3 883d
00000380: 97bd 803e f844 84bd cfc0 e43c ad88 2d3e
00000390: 4ea1 5b3e fc60 a4bd 89cb 70be a34f 20be
000003a0: 8709 343e 06c8 a23d e1bb 22be 11e9 c73d
000003b0: d5df 723d 9c04 b93d 6a69 28be fbe1 8fbe
000003c0: 72ce 0abe d2f2 3cbe 1bb3 933d 4e83 3fbe
000003d0: 780c 313d f0d8 8e3d ffc5 343e 3e30 83bd
000003e0: eec5 1a3e aebd ac3c e74a bbbc 0753 62bd
000003f0: 8c2a 903d cc34 1b3d 41dc 0bbe 4f8a 28bd
0.09554471 0.010517046 0.13058089 -0.09776098 -0.079661004 0.021340722 0.124421515 0.23558149
0.18234985 -0.073449664 0.16518901 -0.1078253 0.21233933 -0.09704072 0.13267772 0.00078727625
-0.09913134 -0.06767172 0.13039774 -0.09348838 0.06302625 -0.047862474 0.039290644 0.17154211
-0.016747352 -0.10197325 0.08313337 -0.20134374 0.18766387 -0.138087 0.0044558886 0.08713323
0.017967638 0.043976188 0.1376687 -0.16366045 -0.09592345 0.05682458 0.016959555 -0.48277014
0.023937672 0.12292478 0.066110775 0.037840243 0.07076427 0.15560004 0.065801404 0.12292234
-0.0073543605 0.03839826 0.14463557 0.11470778 -0.1572179 -0.022181734 -0.07727946 -0.042201985
0.043862112 -0.26637825 -0.0475094 0.019402131 0.082241595 0.15666904 -0.10633377 -0.27057105
0.27474058 -0.041111454 0.0616559 -0.07743132 -0.08395979 0.06762696 -0.07862896 0.026812183
0.07087738 -0.03807884 0.107793316 0.19611517 -0.019706687 0.08798584 0.21930844 -0.08318481
0.018124111 -0.041113894 0.15165946 -0.18428314 -0.11978939 -0.0643873 -0.081582695 0.13240819
-0.13931102 -0.06432223 -0.01910972 0.02934118 0.13415289 -0.058723435 0.140449 -0.11655227
0.22235088 -0.008305609 -0.04398952 -0.068839334 -0.10825072 -0.10922564 -0.0784015 -0.07867532
-0.1485863 0.08554775 -0.0055988645 0.19306839 0.01721955 -0.006466211 0.38539842 -0.16390245
-0.04230029 -0.15103301 -0.15092175 0.17140183 -0.099848434 0.04890377 -0.10706416 0.11492975
0.17479542 -0.09212471 0.056447253 -0.05792179 -0.046731535 -0.08514384 0.019477746 0.014365362
-0.08481805 -0.08944094 -0.122789055 0.038104504 0.028576823 0.1387263 0.15228194 -0.13282049
0.07202307 0.18695627 -0.04622633 -0.17509499 0.045240138 0.1989736 -0.12819795 -0.42427677
-0.15563262 0.265487 0.067356475 -0.09593599 0.15269502 -0.022118712 0.005407857 0.1739829
0.08966843 0.082225434 0.0047888486 -0.051200777 0.050634105 0.026820287 0.11824771 0.046832196
0.03337354 0.14782299 -0.19714619 0.10546143 -0.10641423 0.28108302 -0.23175146 0.018409053
0.075044096 0.124061 0.14159134 0.20320548 0.022928445 -0.10667721 -0.1469388 0.121629596
-0.08101205 0.05925633 0.17739387 0.085458435 -0.13231024 -0.11310298 0.03984545 0.2100037
0.114493415 0.13501634 -0.046260588 0.052580673 0.05266922 -0.014247313 -0.09750758 -0.073166765
-0.034247074 -0.129611 -0.006937486 0.03558576 -0.16365887 -0.114411995 0.2725829 -0.034656864
0.03131152 -0.007443387 0.1708236 0.18822356 0.01869169 0.13428043 -0.13657668 0.0026148115
0.24580427 -0.012002511 -0.039093904 -0.07455765 0.14034076 -0.1408572 0.10776296 -0.011094331
0.012255466 0.31736174 0.13925141 -0.1620963 -0.111183174 -0.14910258 0.0808312 0.06671738
0.25144646 -0.06458467 0.02792397 0.16946669 0.21448252 -0.08026311 -0.23515143 -0.15655379
0.1758176 0.07948308 -0.15891983 0.09761251 0.059295494 0.09034082 -0.16446462 -0.28102097
-0.13555315 -0.18452004 0.07211896 -0.18702433 0.04322478 0.06974971 0.17653655 -0.06405686
0.15114567 0.02108654 -0.022862865 -0.055254962 0.07039365 0.037892148 -0.13658239 -0.041147526

fc4.bias f4 [24]
00000000: 82a0 cb3d cfc0 4b3e 227e 283d 68c8 313e
00000010: 38a0 483d 0618 863d 39cf 2c3d 0af3 a6bc
00000020: 828c a43d 8e0c 23bc 5f25 053e d1f8 8e3d
00000030: 01e0 09be 626a f53d 4868 2cbe 52e7 063e
00000040: 5db5 053e 5b7f f13d edc8 07be 1d12 f23d
00000050: 7cec 43bd 3218 3a3e ae50 e9bc 9b3b db3d
0.09942724 0.1989777 0.041135915 0.17361605 0.04898092 0.06547551 0.04218981 -0.020379562
0.08034612 -0.009951724 0.13002537 0.06981052 -0.13464357 0.119831815 -0.16836655 0.13174179
0.13057466 0.11791869 -0.13260241 0.11819861 -0.04783295 0.18173292 -0.028480854 0.10704728

exp_avg f4 [128, 144]
00000000: 2c57 1438 f2e3 9837 15ab 1338 552c ed37
00000010: e855 7138 f0de 4d38 31d3 0a38 668d 0438
00000020: f38c 9537 e029 1638 66c0 a537 d70f af37
00000030: d5cb 9038 0e45 9037 307c d137 831a 2c37
00000040: c851 fe37 9a8d a238 422c 8c38 d8fe 0238
00000050: 8a85 6638 da15 0438 cc06 0b38 2215 9937
00000060: e4e1 7d38 9ee2 1f38 6650 4e38 c896 2c38
00000070: eb9b 6538 ae29 3f38 8d5a 2d38 565a 4838
00000080: 6eab 2438 183c 8437 6260 5138 5db8 3638
00000090: b26f b738 1ce7 e336 a202 1838 2fb7 2c38
000000a0: 3f3c 9e38 88d2 cb38 1817 aa38 7289 5338
000000b0: b6d4 5538 ac4c 5038 e115 7538 85ca 1e38
000000c0: 6a69 7838 3a3f 1f38 6810 6a38 bae0 1c38
000000d0: 6449 6c38 ce8e 4538 32b7 2338 f244 4e38
000000e0: e271 3038 cab0 8b37 34ca 5738 b91f 3338
000000f0: eb3d b438 60cb d535 8183 2238 aaeb 1d38
00000100: 59d1 9e38 a857 da38 02c0 aa38 57fc 6438
00000110: f4f4 7238 ae2a 6338 de39 6a38 70fd 2338
00000120: 5671 8638 0a9c 1f38 8456 4838 940a 3138
00000130: c77d 7438 c939 4f38 552b 2138 5fb4 5138
00000140: b160 2538 d937 b437 e967 5f38 be88 1238
00000150: 98b7 b538 7037 be36 5eab 3038 42d7 0f38
00000160: cf21 9838 74a3 d638 0f02 a238 ae07 3f38
00000170: 5ec6 6038 2990 5638 9075 6738 e7b3 cb37
00000180: e718 8838 3492 1b38 2b0b 3a38 6adb 2b38
00000190: e411 7e38 3ecb 4b38 ab49 1f38 07c2 5138
000001a0: 5b8f 2538 688e b837 7e6d 3b38 74c9 0438
000001b0: 1ed1 a438 5647 ef36 f494 3838 960c 1838
000001c0: bbb7 9d38 0327 d638 c855 a138 788b 3738
000001d0: 32c8 6b38 e2b9 5038 1d67 7838 6a6c d137
000001e0: e501 8638 76c3 1d38 fdcb 2838 68b7 3638
000001f0: 1263 8038 45b0 4438 bc61 3038 2cfe 5f38
00000200: 4caf 2038 f6d3 be37 acab 2838 8c06 0938
00000210: e991 9d38 80c9 e236 3466 4d38 e496 1238
00000220: 1732 9d38 5422 d338 d6ae 9f38 7a13 4238
00000230: 7ef5 6238 3caf 4738 00e9 6e38 2d44 de37
00000240: 2613 b137 4757 8f37 bc72 1237 8469 4137
00000250: c028 25b7 1ca6 8f37 a27a cab5 cc51 a435
00000260: 5f93 9d37 2076 c834 c70b b1b6 64ee 8937
00000270: e25b 2ab7 3faf b736 e4cc 3137 f9f3 aa37
00000280: d355 a0b7 b3fd 26b7 d589 0237 f8a4 1c36
00000290: 0200 4ab7 6379 a935 ca84 b636 7a52 2bb6
000002a0: 9afa 5637 724f a337 1075 49b7 e894 da36
000002b0: aeba 96b6 171a 5137 006e f834 5f23 2237
000002c0: fc84 7a37 1823 23b7 5f51 3fb7 aeb7 9937
000002d0: 71aa 05b7 bedf cab7 ed57 9037 c4bc a636
000002e0: 2675 8ab7 88f9 84b7 8323 2237 cdc9 7e37
000002f0: 2a47 1eb7 c194 e436 7bda a337 08f8 2cb7
00000300: a974 9737 bab0 c037 c76c f7b6 a405 1837
00000310: b896 6cb6 8856 8d37 e7af 8736 be07 3337
00000320: 17dd 3937 c287 3bb7 5d4f 53b7 16c3 8137
00000330: 2536 55b6 345f c9b7 0088 2a37 3689 4d37
00000340: 5a2c a0b7 20fd 88b7 632c 1437 d9b6 8337
00000350: 8d49 29b7 d018 e436 1fe5 9237 3859 28b7
00000360: 0835 bd37 0b94 cb37 9847 20b7 d8af af36
00000370: 187b 94b6 74bd 3537 4061 e235 c678 3e37
00000380: 7a10 8937 b493 c4b6 50c2 a6b7 cf6c 7937
00000390: 00b6 8233 ce6d cdb7 17b3 9237 a48e 2037
000003a0: 04a2 94b7 4490 6eb7 41f0 0f37 d542 7a37
000003b0: 7374 efb6 d961 d036 04fb 9f37 5029 3fb7
000003c0: 5420 c237 5dd3 e337 6db2 30b7 3491 f836
000003d0: cc95 17b7 6e91 2f37 d04a 85b5 b003 ed36
000003e0: 6b03 9037 78c6 e4b5 4510 74b7 b2d3 8037
000003f0: 42e1 8f36 d5b0 a2b7 54bf 8537 104b ab35
3.5367135e-05 1.8225957e-05 3.5206864e-05 2.8273245e-05 5.7538884e-05 4.9083435e-05 3.309845e-05 3.160294e-05
1.7827819e-05 3.5801786e-05 1.9759125e-05 2.0869002e-05 6.904422e-05 1.7198294e-05 2.497257e-05 1.0258172e-05
3.0317242e-05 7.751137e-05 6.683964e-05 3.1231757e-05 5.496064e-05 3.1491603e-05 3.3146513e-05 1.8248862e-05
6.0530278e-05 3.8119608e-05 4.9189104e-05 4.114842e-05 5.4743065e-05 4.5576766e-05 4.1330746e-05 4.7767848e-05
3.9260303e-05 1.576361e-05 4.9919247e-05 4.3563883e-05 8.746925e-05 6.792032e-06 3.6242076e-05 4.11786e-05
7.545249e-05 9.719009e-05 8.110533e-05 5.0434326e-05 5.098126e-05 4.966247e-05 5.843293e-05 3.7858747e-05
5.9225982e-05 3.796744e-05 5.5805227e-05 3.740259e-05 5.6335135e-05 4.7101457e-05 3.9032842e-05 4.9178438e-05
4.206773e-05 1.6652415e-05 5.144831e-05 4.270647e-05 8.594602e-05 1.5928927e-06 3.8746282e-05 3.7651196e-05
7.573021e-05 0.00010411377 8.141996e-05 5.4594446e-05 5.7925427e-05 5.4160766e-05 5.584384e-05 3.909826e-05
6.4107284e-05 3.8053877e-05 4.776429e-05 4.220994e-05 5.8291273e-05 4.9406462e-05 3.8425747e-05 4.9997467e-05
3.9429116e-05 2.1483678e-05 5.3264117e-05 3.4936464e-05 8.6649496e-05 5.668895e-06 4.2121268e-05 3.429433e-05
7.254222e-05 0.00010234761 7.7251454e-05 4.55451e-05 5.3590506e-05 5.1155836e-05 5.518418e-05 2.428326e-05
6.489624e-05 3.7091042e-05 4.4356257e-05 4.0973922e-05 6.057498e-05 4.8588256e-05 3.7977163e-05 5.0010185e-05
3.9472576e-05 2.2000822e-05 4.4686247e-05 3.165887e-05 7.8590805e-05 7.1310596e-06 4.4007742e-05 3.6251346e-05
7.520566e-05 0.00010211582 7.693056e-05 4.376049e-05 5.6214813e-05 4.976418e-05 5.922384e-05 2.4965226e-05
6.389971e-05 3.7613754e-05 4.02443e-05 4.356299e-05 6.121969e-05 4.6894205e-05 4.2052692e-05 5.340406e-05
3.831023e-05 2.2748467e-05 4.0214203e-05 3.2669443e-05 7.513521e-05 6.7587825e-06 4.8970993e-05 3.494964e-05
7.495673e-05 0.00010067658 7.6142765e-05 4.6271343e-05 5.411123e-05 4.7608497e-05 5.696062e-05 2.649621e-05
2.1108961e-05 1.708757e-05 8.728992e-06 1.1528264e-05 -9.844254e-06 1.712428e-05 -1.5085864e-06 1.2242758e-06
1.8784483e-05 3.733885e-07 -5.276382e-06 1.6442682e-05 -1.0154183e-05 5.4742263e-06 1.0597727e-05 2.0379188e-05
-1.9113451e-05 -9.95344e-06 7.780695e-06 2.3341836e-06 -1.204014e-05 1.2626809e-06 5.4394814e-06 -2.5528993e-06
1.2813742e-05 1.9468109e-05 -1.2007789e-05 6.5142412e-06 -4.4920807e-06 1.2463445e-05 4.6273635e-07 9.664188e-06
1.4932124e-05 -9.723728e-06 -1.1403433e-05 1.8324554e-05 -7.967102e-06 -2.4184465e-05 1.7207081e-05 4.9691607e-06
-1.6505433e-05 -1.5851823e-05 9.664221e-06 1.5186565e-05 -9.434103e-06 6.8122467e-06 1.9532852e-05 -1.0309748e-05
1.8054927e-05 2.2970478e-05 -7.373837e-06 9.061219e-06 -3.525447e-06 1.6848804e-05 4.0437913e-06 1.0671034e-05
1.1078336e-05 -1.1177677e-05 -1.2595058e-05 1.5468842e-05 -3.177099e-06 -2.40054e-05 1.0164455e-05 1.2250899e-05
-1.909414e-05 -1.6330334e-05 8.831822e-06 1.5701562e-05 -1.009031e-05 6.797818e-06 1.751125e-05 -1.0034353e-05
2.255525e-05 2.4268424e-05 -9.553412e-06 5.2358773e-06 -4.4250737e-06 1.0832551e-05 1.6866616e-06 1.1353002e-05
1.6339345e-05 -5.85845e-06 -1.9879226e-05 1.48668905e-05 6.086702e-08 -2.4489036e-05 1.7487951e-05 9.569954e-06
-1.771842e-05 -1.4219495e-05 8.579403e-06 1.4916722e-05 -7.1363115e-06 6.210274e-06 1.9071165e-05 -1.1394106e-05
2.3141656e-05 2.7158932e-05 -1.05319605e-05 7.40788e-06 -9.035179e-06 1.0464673e-05 -9.931045e-07 7.0635797e-06
1.716773e-05 -1.7045086e-06 -1.4547321e-05 1.5357367e-05 4.2879556e-06 -1.9394249e-05 1.594393e-05 1.2762339e-06

exp_avg_sq f4 [128, 144]
00000000: ce22 bf33 16dc da32 f5e3 8133 3e05 e832
00000010: 1102 7833 dad0 3033 a53c 6732 18b3 a832
00000020: 8adc 1c33 2c24 0833 3c76 8a32 22e3 1f33
00000030: 1c60 7733 20d4 3432 853b c632 8928 a132
00000040: 060d 4c33 1f31 9a33 21e6 cf33 a04e 1833
00000050: a4a6 6833 5f98 a232 5827 0d33 cbff 8b32
00000060: 4404 4934 5ccc 9133 7d97 f433 19a7 6633
00000070: cd4c a633 0ae6 a233 3e5d 2833 179f 7a33
00000080: bcf6 cb33 e19e 6b33 986b 3533 9a93 b933
00000090: ded4 e833 bb7d 1c33 9d2f 6733 ff66 7633
000000a0: 933c eb33 5df5 1a34 caa0 4734 bbf5 8f33
000000b0: 6c7a cb33 0ae0 6433 da77 9633 2dd3 3033
000000c0: 1a49 4b34 823b 9833 e4e6 fd33 4c60 6933
000000d0: 6f22 a733 d353 a633 7b60 3833 ddbf 8433
000000e0: c857 cd33 71d3 6d33 cd37 4233 3557 b433
000000f0: 0e49 e333 e458 1233 5ceb 8133 4859 8133
00000100: 8a5f fb33 6a36 1734 7b90 4534 3537 9133
00000110: 9dec cc33 4c1b 6a33 a8d1 9433 4fe9 2933
00000120: e103 5034 f187 9633 6cbd f733 0c71 5e33
00000130: 0e30 a433 6081 a433 01f3 3833 8517 8433
00000140: f0e5 d833 ca11 7533 f430 3533 7065 bd33
00000150: 030a df33 47b1 0d33 129f 8333 0926 8f33
00000160: dcba 0034 890d 1634 64c8 4334 5e29 9033
00000170: d589 cd33 f17b 7633 1c59 9033 7b2a 2933
00000180: 6e2a 5334 c042 9833 a3b0 fb33 f3d9 6033
00000190: b5e5 a433 7283 ab33 f961 3033 edf2 8433
000001a0: aacc d833 380d 7533 74af 3d33 88e0 bd33
000001b0: 8036 e233 01b5 1133 2185 7f33 e418 8733
000001c0: 5ee2 0034 d34f 1834 8627 4134 3e2d 9333
000001d0: 487c ce33 8bfa 6b33 f6c3 8633 78ee 2f33
000001e0: c61e 5734 b56c 9633 ecc3 ff33 bc1d 6033
000001f0: ba2e a633 49ab aa33 56e4 3233 c31c 8433
00000200: ea55 db33 8341 7033 446e 4333 474e bd33
00000210: 47d7 e633 0d5f 0e33 1b29 7a33 5e19 8633
00000220: 6240 0034 9d98 1934 fc5c 3f34 cbca 9433
00000230: 372c d033 929f 7133 be51 8833 ca2c 3133
00000240: 4a91 4333 cb00 8d32 0442 fa32 d27b b232
00000250: 46d2 d132 1107 d932 bdbc 9231 b15d 6732
00000260: 0e42 aa32 e61b 8632 262e 0732 b2f7 cf32
00000270: 3858 0733 10aa d231 ec65 4832 3c13 8f32
00000280: 1d95 ed32 a355 0c33 63ea 7733 228f a732
00000290: f1c9 0f33 6467 7832 9edc 8232 9263 6132
000002a0: ad19 cf33 6ce4 e032 7aa3 8833 2790 3c33
000002b0: e8a3 6433 cb8f 5f33 887c 8732 4fdc 0433
000002c0: 9e2a 4933 7be8 4a33 8ab2 dc32 2c41 3a33
000002d0: 3267 7633 77c4 dd32 f5d3 0733 3442 2b33
000002e0: 1ed7 6933 f9a9 ad33 6c1c f333 1128 3533
000002f0: 20e0 8633 f3aa 2d33 c811 0133 e4a8 f532
00000300: 425b d433 757a de32 6323 8833 1ca0 3f33
00000310: dc16 6333 5725 5533 4f4f 8832 a7c0 0833
00000320: 391a 4733 c0d5 4133 279b c632 4975 3a33
00000330: 5470 7033 b648 ce32 026e 0133 30c7 2533
00000340: 4548 6233 2381 b733 409d f433 04b6 3933
00000350: f5be 9a33 ac56 1e33 4d25 0d33 2b74 f432
00000360: c9b7 d833 ba3d e732 493b 8333 a85f 3833
00000370: 3f5f 5633 b0e7 5a33 5fbf 7f32 643f 0a33
00000380: d707 4233 8972 3933 8689 ce32 6e3a 3c33
00000390: 4345 7733 72ba c832 2124 0b33 7574 2a33
000003a0: 7ff6 6533 33a8 b133 19cd f133 95bb 3b33
000003b0: cf44 9533 f330 1433 f8e1 0f33 e042 0933
000003c0: 6bcb d633 18a6 e432 4dac 8233 c911 3333
000003d0: 404f 5133 4ae7 5433 9296 6732 8051 0e33
000003e0: df54 4b33 d7a8 4333 a09b d032 c4f6 3a33
000003f0: 0754 7433 ad15 c232 e0cf 0933 baf0 2b33
8.9004615e-08 2.5478624e-08 6.048496e-08 2.7010739e-08 5.774388e-08 4.1168143e-08 1.3459759e-08 1.9639216e-08
3.652216e-08 3.1697866e-08 1.6119081e-08 3.722665e-08 5.759658e-08 1.0525611e-08 2.30773e-08 1.87613e-08
4.7509296e-08 7.180119e-08 9.681049e-08 3.5461767e-08 5.4168268e-08 1.8928572e-08 3.2864904e-08 1.6298051e-08
1.8721136e-07 6.7892614e-08 1.1389691e-07 5.3703022e-08 7.743947e-08 7.585557e-08 3.920035e-08 5.8352352e-08
9.497805e-08 5.48597e-08 4.2240202e-08 8.6415824e-08 1.0842062e-07 3.643593e-08 5.3827183e-08 5.7370013e-08
1.09540586e-07 1.443163e-07 1.8591814e-07 6.7036545e-08 9.4751925e-08 5.328915e-08 7.00672e-08 4.1170257e-08
1.8932442e-07 7.088876e-08 1.1823229e-07 5.433712e-08 7.782807e-08 7.745225e-08 4.2928587e-08 6.181629e-08
9.562024e-08 5.5373167e-08 4.5219895e-08 8.397766e-08 1.05838e-07 3.407412e-08 6.049842e-08 6.023271e-08
1.1705477e-07 1.4082767e-07 1.8399616e-07 6.762131e-08 9.54253e-08 5.4507197e-08 6.929923e-08 3.956057e-08
1.937292e-07 7.009647e-08 1.15362894e-07 5.179122e-08 7.645586e-08 7.660378e-08 4.306185e-08 6.151007e-08
1.0100109e-07 5.7059687e-08 4.218687e-08 8.81945e-08 1.0386068e-07 3.2990354e-08 6.1290976e-08 6.665875e-08
1.1988908e-07 1.3974763e-07 1.8233692e-07 6.713047e-08 9.571128e-08 5.7389062e-08 6.7217314e-08 3.9387015e-08
1.9666342e-07 7.090193e-08 1.1720228e-07 5.2352288e-08 7.6786286e-08 7.986718e-08 4.10673e-08 6.190917e-08
1.0095512e-07 5.705553e-08 4.4164565e-08 8.84184e-08 1.05338586e-07 3.3925065e-08 5.9492894e-08 6.290955e-08
1.2003281e-07 1.4185143e-07 1.7988904e-07 6.8534504e-08 9.615229e-08 5.494307e-08 6.275506e-08 4.096225e-08
2.003463e-07 7.004693e-08 1.1910001e-07 5.2181107e-08 7.738477e-08 7.9473985e-08 4.1651525e-08 6.151961e-08
1.021361e-07 5.5938937e-08 4.550226e-08 8.815237e-08 1.0749368e-07 3.31484e-08 5.8245046e-08 6.2444755e-08
1.1944351e-07 1.4304756e-07 1.7822089e-07 6.928675e-08 9.6937974e-08 5.6257313e-08 6.347862e-08 4.125176e-08
4.5534115e-08 1.6414921e-08 2.913385e-08 2.0778234e-08 2.4426424e-08 2.5265338e-08 4.2706163e-09 1.3467273e-08
1.9820643e-08 1.561234e-08 7.868527e-09 2.421061e-08 3.151237e-08 6.1311383e-09 1.16647065e-08 1.6656138e-08
2.765824e-08 3.2674176e-08 5.7722342e-08 1.9506448e-08 3.3478447e-08 1.4459008e-08 1.5234317e-08 1.3119363e-08
9.643859e-08 2.6180906e-08 6.36273e-08 4.3903267e-08 5.323446e-08 5.2052012e-08 1.5772699e-08 3.0934014e-08
4.683772e-08 4.724323e-08 2.5692561e-08 4.3365773e-08 5.7370194e-08 2.5817128e-08 3.162491e-08 3.987425e-08
5.4445188e-08 8.086858e-08 1.1320739e-07 4.2178787e-08 6.280629e-08 4.043518e-08 3.0051325e-08 2.8598556e-08
9.888619e-08 2.5899888e-08 6.33943e-08 4.461627e-08 5.2873347e-08 4.9626887e-08 1.586855e-08 3.1840184e-08
4.6357147e-08 4.513072e-08 2.3120789e-08 4.341317e-08 5.5981516e-08 2.4014621e-08 3.0135205e-08 3.8598216e-08
5.2685454e-08 8.5450914e-08 1.1390739e-07 4.323921e-08 7.205919e-08 3.686607e-08 3.2863046e-08 2.8458166e-08
1.0091714e-07 2.692001e-08 6.110947e-08 4.2927837e-08 4.9912384e-08 5.09678e-08 1.4886466e-08 3.2188282e-08
4.5176275e-08 4.3177838e-08 2.4044095e-08 4.3825302e-08 5.7572162e-08 2.336785e-08 3.239632e-08 3.9687126e-08
5.3542404e-08 8.2728e-08 1.1259744e-07 4.3709935e-08 6.9508694e-08 3.4503454e-08 3.35003e-08 3.195862e-08
1.0002153e-07 2.6618224e-08 6.084938e-08 4.169286e-08 4.8733682e-08 4.9570453e-08 1.3480205e-08 3.3136075e-08
4.734181e-08 4.5555534e-08 2.4285157e-08 4.353093e-08 5.68871e-08 2.259443e-08 3.208686e-08 4.003298e-08

exp_avg f4 [128]
00000000: 8417 f238 14fc 5c36 f892 b5b6 5d91 db37
00000010: 202f d6b5 c3e2 b437 3697 f238 ab78 5e39
00000020: 2324 b137 fede 5438 708f d137 9ac2 4c38
00000030: 0400 0000 2c30 a237 b0d9 f538 0ce4 feb7
00000040: 95d8 7c38 5632 8538 1f69 36b7 656b 1d39
00000050: 563b d4b8 9856 1bb6 d1a4 ae37 b065 e737
00000060: dbe1 01b8 fcab ecb6 7808 63b8 0400 0000
00000070: 75d7 7d38 bd9e 67b7 5879 a938 0cd2 09b8
00000080: 0000 0000 f92a 1a38 c99d 6e37 353d a238
00000090: 0400 0000 c058 c235 d48b b638 7cb2 15b8
000000a0: 1681 0eb8 004d 0035 5a0c ab38 12f6 c337
000000b0: b66a 0439 0000 0000 0400 0000 faf9 8bb8
000000c0: 548d a238 e043 03b8 0000 0000 f5be 88b7
000000d0: 18c8 5137 bac5 4ab8 7a5d 2eb8 d25e 3738
000000e0: 7c60 08b8 aaec d0b8 0000 0000 74bc 2938
000000f0: 1c11 7837 1513 ddb7 f5a1 81b8 2b3f d638
00000100: 5ea7 2738 0c1e 2138 0400 0000 0400 0000
00000110: 81ac 8f38 6e9a d638 fb8a 0c39 0400 0000
00000120: 981c b138 b03e 5f36 a4ee 2138 0000 0000
00000130: a060 bc38 a2d4 8838 cd5e 1eb9 b27c bdb7
00000140: 11b0 e338 7cf4 82b8 a0d1 20b9 97b2 9238
00000150: 31e8 11b9 0000 0000 a1fc 1db8 37e3 2339
00000160: fcf5 c738 406b f1b8 749d 1039 7e47 7a38
00000170: c744 d738 820b bbb8 9881 0538 1fc7 0438
00000180: cb24 6538 6bbe 1038 3e1d b438 0e9b f437
00000190: f497 e4b7 8aca 9a38 3362 bcb7 0000 0000
000001a0: 96ff c938 0c40 1539 3aaa ac38 ba29 53b8
000001b0: acf1 31b9 eae7 8a38 4198 4038 1af5 fe38
000001c0: f401 9b38 183e 2839 0c25 bb38 f637 0338
000001d0: 0f58 81b8 3178 0eb8 bef0 99b8 0400 0000
000001e0: acbe 2938 5878 0038 91c3 a7b8 17bf e837
000001f0: a66e 0539 0000 0000 a9c8 ecb8 7cd6 7eb8
0.00011543839 3.2929283e-06 -5.4113298e-06 2.6174524e-05 -1.5957958e-06 2.1563266e-05 0.000115676245 0.00021216522
2.1116872e-05 5.0752416e-05 2.4981535e-05 4.8818627e-05 6e-45 1.9334337e-05 0.00011723058 -3.0385352e-05
6.028319e-05 6.35131e-05 -1.0872521e-05 0.00015012694 -0.0001012 -2.3147204e-06 2.0819165e-05 2.7584698e-05
-3.096634e-05 -7.0533697e-06 -5.4128905e-05 6e-45 6.052056e-05 -1.3805632e-05 8.08115e-05 -3.2858967e-05
0.0 3.6756483e-05 1.4222643e-05 7.736163e-05 6e-45 1.4479956e-06 8.704481e-05 -3.5690595e-05
-3.397566e-05 4.7795766e-07 8.156216e-05 2.3360397e-05 0.00012628254 0.0 6e-45 -6.674598e-05
7.7510864e-05 -3.1296047e-05 0.0 -1.6301385e-05 1.2503959e-05 -4.83447e-05 -4.157189e-05 4.371891e-05
-3.2514785e-05 -9.962295e-05 0.0 4.046825e-05 1.47859355e-05 -2.6354139e-05 -6.181366e-05 0.00010216081
3.9971776e-05 3.8413375e-05 6e-45 6e-45 6.850903e-05 0.0001023308 0.00013403215 6e-45
8.445344e-05 3.3266078e-06 3.8607643e-05 0.0 8.9825364e-05 6.524591e-05 -0.0001510337 -2.2588622e-05
0.000108569984 -6.244422e-05 -0.0001533688 6.9950875e-05 -0.00013914776 0.0 -3.7666996e-05 0.00015629535
9.5348776e-05 -0.000115117524 0.00013791566 5.9671227e-05 0.0001026481 -8.918998e-05 3.1830365e-05 3.16567e-05
5.463212e-05 3.4509616e-05 8.5885156e-05 2.915927e-05 -2.7250477e-05 7.381018e-05 -2.2457074e-05 0.0
9.6320335e-05 0.00014233607 8.233306e-05 -5.034518e-05 -0.00016970065 6.62355e-05 4.5918165e-05 0.000121573175
7.39134e-05 0.0001604486 8.9237554e-05 3.128495e-05 -6.1676015e-05 -3.3967375e-05 -7.34045e-05 6e-45
4.0470317e-05 3.0629657e-05 -7.9996076e-05 2.7745538e-05 0.00012725088 0.0 -0.00011290733 -6.0758073e-05
