models/preliminary_results_models/RaceMultiOutputModel5v3/model.pt (torch, 165441 bytes, 12 tensors)

fc1.weight f4 [24, 24]
-0.20582439 -0.21022908 0.014237011 -0.20657368 0.08913793 -0.24061348 -0.17415579 -0.07600859
-0.2414486 -0.20812249 0.13275056 0.08407699 0.13902128 -0.07431135 -0.19714047 -0.080268174
-0.010857445 -0.09935125 0.1411658 0.09911312 0.07103985 -0.002063226 -0.1165361 0.015256534
-0.07226688 0.04857703 0.0052178493 -0.07524517 0.014642262 0.08635266 -0.11131178 0.030109892
-0.047635317 0.27665257 0.23330486 -0.02803016 0.21732423 0.15514737 0.0039571244 0.05573594
0.07346721 0.017550543 0.16094998 -0.035375204 -0.12644082 0.06426868 -0.09026675 0.0002566892
-0.04912714 -0.019524489 0.02627592 0.20834273 0.19017376 -0.046731584 -0.08565395 0.13065459
-0.022598147 0.12596133 -0.14725325 -0.12388271 0.09043493 -0.10147641 -0.062747955 -0.118932106
-0.0700154 0.008896762 0.1776015 -0.035860326 0.15079582 0.107324325 -0.0678077 0.17398164
0.01994147 0.01651534 0.06400375 -0.20599855 -0.055576973 0.1442094 -0.060759205 0.1576816
-0.013816588 -0.11797839 -0.015548309 -0.22386786 0.15245688 -0.18500277 -0.2384996 -0.08678654
-0.03725576 -0.040895686 0.0848559 -0.08878566 -0.12130561 0.033194877 -0.21217354 0.022990813
-0.22389199 -0.19850361 0.08610492 -0.12783085 -0.20838998 -0.09597417 0.07033555 -0.0971951
-0.13566776 -0.18187582 -0.14116412 -0.14082235 0.098387405 0.025276108 -0.07807211 0.06669367
-0.063597694 0.05832855 -0.21609989 -0.18627219 0.021240816 -0.18290511 0.08909719 0.13309883
0.048194714 -0.1006344 -0.2536921 -0.18543726 -0.19344494 -0.22522745 0.015385703 -0.113760784
-0.18979265 -0.1409577 0.08022874 0.059943907 -0.11577041 -0.0075860587 -0.13475378 0.07371199
0.07159542 -0.003945864 -0.1401475 -0.083022885 -0.10274006 -0.044596907 -0.063337915 -0.12889408
0.079314634 0.093506835 -0.14268245 -0.18004073 -0.027519941 -0.11864419 -0.05372557 0.11356948
-0.17895614 0.045960963 0.11331327 0.0964165 0.17039734 -0.11482782 0.15297453 0.11125906
-0.17080644 0.02009965 0.016871652 0.062344193 0.022443237 0.109272234 -0.049809266 0.18274242
-0.0076296837 0.08211382 -0.19776607 -0.06537272 -0.21278535 -0.05690199 -0.051206015 0.0077808057
-0.14334571 0.08596317 -0.1541911 0.02277311 -0.008560723 -0.037396852 0.10142365 0.06394902
-0.22847688 0.07275618 -0.06399836 -0.08350967 -0.117544994 -0.07489909 0.030925289 -0.22814856
-0.057439495 0.028468074 -0.018546501 0.13488968 -0.1605288 0.16454823 -0.22449087 0.11216182
-0.060566682 0.024404062 -0.08160025 -0.10561866 0.06533898 -0.21655767 0.11546995 0.04405545
-0.04413422 -0.15499766 -0.174527 0.101545155 -0.14612158 -0.1700085 -0.008741728 -0.12813981
-0.18902405 -0.21763933 0.0024182 -0.19250178 -0.012337574 0.0030015642 0.04288454 0.02704069
-0.22053641 0.13278608 -0.12665796 -0.07827972 -0.23716642 -0.17242219 0.16332957 -0.088640906
0.12063509 -0.060825463 -0.007956453 0.02602804 0.0030702164 -0.114377774 0.05863809 -0.11213265
-0.22031038 -0.17292209 0.04491781 -0.26251492 0.012082181 0.020454803 -0.077621855 -0.123454474
0.11414646 -0.26398528 -0.017882692 0.060105644 0.009021149 -0.20350677 0.0690525 0.06826312
00000000: a1c3 52be 4b46 57be 5a42 693c 0d88 53be
00000010: f28d b63d 6163 76be e555 32be 64aa 9bbd
00000020: 4d3e 77be 101e 55be c3ef 073e 8f30 ac3d
00000030: 985b 0e3e 8d30 98bd 31df 49be a463 a4bd
00000040: 6de3 31bc ab78 cbbd c48d 103e d2fb ca3d
00000050: 577d 913d 3037 07bb 7baa eebd 8bf6 793c
00000060: a800 94bd b5f8 463d 7efa aa3b 241a 9abd
00000070: 19e6 6f3c aad9 b03d 6ef7 e3bd 05a9 f63c
00000080: 401d 43bd 68a5 8d3e 78e7 6e3e 829f e5bc
00000090: 3e8a 5e3e f4de 1e3e c4aa 813b 5e4b 643d
000000a0: fa75 963d 28c6 8f3c 12d0 243e 97e5 10bd
000000b0: b479 01be 4c9f 833d c6dd b8bd 3e94 8639
000000c0: 8a39 49bd d2f1 9fbc 9940 d73c cc57 553e
000000d0: e9bc 423e 9e69 3fbd 576b afbd 51ca 053e
000000e0: c01f b9bc 02fc 003e 8ec9 16be 38b6 fdbd
000000f0: f335 b93d ddd2 cfbd 0082 80bd ad92 f3bd
00000100: 3c64 8fbd b9c3 113c 2bdd 353e 47e2 12bd
00000110: 386a 1a3e dbcc db3d c3de 8abd 3e28 323e
00000120: 4b5c a33c 2e4b 873c 6614 833d 49f1 52be
00000130: aea4 63bd a1ab 133e a5de 78bd 4977 213e
00000140: f85e 62bc a79e f1bd 56be 7ebc 9e3d 65be
00000150: a81d 1c3e 5e71 3dbe 3d39 74be 24bd b1bd
00000160: 7f99 18bd 3c82 27bd eec8 ad3d 42d5 b5bd
00000170: 136f f8bd 5af7 073d 0544 59be 3b57 bc3c
00000180: f143 65be 8844 4bbe c757 b03d 17e6 02be
00000190: 2f64 55be 1b8e c4bd 160c 903d 390e c7bd
000001a0: 7dec 0abe a83d 3abe 548d 10be bc33 10be
000001b0: 567f c93d d70f cf3c 45e4 9fbd b196 883d
000001c0: 823f 82bd ebe9 6e3d 4a49 5dbe 23be 3ebe
000001d0: 3801 ae3c 7a4b 3bbe 9678 b63d 0f4b 083e
000001e0: d267 453d 6919 cebd eee3 81be 44e3 3dbe
000001f0: 6e16 46be 06a2 66be 5114 7c3c 6afb e8bd
00000200: 0159 42be 3757 10be f74e a43d be87 753d
00000210: 0919 edbd 7994 f8bb e5fc 09be 50f6 963d
00000220: 9fa0 923d 4e4c 81bb d482 0fbe e707 aabd
00000230: 6169 d2bd 3fab 36bd 4fb7 81bd cffc 03be
00000240: b66f a23d 8380 bf3d 591b 12be 995c 38be
00000250: 8071 e1bc bafb f2bd 580f 5cbd 1e97 e83d
00000260: 4740 37be 9041 3c3d ca10 e83d 0476 c53d
00000270: a47c 2e3e d92a ebbd 5ba5 1c3e cadb e33d
00000280: e2e7 2ebe 05a8 a43c 6b36 8a3c a05c 7f3d
00000290: e1da b73c 1fca df3d cd04 4cbd d420 3b3e
000002a0: 6d02 fabb 4a2b a83d 3083 4abe 22e2 85bd
000002b0: 67e4 59be 1012 69bd 66bd 51bd 21f6 fe3b
000002c0: 38c9 12be 750d b03d 46e4 1dbe ac8e ba3c
000002d0: 4642 0cbc 712d 19bd 34b7 cf3d b4f7 823d
000002e0: d8f5 69be 3101 953d 9211 83bd 1e07 abbd
000002f0: 6ebb f0bd b264 99bd 0857 fd3c c79f 69be
00000300: ad45 6bbd e135 e93c d5ee 97bc 8520 0a3e
00000310: a961 24be 557f 283e efe0 65be 19b5 e53d
00000320: c514 78bd 07eb c73c 081e a7bd 994e d8bd
00000330: 71d0 853d 4bc1 5dbe 827b ec3d 7d73 343d
00000340: 15c6 34bd b5b7 1ebe 35b7 32be e8f6 cf3d
00000350: e5a0 15be b516 2ebe 7739 0fbc 1537 03be
00000360: 858f 41be d8dc 5ebe aa7a 1e3b 301f 45be
00000370: 8923 4abc e4b5 443b b3a7 2f3d 7084 dd3c
00000380: 4cd4 61be 13f9 073e a0b2 01be 1e51 a0bd
00000390: c1db 72be 718f 30be de3f 273e 5d89 b5bd
000003a0: 880f f73d 1f24 79bd c85b 02bc c238 d53c
000003b0: af35 493b e53e eabd 7e2e 703d cea5 e5bd
000003c0: 0b99 61be 7d12 31be bdfb 373d 5b68 86be
000003d0: 57f4 453c d590 a73c 35f8 9ebd b3d5 fcbd
000003e0: 9fc5 e93d 1429 87be b97e 92bc 5631 763d
000003f0: 71cd 133c 1464 50be 666b 8d3d 89cd 8b3d

fc1.bias f4 [24]
0.03876746 -0.15387788 -0.13950919 -0.17712577 -0.1448871 -0.20068753 -0.08099657 -0.08650083
0.1446963 0.055669516 0.057050742 -0.006768669 0.14334527 -0.16848747 -0.12859689 0.14958906
-0.04666478 -0.21546897 0.07938718 0.05156291 -0.07696923 0.04254052 0.1564996 -0.13402934
00000000: a1ca 1e3d 2a92 1dbe 7fdb 0ebe 7560 35be
00000010: 495d 14be 0881 4dbe 88e1 a5bd 5927 b1bd
00000020: 442b 143e b805 643d 0aae 693d b6cb ddbb
00000030: 1ac9 123e fb87 2cbe e7ae 03be e02d 193e
00000040: 9123 3fbd e6a3 5cbe bf95 a23d a133 533d
00000050: 0ba2 9dbd f83e 2e3d 6e41 203e fd3e 09be

fc2.weight f4 [24, 24]
-0.15333009 0.048378758 -0.10290193 0.16251273 -0.064445704 0.057170127 0.20601168 -0.10148942
-0.19747083 -0.17490725 -0.054148216 0.21222414 0.0021366922 -0.012182675 0.113421075 -0.17079379
0.13186607 0.12826297 0.034704305 0.15030047 0.14272371 -0.24913839 0.21389401 -0.08903957
0.05036353 -0.17819883 -0.052117053 0.08145443 -0.21282625 -0.112312265 0.13640948 -0.16658011
-0.061692763 -0.07589078 -0.11864669 0.21478115 0.030322412 0.10885459 -0.062007993 0.01036199
0.136141 0.11171381 0.22069634 -0.07289491 0.011887476 -0.10636675 0.12035202 -0.14017463
-0.029646156 -0.056789577 0.24054258 -0.13957821 0.1160687 -0.071628064 -0.15383406 -0.084170625
-0.1626243 0.114010125 -0.030811293 0.18549843 0.07775111 0.093334 -0.021878565 0.005911571
0.03186951 0.16196427 0.08292494 -0.072348125 0.0836402 -0.021491991 -0.05702756 0.2460348
-0.012813621 0.14094593 0.20765781 0.09177991 0.044053204 -0.20641792 -0.12746257 -0.20066263
-0.17488806 -0.2058696 -0.23774253 0.051952504 -0.042467803 0.11852602 0.15849331 0.12833025
-0.07293843 -0.06635292 -0.121925585 0.054839514 -0.15262039 -0.21697141 -0.15344311 0.03900607
-0.047216725 -0.094236724 -0.08304278 -0.014937677 -0.1442443 -0.085852355 0.15200871 -0.17813982
0.0341229 -0.022289889 0.020400086 0.038917165 -0.11368087 0.119898446 -0.021743417 -0.13842648
0.1879739 0.11071265 -0.049436074 -0.18982202 0.15908314 -0.0069271214 -0.004854695 0.1510897
0.06472268 0.0047721555 -0.05245754 -0.0019154403 -0.105530694 -0.06567098 0.044027843 -0.092054494
0.13903446 -0.06968049 0.008932679 0.10439402 -0.015288039 -0.08029865 0.03907344 -0.22876535
-0.07598359 -0.060630575 0.1827039 0.028635737 -0.121393 0.12733991 0.0067645004 -0.031007024
-0.21447219 0.06515368 0.08774988 -0.11650116 0.14479998 0.011906563 0.07294891 -0.2173351
-0.051691726 -0.16399704 -0.11722886 -0.17780367 -0.04269167 -0.14205685 0.11117692 -0.055444565
-0.08933766 0.08763634 -0.03379594 -0.043301918 0.010522906 -0.08335555 -0.120104246 0.058346994
-0.079149604 -0.21065876 0.08578904 -0.054799594 -0.114437476 -0.07695444 -0.19879246 -0.1489706
-0.13543987 0.14228143 0.042152267 -0.06656561 -0.052791152 -0.07704244 -0.14461511 0.0002461151
-0.05852663 0.004819307 -0.13091955 -0.020639101 -0.120439045 -0.20894906 0.15747689 0.0344453
-0.06685987 0.07663099 0.12417485 0.04848289 0.12713629 0.11088588 0.06270698 -0.08024597
-0.02800872 -0.20060268 -0.042638082 -0.11540541 -0.017491113 -0.06513447 0.147474 -0.10290518
0.07836349 0.0046880506 0.14813489 -0.13843568 -0.043357078 0.1754319 0.22377339 0.013088424
-0.08658812 0.20147705 0.15215985 -0.079784 -0.07335967 -0.2001943 0.061042413 0.15914744
-0.08124751 0.13831316 -0.25287825 0.066542126 -0.12608188 -0.12647995 -0.11124919 -0.16348554
0.1416246 -0.19784838 0.05170331 0.05159426 0.17218956 -0.119230434 -0.12737113 -0.07939517
-0.13365784 0.055902444 0.010926853 -0.13916801 -0.0032157786 0.02049396 0.20840947 -0.17181407
0.16855709 -0.083713844 0.109268345 -0.1963152 0.21333735 0.12929137 -0.06675154 -0.023315987
00000000: 9002 1dbe ce28 463d 3fbe d2bd bd69 263e
00000010: 1cfc 83bd 392b 6a3d baf4 523e afd9 cfbd
00000020: cb35 4abe e31a 33be 85ca 5dbd 4951 593e
00000030: bf07 0c3b d899 47bc 4f49 e83d 91e4 2ebe
00000040: e607 073e 5e57 033e 1a26 0e3d 5ee8 193e
00000050: 2a26 123e 221e 7fbe 0807 5b3e 615a b6bd
00000060: fd49 4e3d c179 36be b178 55bd 95d1 a63d
00000070: 20ef 59be f903 e6bd edae 0b3e fa93 2abe
00000080: 8db1 7cbd a06c 9bbd 09fd f2bd 97ef 5b3e
00000090: b566 f83c 28ef de3d 18fc 7dbd 56c5 293c
000000a0: 8c68 0b3e 36ca e43d 39fe 613e ed49 95bd
000000b0: b0c3 423c d0d6 d9bd 1f7b f63d f089 0fbe
000000c0: 7fdc f2bc 309c 68bd cb50 763e 97ed 0ebe
000000d0: 6db5 ed3d bcb1 92bd ad86 1dbe a661 acbd
000000e0: fc86 26be 247e e93d f767 fcbc 4df3 3d3e
000000f0: f93b 9f3d e525 bf3d ad3a b3bc dab5 c13b
00000100: 9a89 023d f6d9 253e 8dd4 a93d 412b 94bd
00000110: 8e4b ab3d f90f b0bc bb95 69bd 8cf0 7b3e
00000120: 39f0 51bc 2154 103e 40a4 543e 1bf7 bb3d
00000130: 2271 343d 385f 53be 8c85 02be 817a 4dbe
00000140: db15 33be 7bcf 52be c772 73be 26cc 543d
00000150: b8f2 2dbd c5bd f23d 124c 223e 0169 033e
00000160: be60 95bd 0ae4 87bd 1fb4 f9bd 669f 603d
00000170: 8548 1cbe c12d 5ebe 3120 1dbe d4c4 1f3d
00000180: 5366 41bd 2fff c0bd 5512 aabd 29bd 74bc
00000190: c7b4 13be 5cd3 afbd 2ca8 1b3e 496a 36be
000001a0: 74c4 0b3d 4999 b6bc 151e a73c 9b67 1f3d
000001b0: 84d1 e8bd 518d f53d 401f b2bc acbf 0dbe
000001c0: 3b7c 403e 50bd e23d 7b7d 4abd b460 42be
000001d0: b1e6 223e e8fc e2bb 2214 9fbb 42b7 1a3e
000001e0: 538d 843d be5f 9c3b b8dd 56bd 830f fbba
000001f0: 7a20 d8bd 827e 86bd 8a56 343d 1187 bcbd
00000200: 0d5f 0e3e a5b4 8ebd 5f5a 123c 88cc d53d
00000210: af7a 7abc 9e73 a4bd 790b 203d 7741 6abe
00000220: 499d 9bbd c457 78bd bb16 3b3e 7e95 ea3c
00000230: e59c f8bd 6565 023e bea8 dd3b 7102 febc
00000240: 999e 5bbe 4b6f 853d 36b6 b33d 2998 eebd
00000250: 7246 143e bf13 433c 3d66 953d 188d 5ebe
00000260: b4ba 53bd d7ee 27be af15 f0bd 2a12 36be
00000270: 76dd 2ebd 5a77 11be bab0 e33d d719 63bd
00000280: aaf6 b6bd ae7a b33d 9d6d 0abd 5a5d 31bd
00000290: 4468 2c3c 51b6 aabd 37f9 f5bd 42fd 6e3d
000002a0: 3019 a2bd eeb6 57be 2ab2 af3d 8a75 60bd
000002b0: 325e eabd 4a9a 9dbd 4090 4bbe c08b 18be
000002c0: c0b0 0abe 39b2 113e dba7 2c3d 8d53 88bd
000002d0: 893b 58bd 6dc8 9dbd fc15 14be 0209 8139
000002e0: 9fb9 6fbd 47eb 9d3b c60f 06be 5513 a9bc
000002f0: bfa8 f6bd bef6 55be 9f41 213e 8416 0d3d
00000300: d4ed 88bd b5f0 9c3d 624f fe3d ff95 463d
00000310: 0430 023e 2318 e33d 846c 803d 0058 a4bd
00000320: 8b72 e5bc ca6a 4dbe 45a5 2ebd ac59 ecbd
00000330: 8649 8fbc 3965 85bd 6d03 173e f3bf d2bd
00000340: 0a7d a03d 389e 993b acb0 173e 15c2 0dbe
00000350: 3197 31bd 6ca4 333e da24 653e d470 563c
00000360: 1d55 b1bd 0050 4e3e cbcf 1b3e cb65 a3bd
00000370: 983d 96bd bcff 4cbe 9c07 7a3d 8cf7 223e
00000380: 1865 a6bd f7a1 0d3e 4279 81be 3d47 883d
00000390: 9c1b 01be f683 01be 9ed6 e3bd c168 27be
000003a0: 0a06 113e c498 4abe dac6 533d 8154 533d
000003b0: 7652 303e 162f f4bd 946d 02be ef99 a2bd
000003c0: 9add 08be f6f9 643d 8b06 333c 0f82 0ebe
000003d0: d0bf 52bb f3e2 a73c 4b69 553e 07f0 2fbe
000003e0: 3b9a 2c3e 2a72 abbd 15c8 df3d da06 49be
000003f0: 1b75 5a3e f564 043e 08b5 88bd 2b01 bfbc

fc2.bias f4 [24]
-0.11054279 0.060709275 0.21177123 0.23304637 0.12823932 -0.060337663 0.18964566 -0.12868138
0.16064875 -0.15287319 -0.1537942 -0.09527206 -0.049718082 0.1768277 -0.11186843 -0.14156438
0.18725562 0.02555214 -0.17639017 0.14393628 -0.09519404 0.15693574 0.14604297 0.0293687
00000000: 4264 e2bd 4aaa 783d 8fda 583e b5a3 6e3e
00000010: 2b51 033e a024 77bd 7932 423e 0dc5 03be
00000020: 1b81 243e ca8a 1cbe 3a7c 1dbe ff1d c3bd
00000030: 30a5 4bbd 5212 353e 471b e5bd 41f6 10be
00000040: f0bf 3f3e b952 d13c a09f 34be 0864 133e
00000050: 18f5 c2bd c3b3 203e 4a8c 153e a196 f03c

exp_avg f4 [24, 24]
-0.014034651 -0.06661071 -0.049989596 -0.05333396 0.021108918 -0.028786238 -0.056659766 -0.018646609
-0.05175281 -0.118124194 -0.013124548 -0.044749036 -0.17369658 -0.18816996 -0.19716738 -0.1857914
-0.15094563 -0.16020781 -0.18057567 -0.3321067 -0.30252916 -0.29214 -0.22950509 -0.22398256
0.020995704 0.025873538 0.031297233 -0.07416347 0.023200676 0.0064305663 -0.019727971 0.1283981
0.0056249993 -0.07573823 0.04208473 0.02699807 0.07029558 0.109153785 0.07076642 0.053097885
0.07816323 0.035951473 -0.050893128 0.037671402 -0.078878745 -0.07187475 0.025423331 0.04011786
0.018427791 -0.07317581 0.045292456 0.07734733 0.21411774 0.22664951 0.15789749 0.24099357
0.11697301 0.12806311 0.18750203 0.19345406 0.28791308 0.3266255 0.17538512 0.14608938
0.33110696 0.3383881 0.08828515 0.026651122 0.37328196 0.3287288 0.38446507 0.4124345
-0.08751801 -0.024377875 -0.024427943 -0.08031998 -0.04390807 -0.029725889 -0.16801785 -0.1311087
-0.13892296 -0.24364503 0.058853325 -0.0009462163 -0.18846251 -0.19917694 -0.100346446 -0.08478868
-0.090920314 -0.07783647 -0.020869546 -0.088324845 -0.20247865 -0.17696214 -0.15261334 -0.20062393
0.0058843843 0.08404057 -0.05472289 -0.15036896 -0.10117898 -0.03797807 -0.14027923 -0.026274648
-0.11622023 -0.15080997 -0.12675315 -0.18712606 -0.11924806 -0.06765624 -0.0049440637 -0.073822156
-0.12178729 -0.24704774 -0.24186644 -0.31051257 -0.24653488 -0.18937446 -0.14352341 -0.20636186
0.020541934 0.08651236 -0.016937986 -0.09604262 -0.21703854 -0.13598001 -0.14182551 -0.16482157
-0.14749585 -0.20000115 -0.1904921 -0.25297317 -0.30115324 -0.44050562 -0.29052797 -0.27182925
-0.28907585 -0.40488344 -0.87366724 -1.1185379 -0.74867 -0.6404727 -0.5727611 -0.60949785
0.07451692 0.087099046 0.15299042 0.20597994 0.028279329 0.018957976 0.10064747 0.16174656
0.044197917 0.045741644 0.105988294 0.116476096 0.051427633 0.044307277 0.010209441 0.09300319
0.12077416 0.20668721 0.0749481 0.30617136 0.28305846 0.32510805 0.24456221 0.24502283
0.0150197 0.15474385 -0.07310587 -0.040055785 -0.12721877 -0.056933694 -0.025530953 0.032304943
-0.16159993 -0.23969059 -0.13233353 -0.22216384 -0.1761697 -0.21831165 -0.36603683 -0.3925944
-0.2735735 -0.22010578 -0.12221576 -0.17783429 -0.39291444 -0.42357665 -0.33684555 -0.34877956
0.118346915 0.12221126 0.032052845 -0.060929194 -0.21210976 -0.18839748 -0.12040576 -0.082429275
-0.08641905 -0.13985358 -0.25488985 -0.25055605 -0.22836642 -0.2666017 -0.08013785 -0.07606736
-0.18804756 -0.34628606 -0.3488192 -0.27715504 -0.16298023 -0.15204354 -0.25097305 -0.30462605
0.051837984 0.016729468 -0.10138436 -0.056343492 -0.0797642 0.04384641 -0.10475345 -0.14830676
-0.09581998 -0.22863275 -0.22615771 -0.07607497 -0.2954259 -0.3813793 -0.4262542 -0.43515956
-0.38135815 -0.31656086 -0.3861596 -0.7825369 -0.6716253 -0.5426004 -0.46835122 -0.48483974
0.03675732 0.13578324 -0.06287128 0.018834243 -0.1474604 -0.08199295 -0.043002084 -0.18029773
-0.0662676 -0.025196906 -0.17456499 -0.09477503 -0.22135484 -0.2986414 -0.18082695 -0.15060832
00000000: 98f1 65bc 326b 88bd e4c1 4cbd b674 5abd
00000010: 9cec ac3c 1ed1 ebbc 1214 68bd c6c0 98bc
00000020: c1fa 53bd 19eb f1bd 5808 57bc c44a 37bd
00000030: 84dd 31be a0af 40be 3fe6 49be 1a40 3ebe
00000040: 7e91 1abe 840d 24be d4e8 38be e409 aabe
00000050: 1ae5 9abe 6093 95be 6203 6bbe af5b 65be
00000060: 2fff ab3c bef4 d33c 8731 003d 04e3 97bd
00000070: 580f be3c 80b7 d23b 8e9c a1bc cb7a 033e
00000080: ea51 b83b a51c 9bbd 0a61 2c3d 0e2b dd3c
00000090: 21f7 8f3d 058c df3d fced 903d 2b7d 593d
000000a0: 0b14 a03d da41 133d 5075 50bd 544d 1a3d
000000b0: 2e8b a1bd 1233 93bd 9744 d03c a052 243d
000000c0: e1f5 963c 33dd 95bd 9584 393d 4768 9e3d
000000d0: ae41 5b3e cf16 683e e1af 213e 05c7 763e
000000e0: 8c8f ef3d fa22 033e 8800 403e d218 463e
000000f0: 5869 933e 753b a73e 2898 333e 7498 153e
00000100: da86 a93e 3441 ad3e d8ce b43d 7453 da3c
00000110: d01e bf3e 244f a83e 9bd8 c43e 9d2a d33e
00000120: a43c b3bd 1cb4 c7bc 1c1d c8bc cd7e a4bd
00000130: f3d8 33bd b583 f3bc df0c 2cbe 5c41 06be
00000140: d241 0ebe 157e 79be 2f10 713d 800b 78ba
00000150: 51fc 40be 0af5 4bbe 7082 cdbd b0a5 adbd
00000160: 6e34 babd ba68 9fbd 9cf6 aabc a8e3 b4bd
00000170: 9056 4fbe 9035 35be ac46 1cbe 5c70 4dbe
00000180: cbd1 c03b 761d ac3d 1c25 60bd 52fa 19be
00000190: ed36 cfbd e58e 1bbd 5ca5 0fbe ee3d d7bc
000001a0: df04 eebd ee6d 1abe 94cb 01be f99d 3fbe
000001b0: 5438 f4bd 5b8f 8abd d001 a2bb 1230 97bd
000001c0: 9d6b f9bd 15fa 7cbe d6ab 77be 81fb 9ebe
000001d0: a473 7cbe 61eb 41be cdf7 12be 8650 53be
000001e0: 8f47 a83c 642d b13d 88c1 8abc feb1 c4bd
000001f0: 5a3f 5ebe 583e 0bbe b53a 11be fcc6 28be
00000200: 2709 17be 1acd 4cbe 5c10 43be b385 81be
00000210: c230 9abe f489 e1be 15c0 94be 342d 8bbe
00000220: c001 94be e24c cfbe a8a8 5fbf 402c 8fbf
00000230: d6a8 3fbf 05f6 23bf 79a0 12bf 0d08 1cbf
00000240: 549c 983d fc60 b23d 85a9 1c3e 68ec 523e
00000250: 0daa e73c c24d 9b3c 4320 ce3d e4a0 253e
00000260: e008 353d 975b 3b3d 6410 d93d 058b ee3d
00000270: c8a5 523d 8c7b 353d 8045 273c 7578 be3d
00000280: 7158 f73d d0a5 533e 647e 993d 7ec2 9c3e
00000290: 0aed 903e 9074 a63e 846e 7a3e 44e7 7a3e
000002a0: 3015 763c 2c75 1e3e 88b8 95bd 8911 24bd
000002b0: a345 02be 4e33 69bd 4a26 d1bc 3052 043d
000002c0: 747a 25be 7371 75be 7182 07be eb7e 63be
000002d0: d465 34be 178d 5fbe 2e69 bbbe 2202 c9be
000002e0: d311 8cbe 6963 61be 424c fabd 311a 36be
000002f0: 152c c9be 0adf d8be 0577 acbe 3c93 b2be
00000300: de5f f23d e649 fa3d d849 033d e490 79bd
00000310: 4d33 59be 45eb 40be 4c97 f6bd aed0 a8bd
00000320: 79fc b0bd c735 0fbe ec80 82be e248 80be
00000330: e3d8 69be 0580 88be 501f a4bd 34c9 9bbd
00000340: 8a8f 40be 684c b1be 6e98 b2be 44e7 8dbe
00000350: 4ae4 26be 4db1 1bbe 8a7f 80be f2f7 9bbe
00000360: 1154 543d 3d0c 893c 9aa2 cfbd 6fc8 66bd
00000370: 6a5b a3bd 4b98 333d fa88 d6bd badd 17be
00000380: 443d c4bd b41e 6abe e395 67be 32cd 9bbd
00000390: 1042 97be 2644 c3be fe3d dabe 3ccd debe
000003a0: 6041 c3be 4414 a2be b6b6 c5be 5754 48bf
000003b0: a3ef 2bbf dce7 0abf bbcb efbe ea3c f8be
000003c0: d88e 163d c30a 0b3e a8c2 80bd 454a 9a3c
000003d0: dcff 16be ebeb a7bd f422 30bd f89f 38be
000003e0: 4fb7 87bd be69 cebc 2ac1 32be 6919 c2bd
000003f0: d8aa 62be 87e7 98be b32a 39be 1139 1abe

exp_avg_sq f4 [24, 24]
0.071738966 0.15802266 0.08338297 0.13436183 0.18848903 0.20961288 0.19055896 0.2922879
0.47472304 0.48363763 0.5995421 0.65647006 0.623948 0.86279804 0.686847 0.88980293
0.9372 1.0696704 1.4558827 1.8484591 2.0030146 2.0900352 2.5645995 2.553314
0.08632691 0.0973404 0.07884642 0.14151484 0.103806935 0.1367384 0.29556978 0.21116552
0.23942363 0.3641427 0.437108 0.42005202 0.5296794 0.57684237 0.6189985 0.7993496
1.0608957 1.0161648 1.2383298 1.3327733 1.7774676 1.9140528 2.070451 2.1126852
0.27314562 0.33256045 0.22610886 0.23347653 0.37174723 0.6095848 0.56570256 0.58458817
0.94851905 1.2062007 1.1153426 1.3510845 1.4181336 1.5286553 1.8934819 2.2796292
2.8083303 2.858736 2.9848797 3.4056232 4.865079 5.627973 5.6536574 5.889529
0.13138326 0.08714858 0.13370022 0.14298251 0.24233842 0.39341426 0.19140463 0.18833573
0.28493208 0.49652982 0.7202346 0.5971443 0.42400935 0.80320835 0.7365977 0.9503069
0.9790901 1.1694405 1.2772788 1.4824477 2.0034692 2.13128 2.1016157 2.3280241
0.35380918 0.4101762 0.082244225 0.21054336 0.20306449 0.3082628 0.32795745 0.2946605
0.5321088 0.49491653 0.6182579 0.6019549 0.7872614 0.91814333 1.1209216 1.2151685
1.509235 1.4600531 1.9650124 1.8984585 2.4090211 2.9013112 3.2831752 3.3018348
0.25467512 0.3321759 0.2677321 0.30639508 0.32769465 0.6033985 0.89643914 1.149266
1.3542424 1.8619945 2.051419 2.1927207 2.1525493 2.2844608 3.1481965 3.6925242
4.471386 4.6043825 5.742268 6.0175734 7.275674 8.29044 8.855563 8.86136
0.49816123 0.61772025 0.26659212 0.611213 0.73158383 0.6453984 0.6842331 0.6331451
1.0251368 0.89618814 1.6569575 1.6310182 2.0770278 2.2595582 1.5096558 2.181244
3.0485594 2.8434472 3.6614077 3.7741919 4.802803 5.4332376 7.1206193 7.121731
0.21294527 0.39366332 0.18914881 0.33595526 0.3007212 0.52865195 0.9656584 1.2186143
0.9421464 0.98362947 1.1374907 1.3160598 1.5222541 1.7482053 1.754872 2.0183165
2.7378328 2.7673924 3.2022572 3.5800068 3.9253836 4.5304074 5.848653 5.926343
0.43605092 0.65492564 0.18968196 0.37445027 0.18785442 0.28392896 0.52616686 0.601673
1.107309 1.113909 1.0129272 1.1397867 1.5256556 1.5816315 2.1049597 2.1103897
2.701154 3.1530874 3.4104526 3.8188288 4.4978805 5.229759 5.631589 6.0278354
0.23016821 0.48437488 0.19534178 0.43901458 0.50887954 1.1740049 1.1908096 1.1901065
1.6267474 1.6946847 2.1097043 2.8639333 2.3123176 2.7252727 3.0006542 3.1717784
4.1645217 4.7066965 5.501329 5.4696302 6.785363 8.229832 9.814751 9.921088
0.0757584 0.26291153 0.11326317 0.23353416 0.14645366 0.33627695 0.3980304 0.42943203
0.60174125 0.85952735 0.6977241 0.980184 1.0111866 1.0273299 1.3437605 1.5279641
00000000: e1eb 923d b1d0 213e b1c4 aa3d 2696 093e
00000010: 4503 413e c2a4 563e e321 433e c2a6 953e
00000020: e60e f33e 5a9f f73e 977b 193f 6c0e 283f
00000030: 0ebb 1f3f 55e0 5c3f 34d5 2f3f 20ca 633f
00000040: 57ec 6f3f f6ea 883f 5d5a ba3f 4f9a ec3f
00000050: 6431 0040 23c3 0540 6622 2440 7f69 2340
00000060: 2acc b03d 675a c73d 3b7a a13d 44e9 103e
00000070: bb98 d43d 2705 0c3e ec54 973e c63b 583e
00000080: 782b 753e e970 ba3e 9fcc df3e 0f11 d73e
00000090: 1299 073f f1ab 133f b076 1e3f 2da2 4c3f
000000a0: 6ecb 873f b011 823f 9781 9e3f 5198 aa3f
000000b0: 0f84 e33f afff f43f 4582 0440 3c36 0740
000000c0: bed9 8b3e 5d45 aa3e 1589 673e 7914 6f3e
000000d0: a755 be3e c00d 1c3f e2d1 103f 92a7 153f
000000e0: 25d2 723f c964 9a3f 8cc3 8e3f 56f0 ac3f
000000f0: 6785 b53f faaa c33f 9d5d f23f 72e5 1140
00000100: afbb 3340 88f5 3640 4508 3f40 bbf5 5940
00000110: baae 9b40 5b18 b440 c3ea b440 0677 bc40
00000120: 5589 063e f47a b23d b6e8 083e 026a 123e
00000130: 9027 783e 986d c93e 93ff 433e 15db 403e
00000140: 9ee2 913e 2839 fe3e 4b61 383f 73de 183f
00000150: c117 d93e 109f 4d3f ab91 3c3f 5047 733f
00000160: a6a5 7a3f 3ab0 953f df7d a33f d9c0 bd3f
00000170: d738 0040 e466 0840 df80 0640 59fe 1440
00000180: 7a26 b53e 9d02 d23e a96f a83d ae98 573e
00000190: 23f0 4f3e 9fd4 9d3e 0aea a73e bedd 963e
000001a0: 4838 083f b365 fd3e 2646 1e3f b719 1a3f
000001b0: f789 493f 710b 6b3f 5c7a 8f3f a48a 9b3f
000001c0: 9d2e c13f 05e3 ba3f 8785 fb3f b000 f33f
000001d0: 672d 1a40 15af 3940 8b1f 5240 4351 5340
000001e0: c764 823e f612 aa3e 2f14 893e d1df 9c3e
000001f0: 98c7 a73e 5378 1a3f 097d 653f 261b 933f
00000200: d157 ad3f d655 ee3f 734a 0340 8955 0c40
00000210: 5ec3 0940 9b34 1240 0d7c 4940 5152 6c40
00000220: 9815 8f40 1a57 9340 a9c0 b740 f68f c040
00000230: 52d2 e840 a4a5 0441 63b0 0d41 21c8 0d41
00000240: fd0e ff3e ea22 1e3f c37e 883e 7578 1c3f
00000250: 1449 3b3f d438 253f e729 2f3f cc15 223f
00000260: af37 833f 966c 653f 2f17 d43f 34c5 d03f
00000270: 06ee 0440 9a9c 1040 673c c13f 8099 0b40
00000280: 991b 4340 0afb 3540 8154 6a40 5c8c 7140
00000290: 90b0 9940 15dd ad40 1ddc e340 38e5 e340
000002a0: 530e 5a3e 3d8e c93e 3ab0 413e 5402 ac3e
000002b0: 21f8 993e bc55 073f 6435 773f 8efb 9b3f
000002c0: 8230 713f 24cf 7b3f 4c99 913f a674 a83f
000002d0: 39d9 c23f 31c5 df3f a59f e03f 192c 0140
000002e0: a738 2f40 f51c 3140 c8f1 4c40 d51e 6540
000002f0: 7c39 7b40 19f9 9040 2a28 bb40 9aa4 bd40
00000300: 1142 df3e 35a9 273f fd3b 423e f2b7 bf3e
00000310: e95c 403e 235f 913e dfb2 063f 3e07 1a3f
00000320: 4dbc 8d3f 9294 8e3f 99a7 813f 88e4 913f
00000330: af48 c33f e772 ca3f a9b7 0640 a010 0740
00000340: b5df 2c40 2fcc 4940 db44 5a40 b167 7440
00000350: a3ee 8f40 305a a740 fa35 b440 07e4 c040
00000360: 37b1 6b3e fcff f73e ad07 483e 85c6 e03e
00000370: ee45 023f cb45 963f 736c 983f 6955 983f
00000380: 4239 d03f 6eeb d83f 6505 0740 af4a 3740
00000390: 03fd 1340 de6a 2e40 b80a 4040 6bfe 4a40
000003a0: c343 8540 429d 9640 e30a b040 3607 af40
000003b0: b221 d940 64ad 0341 3809 1d41 c7bc 1e41
000003c0: 3827 9b3d 579c 863e 85f6 e73d 9423 6f3e
000003d0: f3f7 153e 7e2c ac3e a4ca cb3e 84de db3e
000003e0: b70b 1a3f fc09 5c3f 0c9e 323f 57ed 7a3f
000003f0: 906e 813f 8c7f 833f 5800 ac3f 5494 c33f

exp_avg f4 [24]
-0.00980836 0.0017966572 0.016708285 -0.008434569 -0.008819242 -0.024247177 0.009810802 -0.014941521
-0.01289621 -0.02026478 -0.012003526 0.0099461395 0.0044350023 -0.013542836 -0.003743995 -0.017640928
0.020373827 -0.00048560277 0.012195037 -0.0015213471 -0.0122622615 -0.0074602887 0.013474656 0.015545307
00000000: 3eb3 20bc d07d eb3a d0df 883c 2631 0abc
00000010: 957e 10bc 04a2 c6bc 7cbd 203c 48cd 74bc
00000020: a04a 53bc 5302 a6bc 70aa 44bc 22f5 223c
00000030: 7f53 913b c5e2 5dbc d05d 75bb b583 90bc
00000040: 03e7 a63c 8098 feb9 b1cd 473c f067 c7ba
00000050: a7e7 48bc 7075 f4bb cec4 5c3c beb1 7e3c

exp_avg_sq f4 [24]
0.0041652885 0.0034528163 0.009534021 0.003794836 0.0053051203 0.014196771 0.011392066 0.009600878
0.009735075 0.015981358 0.0066858665 0.00727617 0.0038661298 0.006377943 0.007872511 0.012912774
0.017152738 0.0036980242 0.0072361515 0.006810377 0.0041358783 0.003521533 0.011288745 0.0056036273
00000000: f97c 883b a548 623b 9534 1c3c c9b2 783b
00000010: 93d6 ad3b 9399 683c caa5 3a3c 004d 1d3c
00000020: dd7f 1f3c 56eb 823c 1d15 db3b f06c ee3b
00000030: e55e 7d3b 10fe d03b b4fb 003c 1a90 533c
00000040: e683 8c3c 8d5a 723b 3d1d ed3b 9529 df3b
00000050: 4386 873b 85c9 663b 6ef4 383c a29e b73b

exp_avg f4 [24, 24]
0.049097765 0.21677025 0.07392889 -0.1607603 -0.043265373 -0.18889652 0.09079693 -0.14244516
-0.20339236 -0.0852536 -0.079227716 -0.10409381 0.20576368 -0.37643003 -0.08095746 -0.07128901
0.25336963 -0.13937777 0.013531731 -0.100697815 -0.22731537 0.1424005 0.14692141 0.22668399
0.048339855 0.21688476 0.21064562 -0.40427518 -0.19808899 -0.44420534 0.14259835 -0.49892294
-0.37477976 -0.1096695 -0.1542624 -0.15979749 0.34633964 -0.5032005 -0.27400798 -0.3376062
0.2987219 -0.40661263 -0.11153798 -0.40664536 -0.42635846 0.21167386 0.41961867 0.399216
-0.058219746 0.32875064 0.1719372 -0.494385 -0.22829063 -0.4286571 0.3174662 -0.30092984
-0.4796074 -0.18316056 -0.15120505 -0.031069651 0.48714143 -0.5846878 -0.3510202 -0.31076738
0.35345197 -0.53796846 -0.085312314 -0.37321576 -0.3422889 0.4022693 0.15662941 0.516546
-0.03560321 0.29790518 0.21548511 -0.34747374 -0.29974568 -0.58781004 0.22661729 -0.5672767
-0.49887875 -0.18700092 -0.18456483 0.010928055 0.40553367 -0.53901815 -0.40611166 -0.51036346
0.37736452 -0.47558558 -0.13101885 -0.45365965 -0.5511621 0.32159293 0.44348222 0.46928105
-0.18287145 0.005623821 0.10300801 -0.3341478 -0.26689062 -0.2206007 0.1791657 -0.16326235
-0.2118531 -0.16510548 -0.24367669 0.080176555 0.38926366 -0.253238 -0.07029064 -0.25856254
0.05854774 -0.34486455 -0.0952514 -0.2327345 -0.15748255 -0.021372218 0.16720206 0.3973026
0.104911536 0.21209696 0.19899248 -0.5809571 -0.313633 -0.38084042 0.3775425 -0.3361575
-0.47969526 -0.121819615 -0.20029542 0.024006285 0.7095362 -0.7011823 -0.32042527 -0.24032846
0.44526863 -0.75757414 -0.23176262 -0.2613775 -0.42947555 0.18308741 0.29755682 0.701916
0.045954876 0.038217004 -0.030094326 -0.09744688 -0.052040793 0.044200756 0.097606994 0.046634506
-0.032440122 -0.040978007 0.004584156 0.1063159 0.060586963 -0.070064574 0.08515732 -0.108235925
0.07596472 -0.12575924 0.012503454 -0.06942761 0.030118495 -0.08196868 -0.02411618 0.04264359
-0.026447952 0.21468744 0.22737654 -0.4895629 -0.38405308 -0.47685465 0.20431219 -0.41300738
-0.44868115 -0.188949 -0.34469488 -0.039236452 0.4569604 -0.48224416 -0.26984435 -0.2878145
0.36314923 -0.3796347 -0.02076986 -0.3402538 -0.35827112 0.12752613 0.35815567 0.51278305
-0.03868194 0.22491595 0.22874786 -0.57447 -0.33927253 -0.53059673 0.34866792 -0.6241447
-0.55557966 -0.3254132 -0.4392487 -0.0697259 0.57214683 -0.7368468 -0.31204963 -0.5575853
0.4059856 -0.5636935 -0.22777572 -0.49703395 -0.60278654 0.16084269 0.5839664 0.6831376
-0.0057825297 0.12938553 0.19362752 -0.34592414 -0.33214244 -0.47324735 0.3099712 -0.4836023
-0.45933643 -0.31520772 -0.24555954 0.09855254 0.42568755 -0.56258976 -0.28459492 -0.51670444
0.30606815 -0.5208479 -0.20905451 -0.33119312 -0.48498723 0.07239229 0.36257038 0.49112105
-0.12652703 -0.10148952 0.028454974 0.07664603 0.055150256 -0.045271605 -0.067617625 0.111832604
0.09977847 -0.02075015 -0.022147551 0.14091106 0.05280429 0.16479257 0.03711976 -0.06330475
00000000: bd1a 493d 05f9 5d3e 0868 973d 599e 24be
00000010: 0837 31bd 176e 41be bef3 b93d 25dd 11be
00000020: 1646 50be 7099 aebd 2442 a2bd 232f d5bd
00000030: b7b3 523e 70bb c0be 06cd a5bd f9ff 91bd
00000040: aab9 813e 0cb9 0ebe 32b4 5d3c a83a cebd
00000050: 5cc5 68be 70d1 113e 9172 163e d91f 683e
00000060: 0300 463d 0a17 5e3e 7cb3 573e 28fd cebe
00000070: d7d7 4abe e26e e3be 4d05 123e d472 ffbe
00000080: 22e3 bfbe 679a e0bd f6f6 1dbe f4a1 23be
00000090: 6e53 b13e bfd1 00bf c64a 8cbe b8da acbe
000000a0: 14f2 983e 882f d0be 066e e4bd d233 d0be
000000b0: a84b dabe 08c1 583e 42d8 d63e 0a66 cc3e
000000c0: d477 6ebd 0152 a83e 4e10 303e 0820 fdbe
000000d0: 05c5 69be f278 dbbe ee8a a23e 7a13 9abe
000000e0: 1a8f f5be 718e 3bbe 7fd5 1abe c885 febc
000000f0: 9a6a f93e 1aae 15bf ebb8 b3be e71c 9fbe
00000100: a8f7 b43e 4db8 09bf 39b8 aebd 2316 bfbe
00000110: 7e40 afbe 3ef6 cd3e 7663 203e 5c3c 043f
00000120: acd4 11bd 0787 983e 21a8 5c3e 14e8 b1be
00000130: 4478 99be b87a 16bf 5d0e 683e 0c39 11bf
00000140: 096d ffbe 2b7d 3fbe 90fe 3cbe 960b 333c
00000150: 1ca2 cf3e 18fd 09bf deed cfbe 2ea7 02bf
00000160: ec35 c13e f47f f3be ce29 06be 1446 e8be
00000170: f618 0dbf d4a7 a43e 1a10 e33e 9b45 f03e
00000180: a742 3bbe 0848 b83b ddf5 d23d 6c15 abbe
00000190: e3a5 88be 26e5 61be 3777 373e 3f2e 27be
000001a0: 05f0 58be 6911 29be 6286 79be 9b33 a43d
000001b0: 914d c73e 69a8 81be 8af4 8fbd 4f62 84be
000001c0: c1cf 6f3d 1692 b0be 2a13 c3bd f451 6ebe
000001d0: 1b43 21be ca14 afbc 0437 2b3e 3f6b cb3e
000001e0: dcdb d63d f22f 593e afc4 4b3e 9bb9 14bf
000001f0: 8194 a0be 84fd c2be 404d c13e d61c acbe
00000200: 9e9a f5be 907c f9bd 3e1a 4dbe d4a8 c43c
00000210: 2aa4 353f af80 33bf c80e a4be aa18 76be
00000220: 40fa e33e 61f0 41bf 2e53 6dbe 46d3 85be
00000230: 38e4 dbbe 447b 3b3e 5e59 983e c4b0 333f
00000240: 2e3b 3c3d 6f89 1c3d 6088 f6bc 3b92 c7bd
00000250: ba28 55bd da0b 353d 2de6 c73d d303 3f3d
00000260: efdf 04bd 8ed8 27bd b036 963b 27bc d93d
00000270: 092a 783d 047e 8fbd f666 ae3d ccaa ddbd
00000280: 6493 9b3d 08c7 00be 4adb 4c3c 1030 8ebd
00000290: 10bb f63c 32df a7bd 4c8f c5bc 0cab 2e3d
000002a0: 60a9 d8bc 06d7 5b3e 65d5 683e fda7 fabe
000002b0: 9ba2 c4be 4b26 f4be 3737 513e b475 d3be
000002c0: 89b9 e5be d97b 41be d97b b0be 67b6 20bd
000002d0: b7f6 e93e b5e8 f6be 0a29 8abe 6c5c 93be
000002e0: b2ee b93e 7b5f c2be 8e25 aabc bf35 aebe
000002f0: 506f b7be 3696 023e 2e60 b73e c045 033f
00000300: f470 1ebd 5e50 663e e13c 6a3e 7710 13bf
00000310: 21b5 adbe 30d5 07bf 9a84 b23e f2c7 1fbf
00000320: 783a 0ebf 8f9c a6be 35e5 e0be 74cc 8ebd
00000330: 3778 123f fea1 3cbf f8c4 9fbe e9bd 0ebf
00000340: 58dd cf3e 384e 10bf 0a3e 69be 3c7b febe
00000350: 3850 1abf f2b3 243e d27e 153f 1be2 2e3f
00000360: 607b bdbb a47d 043e 4b46 463e f81c b1be
00000370: 930e aabe 7a4d f2be 8cb4 9e3e b89a f7be
00000380: 252e ebbe e862 a1be f673 7bbe ead5 c93d
00000390: b8f3 d93e e205 10bf 6db6 91be be46 04bf
000003a0: f7b4 9c3e 4a56 05bf 6312 56be 2592 a9be
000003b0: 3f50 f8be 6942 943d d3a2 b93e 3874 fb3e
000003c0: 4d90 01be bdd9 cfbd 681a e93c 98f8 9c3d
000003d0: 3ce5 613d b86e 39bd 1c7b 8abd 7e08 e53d
000003e0: a858 cc3d 38fc a9bc c86e b5bc fd4a 103e
000003f0: 5049 583d 62bf 283e e40a 183d eca5 81bd

exp_avg_sq f4 [24, 24]
2.0015132 1.8051214 0.90401703 5.0945406 4.3716893 8.133473 1.7940527 5.3151503
5.366882 2.911501 3.015601 0.051488113 6.0103364 6.4532995 3.4421906 6.6662354
1.7949804 3.8368595 0.032401163 3.1630979 4.8092737 0.30169797 4.5354266 8.178761
5.1123047 4.32659 2.5208728 12.123949 12.743205 20.689983 4.366403 14.018441
13.78407 7.9928904 9.348334 0.100112654 17.800451 16.053167 7.383607 16.054647
5.108309 9.586327 0.06523228 7.5666833 13.639754 0.6442235 12.552601 21.974728
1.4085356 1.4839061 0.8548548 4.122773 3.426859 7.0579863 1.3318542 5.374242
5.001664 2.202264 2.7412956 0.03188863 4.9218335 6.40838 2.77474 5.5617027
1.67556 3.2961304 0.03564051 2.7316375 4.7391076 0.26832303 4.9046564 6.9217887
1.8431821 1.778407 1.1531193 5.8780293 4.6140876 8.408399 1.9477801 6.5028305
6.6732187 3.3940458 4.239338 0.02118449 6.6084294 8.299877 3.6553185 6.6676226
1.9025654 4.0743365 0.061665095 3.6406584 5.973502 0.26186946 5.838284 9.686222
1.7208848 1.9369867 1.0648046 4.6335773 3.9251578 8.820069 1.3180833 6.344333
5.4414487 3.0066285 3.4664161 0.040374912 6.1932325 7.270158 3.3797734 6.0817204
2.2138965 3.2045422 0.03240547 2.8394291 6.1149454 0.52684724 5.6670957 8.397138
2.534293 3.345789 1.5055187 7.7143874 5.8098464 12.859984 2.5263991 8.873228
9.0039215 3.97815 4.2993813 0.05733617 9.29417 12.259549 5.5257273 9.372916
3.3685381 6.1591935 0.14709611 5.293739 8.730585 0.7593358 7.528134 12.742582
0.95575356 0.7829608 0.30871993 1.4102777 1.3248432 3.096827 0.46250066 1.816952
1.7569274 0.9812258 1.0059904 0.048361287 1.9575183 2.1006453 1.1707369 2.55923
0.57608944 1.0884669 0.018462228 1.0077839 1.8471177 0.19288506 1.7114984 2.609621
2.0536761 2.6295652 1.162699 5.891057 4.986978 10.318515 2.1114855 6.389241
6.4882674 2.925694 3.7765038 0.024479648 7.7703633 8.893643 4.7899876 7.1632934
2.38485 4.747494 0.08383789 3.5936189 6.7781215 0.5594243 5.980266 10.335442
2.4793143 2.6778736 1.7201065 8.021578 7.1741185 13.600067 2.5654314 9.700275
8.896906 4.246983 5.350843 0.042607263 9.704697 10.357249 5.7668424 9.860405
2.9424882 6.1654935 0.091226734 5.4018188 8.842909 0.62620586 8.243845 13.404353
1.8757094 2.2844446 1.4926854 5.7253976 4.828071 9.952829 1.8629658 6.6811724
6.4592633 3.0300636 3.5922873 0.04825169 7.1220345 8.070878 3.8417974 7.0421786
2.2304924 4.524897 0.09003762 3.8353622 6.1654263 0.5180363 5.832272 9.788557
1.041946 1.2913078 0.8445053 3.6194084 2.7608247 5.9556966 1.1087749 4.345618
4.195963 2.113378 2.6112912 0.075100094 4.4195013 5.207547 2.3350346 4.5994534
00000000: cb18 0040 380e e73f a96d 673f 7a06 a340
00000010: e1e4 8b40 b522 0241 85a3 e53f b615 aa40
00000020: 7fbd ab40 0856 3a40 9bff 4040 33e5 523d
00000030: ad54 c040 6e81 ce40 da4c 5c40 cd51 d540
00000040: ebc1 e53f 1b8f 7540 15b7 043d 3270 4a40
00000050: 92e5 9940 2878 9a3e 3722 9140 34dc 0241
00000060: 0098 a340 6d73 8a40 fb55 2140 b2fb 4141
00000070: 2be4 4b41 1685 a541 93b9 8b40 894b 6041
00000080: 8d8b 5c41 c2c5 ff40 c792 1541 dd07 cd3d
00000090: 5367 8e41 e36c 8041 8246 ec40 eb6f 8041
000000a0: 4477 a340 9861 1941 8098 853d 4522 f240
000000b0: 6f3c 5a41 d5eb 243f 74d7 4841 3ecc af41
000000c0: e54a b43f a3f0 bd3f c4d7 5a3f c2ed 8340
000000d0: a851 5b40 06db e140 337a aa3f caf9 ab40
000000e0: a20d a040 e5f1 0c40 6371 2f40 a79d 023d
000000f0: a97f 9d40 7311 cd40 5795 3140 78f9 b140
00000100: c078 d63f cdf3 5240 c9fb 113d 26d3 2e40
00000110: c5a6 9740 a361 893e f2f2 9c40 4b7f dd40
00000120: 64ed eb3f d7a2 e33f 6a99 933f d118 bc40
00000130: 9ba6 9340 cd88 0641 dc50 f93f 3017 d040
00000140: 028b d540 0c38 5940 a8a8 8740 188b ad3c
00000150: 4178 d340 4ccc 0441 bdf0 6940 2a5d d540
00000160: 4387 f33f f760 8240 8a94 7c3d 8c00 6940
00000170: ee26 bf40 c113 863e 39d3 ba40 c4fa 1a41
00000180: f445 dc3f 2eef f73f 844b 883f 4446 9440
00000190: c935 7b40 011f 0d41 f4b6 a83f c704 cb40
000001a0: 5920 ae40 9a6c 4040 c3d9 5d40 2a60 253d
000001b0: f62e c640 22a5 e840 354e 5840 749d c240
000001c0: 7bb0 0d40 3817 4d40 99bb 043d 35b9 3540
000001d0: a2ad c340 76df 063f d958 b540 ad5a 0641
000001e0: db31 2240 6821 5640 d6b4 c03f 43dc f640
000001f0: 43ea b940 7fc2 4d41 86b0 2140 bef8 0d41
00000200: 1010 1041 029a 7e40 8894 8940 55d9 6a3d
00000210: ecb4 1441 1d27 4441 c2d2 b040 77f7 1541
00000220: 2196 5740 1d18 c540 5da0 163e 4f66 a940
00000230: 7ab0 0b41 d563 423f 79e6 f040 9ee1 4b41
00000240: 44ac 743f 1e70 483f 8a10 9e3e fb83 b43f
00000250: 7694 a93f 6a32 4640 e3cc ec3e e291 e83f
00000260: ffe2 e03f 9d31 7b3f 4bc4 803f 7c16 463d
00000270: f68f fa3f f970 0640 b5da 953f 6dca 2340
00000280: 997a 133f e252 8b3f 193e 973c 10ff 803f
00000290: 5a6e ec3f a983 453e 6112 db3f 0804 2740
000002a0: 6e6f 0340 cc4a 2840 52d3 943f 8a83 bc40
000002b0: 5395 9f40 a318 2541 9422 0740 aa74 cc40
000002c0: e39f cf40 923e 3b40 3db2 7140 8b89 c83c
000002d0: d1a6 f840 5d4c 0e41 9447 9940 b339 e540
000002e0: 62a1 1840 79eb 9740 33b3 ab3d dafd 6540
000002f0: 5fe6 d840 6e36 0f3f 575e bf40 f85d 2541
00000300: 16ad 1e40 4862 2b40 732c dc3f 6258 0041
00000310: 6192 e540 e099 5941 0730 2440 5434 1b41
00000320: ba59 0e41 49e7 8740 1b3a ab40 f484 2e3d
00000330: 7046 1b41 4bb7 2541 f989 b840 38c4 1d41
00000340: ba51 3c40 b94b c540 15d5 ba3d b3db ac40
00000350: 8e7c 0d41 074f 203f cae6 0341 3b78 5641
00000360: 3f17 f03f 5734 1240 5110 bf3f 7536 b740
00000370: 8f7f 9a40 ca3e 1f41 aa75 ee3f 2acc d540
00000380: 49b2 ce40 90ec 4140 09e8 6540 90a3 453d
00000390: b5e7 e340 5122 0141 02e0 7540 8759 e140
000003a0: 63c0 0e40 f5cb 9040 a565 b83d 9376 7540
000003b0: 2c4b c540 079e 043f f9a1 ba40 ee9d 1c41
000003c0: 7d5e 853f 9349 a53f 8031 583f 63a4 6740
000003d0: 5ab1 3040 1195 be40 56ec 8d3f 4d0f 8b40
000003e0: 5445 8640 9641 0740 651f 2740 14ce 993d
000003f0: 8e6c 8d40 3aa4 a640 3571 1540 b92e 9340

exp_avg f4 [24]
0.00864718 0.019326959 0.021569127 0.024985224 0.0137131885 0.020818451 0.001064067 0.02092715
0.032264378 0.023797585 -0.0025735628 0.0105652455 0.016457424 0.014351444 0.022312323 0.010934194
0.019038316 0.026592417 0.025971597 0.0060755564 -0.016479064 -0.0030521052 0.00018959271 -0.00054435525
00000000: e7ac 0d3c 9253 9e3c bdb1 b03c d0ad cc3c
00000010: 48ad 603c 758b aa3c 2a78 8b3a 6a6f ab3c
00000020: a727 043d 27f3 c23c 38a9 28bb da19 2d3c
00000030: b8d1 863c 5222 6b3c 55c8 b63c 5525 333c
00000040: 3ef6 9b3c 57d8 d93c 63c2 d43c 7615 c73b
00000050: 1aff 86bc d405 48bb 68cd 4639 10b3 0eba

exp_avg_sq f4 [24]
0.018222805 0.046112087 0.016327055 0.020320626 0.017979302 0.028030982 0.0061154054 0.021570968
0.029083658 0.020866644 0.013086135 0.012553123 0.012093025 0.015091847 0.014635845 0.009710579
0.009761899 0.021541305 0.014172857 0.007944133 0.026191343 0.011221327 0.0037453307 0.001842126
00000000: fe47 953c 07e0 3c3d 51c0 853c 7177 a63c
00000010: 5449 933c 3ba1 e53c bd63 c83b 99b5 b03c
00000020: da40 ee3c 86f0 aa3c 3a67 563c 9dab 4d3c
00000030: d321 463c cb43 773c 2fcb 6f3c 1f19 1f3c
00000040: 5ff0 1f3c 6477 b03c 4535 683c 1c28 023c
00000050: 3a8f d63c a8d9 373c 3974 753b 7e73 f13a
