models/preliminary_results_models/RaceMultiOutputModel3v4/model2.pt (torch, 519791 bytes, 18 tensors)

fc1.weight f4 [128, 240]
0.033006668 -0.048466 -0.06990608 0.05616299 0.027520595 0.040751316 0.03440725 -0.06989178
-0.02747448 0.04268666 0.00033102473 0.015526846 0.041195 -0.01868345 -0.0016340574 -0.05254751
0.03463416 0.03970747 0.038700577 -0.027270148 0.068367876 -0.030676858 -0.001505318 -0.058108747
-0.054874297 0.037544485 -0.052734647 -0.010489349 -0.0021835442 -0.0021339548 -0.04151425 -0.037265785
0.021393728 -0.038909644 -0.04845944 -0.0054013105 0.05004423 0.036482666 -0.0493063 -0.00075236964
-0.023342205 0.036091987 0.04971691 0.003800361 0.07229342 0.06617112 -0.04670712 -0.032018818
0.009102332 0.045892242 0.0023636252 -0.043972723 0.058265787 0.0045412374 0.04449538 -0.06838596
0.027966544 0.02709348 -0.06758 0.015737237 0.008360126 -0.047274232 0.018518927 -0.06817338
0.020232271 -0.037199635 -0.026338896 0.02261546 0.032125074 -0.004771025 -0.020267023 -0.033364426
-0.017854799 -0.06351115 0.013784821 -0.067293465 -0.0627007 -0.06869422 0.018062796 0.009188966
0.0117058195 0.03871876 -0.05658757 -0.02945925 0.034005146 -0.0111134015 -0.021807732 -0.05592422
-0.065429375 -0.030556826 -0.00649682 -0.045620363 -0.06367923 -0.045939803 0.037090156 -0.061863523
0.02198695 -0.028507624 -0.030557025 0.05650423 -0.00879197 0.053409606 0.05603508 0.037903477
-0.06845216 -0.056594487 -0.0045048287 0.032034434 -0.04619436 -0.006287589 -0.05702942 -0.058569647
0.058294192 0.014134578 0.05142228 -0.028797789 -0.050413966 0.0029797216 -0.017358739 0.018690143
0.035753727 0.02089933 -0.059542663 0.043311987 0.020172736 -0.044406682 0.02009672 -0.04051821
-0.04620347 -0.046693068 -0.068041205 0.031139378 -0.03153178 0.010963178 -0.023383977 -0.011979051
0.05307849 -0.060961988 0.045179226 0.0006065408 -0.048328854 0.0356691 0.008433715 -0.014868226
0.056086175 -0.05176057 -0.029589856 0.03989425 -0.031885523 0.026536863 0.048702873 -0.047645595
-0.04016178 -0.026846627 -0.05673499 0.03891731 -0.032107674 0.03792953 0.013208387 -0.062474933
-0.018175798 -0.012947274 -0.022045823 0.029447103 -0.062065594 0.005590202 0.0026062538 -0.06481014
-0.016935183 0.010710181 -0.045473985 0.058136582 0.04953174 0.026403202 -0.05234936 -0.014808771
-0.006558603 -0.01997057 0.005620673 -0.012078461 -0.0602366 0.0017324741 -0.011502861 -0.054908276
-0.027987886 -0.054406047 -0.034564853 -0.033825643 0.035543226 0.015512751 0.016287271 -0.04158059
-0.021375012 -0.011753752 0.0378153 -0.009807111 -0.03150669 -0.036813498 0.042278912 -0.009769239
-0.017117806 0.0179669 0.020245068 0.019449534 0.013358659 -0.058049876 0.043796115 -0.0051170923
0.04477678 -0.06956539 0.0132861305 -0.053118467 0.04025456 -0.033461455 0.054369308 -0.0327547
-0.010552892 -0.028926564 -0.013347482 0.05505782 0.011303784 -0.025469726 -0.041510265 0.027364362
0.048889372 0.041835893 0.024240198 0.0064930357 -0.022609835 0.009953009 -0.045185175 0.051627535
-0.012631642 0.004983629 -0.015557697 -0.02496132 0.017472224 0.035119068 0.016197147 -0.05549412
0.0048375777 0.037434664 0.050277002 0.019881712 0.04418464 0.058205828 0.042591725 -0.027198322
-0.035908118 -0.023703141 -0.036419585 0.028056132 -0.02013694 0.022752862 -0.05712008 0.0084111225
00000000: 0032 073d 4984 46bd eb2a 8fbd 2a0b 663d
00000010: df72 e13c daea 263d 9eee 0c3d 6c23 8fbd
00000020: 2912 e1bc 35d8 2e3d 638d ad39 5064 7e3c
00000030: 17bc 283d 090e 99bc de2d d6ba 0f3c 57bd
00000040: 8ddc 0d3d 4da4 223d 7f84 1e3d a565 dfbc
00000050: 7504 8c3d 094e fbbc 174e c5ba 7003 6ebd
00000060: dfc3 60bd 3fc8 193d 4900 58bd 85db 2bbc
00000070: cb19 0fbb d2d9 0bbb d90a 2abd 02a4 18bd
00000080: e641 af3c b85f 1fbd 687d 46bd 7afd b0bb
00000090: 2efb 4c3d d96e 153d 67f5 49bd ac3a 45ba
000000a0: 2738 bfbc 31d5 133d f5a3 4b3d 7a0f 793b
000000b0: 930e 943d b984 873d f74f 3fbd 2a26 03bd
000000c0: f321 153c 81f9 3b3d 0de7 1a3b be1c 34bd
000000d0: 1ba8 6e3d a9ce 943b ca40 363d f00d 8cbd
000000e0: 181a e53c 25f3 dd3c 6267 8abd 61eb 803c
000000f0: e9f8 083c a0a2 41bd 01b5 973c 7c9e 8bbd
00000100: 26be a53c a55e 18bd abc4 d7bc 0f44 b93c
00000110: 9595 033d 4256 9cbb 0707 a6bc 23a9 08bd
00000120: 3a44 92bc 2212 82bd bbd9 613c 28d1 89bd
00000130: 3969 80bd 8eaf 8cbd 6ef8 933c 518d 163c
00000140: c4c9 3f3c 9097 1e3d 5ec8 67bd 8654 f1bc
00000150: fb48 0b3d fc14 36bc 21a6 b2bc cb10 65bd
00000160: d6ff 85bd 4f52 fabc 47e3 d4bb 6bdc 3abd
00000170: 426a 82bd 602b 3cbd d9eb 173d 9b64 7dbd
00000180: fa1d b43c d288 e9bc ba52 fabc fb70 673d
00000190: 320c 10bc 08c4 5a3d 0a85 653d ad40 1b3d
000001a0: a530 8cbd 9fcf 67bd 3e9d 93bb 8a36 033d
000001b0: 4c36 3dbd 1f08 cebb ae97 69bd bae6 6fbd
000001c0: e4c5 6e3d b894 673c 2ba0 523d 57e9 ebbc
000001d0: e07e 4ebd 6f47 433b ea33 8ebc 121c 993c
000001e0: 8072 123d 1235 ab3c 02e3 73bd e967 313d
000001f0: 4b41 a53c c8e3 35bd e0a1 a43c 6cf6 25bd
00000200: da3f 3dbd 3b41 3fbd 3059 8bbd 0218 ff3c
00000210: 7827 01bd e79e 333c c18f bfbc c843 44bc
00000220: d568 593d 47b3 79bd da0d 393d 4400 1f3a
00000230: 7af4 45bd c319 123d 912d 0a3c dc99 73bc
00000240: 9eba 653d e402 54bd 6d66 f2bc 2768 233d
00000250: 659a 02bd d663 d93c aa7c 473d 0728 43bd
00000260: ae80 24bd 75ed dbbc f362 68bd c267 1f3d
00000270: 5683 03bd ff5b 1b3d fe67 583c b7e5 7fbd
00000280: 69e5 94bc ce20 54bc 7199 b4bc 0d3b f13c
00000290: 7e38 7ebd 032e b73b afcd 2a3b 2ebb 84bd
000002a0: a7bb 8abc c179 2f3c ee42 3abd a020 6e3d
000002b0: cbe1 4a3d 874b d83c 486c 56bd 7da0 72bc
000002c0: 8de9 d6bb 5299 a3bc 9f2d b83b bde4 45bc
000002d0: a7ba 76bd 2f14 e33a 7f76 3cbc 80e7 60bd
000002e0: da46 e5bc e0d8 5ebd e093 0dbd c28c 0abd
000002f0: c695 113d 3229 7e3c e26c 853c 6950 2abd
00000300: a61a afbc cf92 40bc 37e4 1a3d 01ae 20bc
00000310: 290d 01bd c0c9 16bd a72c 2d3d 290f 20bc
00000320: a43a 8cbc 522f 933c fcd8 a53c a154 9f3c
00000330: 47de 5a3c b5c5 6dbd 8e63 333d 48ad a7bb
00000340: db67 373d 4d78 8ebd 12ae 593c c092 59bd
00000350: f7e1 243d e10e 09bd 5ab2 5e3d cb29 06bd
00000360: 0ae6 2cbc 67f7 ecbc 66af 5abc 4f84 613d
00000370: 8233 393c e3a5 d0bc ab06 2abd 3a2b e03c
00000380: 3940 483d 1d5c 2b3d 6193 c63c 88c3 d43b
00000390: 4338 b9bc f211 233c 1714 39bd 6577 533d
000003a0: f2f4 4ebc b64d a33b b6e5 7ebc af7b ccbc
000003b0: e921 8f3c 03d9 0f3d e1af 843c cd4d 63bd
000003c0: 8b84 9e3b 1755 193d 42ef 4d3d f9de a23c
000003d0: f4fa 343d 3c69 6e3d a974 2e3d 04cf debc
000003e0: 6414 13bd 172d c2bc b42c 15bd f9d5 e53c
000003f0: 39f6 a4bc 3664 ba3c bff6 69bd cece 093c

fc1.bias f4 [128]
-0.012747194 -0.06812243 0.0044088475 0.01824644 -0.02553254 -0.015739264 -0.058147423 0.034438085
-0.02697447 0.060452282 -0.018689677 0.0264661 0.01218787 -0.035700332 0.009174343 -0.002517687
-0.039598513 -0.07583901 0.0021774757 -0.026246287 0.0049737096 0.019073782 -0.06376446 0.014369422
-0.024749948 -0.02735892 0.0051994156 -0.024767933 -0.051814213 0.00033161684 0.045736548 0.0012342922
-0.029051907 -0.015377771 -0.05639533 0.006654287 0.06090007 -0.044842195 -0.029737243 0.044692595
-0.01102331 -0.03200499 -0.049873225 0.053888604 -0.054162886 -0.027645057 -0.06984131 -0.009388146
-0.05637669 0.023934262 -0.035124477 0.0022140574 0.027031489 0.027953915 0.0033960864 0.012262637
0.0019137628 0.05685305 0.022412993 -0.017481962 0.030819634 -0.03569172 -0.042940255 0.008968184
-0.0655129 -0.017951779 -0.019663893 -0.0516832 -0.052921347 0.02478104 -0.059400026 0.021754716
-0.04199937 0.033783883 0.027161313 0.05631446 -0.061401844 -0.03277931 -0.038762536 0.021039909
-0.054033753 -0.01748548 -0.060917955 -0.003712476 -0.034349114 -0.0063549452 0.049864545 -0.0142001165
0.0513673 0.061873622 -0.0026656715 0.03232513 0.072941296 0.008553564 0.04831797 0.05226634
0.03389351 0.052761342 -0.024705296 0.03852616 -0.055425182 0.04716281 0.03429769 -0.066639364
-0.017296445 0.040532857 0.055268757 -0.010570192 0.009388415 -0.048014365 0.008527843 0.02166757
-0.03597108 -0.0291114 -0.009938964 0.0011127013 -0.023330659 -0.030707795 0.029490659 -0.03813405
0.05433161 0.0013367718 -0.014224172 -0.010062351 0.02617637 0.024095707 -0.05260322 -0.015007758
00000000: 9bd9 50bc c683 8bbd 1878 903b 8f79 953c
00000010: 9e29 d1bc a1ef 80bc fe2b 6ebd f30e 0d3d
00000020: 90f9 dcbc d09c 773d 181b 99bc 6fcf d83c
00000030: a2af 473c 833a 12bd fc4f 163c c7ff 24bb
00000040: 0d32 22bd 7c51 9bbd fbb3 0e3b 7402 d7bc
00000050: 80fa a23b 9f40 9c3c f196 82bd b96d 6b3c
00000060: 67c0 cabc d01f e0bc dc5f aa3b 1fe6 cabc
00000070: 243b 54bd dcdc ad39 3f56 3b3d f9c7 a13a
00000080: 44fe edbc 0cf3 7bbc cafe 66bd 350c da3b
00000090: 5a72 793d 73ac 37bd 859b f3bc 950f 373d
000000a0: 1d9b 34bc aa17 03bd de47 4cbd 4cba 5c3d
000000b0: e7d9 5dbd e377 e2bc f608 8fbd bdd0 19bc
000000c0: 3eeb 66bd c911 c43c afde 0fbd b819 113b
000000d0: 2471 dd3c 9cff e43c e090 5e3b 3ae9 483c
000000e0: 39d7 fa3a bede 683d 749b b73c 5536 8fbc
000000f0: 7579 fc3c 7b31 12bd 1fe2 2fbd 4aef 123c
00000100: a12b 86bd 9c0f 93bc 2c16 a1bc c3b1 53bd
00000110: 0ec4 58bd 9c01 cb3c 714d 73bd f236 b23c
00000120: 8807 2cbd f860 0a3d 6781 de3c fea9 663d
00000130: 8080 7bbd 9943 06bd 77c5 1ebd e35b ac3c
00000140: 7f52 5dbd b63d 8fbc 1b85 79bd 034d 73bb
00000150: a8b1 0cbd 253d d0bb c43e 4c3d 9ba7 68bc
00000160: 8566 523d 326f 7d3d 8cb2 2ebb 5b67 043d
00000170: 3f62 953d 3f24 0c3c 10e9 453d 3b15 563d
00000180: ecd3 0a3d 471c 583d c362 cabc 9bcd 1d3d
00000190: 8405 63bd ca2d 413d bc7b 0c3d 387a 88bd
000001a0: 46b1 8dbc c805 263d 7e61 623d 992e 2dbc
000001b0: ded1 193c b6aa 44bd 5eb8 0b3c 3080 b13c
000001c0: 6956 13bd 087b eebc 09d7 22bc 0fd8 913a
000001d0: f01f bfbc ea8e fbbc 6596 f13c 7332 1cbd
000001e0: d38a 5e3d 9e36 af3a 800c 69bc 8fdc 24bc
000001f0: d46f d63c 5c64 c53c 7976 57bd 19e3 75bc

fc2.weight f4 [64, 128]
-0.04992685 0.075302936 0.006561625 -0.08829998 0.040712323 -0.09300071 0.024461808 -0.05690327
-0.0107507035 -0.0955788 -0.0045311735 -0.07589457 0.06369593 0.030519275 0.007516019 -0.08183039
-0.09054906 0.039215438 -0.068680145 -0.06650167 0.037605487 -0.026086938 -0.036691766 0.07692674
0.07906692 0.07187367 0.026050743 0.033041656 0.06551434 0.062798716 0.0338363 -0.0006270429
0.028899407 0.003860227 -0.059866246 0.007898544 -0.021120384 0.030189253 -0.09215717 0.045603238
0.023331692 -0.073668405 -0.0842078 -0.025988247 -0.00014491379 -0.00075684785 0.0050526033 0.01904812
-0.06498654 -0.022771837 -0.08033143 -0.09475405 -0.0819964 0.027692221 -0.08085877 -0.10516269
-0.06168765 -0.083811745 -0.02766502 0.06718287 0.043470297 -0.010138084 -0.08121214 0.07716423
0.055567205 0.04936012 -0.027801208 -0.03413088 -0.031613443 -0.0537021 0.059760265 0.05096411
0.014308 -0.012661276 -0.082675524 -0.08666044 -0.05302165 -0.01809225 0.045131255 -0.019014504
-0.07868848 -0.04155699 -0.041334182 0.07622856 0.010231708 0.055908274 0.083307676 -0.09118913
-0.06514915 -0.03412604 -0.025386475 -0.07316011 0.035155363 -0.015523474 -0.03291927 0.066478804
0.020055406 -0.09503671 -0.026283631 -0.08978951 -0.023842722 0.022354232 -0.023110136 -0.011119616
0.014336559 0.019803274 -0.068240404 -0.05390594 0.0020816852 0.017506458 0.013105781 -0.04534052
0.061306342 0.019346654 -0.034580603 -0.057647943 0.061838835 0.0462079 0.04098265 -0.0832015
-0.0049590943 0.062731445 -0.078286685 0.065229625 0.07256106 -0.057235334 -0.0129443705 0.047834843
0.07449643 -0.005195444 -0.005621035 -0.09287782 -0.005789171 -0.037734106 0.014178831 -0.0419447
-0.04832636 0.018353218 -0.010606228 0.06051035 3.542751e-05 0.009118687 -0.029230509 -0.06702522
0.047628637 0.0053482433 -0.035556346 0.033956133 0.016327709 -0.037772734 0.08966545 0.040696017
0.050441165 0.028596193 -0.045011804 -0.016240818 -0.06675007 0.08004122 -0.060876824 -0.046242252
0.083547324 0.014172613 0.03314595 -0.08651362 0.07294854 0.04652594 0.027890315 -0.07574278
-0.045090172 -0.016397255 0.0028006062 0.02524798 -0.08828057 -0.032583106 0.057209898 0.02631613
0.00033602564 0.05570201 -0.020634813 0.011374217 0.052573044 -0.06969611 0.052401654 -0.07210075
-0.07027734 -0.031556576 0.06225351 0.061455976 0.033176802 -0.031147126 -0.05841726 -0.046442557
0.06931169 0.07564465 -0.054547053 0.048135627 -0.03933484 0.0850339 0.010072521 -0.054513212
0.059090108 -0.040439714 0.076842725 -0.043078396 0.05335588 0.011065664 -0.036095466 -0.017167948
0.033546984 -0.016194936 0.073158845 0.02285792 0.01276187 -0.05041792 -0.018220253 -0.024505852
-0.022277746 0.028557241 0.058648586 -0.07635965 0.045405854 -0.025793938 0.019258386 0.033185974
-0.04255778 0.078893416 0.030654764 -0.010633676 -0.019292109 0.0046373606 0.066068456 -0.06863919
0.053537194 0.0073910984 0.08526395 0.070662 0.07096212 0.023695502 0.03434352 0.06202605
-0.07067803 0.05841244 0.07365479 0.084163025 -0.087662816 0.06463864 -0.008563751 -0.069842935
-0.034784365 0.062747456 0.07651467 0.07244079 -0.08758115 -0.043396108 0.046973594 0.027673084
00000000: 1980 4cbd 6d38 9a3d e602 d73b 9fd6 b4bd
00000010: f7c1 263d 2877 bebd 2164 c83c 6713 69bd
00000020: b823 30bc d1be c3bd 3d7a 94bb 9d6e 9bbd
00000030: 0373 823d 8f03 fa3c f048 f63b b196 a7bd
00000040: c971 b9bd 5ea0 203d 2da8 8cbd 0732 88bd
00000050: 3608 1a3d 46b4 d5bc 1b4a 16bd c48b 9d3d
00000060: d6ed a13d 8132 933d 5e68 d53c b056 073d
00000070: 622c 863d 9d9c 803d ef97 0a3d 2360 24ba
00000080: 73be ec3c ddfb 7c3b 4f36 75bd e568 013c
00000090: a804 adbc 744f f73c e6bc bcbd 76ca 3a3d
000000a0: 1b22 bf3c 76df 96bd 2475 acbd 4ee5 d4bc
000000b0: 00f4 17b9 3367 46ba 4f90 a53b ce0a 9c3c
000000c0: aa17 85bd 018c babc ce84 a4bd 690e c2bd
000000d0: bbed a7bd ccda e23c 4899 a5bd 895f d7bd
000000e0: 30ac 7cbd 7ea5 abbd c1a1 e2bc 2c97 893d
000000f0: e90d 323d 351a 26bc 8d52 a6bd 4808 9e3d
00000100: 709a 633d d62d 4a3d 5cbf e3bc d2cc 0bbd
00000110: 197d 01bd bcf6 5bbd 2ec7 743d bebf 503d
00000120: 1a6c 6a3c 3e71 4fbc c951 a9bd 077b b1bd
00000130: 3b2d 59bd 3336 94bc 8ddb 383d 4ec4 9bbc
00000140: 6d27 a1bd aa37 2abd 084e 29bd b81d 9c3d
00000150: e5a2 273c 1300 653d 379d aa3d 5ec1 babd
00000160: eb6c 85bd bfc7 0bbd 4cf7 cfbc f8d4 95bd
00000170: 12ff 0f3d 2b56 7ebc 5bd6 06bd 0a26 883d
00000180: 3c4b a43c 9ba2 c2bd c550 d7bc 90e3 b7bd
00000190: d051 c3bc 3920 b73c 7851 bdbc 0d2f 36bc
000001a0: e3e3 6a3c 7a3a a23c a0c1 8bbd 7acc 5cbd
000001b0: e26c 083b b469 8f3c a1b9 563c fbb6 39bd
000001c0: 5c1c 7b3d e07c 9e3c 64a4 0dbd 4020 6cbd
000001d0: b84a 7d3d 7f44 3d3d 6cdd 273d 8c65 aabd
000001e0: e67f a2bb 5879 803d c554 a0bd 1c97 853d
000001f0: e59a 943d 996f 6abd a014 54bc 78ee 433d
00000200: 9691 983d 8b3e aabb a930 b8bb ba36 bebd
00000210: 16b3 bdbb 148f 1abd 544e 683c 35ce 2bbd
00000220: dcf1 45bd 7d59 963c bfc5 2dbc b3d9 773d
00000230: 0098 1438 8c66 153c d274 efbc 8544 89bd
00000240: 3f16 433d 5140 af3b 88a3 11bd 9615 0b3d
00000250: b0c1 853c 95b7 1abd 85a2 b73d deb0 263d
00000260: 659b 4e3d 9042 ea3c 4c5e 38bd 770b 85bc
00000270: 43b4 88bd a7ec a33d fa59 79bd 8468 3dbd
00000280: dc1a ab3d 3f34 683c 0cc4 073d 0e2e b1bd
00000290: 0b66 953d fc91 3e3d 3b7a e43c 081f 9bbd
000002a0: 79b0 38bd 8953 86bc 608a 373b dad4 ce3c
000002b0: 72cc b4bd dd75 05bd ed54 6a3d ed94 d73c
000002c0: 992c b039 ca27 643d 570a a9bc ed5a 3a3c
000002d0: d556 573d d6bc 8ebd 1ea3 563d 8fa9 93bd
000002e0: 91ed 8fbd 7841 01bd 89fd 7e3d 43b9 7b3d
000002f0: 66e4 073d 4228 ffbc f046 6fbd 8d3a 3ebd
00000300: 4af3 8d3d 95eb 9a3d bb6c 5fbd dd29 453d
00000310: 921d 21bd 4126 ae3d 3707 253c 3f49 5fbd
00000320: 7808 723d 1da4 25bd b85f 9d3d f972 30bd
00000330: b28b 5a3d c24c 353c d7d8 13bd cca3 8cbc
00000340: 9068 093d 3eab 84bc 4ed4 953d 8840 bb3c
00000350: 2a17 513c 0583 4ebd a442 95bc 7fc0 c8bc
00000360: d27f b6bc e0f0 e93c 8039 703d 7362 9cbd
00000370: 7dfb 393d cf4d d3bc c3c3 9d3c 04ee 073d
00000380: 1151 2ebd df92 a13d b31f fb3c df38 2ebc
00000390: 7c0a 9ebc 00f5 973b e64e 873d b492 8cbd
000003a0: d149 5b3d 0731 f23b de9e ae3d 3db7 903d
000003b0: 9754 913d 121d c23c caab 0c3d 070f 7e3d
000003c0: a5bf 90bd e241 6f3d 53d8 963d aa5d ac3d
000003d0: 9088 b3bd 4361 843d fa4e 0cbc d009 8fbd
000003e0: 0d7a 0ebd bd81 803d b9b3 9c3d d65b 943d
000003f0: bf5d b3bd 1ec0 31bd 6267 403d aab2 e23c

fc2.bias f4 [64]
-0.037208688 -0.007726178 -0.1406524 0.06974445 -0.019605646 0.04976606 0.10166284 0.051364437
-0.01931144 0.06973854 -0.08323627 0.052573603 0.004013063 0.033022113 -0.014266858 0.078841284
-0.03485594 0.07968118 -0.0011420896 -0.07665728 0.03771713 0.04817657 0.06721831 -0.0689916
0.006403765 0.06182187 0.014884505 -0.059976354 -0.029424598 -0.004655287 -0.05368309 0.029579598
-0.07042183 0.06819315 0.03181626 0.060408887 0.033764802 -0.041448765 -0.0066199796 -0.015873458
-0.08131815 -0.093712516 -0.034716744 0.04626156 -0.03320141 -0.09172309 -0.011348609 -0.0568189
0.01195397 -0.040120542 0.025385162 0.071061775 0.03102214 0.065330625 0.006345713 -0.050081246
-0.056261748 0.08195734 -0.004642227 0.017107785 -0.014204548 -0.08887948 -0.038358457 0.012335954
00000000: 2368 18bd e12b fdbb 2f07 10be 2ed6 8e3d
00000010: 059c a0bc 7fd7 4b3d 9b34 d03d 8463 523d
00000020: 0633 9ebc 14d3 8e3d c777 aabd 6b57 573d
00000030: 0380 833b 3242 073d 8abf 69bc 8a77 a13d
00000040: 1ac5 0ebd e32f a33d 2bb2 95ba 7efe 9cbd
00000050: 477d 1a3d cc54 453d c1a9 893d 784b 8dbd
00000060: add6 d13b ee38 7d3d 24de 733c c4a9 75bd
00000070: db0b f1bc 618b 98bb cde2 5bbd ea50 f23c
00000080: 5239 90bd daa8 8b3d c451 023d 4f6f 773d
00000090: f64c 0a3d 2ec6 29bd 6aec d8bb 0e09 82bc
000000a0: 218a a6bd 59ec bfbd 2533 0ebd c37c 3d3d
000000b0: 34fe 07bd 51d9 bbbd 84ef 39bc efba 68bd
000000c0: 96da 433c 7055 24bd 8bf4 cf3c d688 913d
000000d0: 2522 fe3c 10cc 853d b3ef cf3b fe21 4dbd
000000e0: b872 66bd 40d9 a73d d31d 98bb a025 8c3c
000000f0: 31ba 68bc 7206 b6bd c21d 1dbd be1c 4a3c

fc3.weight f4 [24, 64]
0.078454666 -0.055982377 -0.13473232 -0.1224695 0.094928265 0.16888393 0.12141607 0.103711195
-0.1841702 0.13600512 -0.09823844 0.02297673 0.061679713 -0.045895934 0.011649902 -0.047231574
-0.2443959 -0.08436613 -0.077136315 -0.11131167 0.11338191 0.004494187 0.027478935 -0.044987384
0.17906679 -0.066233166 0.14878237 0.27053475 0.17414868 -0.058660835 -0.08323745 -0.028148925
-0.4654348 0.067064755 0.07641363 -0.3611684 -0.017183686 0.1326911 -0.19375992 0.064135544
-0.10626147 0.00051563326 0.09622662 0.11662283 -0.10519796 -0.29889086 0.17482245 -0.116019346
-0.15053195 -0.06069657 0.06769258 -0.12580945 0.1557315 -0.036415346 0.118271865 0.023334173
-0.012239922 -0.014526211 -0.07317614 0.22960755 -0.17046985 -0.10817617 0.38936508 -0.19537799
-0.06663833 -0.061044466 0.1045747 0.110072844 0.08860982 0.105179906 -0.12940966 -0.06114583
0.043948025 -0.031182583 0.013297827 0.09230208 -0.058551263 -0.0375926 0.057401292 0.10541485
-0.2898985 -0.06466789 0.09092505 0.06508932 0.23147903 -0.08745398 0.029927127 0.031921018
-0.1467784 0.0076560127 -0.018172713 -0.029789371 -0.028904118 -0.071526945 0.018928198 0.36296177
0.05301409 -0.039543204 -0.10839122 -0.025802312 -0.08988853 -0.30855533 -0.1657168 0.09539022
0.030211097 0.07817234 -0.17180663 -0.09761029 0.032652754 0.30857158 -0.14795153 0.064981714
-0.12035759 -0.059523147 0.0059345597 -0.016886827 0.117957085 0.010786593 0.120508105 0.11974503
0.15802173 0.01708092 -0.07166758 -0.18259612 -0.08580391 0.07979573 -0.0207516 0.055794287
-0.0050344886 -0.06291324 -0.056526627 -0.057394974 -0.033431195 -0.12606785 -0.026069544 0.041818682
0.026884403 0.04929961 -0.11036126 0.0244478 -0.03389817 -0.11090968 -0.10749618 0.07642424
-0.05393413 0.055060346 -0.054081194 -0.15350905 0.008508318 0.102476075 -0.04472641 -0.17929131
-0.041211933 -0.058401737 -0.15201427 -0.22637238 -0.07998729 0.00016359985 -0.054966357 0.10647625
0.04272344 0.017498286 0.054095913 0.13188522 -0.105298 0.014925696 -0.19071634 0.21186446
-0.09046997 0.068393424 -0.17907539 0.20637059 0.13844687 0.04682493 0.0725467 0.06202742
0.009669584 0.10029345 -0.051162116 -0.03796926 -0.14895493 -0.10027708 0.2777206 0.14698204
-0.07399688 -0.29120347 0.035524476 -0.12194051 0.093197204 -0.061117705 0.040017348 -0.109001
-0.00042283634 -0.0039641014 -0.22555518 0.102836296 -0.012365324 0.042714376 0.008119307 0.08942477
-0.24965869 0.025277441 0.059346884 0.035623815 -0.13049802 0.030293826 0.020207042 0.03415343
-0.108779706 -0.06512199 0.09509999 -0.048778713 -0.07580237 0.01200258 0.025010621 -0.14052142
0.035635687 -0.02396725 -0.060298085 0.29877177 -0.103428826 -0.07995113 -0.046419013 -0.0021047662
0.008127051 -0.043303132 -0.00061500975 -0.081011474 -0.02554801 0.034154907 0.14545356 0.029721387
-0.0887798 -0.020922184 0.014043929 0.12260039 0.133432 0.009359554 -0.21490023 0.063479625
0.097929314 0.050870623 0.040492196 0.14034346 -0.12763266 0.03696882 -0.058277115 0.08273248
-0.0005770434 0.02663793 -0.067702465 -0.09701228 -0.052055527 -0.09967708 -0.11033814 0.045407027
00000000: d7ac a03d c74d 65bd 45f7 09be 4ad1 fabd
00000010: c069 c23d e9ef 2c3e fda8 f83d 8966 d43d
00000020: 1d97 3cbe ed44 0b3e 3c31 c9bd b239 bc3c
00000030: dea3 7c3d 60fd 3bbd 3bdf 3e3c e575 41bd
00000040: eb42 7abe 26c8 acbd a5f9 9dbd 5ff7 e3bd
00000050: c634 e83d f943 933b 811b e13c b144 38bd
00000060: 495d 373e 41a5 87bd 685a 183e 8883 8a3e
00000070: 0854 323e 5846 70bd 6578 aabd 9398 e6bc
00000080: 784d eebe 3f59 893d c07e 9c3d 11eb b8be
00000090: cdc4 8cbc 2de0 073e 0069 46be 7f59 833d
000000a0: 9d9f d9bd 902b 073a 7612 c53d f3d7 ee3d
000000b0: 0772 d7bd 3908 99be a804 333e 8d9b edbd
000000c0: 0c25 1abe f79c 78bd 68a2 8a3d 31d4 00be
000000d0: 1478 1f3e 4228 15bd 8538 f23d 4f27 bf3c
000000e0: f489 48bc 58ff 6dbc 5fdd 95bd 3e1e 6b3e
000000f0: a68f 2ebe 788b ddbd dc5a c73e 2b11 48be
00000100: ad79 88bd c309 7abd 432b d63d df6d e13d
00000110: 1179 b53d 9068 d73d f783 04be 0d74 7abd
00000120: d802 343d 9e72 ffbc 21df 593c df08 bd3d
00000130: 73d3 6fbd b3fa 19bd 9e1d 6b3d bee3 d73d
00000140: 946d 94be 9970 84bd ea36 ba3d 8d4d 853d
00000150: d708 6d3e 131b b3bd bc29 f53c 9dbf 023d
00000160: 144d 16be 4adf fa3b f1de 94bc d708 f4bc
00000170: 54c8 ecbc b87c 92bd 4f0f 9b3c 20d6 b93e
00000180: 4d25 593d 0ef8 21bd 37fc ddbd 5f5f d3bc
00000190: 7a17 b8bd f7fa 9dbe aab1 29be f35b c33d
000001a0: 437d f73c d218 a03d 14ee 2fbe e7e7 c7bd
000001b0: e5be 053d 18fd 9d3e 9b80 17be 2215 853d
000001c0: 0a7e f6bd 8bce 73bd b276 c23b 3e56 8abc
000001d0: 7c93 f13d 40ba 303c f4cc f63d e23c f53d
000001e0: 73d0 213e 49ed 8b3c 74c6 92bd 7afa 3abe
000001f0: f6b9 afbd f26b a33d 42ff a9bc 8d88 643d
00000200: 5af8 a4bb a8d8 80bd 7788 67bd fe16 6bbd
00000210: 26ef 08bd ee17 01be cc8f d5bc 114a 2b3d
00000220: ae3c dc3c 63ee 493d 1605 e2bd c146 c83c
00000230: cfd8 0abd 9d24 e3bd f526 dcbd 5084 9c3d
00000240: 09ea 5cbd f586 613d 3e84 5dbd 7a31 1dbe
00000250: 7966 0b3c fade d13d 0a33 37bd 2498 37be
00000260: d8cd 28bd a936 6fbd a1a9 1bbe 29ce 67be
00000270: 60d0 a3bd 008c 2b39 6724 61bd 3810 da3d
00000280: c6fe 2e3d 9158 8f3c ad93 5d3d eb0c 073e
00000290: 7aa6 d7bd e88a 743c 254b 43be fff2 583e
000002a0: 5248 b9bd da11 8c3d 8a5f 37be d052 533e
000002b0: 04c5 0d3e 7fcb 3f3d 5d93 943d 7710 7e3d
000002c0: 2d6d 1e3c a766 cd3d 5e8f 51bd a885 1bbd
000002d0: a487 18be 125e cdbd 6531 8e3e 7682 163e
000002e0: ad8b 97bd 9f18 95be 1d82 113d f2bb f9bd
000002f0: 2dde be3d 8f56 7abd 3be9 233d eb3b dfbd
00000300: 22b0 ddb9 4be5 81bb f0f7 66be d69b d23d
00000310: ee97 4abc 45f5 2e3d d806 053c 5524 b73d
00000320: 87a6 7fbe a312 cf3c b815 733d 47ea 113d
00000330: 46a1 05be c22a f83c 3d89 a53c 78e4 0b3d
00000340: e5c7 debd ae5e 85bd c9c3 c23d 30cc 47bd
00000350: 463e 9bbd 78a6 443c 13e3 cc3c d9e4 0fbe
00000360: baf6 113d f756 c4bc 20fb 76bd 9df8 983e
00000370: 7ed2 d3bd 6bbd a3bd dd21 3ebd 1ef0 09bb
00000380: 5327 053c a05e 31bd 9b38 21ba 58e9 a5bd
00000390: 0f4a d1bc 04e6 0b3d c7f1 143e 447a f33c
000003a0: 2fd2 b5bd 0065 abbc 8218 663c ea15 fb3d
000003b0: 66a2 083e d158 193c ce0e 5cbe 9b01 823d
000003c0: 2a8f c83d b75d 503d 25db 253d 32b6 0f3e
000003d0: 23b2 02be 9e6c 173d fcb3 6ebd a56f a93d
000003e0: ba44 17ba ca37 da3c 97a7 8abd 60ae c6bd
000003f0: 2d38 55bd 7f23 ccbd f6f8 e1bd b8fc 393d

fc3.bias f4 [24]
-0.114402235 0.012524891 0.06967905 -0.049278665 0.019507779 -0.060796857 0.015193456 -0.09109024
0.189365 0.050319653 0.088884644 0.009459618 0.11680177 -0.06322234 -0.057288595 0.0116672665
-0.08043984 0.13001853 0.0087219095 0.029746713 0.050185192 -0.027090348 -0.055454265 -0.08556354
00000000: b84b eabd 3335 4d3c e4b3 8e3d 6dd8 49bd
00000010: c7ce 9f3c 2006 79bd f9ed 783c 858d babd
00000020: e6e8 413e fb1b 4e3d 2709 b63d 83fc 1a3c
00000030: c435 ef3d b77a 81bd 72a7 6abd 1028 3f3c
00000040: a5bd a4bd 9423 053e 57e6 0e3c 61af f33c
00000050: fd8e 4d3d 94ec ddbc 0324 63bd f03b afbd

exp_avg f4 [128, 240]
6e-45 6e-45 6e-45 6e-45 6e-45 6e-45 6e-45 6e-45
6e-45 6e-45 6e-45 6e-45 6e-45 6e-45 6e-45 6e-45
6e-45 6e-45 6e-45 6e-45 -6e-45 6e-45 6e-45 6e-45
6e-45 6e-45 6e-45 6e-45 6e-45 6e-45 6e-45 6e-45
6e-45 6e-45 6e-45 6e-45 6e-45 6e-45 6e-45 6e-45
-6e-45 -6e-45 -6e-45 -6e-45 -6e-45 -6e-45 -6e-45 -6e-45
-6e-45 -6e-45 6e-45 6e-45 6e-45 6e-45 6e-45 6e-45
6e-45 6e-45 6e-45 6e-45 6e-45 6e-45 6e-45 6e-45
6e-45 6e-45 6e-45 6e-45 6e-45 6e-45 6e-45 6e-45
6e-45 6e-45 6e-45 6e-45 6e-45 6e-45 6e-45 6e-45
6e-45 6e-45 6e-45 6e-45 6e-45 6e-45 6e-45 -6e-45
6e-45 -6e-45 6e-45 6e-45 6e-45 6e-45 6e-45 6e-45
6e-45 6e-45 6e-45 6e-45 6e-45 6e-45 6e-45 6e-45
6e-45 6e-45 6e-45 6e-45 6e-45 6e-45 6e-45 6e-45
6e-45 6e-45 6e-45 6e-45 6e-45 6e-45 6e-45 6e-45
6e-45 6e-45 6e-45 6e-45 6e-45 6e-45 6e-45 6e-45
6e-45 6e-45 6e-45 6e-45 6e-45 6e-45 6e-45 6e-45
6e-45 6e-45 6e-45 6e-45 6e-45 6e-45 6e-45 6e-45
6e-45 6e-45 6e-45 6e-45 6e-45 6e-45 6e-45 6e-45
6e-45 6e-45 6e-45 6e-45 6e-45 6e-45 6e-45 6e-45
6e-45 6e-45 6e-45 6e-45 6e-45 6e-45 6e-45 6e-45
6e-45 6e-45 6e-45 6e-45 6e-45 6e-45 6e-45 6e-45
6e-45 6e-45 6e-45 6e-45 6e-45 6e-45 6e-45 6e-45
6e-45 6e-45 6e-45 6e-45 6e-45 6e-45 6e-45 6e-45
6e-45 6e-45 6e-45 6e-45 6e-45 6e-45 6e-45 6e-45
6e-45 6e-45 6e-45 6e-45 6e-45 6e-45 6e-45 6e-45
6e-45 6e-45 6e-45 6e-45 6e-45 6e-45 6e-45 6e-45
6e-45 6e-45 6e-45 6e-45 6e-45 6e-45 6e-45 6e-45
6e-45 6e-45 6e-45 6e-45 6e-45 6e-45 6e-45 6e-45
6e-45 6e-45 6e-45 6e-45 6e-45 6e-45 6e-45 6e-45
6e-45 6e-45 6e-45 6e-45 6e-45 6e-45 6e-45 6e-45
6e-45 6e-45 6e-45 6e-45 6e-45 6e-45 6e-45 6e-45
00000000: 0400 0000 0400 0000 0400 0000 0400 0000
00000010: 0400 0000 0400 0000 0400 0000 0400 0000
00000020: 0400 0000 0400 0000 0400 0000 0400 0000
00000030: 0400 0000 0400 0000 0400 0000 0400 0000
00000040: 0400 0000 0400 0000 0400 0000 0400 0000
00000050: 0400 0080 0400 0000 0400 0000 0400 0000
00000060: 0400 0000 0400 0000 0400 0000 0400 0000
00000070: 0400 0000 0400 0000 0400 0000 0400 0000
00000080: 0400 0000 0400 0000 0400 0000 0400 0000
00000090: 0400 0000 0400 0000 0400 0000 0400 0000
000000a0: 0400 0080 0400 0080 0400 0080 0400 0080
000000b0: 0400 0080 0400 0080 0400 0080 0400 0080
000000c0: 0400 0080 0400 0080 0400 0000 0400 0000
000000d0: 0400 0000 0400 0000 0400 0000 0400 0000
000000e0: 0400 0000 0400 0000 0400 0000 0400 0000
000000f0: 0400 0000 0400 0000 0400 0000 0400 0000
00000100: 0400 0000 0400 0000 0400 0000 0400 0000
00000110: 0400 0000 0400 0000 0400 0000 0400 0000
00000120: 0400 0000 0400 0000 0400 0000 0400 0000
00000130: 0400 0000 0400 0000 0400 0000 0400 0000
00000140: 0400 0000 0400 0000 0400 0000 0400 0000
00000150: 0400 0000 0400 0000 0400 0000 0400 0080
00000160: 0400 0000 0400 0080 0400 0000 0400 0000
00000170: 0400 0000 0400 0000 0400 0000 0400 0000
00000180: 0400 0000 0400 0000 0400 0000 0400 0000
00000190: 0400 0000 0400 0000 0400 0000 0400 0000
000001a0: 0400 0000 0400 0000 0400 0000 0400 0000
000001b0: 0400 0000 0400 0000 0400 0000 0400 0000
000001c0: 0400 0000 0400 0000 0400 0000 0400 0000
000001d0: 0400 0000 0400 0000 0400 0000 0400 0000
000001e0: 0400 0000 0400 0000 0400 0000 0400 0000
000001f0: 0400 0000 0400 0000 0400 0000 0400 0000
00000200: 0400 0000 0400 0000 0400 0000 0400 0000
00000210: 0400 0000 0400 0000 0400 0000 0400 0000
00000220: 0400 0000 0400 0000 0400 0000 0400 0000
00000230: 0400 0000 0400 0000 0400 0000 0400 0000
00000240: 0400 0000 0400 0000 0400 0000 0400 0000
00000250: 0400 0000 0400 0000 0400 0000 0400 0000
00000260: 0400 0000 0400 0000 0400 0000 0400 0000
00000270: 0400 0000 0400 0000 0400 0000 0400 0000
00000280: 0400 0000 0400 0000 0400 0000 0400 0000
00000290: 0400 0000 0400 0000 0400 0000 0400 0000
000002a0: 0400 0000 0400 0000 0400 0000 0400 0000
000002b0: 0400 0000 0400 0000 0400 0000 0400 0000
000002c0: 0400 0000 0400 0000 0400 0000 0400 0000
000002d0: 0400 0000 0400 0000 0400 0000 0400 0000
000002e0: 0400 0000 0400 0000 0400 0000 0400 0000
000002f0: 0400 0000 0400 0000 0400 0000 0400 0000
00000300: 0400 0000 0400 0000 0400 0000 0400 0000
00000310: 0400 0000 0400 0000 0400 0000 0400 0000
00000320: 0400 0000 0400 0000 0400 0000 0400 0000
00000330: 0400 0000 0400 0000 0400 0000 0400 0000
00000340: 0400 0000 0400 0000 0400 0000 0400 0000
00000350: 0400 0000 0400 0000 0400 0000 0400 0000
00000360: 0400 0000 0400 0000 0400 0000 0400 0000
00000370: 0400 0000 0400 0000 0400 0000 0400 0000
00000380: 0400 0000 0400 0000 0400 0000 0400 0000
00000390: 0400 0000 0400 0000 0400 0000 0400 0000
000003a0: 0400 0000 0400 0000 0400 0000 0400 0000
000003b0: 0400 0000 0400 0000 0400 0000 0400 0000
000003c0: 0400 0000 0400 0000 0400 0000 0400 0000
000003d0: 0400 0000 0400 0000 0400 0000 0400 0000
000003e0: 0400 0000 0400 0000 0400 0000 0400 0000
000003f0: 0400 0000 0400 0000 0400 0000 0400 0000

exp_avg_sq f4 [128, 240]
1.0572581e-06 9.5104616e-07 9.0761745e-07 9.3795273e-07 9.4004884e-07 8.9081095e-07 8.7107094e-07 8.56637e-07
8.56637e-07 8.449343e-07 1.1293112e-06 2.0945165e-06 2.103109e-06 2.0888256e-06 2.148828e-06 2.07816e-06
2.0478442e-06 1.995593e-06 2.0845443e-06 1.9105617e-06 4.8438725e-10 3.634399e-08 4.1240945e-08 4.352889e-08
5.2657533e-08 5.661474e-08 5.3897313e-08 5.3897313e-08 5.790644e-08 5.9304064e-08 1.3772453e-07 1.1665938e-07
1.1504919e-07 1.09804226e-07 9.600288e-08 1.5302047e-07 1.4853441e-07 1.5425488e-07 1.5425488e-07 2.3308664e-07
1.481133e-09 3.1544725e-09 1.2916673e-09 1.2321193e-09 1.5931119e-09 1.0619282e-09 9.877877e-10 8.952389e-10
1.2275713e-09 1.8336909e-09 1.0494215e-07 9.1893114e-08 8.411078e-08 6.0526986e-08 6.047567e-08 6.6147955e-08
8.718353e-08 1.3551289e-07 1.4639564e-07 1.4467882e-07 8.646562e-08 6.112695e-08 7.3154744e-08 8.073212e-08
1.00289206e-07 1.2293319e-07 1.18845854e-07 1.2317571e-07 1.362814e-07 1.5623928e-07 3.1835313e-07 2.8789552e-07
2.7568083e-07 2.808495e-07 2.7761843e-07 2.878417e-07 2.8783356e-07 2.7914916e-07 3.1046878e-07 3.2029453e-07
5.6959735e-08 5.7788967e-08 1.5110347e-08 1.8017404e-08 1.35413725e-08 1.336308e-08 8.533755e-09 9.0882546e-10
1.8231384e-09 9.290962e-10 2.438765e-07 2.3188589e-07 2.2954237e-07 2.483863e-07 2.3920967e-07 2.5105012e-07
2.4590474e-07 2.5358506e-07 2.50106e-07 2.633178e-07 3.613095e-07 3.0471531e-07 3.0847968e-07 2.9946767e-07
2.6729026e-07 2.6218032e-07 2.801579e-07 2.6379755e-07 2.597467e-07 2.3177225e-07 3.166145e-07 2.806666e-07
3.0470403e-07 3.0556626e-07 3.179176e-07 3.0107213e-07 2.2244608e-07 1.9597287e-07 1.9890673e-07 2.0236303e-07
9.204954e-08 9.532797e-08 1.17496306e-07 1.03258905e-07 1.0828546e-07 1.2045577e-07 1.2031244e-07 1.2583122e-07
1.272783e-07 1.2363151e-07 5.7639176e-07 4.825661e-07 4.685824e-07 3.851993e-07 4.2730468e-07 2.342867e-07
1.7194635e-07 3.8944987e-07 3.7963758e-07 3.6940142e-07 4.0045464e-07 3.3328655e-07 2.9021442e-07 2.9038114e-07
3.0185572e-07 3.1759734e-07 3.7844453e-07 3.5645078e-07 3.9762614e-07 3.8965598e-07 1.1218458e-06 1.0667327e-06
1.0660506e-06 1.0386933e-06 1.0182788e-06 1.0003222e-06 1.012728e-06 9.961947e-07 7.08157e-07 7.334668e-07
1.5202378e-06 1.4915865e-06 1.5377548e-06 1.4436717e-06 1.3939845e-06 1.6153974e-06 1.8686547e-06 1.7684497e-06
1.816443e-06 1.7523238e-06 1.0654506e-06 1.05518e-06 1.121594e-06 1.0817535e-06 1.1171458e-06 1.1067297e-06
1.1219752e-06 1.0787924e-06 1.2239979e-06 1.2354973e-06 1.3265621e-06 1.2926313e-06 1.2549822e-06 1.2252823e-06
1.1954994e-06 1.2036987e-06 1.1215695e-06 1.0699264e-06 1.0923904e-06 1.0795419e-06 7.9406635e-07 8.444936e-07
8.9028464e-07 8.742394e-07 8.371085e-07 9.638597e-07 1.3033213e-06 1.2914077e-06 1.3212847e-06 1.3321803e-06
4.981724e-07 4.7232535e-07 4.8512743e-07 7.2126795e-07 7.414588e-07 7.414588e-07 7.562526e-07 7.344441e-07
7.138391e-07 7.063446e-07 1.1637168e-06 1.1195706e-06 1.1258192e-06 1.1258192e-06 1.132452e-06 1.169559e-06
1.138393e-06 1.1071015e-06 1.1038198e-06 1.1038198e-06 2.014499e-06 2.014499e-06 2.014499e-06 2.014499e-06
2.014499e-06 2.014499e-06 2.014499e-06 2.014499e-06 2.014499e-06 2.014499e-06 2.014499e-06 2.014499e-06
2.014499e-06 2.014499e-06 2.014499e-06 2.014499e-06 2.014499e-06 2.014499e-06 2.014499e-06 2.014499e-06
1.795376e-05 1.8592993e-05 1.8942252e-05 1.9008678e-05 1.8959827e-05 1.8994775e-05 1.895782e-05 1.8959206e-05
1.8875626e-05 1.8171328e-05 2.1972768e-05 2.5076964e-05 2.6429892e-05 2.6325586e-05 2.6446964e-05 2.7236412e-05
00000000: 1de7 8d35 654b 7f35 ffa2 7335 9fc7 7b35
00000010: aa57 7c35 1020 6f35 8ad3 6935 a5f3 6535
00000020: a5f3 6535 71cf 6235 d692 9735 858f 0c36
00000030: 2323 0d36 c02d 0c36 9534 1036 8476 0b36
00000040: b26d 0936 07ec 0536 33e4 0b36 3337 0036
00000050: b925 0530 a418 1c33 e620 3133 85f4 3a33
00000060: 9229 6233 9128 7333 b97c 6733 b97c 6733
00000070: ceb4 7833 82b5 7e33 6ee1 1334 2c86 fa33
00000080: f610 f733 83cd eb33 242a ce33 f24d 2434
00000090: d47c 1f34 42a1 2534 42a1 2534 5e46 7a34
000000a0: bc90 cb30 11c6 5831 8186 b130 5857 a930
000000b0: a4f4 da30 47f3 9130 b1c2 8730 d614 7630
000000c0: 53b7 a830 4305 fc30 8f5c e133 c656 c533
000000d0: 64a0 b433 10fb 8133 dade 8133 390d 8e33
000000e0: a739 bb33 8081 1134 ed30 1d34 0359 1b34
000000f0: faae b933 e544 8333 3f19 9d33 f45e ad33
00000100: 935e d733 9eff 0334 3338 ff33 4842 0434
00000110: bf54 1234 bac2 2734 1fea aa34 0f90 9a34
00000120: 4901 9434 a9c7 9634 960b 9534 a988 9a34
00000130: 8b87 9a34 f8dd 9534 81ae a634 f2f4 ab34
00000140: e4a3 7433 a433 7833 01cc 8132 b1c4 9a32
00000150: 96a3 6832 7393 6532 da9b 1232 e8d0 7930
00000160: fb91 fa30 5563 7f30 22ee 8234 4ffc 7834
00000170: 2078 7634 f459 8534 ba6c 8034 11c8 8634
00000180: e404 8434 7724 8834 4f46 8634 1f5e 8d34
00000190: 00fa c134 c197 a334 209d a534 86c6 a034
000001a0: 1880 8f34 cac1 8c34 9c68 9634 0fa0 8d34
000001b0: 5173 8b34 12dd 7834 2afb a934 86ae 9634
000001c0: 3496 a334 b50c a434 43ae aa34 0aa3 a134
000001d0: 83d9 6e34 9d6c 5234 1193 5534 2049 5934
000001e0: c5ac c533 1bb7 cc33 4752 fc33 2fbf dd33
000001f0: 908a e833 a156 0134 3b2f 0134 391c 0734
00000200: fea9 0834 92bf 0434 57b9 1a35 b189 0135
00000210: 7a91 fb34 63cd ce34 4f68 e534 3d90 7b34
00000220: 41a0 3834 9515 d134 fed0 cb34 2552 c634
00000230: 11fe d634 8eee b234 c4ce 9b34 aee5 9b34
00000240: bc0e a234 3f82 aa34 052d cb34 395e bf34
00000250: 5279 d534 e931 d134 5492 9635 a82c 8f35
00000260: 3815 8f35 3b69 8b35 cbab 8835 cf42 8635
00000270: 12ed 8735 fdb4 8535 2e18 3e35 74e3 4435
00000280: f90a cc35 8632 c835 da64 ce35 2fc4 c135
00000290: f118 bb35 a2d0 d835 7dce fa35 785b ed35
000002a0: 82cc f335 6331 eb35 9b00 8f35 b59f 8d35
000002b0: ad89 9635 c430 9135 d6f0 9535 f18a 9435
000002c0: c696 9635 06cb 9035 3f48 a435 5dd3 a535
000002d0: 540c b235 797e ad35 dc70 a835 6174 a435
000002e0: 0c75 a035 c68e a135 d688 9635 649a 8f35
000002f0: 409e 9235 c7e4 9035 d327 5535 29b1 6235
00000300: e5fb 6e35 46ad 6a35 a8b5 6035 f85d 8135
00000310: c7ed ae35 6e54 ad35 ff56 b135 5ecd b235
00000320: 26ba 0535 e793 fd34 b439 0235 289d 4135
00000330: a908 4735 a908 4735 4801 4b35 9d26 4535
00000340: a69e 3f35 a29b 3d35 0131 9c35 2744 9635
00000350: da1a 9735 da1a 9735 c1fe 9735 bef9 9c35
00000360: e3ca 9835 b897 9435 f626 9435 f626 9435
00000370: d430 0736 d430 0736 d430 0736 d430 0736
00000380: d430 0736 d430 0736 d430 0736 d430 0736
00000390: d430 0736 d430 0736 d430 0736 d430 0736
000003a0: d430 0736 d430 0736 d430 0736 d430 0736
000003b0: d430 0736 d430 0736 d430 0736 d430 0736
000003c0: 689b 9637 26f8 9b37 2de6 9e37 d374 9f37
000003d0: eb0b 9f37 f856 9f37 9c07 9f37 960a 9f37
000003e0: 1957 9e37 a16e 9837 2952 b837 5f5c d237
000003f0: c3b5 dd37 c4d5 dc37 6cda dd37 c079 e437

exp_avg f4 [128]
6e-45 6e-45 6e-45 6e-45 6e-45 6.2497216e-05 6e-45 -0.00015741102
0.00017938873 -0.00025532604 6e-45 -7.151141e-05 6e-45 6e-45 6e-45 6e-45
0.00019780592 6e-45 -9.712031e-05 6e-45 0.0 6e-45 6e-45 1.0129898e-05
6e-45 0.0 6e-45 6e-45 6e-45 6e-45 6e-45 0.0001274137
6e-45 6e-45 0.0 0.00052033254 0.0 6e-45 6e-45 6e-45
0.0002505553 6e-45 0.0 6e-45 0.0 6e-45 6e-45 -3.9712555e-05
6e-45 6e-45 6e-45 6e-45 6e-45 0.0 0.0 -0.0002435606
6e-45 0.0 6e-45 -0.0002150546 6e-45 6e-45 -0.00014984564 6e-45
6e-45 0.0 0.0 6e-45 0.0 0.0 6e-45 6e-45
6e-45 6e-45 6e-45 6e-45 0.0 6e-45 3.427123e-05 -3.863407e-05
6e-45 6e-45 6e-45 6e-45 6e-45 5.9604994e-05 0.0 -0.00015237484
6e-45 0.0 6e-45 6e-45 -3.4978293e-06 -2.0543739e-05 6e-45 4.0895146e-05
0.0 -0.00016040647 6e-45 6e-45 6e-45 6e-45 6e-45 6e-45
6e-45 -0.000116702635 6e-45 6e-45 5.8946796e-07 6e-45 -3.9575512e-05 6e-45
-2.8501647e-05 0.0 6e-45 6e-45 0.00011873555 6e-45 0.00012078788 6e-45
6e-45 6e-45 6e-45 6e-45 0.0 6e-45 0.0 6e-45
00000000: 0400 0000 0400 0000 0400 0000 0400 0000
00000010: 0400 0000 f010 8338 0400 0000 b30e 25b9
00000020: 4c1a 3c39 48dd 85b9 0400 0000 65f8 95b8
00000030: 0400 0000 0400 0000 0400 0000 0400 0000
00000040: 1f6a 4f39 0400 0000 12ad cbb8 0400 0000
00000050: 0000 0000 0400 0000 0400 0000 95f3 2937
00000060: 0400 0000 0000 0000 0400 0000 0400 0000
00000070: 0400 0000 0400 0000 0400 0000 5b9a 0539
00000080: 0400 0000 0400 0000 0000 0000 ed66 083a
00000090: 0000 0000 0400 0000 0400 0000 0400 0000
000000a0: f75c 8339 0400 0000 0000 0000 0400 0000
000000b0: 0000 0000 0400 0000 0400 0000 0891 26b8
000000c0: 0400 0000 0400 0000 0400 0000 0400 0000
000000d0: 0400 0000 0000 0000 0000 0000 4d64 7fb9
000000e0: 0400 0000 0000 0000 0400 0000 4880 61b9
000000f0: 0400 0000 0400 0000 e21f 1db9 0400 0000
00000100: 0400 0000 0000 0000 0000 0000 0400 0000
00000110: 0000 0000 0000 0000 0400 0000 0400 0000
00000120: 0400 0000 0400 0000 0400 0000 0400 0000
00000130: 0000 0000 0400 0000 74be 0f38 040b 22b8
00000140: 0400 0000 0400 0000 0400 0000 0400 0000
00000150: 0400 0000 6000 7a38 0000 0000 cfc6 1fb9
00000160: 0400 0000 0000 0000 0400 0000 0400 0000
00000170: 40bc 6ab6 5855 acb7 0400 0000 d486 2b38
00000180: 0000 0000 c932 28b9 0400 0000 0400 0000
00000190: 0400 0000 0400 0000 0400 0000 0400 0000
000001a0: 0400 0000 40be f4b8 0400 0000 0400 0000
000001b0: ee3b 1e35 0400 0000 e2fd 25b8 0400 0000
000001c0: d216 efb7 0000 0000 0400 0000 0400 0000
000001d0: aa01 f938 0400 0000 804f fd38 0400 0000
000001e0: 0400 0000 0400 0000 0400 0000 0400 0000
000001f0: 0000 0000 0400 0000 0000 0000 0400 0000

exp_avg_sq f4 [128]
3.223197e-09 3.3229304e-07 1.573922e-08 5.9913013e-10 3.1512642e-10 5.2509386e-06 7.668827e-08 2.7248116e-06
3.7460852e-06 2.167639e-06 9.605329e-10 4.8530082e-06 4.441214e-10 5.3137614e-09 2.1983135e-07 6.888929e-08
3.0433707e-06 1.5478127e-10 3.2920059e-06 2.7788674e-11 0.0 9.753466e-11 1.3796658e-09 4.999027e-07
5.839147e-08 0.0 2.8165754e-11 4.4236814e-09 2.6862105e-07 1.3731244e-08 2.2956677e-09 1.0159109e-06
1.3234799e-09 6.367603e-10 0.0 2.9337125e-06 0.0 1.9956487e-12 1.6420008e-10 1.0000314e-10
2.857159e-06 5.145406e-08 0.0 1.3993815e-12 0.0 2.6199618e-08 3.0707152e-09 3.544114e-06
1.981378e-09 6.7874135e-13 8.887649e-08 6.2508896e-08 2.7938076e-09 0.0 0.0 3.4848524e-06
2.1465658e-08 0.0 8.212829e-08 1.1774589e-06 7.856212e-10 2.0086494e-08 3.4756092e-06 1.048989e-08
1.1959852e-08 0.0 0.0 3.3019642e-08 0.0 0.0 2.9495943e-08 1.2293788e-09
1.1395329e-08 1.7730528e-09 5.9898274e-11 9.525472e-11 0.0 1.4596259e-07 4.132414e-06 3.2220582e-06
5.9445913e-11 1.163846e-10 2.6119615e-10 7.5620854e-08 2.9789997e-09 3.263325e-06 0.0 2.4256353e-06
6.402631e-08 0.0 1.1669991e-10 2.5000068e-07 2.519105e-06 4.007832e-06 4.434788e-08 4.3336763e-06
0.0 7.3204654e-07 7.0813962e-12 4.4342666e-08 1.7982774e-07 3.0012966e-08 9.4036605e-11 2.969217e-07
6.265096e-08 4.9423256e-06 4.6499643e-08 2.6138427e-08 5.683374e-07 4.609699e-10 1.3272002e-07 1.01223865e-08
2.8215135e-07 0.0 9.073478e-09 5.562654e-09 2.367057e-07 2.9993622e-11 2.6061095e-06 1.0397663e-10
1.7409694e-09 1.2556774e-07 2.1340674e-07 1.5087676e-07 0.0 6.627196e-09 0.0 3.978394e-08
00000000: 157f 5d31 0266 b234 e932 8732 09b0 2430
00000010: 1a3e ad2f 3831 b036 d3af a433 e8db 3636
00000020: 4165 7b36 c177 1136 bf03 8430 06d7 a236
00000030: 8828 f42f 5794 b631 c80a 6c34 4af0 9333
00000040: b63c 4c36 0e2f 2a2f 3bec 5c36 886e f42d
00000050: 0000 0000 227b d62e ad9e bd30 0d31 0635
00000060: 1aca 7a33 0000 0000 a4bf f72d 1dff 9731
00000070: ff36 9034 a6e6 6b32 d0c1 1d31 6f5a 8835
00000080: cfe5 b530 0608 2f30 0000 0000 cce0 4436
00000090: 0000 0000 696e 0c2c 378a 342f c3e8 db2e
000000a0: 9ebd 3f36 56fe 5c33 0000 0000 08f2 c42b
000000b0: 0000 0000 920d e132 9804 5331 6ad7 6d36
000000c0: c528 0831 780c 3f2b 5edc be33 a13c 8633
000000d0: 2ffd 3f31 0000 0000 0000 0000 4fdd 6936
000000e0: 7b63 b832 0000 0000 815e b033 2e09 9e35
000000f0: 2df3 5730 ab8a ac32 833e 6936 0637 3432
00000100: fc77 4d32 0000 0000 0000 0000 7bd1 0d33
00000110: 0000 0000 0000 0000 445e fd32 ecf6 a830
00000120: 30c5 4332 c0af f330 bbb7 832e a477 d12e
00000130: 0000 0000 e4b9 1c34 2aa9 8a36 8a3a 5836
00000140: 13b9 822e b5ee ff2e 1798 8f2f 0165 a233
00000150: 1eb7 4c31 7fff 5a36 0000 0000 19c8 2236
00000160: d67e 8933 0000 0000 1b50 002f d537 8634
00000170: e50d 2936 047b 8636 0279 3e33 ff69 9136
00000180: 0000 0000 db81 4435 8c27 f92c 4773 3e33
00000190: ac16 4134 9be7 0033 e7c9 ce2e 9c68 9f34
000001a0: bb8a 8633 41d6 a536 e6b6 4733 0287 e032
000001b0: d98f 1835 bf6b fd2f cd81 0e34 bae6 2d32
000001c0: 967a 9734 0000 0000 94e1 1b32 9f21 bf31
000001d0: 2b29 7e34 d1e9 032e 9fe4 2e36 a4a5 e42e
000001e0: ea46 ef30 ccd3 0634 cc24 6534 b000 2234
000001f0: 0000 0000 6fb5 e331 0000 0000 e8de 2a33

exp_avg f4 [64, 128]
6e-45 6e-45 6e-45 6e-45 6e-45 1.8440269e-19 6e-45 6e-45
3.929358e-20 2.7708573e-19 6e-45 -6e-45 0.0 6e-45 6e-45 6e-45
6e-45 6e-45 1.0619032e-18 0.0 0.0 0.0 6e-45 6e-45
6e-45 0.0 6e-45 6e-45 6e-45 6e-45 6e-45 1.0558813e-18
6e-45 6e-45 0.0 1.1405577e-19 0.0 0.0 6e-45 6e-45
5.0818983e-19 6e-45 0.0 6e-45 0.0 6e-45 6e-45 1.0686614e-18
6e-45 6e-45 6e-45 6e-45 -6e-45 0.0 0.0 9.962117e-19
6e-45 0.0 6e-45 3.8003676e-19 6e-45 6e-45 3.49284e-19 6e-45
6e-45 0.0 0.0 6e-45 0.0 0.0 6e-45 6e-45
6e-45 6e-45 6e-45 6e-45 0.0 6e-45 1.7438533e-18 1.1941575e-18
0.0 6e-45 6e-45 6e-45 6e-45 1.0741723e-18 0.0 3.4357402e-19
6e-45 0.0 6e-45 6e-45 2.9717885e-19 5.4169e-19 6e-45 8.1870237e-19
0.0 6e-45 6e-45 6e-45 6e-45 6e-45 6e-45 6e-45
6e-45 6.654919e-19 6e-45 6e-45 5.430505e-19 6e-45 6e-45 6e-45
6e-45 0.0 6e-45 6e-45 6e-45 6e-45 7.908833e-19 6e-45
6e-45 6e-45 6e-45 6e-45 0.0 6e-45 0.0 6e-45
-6e-45 -6e-45 -6e-45 6e-45 -6e-45 6.4236264e-07 -6e-45 -4.3997e-06
-7.990121e-07 -2.9964406e-06 -6e-45 -4.9089945e-06 0.0 -6e-45 -6e-45 6e-45
-6.2284664e-07 6e-45 -9.25291e-07 0.0 0.0 -6e-45 -6e-45 -6e-45
-6e-45 0.0 -6e-45 -6e-45 -6e-45 -6e-45 -6e-45 -2.8187694e-07
-6e-45 -6e-45 0.0 4.676819e-07 0.0 6e-45 -6e-45 6e-45
-3.5518087e-07 -6e-45 0.0 -6e-45 0.0 6e-45 -6e-45 6e-45
-6e-45 0.0 -6e-45 -6e-45 6e-45 0.0 0.0 -3.3410645e-06
6e-45 0.0 6e-45 6e-45 -6e-45 6e-45 -6.876604e-07 -6e-45
6e-45 0.0 0.0 6e-45 0.0 0.0 6e-45 6e-45
-6e-45 -6e-45 -6e-45 -6e-45 0.0 -6e-45 6e-45 -2.776364e-07
0.0 6e-45 -6e-45 -6e-45 -6e-45 -2.3793959e-07 0.0 6.698079e-07
-6e-45 0.0 -6e-45 -6e-45 8.798439e-07 -2.8123595e-06 6e-45 -1.3582377e-06
0.0 -2.6480022e-06 6e-45 -6e-45 -6e-45 6e-45 -6e-45 -6e-45
6e-45 -1.6470356e-06 -6e-45 6e-45 -6e-45 -6e-45 6e-45 -6e-45
6e-45 0.0 6e-45 -6e-45 6e-45 6e-45 1.3257596e-07 -6e-45
-6e-45 -6e-45 6e-45 -6e-45 0.0 -6e-45 0.0 -6e-45
00000000: 0400 0000 0400 0000 0400 0000 0400 0000
00000010: 0400 0000 4bb4 5920 0400 0000 0400 0000
00000020: 068f 391f 0390 a320 0400 0000 0400 0080
00000030: 0000 0000 0400 0000 0400 0000 0400 0000
00000040: 0400 0000 0400 0000 92b5 9c21 0000 0000
00000050: 0000 0000 0000 0000 0400 0000 0400 0000
00000060: 0400 0000 0000 0000 0400 0000 0400 0000
00000070: 0400 0000 0400 0000 0400 0000 11d2 9b21
00000080: 0400 0000 0400 0000 0000 0000 3ea7 0620
00000090: 0000 0000 0000 0000 0400 0000 0400 0000
000000a0: bdfd 1521 0400 0000 0000 0000 0400 0000
000000b0: 0000 0000 0400 0000 0400 0000 e3b4 9d21
000000c0: 0400 0000 0400 0000 0400 0000 0400 0000
000000d0: 0400 0080 0000 0000 0000 0000 d003 9321
000000e0: 0400 0000 0000 0000 0400 0000 8855 e020
000000f0: 0400 0000 0400 0000 4e2e ce20 0400 0000
00000100: 0400 0000 0000 0000 0000 0000 0400 0000
00000110: 0000 0000 0000 0000 0400 0000 0400 0000
00000120: 0400 0000 0400 0000 0400 0000 0400 0000
00000130: 0000 0000 0400 0000 75ac 0022 ff39 b021
00000140: 0000 0000 0400 0000 0400 0000 0400 0000
00000150: 0400 0000 1585 9e21 0000 0000 70cf ca20
00000160: 0400 0000 0000 0000 0400 0000 0400 0000
00000170: 666c af20 f0e0 1f21 0400 0000 67a3 7121
00000180: 0000 0000 0400 0000 0400 0000 0400 0000
00000190: 0400 0000 0400 0000 0400 0000 0400 0000
000001a0: 0400 0000 256b 4421 0400 0000 0400 0000
000001b0: bc47 2021 0400 0000 0400 0000 0400 0000
000001c0: 0400 0000 0000 0000 0400 0000 0400 0000
000001d0: 0400 0000 0400 0000 746d 6921 0400 0000
000001e0: 0400 0000 0400 0000 0400 0000 0400 0000
000001f0: 0000 0000 0400 0000 0000 0000 0400 0000
00000200: 0400 0080 0400 0080 0400 0080 0400 0000
00000210: 0400 0080 d36e 2c35 0400 0080 23a1 93b6
00000220: b27b 56b5 7516 49b6 0400 0080 f1b7 a4b6
00000230: 0000 0000 0400 0080 0400 0080 0400 0000
00000240: b231 27b5 0400 0000 8361 78b5 0000 0000
00000250: 0000 0000 0400 0080 0400 0080 0400 0080
00000260: 0400 0080 0000 0000 0400 0080 0400 0080
00000270: 0400 0080 0400 0080 0400 0080 df54 97b4
00000280: 0400 0080 0400 0080 0000 0000 b615 fb34
00000290: 0000 0000 0400 0000 0400 0080 0400 0000
000002a0: b0af beb4 0400 0080 0000 0000 0400 0080
000002b0: 0000 0000 0400 0000 0400 0080 0400 0000
000002c0: 0400 0080 0000 0000 0400 0080 0400 0080
000002d0: 0400 0000 0000 0000 0000 0000 0d37 60b6
000002e0: 0400 0000 0000 0000 0400 0000 0400 0000
000002f0: 0400 0080 0400 0000 aa97 38b5 0400 0080
00000300: 0400 0000 0000 0000 0000 0000 0400 0000
00000310: 0000 0000 0000 0000 0400 0000 0400 0000
00000320: 0400 0080 0400 0080 0400 0080 0400 0080
00000330: 0000 0000 0400 0080 0400 0000 0e0e 95b4
00000340: 0000 0000 0400 0000 0400 0080 0400 0080
00000350: 0400 0080 567c 7fb4 0000 0000 d9cc 3335
00000360: 0400 0080 0000 0000 0400 0080 0400 0080
00000370: 6a2e 6c35 f8bb 3cb6 0400 0000 b14c b6b5
00000380: 0000 0000 55b4 31b6 0400 0000 0400 0080
00000390: 0400 0080 0400 0000 0400 0080 0400 0080
000003a0: 0400 0000 b60f ddb5 0400 0080 0400 0000
000003b0: 0400 0080 0400 0080 0400 0000 0400 0080
000003c0: 0400 0000 0000 0000 0400 0000 0400 0080
000003d0: 0400 0000 0400 0000 345a 0e34 0400 0080
000003e0: 0400 0080 0400 0080 0400 0000 0400 0080
000003f0: 0000 0000 0400 0080 0000 0000 0400 0080
