models/preliminary_results_models/RaceMultiOutputModel3v4/model.pt (torch, 518191 bytes, 18 tensors)

fc1.weight f4 [128, 240]
00000000: 0032 073d 4984 46bd eb2a 8fbd 2a0b 663d
00000010: df72 e13c daea 263d 9eee 0c3d 6c23 8fbd
00000020: 2912 e1bc 35d8 2e3d 638d ad39 5064 7e3c
00000030: 17bc 283d 090e 99bc de2d d6ba 0f3c 57bd
00000040: 8ddc 0d3d 4da4 223d 7f84 1e3d a565 dfbc
00000050: 7504 8c3d 094e fbbc 174e c5ba 7003 6ebd
00000060: dfc3 60bd 3fc8 193d 4900 58bd 85db 2bbc
00000070: cb19 0fbb d2d9 0bbb d90a 2abd 02a4 18bd
00000080: e641 af3c b85f 1fbd 687d 46bd 7afd b0bb
00000090: 2efb 4c3d d96e 153d 67f5 49bd ac3a 45ba
000000a0: 2738 bfbc 31d5 133d f5a3 4b3d 7a0f 793b
000000b0: 930e 943d b984 873d f74f 3fbd 2a26 03bd
000000c0: f321 153c 81f9 3b3d 0de7 1a3b be1c 34bd
000000d0: 1ba8 6e3d a9ce 943b ca40 363d f00d 8cbd
000000e0: 181a e53c 25f3 dd3c 6267 8abd 61eb 803c
000000f0: e9f8 083c a0a2 41bd 01b5 973c 7c9e 8bbd
00000100: 26be a53c a55e 18bd abc4 d7bc 0f44 b93c
00000110: 9595 033d 4256 9cbb 0707 a6bc 23a9 08bd
00000120: 3a44 92bc 2212 82bd bbd9 613c 28d1 89bd
00000130: 3969 80bd 8eaf 8cbd 6ef8 933c 518d 163c
00000140: c4c9 3f3c 9097 1e3d 5ec8 67bd 8654 f1bc
00000150: fb48 0b3d fc14 36bc 21a6 b2bc cb10 65bd
00000160: d6ff 85bd 4f52 fabc 47e3 d4bb 6bdc 3abd
00000170: 426a 82bd 602b 3cbd d9eb 173d 9b64 7dbd
00000180: fa1d b43c d288 e9bc ba52 fabc fb70 673d
00000190: 320c 10bc 08c4 5a3d 0a85 653d ad40 1b3d
000001a0: a530 8cbd 9fcf 67bd 3e9d 93bb 8a36 033d
000001b0: 4c36 3dbd 1f08 cebb ae97 69bd bae6 6fbd
000001c0: e4c5 6e3d b894 673c 2ba0 523d 57e9 ebbc
000001d0: e07e 4ebd 6f47 433b ea33 8ebc 121c 993c
000001e0: 8072 123d 1235 ab3c 02e3 73bd e967 313d
000001f0: 4b41 a53c c8e3 35bd e0a1 a43c 6cf6 25bd
00000200: da3f 3dbd 3b41 3fbd 3059 8bbd 0218 ff3c
00000210: 7827 01bd e79e 333c c18f bfbc c843 44bc
00000220: d568 593d 47b3 79bd da0d 393d 4400 1f3a
00000230: 7af4 45bd c319 123d 912d 0a3c dc99 73bc
00000240: 9eba 653d e402 54bd 6d66 f2bc 2768 233d
00000250: 659a 02bd d663 d93c aa7c 473d 0728 43bd
00000260: ae80 24bd 75ed dbbc f362 68bd c267 1f3d
00000270: 5683 03bd ff5b 1b3d fe67 583c b7e5 7fbd
00000280: 69e5 94bc ce20 54bc 7199 b4bc 0d3b f13c
00000290: 7e38 7ebd 032e b73b afcd 2a3b 2ebb 84bd
000002a0: a7bb 8abc c179 2f3c ee42 3abd a020 6e3d
000002b0: cbe1 4a3d 874b d83c 486c 56bd 7da0 72bc
000002c0: 8de9 d6bb 5299 a3bc 9f2d b83b bde4 45bc
000002d0: a7ba 76bd 2f14 e33a 7f76 3cbc 80e7 60bd
000002e0: da46 e5bc e0d8 5ebd e093 0dbd c28c 0abd
000002f0: c695 113d 3229 7e3c e26c 853c 6950 2abd
00000300: a61a afbc cf92 40bc 37e4 1a3d 01ae 20bc
00000310: 290d 01bd c0c9 16bd a72c 2d3d 290f 20bc
00000320: a43a 8cbc 522f 933c fcd8 a53c a154 9f3c
00000330: 47de 5a3c b5c5 6dbd 8e63 333d 48ad a7bb
00000340: db67 373d 4d78 8ebd 12ae 593c c092 59bd
00000350: f7e1 243d e10e 09bd 5ab2 5e3d cb29 06bd
00000360: 0ae6 2cbc 67f7 ecbc 66af 5abc 4f84 613d
00000370: 8233 393c e3a5 d0bc ab06 2abd 3a2b e03c
00000380: 3940 483d 1d5c 2b3d 6193 c63c 88c3 d43b
00000390: 4338 b9bc f211 233c 1714 39bd 6577 533d
000003a0: f2f4 4ebc b64d a33b b6e5 7ebc af7b ccbc
000003b0: e921 8f3c 03d9 0f3d e1af 843c cd4d 63bd
000003c0: 8b84 9e3b 1755 193d 42ef 4d3d f9de a23c
000003d0: f4fa 343d 3c69 6e3d a974 2e3d 04cf debc
000003e0: 6414 13bd 172d c2bc b42c 15bd f9d5 e53c
000003f0: 39f6 a4bc 3664 ba3c bff6 69bd cece 093c
0.033006668 -0.048466 -0.06990608 0.05616299 0.027520595 0.040751316 0.03440725 -0.06989178
-0.02747448 0.04268666 0.00033102473 0.015526846 0.041195 -0.01868345 -0.0016340574 -0.05254751
0.03463416 0.03970747 0.038700577 -0.027270148 0.068367876 -0.030676858 -0.001505318 -0.058108747
-0.054874297 0.037544485 -0.052734647 -0.010489349 -0.0021835442 -0.0021339548 -0.04151425 -0.037265785
0.021393728 -0.038909644 -0.04845944 -0.0054013105 0.05004423 0.036482666 -0.0493063 -0.00075236964
-0.023342205 0.036091987 0.04971691 0.003800361 0.07229342 0.06617112 -0.04670712 -0.032018818
0.009102332 0.045892242 0.0023636252 -0.043972723 0.058265787 0.0045412374 0.04449538 -0.06838596
0.027966544 0.02709348 -0.06758 0.015737237 0.008360126 -0.047274232 0.018518927 -0.06817338
0.020232271 -0.037199635 -0.026338896 0.02261546 0.032125074 -0.004771025 -0.020267023 -0.033364426
-0.017854799 -0.06351115 0.013784821 -0.067293465 -0.0627007 -0.06869422 0.018062796 0.009188966
0.0117058195 0.03871876 -0.05658757 -0.02945925 0.034005146 -0.0111134015 -0.021807732 -0.05592422
-0.065429375 -0.030556826 -0.00649682 -0.045620363 -0.06367923 -0.045939803 0.037090156 -0.061863523
0.02198695 -0.028507624 -0.030557025 0.05650423 -0.00879197 0.053409606 0.05603508 0.037903477
-0.06845216 -0.056594487 -0.0045048287 0.032034434 -0.04619436 -0.006287589 -0.05702942 -0.058569647
0.058294192 0.014134578 0.05142228 -0.028797789 -0.050413966 0.0029797216 -0.017358739 0.018690143
0.035753727 0.02089933 -0.059542663 0.043311987 0.020172736 -0.044406682 0.02009672 -0.04051821
-0.04620347 -0.046693068 -0.068041205 0.031139378 -0.03153178 0.010963178 -0.023383977 -0.011979051
0.05307849 -0.060961988 0.045179226 0.0006065408 -0.048328854 0.0356691 0.008433715 -0.014868226
0.056086175 -0.05176057 -0.029589856 0.03989425 -0.031885523 0.026536863 0.048702873 -0.047645595
-0.04016178 -0.026846627 -0.05673499 0.03891731 -0.032107674 0.03792953 0.013208387 -0.062474933
-0.018175798 -0.012947274 -0.022045823 0.029447103 -0.062065594 0.005590202 0.0026062538 -0.06481014
-0.016935183 0.010710181 -0.045473985 0.058136582 0.04953174 0.026403202 -0.05234936 -0.014808771
-0.006558603 -0.01997057 0.005620673 -0.012078461 -0.0602366 0.0017324741 -0.011502861 -0.054908276
-0.027987886 -0.054406047 -0.034564853 -0.033825643 0.035543226 0.015512751 0.016287271 -0.04158059
-0.021375012 -0.011753752 0.0378153 -0.009807111 -0.03150669 -0.036813498 0.042278912 -0.009769239
-0.017117806 0.0179669 0.020245068 0.019449534 0.013358659 -0.058049876 0.043796115 -0.0051170923
0.04477678 -0.06956539 0.0132861305 -0.053118467 0.04025456 -0.033461455 0.054369308 -0.0327547
-0.010552892 -0.028926564 -0.013347482 0.05505782 0.011303784 -0.025469726 -0.041510265 0.027364362
0.048889372 0.041835893 0.024240198 0.0064930357 -0.022609835 0.009953009 -0.045185175 0.051627535
-0.012631642 0.004983629 -0.015557697 -0.02496132 0.017472224 0.035119068 0.016197147 -0.05549412
0.0048375777 0.037434664 0.050277002 0.019881712 0.04418464 0.058205828 0.042591725 -0.027198322
-0.035908118 -0.023703141 -0.036419585 0.028056132 -0.02013694 0.022752862 -0.05712008 0.0084111225

fc1.bias f4 [128]
00000000: 9bd9 50bc c683 8bbd 1878 903b 8f79 953c
00000010: 9e29 d1bc aaf0 7abc fe2b 6ebd c9cc 0b3d
00000020: d3de d9bc 3d13 763d 181b 99bc b154 d93c
00000030: a2af 473c 833a 12bd fc4f 163c c7ff 24bb
00000040: ffc3 26bd 7c51 9bbd f6f4 883b 7402 d7bc
00000050: 80fa a23b 9f40 9c3c f196 82bd 4664 7a3c
00000060: 67c0 cabc d01f e0bc dc5f aa3b 1fe6 cabc
00000070: 243b 54bd dcdc ad39 3f56 3b3d 9865 de3a
00000080: 44fe edbc 0cf3 7bbc cafe 66bd 6969 fe3b
00000090: 5a72 793d 73ac 37bd 859b f3bc 950f 373d
000000a0: 92fc 38bc aa17 03bd de47 4cbd 4cba 5c3d
000000b0: e7d9 5dbd e377 e2bc f608 8fbd 18d8 04bc
000000c0: 3eeb 66bd c911 c43c afde 0fbd b819 113b
000000d0: 2471 dd3c 9cff e43c e090 5e3b 506e 3c3c
000000e0: 39d7 fa3a bede 683d 749b b73c 66f8 8ebc
000000f0: 7579 fc3c 7b31 12bd 59d0 2ebd 4aef 123c
00000100: a12b 86bd 9c0f 93bc 2c16 a1bc c3b1 53bd
00000110: 0ec4 58bd 9c01 cb3c 714d 73bd f236 b23c
00000120: 8807 2cbd f860 0a3d 6781 de3c fea9 663d
00000130: 8080 7bbd 9943 06bd c3d9 20bd 1368 ad3c
00000140: 7f52 5dbd b63d 8fbc 1b85 79bd 034d 73bb
00000150: a8b1 0cbd 6ddc aabb c43e 4c3d 1c26 6bbc
00000160: 8566 523d 326f 7d3d 8cb2 2ebb 5b67 043d
00000170: 9955 933d 0cbc 013c 10e9 453d 3538 543d
00000180: ecd3 0a3d b63d 543d c362 cabc 9bcd 1d3d
00000190: 8405 63bd ca2d 413d bc7b 0c3d 387a 88bd
000001a0: 46b1 8dbc aaa3 263d 7e61 623d 992e 2dbc
000001b0: 9b34 183c b6aa 44bd 6fc0 d93b 3080 b13c
000001c0: 0777 16bd 087b eebc 09d7 22bc 0fd8 913a
000001d0: df72 b8bc ea8e fbbc 0096 eb3c 7332 1cbd
000001e0: d38a 5e3d 9e36 af3a 800c 69bc 8fdc 24bc
000001f0: d46f d63c 5c64 c53c 7976 57bd 19e3 75bc
-0.012747194 -0.06812243 0.0044088475 0.01824644 -0.02553254 -0.015316168 -0.058147423 0.034130845
-0.026595509 0.06007694 -0.018689677 0.026529642 0.01218787 -0.035700332 0.009174343 -0.002517687
-0.04071426 -0.07583901 0.0041795922 -0.026246287 0.0049737096 0.019073782 -0.06376446 0.015282696
-0.024749948 -0.02735892 0.0051994156 -0.024767933 -0.051814213 0.00033161684 0.045736548 0.0016967533
-0.029051907 -0.015377771 -0.05639533 0.0077640307 0.06090007 -0.044842195 -0.029737243 0.044692595
-0.011290686 -0.03200499 -0.049873225 0.053888604 -0.054162886 -0.027645057 -0.06984131 -0.008108161
-0.05637669 0.023934262 -0.035124477 0.0022140574 0.027031489 0.027953915 0.0033960864 0.01150091
0.0019137628 0.05685305 0.022412993 -0.01745243 0.030819634 -0.03569172 -0.042679165 0.008968184
-0.0655129 -0.017951779 -0.019663893 -0.0516832 -0.052921347 0.02478104 -0.059400026 0.021754716
-0.04199937 0.033783883 0.027161313 0.05631446 -0.061401844 -0.03277931 -0.039270174 0.02116779
-0.054033753 -0.01748548 -0.060917955 -0.003712476 -0.034349114 -0.005214265 0.049864545 -0.014352348
0.0513673 0.061873622 -0.0026656715 0.03232513 0.07194061 0.007918369 0.04831797 0.051811416
0.03389351 0.051816665 -0.024705296 0.03852616 -0.055425182 0.04716281 0.03429769 -0.066639364
-0.017296445 0.040683426 0.055268757 -0.010570192 0.009289886 -0.048014365 0.0066452543 0.02166757
-0.036734607 -0.0291114 -0.009938964 0.0011127013 -0.022515712 -0.030707795 0.028758049 -0.03813405
0.05433161 0.0013367718 -0.014224172 -0.010062351 0.02617637 0.024095707 -0.05260322 -0.015007758

fc2.weight f4 [64, 128]
00000000: 1980 4cbd 6d38 9a3d e602 d73b 9fd6 b4bd
00000010: f7c1 263d 2877 bebd 2164 c83c 6713 69bd
00000020: ab23 30bc b0be c3bd 3d7a 94bb 9d6e 9bbd
00000030: 0373 823d 8f03 fa3c f048 f63b b196 a7bd
00000040: c971 b9bd 5ea0 203d ffa7 8cbd 0732 88bd
00000050: 3608 1a3d 46b4 d5bc 1b4a 16bd c48b 9d3d
00000060: d6ed a13d 8132 933d 5e68 d53c b056 073d
00000070: 622c 863d 9d9c 803d ef97 0a3d fb4e 24ba
00000080: 73be ec3c ddfb 7c3b 4f36 75bd f368 013c
00000090: a804 adbc 744f f73c e6bc bcbd 76ca 3a3d
000000a0: 3722 bf3c 76df 96bd 2475 acbd 4ee5 d4bc
000000b0: 00f4 17b9 3367 46ba 4f90 a53b 5f0c 9c3c
000000c0: aa17 85bd 018c babc ce84 a4bd 690e c2bd
000000d0: bbed a7bd ccda e23c 4899 a5bd 025e d7bd
000000e0: 30ac 7cbd 7ea5 abbd c1a1 e2bc 4097 893d
000000f0: e90d 323d 351a 26bc 6452 a6bd 4808 9e3d
00000100: 709a 633d d62d 4a3d 5cbf e3bc d2cc 0bbd
00000110: 197d 01bd bcf6 5bbd 2ec7 743d bebf 503d
00000120: 1a6c 6a3c 3e71 4fbc c951 a9bd 077b b1bd
00000130: 3b2d 59bd 3336 94bc dcdb 383d 03c4 9bbc
00000140: 6d27 a1bd aa37 2abd 084e 29bd b81d 9c3d
00000150: e5a2 273c 6600 653d 379d aa3d 5dc1 babd
00000160: eb6c 85bd bfc7 0bbd 4cf7 cfbc f8d4 95bd
00000170: 22ff 0f3d 5e55 7ebc 5bd6 06bd 2c26 883d
00000180: 3c4b a43c 9ba2 c2bd c550 d7bc 90e3 b7bd
00000190: d051 c3bc 3920 b73c 7851 bdbc 0d2f 36bc
000001a0: e3e3 6a3c b03a a23c a0c1 8bbd 7acc 5cbd
000001b0: 226e 083b b469 8f3c a1b9 563c fbb6 39bd
000001c0: 5c1c 7b3d e07c 9e3c 64a4 0dbd 4020 6cbd
000001d0: b84a 7d3d 7f44 3d3d 76dd 273d 8c65 aabd
000001e0: e67f a2bb 5879 803d c554 a0bd 1c97 853d
000001f0: e59a 943d 996f 6abd a014 54bc 78ee 433d
00000200: 9691 983d 8b3e aabb a930 b8bb ba36 bebd
00000210: 16b3 bdbb 81ad 19bd 544e 683c 076a 2fbd
00000220: 552a 46bd 65ea 8f3c bfc5 2dbc 4362 763d
00000230: 0098 1438 8c66 153c d274 efbc 8544 89bd
00000240: 773c 443d 5140 af3b fa02 12bd 9615 0b3d
00000250: b0c1 853c 95b7 1abd 85a2 b73d deb0 263d
00000260: 659b 4e3d 9042 ea3c 4c5e 38bd 770b 85bc
00000270: 43b4 88bd a7ec a33d fa59 79bd 684d 3dbd
00000280: dc1a ab3d 3f34 683c 0cc4 073d f9ae b0bd
00000290: 0b66 953d fc91 3e3d 3b7a e43c 081f 9bbd
000002a0: d3b8 38bd 8953 86bc 608a 373b dad4 ce3c
000002b0: 72cc b4bd dd75 05bd ed54 6a3d ed94 d73c
000002c0: 992c b039 ca27 643d 570a a9bc ed5a 3a3c
000002d0: d556 573d d6bc 8ebd 1ea3 563d f51b 97bd
000002e0: 91ed 8fbd 7841 01bd 89fd 7e3d 43b9 7b3d
000002f0: 66e4 073d 4228 ffbc 3c65 6fbd 8d3a 3ebd
00000300: 4af3 8d3d 95eb 9a3d bb6c 5fbd dd29 453d
00000310: 921d 21bd 4126 ae3d 3707 253c 3f49 5fbd
00000320: 7808 723d 1da4 25bd b85f 9d3d f972 30bd
00000330: b28b 5a3d c24c 353c d7d8 13bd f479 8bbc
00000340: 9068 093d 3eab 84bc 4ed4 953d 8840 bb3c
00000350: 2a17 513c 52b8 4dbd a442 95bc 7a7d c7bc
00000360: d27f b6bc e0f0 e93c 8039 703d 7362 9cbd
00000370: f280 3b3d 7f2f d7bc c3c3 9d3c a2b9 083d
00000380: 1151 2ebd 3e88 a03d b31f fb3c df38 2ebc
00000390: 7c0a 9ebc 00f5 973b e64e 873d b492 8cbd
000003a0: d149 5b3d 1bab f13b de9e ae3d 3db7 903d
000003b0: 9754 913d 121d c23c caab 0c3d 070f 7e3d
000003c0: a5bf 90bd e241 6f3d 53d8 963d aa5d ac3d
000003d0: 9088 b3bd 4361 843d b5d5 0abc d009 8fbd
000003e0: 0d7a 0ebd bd81 803d b9b3 9c3d d65b 943d
000003f0: bf5d b3bd 1ec0 31bd 6267 403d aab2 e23c
-0.04992685 0.075302936 0.006561625 -0.08829998 0.040712323 -0.09300071 0.024461808 -0.05690327
-0.010750691 -0.09557855 -0.0045311735 -0.07589457 0.06369593 0.030519275 0.007516019 -0.08183039
-0.09054906 0.039215438 -0.0686798 -0.06650167 0.037605487 -0.026086938 -0.036691766 0.07692674
0.07906692 0.07187367 0.026050743 0.033041656 0.06551434 0.062798716 0.0338363 -0.00062678725
0.028899407 0.003860227 -0.059866246 0.007898557 -0.021120384 0.030189253 -0.09215717 0.045603238
0.023331745 -0.073668405 -0.0842078 -0.025988247 -0.00014491379 -0.00075684785 0.0050526033 0.019048868
-0.06498654 -0.022771837 -0.08033143 -0.09475405 -0.0819964 0.027692221 -0.08085877 -0.105159774
-0.06168765 -0.083811745 -0.02766502 0.06718302 0.043470297 -0.010138084 -0.081211835 0.07716423
0.055567205 0.04936012 -0.027801208 -0.03413088 -0.031613443 -0.0537021 0.059760265 0.05096411
0.014308 -0.012661276 -0.082675524 -0.08666044 -0.05302165 -0.01809225 0.04513155 -0.019014364
-0.07868848 -0.04155699 -0.041334182 0.07622856 0.010231708 0.055908583 0.083307676 -0.09118912
-0.06514915 -0.03412604 -0.025386475 -0.07316011 0.035155423 -0.015523283 -0.03291927 0.06647906
0.020055406 -0.09503671 -0.026283631 -0.08978951 -0.023842722 0.022354232 -0.023110136 -0.011119616
0.014336559 0.019803375 -0.068240404 -0.05390594 0.0020817597 0.017506458 0.013105781 -0.04534052
0.061306342 0.019346654 -0.034580603 -0.057647943 0.061838835 0.0462079 0.040982686 -0.0832015
-0.0049590943 0.062731445 -0.078286685 0.065229625 0.07256106 -0.057235334 -0.0129443705 0.047834843
0.07449643 -0.005195444 -0.005621035 -0.09287782 -0.005789171 -0.03751898 0.014178831 -0.042825725
-0.048380215 0.017567823 -0.010606228 0.060152303 3.542751e-05 0.009118687 -0.029230509 -0.06702522
0.047909226 0.0053482433 -0.03564737 0.033956133 0.016327709 -0.037772734 0.08966545 0.040696017
0.050441165 0.028596193 -0.045011804 -0.016240818 -0.06675007 0.08004122 -0.060876824 -0.0462164
0.083547324 0.014172613 0.03314595 -0.086271234 0.07294854 0.04652594 0.027890315 -0.07574278
-0.045098137 -0.016397255 0.0028006062 0.02524798 -0.08828057 -0.032583106 0.057209898 0.02631613
0.00033602564 0.05570201 -0.020634813 0.011374217 0.052573044 -0.06969611 0.052401654 -0.07378379
-0.07027734 -0.031556576 0.06225351 0.061455976 0.033176802 -0.031147126 -0.058446154 -0.046442557
0.06931169 0.07564465 -0.054547053 0.048135627 -0.03933484 0.0850339 0.010072521 -0.054513212
0.059090108 -0.040439714 0.076842725 -0.043078396 0.05335588 0.011065664 -0.036095466 -0.017025925
0.033546984 -0.016194936 0.073158845 0.02285792 0.01276187 -0.05022461 -0.018220253 -0.024351824
-0.022277746 0.028557241 0.058648586 -0.07635965 0.04577727 -0.026267765 0.019258386 0.03338016
-0.04255778 0.07838486 0.030654764 -0.010633676 -0.019292109 0.0046373606 0.066068456 -0.06863919
0.053537194 0.0073751337 0.08526395 0.070662 0.07096212 0.023695502 0.03434352 0.06202605
-0.07067803 0.05841244 0.07365479 0.084163025 -0.087662816 0.06463864 -0.008473803 -0.069842935
-0.034784365 0.062747456 0.07651467 0.07244079 -0.08758115 -0.043396108 0.046973594 0.027673084

fc2.bias f4 [64]
00000000: 0668 18bd 2686 fdbb 02f9 0bbe a231 8f3d
00000010: 059c a0bc 362c 4f3d ce17 ce3d fa42 4b3d
00000020: 9819 a0bc cb3f 843d c777 aabd 1d08 543d
00000030: b31f c13b b4f4 153d af2d 69bc 4f30 a13d
00000040: eba6 1fbd b545 a83d 5d15 8eba 86e1 a0bd
00000050: 519f 1a3d fc65 4a3d b0a9 893d 95dd 8fbd
00000060: 52b0 3a3c 850c 7d3d 6cc5 903c 60c3 75bd
00000070: 3acc 0ebd 618b 98bb cde2 5bbd 421b 133d
00000080: ac38 85bd daa8 8b3d dd5b 053d 554d 713d
00000090: f64c 0a3d 7dad 33bd 282e 75bc 916e 85bc
000000a0: c430 a4bd 59ec bfbd 15fa 0cbd 6d9e 3c3d
000000b0: c4f3 0abd 3ae5 b2bd 8a27 8bbc efba 68bd
000000c0: 560a 223c 6282 17bd 8bf4 cf3c a418 8e3d
000000d0: 9d96 e33c b55e 853d e2bf b13b b7d6 6ebd
000000e0: 1867 70bd 900b 9d3d 554a 94bb 5718 863c
000000f0: ad74 48bc 5c62 b0bd ac1e 1fbd 2479 523c
-0.03720858 -0.007736939 -0.13669208 0.069918886 -0.019605646 0.050579272 0.10063134 0.04962442
-0.019543454 0.0645748 -0.08323627 0.05176555 0.0058936714 0.03661032 -0.014232083 0.07870542
-0.038977545 0.082164206 -0.0010840107 -0.07855515 0.037749592 0.049413666 0.067218184 -0.07024685
0.011394577 0.061779518 0.017672263 -0.060000777 -0.034862734 -0.004655287 -0.05368309 0.035914667
-0.0650495 0.06819315 0.03255831 0.05891164 0.033764802 -0.043866623 -0.014964618 -0.016288074
-0.08017114 -0.093712516 -0.034418184 0.046049524 -0.03392388 -0.08735128 -0.016986627 -0.0568189
0.00989016 -0.036989577 0.025385162 0.069382936 0.027781779 0.065122046 0.0054244855 -0.058310237
-0.058692068 0.07668221 -0.0045254626 0.016369028 -0.012234849 -0.086125106 -0.03884761 0.012846265

fc3.weight f4 [24, 64]
00000000: d7ac a03d 7cae 64bd 5a98 06be c895 fabd
00000010: c069 c23d bfc4 283e af3e f23d 9708 da3d
00000020: 6f19 31be 948a eb3d 3c31 c9bd fae2 c83c
00000030: e749 793d 0102 2ebd e91e 3f3c e575 41bd
00000040: f51e 80be 3bde a5bd 8c09 9ebd 196d e1bd
00000050: a599 eb3d 3f13 383c 82e7 e03c 9276 0bbd
00000060: b9fe 433e 72a9 87bd a059 153e 2e52 903e
00000070: b047 1e3e 5846 70bd 6578 aabd 3810 2abd
00000080: bfcf e8be 3f59 893d c3ac 9c3d 9f58 b4be
00000090: cdc4 8cbc c63e f83d b518 40be 75f9 843d
000000a0: 107c d9bd 902b 073a 855d bf3d f456 083e
000000b0: 6b72 e3bd 9f89 99be c576 473e 8d9b edbd
000000c0: a26f 15be 6995 77bd 68a2 8a3d 443e ffbd
000000d0: da95 153e 8313 0fbd 50a2 fc3d ed06 ed3c
000000e0: 71d9 97bc 3106 10bc abaf 94bd fd5e 7e3e
000000f0: 7122 24be c6e8 cfbd 1d1f c43e 7812 32be
00000100: ad79 88bd e911 7abd 1e60 cf3d 406f e13d
00000110: 1179 b53d 3152 ca3d a087 f8bd 536d 65bd
00000120: 551a 383d 6e92 dabc 21df 593c 4fa6 b43d
00000130: 0655 5dbd 9ad5 23bd b522 6b3d 58e4 d73d
00000140: ba48 8dbe 6131 89bd 813b ba3d e55e 893d
00000150: deef 653e 5fc7 afbd 3176 f53c 5c31 2c3d
00000160: 2009 06be f5dc fa3b b098 9abc 964b ccbc
00000170: bda6 9fbc b87c 92bd 4f0f 9b3c 96ce ba3e
00000180: ef3a 8c3d 0ef8 21bd c4e9 ddbd 6d6e 8ebc
00000190: 7a17 b8bd 64c2 9ebe 1b45 16be 765d ab3d
000001a0: 63f7 f73c d218 a03d 072b 23be 870b abbd
000001b0: f087 0a3d 8ff1 9d3e c37f 0abe 2215 853d
000001c0: 7a7f edbd a398 77bd b276 c23b 80fe 78bc
000001d0: 4b07 eb3d c80a 303c 2a8d ec3d 1802 e23d
000001e0: dfea 213e 3386 933c b9c7 92bd b52f 37be
000001f0: 1a71 b0bd cf5a a13d 67e7 06bc 8fc1 643d
00000200: 5af8 a4bb f60a 80bd 1f88 6abd f73d 6bbd
00000210: 26ef 08bd 1e82 f9bd 2329 06bd 4f52 2b3d
00000220: c2eb e53c 94b0 0a3d 1605 e2bd 387c c93c
00000230: bdec 0cbd a952 ecbd 5e27 dcbd 5083 9c3d
00000240: 2575 8dbd 6cff 4e3d 3077 5dbd cb5b 22be
00000250: d637 c33b 800d d53d fe67 37bd eb9d 2cbe
00000260: 38fb f4bc 9437 6fbd f933 1bbe 15d2 66be
00000270: 4581 8ebd 008c 2b39 6724 61bd 6054 d53d
00000280: e813 453d 9158 8f3c b131 5d3d 27cf 093e
00000290: 7aa6 d7bd d615 0d3c 3f22 42be 5329 4e3e
000002a0: 7341 b9bd da11 8c3d 129e 36be 1633 443e
000002b0: e8a8 033e 84f2 043d fff9 913d 7710 7e3d
000002c0: 15cb 863b 070a d23d 5e8f 51bd 7c68 57bd
000002d0: 7735 1bbe df1d cbbd 8e43 7b3e af4e 103e
000002e0: e97b a3bd 9c5a 8cbe 6288 113d 722f 07be
000002f0: cb3c c13d e462 76bd 68d3 283d 7f11 e2bd
00000300: 15b0 ddb9 3900 87bb b417 5cbe 7387 d23d
00000310: ee97 4abc f549 103d eb35 e33b f101 b33d
00000320: f932 73be 72ca 043d b815 733d 5ed0 163d
00000330: b4ac ffbd 485a e43c 1e8d a53c 8ce2 0b3d
00000340: 3c33 f3bd c02b 76bd 54c5 c23d 89c0 4dbd
00000350: c4c9 90bd 0092 eb3b f09d cd3c d104 18be
00000360: 47ed dc3c b452 c4bc 63df 7abd 14ae 923e
00000370: bcef e2bd 6bbd a3bd dd21 3ebd 6725 d53b
00000380: 2c55 debb a05e 31bd 8fc3 41ba 9c51 9fbd
00000390: 0f4a d1bc df2f 2c3d 169c 053e ccc0 1e3d
000003a0: 1773 b6bd 0065 abbc a5a1 7d3c 7feb dd3d
000003b0: 1206 023e 27d5 ac3c 1fe3 65be 9b01 823d
000003c0: 2eb3 c83d f5d9 3a3d 25db 253d e285 0e3e
000003d0: 75c1 febd 3449 103d af4f 57bd f7dd 943d
000003e0: 81dd 97bb 3761 c03c cdaa 8abd 9a49 bbbd
000003f0: d02a 63bd 7cc8 d5bd fb7b e0bd 95a2 453d
0.078454666 -0.055830464 -0.13144055 -0.122356 0.094928265 0.16481303 0.11828362 0.1064617
-0.17294858 0.11501041 -0.09823844 0.024522293 0.060861494 -0.04248238 0.011665084 -0.047231574
-0.25023618 -0.08099028 -0.07716665 -0.11007137 0.11503915 0.011235057 0.027454142 -0.034048624
0.19140138 -0.06624116 0.1458497 0.28187698 0.15457034 -0.058660835 -0.08323745 -0.041519374
-0.45470998 0.067064755 0.07650139 -0.35223863 -0.017183686 0.12121348 -0.18759425 0.06492893
-0.10619366 0.00051563326 0.09344009 0.1331442 -0.11105808 -0.2998781 0.194789 -0.116019346
-0.14593366 -0.060445223 0.06769258 -0.12463048 0.14607945 -0.034930717 0.12335646 0.028933967
-0.018536301 -0.008790539 -0.072600685 0.24840923 -0.16028763 -0.1015182 0.38304988 -0.17389858
-0.06663833 -0.061052237 0.10125755 0.110075474 0.08860982 0.09878958 -0.121352434 -0.056012463
0.044946987 -0.026681151 0.013297827 0.08820783 -0.054036163 -0.03999863 0.057406146 0.105416
-0.27594548 -0.066988714 0.09093381 0.06707553 0.22454783 -0.08582949 0.029963585 0.04203926
-0.13089418 0.0076557347 -0.018871635 -0.024938386 -0.019488687 -0.071526945 0.018928198 0.36485738
0.06847178 -0.039543204 -0.10835603 -0.01738664 -0.08988853 -0.31007683 -0.14674799 0.08367436
0.03026933 0.07817234 -0.15934382 -0.08351808 0.033821046 0.30848357 -0.135253 0.064981714
-0.1159658 -0.0604483 0.0059345597 -0.015197396 0.114760004 0.010744758 0.115503624 0.110355556
0.15812252 0.018008327 -0.07167 -0.17889293 -0.086153224 0.078786485 -0.008233882 0.055848654
-0.0050344886 -0.06252091 -0.05725872 -0.05743214 -0.033431195 -0.12183021 -0.032754075 0.041826542
0.02806652 0.033859804 -0.11036126 0.024595365 -0.03440546 -0.11539204 -0.10749696 0.07642233
-0.06907109 0.050536558 -0.054068744 -0.15855329 0.005957584 0.104029655 -0.04477691 -0.16857116
-0.029904947 -0.058402613 -0.15156545 -0.22541077 -0.0695825 0.00016359985 -0.054966357 0.10416484
0.048114687 0.017498286 0.054002468 0.13457929 -0.105298 0.008611163 -0.18958376 0.20132951
-0.090456866 0.068393424 -0.17833737 0.19160113 0.12857401 0.032457843 0.07127761 0.06202742
0.0041135647 0.10255819 -0.051162116 -0.05258988 -0.15157114 -0.09917807 0.24537489 0.14092515
-0.07982618 -0.2741288 0.035530455 -0.13201693 0.094354235 -0.060152903 0.041217238 -0.11038493
-0.00042283596 -0.0041198996 -0.21493417 0.10279741 -0.012365324 0.03522678 0.0069339178 0.08740605
-0.23749913 0.03241963 0.059346884 0.03681981 -0.124841124 0.02787508 0.020208891 0.0341516
-0.118750066 -0.060100317 0.095102936 -0.050232444 -0.07069734 0.0071890354 0.025099725 -0.14845587
0.026968611 -0.023965217 -0.061248194 0.28648436 -0.11080882 -0.07995113 -0.046419013 0.006504703
-0.0067850556 -0.043303132 -0.0007391506 -0.07779238 -0.02554801 0.04203784 0.13047823 0.038758084
-0.089086704 -0.020922184 0.015480434 0.10835933 0.12697628 0.021097733 -0.22449921 0.063479625
0.09799801 0.045618016 0.040492196 0.1391826 -0.12439243 0.035226062 -0.052566227 0.07268899
-0.0046345596 0.023483856 -0.06770859 -0.09144898 -0.05546075 -0.1043863 -0.109611474 0.048250753

fc3.bias f4 [24]
00000000: 316f e7bd 5697 3b3c e61d 883d 6dd3 49bd
00000010: a2f1 9f3c 9b01 83bd ad64 603c 96fd b4bd
00000020: 9325 3c3e 7795 473d fa5e bb3d f94a 4f3c
00000030: ae54 eb3d d977 7dbd 899d 61bd 47a4 573b
00000040: 791b 94bd 350d 033e 441b 133c d774 e23c
00000050: eb80 3c3d 60ba 063c b40b 42bd ee92 a4bd
-0.11300505 0.0114496555 0.06646328 -0.049273897 0.0195244 -0.063967906 0.013695878 -0.0883743
0.18373708 0.048726525 0.09148975 0.012652152 0.11490761 -0.061881874 -0.055081878 0.0032904313
-0.072318025 0.12798007 0.008978669 0.027643604 0.046021383 0.008223146 -0.047374442 -0.08035837

exp_avg f4 [128, 240]
00000000: 0400 0000 0400 0000 0400 0000 0400 0000
00000010: 0400 0000 0400 0000 0400 0000 0400 0000
00000020: 0400 0000 0400 0000 0400 0000 0400 0000
00000030: 0400 0000 0400 0000 0400 0000 0400 0000
00000040: 0400 0000 0400 0000 0400 0000 0400 0000
00000050: 0400 0080 0400 0000 0400 0000 0400 0000
00000060: 0400 0000 0400 0000 0400 0000 0400 0000
00000070: 0400 0000 0400 0000 0400 0000 0400 0000
00000080: 0400 0000 0400 0000 0400 0000 0400 0000
00000090: 0400 0000 0400 0000 0400 0000 0400 0000
000000a0: 0400 0080 0400 0080 0400 0080 0400 0080
000000b0: 0400 0080 0400 0080 0400 0080 0400 0080
000000c0: 0400 0080 0400 0080 0400 0000 0400 0000
000000d0: 0400 0000 0400 0000 0400 0000 0400 0000
000000e0: 0400 0000 0400 0000 0400 0000 0400 0000
000000f0: 0400 0000 0400 0000 0400 0000 0400 0000
00000100: 0400 0000 0400 0000 0400 0000 0400 0000
00000110: 0400 0000 0400 0000 0400 0000 0400 0000
00000120: 0400 0000 0400 0000 0400 0000 0400 0000
00000130: 0400 0000 0400 0000 0400 0000 0400 0000
00000140: 0400 0000 0400 0000 0400 0000 0400 0000
00000150: 0400 0000 0400 0000 0400 0000 0400 0080
00000160: 0400 0000 0400 0080 0400 0000 0400 0000
00000170: 0400 0000 0400 0000 0400 0000 0400 0000
00000180: 0400 0000 0400 0000 0400 0000 0400 0000
00000190: 0400 0000 0400 0000 0400 0000 0400 0000
000001a0: 0400 0000 0400 0000 0400 0000 0400 0000
000001b0: 0400 0000 0400 0000 0400 0000 0400 0000
000001c0: 0400 0000 0400 0000 0400 0000 0400 0000
000001d0: 0400 0000 0400 0000 0400 0000 0400 0000
000001e0: 0400 0000 0400 0000 0400 0000 0400 0000
000001f0: 0400 0000 0400 0000 0400 0000 0400 0000
00000200: 0400 0000 0400 0000 0400 0000 0400 0000
00000210: 0400 0000 0400 0000 0400 0000 0400 0000
00000220: 0400 0000 0400 0000 0400 0000 0400 0000
00000230: 0400 0000 0400 0000 0400 0000 0400 0000
00000240: 0400 0000 0400 0000 0400 0000 0400 0000
00000250: 0400 0000 0400 0000 0400 0000 0400 0000
00000260: 0400 0000 0400 0000 0400 0000 0400 0000
00000270: 0400 0000 0400 0000 0400 0000 0400 0000
00000280: 0400 0000 0400 0000 0400 0000 0400 0000
00000290: 0400 0000 0400 0000 0400 0000 0400 0000
000002a0: 0400 0000 0400 0000 0400 0000 0400 0000
000002b0: 0400 0000 0400 0000 0400 0000 0400 0000
000002c0: 0400 0000 0400 0000 0400 0000 0400 0000
000002d0: 0400 0000 0400 0000 0400 0000 0400 0000
000002e0: 0400 0000 0400 0000 0400 0000 0400 0000
000002f0: 0400 0000 0400 0000 0400 0000 0400 0000
00000300: 0400 0000 0400 0000 0400 0000 0400 0000
00000310: 0400 0000 0400 0000 0400 0000 0400 0000
00000320: 0400 0000 0400 0000 0400 0000 0400 0000
00000330: 0400 0000 0400 0000 0400 0000 0400 0000
00000340: 0400 0000 0400 0000 0400 0000 0400 0000
00000350: 0400 0000 0400 0000 0400 0000 0400 0000
00000360: 0400 0000 0400 0000 0400 0000 0400 0000
00000370: 0400 0000 0400 0000 0400 0000 0400 0000
00000380: 0400 0000 0400 0000 0400 0000 0400 0000
00000390: 0400 0000 0400 0000 0400 0000 0400 0000
000003a0: 0400 0000 0400 0000 0400 0000 0400 0000
000003b0: 0400 0000 0400 0000 0400 0000 0400 0000
000003c0: 0400 0000 0400 0000 0400 0000 0400 0000
000003d0: 0400 0000 0400 0000 0400 0000 0400 0000
000003e0: 0400 0000 0400 0000 0400 0000 0400 0000
000003f0: 0400 0000 0400 0000 0400 0000 0400 0000
6e-45 6e-45 6e-45 6e-45 6e-45 6e-45 6e-45 6e-45
6e-45 6e-45 6e-45 6e-45 6e-45 6e-45 6e-45 6e-45
6e-45 6e-45 6e-45 6e-45 -6e-45 6e-45 6e-45 6e-45
6e-45 6e-45 6e-45 6e-45 6e-45 6e-45 6e-45 6e-45
6e-45 6e-45 6e-45 6e-45 6e-45 6e-45 6e-45 6e-45
-6e-45 -6e-45 -6e-45 -6e-45 -6e-45 -6e-45 -6e-45 -6e-45
-6e-45 -6e-45 6e-45 6e-45 6e-45 6e-45 6e-45 6e-45
6e-45 6e-45 6e-45 6e-45 6e-45 6e-45 6e-45 6e-45
6e-45 6e-45 6e-45 6e-45 6e-45 6e-45 6e-45 6e-45
6e-45 6e-45 6e-45 6e-45 6e-45 6e-45 6e-45 6e-45
6e-45 6e-45 6e-45 6e-45 6e-45 6e-45 6e-45 -6e-45
6e-45 -6e-45 6e-45 6e-45 6e-45 6e-45 6e-45 6e-45
6e-45 6e-45 6e-45 6e-45 6e-45 6e-45 6e-45 6e-45
6e-45 6e-45 6e-45 6e-45 6e-45 6e-45 6e-45 6e-45
6e-45 6e-45 6e-45 6e-45 6e-45 6e-45 6e-45 6e-45
6e-45 6e-45 6e-45 6e-45 6e-45 6e-45 6e-45 6e-45
6e-45 6e-45 6e-45 6e-45 6e-45 6e-45 6e-45 6e-45
6e-45 6e-45 6e-45 6e-45 6e-45 6e-45 6e-45 6e-45
6e-45 6e-45 6e-45 6e-45 6e-45 6e-45 6e-45 6e-45
6e-45 6e-45 6e-45 6e-45 6e-45 6e-45 6e-45 6e-45
6e-45 6e-45 6e-45 6e-45 6e-45 6e-45 6e-45 6e-45
6e-45 6e-45 6e-45 6e-45 6e-45 6e-45 6e-45 6e-45
6e-45 6e-45 6e-45 6e-45 6e-45 6e-45 6e-45 6e-45
6e-45 6e-45 6e-45 6e-45 6e-45 6e-45 6e-45 6e-45
6e-45 6e-45 6e-45 6e-45 6e-45 6e-45 6e-45 6e-45
6e-45 6e-45 6e-45 6e-45 6e-45 6e-45 6e-45 6e-45
6e-45 6e-45 6e-45 6e-45 6e-45 6e-45 6e-45 6e-45
6e-45 6e-45 6e-45 6e-45 6e-45 6e-45 6e-45 6e-45
6e-45 6e-45 6e-45 6e-45 6e-45 6e-45 6e-45 6e-45
6e-45 6e-45 6e-45 6e-45 6e-45 6e-45 6e-45 6e-45
6e-45 6e-45 6e-45 6e-45 6e-45 6e-45 6e-45 6e-45
6e-45 6e-45 6e-45 6e-45 6e-45 6e-45 6e-45 6e-45

exp_avg_sq f4 [128, 240]
00000000: 346a b435 504a a235 2fe1 9a35 680e a035
00000010: f569 a035 0103 9835 a3a4 9435 1e2e 9235
00000020: 1e2e 9235 de2e 9035 d4b5 c035 5db5 3236
00000030: 0471 3336 1039 3236 a557 3736 1850 3136
00000040: f1b9 2e36 a544 2a36 95db 3136 5503 2336
00000050: 8d48 2930 dd75 4633 6d33 6133 bdb1 6d33
00000060: 6ec5 8f33 5393 9a33 ff27 9333 ff27 9333
00000070: 311a 9e33 19eb a133 dd03 3c34 1442 1f34
00000080: 580f 1d34 4de6 1534 060f 0334 71e5 5034
00000090: b2c5 4a34 e494 5234 e494 5234 8319 9f34
000000a0: fd67 0131 86cd 8931 a1b4 e130 cf4c d730
000000b0: 9830 0b31 988f b930 0f9b ac30 0d6f 9c30
000000c0: 5781 d630 8935 2031 1943 0f34 78e5 fa33
000000d0: f2a5 e533 d041 a533 041e a533 ac9a b433
000000e0: a409 ee33 edfe 3834 41da 4734 3682 4534
000000f0: d913 ec33 34e5 a633 1ebc c733 626c dc33
00000100: 01e9 0834 9ad2 2734 2e3e 2234 5e27 2834
00000110: 820b 3a34 624a 5534 f24c d934 ba82 c434
00000120: 582c bc34 83b3 bf34 ea7e bd34 5179 c434
00000130: ec77 c434 628a be34 31eb d334 26a0 da34
00000140: 8384 9b33 17c8 9d33 0006 a532 a3c5 c432
00000150: 69e3 9332 eef0 9132 ee65 3a32 c7ce 9e30
00000160: 8549 1f31 9a59 a230 e476 a634 a447 9e34
00000170: 23ae 9c34 e98a a934 6a47 a334 715c ab34
00000180: 49d9 a734 5817 ad34 70b7 aa34 07bc b334
00000190: 0f9f f634 d9fd cf34 9f8f d234 dc68 cc34
000001a0: 2c72 b634 49f5 b234 b33a bf34 e10f b434
000001b0: 0d4c b134 d133 9e34 141d d834 8993 bf34
000001c0: d7fb cf34 8292 d034 c800 d934 3281 cd34
000001d0: 21d6 9734 38c4 8534 e3c4 8734 d020 8a34
000001e0: ce52 fb33 2823 0234 7f66 2034 d1f6 0c34
000001f0: 85d3 1334 d370 2434 b53e 2434 5fc7 2b34
00000200: 17c1 2d34 acc6 2834 3ab7 4435 b2b1 2435
00000210: eeeb 1f35 ca76 0335 88d5 1135 2beb 9f34
00000220: adbb 6a34 23ea 0435 da90 0135 1025 fc34
00000230: a8ab 0835 517e e334 fb17 c634 1a35 c634
00000240: 1d0a ce34 d5c8 d834 9e28 0135 0f4e f334
00000250: 81b4 0735 26fc 0435 bf6f bf35 1f08 b635
00000260: 4aea b535 303f b135 6bc3 ad35 f7b2 aa35
00000270: f4d0 ac35 b5fe a935 90af 7135 d252 7a35
00000280: bdb5 0136 cd87 fe35 5034 0336 a45a f635
00000290: 17e0 ed35 43d4 0936 0370 1f36 44e3 1636
000002a0: 92fb 1a36 1283 1536 18d0 b535 6c0f b435
000002b0: b764 bf35 4698 b835 6aa2 be35 62db bc35
000002c0: 5a75 bf35 f216 b835 39de d035 96d4 d235
000002d0: ba5e e235 7094 dc35 ca27 d635 4e16 d135
000002e0: 3d01 cc35 7167 cd35 ad63 bf35 9a93 b635
000002f0: f168 ba35 b237 b835 b580 8735 9c1b 9035
00000300: faeb 9735 102f 9535 fdd8 8e35 227a a435
00000310: 7867 de35 ff5e dc35 2c78 e135 2c54 e335
00000320: 3505 2a35 0533 2135 7991 2535 0f29 7635
00000330: 1d0d 7d35 1d0d 7d35 d00c 8135 32a8 7a35
00000340: f39f 7335 2611 7135 da94 c635 550c bf35
00000350: 491d c035 491d c035 083f c135 1294 c735
00000360: 9442 c235 a1eb bc35 445c bc35 445c bc35
00000370: 95e1 2b36 95e1 2b36 95e1 2b36 95e1 2b36
00000380: 95e1 2b36 95e1 2b36 95e1 2b36 95e1 2b36
00000390: 95e1 2b36 95e1 2b36 95e1 2b36 95e1 2b36
000003a0: 95e1 2b36 95e1 2b36 95e1 2b36 95e1 2b36
000003b0: 95e1 2b36 95e1 2b36 95e1 2b36 95e1 2b36
000003c0: 3c7b bf37 8f4c c637 2b06 ca37 7fbb ca37
000003d0: 1e36 ca37 8795 ca37 a730 ca37 6f34 ca37
000003e0: 3e50 c937 4dcd c137 6658 ea37 e9b9 0538
000003f0: def0 0c38 7262 0c38 2708 0d38 dd3d 1138
1.3441954e-06 1.2091568e-06 1.1539431e-06 1.1925122e-06 1.1951767e-06 1.1325757e-06 1.1074775e-06 1.089127e-06
1.089127e-06 1.0742476e-06 1.4358034e-06 2.6629634e-06 2.6738862e-06 2.6557282e-06 2.732014e-06 2.6421676e-06
2.6036253e-06 2.537193e-06 2.650287e-06 2.4290832e-06 6.158494e-10 4.6207663e-08 5.2433666e-08 5.5342515e-08
6.694869e-08 7.197982e-08 6.852496e-08 6.852496e-08 7.3622125e-08 7.539911e-08 1.751027e-07 1.4832068e-07
1.4627346e-07 1.396049e-07 1.2205791e-07 1.945498e-07 1.8884637e-07 1.961194e-07 1.961194e-07 2.963462e-07
1.8831081e-09 4.01059e-09 1.6422242e-09 1.5665139e-09 2.0254785e-09 1.3501333e-09 1.2558717e-09 1.1382056e-09
1.560731e-09 2.3313496e-09 1.3342323e-07 1.1683272e-07 1.0693829e-07 7.6953825e-08 7.688871e-08 8.410038e-08
1.1084492e-07 1.7229077e-07 1.861272e-07 1.8394425e-07 1.0993217e-07 7.771669e-08 9.300878e-08 1.0264263e-07
1.2750753e-07 1.5629703e-07 1.5110047e-07 1.5660541e-07 1.7326786e-07 1.9864231e-07 4.0475385e-07 3.660296e-07
3.5049993e-07 3.5707134e-07 3.5296335e-07 3.6596114e-07 3.65951e-07 3.5490945e-07 3.9472937e-07 4.0722188e-07
7.241854e-08 7.347278e-08 1.9211257e-08 2.2907278e-08 1.7216466e-08 1.6989784e-08 1.0849801e-08 1.1554783e-09
2.3179336e-09 1.1812518e-09 3.1006414e-07 2.948192e-07 2.9183965e-07 3.1579773e-07 3.0413077e-07 3.1918492e-07
3.126427e-07 3.2240746e-07 3.1798436e-07 3.3478156e-07 4.59368e-07 3.8741453e-07 3.9220046e-07 3.8074256e-07
3.3983213e-07 3.3333552e-07 3.5619232e-07 3.3539166e-07 3.3024153e-07 2.9467495e-07 4.0254292e-07 3.5683868e-07
3.8739992e-07 3.8849618e-07 4.0419968e-07 3.8278228e-07 2.828174e-07 2.4915948e-07 2.5288963e-07 2.5728377e-07
1.17031604e-07 1.2119983e-07 1.4938449e-07 1.3128307e-07 1.3767392e-07 1.5314735e-07 1.5296503e-07 1.5998147e-07
1.6182126e-07 1.5718496e-07 7.328232e-07 6.135334e-07 5.957544e-07 4.8974164e-07 5.432744e-07 2.9787165e-07
2.1861224e-07 4.9514546e-07 4.826703e-07 4.6965624e-07 5.091374e-07 4.2373952e-07 3.6897822e-07 3.691901e-07
3.8377848e-07 4.037926e-07 4.811535e-07 4.5319072e-07 5.0554087e-07 4.9540756e-07 1.4263131e-06 1.356242e-06
1.3553738e-06 1.3205918e-06 1.2946379e-06 1.2718073e-06 1.2875812e-06 1.2665611e-06 9.0034973e-07 9.3252777e-07
1.9328284e-06 1.8963998e-06 1.955097e-06 1.8354808e-06 1.7723095e-06 2.0538143e-06 2.3758046e-06 2.2484028e-06
2.3094221e-06 2.2279023e-06 1.3546114e-06 1.3415533e-06 1.4259921e-06 1.3753386e-06 1.4203372e-06 1.407094e-06
1.4264763e-06 1.3715746e-06 1.5561883e-06 1.570809e-06 1.6865881e-06 1.6434478e-06 1.5955823e-06 1.5578205e-06
1.5199545e-06 1.5303796e-06 1.4259618e-06 1.3603014e-06 1.3888622e-06 1.3725278e-06 1.0095742e-06 1.0736871e-06
1.1319055e-06 1.1115062e-06 1.0642976e-06 1.2254498e-06 1.6570402e-06 1.6418925e-06 1.6798781e-06 1.6937315e-06
6.333751e-07 6.0051417e-07 6.167898e-07 9.170189e-07 9.4268927e-07 9.4268927e-07 9.614978e-07 9.3377014e-07
9.075731e-07 8.980445e-07 1.4795471e-06 1.4234198e-06 1.4313638e-06 1.4313638e-06 1.4397965e-06 1.486975e-06
1.4473503e-06 1.4075669e-06 1.4033944e-06 1.4033944e-06 2.5612292e-06 2.5612292e-06 2.5612292e-06 2.5612292e-06
2.5612292e-06 2.5612292e-06 2.5612292e-06 2.5612292e-06 2.5612292e-06 2.5612292e-06 2.5612292e-06 2.5612292e-06
2.5612292e-06 2.5612292e-06 2.5612292e-06 2.5612292e-06 2.5612292e-06 2.5612292e-06 2.5612292e-06 2.5612292e-06
2.282636e-05 2.363909e-05 2.4083149e-05 2.4167586e-05 2.4105477e-05 2.4149906e-05 2.4102932e-05 2.4104693e-05
2.3998433e-05 2.3102994e-05 2.7936137e-05 3.1882813e-05 3.3602926e-05 3.3470285e-05 3.3624612e-05 3.462831e-05

exp_avg f4 [128]
00000000: 0400 0000 0400 0000 0400 0000 0400 0000
00000010: 0400 0000 9d42 5b3a 0400 0000 13b9 8fb9
00000020: ec95 3eb9 0baa 7b39 0400 0000 a071 a7b9
00000030: 0400 0000 0400 0000 0400 0000 0400 0000
00000040: edfb 0639 0400 0000 a030 b838 0400 0000
00000050: 0000 0000 0400 0000 0400 0000 26f3 f6b8
00000060: 0400 0000 0000 0000 0400 0000 0400 0000
00000070: 0400 0000 0400 0000 0400 0000 fe5d 68b8
00000080: 0400 0000 0400 0000 0000 0000 7346 e138
00000090: 0000 0000 0400 0000 0400 0000 0400 0000
000000a0: 4945 b3b9 0400 0000 0000 0000 0400 0000
000000b0: 0000 0000 0400 0000 0400 0000 28e3 48ba
000000c0: 0400 0000 0400 0000 0400 0000 0400 0000
000000d0: 0400 0000 0000 0000 0000 0000 2319 afb8
000000e0: 0400 0000 0000 0000 0400 0000 1d9d b438
000000f0: 0400 0000 0400 0000 1d6b 9eb8 0400 0000
00000100: 0400 0000 0000 0000 0000 0000 0400 0000
00000110: 0000 0000 0000 0000 0400 0000 0400 0000
00000120: 0400 0000 0400 0000 0400 0000 0400 0000
00000130: 0000 0000 0400 0000 55e5 b5b9 a224 4639
00000140: 0400 0000 0400 0000 0400 0000 0400 0000
00000150: 0400 0000 eda9 3a3a 0000 0000 f664 0db9
00000160: 0400 0000 0000 0000 0400 0000 0400 0000
00000170: ceca 2e38 6673 183a 0400 0000 c0a0 0e3a
00000180: 0000 0000 6c86 adb8 0400 0000 0400 0000
00000190: 0400 0000 0400 0000 0400 0000 0400 0000
000001a0: 0400 0000 4c97 c2b8 0400 0000 0400 0000
000001b0: 89bd d638 0400 0000 91ac 0e38 0400 0000
000001c0: e40b 0038 0000 0000 0400 0000 0400 0000
000001d0: 0521 a5b8 0400 0000 0879 cab8 0400 0000
000001e0: 0400 0000 0400 0000 0400 0000 0400 0000
000001f0: 0000 0000 0400 0000 0000 0000 0400 0000
6e-45 6e-45 6e-45 6e-45 6e-45 0.0008364113 6e-45 -0.00027412976
-0.00018175662 0.00024000571 6e-45 -0.0003193738 6e-45 6e-45 6e-45 6e-45
0.00012873086 6e-45 8.782861e-05 6e-45 0.0 6e-45 6e-45 -0.00011775484
6e-45 0.0 6e-45 6e-45 6e-45 6e-45 6e-45 -5.5400647e-05
6e-45 6e-45 0.0 0.00010741958 0.0 6e-45 6e-45 6e-45
-0.00034193162 6e-45 0.0 6e-45 0.0 6e-45 6e-45 -0.00076632435
6e-45 6e-45 6e-45 6e-45 6e-45 0.0 0.0 -8.349332e-05
6e-45 0.0 6e-45 8.6123335e-05 6e-45 6e-45 -7.5539785e-05 6e-45
6e-45 0.0 0.0 6e-45 0.0 0.0 6e-45 6e-45
6e-45 6e-45 6e-45 6e-45 0.0 6e-45 -0.00034693876 0.00018896398
6e-45 6e-45 6e-45 6e-45 6e-45 0.0007120658 0.0 -0.00013484419
6e-45 0.0 6e-45 6e-45 4.167371e-05 0.00058155356 6e-45 0.0005440824
0.0 -8.274321e-05 6e-45 6e-45 6e-45 6e-45 6e-45 6e-45
6e-45 -9.278822e-05 6e-45 6e-45 0.00010239619 6e-45 3.4016153e-05 6e-45
3.0528652e-05 0.0 6e-45 6e-45 -7.8739635e-05 6e-45 -9.6546544e-05 6e-45
6e-45 6e-45 6e-45 6e-45 0.0 6e-45 0.0 6e-45

exp_avg_sq f4 [128]
00000000: 14ce 8c31 c1d0 e234 46e4 ab32 2c62 5130
00000010: a142 dc2f 2dc1 b136 e961 d133 2663 4836
00000020: cb6e 7436 8033 1b36 d1d7 a730 693f b936
00000030: 0c36 1b30 8e21 e831 3b0d 9634 c816 bc33
00000040: 8e6c 6836 0e5f 582f 99bc 6136 8b62 1b2e
00000050: 0000 0000 6a58 082f 0b15 f130 3a2a 1635
00000060: 316d 9f33 0000 0000 507e 1d2e 803f c131
00000070: c05a b734 4df6 9532 7392 4831 a07f 8b35
00000080: aa43 e730 d788 5e30 0000 0000 7c30 4736
00000090: 0000 0000 498b 322c c389 652f c5cb 0b2f
000000a0: 142b 4736 3d7c 8c33 0000 0000 6965 fa2b
000000b0: 0000 0000 df10 0f33 d524 8631 753d 7c36
000000c0: d11c 2d31 22e6 722b f5a8 f233 16ab aa33
000000d0: 2e18 7431 0000 0000 0000 0000 5f44 7b36
000000e0: 6f6e ea32 0000 0000 3e3c e033 9486 b235
000000f0: 7747 8930 7c5e db32 19fc 7136 f91f 6532
00000100: bd9d 8232 0000 0000 0000 0000 b24e 3433
00000110: 0000 0000 0000 0000 dc10 2133 3ad2 d630
00000120: eae6 7832 49e9 1a31 3377 a72e 7f28 052f
00000130: 0000 0000 de42 4734 ee00 9d36 5d16 7036
00000140: 6933 a62e 2eb2 222f b990 b62f cb77 ce33
00000150: 2a23 8231 752d 6336 0000 0000 8cfd 3136
00000160: bccf ae33 0000 0000 0023 232f 0ca5 aa34
00000170: af4e 1f36 7fc6 8a36 9f2a 7233 492c a236
00000180: 0000 0000 2da4 5535 2763 1e2d 5e23 7233
00000190: 167e 7534 9ee3 2333 9374 032f ffab ca34
000001a0: 690e ab33 47e8 ac36 a3ea 7d33 57bb 0e33
000001b0: eba3 3f35 7419 2130 8944 1634 0119 5d32
000001c0: 765b b134 0000 0000 d72f 4632 fd00 f331
000001d0: e3c6 8734 dfb6 272e 1e9d 3e36 cc59 112f
000001e0: ac1b 1831 526b 2b34 98aa 9134 43f8 4d34
000001f0: 0000 0000 1cc1 1032 0000 0000 9a3e 5933
4.0979646e-09 4.224767e-07 2.0010827e-08 7.617327e-10 4.006511e-10 5.2974997e-06 9.750131e-08 2.9860034e-06
3.6423323e-06 2.3126777e-06 1.2212188e-09 5.5208116e-06 5.6465477e-10 6.7559034e-09 2.7949304e-07 8.758576e-08
3.463388e-06 1.9678856e-10 3.363739e-06 3.5330443e-11 0.0 1.2400539e-10 1.7541039e-09 5.59408e-07
7.423876e-08 0.0 3.5809855e-11 5.6242584e-09 3.4152436e-07 1.7457888e-08 2.9187077e-09 1.0393451e-06
1.6826693e-09 8.095759e-10 0.0 2.9681532e-06 0.0 2.537264e-12 2.0876371e-10 1.271437e-10
2.9678386e-06 6.541857e-08 0.0 1.7791715e-12 0.0 3.3310126e-08 3.9041006e-09 3.75867e-06
2.5191194e-09 8.6295044e-13 1.1299736e-07 7.947362e-08 3.5520418e-09 0.0 0.0 3.7441712e-06
2.7291405e-08 0.0 1.0441771e-07 1.3301201e-06 9.988373e-10 2.5537922e-08 3.6058539e-06 1.3336824e-08
1.5205723e-08 0.0 0.0 4.198109e-08 0.0 0.0 3.7501067e-08 1.5630299e-09
1.4488004e-08 2.2542557e-09 7.615455e-11 1.2110667e-10 0.0 1.8557645e-07 4.679073e-06 3.5775804e-06
7.557938e-11 1.4797116e-10 3.320844e-10 9.614413e-08 3.7874957e-09 3.3852095e-06 0.0 2.652264e-06
8.140293e-08 0.0 1.4837198e-10 3.1785055e-07 2.3738646e-06 4.1358285e-06 5.638378e-08 4.8331317e-06
0.0 7.958759e-07 9.003276e-12 5.6377182e-08 2.2863273e-07 3.815841e-08 1.1955796e-10 3.7750576e-07
7.965429e-08 5.15304e-06 5.9119554e-08 3.3232336e-08 7.1391577e-07 5.860763e-10 1.3994772e-07 1.2869578e-08
3.3035366e-07 0.0 1.1535994e-08 7.072343e-09 2.529042e-07 3.8133826e-11 2.840366e-06 1.3219575e-10
2.213464e-09 1.5964659e-07 2.7132478e-07 1.918243e-07 0.0 8.425811e-09 0.0 5.0581185e-08

exp_avg f4 [64, 128]
00000000: 0400 0000 0400 0000 0400 0000 0400 0000
00000010: 0400 0000 66e6 9732 0400 0000 0400 0000
00000020: 8278 8131 2d3f e432 0400 0000 0400 0080
00000030: 0000 0000 0400 0000 0400 0000 0400 0000
00000040: 0400 0000 0400 0000 ddae da33 0000 0000
00000050: 0000 0000 0000 0000 0400 0000 0400 0000
00000060: 0400 0000 0000 0000 0400 0000 0400 0000
00000070: 0400 0000 0400 0000 0400 0000 6871 d933
00000080: 0400 0000 0400 0000 0000 0000 99e7 3b32
00000090: 0000 0000 0000 0000 0400 0000 0400 0000
000000a0: df4e 5133 0400 0000 0000 0000 0400 0000
000000b0: 0000 0000 0400 0000 0400 0000 3013 dc33
000000c0: 0400 0000 0400 0000 0400 0000 0400 0000
000000d0: 0400 0080 0000 0000 0000 0000 a627 cd33
000000e0: 0400 0000 0000 0000 0400 0000 9686 1c33
000000f0: 0400 0000 0400 0000 0ddc 0f33 0400 0000
00000100: 0400 0000 0000 0000 0000 0000 0400 0000
00000110: 0000 0000 0000 0000 0400 0000 0400 0000
00000120: 0400 0000 0400 0000 0400 0000 0400 0000
00000130: 0000 0000 0400 0000 688f 3334 40eb f533
00000140: 0000 0000 0400 0000 0400 0000 0400 0000
00000150: 0400 0000 b235 dd33 0000 0000 0682 0d33
00000160: 0400 0000 0000 0000 0400 0000 0400 0000
00000170: 4dcc f432 1c1b 5f33 0400 0000 7699 a833
00000180: 0000 0000 0400 0000 0400 0000 0400 0000
00000190: 0400 0000 0400 0000 0400 0000 0400 0000
000001a0: 0400 0000 4d0c 8933 0400 0000 0400 0000
000001b0: 9eaa 5f33 0400 0000 0400 0000 0400 0000
000001c0: 0400 0000 0000 0000 0400 0000 0400 0000
000001d0: 0400 0000 0400 0000 e1de a233 0400 0000
000001e0: 0400 0000 0400 0000 0400 0000 0400 0000
000001f0: 0000 0000 0400 0000 0000 0000 0400 0000
00000200: 0400 0080 0400 0080 0400 0080 0400 0000
00000210: 0400 0080 e518 3e37 0400 0080 e79d 8e36
00000220: cda7 c536 9758 5c33 0400 0080 f250 1638
00000230: 0000 0000 0400 0080 0400 0080 0400 0000
00000240: bb2b f137 0400 0000 53c5 8831 0000 0000
00000250: 0000 0000 0400 0080 0400 0080 0400 0080
00000260: 0400 0080 0000 0000 0400 0080 0400 0080
00000270: 0400 0080 0400 0080 0400 0080 64b4 8a30
00000280: 0400 0080 0400 0080 0000 0000 252b b737
00000290: 0000 0000 0400 0000 0400 0080 0400 0000
000002a0: 5c60 8234 0400 0080 0000 0000 0400 0080
000002b0: 0000 0000 0400 0000 0400 0080 7964 0000
000002c0: 0400 0080 0000 0000 0400 0080 0400 0080
000002d0: 0400 0000 0000 0000 0000 0000 67b7 2d37
000002e0: 0400 0000 0000 0000 0400 0000 ae49 0000
000002f0: 0400 0080 0400 0000 e139 1036 0400 0080
00000300: 0400 0000 0000 0000 0000 0000 0400 0000
00000310: 0000 0000 0000 0000 0400 0000 0400 0000
00000320: 0400 0080 0400 0080 0400 0080 0400 0080
00000330: 0000 0000 0400 0080 540a 0000 7f90 e637
00000340: 0000 0000 0400 0000 0400 0080 0400 0080
00000350: 0400 0080 69aa 6137 0000 0000 67d0 1b37
00000360: 0400 0080 0000 0000 0400 0080 0400 0080
00000370: de59 8c37 784a 0b37 0400 0000 36a5 f237
00000380: 0000 0000 1bfb 3a33 0400 0000 0400 0080
00000390: 0400 0080 0400 0000 0400 0080 0400 0080
000003a0: 0400 0000 6358 8237 0400 0080 0400 0000
000003b0: 0400 0080 0400 0080 0400 0000 0400 0080
000003c0: 0400 0000 0000 0000 0400 0000 0400 0080
000003d0: 0400 0000 0400 0000 28e2 b937 0400 0080
000003e0: 0400 0080 0400 0080 0400 0000 0400 0080
000003f0: 0000 0000 0400 0080 0000 0000 0400 0080
6e-45 6e-45 6e-45 6e-45 6e-45 1.7683487e-08 6e-45 6e-45
3.7680943e-09 2.6571422e-08 6e-45 -6e-45 0.0 6e-45 6e-45 6e-45
6e-45 6e-45 1.01832235e-07 0.0 0.0 0.0 6e-45 6e-45
6e-45 0.0 6e-45 6e-45 6e-45 6e-45 6e-45 1.01254784e-07
6e-45 6e-45 0.0 1.0937492e-08 0.0 0.0 6e-45 6e-45
4.8733337e-08 6e-45 0.0 6e-45 0.0 6e-45 6e-45 1.02480385e-07
6e-45 6e-45 6e-45 6e-45 -6e-45 0.0 0.0 9.5532684e-08
6e-45 0.0 6e-45 3.6443986e-08 6e-45 6e-45 3.3494917e-08 6e-45
6e-45 0.0 0.0 6e-45 0.0 0.0 6e-45 6e-45
6e-45 6e-45 6e-45 6e-45 0.0 6e-45 1.6722845e-07 1.1451493e-07
0.0 6e-45 6e-45 6e-45 6e-45 1.03008816e-07 0.0 3.2947376e-08
6e-45 0.0 6e-45 6e-45 2.8498244e-08 5.194589e-08 6e-45 7.851024e-08
0.0 6e-45 6e-45 6e-45 6e-45 6e-45 6e-45 6e-45
6e-45 6.381797e-08 6e-45 6e-45 5.207641e-08 6e-45 6e-45 6e-45
6e-45 0.0 6e-45 6e-45 6e-45 6e-45 7.584254e-08 6e-45
6e-45 6e-45 6e-45 6e-45 0.0 6e-45 0.0 6e-45
-6e-45 -6e-45 -6e-45 6e-45 -6e-45 1.1330679e-05 -6e-45 4.250312e-06
5.890592e-06 5.1303314e-08 -6e-45 3.5838173e-05 0.0 -6e-45 -6e-45 6e-45
2.8749802e-05 6e-45 3.980554e-09 0.0 0.0 -6e-45 -6e-45 -6e-45
-6e-45 0.0 -6e-45 -6e-45 -6e-45 -6e-45 -6e-45 1.0092092e-09
-6e-45 -6e-45 0.0 2.183539e-05 0.0 6e-45 -6e-45 6e-45
2.4284498e-07 -6e-45 0.0 -6e-45 0.0 6e-45 -6e-45 3.6043e-41
-6e-45 0.0 -6e-45 -6e-45 6e-45 0.0 0.0 1.0354305e-05
6e-45 0.0 6e-45 2.6431e-41 -6e-45 6e-45 2.1491362e-06 -6e-45
6e-45 0.0 0.0 6e-45 0.0 0.0 6e-45 6e-45
-6e-45 -6e-45 -6e-45 -6e-45 0.0 -6e-45 3.705e-42 2.7485423e-05
0.0 6e-45 -6e-45 -6e-45 -6e-45 1.3450722e-05 0.0 9.287242e-06
-6e-45 0.0 -6e-45 -6e-45 1.6731148e-05 8.302384e-06 6e-45 2.892558e-05
0.0 4.353488e-08 6e-45 -6e-45 -6e-45 6e-45 -6e-45 -6e-45
6e-45 1.5538366e-05 -6e-45 6e-45 -6e-45 -6e-45 6e-45 -6e-45
6e-45 0.0 6e-45 -6e-45 6e-45 6e-45 2.215903e-05 -6e-45
-6e-45 -6e-45 6e-45 -6e-45 0.0 -6e-45 0.0 -6e-45
