models/preliminary_results_models/RaceMultiOutputModel3v3/model.pt (torch, 494959 bytes, 18 tensors)

fc1.weight f4 [128, 240]
000000 c7 bd b0 3b 53 ad a4 bc c1 91 5b bd 2c aa 2f 3c
       0.005393717 -0.020102179 -0.0536058 0.0107217245
000010 24 ee 4b bd 96 fb 2a 3c 47 ca 05 3c da 91 6a bd
       -0.049787655 0.010435959 0.008165902 -0.057268
000020 46 11 ca 3c 60 b5 40 3d 3b 7f dd bc 29 8c 64 3d
       0.02466644 0.047047973 -0.027038207 0.05579773
000030 e3 50 0c 3c 8e 83 81 bd 82 8f 68 bd 1b 0d 62 bd
       0.008564207 -0.0632392 -0.056777485 -0.05518828
000040 a5 09 ff bb 33 ac 52 bd a4 d7 22 3d 79 ba 5c 3d
       -0.007783132 -0.051433753 0.039756432 0.05388877
000050 35 de 3f 3d 34 75 5e bd 50 af fa 3c 4a 14 82 3c
       0.046842773 -0.054310992 0.030601174 0.015878815
000060 73 a9 4c bd 25 f1 c1 bb 92 3f e3 3c 59 e1 01 bd
       -0.049966287 -0.0059186392 0.027740274 -0.03170905
000070 d8 23 dc 3c 4e d3 51 3d ec 16 e7 bb 5f 43 c5 ba
       0.02687256 0.051226906 -0.007052293 -0.0015049985
000080 3b 26 46 3c 37 4c 5f bd 5e e7 d1 3c 83 d8 15 3d
       0.012094076 -0.054516044 0.02562302 0.036583435
000090 d7 28 b3 3c 10 54 6d bd 5c 89 d8 3c 30 89 53 bd
       0.02187006 -0.057941496 0.026432686 -0.051644504
0000a0 ff de 0d 3c bb 0e dd bc 3a 0e 15 ba d3 c7 83 3c
       0.008659123 -0.026984563 -0.0005686019 0.016086495
0000b0 d4 a4 12 bd fd be 69 bd ef a2 fd 3c b3 47 89 bd
       -0.035801724 -0.057066906 0.030961482 -0.06703129
0000c0 ed f5 0f bd 1b 05 fd bc e4 4b 11 bd 58 0d 66 3d
       -0.035146642 -0.030886224 -0.035472766 0.05616507
0000d0 de e5 74 bd b4 40 2f 3b 9c 5d 03 bd 0d 93 15 bd
       -0.05978953 0.0026741447 -0.032071695 -0.03651719
0000e0 24 6f 0e bd e3 b5 85 3c 2f c8 90 bd 4a 1e c7 bc
       -0.03477396 0.016322082 -0.07069432 -0.024306435
0000f0 f8 b9 30 3c 23 6a 1b 3d 14 a1 75 bd 52 1e 4b bd
       0.010786526 0.037943017 -0.05996807 -0.049589463
000100 35 38 e0 bc 5a cd 16 3d f0 37 82 3c 0f 98 c3 3c
       -0.027370552 0.036816932 0.015895814 0.023876218
000110 5b a1 01 3d 61 19 32 3c 18 99 1f 3d f8 3d 20 3d
       0.03164802 0.010870309 0.03896436 0.039121598
000120 06 37 2f 3b 8b c1 96 bc 91 2d ae 3b 60 58 ee bc
       0.0026735677 -0.018402835 0.0053154905 -0.029094875
000130 ab 12 6d 3d 3b e7 0c bc 64 24 87 3c 9d c9 30 bd
       0.05787913 -0.0086000515 0.016496845 -0.043161023
000140 2d 8f d5 3c 74 f0 15 bd e7 14 35 bd 94 3c d6 ba
       0.026069248 -0.036606267 -0.044209387 -0.0016344958
000150 a3 c0 6a bc 32 35 30 bd fe 11 a5 bc 14 b0 d4 bb
       -0.014328155 -0.04301948 -0.02015018 -0.0064907167
000160 4e 23 e7 3c 1f b8 38 bd 2e 34 4e 3d e9 6e 3a bd
       0.028215077 -0.045097467 0.05034273 -0.04551593
000170 ca 7e 6e 3d 44 32 f5 bc 0a a9 43 bd 75 3e 33 3d
       0.058226384 -0.029931195 -0.04776863 0.043760736
000180 4f a5 3e 3c ae a0 b8 bc 3d 26 2c 3d da de 87 3c
       0.011636092 -0.022537556 0.042028654 0.016585756
000190 6f 81 f5 bc 64 a5 ef bc 82 bc b1 bb 01 30 10 bd
       -0.029968945 -0.02925367 -0.005424083 -0.03520203
0001a0 c0 6c 68 3d df b2 a8 3c 03 ef a3 bc e1 7e 8f bd
       0.056744337 0.020593105 -0.02001143 -0.07006622
0001b0 92 a4 29 3d 89 df 67 3d e3 07 85 bd 77 81 0c 3b
       0.041416712 0.056609664 -0.06495645 0.0021439472
0001c0 c4 fa 67 3d fc e6 d1 3c 5f 37 09 bd f4 39 5a bc
       0.056635633 0.025622837 -0.03350007 -0.013319481
0001d0 c7 73 01 3d e2 07 c5 3c 11 0d 3a bb 2a ac 43 bd
       0.031604555 0.02405161 -0.0028389136 -0.04777161
0001e0 c9 5b 6f bd 0b 04 4f 3d b5 20 1f 3d 47 5b 46 3d
       -0.058437143 0.050540965 0.03884955 0.048426893
0001f0 92 a0 25 bd 1d fe 3d bd ae cd f7 39 92 88 4a bc
       -0.040436335 -0.04638492 0.00047264755 -0.012361662
000200 53 b6 bf bc 89 21 85 3c 97 88 63 bd 0c 72 74 3c
       -0.023402369 0.016251342 -0.055550184 0.014919769
000210 89 32 20 3d c1 be 48 3d 76 ee 70 bd 27 14 19 bc
       0.039110694 0.049010042 -0.058821164 -0.009343184
000220 7a 83 89 bd 31 1d 70 bd 4d 15 07 bc 74 4a 3b 3d
       -0.0671453 -0.05862159 -0.008244825 0.0457253
000230 34 33 4e bc 71 06 fc ba 9e a3 ed 3c 5e 18 59 3d
       -0.01258545 -0.0019227994 0.029008683 0.053001754
000240 1e 6c 4f 3d 82 37 61 3d 18 9b 9f bc 6f 45 d6 ba
       0.050640218 0.054984577 -0.019483134 -0.0016347597
000250 1e 77 a8 bb dd 7a 80 bd ed 65 78 3c 97 18 31 bd
       -0.005141153 -0.06273434 0.01516102 -0.04323634
000260 c4 f4 1b 3b 03 4a 69 3c fa fc d7 3c 14 f6 65 bd
       0.0023797015 0.014238837 0.026365746 -0.05614288
000270 51 0b 2f bd 24 a1 60 bb a4 fa 35 3c ce 2a 26 3c
       -0.0427354 -0.0034275735 0.011107121 0.010142041
000280 77 c7 68 3d 77 59 c7 bb 09 3f b4 bb a3 37 02 bd
       0.05683085 -0.006083663 -0.0055006784 -0.03179134
000290 1b bf b1 3c 2b 05 2f bd eb 2c b3 3b 38 bb 9e 3b
       0.021697572 -0.042729538 0.005468001 0.0048440956
0002a0 5a bd 0f 3d 99 c7 72 bd 83 7a a3 3b 11 80 35 bd
       0.03509269 -0.059272382 0.00498897 -0.044311587
0002b0 d5 2f 6c bc 1d b0 8c bd 14 f0 c8 3b b5 58 94 3c
       -0.014415701 -0.068695284 0.006132135 0.018108705
0002c0 1b 08 83 bd dd 2e fa 3b 04 e5 79 3b eb bc 63 3d
       -0.0639803 0.007634981 0.0038130889 0.055600088
0002d0 78 9f 47 bd 33 6d e2 bc 0a c1 11 bd 8b f9 b4 3c
       -0.048736066 -0.02763996 -0.035584487 0.022091648
0002e0 49 94 67 bd 1f 14 bc bb 21 f6 39 3d 8a 23 53 bd
       -0.0565379 -0.0057397033 0.045400742 -0.051547565
0002f0 4b 00 82 bd 75 8d bc bc da 00 04 bd fd ce 37 bd
       -0.06347712 -0.02301667 -0.032227375 -0.044875134
000300 32 b9 0a 3d 88 6d 5c 3d 70 45 f6 bc 1f 11 1c 3d
       0.033868022 0.053815395 -0.030062407 0.038102265
000310 3b 50 54 3d 31 de 8c bd 01 32 9c 3c e1 c2 1f 3d
       0.051834326 -0.06878317 0.019066812 0.03900421
000320 fa c3 68 3d 69 81 53 bd b8 06 34 bd cf 06 96 3b
       0.056827523 -0.051637087 -0.04395172 0.0045784484
000330 d5 af 10 bd 08 ed c8 3c 06 eb 78 bc 98 47 0b 3d
       -0.035323936 0.024527088 -0.015192753 0.034003824
000340 b4 74 25 bd 83 ba 38 3d 9d e9 64 bd a8 79 4d 3d
       -0.0403945 0.045099746 -0.055886853 0.05016485
000350 63 97 42 bd f5 da 9a 3c 88 05 64 3d fe 13 c8 bc
       -0.047507655 0.018903235 0.055669338 -0.024423596
000360 06 8e f5 3c 15 41 0a bc 80 06 8c bd 58 0e 03 3d
       0.029974949 -0.008438368 -0.06837177 0.0319961
000370 f3 eb c0 3c 41 83 01 3d 78 ea 56 bd 64 78 e7 3c
       0.02355001 0.031619314 -0.0524697 0.028255649
000380 50 09 0c bc ef 56 2f 3c e1 78 20 3d 13 19 0f 3d
       -0.008547142 0.010701879 0.03917778 0.034936022
000390 cf 7a 3a 3c 9c 21 2a bd 7d 10 0a 3d 9e 88 f9 3c
       0.011381819 -0.04153596 0.03370713 0.030460652
0003a0 96 b1 fa bc 41 99 1b 3d b6 73 2b bd 5d 10 2a 3d
       -0.030602258 0.03798795 -0.041858397 0.04151951
0003b0 7b 77 7c bc f1 7d 2d 3d 23 b9 bf 3c d5 b0 6c bd
       -0.015409346 0.042356435 0.02340371 -0.057785828
0003c0 6e 4f 3d 3d 00 b5 e2 bb 79 3d 8d 3c 3f b5 72 bd
       0.04621833 -0.0069185495 0.017241227 -0.05925488
0003d0 cb 47 eb bc 5e 2b 34 bd 1e 5e 79 bd b3 4d 01 bd
       -0.028720757 -0.04398667 -0.060880773 -0.03156824
0003e0 e8 f4 08 3c c3 f7 9f bb 2c 6a 04 3d 10 b8 12 bd
       0.008359171 -0.0048818304 0.032327816 -0.035820067
0003f0 dd 68 e8 bc 04 0b 81 bc 02 a9 4e bd 22 db 33 bd
       -0.028370315 -0.015752323 -0.050454147 -0.043910153

fc1.bias f4 [128]
000000 87 18 d0 3c ab f9 0d bc 61 63 4b bb 26 d9 09 3d
       0.02540232 -0.0086654825 -0.0031034576 0.033654355
000010 f3 6b fb b9 be 69 ab 3c f1 31 00 3d 41 35 0a 3c
       -0.0004795488 0.020924445 0.031297628 0.008435548
000020 f9 0e 84 bd 19 35 31 bc 94 72 b3 3c 84 cc db 3a
       -0.06448168 -0.010815882 0.021905221 0.0016769324
000030 b5 2e 2d 3d 06 9e 93 3d c7 74 03 3d fa e8 7d bc
       0.04228087 0.07207875 0.03209379 -0.0154974405
000040 15 86 28 3d b1 df 4e 3d 1d ac 73 3d 69 9e d0 bc
       0.041143496 0.050506297 0.059490312 -0.02546616
000050 d2 8a f9 3b 63 cb 4e 3c 0f 94 f1 3c 89 c3 ea bc
       0.0076154256 0.012621733 0.029489545 -0.028657692
000060 d8 f6 50 bd 81 7a 77 bd 73 a2 13 3d 0e c4 01 3c
       -0.05101666 -0.060419563 0.036043596 0.007920278
000070 e6 54 1c 3d 48 60 41 bd 68 94 7c bd a6 4e b1 3c
       0.038166903 -0.04721096 -0.06166497 0.021643948
000080 e2 f6 65 3c 15 ac 18 bd 2f 54 5b bd cb 6c f7 3c
       0.014035912 -0.037273485 -0.05354708 0.030203244
000090 96 c5 39 bd 89 7f 0d 3d 50 a8 56 bd 4f 56 6b 3d
       -0.04535445 0.034545455 -0.05240661 0.057455357
0000a0 06 15 8a bc b4 15 44 bd 44 92 40 bd ad 27 2c 3d
       -0.016855728 -0.04787226 -0.04701449 0.042030025
0000b0 92 c8 ca 3b 32 73 39 bd d2 73 03 bd 59 af f8 bb
       0.0061884606 -0.045275874 -0.032092877 -0.0075892624
0000c0 3a 5f c3 3c 99 fc ea bc 31 8d 76 3c f5 9b 07 bd
       0.023849119 -0.028684901 0.015048311 -0.033107717
0000d0 73 d4 12 3d f5 49 16 ba da 77 b1 bc de aa 4e bd
       0.03584714 -0.00057330664 -0.021663595 -0.05045592
0000e0 40 d9 3a 3c a1 0f b5 bc a1 c3 8a bd 8d 45 62 3c
       0.0114043355 -0.022102179 -0.067755945 0.0138105275
0000f0 f0 c9 2a bd d2 29 a8 ba 88 f0 60 3d d4 5c 58 3d
       -0.04169649 -0.0012829846 0.05491689 0.052822903
000100 26 48 ba 3b 8c e5 db bb f3 0e 0e bd 5e 03 53 bd
       0.0056848703 -0.0067107137 -0.034682225 -0.051516883
000110 87 59 50 3d 13 eb 8a bd 52 11 86 bd 09 9e 15 bd
       0.05086663 -0.06783118 -0.06546272 -0.036527667
000120 40 86 d3 39 38 12 fc bc a3 ca 16 3c 22 ce 51 bc
       0.0004034508 -0.030770406 0.009203586 -0.012805494
000130 e7 cc 83 bc 98 f3 34 bd 02 e1 6a bd bb 4e 81 bd
       -0.016088916 -0.04417762 -0.05734349 -0.06313845
000140 e8 5c 19 3a d7 56 84 3d 94 07 f7 bb 9a 9a 0b 3d
       0.0005850331 0.06461876 -0.007538745 0.034082986
000150 5f 7e f3 bc 12 45 93 bc 7c 3d 89 3d 69 fa 86 3c
       -0.029723344 -0.017977271 0.0670118 0.016476827
000160 7b ca 3d bc c6 73 8d bc cd e7 3c 3d fb 56 3c bd
       -0.01158392 -0.01726712 0.0461195 -0.04598139
000170 7f aa a9 bc 46 2a 12 bd de be 0c 3c 6d 07 80 bc
       -0.020711182 -0.035684846 0.008590428 -0.01562854
000180 c8 f9 18 3c 07 5d 33 3d 4b af 0b bd 28 03 2b 3d
       0.009336896 0.04378989 -0.03410272 0.041751057
000190 0d 8f 44 bd 5c 76 69 3c 01 dc a9 bc 25 74 4f bd
       -0.047987986 0.0142494105 -0.020734789 -0.050647873
0001a0 59 c4 29 bd 87 7c 27 3d 06 de d5 3c ab 12 80 bc
       -0.041447017 0.040890243 0.026106846 -0.015633902
0001b0 70 53 4c 3d 45 31 37 bd 76 46 2e 3c fd 35 b0 3c
       0.04988426 -0.04472472 0.010636916 0.021510119
0001c0 f1 86 74 3d d6 96 53 3d d8 c1 25 3b b1 92 26 3c
       0.059699003 0.05165752 0.0025292542 0.01016681
0001d0 2e 3b 0e 3d 54 92 49 bd ad d3 5c bd 20 40 40 3c
       0.034724407 -0.049211815 -0.053912807 0.011734039
0001e0 9a b5 0c bd 02 df 31 bb 3a 96 44 3c 82 f2 40 3d
       -0.034352876 -0.002714098 0.011998707 0.047106273
0001f0 d2 68 2b 3d fb da 79 3d 3a 56 cb 3c d6 48 6e bd
       0.04184801 0.06099985 0.02482139 -0.05817493

fc2.weight f4 [64, 128]
000000 ed b0 ec 3c f5 66 d0 3a b4 56 e0 bc 99 66 23 3b
       0.028892959 0.0015899824 -0.027385093 0.002493298
000010 59 20 0b bd 23 33 d4 3c df 4b a0 bd 27 d4 16 bc
       -0.033966396 0.02590329 -0.07826971 -0.0092058545
000020 10 4c 44 3c 95 1d 08 3d 0a 70 b5 3d 90 a0 10 3d
       0.011981025 0.033231337 0.088592604 0.035309374
000030 78 8c 65 bd 2e ef a4 3d a5 10 09 bd dc 63 a3 3c
       -0.056042165 0.080534324 -0.03346314 0.019945078
000040 70 25 c1 bc a2 d2 1b 3d 4f 14 0b 3d a3 dc 0d 3d
       -0.023577422 0.038042672 0.033954915 0.034634244
000050 42 cb 77 3d 4b bd 9e bd bf 13 b4 bc 65 f4 a6 bd
       0.060496576 -0.077509485 -0.021982072 -0.08152083
000060 9e 16 b7 3d af 0e 5c 3d db 8c 97 bd 63 48 4a 3d
       0.08939861 0.05372494 -0.07399913 0.04938544
000070 89 01 aa 3d 22 14 9f 3d d2 8b 9b bd 17 62 a0 3d
       0.08301074 0.07767512 -0.07595028 0.07831209
000080 82 c0 00 3d 4b 97 9b 3c 3c 71 2f 3c 4e d9 59 3d
       0.03143359 0.01899304 0.0107081495 0.053185754
000090 30 83 c8 b9 0b 82 51 ba 8a f4 39 bd 65 85 ab bd
       -0.00038244715 -0.0007992095 -0.045399226 -0.08375052
0000a0 fe e6 3a 3a 9f 8a 30 bd 96 91 6a 3d 20 f9 b9 bd
       0.00071297574 -0.04310095 0.057267748 -0.0908072
0000b0 d2 9a 8f bc fb 5d 71 bd 84 14 b0 bd 26 79 8b 3d
       -0.017529879 -0.058927517 -0.08597663 0.068102166
0000c0 cc 29 9d 3d 15 8f 0d 3d 60 3a 0e bd 95 e7 9b 3d
       0.07673988 0.03456028 -0.03472364 0.0761253
0000d0 9d d9 09 3d 1b b7 4d 3c 3e 74 ad 3d 2a c3 48 3d
       0.033654798 0.012555863 0.08469437 0.049014248
0000e0 48 bc 43 bd c0 8a ac bc e1 e8 80 bb eb 1d e3 bb
       -0.04778698 -0.021062255 -0.0039340113 -0.0069310567
0000f0 ba d5 8b 3d ff 8b 37 3b d7 6d 5a bd 9a 2f 96 bd
       0.068278745 0.0028007028 -0.053327408 -0.07333298
000100 f8 34 fb bb ff 60 e3 3c b0 89 b1 bb 92 c8 6f bd
       -0.0076662265 0.027756212 -0.005418025 -0.058540888
000110 4a 04 77 bc 59 ca da 3c b5 bb 4b bd 74 e7 db bc
       -0.015076706 0.026707815 -0.04973956 -0.026843764
000120 6a 09 6a bc 45 b0 3a bd 4a 73 4a 3d b4 8f 9d bd
       -0.014284471 -0.04557826 0.049426354 -0.07693425
000130 41 7a 9a bd 8e 16 e1 bc 67 a3 0b bd c7 16 38 3d
       -0.07542849 -0.027476575 -0.03409138 0.044943597
000140 4b 15 f5 3c 22 2b 76 3d 81 e7 0a bb 30 e4 2e 3c
       0.02991738 0.06009973 -0.0021195116 0.010674521
000150 9e f5 4f bd 30 18 cd 3c 8f ec a4 ba 9a 59 df 3c
       -0.05077135 0.025035948 -0.0012582707 0.027264405
000160 a9 19 b6 3c b7 85 07 bd ae 5a a7 bc f0 d9 8d 3d
       0.022229033 -0.033086505 -0.020428982 0.06926334
000170 57 80 ca 3c 8b cb 4b bd 21 9d de 3c d4 b6 62 3c
       0.0247194 -0.04975466 0.027174534 0.013837535
000180 80 d7 91 bb 2a 19 eb 3c 50 77 98 3b 42 e8 08 bd
       -0.0044507384 0.028698523 0.004652895 -0.033424623
000190 e9 df 9d bd 56 f8 a8 bd a0 6a d0 3c 91 12 5e 3d
       -0.07708723 -0.08250491 0.025441468 0.054216925
0001a0 21 32 5c 3d 6a 2a 1e 3d 0e 03 8f bd 14 97 52 3d
       0.053758744 0.038614668 -0.069830045 0.05141361
0001b0 3f 90 5a bc b7 9a 16 bd dd 25 b4 bd dc db 91 bd
       -0.013340055 -0.03676864 -0.08796284 -0.07122013
0001c0 60 62 a2 bb 8f e5 91 bd dd e5 50 3c ca d0 8e 3b
       -0.004955575 -0.07123863 0.012750116 0.0043583857
0001d0 04 a1 a2 bd d8 3b 91 3d c4 d5 43 3d ec e7 9d bb
       -0.079408675 0.070914924 0.047811285 -0.004818907
0001e0 77 b9 85 bd 9c 42 9b bd 9e 69 90 3d 32 44 86 3d
       -0.06529515 -0.07581064 0.07051395 0.06555976
0001f0 1b 12 4c 3c 06 a3 2e bd 8f 57 05 bd 4f 7f 97 bd
       0.012455489 -0.04263594 -0.032554206 -0.07397329
000200 ca 73 1d 3c 4b e0 e1 3a e9 fa 33 3d da f3 88 bc
       0.009610126 0.0017232982 0.04394046 -0.01671784
000210 d6 81 4b bd ac 37 95 bd 20 76 98 bc b7 9e b8 3d
       -0.049684368 -0.07286009 -0.018611014 0.090146475
000220 3c 16 b8 bb 63 9f 98 bd f2 d4 29 bd 02 8d 47 3a
       -0.005617885 -0.074522756 -0.041462846 0.00076122594
000230 2c 39 a3 bd 42 3b 28 3c de 48 62 3d a8 c0 a0 3c
       -0.07969889 0.010268034 0.055245273 0.019623116
000240 e8 0d 40 bd bb f6 4f 3d d7 bf 48 bd b3 39 60 bd
       -0.046888262 0.05077241 -0.049011078 -0.054742526
000250 05 ad 87 3d 1c 2e ff 3c e8 6d 90 bd 47 73 c2 bc
       0.06624798 0.031149916 -0.07052213 -0.02373661
000260 56 2b 02 3d c6 64 80 bd 48 03 bc 3d 2f 5e ca 3c
       0.03177961 -0.06269221 0.09180313 0.024703113
000270 bf 35 ab 3d a2 82 92 3b e0 42 58 3d 53 8f e3 3b
       0.08359861 0.004471139 0.052798152 0.006944576
000280 74 e5 bc 3b 5c 9d 4e bc 8b 65 23 3d 72 29 79 bb
       0.0057646576 -0.01261076 0.03989176 -0.0038019088
000290 d0 dc a1 3d f0 fc 7d bc 16 25 5a bd 2f 6c ad 3c
       0.07903445 -0.0155021995 -0.053258024 0.02116975
0002a0 fe 3d 36 bc 8d 84 85 3d 6e e3 6e 3d 73 96 98 3d
       -0.0111231785 0.06519423 0.058322363 0.07450571
0002b0 1f 90 ad 3d f1 3e e9 3b 4e 95 0e bc d3 29 11 3d
       0.084747545 0.007118099 -0.008702589 0.035440277
0002c0 c2 01 26 bd fb c1 02 3d a7 b0 5b bd c6 51 96 3c
       -0.04052902 0.031923275 -0.053635266 0.01834954
0002d0 80 1c 75 bd 94 6e 75 bd 0b 0b 61 3c 24 c6 41 3a
       -0.059841633 -0.05991991 0.013735543 0.0007391891
0002e0 42 8d a5 bd 3d 7f f9 bc d1 4d 33 3c 8d 64 47 3d
       -0.080835834 -0.03045618 0.010943846 0.048679877
0002f0 47 11 04 3d 0d be 10 ba a7 f0 23 bd ef c9 74 3d
       0.03224304 -0.0005521484 -0.040024426 0.05976289
000300 70 c0 09 3c a8 0e 9f 3d d4 48 89 3d ca e8 66 3b
       0.008407697 0.07766467 0.06703344 0.0035233968
000310 92 43 92 3d 01 01 4b bd 28 95 81 bd a1 28 8d bd
       0.07141794 -0.049561504 -0.063272774 -0.06892515
000320 26 95 1b 3d 22 87 9c 3d 3a 41 91 bd 00 c2 e4 3b
       0.037984036 0.07642962 -0.07092519 0.0069811344
000330 8a 63 d0 bc 7f d7 08 bd fe 0e 2c bd 04 bc 84 3d
       -0.025438089 -0.033408638 -0.042006485 0.06481174
000340 c5 51 a6 bd 60 da 4a 3d a9 d0 9a 3d 1c 93 a7 bc
       -0.08121065 0.049524665 0.0755933 -0.02045589
000350 4d de eb bc 1c fa 8a bd e7 a4 4d 3b 26 bd ae ba
       -0.028792525 -0.06785986 0.0031378807 -0.0013331517
000360 cb 78 30 3d 9a e4 27 bd ba 45 c7 3c 69 4b 4e 3d
       0.043083947 -0.040989496 0.02432524 0.050364885
000370 0f 5c 2d bc 68 24 41 bd 95 97 a4 3c 11 05 81 3d
       -0.0105810305 -0.04715386 0.020091811 0.062997945
000380 80 99 b4 3b 6b 17 92 bd 1a 3c 05 bd 55 2c 47 bd
       0.0055114627 -0.07133373 -0.03252802 -0.048626263
000390 54 d0 ae bd fd 24 26 3d 92 a1 31 bc c3 30 bc 3d
       -0.08535829 0.04056262 -0.010841744 0.09188988
0003a0 6b be 85 3c af fe 8e 3d 1a 8f a5 3c 8f 5d 45 3d
       0.01632615 0.06982171 0.020209838 0.048184928
0003b0 30 58 1b 3c 55 88 b5 bd 89 4a 33 3c 61 fc b2 bd
       0.009481475 -0.08863894 0.010943064 -0.08739544
0003c0 5f b1 3d 3d 98 28 b5 bd fd 05 df bc ab ba de bb
       0.046311732 -0.08845633 -0.027224535 -0.006797155
0003d0 ce 4c 21 bd ef be 8b 3d 84 49 71 3d a0 bc a8 3d
       -0.039379887 0.06823527 0.058908 0.08239102
0003e0 9c 7d ac 3d a2 80 8d 3c 19 2c 22 3d 7f e7 ca bc
       0.084223956 0.017273251 0.039592836 -0.024768589
0003f0 ed a1 a2 3c 5c 85 2a 3d f3 b7 0c 3c 7d e4 8a bd
       0.019852603 0.041631088 0.008588779 -0.06781862

fc2.bias f4 [64]
000000 ed a1 c6 3c 5f 2d 65 3d 09 da 81 bd f8 5e 11 3d
       0.024247134 0.055951472 -0.06340415 0.03549096
000010 cf 8b 38 bc 10 f5 b6 3d 06 81 d7 bb ee 36 b4 bc
       -0.011263802 0.08933461 -0.00657666 -0.021998849
000020 b1 44 be bd 4c b6 8c bd 26 02 35 3d ca f1 c9 3c
       -0.092904456 -0.06870708 0.044191502 0.024651427
000030 1e 16 35 3d 2c 08 4d 3d 1d 79 e5 bc 3c 3d 19 3d
       0.044210546 0.05005662 -0.028011853 0.037411913
000040 2b 27 6c bd 94 e3 11 3d a5 da 5e bc fe 0f 38 bd
       -0.05765454 0.035617426 -0.013601934 -0.044937126
000050 53 30 25 bd 66 d4 1b 3d 03 73 b1 bd 28 d2 a3 3d
       -0.04032929 0.038044356 -0.08664515 0.079990685
000060 6f 7f db bc f9 eb 3b 3d e6 64 23 bd 2d 60 7b 3d
       -0.026794164 0.045879338 -0.039891146 0.061371017
000070 19 05 5c bd e4 d4 ff bc 16 a0 3d bd 23 b9 4f bc
       -0.0537158 -0.031229444 -0.046295248 -0.012678417
000080 bc b7 05 bc 1e 2f 60 3d ea f6 8b bc 2a 04 a3 bc
       -0.0081614815 0.054732434 -0.017085511 -0.019899447
000090 1d d4 7f 3d f2 ff 83 bd 72 38 45 bd 20 6b bc bd
       0.062458146 -0.06445302 -0.048149534 -0.0920012
0000a0 19 d4 1d 3d 85 92 98 3d 0f 1f 37 3c 85 8a 82 3d
       0.03853235 0.074498214 0.011176839 0.06374077
0000b0 f9 7b 9a bd b4 35 3a 3c 3c 34 de bc e5 ff 28 bd
       -0.07543177 0.011365343 -0.027124517 -0.041259665
0000c0 6e cd 10 bd 75 ba 08 3c d7 3b 74 bd f2 02 4b 3d
       -0.035352163 0.008345236 -0.05962738 0.049563356
0000d0 df 9c 36 bd ac a5 be bd dc 48 94 bd be ce 85 bd
       -0.044583198 -0.09308943 -0.07240459 -0.065335736
0000e0 29 e0 20 bd fe 5d 78 bd 2d e7 f4 bc 09 6c 6d 3d
       -0.039276276 -0.060636513 -0.02989539 0.05796436
0000f0 ae df 44 3d 78 0a 64 3d 91 71 fd 3c 19 c2 86 3d
       0.04806488 0.055674046 0.030937942 0.0657999

fc3.weight f4 [24, 64]
000000 80 91 f5 bd 97 7e 83 3c b1 3f 26 3c 84 a7 cc 3d
       -0.119906425 0.016051574 0.010147021 0.099928886
000010 e6 99 26 bd 68 c5 9c bd 94 27 9b 3d 54 7b 4a 3d
       -0.040674113 -0.0765484 0.07575908 0.04943402
000020 f0 32 bd bd 1c f0 90 3d f1 6c 7e bd 9b 7a a9 3d
       -0.09238231 0.07077047 -0.062115613 0.08275338
000030 af 8e 29 3d 99 02 bf bd 0e 81 d3 3d e2 60 ba 3d
       0.04139584 -0.09326667 0.103273496 0.0910051
000040 5d 1a 9b bd d0 ff fb 3c 47 bb a5 3b cc 48 87 3d
       -0.07573388 0.03076163 0.0050577256 0.06605682
000050 db 5d 24 3d 70 d4 bf 3d b2 2d fb bd 41 b5 a1 3d
       0.04012857 0.09366691 -0.12264575 0.078958996
000060 69 9e c3 3c 5e ad 8b bd 9f 41 f6 ba 70 fc b0 3d
       0.023879247 -0.068201765 -0.0018787867 0.08641899
000070 03 d0 04 bd c8 6b 05 bc 98 f4 db 3d 5a 90 15 bd
       -0.032424938 -0.008143373 0.10740012 -0.036514618
000080 19 93 a6 bd 47 bb e0 bc 06 1c 8f bc bb d7 92 b9
       -0.081335254 -0.02743305 -0.017469417 -0.00028008022
000090 48 6e 0a bd d1 c0 94 3d 69 0e 05 bd 5a bf 94 3d
       -0.03379658 0.07263339 -0.032484446 0.0726306
0000a0 87 f3 77 3c 05 4f 03 bd fa 63 58 bd 90 a6 1d bd
       0.015133745 -0.03205778 -0.05282972 -0.038488925
0000b0 a1 ce 2a 3c b6 e9 b2 bd 26 0c 58 bc de ae 91 3d
       0.010425241 -0.08735983 -0.01318649 0.071134314
0000c0 fe a1 9b bd 25 ff 19 3b 96 a5 93 3d 21 07 3f 3d
       -0.07599257 0.0023498025 0.072093174 0.046637658
0000d0 0e 64 c3 bc 1a 84 01 be 3c c8 d1 3c c2 f0 dd 3d
       -0.02385142 -0.12648049 0.025608175 0.108369365
0000e0 3e ac 4c bc 35 bd 59 3d 04 25 36 bd 27 d1 36 3d
       -0.012492238 0.053158958 -0.044468895 0.044633057
0000f0 5e 17 87 bd ab ad 98 bc 9d 22 ca bd 15 97 d9 bc
       -0.06596254 -0.018637499 -0.09869883 -0.0265613
000100 c6 b9 3d 3d 44 a9 c8 bd e1 0c 94 bc 3f b4 e3 bd
       0.046319745 -0.0979791 -0.018072547 -0.111183636
000110 a1 b0 e1 bd 97 58 94 3d 62 52 7b 3d 2a 6e 14 bb
       -0.110200174 0.0724346 0.061357863 -0.002264867
000120 2f 23 8d 3b a3 0f e4 3d e5 e3 49 bd ef c6 2b 3d
       0.0043071727 0.11135795 -0.049289603 0.041937765
000130 ac ac 9c bd d9 b2 c3 39 1e 79 ea bd 85 05 b6 3c
       -0.07650122 0.0003732655 -0.114488825 0.022219429
000140 3e a3 a9 3d 20 0e c7 bc f7 7d 08 bd 9b e0 c0 bd
       0.08283089 -0.024298728 -0.033323254 -0.0941784
000150 6a 47 b4 bd b5 68 b2 3d 50 ff 66 3c ea a7 26 3d
       -0.08802684 0.087113775 0.014098957 0.04068748
000160 fb 3e ee bd ca c4 2d bc 0c b0 ad bb fd eb 68 bd
       -0.11633106 -0.010606 -0.0053005274 -0.05686568
000170 76 c0 74 ba 00 dd a9 3c 4b 20 19 bd 5e 8e aa bc
       -0.000933654 0.020735264 -0.037384313 -0.02081984
000180 55 a1 df 38 11 48 30 ba 4b 6b e2 3d 31 1e 48 bd
       0.00010663519 -0.0006724606 0.11055621 -0.048856918
000190 82 5d fe bd d8 57 ea 3d 6d 9c 5c 3d 18 c7 28 bd
       -0.12420179 0.11442536 0.053860117 -0.041205496
0001a0 43 54 db 3d 54 c8 86 3d 50 87 e0 3c a5 9c af 3d
       0.10709431 0.06581178 0.027408272 0.085747994
0001b0 99 10 b2 3c 6d 1e cd 3c f6 bd 10 bd 50 fc f9 bd
       0.02173643 0.025038922 -0.03533741 -0.12206328
0001c0 60 36 04 bd 2a 36 cf 3d ae ea e9 3d d1 37 89 bd
       -0.03227842 0.10117753 0.11421715 -0.06700099
0001d0 3e 7b ae 3d 35 70 de bd a0 c6 4b 3c 2c 46 95 3c
       0.085196 -0.108612455 0.012437493 0.018221937
0001e0 3c c7 02 3d 61 01 56 3d f9 9a cc bd 89 d9 2a 3d
       0.031928286 0.05224741 -0.09990496 0.041711364
0001f0 be 72 87 bd d2 cb 91 bd 64 c6 c7 bc b0 23 72 3d
       -0.06613682 -0.07118954 -0.024386592 0.059116066
000200 09 f2 39 3d 11 2c cc bd 24 1a 94 bd e9 c9 aa 3d
       0.04539684 -0.099693425 -0.072315484 0.083392926
000210 c7 e4 09 3d 35 bb bb 3c 69 0b 61 bd 0f a4 a2 bd
       0.033665445 0.022916416 -0.054942522 -0.07941448
000220 62 36 56 3a 1a 10 df bc ed 6f d6 bb 9c e8 92 3d
       0.0008171556 -0.027229358 -0.0065441043 0.07173273
000230 e9 5e 00 3d 5a 3b 16 3d d7 5a 3e 3d d6 81 4f bd
       0.031340513 0.036677696 0.04647335 -0.05066093
000240 27 ed 37 3d 84 87 85 3d 58 e9 75 3d db 42 86 ba
       0.0449039 0.06519988 0.060036987 -0.0010243313
000250 cf c0 c2 3d 3b bc 6c bd b8 10 c1 bd 59 22 a5 bd
       0.095094316 -0.057796698 -0.09427017 -0.08063192
000260 ae 1a 54 bb bb 8f e0 bd e6 f7 ba 3d 27 a1 e8 ba
       -0.0032364535 -0.109649144 0.09129314 -0.0017748222
000270 1b b8 57 3d da 4f 0a 3c ad 7d dd bd c0 4e eb 3d
       0.05266581 0.00844189 -0.108149864 0.1148963
000280 c7 27 5e 3d 84 92 03 3a 1a 83 dc 3a ac 5c e8 bb
       0.054237153 0.0005019086 0.0016823739 -0.0070911255
000290 7c 52 4e 3c 5a a3 94 3d 9a d6 a8 3c f5 61 d0 3c
       0.012592908 0.07257719 0.020610142 0.025437335
0002a0 ff 8f 33 bd d2 ed 1e 3d 9f d5 07 3d 9f 39 da 3d
       -0.043838497 0.038801022 0.03316271 0.106555216
0002b0 5a c7 8e 3c b5 a8 d7 bd 94 98 b4 bd bf 7c 17 3c
       0.017429043 -0.10530225 -0.088181645 0.00924605
0002c0 c0 d1 38 3d c2 6f d8 bb e8 5b 01 3d 3c 68 60 bd
       0.04512191 -0.0066051194 0.03158179 -0.054786906
0002d0 5d 17 07 3d 17 29 64 3d 82 6c 6d bc 33 78 61 bc
       0.032981265 0.05570325 -0.014491202 -0.013761568
0002e0 7e e6 a7 bc bb f4 f2 3d 23 2f 85 bd 87 c5 f2 bd
       -0.02049565 0.11863085 -0.06503131 -0.118540816
0002f0 8e bf b0 bd 07 93 71 3c 96 41 8d bd db 8d e3 bd
       -0.08630286 0.014744527 -0.06897275 -0.11111041
000300 6f 12 59 3d 7a d6 17 3c 6e 34 61 3c 95 f5 98 bc
       0.052996095 0.009267444 0.01374541 -0.01867179
000310 3d 4e 60 bc 29 40 83 bd 22 ba 87 3d 80 a9 e8 3c
       -0.013690528 -0.06408722 0.06627299 0.028401136
000320 10 71 8d bc bd d7 a3 3d 31 53 b1 bd db f6 f0 bd
       -0.017265826 0.08000133 -0.086584456 -0.11765834
000330 88 b8 bd bd 87 af e5 bd 88 cf 55 3d 50 2d 9d 3d
       -0.09263712 -0.1121512 0.05219987 0.07674658
000340 c2 d8 77 3d 20 aa d4 bd 3f 56 29 bc c7 30 62 3c
       0.06050945 -0.10384011 -0.010335504 0.013805575
000350 44 a2 a8 bc 00 63 b6 3c 44 83 d9 bd c8 f6 70 bc
       -0.020585187 0.022264004 -0.1062074 -0.014707275
000360 75 16 46 bd 46 25 af 3c fe c0 3f bb 2e ba 72 bd
       -0.04836126 0.021380078 -0.002925932 -0.059259586
000370 4e 2b 67 3d 77 fd b7 3d 99 9c c2 3d d1 bb 53 bc
       0.056437783 0.089838915 0.09502525 -0.012923197
000380 e8 7c 6a 3d 5e 0d d6 3d a4 45 47 bd 6b 95 ae 3d
       0.057248026 0.10451768 -0.0486504 0.08524593
000390 58 d6 8e 3d e9 79 1c bd 1f 61 72 bd 4c 6c 71 3d
       0.069744766 -0.0382022 -0.059174653 0.05894117
0003a0 f6 57 49 3d 9f 67 79 bd 33 6e 20 bc 55 3f 3b 3c
       0.04915615 -0.060889836 -0.009791899 0.011428674
0003b0 e3 ac e2 bd 60 b9 70 bd 56 75 f4 bd 8f ba d0 bd
       -0.11068132 -0.058770537 -0.119364426 -0.10191833
0003c0 bf 3d 95 3c 5f ee cf bd 6e 12 a2 bd c5 c7 67 3d
       0.01821792 -0.101528876 -0.079136714 0.056587
0003d0 bb 9d c7 bd 6b 5d 7b bd bf 3f 4d 3d e4 95 ba bd
       -0.097468816 -0.061368387 0.05010962 -0.091106206
0003e0 93 02 fc 3d d8 88 37 3d cd 9a a6 3d cc 43 0a bb
       0.123051785 0.04480824 0.08134995 -0.002109754
0003f0 09 84 57 bd a5 de d7 3d 07 11 a5 bd 6d 75 b1 bd
       -0.052616153 0.10540513 -0.08059888 -0.08664975

fc3.bias f4 [24]
000000 b0 34 d9 bd 27 60 ff bd a3 33 b8 bd 52 64 01 be
       -0.106057525 -0.124695115 -0.08994224 -0.12635925
000010 40 d5 14 be 80 7f d2 bd 4e a6 3f bd 8c 3a 29 3d
       -0.14534473 -0.10278225 -0.04678946 0.0413156
000020 55 7e ab 3c 35 7c 66 bc ba 38 84 bc f4 8c 78 3d
       0.020934263 -0.014067699 -0.01614033 0.0606813
000030 99 ee 40 3b c8 8c c2 3c f4 41 b8 3c f6 fd 7f bc
       0.002943909 0.02374877 0.022492386 -0.015624514
000040 89 00 84 3b 23 64 b0 3d 65 09 83 3c e0 f9 90 3d
       0.004028384 0.086128496 0.01599569 0.0707891
000050 82 cf 0a 3e 95 57 71 3d bd 70 87 3c 00 68 a7 3d
       0.1355572 0.058921415 0.01653325 0.08174133

exp_avg f4 [128, 240]
000000 30 77 f5 bd d6 25 13 be 39 75 b0 bd e9 98 a7 bd
       -0.11985624 -0.14369902 -0.086161084 -0.08183462
000010 b8 ed a5 bd f8 50 a5 bd 20 bc a3 bd 72 39 a3 bd
       -0.08101982 -0.08072084 -0.07994866 -0.07969941
000020 cb ef 1d bd 85 23 a3 bd e8 b9 fc bd 9d 7a 11 be
       -0.038558763 -0.07965759 -0.12340146 -0.1420693
000030 9f 43 af bd 7d 1a aa bd 45 ed a6 bd ac dc a5 bd
       -0.085578196 -0.083058335 -0.08150724 -0.080987304
000040 21 91 a4 bd f3 3c a4 bd 8e 7c 1f bd c3 45 a4 bd
       -0.08035494 -0.08019438 -0.038937144 -0.080211185
000050 e2 6f f8 bd 9c 1e 12 be 31 b9 b0 bd d0 33 a9 bd
       -0.12130715 -0.14269489 -0.086290725 -0.082618356
000060 f4 87 a6 bd c4 0a a5 bd 41 ed a4 bd d3 d8 a3 bd
       -0.081314 -0.08058694 -0.08053065 -0.0800034
000070 3c 90 1f bd 44 be a3 bd fc 8e 02 be 9d f3 0d be
       -0.038955912 -0.07995275 -0.12749857 -0.13862462
000080 af 65 b1 bd 81 81 aa bd 04 c7 a8 bd a4 ea a7 bd
       -0.08661973 -0.08325482 -0.08241084 -0.08199051
000090 70 90 a7 bd 2f bc a6 bd 9f 8c 24 bd 0e aa a6 bd
       -0.08181846 -0.08141362 -0.04017317 -0.08137904
0000a0 b6 b8 eb bd 32 6e 16 be e8 4a ad bd cf 4d a5 bd
       -0.1150984 -0.14690474 -0.08461553 -0.080714814
0000b0 84 6e a5 bd 11 ea a3 bd 7d ad a2 bd 82 bc a1 bd
       -0.0807772 -0.08003629 -0.079432465 -0.07897283
0000c0 1c 01 1b bd 0b 0b a2 bd 7e de f6 bd 3a 64 12 be
       -0.037842855 -0.079122625 -0.12054156 -0.14296046
0000d0 6b 0f af bd 57 6d a6 bd 0b bd a5 bd f3 95 a4 bd
       -0.085478626 -0.08126324 -0.08092698 -0.08036413
0000e0 61 03 a4 bd 55 23 a2 bd 25 1d 1c bd 65 ff a1 bd
       -0.08008457 -0.07916895 -0.038113732 -0.07910041
0000f0 2e c1 04 be 1f f1 0f c0 cb 16 ab bd 3d 59 a5 bd
       -0.12964317 -2.2490919 -0.08353957 -0.080736615
000100 ce 03 af bd e6 f1 a4 bd e2 c4 a5 bd 80 94 a4 bd
       -0.085456476 -0.08053951 -0.08094193 -0.080361366
000110 8e 7c 22 bd 1f 04 a5 bd 1d 2a f2 bd 96 ed 13 be
       -0.039669566 -0.08057427 -0.11824439 -0.144461
000120 04 6d ac bd ce cb a5 bd 51 0b a6 bd a4 76 a3 bd
       -0.084192306 -0.08095513 -0.08107627 -0.07981613
000130 b3 d6 a3 bd b5 7b a2 bd 45 79 1c bd 54 39 a2 bd
       -0.07999935 -0.079337515 -0.03820159 -0.07921091
000140 95 07 ee bd a6 6a 15 be e2 a6 a9 bd 2d 48 a3 bd
       -0.1162254 -0.14591464 -0.082837835 -0.07972751
000150 39 f0 a3 bd 38 57 a3 bd ea 25 a2 bd d0 f5 a0 bd
       -0.08004803 -0.0797562 -0.07917388 -0.07859385
000160 f3 ff 19 bd 34 94 a1 bd 3e 25 09 be f9 90 0a be
       -0.037597608 -0.07889596 -0.13393113 -0.13531865
000170 9c 62 b2 bd d9 db ab bd 8d a3 aa bd cf 17 aa bd
       -0.087102145 -0.08391542 -0.08331976 -0.083053224
000180 58 38 aa bd a3 8c a8 bd b8 1a 2a bd 35 c6 a8 bd
       -0.08311528 -0.08229949 -0.041529387 -0.0824093
000190 f1 d5 00 be 48 d7 0e be 98 8f b0 bd e8 99 aa bd
       -0.12581612 -0.13949311 -0.08621138 -0.083301365
0001a0 6b 82 a8 bd 20 f4 a6 bd e0 0c a6 bd e1 70 a5 bd
       -0.08228 -0.08152032 -0.081079245 -0.080781706
0001b0 20 55 21 bd f4 16 a5 bd 3d 35 fa bd 65 83 11 be
       -0.039387822 -0.080610186 -0.12217186 -0.1421028
0001c0 82 e8 af bd 0e cb a9 bd 05 c9 a6 bd dd 9f a5 bd
       -0.08589269 -0.08290683 -0.0814381 -0.08087132
0001d0 07 d1 a4 bd 28 d0 a4 bd df 29 20 bd 63 4e a4 bd
       -0.08047681 -0.08047515 -0.03910243 -0.080227636
0001e0 d9 bf 07 be 8b 9a 0a be 0b 26 b1 bd 1b d7 a9 bd
       -0.13256778 -0.13535516 -0.08649834 -0.08292981
0001f0 1a f9 a8 bd c4 0c a8 bd da 51 a8 bd 38 da a6 bd
       -0.08250637 -0.0820556 -0.08218737 -0.08147091
000200 4b e6 24 bd 6d e1 a6 bd b5 6f ff bd 3e 22 10 be
       -0.040258687 -0.08148465 -0.12472478 -0.14075562
000210 77 04 b0 bd 07 26 aa bd c5 d4 a7 bd 74 53 a6 bd
       -0.085946016 -0.083080344 -0.081948794 -0.08121386
000220 dd a1 a6 bd 6b 92 a5 bd 61 ff 20 bd cc fc a4 bd
       -0.08136342 -0.08084568 -0.03930605 -0.0805603
000230 7f 96 0a be d8 63 09 be 1f ce b3 bd c6 a7 ab bd
       -0.13533972 -0.13416994 -0.08779549 -0.083816096
000240 b5 cc a9 bd 5c 8c a9 bd b8 09 aa bd 67 95 a9 bd
       -0.08290998 -0.082787246 -0.08302635 -0.08280449
000250 f7 27 29 bd 95 c1 a9 bd 13 4a 04 be 51 50 0d be
       -0.04129788 -0.08288876 -0.12918882 -0.1380017
000260 d8 d5 b0 bd c9 3d aa bd 84 2f a9 bd 92 cf a7 bd
       -0.086345375 -0.08312566 -0.08261016 -0.08193888
000270 7a 63 a8 bd f4 ae a6 bd de f3 24 bd 3b 30 a7 bd
       -0.08222099 -0.081388384 -0.040271632 -0.08163496
000280 75 5d 08 be 8e 10 0b be df 6b b2 bd ea 54 ab bd
       -0.13316901 -0.13580534 -0.08711981 -0.083658054
000290 22 5e aa bd 45 c4 a9 bd 60 87 aa bd c9 b0 a8 bd
       -0.08318736 -0.082893886 -0.08326602 -0.08236844
0002a0 fe f3 29 bd 55 9d a8 bd 12 8a 05 be dc 47 0c be
       -0.041492455 -0.08233134 -0.13040951 -0.13699287
0002b0 78 27 b4 bd 0f 50 ab bd d3 7b a8 bd 09 79 a8 bd
       -0.087965906 -0.08364879 -0.082267426 -0.082262106
0002c0 1b 43 a8 bd 6f 0e a8 bd 5f bb 27 bd de c7 a7 bd
       -0.08215924 -0.08205878 -0.040950175 -0.081924185
0002d0 39 af 05 3b 58 a3 00 3b 7e 48 06 3b db 02 39 3b
       0.002039863 0.001962861 0.0020489986 0.0028230462
0002e0 7b 1e 06 3b ef 20 11 3b 42 36 14 3b 67 94 29 3b
       0.0020464945 0.0022144874 0.0022615348 0.0025875808
0002f0 5f 44 33 3d 54 16 26 3b 37 f2 06 3b 25 5b 01 3b
       0.043766376 0.0025342898 0.0020591149 0.0019738164
000300 73 fb 08 3b c7 00 43 3b c3 0c 09 3b 86 a0 0c 3b
       0.0020901829 0.0029755102 0.0020912148 0.0021457984
000310 9f c7 15 3b 80 6d 1b 3b 48 45 33 3d d4 75 26 3b
       0.002285458 0.002371639 0.043767244 0.002539982
000320 85 2d 06 3b fd ed f5 3a 0c 07 ff 3a 7d ea 30 3a
       0.002047391 0.0018762943 0.0019457056 0.00067488087
000330 cb 28 ad 38 07 a9 ad 38 ee 26 af 38 0b b7 ad 38
       8.256881e-05 8.2807666e-05 8.3519015e-05 8.283377e-05
000340 17 91 aa 38 d6 81 b1 38 e0 c9 05 3b 52 87 fa 3a
       8.133257e-05 8.4642015e-05 0.0020414516 0.0019113815
000350 bc af 00 3b 1a 10 27 3b 89 66 01 3b e1 e3 0d 3b
       0.0019635996 0.0025491775 0.0019744954 0.002165072
000360 9e e6 10 3b 6b cd 2a 3b a5 47 33 3d 37 4c 22 3b
       0.0022110115 0.002606238 0.043769497 0.0024764666
000370 32 bd 07 3b e8 a4 f8 3a 97 6c fe 3a 13 4a 28 3b
       0.0020712134 0.0018970044 0.0019411024 0.0025678917
000380 c4 75 02 3b 52 dd 0a 3b d2 c4 0e 3b 84 43 28 3b
       0.001990662 0.0021189046 0.0021784795 0.0025675008
000390 43 18 33 3d 3d 5f 21 3b ca 82 10 3b d5 d5 0f 3b
       0.04372431 0.0024623417 0.0022050613 0.0021947522
0003a0 41 2b f2 3a 3e 92 22 3b 8e d0 fe 3a cc 83 05 3b
       0.0018476025 0.0024806405 0.0019440816 0.0020372747
0003b0 76 bf 12 3b d8 36 22 3b a8 fc 32 3d 1f 11 22 3b
       0.0022391952 0.0024751928 0.043697983 0.0024729443
0003c0 64 87 b8 34 c9 dc 1d 37 0a 9f 86 34 89 2b 87 34
       3.437118e-07 9.409335e-06 2.507516e-07 2.5177386e-07
0003d0 9f 10 87 34 53 d0 86 34 ba f5 86 34 ba f5 86 34
       2.5157803e-07 2.511102e-07 2.5138235e-07 2.5138235e-07
0003e0 7f 23 87 34 c4 62 87 34 70 38 ba 34 96 e0 1d 37
       2.5171536e-07 2.521757e-07 3.4686263e-07 9.41022e-06
0003f0 26 f4 89 34 8c b8 8a 34 ac 31 8a 34 c4 0f 8a 34
       2.569588e-07 2.583878e-07 2.5740644e-07 2.5715974e-07

exp_avg_sq f4 [128, 240]
000000 e4 f0 0e 48 9c 78 08 48 7b 8d 08 48 76 a0 08 48
       146371.56 139746.44 139829.92 139905.84
000010 f6 aa 03 48 2e 71 02 48 76 48 04 48 e9 85 04 48
       134827.84 133572.72 135457.84 135703.64
000020 9f 45 11 48 8e 88 03 48 bf 99 14 48 bd af 0a 48
       148758.48 134690.22 152166.98 142014.95
000030 87 8e 08 48 8d eb 08 48 fa b1 03 48 19 fb 00 48
       139834.11 140206.2 134855.9 132076.39
000040 09 80 01 48 de 67 02 48 27 00 11 48 27 d0 01 48
       132608.14 133535.47 148480.61 132928.61
000050 0b 85 27 48 f9 ad f7 47 7b df 00 48 8e e3 04 48
       171540.17 126811.945 131965.92 136078.22
000060 16 1f ee 47 86 7f f0 47 da 4f fc 47 11 6b e5 47
       121918.17 123135.05 129183.7 117462.13
000070 18 95 00 48 f2 12 e4 47 62 d6 1b 48 5e 7a 0d 48
       131668.38 116773.89 159577.53 144873.47
000080 d7 c0 0a 48 9f ed 10 48 d6 c5 01 48 f9 ae f8 47
       142083.36 148406.48 132887.34 127325.945
000090 a0 e9 f6 47 3a 81 f0 47 7e 02 07 48 b7 01 f2 47
       126419.25 123138.45 138249.97 123907.43
0000a0 1b 8e 19 48 77 7b 0d 48 f9 96 0b 48 27 95 0c 48
       157240.42 144877.86 142939.89 143956.61
0000b0 6d 62 ee 47 e8 40 e4 47 2e c7 e8 47 67 b1 e4 47
       122052.85 116865.81 119182.36 117090.805
0000c0 c0 a9 00 48 f7 f9 e8 47 26 06 1f 48 b1 90 08 48
       131751.0 119283.93 162840.6 139842.77
0000d0 37 b2 f9 47 9e fb f1 47 f1 55 ce 47 3a 40 ce 47
       127844.43 123895.234 105643.88 105600.45
0000e0 87 81 d2 47 6f 2b cf 47 c8 d0 ed 47 86 a8 d2 47
       107779.055 106070.87 121761.56 107857.05
0000f0 cd 70 27 48 29 30 16 48 06 9a 0e 48 d8 b0 14 48
       171459.2 153792.64 146024.1 152259.38
000100 0f f2 04 48 e2 35 05 48 05 9c 06 48 1f 96 04 48
       136136.23 136407.53 137840.08 135768.48
000110 a2 5e 13 48 81 cb 0d 48 9c 23 35 48 54 4b 09 48
       150906.53 145198.02 185486.44 140589.31
000120 7f f8 09 48 b9 68 07 48 0b 47 f5 47 10 ae e9 47
       141281.98 138658.89 125582.086 119644.125
000130 93 bf f5 47 a3 74 da 47 29 9f f7 47 ec aa db 47
       125823.15 111849.27 126782.32 112469.84
000140 2d 47 29 48 c7 58 10 48 0d 69 14 48 af 1d 09 48
       173340.7 147811.11 151972.2 140406.73
000150 6e a8 00 48 65 ad fc 47 58 23 f0 47 20 b3 e9 47
       131745.72 129370.79 122950.69 119654.25
000160 15 74 02 48 fb 60 e7 47 58 48 28 48 59 14 17 48
       133584.33 118465.96 172321.38 154705.39
000170 00 27 0f 48 a4 83 09 48 32 18 f2 47 e6 7b d5 47
       146588.0 140814.56 123952.39 109303.8
000180 52 e9 cf 47 b2 bc cd 47 b5 12 e8 47 f4 3d ce 47
       106450.64 105337.39 118821.414 105595.91
000190 ab ed 29 48 f5 32 12 48 7d b0 0b 48 26 c8 0e 48
       174006.67 149707.83 143041.95 146208.6
0001a0 67 4a 08 48 07 34 01 48 17 a0 06 48 3c f7 00 48
       139561.61 132304.11 137856.36 132060.94
0001b0 d4 e8 f9 47 d8 69 e0 47 97 8e 2c 48 92 8e 0d 48
       127953.66 114899.69 176698.36 144954.28
0001c0 ed 58 0e 48 39 f1 0f 48 df 0c 09 48 67 f5 03 48
       145763.7 147396.89 140339.48 135125.61
0001d0 4e 2d 0a 48 43 40 1f 48 88 b7 06 48 b2 ac e7 47
       141493.22 163073.05 137950.12 118617.39
0001e0 55 4b 26 48 aa 4a 0a 48 2b 32 0a 48 d0 6e 0c 48
       170285.33 141610.66 141512.67 143803.25
0001f0 86 95 05 48 e6 92 03 48 fa a1 05 48 76 8b 03 48
       136790.1 134731.6 136839.9 134701.84
000200 05 88 15 48 96 9b 07 48 92 c5 3b 48 6f e3 0e 48
       153120.08 138862.34 192278.28 146317.73
000210 90 ee 01 48 eb 3b fd 47 f8 36 ee 47 f8 66 e9 47
       133050.25 129655.836 121965.94 119501.94
000220 03 6d e8 47 fc d7 e4 47 c6 9e f4 47 0f 16 d8 47
       119002.02 117167.97 125245.55 110636.12
000230 d3 64 31 48 00 fd 09 48 fd d0 04 48 57 7f ff 47
       181651.3 141300.0 136003.95 130814.68
000240 d6 d8 ee 47 ed 5a ef 47 45 7d f3 47 7b 0e f0 47
       122289.67 122549.85 124666.54 122908.96
000250 5d ff 05 48 1c a1 f0 47 29 44 49 48 a6 f3 08 48
       137213.45 123202.22 206096.64 140238.6
000260 83 ea 09 48 70 ff 04 48 0c 27 f9 47 49 27 ec 47
       141226.05 136189.75 127566.09 120910.57
000270 47 de f5 47 d3 c3 f3 47 54 cd 05 48 9b bd f2 47
       125884.555 124807.65 137013.31 124283.21
000280 89 14 3a 48 9e 6d 0d 48 f7 f7 03 48 2b 17 ff 47
       190546.14 144822.47 135135.86 130606.336
000290 0b 35 ed 47 21 fa e7 47 58 fd db 47 0a 8d d7 47
       121450.086 118772.26 112634.69 110362.08
0002a0 ca 74 f6 47 e4 9c d9 47 4a 7d 19 48 4d f4 ed 47
       126185.58 111417.78 157173.16 121832.6
0002b0 54 4b f1 47 5e ff fb 47 ee e4 d6 47 2b 5a cd 47
       123542.66 129022.734 110025.86 105140.336
0002c0 27 8f df 47 f5 56 ce 47 d6 b3 ea 47 55 be cd 47
       114462.305 105645.914 120167.67 105340.664
0002d0 25 e5 12 48 7f d7 d8 47 33 6f d5 47 31 c4 c9 47
       150420.58 111022.99 109278.4 103304.38
0002e0 b9 3a c0 47 20 71 ba 47 d6 1f ba 47 c8 81 a8 47
       98421.445 95458.25 95295.67 86275.56
0002f0 9c 7f c6 47 ad 10 9f 47 55 b2 f1 47 84 be ba 47
       101631.22 81441.35 123748.664 95613.03
000300 db ce b8 47 b6 60 bb 47 a2 7a b7 47 1f a4 b8 47
       94621.71 95937.42 93941.266 94536.24
000310 3e 15 c2 47 b6 90 bc 47 b4 6b d6 47 03 cb b8 47
       99370.484 96545.42 109783.41 94614.02
000320 81 4a 81 47 13 16 49 47 6f 1d 4b 47 e9 25 50 47
       66197.01 51478.074 51997.434 53285.91
000330 cc 55 3f 47 81 31 46 47 21 c0 49 47 5c a7 4a 47
       48981.797 50737.504 51648.13 51879.36
000340 f1 13 35 47 c5 ed 36 47 18 b1 ac 46 80 60 a0 46
       46355.94 46829.77 22104.547 20528.25
000350 aa b8 61 46 70 01 8b 46 5f 78 60 46 7e 19 64 46
       14446.166 17792.719 14366.093 14598.373
000360 d1 45 68 46 94 4a 60 46 45 60 e1 46 b2 17 66 46
       14865.454 14354.645 28848.135 14725.924
000370 29 71 ee 42 5b 68 bb 42 76 70 c2 42 f0 73 59 45
       119.221016 93.70382 97.21965 3479.246
000380 ca 38 be 42 05 6b c9 42 86 ce cd 42 e8 98 f7 42
       95.110916 100.70902 102.903366 123.798645
000390 3c be 5e 46 f3 e1 fa 42 c3 28 86 42 ae 6f 57 42
       14255.559 125.44131 67.07961 53.859062
0003a0 ce 30 54 42 ef b4 56 45 f8 f2 3c 42 4c 34 47 42
       53.04766 3435.3083 47.237274 49.80107
0003b0 5d ea 5d 42 e7 c6 7f 42 f4 8f 51 46 8f c6 7a 42
       55.47887 63.94424 13411.988 62.693905
0003c0 4d b1 a0 3f 9b 35 6b 44 e4 0c 2b 3f a0 72 2c 3f
       1.2554108 940.8376 0.66816545 0.67362404
0003d0 09 2e 2c 3f 38 8a 2b 3f 73 e9 2b 3f 73 e9 2b 3f
       0.67257744 0.6700778 0.6715309 0.6715309
0003e0 25 5e 2c 3f ac ff 2c 3f e9 a6 a3 3f fb 40 6b 44
       0.67331153 0.67577624 1.2785312 941.0153
0003f0 a8 9f 33 3f 8e a0 35 3f fc 3f 34 3f 98 e7 33 3f
       0.7016549 0.7094811 0.7041013 0.7027526

exp_avg f4 [128]
000000 12 5e 93 b5 98 f0 32 2c 95 f8 34 34 bc a3 d9 2f
       -1.0979732e-06 2.5428878e-12 1.685424e-07 3.958841e-10
000010 09 ec 77 2c ed 1e 2c b8 15 86 a8 2b 10 37 ad 36
       3.5231837e-12 -4.1036797e-05 1.1974333e-12 5.162212e-06
000020 5f 6b 1b 2d a5 21 fc 35 11 f6 8c 35 50 69 83 b4
       8.834571e-12 1.8785255e-06 1.0502428e-06 -2.4477276e-07
000030 e1 4f e7 b5 cb c4 ac 37 2e 15 9c 2e de 70 33 30
       -1.7234089e-06 2.0595637e-05 7.097821e-11 6.5280215e-10
000040 c8 66 84 35 61 37 3e 35 ef 13 b7 33 41 59 2e 2e
       9.86468e-07 7.08611e-07 8.5252275e-08 3.9642293e-11
000050 9e 31 31 b6 44 d9 bf b5 86 3d b2 b6 4a 1c 3e 37
       -2.6403936e-06 -1.4293842e-06 -5.3119757e-06 1.1331469e-05
000060 6f 12 b8 2e 60 f8 11 37 70 f1 4e 36 16 00 0d b8
       8.370626e-11 8.700503e-06 3.0836927e-06 -3.36171e-05
000070 5d d2 ad 35 7b 58 6c 2f 3b 39 dd 2f c9 53 6d 2d
       1.2950728e-06 2.149551e-10 4.024033e-10 1.3490494e-11
000080 65 36 42 b6 9e 91 16 2f 9a 60 1c b7 14 b0 7f 36
       -2.8939915e-06 1.3694154e-10 -9.320816e-06 3.8100452e-06
000090 50 a9 80 b4 89 4b 85 b7 d7 05 24 b6 1b 4a 47 35
       -2.396505e-07 -1.589001e-05 -2.4441304e-06 7.4241115e-07
0000a0 1a bf 15 b8 1e d0 11 35 30 0a dc 2e fc de 15 b5
       -3.5702345e-05 5.431956e-07 1.00062514e-10 -5.583131e-07
0000b0 be 03 cb 35 06 5c 7d 35 82 dc a3 35 5f 00 ae 2d
       1.5125768e-06 9.4383756e-07 1.2208623e-06 1.9781675e-11
0000c0 fa da 59 32 1f c6 bc 2e 2b a8 23 36 67 dc 2b 2e
       1.2680852e-08 8.5844436e-11 2.438678e-06 3.9076655e-11
0000d0 52 1e ff b4 30 c2 0d b7 7a 0e 8e 36 99 9b 77 36
       -4.7519512e-07 -8.449468e-06 4.233615e-06 3.6896438e-06
0000e0 52 9b 6f 36 89 bf 94 37 61 c4 03 38 53 87 b4 b6
       3.5704184e-06 1.7732165e-05 3.1415726e-05 -5.380172e-06
0000f0 99 7b ee 2d fe 56 11 31 67 c5 96 36 1b 12 46 b6
       2.7112356e-11 2.1149726e-09 4.493329e-06 -2.9514838e-06
000100 3b c4 33 37 f7 6f 8a 2c 60 51 95 36 a3 82 83 b5
       1.071492e-05 3.9346265e-12 4.4500193e-06 -9.798281e-07
000110 dd b9 40 b5 83 ac 4c 36 e4 10 70 2e 74 e0 87 2f
       -7.179604e-07 3.0498784e-06 5.4584684e-11 2.471584e-10
000120 b6 86 ab 37 21 e0 30 2e 06 2b 66 2e 62 d9 be 2f
       2.0447518e-05 4.0216833e-11 5.2334158e-11 3.4715258e-10
000130 51 6a 6a 2f 08 5d d0 b4 1e 5d 92 32 96 d2 a3 35
       2.1319947e-10 -3.8810708e-07 1.7038982e-08 1.2205735e-06
000140 5a 9f 2b 2e f0 60 85 b6 30 6c 02 b7 61 1e 90 36
       3.902243e-11 -3.974994e-06 -7.773793e-06 4.295071e-06
000150 7c 3e 8c 2d 00 00 00 00 9d 6b 7c b6 7c 1a 67 30
       1.5943906e-11 0.0 -3.7613565e-06 8.4074947e-10
000160 8b ef 63 b6 e0 b3 62 b5 db ed c9 b5 81 69 d8 b5
       -3.3965068e-06 -8.4453313e-07 -1.5044892e-06 -1.612396e-06
000170 d0 be 30 33 f2 a8 b1 35 d7 27 0f b5 36 0b d0 2e
       4.1151736e-08 1.3236697e-06 -5.3329626e-07 9.4607364e-11
000180 00 00 00 00 ef a2 af 36 3f c5 bc 2d 73 37 fd 2f
       0.0 5.2343744e-06 2.146072e-11 4.605983e-10
000190 3e fb 16 2f d8 71 23 b8 29 5e c4 2c 32 93 0a 35
       1.373168e-10 -3.8968254e-05 5.581109e-12 5.1623203e-07
0001a0 73 44 95 37 3b ba 01 34 0f 05 22 36 85 a9 5b 36
       1.7794058e-05 1.2081811e-07 2.4142826e-06 3.2732216e-06
0001b0 37 aa d3 35 55 da 90 36 f7 de 9d b5 29 4f e5 2d
       1.5770264e-06 4.3169516e-06 -1.1762303e-06 2.606944e-11
0001c0 02 fb 02 37 32 23 b9 37 34 0f 8f 37 4b 3b 48 35
       7.807046e-06 2.2070108e-05 1.7054008e-05 7.459209e-07
0001d0 58 fe 40 2d 47 a3 0e 35 08 f0 65 30 de 3e f5 36
       1.0970412e-11 5.313672e-07 8.365082e-10 7.3088877e-06
0001e0 d2 8b 36 b6 98 2c ba 34 76 1a 58 2f 87 13 ef 37
       -2.72015e-06 3.4677646e-07 1.9654486e-10 2.8500113e-05
0001f0 a0 a3 8a 37 98 65 c4 36 d7 48 c0 2e 1f 81 ae 34
       1.6527076e-05 5.8530823e-06 8.744088e-11 3.2503974e-07

exp_avg_sq f4 [128]
000000 a8 86 89 37 10 1b 97 2e 58 cb 3a 37 36 ef 4b 36
       1.6394377e-05 6.871492e-11 1.1133809e-05 3.0388596e-06
000010 2e 0b 88 2f 32 d6 14 37 77 4c a5 2d e1 7f 1a 35
       2.47462e-10 8.871359e-06 1.8792285e-11 5.755556e-07
000020 52 01 37 30 06 46 9b 31 c2 cd 1f 38 f6 f4 10 36
       6.657689e-10 4.5190545e-09 3.810018e-05 2.1600258e-06
000030 32 f4 b3 36 0c da 8a 36 ea 6f f7 33 a6 c3 2b 37
       5.363044e-06 4.1381045e-06 1.1522191e-07 1.0237947e-05
000040 ad f8 1b 31 ac ae 29 31 e6 27 14 32 3c ef 5f 33
       2.2696824e-09 2.4692026e-09 8.623806e-09 5.2138816e-08
000050 e7 f6 44 33 80 d9 91 35 fd 53 8c 33 7c 5d fa 34
       4.5859363e-08 1.0866643e-06 6.5345354e-08 4.6634148e-07
000060 5c 4c e5 33 e8 8e 44 36 ed d3 02 35 85 d4 f4 37
       1.0677533e-07 2.9289458e-06 4.8737166e-07 2.9186029e-05
000070 67 fd f8 30 63 ec 1a 35 41 74 8a 36 07 13 c1 30
       1.8116396e-09 5.771346e-07 4.126254e-06 1.4048006e-09
000080 6d aa 2b 36 9e 65 3d 35 3b a2 94 37 0a 8c 25 37
       2.5580187e-06 7.055586e-07 1.771852e-05 9.867372e-06
000090 1d be 09 37 a7 81 42 36 5b 62 0b 37 bf 5f 74 33
       8.2101005e-06 2.898372e-06 8.307946e-06 5.6897758e-08
0000a0 39 82 fa 36 93 34 6c 34 fe f2 87 34 85 4a a7 31
       7.4657405e-06 2.1998339e-07 2.532251e-07 4.8688116e-09
0000b0 dc 34 59 37 3d f5 ab 32 90 79 a7 36 75 47 b9 31
       1.2946515e-05 2.0018541e-08 4.9911396e-06 5.3923324e-09
0000c0 4e 42 3f 33 7f fb 15 33 15 b0 d6 37 f9 87 09 31
       4.4530957e-08 3.49205e-08 2.5592783e-05 2.0013415e-09
0000d0 6c 9f 33 31 bb 15 c0 36 28 70 af 36 ea e3 f5 32
       2.613855e-09 5.7245757e-06 5.228463e-06 2.8625397e-08
0000e0 75 b3 1d 37 a8 45 d6 31 1f 3d 1d 36 16 dc 6e 37
       9.399712e-06 6.2361387e-09 2.34304e-06 1.4237148e-05
0000f0 85 1e 9b 31 36 12 08 36 fe 56 59 37 71 95 8d 33
       4.5145634e-09 2.027618e-06 1.2954462e-05 6.5930074e-08
000100 90 ce 0b 33 94 17 5f 2f f5 e2 bb 36 a5 fd 3b 36
       3.2551327e-08 2.0290108e-10 5.5994556e-06 2.8012812e-06
000110 db 2d ad 31 6e 1e e1 36 a5 4b 49 33 81 88 07 36
       5.040176e-09 6.709065e-06 4.6867758e-08 2.0196023e-06
000120 71 f7 e4 36 4f 8c 85 30 9d 70 b3 33 62 ff 31 36
       6.8237355e-06 9.716902e-10 8.355821e-08 2.6523708e-06
000130 44 7a a5 35 8d b9 df 36 db 4a a3 35 43 6c 46 37
       1.2329042e-06 6.667519e-06 1.2166232e-06 1.1826926e-05
000140 7b 2c 92 30 85 29 89 33 01 27 86 36 01 b8 09 37
       1.063554e-09 6.387112e-08 3.998052e-06 8.208678e-06
000150 a7 28 a4 30 00 00 00 00 a4 82 a8 33 67 77 2f 33
       1.1944125e-09 0.0 7.846873e-08 4.085396e-08
000160 81 4c f3 36 f9 7f 2d 34 7e 47 7a 37 04 77 07 34
       7.2508706e-06 1.6158437e-07 1.4917807e-05 1.2616152e-07
000170 9a eb 3b 30 72 41 15 37 1e d2 27 31 2b a5 fb 33
       6.8365014e-10 8.89633e-06 2.4421136e-09 1.1718142e-07
000180 00 00 00 00 00 f7 95 36 3a 83 66 31 97 23 5a 36
       0.0 4.4693006e-06 3.3543999e-09 3.2505247e-06
000190 be 99 7a 34 e8 ea ac 36 aa 06 52 2f 29 88 e6 34
       2.3338995e-07 5.153346e-06 1.9101756e-10 4.2939908e-07
0001a0 b1 14 88 37 75 2d 98 34 ee 59 35 33 c2 7d c6 35
       1.6222099e-05 2.834528e-07 4.2224137e-08 1.478875e-06
0001b0 bc 0b 92 31 4a e2 15 35 cb 74 51 36 04 c2 49 32
       4.2504933e-09 5.583612e-07 3.121141e-06 1.1743854e-08
0001c0 49 63 3a 37 67 32 bd 36 0a 24 f0 32 bd 1c e3 31
       1.1109581e-05 5.6385065e-06 2.7956066e-08 6.6098367e-09
0001d0 e7 e0 24 31 65 e9 c9 36 bd 1c 25 35 a2 ab 17 36
       2.3992983e-09 6.0174375e-06 6.150911e-07 2.2600657e-06
0001e0 56 3b b6 35 58 7c 8f 33 04 ff 9e 35 28 5a a9 36
       1.3577326e-06 6.6815744e-08 1.1846137e-06 5.047088e-06
0001f0 2c 15 fc 36 ff 64 04 33 da fd f1 34 b0 5b a7 31
       7.51265e-06 3.08255e-08 4.507445e-07 4.8707633e-09
