models/preliminary_results_models/RaceMultiOutputModel3v2/model.pt (torch, 494511 bytes, 18 tensors)

fc1.weight f4 [128, 240]
-0.04227958 -0.017636247 -0.06006171 -0.07296804 -0.008231648 -0.026606834 -0.006313339 -0.023135688
-0.045402482 0.047196425 0.018946452 -0.068120554 -0.04555896 0.037394702 -0.004869662 -0.028503917
0.001809344 -0.05142242 -0.01223594 -0.058856532 -0.060947802 -0.048693623 -0.040509682 -0.032788504
-0.04720381 0.044889737 0.046051297 0.0098359715 0.036360398 -0.036587387 0.05129263 0.033438507
0.009591345 0.030438185 -0.0054079634 -0.041966535 -0.031361934 -0.07408622 -0.07351998 -0.015152107
0.047945138 -0.038525194 0.047782123 -0.039192762 0.018767249 0.036083993 0.055686302 -0.04228961
-0.046632685 -0.031831723 -0.017792923 -0.06625694 0.05114234 -0.05148418 0.05339357 0.01617443
0.010937915 -0.0013504828 0.050933767 0.019781044 0.04387425 0.0066254167 -0.018024785 -0.040422432
0.048743375 -0.05843921 -0.06432954 -0.07114611 0.037284292 -0.02564243 -0.020332612 0.05129516
-0.0031264166 0.0013440407 -0.042027406 -0.018801935 0.04433997 -0.055401582 -0.054329243 -0.031175392
-0.049170215 -0.0056395237 -0.066586696 -0.040362015 0.017539434 -0.07350614 -0.06443607 0.0443764
-0.00014997067 0.034920678 -0.0103972005 -0.036549315 0.0027378034 0.017970389 -0.04956123 -0.041420504
0.043787252 -0.061152883 -0.0027251914 0.026798684 0.0030907225 0.019504253 -0.022004044 -0.0014537546
0.005637771 0.048370123 -0.004927417 -0.022252254 -0.053088095 -0.023928648 -0.020690685 -0.026583282
-0.033501696 -0.044761915 -0.057395387 0.012517641 -0.04048161 -0.019521529 -0.0014829556 -0.040113226
-0.05993199 0.050054666 0.037591938 0.041169304 0.042808387 0.008195569 -0.05733004 -0.0136561
-0.03867561 -0.07320035 0.05171047 -0.012058072 0.0018343844 -0.0018709797 -0.036542162 -0.059247557
-0.00079232187 -0.03966262 -0.048380688 -0.031243173 0.027802523 -0.010790341 -0.048871886 -0.0013553824
-0.018009162 -0.045202546 0.04216531 -0.063964374 0.03243121 0.031082572 -0.047302023 0.008420525
-0.03421033 -0.063398905 -0.038878117 -0.012316537 -0.024248315 0.007214687 -0.0680969 -0.049804084
0.01168009 0.011314154 -0.0038672308 -0.04373204 -0.018901566 0.03567317 -0.00021954672 0.047795877
-0.01477023 0.03378426 -0.061009176 -0.009809617 0.040120937 0.0004823223 -0.03954079 0.019579558
0.012956423 -0.035496265 -0.010072107 -0.043494847 -0.0741094 0.03286907 0.016997842 -0.029582527
-0.049270943 0.014666102 -0.010764667 0.044611815 -0.04275605 0.04059926 -0.05802597 0.052710142
0.058906525 -0.055563845 0.009732337 -0.018936489 0.033437774 0.024531582 0.037314784 -0.04342553
0.057194386 -0.021285996 0.012573418 0.034973145 0.06224106 0.06664076 0.026056765 0.0703251
-0.036688562 0.07309548 -0.012131972 -0.010468341 0.015249072 0.014105088 0.072094426 0.069463275
0.06969748 0.05219097 -0.04574395 -0.029771456 -0.11945851 -0.091652066 -0.12330131 -0.005965865
-0.099568814 -0.12773758 -0.054029677 -0.10073242 -0.09491936 -0.13646886 -0.057247277 -0.12767594
-0.12316356 -0.03540205 -0.045387127 -0.064299196 -0.08515951 -0.058095027 -0.095354125 -0.112782314
-0.018767158 -0.07980812 -0.036576666 0.03376621 -0.06667795 -0.032505445 -0.09031682 -0.02887177
-0.020288138 -0.02138858 0.03506745 -0.0652022 -0.06543812 0.018510086 0.030592522 0.02862177
00000000: 5a2d 2dbd e479 90bc 4503 76bd 4570 95bd
00000010: 09de 06bc 93f6 d9bc 20e0 cebb 0e87 bdbc
00000020: f4f7 39bd 0a51 413d 9735 9b3c ca82 8bbd
00000030: 089c 3abd 302b 193d b091 9fbb 0c81 e9bc
00000040: 8327 ed3a 51a0 52bd 4179 48bc 8c13 71bd
00000050: 67a4 79bd f772 47bd 7bed 25bd 3d4d 06bd
00000060: c858 41bd 4dde 373d 49a0 3c3d 0e27 213c
00000070: a4ee 143d a8dc 15bd 3918 523d d1f6 083d
00000080: 0425 1d3c 8059 f93c 4935 b1bb 1ae5 2bbd
00000090: 5f75 00bd 84ba 97bd a591 96bd 8b40 78bc
000000a0: 1f62 443d 98cc 1dbd 30b7 433d 9788 20bd
000000b0: c6bd 993c cfcc 133d 5217 643d df37 2dbd
000000c0: ea01 3fbd fb61 02bd 77c2 91bc b8b1 87bd
000000d0: a17a 513d 13e1 52bd 37b3 5a3d 3d80 843c
000000e0: f134 333c af02 b1ba ed9f 503d db0b a23c
000000f0: 7cb5 333d 061a d93b b7a8 93bc fe91 25bd
00000100: 22a7 473d f45d 6fbd 35bf 83bd 0db5 91bd
00000110: 6ab7 183d 1310 d2bc 9490 a6bc e01a 523d
00000120: 91e4 4cbb 862a b03a ee24 2cbd 8406 9abc
00000130: d49d 353d c5ec 62bd 5788 5ebd 8963 ffbc
00000140: b566 49bd c1cb b8bb 9b5e 88bd a452 25bd
00000150: dcae 8f3c 638a 96bd 0ff7 83bd 07c4 353d
00000160: 7241 1db9 fc08 0f3d 0559 2abc bcb4 15bd
00000170: b86c 333b a336 933c b700 4bbd 8ca8 29bd
00000180: 435a 333d 727b 7abd 2099 32bb ea88 db3c
00000190: b88d 4a3b 62c7 9f3c d341 b4bc e98b beba
000001a0: 0dbd b83b c01f 463d 2b76 a1bb 5c4a b6bc
000001b0: e772 59bd 0306 c4bc 837f a9bc 2fc5 d9bc
000001c0: 1339 09bd 4558 37bd 6d17 6bbd cb16 4d3c
000001d0: 0bd0 25bd 9deb 9fbc bc5f c2ba c44d 24bd
000001e0: 3f7b 75bd 1f06 4d3d 01fa 193d 25a1 283d
000001f0: d957 2f3d b546 063c e7d2 6abd d6bd 5fbc
00000200: 516a 1ebd 11ea 95bd 5cce 533d 388f 45bc
00000210: ba6f f03a a93b f5ba 3cad 15bd 91ad 72bd
00000220: d2b3 4fba 4575 22bd d42a 46bd aff1 ffbc
00000230: 1ec2 e33c f8c9 30bc e32d 48bd 16a7 b1ba
00000240: f387 93bc 4e26 39bd 88b5 2c3d c1ff 82bd
00000250: 97d6 043d e1a0 fe3c c4bf 41bd 3ef6 093c
00000260: 2220 0cbd 49d7 81bd a93e 1fbd 4dcb 49bc
00000270: 67a4 c6bc 2e69 ec3b 6376 8bbd 5eff 4bbd
00000280: d95d 3f3c 005f 393c 5e71 7dbb 5e20 33bd
00000290: 75d7 9abc 081e 123d 2036 66b9 9cc5 433d
000002a0: d6fe 71bc 5d61 0a3d c2e4 79bd 84b8 20bc
000002b0: da55 243d 34e0 fc39 86f5 21bd 4f65 a03c
000002c0: 2d47 543c 8864 11bd 7b05 25bc a727 32bd
000002d0: abc6 97bd b8a1 063d 0f3f 8b3c 0e57 f2bc
000002e0: 54d0 49bd 174a 703c 495e 30bc e1ba 363d
000002f0: f820 2fbd 694b 263d a4ac 6dbd 97e6 573d
00000300: f847 713d ea96 63bd 6174 1f3c b220 9bbc
00000310: 0cf6 083d 75f6 c83c 63d7 183d f8de 31bd
00000320: a944 6a3d f85f aebc bd00 4e3c 0040 0f3d
00000330: 7bf0 7e3d f37a 883d ff74 d53c 9b06 903d
00000340: bf46 16bd 15b3 953d 2ec5 46bc 6883 2bbc
00000350: 3ed7 793c 0719 673c 3ea6 933d c342 8e3d
00000360: 8dbd 8e3d 33c6 553d 025e 3bbd 45e3 f3bc
00000370: aaa6 f4bd 14b4 bbbd 6685 fcbd 4e7d c3bb
00000380: bcea cbbd a4cd 02be 394e 5dbd cd4c cebd
00000390: 1565 c2bd 7ebe 0bbe 1f7c 6abd 7bbd 02be
000003a0: 2d3d fcbd bd01 11bd dae7 39bd 4caf 83bd
000003b0: 1c68 aebd 0df5 6dbd 0649 c3bd 6afa e6bd
000003c0: 95bd 99bc 7172 a3bd 6ad1 15bd 704e 0a3d
000003d0: 738e 88bd 6e24 05bd 06f8 b8bd 7d84 ecbc
000003e0: 4f33 a6bc 1a37 afbc e3a2 0f3d bb88 85bd
000003f0: 6c04 86bd 77a2 973c 2b9d fa3c 3478 ea3c

fc1.bias f4 [128]
0.004267198 -0.01270991 0.11610665 -0.0076652262 -0.010201227 0.059897326 -0.037080806 -0.014513881
-0.094957165 -0.061095852 -0.06894275 -0.008823397 0.0065204855 -0.012584317 -0.057682823 0.020951275
-0.047622666 -0.08701079 -0.024424322 0.085984714 -0.0072419993 -0.039891984 -0.06007137 0.03412046
0.014166255 -0.04676399 -0.021115433 -0.107594006 -0.014897613 -0.047868744 -0.019927088 -0.08376082
0.07711944 -0.099029936 0.03419747 -0.015446279 -0.050571628 -0.014732252 0.13981819 -0.08384859
-0.0015815432 -0.11640874 -0.017620776 -0.024217613 -0.07761971 -0.098821014 -0.079966985 -0.06966893
-0.09218132 -0.033174407 0.0892378 0.050565008 -0.029472306 0.004642478 0.03761416 -0.036821734
-0.030836962 -0.019511316 -0.053777654 -0.09454048 -0.03881253 -0.09109016 0.009610376 -0.044958673
-0.06278459 -0.12449596 -0.032605387 -0.09984184 -0.045272786 -0.08081015 -0.02079359 -0.01992703
0.039414298 -0.091627225 0.062625624 -0.026729075 -0.053593732 -0.010939004 -0.02420302 -0.0057263877
-0.01807328 0.04261794 -0.029922485 -0.09589544 -0.04979876 -0.115288414 -0.0051736594 0.12152779
-0.07449648 -0.115492776 -0.038426746 0.06707739 -0.08659758 -0.005556444 -0.0073253117 0.07536389
-0.12330402 0.038647562 -0.006046498 -0.06813329 -0.026126973 -0.027513698 -0.11843857 0.009369303
-0.067395344 -0.10850698 -0.07847366 -0.09553501 -0.077271394 0.04267106 -0.00689073 -0.05208559
-0.041658968 -0.11290627 -0.025953554 -0.104842655 0.07943784 -0.11329424 -0.01621037 -0.03823641
-0.034530766 -0.10459273 -0.03572668 -0.017929137 -0.099383794 -0.10470018 -0.0006979923 -0.06726485
00000000: dad3 8b3b 3a3d 50bc 53c9 ed3d 942c fbbb
00000010: 0c23 27bc e656 753d 0be2 17bd a1cb 6dbc
00000020: e778 c2bd a53f 7abd db31 8dbd 0290 10bc
00000030: cca9 d53b 732e 4ebc d344 6cbd 02a2 ab3c
00000040: fc0f 43bd b732 b2bd 8415 c8bc c118 b03d
00000050: 4b4e edbb c765 23bd 660d 76bd e5c1 0b3d
00000060: 9419 683c 998b 3fbd 46fa acbc 3f5a dcbd
00000070: 1e15 74bc 0412 44bd 223e a3bc cb8a abbd
00000080: ccf0 9d3d 35d0 cabd a512 0c3d 6412 7dbc
00000090: 3224 4fbd 8b5f 71bc 802c 0f3e cfb8 abbd
000000a0: c94b cfba b567 eebd 7259 90bc 0464 c6bc
000000b0: 15f7 9ebd ac62 cabd bbc5 a3bd 95ae 8ebd
000000c0: 8fc9 bcbd e3e1 07bd 4fc2 b63d 411d 4f3d
000000d0: e86f f1bc ee1f 983b 4e11 1a3d 63d2 16bd
000000e0: cc9d fcbc 32d6 9fbc f545 5cbd 709e c1bd
000000f0: e3f9 1ebd 7a8d babd d774 1d3c 9626 38bd
00000100: 3595 80bd bdf7 febd 3a8d 05bd e179 ccbd
00000110: f56f 39bd cb7f a5bd 5257 aabc 033e a3bc
00000120: e370 213d 0ea7 bbbd dd41 803d eff6 dabc
00000130: 1a85 5bbd 8239 33bc 6945 c6bc 6ca4 bbbb
00000140: 6a0e 94bc 2690 2e3d 0020 f5bc d464 c4bd
00000150: c9f9 4bbd 551c ecbd cd87 a9bb 90e3 f83d
00000160: 9c91 98bd 7a87 ecbd 5d65 1dbd df5f 893d
00000170: 125a b1bd d512 b6bb 2b09 f0bb 6258 9a3d
00000180: d186 fcbd e84c 1e3d b421 c6bb 7789 8bbd
00000190: 3c08 d6bc 6864 e1bc ec8f f2bd b481 193c
000001a0: 9206 8abd e838 debd ccb6 a0bd dca7 c3bd
000001b0: 7740 9ebd d9c7 2e3d a2cb e1bb b357 55bd
000001c0: 98a2 2abd 673b e7bd 8c9c d4bc bfb7 d6bd
000001d0: 4eb0 a23d cf06 e8bd 9ccb 84bc c89d 1cbd
000001e0: 2270 0dbd b734 d6bd 2456 12bd 20e0 92bc
000001f0: bb89 cbbd 0c6d d6bd 78f9 36ba 27c2 89bd

fc2.weight f4 [64, 128]
0.063907705 0.026249068 0.022933409 0.12876041 -0.05749316 0.083582945 0.067170665 0.009168445
-0.06972122 -0.022936806 0.13244946 -0.11766753 -0.026851334 -0.068858944 -0.10310194 0.008279931
-0.04436047 0.014935734 -0.07951436 -0.13828614 -0.035367616 -0.0487625 -0.013040671 -0.11147376
-0.0439689 -0.07008652 -0.0068832776 0.14711578 -0.12629762 -0.035404917 -0.04594238 0.027827676
-0.052083716 -0.058898058 0.13555193 -0.032834813 -0.050408978 -0.1422135 0.07185806 -0.0026654312
0.07072519 -0.039949823 -0.12357459 -0.015735537 0.03090575 0.017306916 -0.025823282 -0.14164993
0.011386869 -0.13990605 -0.1088846 0.0028499071 0.055875756 -0.009566724 -0.03566606 0.100129016
-0.107888736 -0.08797313 -0.13619396 -0.021319008 0.021441048 -0.09576158 -0.012125596 0.012082539
-0.11225896 0.031820845 0.12700692 -0.066745356 -0.14624785 -0.035009652 0.013719559 0.08266269
-0.14307594 0.028192317 -0.009207732 0.09002327 0.1449528 -0.11048424 -0.09410821 -0.040996417
0.13696933 0.053626083 -0.029349573 -0.14335935 -0.029787952 -0.027218241 -0.0028559074 -0.016662851
-0.017815461 0.06981819 -0.045875724 0.040637933 0.14341418 -0.0033705453 -0.07785866 0.0054427832
-0.009511802 -0.023071252 -0.042401303 0.08122312 -0.013251722 -0.06255588 -0.10059028 -0.027668329
0.13343452 -0.060783546 0.0015075132 -0.07977659 0.022404453 -0.119878694 0.10431988 -0.14507918
0.07623776 0.07705838 -0.044450853 0.12259247 -0.06360398 -0.0054424526 -0.080306575 -0.05641762
-0.10721141 0.010644093 -0.053334232 -0.06862206 -0.00032677205 -0.05688502 -0.09691088 0.14784017
-0.011022628 0.04004703 -0.12306396 0.050438397 -0.0025408193 0.051506184 -0.020206682 0.09078317
0.07794286 0.010748933 0.11116199 -0.061498895 0.065585464 0.14740567 0.021020515 -0.046476804
0.10560755 0.005612534 0.13340493 0.032619957 0.074947484 0.0056166374 0.087462 -0.05184168
-0.08801705 0.11499996 0.014807262 -0.0009335652 0.010352108 0.075753585 0.050561246 0.023211086
-0.0027078555 -0.12592776 0.019808574 0.10073031 0.119233586 0.054765325 -0.123200566 -0.0020861551
-0.023587134 0.024603596 -0.046007965 0.014271159 0.08914199 0.024243582 -0.021704573 -0.13867062
0.088276505 -0.03732988 -0.08681581 0.018072775 0.04543157 -0.13890287 -0.09032936 0.034333333
0.1319046 0.04023329 -0.0059250505 -0.073717676 0.1316195 -0.0001841665 0.090108305 -0.13329183
-0.08544069 0.020796048 -0.032431815 0.014333719 0.048195783 0.011280229 -0.096619464 -0.06753322
-0.08617887 -0.010741089 -0.010120498 0.028232263 0.14266248 -0.0077555096 0.04130318 -0.042423803
0.12727538 0.043993376 -0.05113359 0.14233656 0.07269433 0.12594071 0.036725324 -0.013225928
0.06913447 0.14711305 0.14183874 0.022779275 -0.0041178954 -0.08404079 0.096230656 -0.11129651
0.08866543 0.0012562681 0.0066445787 0.037661128 0.02657535 -0.14337644 0.12387977 0.024179164
-0.052822776 -0.07124741 0.10075133 -0.006423463 -0.008412175 -0.01583293 0.0019981274 0.041674443
0.014370362 -0.010263261 0.027317556 0.035751015 -0.067072004 -0.0009740352 -0.011576639 0.006751805
-0.00016260866 0.04523159 0.06189325 0.007949303 0.12758759 0.045797065 -0.014333022 -0.04183778
00000000: 0be2 823d 4908 d73c d8de bb3c c5d9 033e
00000010: f37d 6bbd 892d ab3d c690 893d 3f37 163c
00000020: 00ca 8ebd f8e5 bbbc d5a0 073e adfb f0bd
00000030: 54f7 dbbc eb05 8dbd 1c27 d3bd 8ca8 073c
00000040: 53b3 35bd 02b5 743c 6dd8 a2bd e29a 0dbe
00000050: a2dd 10bd 30bb 47bd 8aa8 55bc 5b4c e4bd
00000060: bc18 34bd 8589 8fbd 1e8d e1bb 85a5 163e
00000070: 2a54 01be bf04 11bd 142e 3cbd def6 e33c
00000080: bc55 55bd 173f 71bd 20ce 0a3e cc7d 06bd
00000090: a579 4ebd 6aa0 11be 522a 933d 84ae 2ebb
000000a0: 5ed8 903d 6da2 23bd ad14 fdbd d0e7 80bc
000000b0: 0e2e fd3c 3cc7 8d3c 598b d3bc ae0c 11be
000000c0: fd8f 3a3c 8843 0fbe e4fe debd 82c5 3a3b
000000d0: fadd 643d c0bd 1cbc 9316 12bd 7110 cd3d
000000e0: c5f4 dcbd 422b b4bd 6e76 0bbe 33a5 aebc
000000f0: 23a5 af3c a61e c4bd 70aa 46bc d7f5 453c
00000100: 07e8 e5bd 9356 023d 1a0e 023e cab1 88bd
00000110: ffc1 15be 4866 0fbd 00c8 603c 0e4b a93d
00000120: 8082 12be 93f3 e63c 07dc 16bc 1f5e b83d
00000130: 826e 143e 9045 e2bd cebb c0bd dceb 27bd
00000140: b041 0c3e 06a7 5b3d 846e f0bc cbcc 12be
00000150: dd05 f4bc caf8 debc 2d2a 3bbb 8880 88bc
00000160: bbf1 91bc d7fc 8e3d 2fe8 3bbd f673 263d
00000170: 2bdb 123e 5ee4 5cbb 5c74 9fbd 6059 b23b
00000180: 64d7 1bbc ecff bcbc fdac 2dbd 4f58 a63d
00000190: c01d 59bc 4c1d 80bd 4702 cebd b1a8 e2bc
000001a0: 0fa3 083e 2bf8 78bd c097 c53a e961 a3bd
000001b0: 8b89 b73c f682 f5bd a9a5 d53d a38f 14be
000001c0: 8b22 9c3d c9d0 9d3d 1912 36bd c311 fb3d
000001d0: ce42 82bd 9a56 b2bb c677 a4bd 2a16 67bd
000001e0: a891 dbbd 9064 2e3c ff74 5abd b989 8cbd
000001f0: 9a52 abb9 4400 69bd 3679 c6bd 6a63 173e
00000200: 4198 34bc 5b08 243d f508 fcbd 7e98 4e3d
00000210: e083 26bb 26f8 523d 7c88 a5bc 87ec b93d
00000220: 82a0 9f3d 4b1c 303c e6a8 e33d 44e6 7bbd
00000230: ac51 863d 83f1 163e 3733 ac3c 765e 3ebd
00000240: c548 d83d 59e9 b73b 4d9b 083e 819c 053d
00000250: 117e 993d c50b b83b 471f b33d f157 54bd
00000260: 4842 b4bd 1985 eb3d 299a 723c 80ba 74ba
00000270: e39b 293c b224 9b3d 4f19 4f3d 2d25 be3c
00000280: 4776 31bb 35f3 00be 9745 a23c b14b ce3d
00000290: bd30 f43d 9b51 603d 9450 fcbd e0b7 08bb
000002a0: ce39 c1bc 7b8d c93c d972 3cbd 94d1 693c
000002b0: 1390 b63d 7a9a c63c cacd b1bc acff 0dbe
000002c0: 50ca b43d 37e7 18bd 7dcc b1bd 5b0d 943c
000002d0: 7416 3a3d 8e3c 0ebe 99fe b8bd 1ca1 0c3d
000002e0: 0012 073e aacb 243d ed26 c2bb 4bf9 96bd
000002f0: 43c7 063e d21c 41b9 b48a b83d a77d 08be
00000300: 87fb aebd 795c aa3c 39d7 04bd fad7 6a3c
00000310: f168 453d b6d0 383c 6de0 c5bd db4e 8abd
00000320: 8c7e b0bd 64fb 2fbc 72d0 25bc 5947 e73c
00000330: 1d16 123e ee21 febb 862d 293d 95c4 2dbd
00000340: 7a54 023e 6632 343d 7571 51bd adc0 113e
00000350: c4e0 943d 9af6 003e 4b6d 163d 90b1 58bc
00000360: 5f96 8d3d cea4 163e 2d3e 113e 9a9b ba3c
00000370: 69ef 86bb 941d acbd 9414 c53d 6def e3bd
00000380: 3996 b53d 5da9 a43a c4ba d93b 8e42 1a3d
00000390: 8cb4 d93c 46d1 12be adb4 fd3d 6213 c63c
000003a0: b25c 58bd 29ea 91bd b756 ce3d ea7b d2bb
000003b0: 38d3 09bc 10b4 81bc 04f3 023b d2b2 2a3d
000003c0: ab71 6b3c 3d27 28bc 11c9 df3c a86f 123d
000003d0: 0c5d 89bd 6556 7fba f1ab 3dbc 3f3e dd3b
000003e0: ee81 2ab9 c244 393d c783 7d3d cb3d 023c
000003f0: 52a6 023e b495 3b3d 0dd5 6abc 185e 2bbd

fc2.bias f4 [64]
0.0076299985 -0.09123339 -0.08019582 -0.0091563435 -0.029569399 -0.06641116 -0.107649714 -0.055986673
0.02546451 0.0027612569 0.01626836 -0.10880871 -0.04075025 -0.09088164 -0.08241644 -0.033200018
-0.13151602 -0.08633852 0.042416647 0.08624522 0.08755347 -0.05650733 0.030197933 -0.02610816
0.024158845 -0.037111785 -0.050006904 0.018960241 0.04266099 -0.017768666 0.051882572 -0.04406648
-0.09844938 -0.021861197 -0.019340292 0.07446631 -0.12527594 0.025452895 -0.0020321335 0.0077708894
-0.104994304 0.022698367 0.069919385 -0.029245688 -0.071258254 0.025224442 -0.032121092 0.0030588
-0.040095508 -0.061736576 -0.00061219477 -0.095330164 -0.020639045 -0.041151337 0.11019549 -0.058346774
0.0389779 -0.04719984 -0.004847761 -0.10401303 -0.11643101 0.0015953687 -0.02328165 -0.020771986
00000000: 1105 fa3b 92d8 babd b53d a4bd 7d04 16bc
00000010: 863b f2bc 9302 88bd 7477 dcbd 4852 65bd
00000020: f39a d03c 34f6 343b 3945 853c 1ad7 debd
00000030: bce9 26bd 2720 babd f3c9 a8bd befc 07bd
00000040: 23ac 06be 40d2 b0bd 14bd 2d3d 55a1 b03d
00000050: 3c4f b33d 3b74 67bd a861 f73c c8e0 d5bc
00000060: c5e8 c53c 8702 18bd 0ad4 4cbd 8252 9b3c
00000070: 4abd 2e3d 988f 91bc d282 543d 0e7f 34bd
00000080: d49f c9bd 4116 b3bc 886f 9ebc cb81 983d
00000090: 5648 00be 9782 d03c 8b2d 05bb f2a2 fe3b
000000a0: 4107 d7bd edf1 b93c e531 8f3d a794 efbc
000000b0: d9ef 91bd 7da3 ce3c 6891 03bd 2676 483b
000000c0: 303b 24bd 7edf 7cbd b27b 20ba 763c c3bd
000000d0: 3713 a9bc 4e8e 28bd 2cae e13d 07fd 6ebd
000000e0: 4aa7 1f3d 9f54 41bd f7d9 9ebb c904 d5bd
000000f0: 6273 eebd b11b d13a 29b9 bebc 032a aabc

fc3.weight f4 [24, 64]
0.040446695 -0.16234359 0.0772309 0.12267217 0.10898046 0.044586662 0.020981044 0.018011661
-0.057337143 0.057916 -0.022609115 -0.12679905 -0.07093399 -0.029704599 0.11667537 0.03135945
0.049105275 -0.052331842 -0.123044714 0.017249703 0.09523581 0.15950884 -0.082054086 -0.051499564
0.037647482 -0.10595248 0.0047661783 0.069420755 0.05277963 -0.0690613 -0.04626061 -0.015855357
-0.00021791346 -0.1568918 0.045865223 0.032165915 -0.024052598 -0.16063905 0.06738374 -0.033400018
0.015086098 0.0036172527 -0.002656785 -0.14068833 -0.034115404 0.03810453 -0.16358449 0.1002366
0.11019379 -0.07387903 0.16421865 -0.09131482 0.028760573 -0.09802202 0.008543516 -0.035212025
-0.054830894 0.13024463 0.11008478 -0.03896656 0.022976104 -0.05540054 -0.046805672 0.015353919
-0.015431906 -0.01022183 -0.03993026 -0.16219977 -0.11114606 0.07336922 -0.100301564 0.024423791
-0.101649635 -0.0920804 -0.019174354 0.02048286 0.015411423 0.0031979147 0.043926056 -0.069950625
0.03779751 -0.15942898 -0.14132506 -0.046779186 -0.11781773 -0.058585882 -0.04444571 0.059017356
0.043486297 -0.029359719 0.13863821 -0.10592717 -0.07038826 -0.07150116 0.01784727 0.029428666
-0.0039922423 -0.017271068 0.044592336 0.09188734 -0.08504772 0.04829088 0.04584581 -0.14014882
-0.044122968 0.09873477 -0.1236333 0.011855939 -0.1200044 -0.09565372 -0.029128607 0.0044129877
0.016582385 -0.07775544 -0.03884001 0.052814838 0.027852934 0.018638624 -0.10388293 -0.08351705
-0.015307987 -0.11035899 0.060379542 -0.117311575 0.060051586 -0.040645342 -0.05905434 -0.060151268
-0.13513774 -0.070884794 -0.053788148 -0.00888177 0.051559754 -0.06433187 -0.009283819 0.048472546
0.011363036 -0.004252725 -0.04979982 0.030274134 -0.008294948 -0.08598169 0.027738411 -0.15925942
-0.015731625 0.018281434 -0.0378249 0.02330099 -0.15038851 -0.06397361 -0.0023722206 -0.06312457
-0.025260542 -0.023204062 0.049000006 0.012839294 0.053965062 0.11875799 -0.021127194 -0.12941693
-0.054031573 0.10280386 -0.034868076 0.099638596 0.019274987 -0.027945278 0.047771078 0.09985037
-0.07590527 0.03848698 -0.06719006 -0.01623167 0.10318859 -0.027723338 -0.027302632 0.030573325
-0.11965679 -0.052983083 0.047132097 -0.0670544 -0.13818035 -0.025012285 -0.061680418 0.050665744
-0.048707776 -0.07915269 0.064381614 0.020221058 0.08483717 0.05666791 0.03752256 -0.0050701587
-0.0370981 0.012082806 -0.11383997 -0.14054006 -0.023603944 -0.049978174 -0.11869722 -0.10078639
-0.10234615 -0.059591297 0.041775547 -0.043956157 0.075603284 0.04605537 -0.053441606 -0.081799015
0.0008476501 -0.04584891 0.07522473 0.067637935 -0.055870578 -0.15385748 -0.023943339 0.045496937
0.014295654 0.0470331 0.1759794 0.06381261 0.018823117 0.037144624 0.11606169 -0.02742555
-0.10758668 -0.03810348 0.06393702 -0.02094543 -0.12771851 0.050316576 0.057348944 -0.012519725
0.008637385 -0.07870213 -0.03109924 -0.06813183 -0.10318011 -0.12472918 0.16049443 0.06484722
-0.11366002 -0.09771109 0.03661695 -0.024537968 -0.08448194 0.13619961 -0.04841012 -0.05249416
0.0026466167 0.059514258 -0.01003092 0.021535171 -0.07244028 0.064291194 -0.07943132 -0.028503608
00000000: 6fab 253d 663d 26be 3c2b 9e3d 8c3b fb3d
00000010: 2631 df3d 81a0 363d 70e0 ab3c 318d 933c
00000020: 5ada 6abd 5439 6d3d c036 b9bc 9cd7 01be
00000030: d745 91bd 0f57 f3bc 7ff3 ee3d c472 003d
00000040: 9d22 493d ea59 56bd defe fbbd 404f 8d3c
00000050: fe0a c33d 4956 233e f90b a8bd 35f1 52bd
00000060: 3f34 1a3d 9dfd d8bd 9a2d 9c3b 782c 8e3d
00000070: 742f 583d 0370 8dbd c47b 3dbd 18e3 81bc
00000080: b37f 64b9 3ea8 20be 2cdd 3b3d 68c0 033d
00000090: f409 c5bc 907e 24be 7c00 8a3d 75ce 08bd
000000a0: ae2b 773c 6e0f 6d3b 751d 2ebb 9a10 10be
000000b0: 98bc 0bbd 7f13 1c3d b182 27be d948 cd3d
000000c0: 48ad e13d e44d 97bd ef28 283e 4403 bbbd
000000d0: 4b9b eb3c c5bf c8bd 1afa 0b3c 7c3a 10bd
000000e0: 5c96 60bd d95e 053e 2174 e13d 669b 1fbd
000000f0: 6238 bc3c adeb 62bd 4eb7 3fbd 018f 7b3c
00000100: 1bd6 7cbc 7679 27bc ea8d 23bd b217 26be
00000110: 8ca0 e3bd 9a42 963d e86a cdbd 6714 c83c
00000120: af2d d0bd a694 bcbd 8913 9dbc accb a73c
00000130: 3180 7c3c 1b94 513b cfeb 333d 4642 8fbd
00000140: 90d1 1a3d 5a41 23be 84b7 10be 889b 3fbd
00000150: 6c4a f1bd c0f7 6fbd b40c 36bd 2fbc 713d
00000160: b01e 323d cb83 f0bc 2df7 0d3e 58f0 d8bd
00000170: b827 90bd 336f 92bd 7034 923c 6314 f13c
00000180: 5bd1 82bb 0e7c 8dbc 74a6 363d 6e2f bc3d
00000190: 802d aebd a8cc 453d d1c8 3b3d 2c83 0fbe
000001a0: 49ba 34bd 7535 ca3d 7533 fdbd 6a3f 423c
000001b0: dec4 f5bd 19e6 c3bd 1e9f eebc d39a 903b
000001c0: c8d7 873c 3e3e 9fbd b416 1fbd 5f54 583d
000001d0: d62b e43c 07b0 983c 93c0 d4bd fd0a abbd
000001e0: 5ace 7abc e503 e2bd 8a50 773d 0d41 f0bd
000001f0: a7f8 753d bb7b 26bd f7e2 71bd 2d61 76bd
00000200: 8c61 0abe 0c2c 91bd f650 5cbd d884 11bc
00000210: 5230 533d 6dc0 83bd 291b 18bc 268b 463d
00000220: 072c 3a3c 715a 8bbb e5fa 4bbd 7601 f83c
00000230: 89e7 07bc 2b17 b0bd aa3b e33c e714 23be
00000240: 9cdf 80bc f2c2 953c 48ee 1abd b8e1 be3c
00000250: 72ff 19be 9904 83bd 4277 1bbb 7447 81bd
00000260: 32ef cebc 7216 bebc 3bb4 483d e75b 523c
00000270: 780a 5d3d 6437 f33d f012 adbc df85 04be
00000280: 3650 5dbd d58a d23d d4d1 0ebd 520f cc3d
00000290: 94e6 9d3c 7fed e4bc 9bab 433d 5a7e cc3d
000002a0: 3974 9bbd 86a4 1d3d f19a 89bd 47f8 84bc
000002b0: 8a54 d33d 0e1c e3bc c5a9 dfbc e974 fa3c
000002c0: 9e0e f5bd ca04 59bd 960d 413d d153 89bd
000002d0: 267f 0dbe 90e6 ccbc 9ba4 7cbd e286 4f3d
000002e0: ce81 47bd ce1a a2bd 82da 833d a2a6 a53c
000002f0: 1cbf ad3d 9c1c 683d 42b1 193d 9323 a6bb
00000300: 2df4 17bd f6f6 453c ee24 e9bd bce9 0fbe
00000310: 0f5d c1bc eab5 4cbd 8717 f3bd 1869 cebd
00000320: dc9a d1bd 0116 74bd d61c 2b3d 5f0b 34bd
00000330: e5d5 9a3d 8ea4 3c3d 96e5 5abd 3e86 a7bd
00000340: d634 5e3a 11cc 3bbd 6c0f 9a3d c285 8a3d
00000350: 8cd8 64bd d18c 1dbe d224 c4bc ff5a 3a3d
00000360: 5238 6a3c c8a5 403d f233 343e 30b0 823d
00000370: f032 9a3c f624 183d c0b1 ed3d 8cab e0bc
00000380: 6856 dcbd 6512 1cbd 6af1 823d c095 abbc
00000390: a4c8 02be c118 4e3d bae6 6a3d 881f 4dbc
000003a0: d283 0d3c 952e a1bd d5c3 febc b388 8bbd
000003b0: 1850 d3bd 0372 ffbd a758 243e 9fce 843d
000003c0: 96c6 e8bd c11c c8bd a8fb 153d d903 c9bc
000003d0: de04 adbd e977 0b3e b149 46bd 1e04 57bd
000003e0: dc72 2d3b 39c5 733d ba58 24bc 876a b03c
000003f0: 925b 94bd 1aab 833d e3ac a2bd 6680 e9bc

fc3.bias f4 [24]
-0.22464968 -0.12701249 -0.16339786 -0.064199485 -0.101720795 -0.08065112 -0.014659761 -0.039225236
-0.021112824 0.008204149 0.026313905 0.047636785 0.038422864 0.060605794 0.077451766 0.101313815
0.15157887 0.086340554 0.112004414 0.116897576 0.16236068 0.19910623 0.2308912 0.20070261
00000000: 910a 66be 900f 02be c551 27be 057b 83bd
00000010: fe52 d0bd 6a2c a5bd 7f2f 70bc a4aa 20bd
00000020: cdf4 acbc b26a 063c 4290 d73c ca1e 433d
00000030: 4b61 1d3d c83d 783d 089f 9e3d 9e7d cf3d
00000040: 7e37 1b3e 51d3 b03d 9262 e53d ff67 ef3d
00000050: e141 263e 81e2 4b3e be6e 6c3e fc84 4d3e

exp_avg f4 [128, 240]
0.08068204 0.09589223 0.07853597 0.111898914 0.08542182 0.07652558 0.07433213 0.07487594
0.08069607 0.07875408 0.07959486 0.09415645 0.07511791 0.11109579 0.076244324 0.0720106
0.07113106 0.07591553 0.06710951 0.07152304 0.08415388 0.093522064 0.072579585 0.1067795
0.07706084 0.06987501 0.069445305 0.074702986 0.066959016 0.0697535 0.08655175 0.09408713
0.07265716 0.10914443 0.077368736 0.07459037 0.07286281 0.07897675 0.070556656 0.07394064
0.08286025 0.094226606 0.07565066 0.10717735 0.07773328 0.06876125 0.067842625 0.071735375
0.06262052 0.06646236 0.07995706 0.09177472 0.073520675 0.105303116 0.073880486 0.0657332
0.06341716 0.07192255 0.06700657 0.069434926 0.08722484 0.10795446 0.076317094 0.115753114
0.08105905 0.078814894 0.07722813 0.08384381 0.074370615 0.08379339 0.086561754 0.08727046
0.07891695 0.11319996 0.083903134 0.07424409 0.07303462 0.07795345 0.06975582 0.071971156
0.08521975 0.09794699 0.07948529 0.11067834 0.08185528 0.07469628 0.073070265 0.077938296
0.07015715 0.072657555 0.09097731 0.09561958 0.072581425 0.10174651 0.07284241 0.06795918
0.065912135 0.06495826 0.065303445 0.06305422 0.10273786 0.09492682 0.07448345 0.106128395
0.07837855 0.07093656 0.0708688 0.07398466 0.062888354 0.066078775 0.08789108 0.09456553
0.07474193 0.11042635 0.08283306 0.073633604 0.07376937 0.07430612 0.070605844 0.072932005
0.085092396 0.08959182 0.07395924 0.10765265 0.0802983 0.07500946 0.069698125 0.07478577
0.07431913 0.077531435 0.090279676 0.09143375 0.072253816 0.10368037 0.07554499 0.07021748
0.066919275 0.06667199 0.06398766 0.06971164 0.08544153 0.092886515 0.073867805 0.10321539
0.07115485 0.06942019 0.0653918 0.06833063 0.066287756 0.0703563 0.09120786 0.083909854
0.0711062 0.10106596 0.07398148 0.070040576 0.068992026 0.07907556 0.07063747 0.074371606
0.08802316 0.0862902 0.0661188 0.098912664 0.0675127 0.065936275 0.06410517 0.07054231
0.06399849 0.066152014 0.08215294 0.08517904 0.0668943 0.10185359 0.06817378 0.06506369
0.06722499 0.07102382 0.059647705 0.06227108 0.09163288 0.061826855 0.0571104 0.09104164
0.059606172 0.059515312 0.057499185 0.05630526 0.05476474 0.057690598 0.07024383 0.05267135
0.04043496 0.07753203 0.050925575 0.047489543 0.05153308 0.051929027 0.048643325 0.04865813
-0.007525254 -0.007207514 -0.0075068106 0.025297042 -0.0038766917 -0.007717319 -0.007869785 -0.007576175
-0.0063067107 -0.0036883 -0.0040019643 -0.0022157442 -0.0038901053 0.030419914 0.0011332964 -3.9083567e-05
-0.00013558692 -0.00064654194 -0.0010724623 0.0008991942 0.016114943 0.013787131 0.013881554 0.045561843
0.013189867 0.012803898 0.0126756625 0.012856586 0.011756509 0.013256392 0.011854776 0.009766923
0.0098676225 0.041427217 0.009021188 0.008739695 0.008751882 0.008854725 0.007838384 0.008863591
0.18442698 0.12397992 0.17105588 0.18317029 0.16569592 0.16401237 0.16378497 0.16118465
0.17600071 0.1691301 0.18363866 0.12485455 0.17364125 0.18861106 0.15979865 0.16068329
00000000: a03c a53d 2563 c43d 77d7 a03d 422b e53d
00000010: a3f1 ae3d 71b9 9c3d 723b 983d 8f58 993d
00000020: fb43 a53d d249 a13d a102 a33d 19d5 c03d
00000030: 6bd7 993d 3186 e33d fc25 9c3d 4b7a 933d
00000040: 29ad 913d 9a79 9b3d b670 893d ac7a 923d
00000050: df58 ac3d 7f88 bf3d 9ba4 943d 36af da3d
00000060: 13d2 9d3d a11a 8f3d 5739 8e3d e1fd 983d
00000070: cf21 893d ecda 8e3d 0b42 b13d c1b0 c03d
00000080: 47cd 943d 1d87 df3d 8073 9e3d d6c2 983d
00000090: 1939 953d 90be a13d 0280 903d 316e 973d
000000a0: a2b2 a93d e1f9 c03d bcee 9a3d cc7f db3d
000000b0: a032 9f3d b3d2 8c3d 13f1 8a3d ffe9 923d
000000c0: 303f 803d 6b1d 883d 87c0 a33d 62f4 bb3d
000000d0: 0292 963d 29a9 d73d a74e 973d 219f 863d
000000e0: dbe0 813d 214c 933d be3a 893d e633 8e3d
000000f0: f0a2 b23d 3a17 dd3d 234c 9c3d f80f ed3d
00000100: 4a02 a63d b469 a13d c829 9e3d 4eb6 ab3d
00000110: 9f4f 983d de9b ab3d 4a47 b13d dbba b23d
00000120: 369f a13d 61d5 e73d 68d5 ab3d 490d 983d
00000130: 2d93 953d 0fa6 9f3d 24dc 8e3d 9d65 933d
00000140: b187 ae3d 6e98 c83d 2fc9 a23d 53ab e23d
00000150: bea3 a73d 5dfa 983d dda5 953d 1d9e 9f3d
00000160: 8dae 8f3d 7ccd 943d 5052 ba3d 33d4 c33d
00000170: 92a5 943d 7960 d03d 672e 953d 2f2e 8b3d
00000180: f1fc 863d d608 853d d0bd 853d 9222 813d
00000190: 3a68 d23d fe68 c23d c78a 983d d859 d93d
000001a0: ef84 a03d 3047 913d a923 913d 4585 973d
000001b0: 9ccb 803d 4f54 873d 3d00 b43d 93ab c13d
000001c0: 4c12 993d 3627 e23d 61a4 a93d 37cd 963d
000001d0: 6514 973d cf2d 983d cc99 903d 605d 953d
000001e0: ec44 ae3d eb7b b73d f177 973d fe78 dc3d
000001f0: 6f73 a43d 8f9e 993d e4bd 8e3d 4829 993d
00000200: a134 983d cdc8 9e3d 8de4 b83d 9e41 bb3d
00000210: cff9 933d 6056 d43d 55b7 9a3d 2fce 8f3d
00000220: f90c 893d 538b 883d f60b 833d fac4 8e3d
00000230: f8fb ae3d 493b be3d 0148 973d 9762 d33d
00000240: a2b9 913d 2c2c 8e3d 23ec 853d eef0 8b3d
00000250: e0c1 873d f716 903d 30cb ba3d eed8 ab3d
00000260: 21a0 913d acfb ce3d 9a83 973d 6f71 8f3d
00000270: b14b 8d3d 5ef2 a13d 61aa 903d 2450 983d
00000280: 7d45 b43d ebb8 b03d 4b69 873d b992 ca3d
00000290: 1944 8a3d 9909 873d 9249 833d 7d78 903d
000002a0: a411 833d b57a 873d cd3f a83d 5972 ae3d
000002b0: e1ff 883d 9d98 d03d b29e 8b3d 1d40 853d
000002c0: 41ad 893d f074 913d 2751 743d f60f 7f3d
000002d0: 05aa bb3d 283e 7d3d 98ec 693d 0a74 ba3d
000002e0: 9a25 743d 54c6 733d 4484 6b3d 58a0 663d
000002f0: fe50 603d fa4c 6c3d ffdb 8f3d eabd 573d
00000300: 219f 253d 1dc9 9e3d 5697 503d 6584 423d
00000310: 5a14 533d 88b3 543d 393e 473d bf4d 473d
00000320: 6896 f6bb 022d ecbb b1fb f5bb be3b cf3c
00000330: 1810 7ebb 90e1 fcbb 45f0 00bc 9041 f8bb
00000340: 86a8 cebb 68b7 71bb e922 83bb 0536 11bb
00000350: 23f1 7ebb 2f33 f93c 1e8b 943a a9ed 23b8
00000360: 562c 0eb9 b27c 29ba dd91 8cba e7b7 6b3a
00000370: 7c03 843c 6be3 613c 756f 633c 0e9f 3a3d
00000380: 501a 583c 71c7 513c 95ad 4f3c 6ea4 523c
00000390: 5f9e 403c 5731 593c 893a 423c 7205 203c
000003a0: cfab 213c 96af 293d 9bcd 133c f030 0f3c
000003b0: 0e64 0f3c 6913 113c 916c 003c 9838 113c
000003c0: 6dda 3c3e 2fe9 fd3d 4629 2f3e fe90 3b3e
000003d0: 31ac 293e dcf2 273e 3fb7 273e 970d 253e
000003e0: 8839 343e 7130 2d3e c60b 3c3e beb3 ff3d
000003f0: 03cf 313e 4223 413e 42a2 233e 298a 243e

exp_avg_sq f4 [128, 240]
100245.945 91759.76 87264.664 98643.305 81085.39 77198.625 76815.04 77102.28
77082.6 77317.484 106099.49 94498.875 91842.9 103497.33 80998.16 78230.12
77753.88 78038.305 77243.23 76710.88 96606.89 95919.46 90655.34 103995.15
83432.625 79483.29 79763.35 78809.85 77934.38 78619.48 99025.234 95948.016
91089.72 104057.336 81061.45 70674.32 70415.04 70513.49 69909.07 70779.81
102088.68 97640.03 92823.414 104804.33 83038.375 78767.59 78509.67 78361.97
78066.52 78628.9 109492.18 99305.11 92465.34 103194.8 81384.484 78349.56
78104.04 75306.31 71402.14 71628.49 105026.36 103151.89 93239.57 101074.97
80435.79 77641.25 77094.164 77580.31 76568.33 85361.805 105952.836 104995.04
86381.6 98074.484 78512.52 74069.25 73837.27 73503.33 73010.68 73128.27
106081.04 84709.12 79622.73 89601.59 71015.99 68174.7 67276.36 67088.93
67015.336 66468.05 110486.95 98577.1 93607.57 102829.71 82645.49 73582.46
72876.54 72176.63 72684.875 71893.08 123820.35 99022.125 94658.79 105091.65
85964.16 82779.09 83017.59 82369.37 80776.03 79233.98 111204.94 95570.65
97220.23 103550.59 84982.64 81224.79 79902.42 80661.555 75301.984 74659.32
115440.02 103906.04 92629.49 104926.64 86356.08 77329.445 83167.586 72862.164
73370.66 73152.46 115022.414 96235.875 92554.18 100860.79 81885.04 76999.14
75692.01 71608.42 71645.02 66468.29 110631.42 94521.05 87959.195 98731.445
79022.67 77237.36 79601.29 73711.96 72935.375 73224.09 109523.58 100551.31
87898.41 97116.016 77555.26 70852.734 71263.2 67030.22 64840.445 65111.42
111988.84 92623.02 88711.766 98664.23 79491.82 78529.18 73947.664 74410.66
69060.85 68824.05 105176.44 89095.305 87177.83 98167.84 78089.625 76383.25
78429.484 76110.91 75392.52 73819.27 108250.695 86807.06 86626.07 94967.07
76817.164 75178.64 74807.836 67596.02 67061.98 66006.74 97032.125 80247.37
80085.38 85336.96 69917.375 64436.23 60623.973 60394.816 60380.227 60281.816
63190.15 46026.098 45488.57 52526.316 44936.312 43875.285 44116.613 44246.746
41850.52 41769.81 21838.057 16858.246 15760.341 23184.146 15738.87 13077.683
13190.049 13044.808 12989.824 13253.086 524.66516 386.88895 395.79828 7019.856
360.19113 337.1349 329.502 337.27805 293.6971 356.39392 317.2986 223.66888
228.48262 6568.656 197.61322 184.63788 184.03249 185.28416 175.19699 173.26112
191731.05 184793.88 177397.2 187461.88 169846.17 153361.28 153508.89 151242.56
151502.9 153541.52 196417.4 185331.86 179621.66 192281.5 164486.9 157299.64
00000000: f9ca c347 e137 b347 5570 aa47 a7a9 c047
00000010: b25e 9e47 50c7 9647 8507 9647 2497 9647
00000020: 4d8d 9647 be02 9747 bf39 cf47 7091 b847
00000030: 7361 b347 aa24 ca47 1433 9e47 0fcb 9847
00000040: f1dc 9747 276b 9847 9ddd 9647 71d3 9547
00000050: 72af bc47 bb57 bb47 ac0f b147 931d cb47
00000060: 50f4 a247 a53d 9b47 adc9 9b47 edec 9947
00000070: 3137 9847 bd8d 9947 9e68 c147 0266 bb47
00000080: dce8 b147 ab3c cb47 ba52 9e47 2909 8a47
00000090: 8587 8947 bfb8 8947 898a 8847 e83d 8a47
000000a0: 5764 c747 04b4 be47 b54b b547 2ab2 cc47
000000b0: 302f a247 ccd7 9947 d656 9947 fc0c 9947
000000c0: 4379 9847 7392 9947 17da d547 8ef4 c147
000000d0: ac98 b447 668d c947 3ef4 9e47 c806 9947
000000e0: 058c 9847 2815 9347 1275 8b47 3fe6 8b47
000000f0: 2e21 cd47 f277 c947 c91b b647 7c69 c547
00000100: e519 9d47 a0a4 9747 1593 9647 2886 9747
00000110: 2a8c 9547 e7b8 a647 6bf0 ce47 8511 cd47
00000120: cdb6 a847 3e8d bf47 4358 9947 a0aa 9047
00000130: a336 9047 aa8f 8f47 5799 8e47 23d4 8e47
00000140: 8530 cf47 8f72 a547 5d83 9b47 cc00 af47
00000150: ffb3 8a47 5a27 8547 2e66 8347 7708 8347
00000160: abe3 8247 06d2 8147 7acb d747 8d88 c047
00000170: c9d3 b647 dbd6 c847 bf6a a147 3bb7 8f47
00000180: 4556 8e47 51f8 8c47 70f6 8d47 8a6a 8c47
00000190: 2dd6 f147 1067 c147 65e1 b847 d341 cd47
000001a0: 14e6 a747 8cad a147 cc24 a247 afe0 a047
000001b0: 04c4 9d47 fdc0 9a47 7832 d947 53a9 ba47
000001c0: 1de2 bd47 4c3f ca47 52fb a547 65a4 9e47
000001d0: 360f 9c47 c78a 9d47 fe12 9347 a9d1 9147
000001e0: 0378 e147 05f1 ca47 bfea b447 52ef cc47
000001f0: 0aaa a847 b908 9747 cb6f a247 154f 8e47
00000200: 544d 8f47 3be0 8e47 35a7 e047 f0f5 bb47
00000210: 17c5 b447 65fe c447 85ee 9f47 9263 9647
00000220: 01d6 9347 36dc 8b47 83ee 8b47 25d2 8147
00000230: b613 d847 869c b847 99cb ab47 b9d5 c047
00000240: 5657 9a47 aeda 9647 a578 9b47 fbf7 8f47
00000250: b073 8e47 0c04 8f47 cae9 d547 a863 c447
00000260: 34ad ab47 02ae bd47 a179 9747 5e62 8a47
00000270: 9a2f 8b47 1ceb 8247 7248 7d47 6c57 7e47
00000280: 6cba da47 83e7 b447 e243 ad47 1db4 c047
00000290: e941 9b47 9760 9947 d56d 9047 5455 9147
000002a0: 6de2 8647 066c 8647 386c cd47 a703 ae47
000002b0: ea44 aa47 ecbb bf47 d084 9847 a02f 9547
000002c0: be2e 9947 74a7 9447 4340 9347 a32d 9047
000002d0: 596d d347 888b a947 0931 a947 897b b947
000002e0: 9508 9647 52d5 9247 eb1b 9247 0306 8447
000002f0: fdfa 8247 5feb 8047 1084 bd47 afbb 9c47
00000300: b16a 9c47 7bac a647 b08e 8847 3bb4 7b47
00000310: f9cf 6c47 d1ea 6b47 3adc 6b47 d179 6b47
00000320: 26d6 7647 19ca 3347 92b0 3147 512e 4d47
00000330: 5088 2f47 4963 2b47 9d54 2c47 bfd6 2c47
00000340: 857a 2347 cf29 2347 1d9c aa46 7eb4 8346
00000350: 5d41 7646 4b20 b546 7beb 7546 bb56 4c46
00000360: 3218 4e46 3bd3 4b46 4cf7 4a46 5814 4f46
00000370: 922a 0344 c971 c143 2ee6 c543 d95e db45
00000380: 7718 b443 4491 a843 42c0 a443 97a3 a843
00000390: 3bd9 9243 6c32 b243 39a6 9e43 3cab 5f43
000003a0: 8d7b 6443 3f45 cd45 fc9c 4543 4ca3 3843
000003b0: 5108 3843 bf48 3943 6e32 2f43 d942 2d43
000003c0: c33c 3b48 7876 3448 4d3d 2d48 7811 3748
000003d0: 8bdd 2548 52c4 1548 39e9 1548 a4b2 1348
000003e0: baf3 1348 61f1 1548 5ad0 3f48 f7fc 3448
000003f0: 6a69 2f48 60c6 3b48 baa1 2048 e99c 1948

exp_avg f4 [128]
7.532337e-07 1.7312836e-06 -1.180569e-06 1.2990277e-07 9.110355e-07 0.0 -2.6131775e-07 5.7406874e-07
9.768521e-07 1.4062591e-06 9.3097505e-08 -6.0218696e-07 8.0166234e-07 6.450956e-07 1.1900875e-06 6.302925e-08
1.0862182e-07 7.725624e-07 2.6442308e-08 -1.910177e-06 1.0677107e-06 5.8323595e-09 9.583829e-07 4.5843177e-07
-3.5678747e-07 5.0705086e-07 4.5411102e-07 2.0825315e-08 1.0356398e-06 7.0468396e-09 -1.4406127e-07 5.5055693e-07
-7.7442344e-08 4.4687252e-07 -3.2989632e-07 1.6304357e-07 1.4249504e-06 9.666754e-07 -1.4225868e-06 1.5669386e-06
6.91634e-07 1.0671965e-06 4.42826e-07 3.551958e-07 4.5594017e-09 3.9195003e-09 9.542806e-07 8.2570955e-07
2.3855785e-07 2.0919637e-07 -2.7041412e-07 -8.832372e-07 -9.5353386e-08 4.9758756e-07 1.5272191e-07 2.6696742e-07
3.9781636e-07 1.2410173e-06 7.843964e-07 9.065505e-07 2.9616524e-07 8.1357575e-07 1.8201991e-08 1.4386374e-07
6.962216e-07 9.169193e-09 1.2143413e-06 6.349237e-09 4.0475836e-08 4.92395e-09 8.289549e-10 -9.122856e-08
-3.1273132e-07 1.2246167e-08 -1.9671452e-07 4.0815505e-07 7.001358e-08 4.846877e-07 4.035639e-07 3.5477768e-07
6.308352e-08 -2.5435142e-07 8.9130907e-07 4.1891704e-07 5.6417743e-08 4.3841048e-08 1.4860645e-06 -6.6631947e-07
3.347045e-08 8.86311e-09 1.2880822e-07 4.962469e-07 6.112242e-08 4.513553e-07 2.1593771e-06 -9.69772e-07
6.4294284e-07 1.7352103e-07 1.4262855e-06 1.844175e-07 1.850621e-07 3.699266e-08 2.3636879e-07 1.49186e-06
1.1324222e-07 3.3599946e-08 2.7262064e-07 7.8242493e-07 3.8363616e-08 -6.296496e-07 1.1215402e-06 1.4060752e-06
5.28245e-07 3.6420127e-09 1.4124538e-06 5.3072e-07 -3.2143558e-07 1.1799309e-06 1.4941364e-08 9.017613e-09
7.50151e-07 3.811368e-07 6.221964e-07 1.4636265e-07 7.3833476e-08 4.892272e-07 -7.364339e-07 9.89408e-07
00000000: d331 4a35 745e e835 0b74 9eb5 677b 0b34
00000010: e28d 7435 0000 0000 3d4b 8cb4 b419 1a35
00000020: 621c 8335 b2be bc35 e5ec c733 f9a5 21b5
00000030: d131 5735 a22a 2d35 18bb 9f35 b25a 8733
00000040: 7a43 e933 1562 4f35 4023 e332 9730 00b6
00000050: 434e 8f35 fa65 c831 c9a1 8035 621e f634
00000060: 7f8c bfb4 451c 0835 8bcc f334 5ae3 b232
00000070: 5000 8b35 a820 f231 43af 1ab4 fcc9 1335
00000080: 614e a6b3 b1e9 ef34 9b1c b1b4 1311 2f34
00000090: ec40 bf35 b7be 8135 b6ef beb5 9a4f d235
000000a0: baa8 3935 983c 8f35 8bbd ed34 bdb1 be34
000000b0: eca8 9c31 4aac 8631 d514 8035 54a6 5d35
000000c0: 2413 8034 769f 6034 6f2d 91b4 9917 6db5
000000d0: 14c5 ccb3 f591 0535 e1fb 2334 b953 8f34
000000e0: 7793 d534 0891 a635 4f8f 5235 ad59 7335
000000f0: a400 9f34 8064 5a35 9a5a 9c32 f778 1a34
00000100: fce3 3a35 8a86 1d32 73fc a235 7b28 da31
00000110: a7d7 2d33 862f a931 84dc 6330 6ee9 c3b3
00000120: 77e5 a7b4 3663 5232 7a38 53b4 6720 db34
00000130: 5f5a 9633 7c1b 0235 66a9 d834 4678 be34
00000140: 8878 8733 cb8d 88b4 4b42 6f35 85e7 e034
00000150: f74f 7233 be4b 3c33 ca74 c735 20dd 32b5
00000160: 26c1 0f33 5f44 1832 894e 0a34 d435 0535
00000170: 6842 8333 cd51 f234 d1e9 1036 1d29 82b5
00000180: b296 2c35 1951 3a34 cc6e bf35 4c04 4634
00000190: 7cb5 4634 dce1 1e33 8fcc 7d34 eb3b c835
000001a0: 922f f333 884f 1033 b25c 9234 d507 5235
000001b0: 3ec5 2433 3105 29b5 d487 9635 60b8 bc35
000001c0: b8cc 0d35 f746 7a31 8b93 bd35 cd76 0e35
000001d0: c591 acb4 1e5e 9e35 6858 8032 e2eb 1a32
000001e0: fc5d 4935 0b9f cc34 0305 2735 dc27 1d34
000001f0: 628e 9e33 7053 0335 5aaf 45b5 cdcb 8435

exp_avg_sq f4 [128]
9.750245e-06 1.8890833e-05 1.4406135e-06 1.416578e-07 2.7420986e-06 0.0 7.839055e-06 2.7665003e-06
8.010524e-06 1.1577056e-05 7.275779e-08 1.6892619e-06 1.2341198e-06 3.4934258e-06 4.3914156e-06 1.218133e-06
9.904618e-08 5.010379e-06 5.8695147e-09 1.6420006e-05 9.569961e-06 1.8772878e-10 7.710481e-06 2.6363796e-06
9.654316e-06 2.1582716e-06 1.7311208e-06 3.6407128e-09 9.003697e-06 1.3802904e-08 1.2009543e-05 2.468636e-06
4.163944e-06 8.46331e-07 4.8551747e-06 2.2315706e-07 1.7045224e-05 7.844492e-06 2.4062656e-06 2.061139e-05
5.7535462e-06 9.560754e-06 1.5487968e-06 1.0591035e-06 1.7450963e-10 6.874213e-11 7.204221e-06 4.4818357e-06
4.777393e-07 1.50504575e-05 1.4688083e-06 9.137536e-06 2.6381489e-05 4.606358e-06 1.7745015e-06 5.9830154e-07
1.3285211e-06 5.903452e-06 5.165052e-06 4.4896733e-06 7.3632833e-07 4.383202e-06 1.4825167e-09 9.466329e-08
1.2681074e-06 7.0577405e-10 3.9621227e-06 1.803869e-10 1.5433794e-05 2.0353101e-10 3.7923124e-12 9.76399e-06
8.085485e-06 3.0119502e-09 1.6708038e-05 1.3984719e-06 4.1149804e-08 1.9720924e-06 1.3671868e-06 8.692503e-07
3.3406806e-08 9.648728e-07 4.5832685e-06 1.4731916e-06 2.6719896e-08 1.6134866e-08 1.8538665e-05 7.4167235e-07
9.4043076e-09 6.5944045e-10 1.3928059e-07 4.7993676e-06 3.1362042e-08 7.725783e-07 3.914353e-05 1.0850996e-06
3.4701475e-06 2.8419565e-05 1.7077185e-05 1.5399921e-07 2.8750006e-07 6.6041825e-09 4.6901184e-07 1.1370399e-05
2.0960188e-07 9.477206e-09 6.2390825e-07 7.1396985e-06 1.2355e-08 9.160952e-06 1.0559242e-05 1.6596656e-05
6.7647484e-06 7.320243e-11 1.6747572e-05 2.3644716e-06 5.918583e-06 6.583332e-06 1.8740625e-09 4.4877219e-10
4.7238996e-06 1.2194529e-06 3.2498106e-06 1.7983078e-07 4.5762505e-08 2.0092089e-06 1.2348973e-05 1.98662e-06
00000000: fc94 2337 c177 9e37 1a5b c135 991a 1834
00000010: e504 3836 0000 0000 7c84 0337 1da8 3936
00000020: f064 0637 143b 4237 053f 9c33 99ba e235
00000030: 09a4 a535 9970 6a36 f959 9336 bb7e a335
00000040: 37b3 d433 d41e a836 ccac c931 b2bd 8937
00000050: ab8e 2037 f468 4e2f 445c 0137 a8ec 3036
00000060: f9f8 2137 d3d6 1036 dc58 e835 1930 7a31
00000070: 960e 1737 d021 6d32 987c 4937 d8aa 2536
00000080: 02b8 8b36 6c2f 6335 a2e9 a236 f29c 6f34
00000090: 57fc 8e37 d69b 0337 547b 2136 9fe6 ac37
000000a0: 960e c136 2067 2037 41e0 cf35 8526 8e35
000000b0: 18e0 3f2f 612a 972e cabb f136 ad62 9636
000000c0: ff3d 0035 3981 7c37 de23 c535 6b4d 1937
000000d0: d14d dd37 5090 9a36 682b ee35 f89a 2035
000000e0: a34f b235 4416 c636 754f ad36 00a6 9636
000000f0: 19a8 4535 6b13 9336 6bc1 cb30 b249 cb33
00000100: d733 aa35 6f00 4230 60f2 8436 6656 462f
00000110: d277 8137 e3c8 5f2f 1d6e 852c 05d0 2337
00000120: e5a6 0737 cafa 4e31 3d28 8c37 21b3 bb35
00000130: b0bc 3033 4a58 0436 2e80 b735 6d56 6935
00000140: 2c7b 0f33 c780 8135 fac9 9936 7aba c535
00000150: ac85 e532 f298 8a32 7b83 9b37 5617 4735
00000160: 9590 2132 ff43 3530 288d 1534 410a a136
00000170: eeb2 0633 2d63 4f35 0c2e 2438 bda3 9135
00000180: aee0 6836 8d66 ee37 fa40 8f37 fb5a 2534
00000190: b559 9a34 01eb e231 7fcc fb34 7ec3 3e37
000001a0: ed0e 6134 31d1 2232 a67a 2735 8b91 ef36
000001b0: dd41 5432 fdb1 1937 9927 3137 0c39 8b37
000001c0: bffc e236 4ef9 a02e 237d 8c37 50ad 1e36
000001d0: 3e98 c636 64e6 dc36 dbc8 0031 12b7 f62f
000001e0: fd81 9e36 15ac a335 5217 5a36 8217 4134
000001f0: 688c 4433 f2d5 0636 6f2e 4f37 df51 0536

exp_avg f4 [64, 128]
-0.0026914272 0.00038701453 0.0 -0.011254032 0.00015669747 0.0 -0.005682424 0.012370173
0.0006476461 0.014505334 -0.00019610154 8.296645e-05 0.0 0.005474512 0.00011247516 0.0014966441
0.012578002 0.004728252 0.0020715825 0.011386086 0.014449324 0.0 0.02170178 0.0017357692
0.006640721 0.0013705618 0.01694962 -1.0816246e-05 0.002194277 0.011004773 0.012276554 0.0042078723
0.005159655 0.001810054 -0.008526992 0.01356888 0.022277988 0.010353576 -0.00017594558 0.011993038
-0.0045707314 0.0032336777 0.0025584376 0.002122358 -3.4680754e-05 0.0 0.0013661718 1.1244033e-05
0.008456504 0.004402485 0.00026879617 0.0072554513 -0.0031408872 0.0016501992 4.1493782e-05 -0.0039152065
0.010465805 0.0008744468 0.011108284 0.0059406576 -0.006854343 0.0068601985 0.0 -0.00011042333
0.00024190075 -0.0014180809 -0.00079511915 0.0 0.008058193 0.0011550883 0.0 -0.0018901189
0.0017314666 -0.0041885455 0.0030329793 -0.0030675773 -0.009458525 0.0034326285 0.013908573 0.0035666556
-0.0051627504 0.0 0.00044841442 0.0072417427 0.003419531 0.0015735684 0.018023612 0.0
0.003027583 0.0 0.0049778502 -0.00034426738 -0.0024401085 -0.0002445591 0.009860132 0.0
-0.00534141 -0.0058945897 0.019824259 0.0 -0.00015421513 0.0 0.0091413595 -0.0035154033
-0.00038010863 0.00085771823 -0.0026829327 0.01097632 0.0006211673 0.011608235 -0.0044629374 0.006617085
-0.001876206 0.0 0.008487644 -0.00725679 0.0041644364 2.2087355e-05 0.0002233421 0.0
0.012130615 -0.01193978 0.016343243 0.0021921457 0.0092222225 0.0025443162 0.0033675649 -0.00023725475
0.7243118 0.69436026 0.52320075 -0.034048043 0.12693018 0.0 0.5479317 -0.029358286
-0.1661074 0.9872384 -0.039293315 1.5868955 0.7878315 -0.07517021 0.73580134 1.1977326
-0.048524965 -0.14492497 -0.0030149708 1.7804606 -0.119732104 0.0006147978 -0.11743726 0.3112022
0.49433383 -0.018575324 -0.12280464 0.0 -0.030531608 -0.026788509 1.190518 0.1737392
2.142094 0.4300396 1.9106207 -0.016979357 -0.057891276 -0.1158975 1.5582149 -0.11072161
0.6529148 -0.11159486 1.3916776 -0.012000405 -0.000105037994 2.5055131e-05 0.031520322 0.1351273
-0.03764429 0.99682087 1.4221741 1.7145568 1.3878843 0.106264405 0.9030891 -0.018303296
-0.011043968 1.0284396 -0.102929845 0.46225888 -0.069216155 0.18017045 -0.0007591092 0.12526923
1.1405355 -0.002198225 0.34790212 -0.0035850522 1.0725031 -0.07166294 0.00017970926 0.38011724
1.2013799 -0.14159974 0.9039223 -0.022311285 -0.0422551 -0.029717447 -0.082003474 0.10161563
-0.08180015 0.63960934 0.15339634 -0.12758319 -0.00072386634 -0.01073451 -0.23064236 0.59356654
-0.0013310089 -0.00023020635 -0.0011549495 1.431763 -0.0045332965 0.26004186 -0.16424169 1.0146013
-0.022603348 0.95234853 -0.18875241 0.16660556 -0.028422724 0.107815064 -0.12601888 0.2088914
0.061288636 0.00012181058 -0.08050936 0.30805326 -0.0038311433 1.5367389 -0.16794488 -0.08391469
1.1772218 0.00026882294 -0.1553377 -0.08235936 1.9535888 0.11210161 -0.003302101 0.00017252794
-0.14716792 -0.16525409 -0.23253928 -0.0784504 -0.10324392 -0.003290989 1.2220622 1.5270678
00000000: a862 30bb 36e8 ca39 0000 0000 d562 38bc
00000010: 284f 2439 0000 0000 a133 babb 44ac 4a3c
00000020: cbc6 293a c8a7 6d3c 9ba0 4db9 46fe ad38
00000030: 0000 0000 8963 b33b a4e0 eb38 0b2b c43a
00000040: f713 4e3c 74ef 9a3b 63c3 073b b58c 3a3c
00000050: dcbc 6c3c 0000 0000 eec7 b13c c082 e33a
00000060: 689a d93b 6ca4 b33a eed9 8a3c 6c77 35b7
00000070: dccd 0f3b 5d4d 343c 9923 493c 31e2 893b
00000080: 5312 a93b 553f ed3a ccb4 0bbc 0250 5e3c
00000090: 5480 b63c 0ca2 293c 087e 38b9 727e 443c
000000a0: 13c6 95bb 1cec 533b 76ab 273b 4217 0b3b
000000b0: 2d76 11b8 0000 0000 1e11 b33a c1a4 3c37
000000c0: 268d 0a3c b942 903b 36ed 8c39 23bf ed3b
000000d0: 58d7 4dbb 7f4b d83a 9c09 2e38 224b 80bb
000000e0: c578 2b3c 223b 653a 85ff 353c d9a9 c23b
000000f0: 669a e0bb 84cb e03b 0000 0000 1393 e7b8
00000100: bda6 7d39 e6de b9ba 8b6f 50ba 0000 0000
00000110: 8306 043c 5566 973a 0000 0000 debd f7ba
00000120: 61f2 e23a 1140 89bb f3c4 463b 6809 49bb
00000130: eef7 1abc f3f5 603b c9e0 633c 8dbe 693b
00000140: 4a2c a9bb 0000 0000 2a19 eb39 244c ed3b
00000150: 361a 603b 3240 ce3a 41a6 933c 0000 0000
00000160: 6a6a 463b 0000 0000 3c1d a33b c97e b4b9
00000170: 3aea 1fbb 2b38 80b9 648c 213c 0000 0000
00000180: ff06 afbb 6727 c1bb 7c66 a23c 0000 0000
00000190: cfb4 21b9 0000 0000 a4c5 153c ae62 66bb
000001a0: 5149 c7b9 7fd8 603a 24d4 2fbb 06d6 333c
000001b0: d5d5 223a 7730 3e3c d53d 92bb 22d4 d83b
000001c0: 07eb f5ba 0000 0000 c20f 0b3c 5eca edbb
000001d0: d375 883b 3c48 b937 f030 6a39 0000 0000
000001e0: 7dbf 463c 119f 43bc 44e2 853c 1aaa 0f3b
000001f0: ce18 173c 8bbe 263b 5db2 5c3b 96c7 78b9
00000200: 806c 393f 98c1 313f 7cf0 053f f675 0bbd
00000210: fcf9 013e 0000 0000 4045 0c3f ca80 f0bc
00000220: 0f18 2abe a8bb 7c3f 07f2 20bd 641f cb3f
00000230: 53af 493f d7f2 99bd 7a5d 3c3f 4d4f 993f
00000240: 1dc2 46bd 3667 14be d196 45bb 22e6 e33f
00000250: 1b36 f5bd 622a 213a f282 f0bd e555 9f3e
00000260: 5319 fd3e 472b 98bc 0081 fbbd 0000 0000
00000270: 6c1d fabc 9373 dbbc e562 983f b0e8 313e
00000280: 1118 0940 272e dc3e 388f f43f 4b18 8bbc
00000290: 671f 6dbd ab5b edbd 9673 c73f 03c2 e2bd
000002a0: 6d25 273f d98b e4bd 7e22 b23f 599d 44bc
000002b0: d847 dcb8 7c2d d237 741b 013d d05e 0a3e
000002c0: e630 1abd a72f 7f3f cd09 b63f 9976 db3f
000002d0: 31a6 b13f 27a1 d93d d930 673f cbf0 95bc
000002e0: c2f1 34bc e9a3 833f e2cc d2bd 32ad ec3e
000002f0: 33c1 8dbd 9a7e 383e f5fe 46ba 9446 003e
00000300: 11fd 913f 1810 10bb 3a20 b23e 32f3 6abb
00000310: c847 893f 05c4 92bd 5670 3c39 ba9e c23e
00000320: d1c6 993f 86ff 10be 7467 673f 28c6 b6bc
00000330: af13 2dbd 0172 f3bc 70f1 a7bd db1b d03d
00000340: d686 a7bd 70bd 233f ee13 1d3e 2ba5 02be
00000350: d9c1 3dba ccdf 2fbc 832d 6cbe faf3 173f
00000360: 3f75 aeba 8c63 71b9 ad61 97ba 0344 b73f
00000370: 0c8c 94bb 3524 853e f92e 28be 75de 813f
00000380: a82a b9bc 1dcd 733f 5048 41be a69a 2a3e
00000390: c6d6 e8bc 25ce dc3d 180b 01be a1e7 553e
000003a0: cb09 7b3d 8f74 ff38 17e2 a4bd 28b9 9d3e
000003b0: eb13 7bbb dcb3 c43f bef9 2bbe 77db abbd
000003c0: 34af 963f cef0 8c39 d910 1fbe 06ac a8bd
000003d0: 330f fa3f 8795 e53d 1068 58bb 9ee8 3439
000003e0: 30b3 16be 5e38 29be c71e 6ebe 9aaa a0bd
000003f0: 8c71 d3bd a2ad 57bb 896c 9c3f f576 c33f
