models/preliminary_results_models/RaceMultiOutputModeltvt4v5/model.pt (torch, 172719 bytes, 18 tensors)

fc1.weight f4 [128, 24]
000000 4a 2d e2 3d 88 53 3a 3d 7d e6 19 3d ee 40 ec 3d
       0.110437945 0.045489818 0.037573326 0.11535822
000010 1b 5e 0a 3e e5 06 26 3e f3 20 44 3e 13 a2 13 3d
       0.13512461 0.16213568 0.19153194 0.036043238
000020 d3 3c 5f 3d 3b a5 6c 3d 37 26 0d be da 87 68 3d
       0.054501366 0.057774764 -0.13784109 0.056770183
000030 c9 4e a6 3d 42 36 17 3e 0b 58 0e be 13 74 53 3e
       0.08120496 0.14766791 -0.13900773 0.20649748
000040 f5 d4 02 3e 13 ec cb bd bd c0 2f be ef 37 1c 3e
       0.12776549 -0.09957137 -0.17163368 0.15255712
000050 34 90 91 3d 1b fd d7 bd 6d 90 be bd e4 0b 2c be
       0.07107583 -0.10546323 -0.09304891 -0.16801411
000060 4e e0 0e be 6f 58 34 3e 77 dd bc 3c 7e 12 7f bd
       -0.13952753 0.1761186 0.023054821 -0.062273495
000070 ce e7 49 3e e0 20 eb 3d fd 14 6a bd f4 3c 00 3e
       0.19717333 0.1148088 -0.057148922 0.12523252
000080 b8 21 3b be 69 01 1b be 57 07 c2 3d 29 04 f5 bd
       -0.18274581 -0.15137257 0.09474056 -0.11963684
000090 af ce 9c bd 1e 39 a7 bd b0 5c d1 bd ef d6 32 3e
       -0.07656609 -0.08165191 -0.10222757 0.17464803
0000a0 e4 42 0d 3e 2a 6b af bc de 2b 1b bd 79 c8 6b bd
       0.13795048 -0.021413404 -0.037883632 -0.057564232
0000b0 0d fd cb 3d 81 ec bb bd 88 42 40 3d a8 16 28 3e
       0.09960375 -0.09175969 0.04693845 0.16414893
0000c0 a2 13 3e 3e 9e 45 ae bd c8 2e de bc 3a 7e a0 bd
       0.18562177 -0.08509372 -0.027121916 -0.07836576
0000d0 70 7d 7f bd 38 8c 17 3d 2c 6f 14 3d 02 8e b2 bd
       -0.062375486 0.036998957 0.036238834 -0.08718492
0000e0 f8 ee 98 3d 86 f4 82 bd e4 e8 8b bd 24 90 3c be
       0.07467455 -0.063942954 -0.0683153 -0.1841436
0000f0 07 c4 e2 bd f0 88 4c 3d 34 4f a5 3d 10 17 94 bd
       -0.110725455 0.04993528 0.080717474 -0.07230961
000100 4c 40 75 bd 0a 53 c4 bd 0c 58 0d 3d 84 26 30 3d
       -0.05987577 -0.09586151 0.034507796 0.04300548
000110 48 1a 56 3d 77 e7 ad bd a0 b0 aa bb 8c 19 4e bd
       0.052271158 -0.08491414 -0.0052090436 -0.050317332
000120 ee 41 e5 bd c0 7c 5e 3b a4 86 9b 3d 78 32 51 bd
       -0.11194216 0.0033948869 0.0759404 -0.05107352
000130 a0 7f d1 bc e3 14 c8 bd 70 f0 c3 3d 00 71 4f 3d
       -0.025573552 -0.09769609 0.09567344 0.050644875
000140 f2 de 19 be e8 b2 d1 bc 30 d2 1c 3e 4b b9 d6 bd
       -0.15026453 -0.025598004 0.15314555 -0.104845606
000150 26 5e 21 be 50 17 0e be 0a 42 a7 bd f6 a5 38 3e
       -0.15758571 -0.1387608 -0.08166893 0.18032059
000160 f3 22 cb bd 33 6c ff bd 4c a6 b4 3d fa 19 f5 bd
       -0.099187754 -0.12471809 0.08820781 -0.11967845
000170 d8 d9 49 bd af 23 24 be ee ed 0c be 24 90 88 3d
       -0.049280018 -0.16029237 -0.13762638 0.06668118
000180 0f 05 16 3e d5 67 bd 3c 93 b2 01 3e d9 72 51 3c
       0.14650367 0.0231208 0.12665777 0.0127837295
000190 43 51 65 3d c7 94 eb bc a6 9f 4e 3e c4 43 2f 3e
       0.0559857 -0.028757466 0.20178089 0.17115694
0001a0 ef 3f 75 bd d7 6b 04 3e db e8 3c 3e 87 a6 d0 bd
       -0.059875425 0.12931763 0.18448202 -0.101880126
0001b0 8e 7a d2 bd ba 51 47 bd 20 cb 04 3d 1b 5a c8 3d
       -0.10277282 -0.048661925 0.032420278 0.09782811
0001c0 0e c6 98 3d bc 71 fb bd d3 5f 01 be 51 9e 2b bd
       0.07459651 -0.122775525 -0.1263421 -0.04189903
0001d0 33 cd ba bb 26 75 fd 3c f4 19 28 3d 0d eb f2 3c
       -0.005700731 0.03093965 0.041040376 0.029653097
0001e0 08 7e 21 be 50 c5 fc 3d 9f e8 26 3d e3 2d 2c 3d
       -0.15770733 0.12342322 0.04074919 0.04203595
0001f0 fd 79 e1 3d 95 3d 3d 3e c5 28 50 3e bc b4 ac bd
       0.110095955 0.18480523 0.20328052 -0.0843291
000200 7a fd ac bd 95 9f e0 3c 9d 1a 44 be 3a 64 36 3e
       -0.08446784 0.027419845 -0.19150777 0.17811671
000210 8b f8 2c 3e 98 ad 0b be 09 4d e4 3d c4 c4 43 3e
       0.16891687 -0.1364044 0.11147506 0.19118029
000220 d1 ae 6a bd a5 b4 22 be 81 f0 b1 3c 58 d3 b7 bd
       -0.057295624 -0.15889223 0.021721127 -0.089758575
000230 f6 e0 b4 bd 16 12 33 3d 97 4f 8d bd 26 68 d8 3c
       -0.088319704 0.04371842 -0.06899946 0.02641685
000240 30 72 3e 3e d8 36 d7 bd b2 0a 28 3e 36 7f 4f be
       0.18598247 -0.105085075 0.1641033 -0.20263371
000250 d8 ee 2d 3e 80 d2 86 3d f8 22 17 3e 80 0e ce ba
       0.16985643 0.065831184 0.14759433 -0.0015720874
000260 38 7c 17 3d 48 ff 30 bd 98 ee 3e be ea a4 00 be
       0.0369837 -0.043212205 -0.18645704 -0.1256291
000270 34 77 03 bd 95 1f f8 bd d4 fc 90 bd 75 00 27 be
       -0.032096103 -0.12115399 -0.07079473 -0.16308768
000280 18 07 14 bd 6e bb 2d be 98 ff 4c 3e d8 47 86 3d
       -0.036139578 -0.1696603 0.20019376 0.06556672
000290 14 e4 2d be 03 1f d2 bd 60 d9 b2 3d 00 9e 73 3d
       -0.16981536 -0.10259821 0.08732867 0.059476852
0002a0 1e c0 41 3e c8 ad 06 be 8a 32 87 bc ff c3 10 be
       0.18920943 -0.1315223 -0.016503591 -0.14137267
0002b0 a3 da 42 3e 14 7d 47 3d 0e a6 b2 39 79 a5 02 be
       0.19028716 0.04870327 0.00034074526 -0.12758435
0002c0 74 34 4b be 5f ad 44 be 4c e2 b5 bd ee 29 0a be
       -0.19844228 -0.19206761 -0.08881053 -0.13492557
0002d0 88 46 b4 3d 33 46 fd 3d 29 4a 10 bc 6b 4c 48 3e
       0.08802515 0.12366905 -0.008806744 0.19560401
0002e0 cf 93 ef bd 65 c9 06 3e 4b 1f 8f 3d bf ec c7 3d
       -0.11698114 0.13162763 0.069883905 0.097619526
0002f0 9c be 0a be 81 92 fb bd 1d 00 03 3e 94 99 11 bd
       -0.13549274 -0.12283803 0.12793012 -0.035546854
000300 d9 f6 bf bd e4 14 24 3e ca e1 a1 3d 8c 39 6e 3b
       -0.09373254 0.16023594 0.07904394 0.0036350219
000310 ac 4f b9 ba 23 1d 04 3d 87 df 17 3e 3b eb 12 be
       -0.0014138124 0.03225435 0.14831363 -0.14347546
000320 63 ad 50 3c 61 cf 1f 3e f4 56 37 be 87 a3 d0 bd
       0.012736651 0.15606453 -0.17904264 -0.1018744
000330 cb 2e fc 3d 16 90 1a 3d d2 bc 6b 3d fa 94 b2 bc
       0.123136126 0.037735067 0.05755312 -0.021799553
000340 f0 0e 89 3c ef 15 48 3d c5 8f 4e 3e ee 74 40 3e
       0.016730756 0.048849043 0.20172031 0.18794605
000350 b7 b3 24 3e ea 7f d3 bd 8a ab a8 bd 86 92 eb bd
       0.16084181 -0.10327132 -0.082358435 -0.115025565
000360 8d b1 df 3c 25 52 02 3d 3b c0 0a 3e 5a 2f 7f 3c
       0.027306342 0.03181662 0.13549893 0.015575254
000370 db 92 09 be 2d e2 aa bd 8d d0 13 3e 30 4f 8b bd
       -0.13434927 -0.08343921 0.14435025 -0.06802213
000380 e9 04 1c 3e 64 20 43 3c c3 44 ed bd a0 da 39 3e
       0.15236248 0.011909578 -0.11585381 0.18149805
000390 8a ee 85 bb d8 8e c6 bd f6 8f 80 3d 79 92 a9 3c
       -0.004087274 -0.09695214 0.06277458 0.020699726
0003a0 7d 21 17 be ff f5 2d 3e 10 df 34 3e 7c e7 b4 3d
       -0.14758869 0.16988371 0.17663217 0.08833215
0003b0 18 e5 3c be f8 d2 fa 3d 15 43 e1 bd eb 7b aa bd
       -0.18446767 0.1224727 -0.10999123 -0.08324417
0003c0 0c fa d6 bc 9c 70 b8 3c 0e 58 0a 3e 46 c3 3a be
       -0.026242279 0.022514634 0.13510153 -0.18238553
0003d0 66 c6 e6 3d 14 c2 52 be 1f ce ba bd 00 44 45 3e
       0.1126831 -0.20581847 -0.09121346 0.19264221
0003e0 bb ff 4a bb 51 4b 89 3d 35 27 4d 3e 51 7b 0c be
       -0.003097518 0.067038186 0.20034488 -0.13718916
0003f0 59 1a 24 3e ba f2 74 3c 6e a7 e1 3b f9 5c fa 3c
       0.16025676 0.014950449 0.0068864143 0.030561911

fc1.bias f4 [128]
000000 13 7c 1a be 45 78 e1 3d d8 17 9e 3d 84 da a9 bd
       -0.15086393 0.11009268 0.077193916 -0.08293632
000010 1c c0 3f bd 17 31 37 be 70 7e a8 bc f7 e2 d2 bd
       -0.04681407 -0.1788982 -0.020568103 -0.10297196
000020 08 31 3b bd 18 e4 1a 3e 1d aa ad bd ec 30 c7 3d
       -0.045701057 0.15126073 -0.08479712 0.09726128
000030 c6 29 4a 3e 18 01 69 3d 91 04 2c 3e e8 0d 09 be
       0.19742498 0.05688581 0.16798617 -0.13384211
000040 f5 44 ac bd 03 e4 e7 bd c2 92 be bc 4d af 15 be
       -0.0841159 -0.11322787 -0.023263339 -0.14617653
000050 7b e3 07 be 68 76 32 3e d3 4d ef 3d 3d e4 02 3d
       -0.1327037 0.17427981 0.11684766 0.031955946
000060 d7 d2 1b be 0f 1b 52 be a3 70 23 bd 10 12 84 bc
       -0.15217148 -0.20518135 -0.03990234 -0.016121894
000070 7e eb e4 bc d8 cc 3e bd 69 c2 34 3e 11 73 a5 3b
       -0.027944323 -0.046582073 0.17652287 0.0050491174
000080 78 dc fc bd 86 c1 f8 bd 29 87 f9 bd 80 74 de 3c
       -0.123467386 -0.12146287 -0.12183983 0.02715516
000090 8c fb 0b 3d ac f1 f2 3d c6 fb ad bc 1b ba 33 be
       0.03417544 0.118625015 -0.021238219 -0.17551462
0000a0 c5 3d 03 3e 8f a2 db bd fc cc 25 3e 55 53 40 be
       0.12816532 -0.10724365 0.16191477 -0.18781789
0000b0 bb 4c 14 3e 20 49 42 be 35 25 6b bd 2c 1e 53 3a
       0.14482395 -0.18973207 -0.05740853 0.0008053507
0000c0 ac 11 3e be d8 ab b7 3d a3 ca 37 be f6 40 83 bd
       -0.18561429 0.089683235 -0.17948394 -0.06408875
0000d0 10 20 0c bd 92 d3 b9 bd 3c 03 52 bd be 10 19 be
       -0.034210265 -0.09073557 -0.051272616 -0.14947793
0000e0 97 78 a5 3b 0d 59 af bd a4 48 31 bd 12 e3 05 3e
       0.005049776 -0.08561907 -0.043282166 0.13074902
0000f0 db 85 23 be 78 c6 c7 3d 6c 17 15 3d e0 1e 95 bd
       -0.1596903 0.09754652 0.03639929 -0.072812796
000100 7d fe d3 3d 26 a8 22 3d 80 93 1f 3e c2 4b 0c be
       0.10351274 0.03971114 0.1558361 -0.13700774
000110 8c af 08 3e 82 ac 2a be 4f 0b ab bc 9a e8 2c be
       0.13348216 -0.16667369 -0.020879416 -0.16885605
000120 75 32 56 3c 23 86 c1 3d 48 7c 12 3e 37 2c 45 3c
       0.013073553 0.09449413 0.14305222 0.012034467
000130 ff e4 e9 3d f4 2b c5 3d e8 4b e7 3c f4 97 ef 3d
       0.11420631 0.09627524 0.028234437 0.11698905
000140 2f 4e 2a be 2e be 0c be 49 6e b6 3c e8 40 e0 bc
       -0.16631387 -0.13744423 0.022269385 -0.0273747
000150 a6 65 94 bd dc e8 84 bd d2 09 34 be 42 cb 51 3e
       -0.072459504 -0.06489727 -0.17581871 0.20487693
000160 7e df 23 bd e3 e4 9d bd c2 72 05 bc c6 44 2c 3e
       -0.04000806 -0.07709672 -0.008145036 0.1682311
000170 a0 a0 63 3c da 45 9b bc 3b 07 d9 bd 65 70 18 bd
       0.013893276 -0.018954206 -0.10597082 -0.037216563
000180 68 4f 67 3d 23 b6 0a 3e 98 16 98 3c ac 77 eb 3d
       0.056472212 0.13546042 0.018565461 0.11497435
000190 7a 4a 8f bd d0 69 41 3e e3 1b b7 bd 75 a2 33 be
       -0.06996627 0.1888802 -0.08940866 -0.17542441
0001a0 b2 10 28 3e cd 24 81 bb 4c 40 a5 3d 52 cc 38 3e
       0.16412619 -0.0039411546 0.08068904 0.18046692
0001b0 7f 98 2b be 27 c2 c5 bc 08 ad 01 3e 05 65 2f be
       -0.16757391 -0.02414043 0.12663662 -0.1712838
0001c0 de dd c2 3d af 6c ff bd 20 21 63 bd 62 98 16 3e
       0.09514974 -0.124719016 -0.055451512 0.14706567
0001d0 aa 29 2e be 35 9a 13 3e 52 8c f7 3d 8f 00 1a be
       -0.17008081 0.14414294 0.12087311 -0.15039276
0001e0 56 14 48 bd f0 cc 6f 3d f2 b9 9d bd 4e 63 85 3d
       -0.04884752 0.058545053 -0.07701482 0.065130815
0001f0 ed d9 2f be c8 91 3d bd c0 af 8b 3b 53 5d 3f bc
       -0.17172976 -0.046281606 0.0042628944 -0.011679965

fc2.weight f4 [64, 128]
000000 5c e3 56 bd 4f cb 8b bc 00 a4 df 3c bc c6 91 bc
       -0.05246292 -0.017064719 0.027299881 -0.01779496
000010 a3 22 80 3d ef 20 a6 bb 22 6c 8c bd af 8f b2 bd
       0.062566064 -0.005069844 -0.06856562 -0.08718812
000020 46 b2 f3 3b 8f 56 e6 3b 3f a0 99 bc 36 51 57 3d
       0.0074370233 0.0070293616 -0.01875317 0.052567683
000030 d3 2e 78 bd ba eb 89 bd 07 51 a9 3b 27 25 8f bd
       -0.06059153 -0.067344144 0.00516713 -0.06989508
000040 ca 73 2e 3d b8 4e 1c bc d9 02 82 3c b8 c3 9a bd
       0.042590894 -0.009540252 0.015870498 -0.07556862
000050 d1 1b 6d 3c 8e b9 25 bd 60 b6 9a bb 7b 2b 60 bd
       0.014471964 -0.040460162 -0.004721448 -0.054728966
000060 e6 9c 8f bd 58 f7 ab 3c 5c 6f a1 3d 0c cb a1 bc
       -0.07012348 0.020991966 0.07882568 -0.01975014
000070 fc de c0 bb cc b0 93 bc 24 6c 88 3d 4b 29 61 bd
       -0.005885957 -0.01802864 0.06661251 -0.05497102
000080 b9 14 91 bb 0c f9 15 bc e0 97 94 3d a0 a4 a5 3c
       -0.004427519 -0.009153616 0.0725553 0.0202201
000090 08 76 86 bc c0 35 d4 3c f4 99 73 bd 2e 6f 7b 3d
       -0.016413704 0.025904536 -0.059472993 0.061385326
0000a0 5b aa 46 bd da b8 91 3c 9d c5 91 3d f2 f6 31 3d
       -0.048502307 0.01778834 0.0711777 0.043448396
0000b0 10 99 d0 3b 07 0e f1 bc 7f 88 9d 3d 28 84 b1 3c
       0.0063659027 -0.029425634 0.0769205 0.021669462
0000c0 e2 f0 5a bd dd af 9b 3d 41 d1 75 bd 43 6f 49 bd
       -0.05345238 0.07601903 -0.060014013 -0.049178373
0000d0 90 b6 57 bc af 8b 6e 3d b8 33 93 bd 21 34 1a 3c
       -0.013166085 0.05823868 -0.07187599 0.009411843
0000e0 a6 5b cc 3b 76 78 56 bd 6f 4a 17 3d a2 29 36 3d
       0.0062365113 -0.052360974 0.03693622 0.044473298
0000f0 75 25 9f bd c7 25 9b 3d 6d c9 97 3d 2e 0d 16 3d
       -0.07770816 0.07575565 0.07411466 0.036633663
000100 c8 24 7f 3d a9 e7 40 bc f0 d3 3b 3d 8f 1d d7 bc
       0.062290937 -0.011773982 0.045856416 -0.026259212
000110 40 0e a1 3c 79 1b b1 3d e2 44 41 bd 59 dc 14 bd
       0.019660115 0.08647818 -0.047184832 -0.036342952
000120 2e 9a a5 bd 98 50 0c 3b ed db a2 bd 33 70 47 bd
       -0.08086048 0.0021410342 -0.07952104 -0.048690986
000130 b7 68 0c 3d a0 b3 ce 3c fd 8a 9d 3d a2 c8 b7 bd
       0.03427955 0.025232136 0.076925255 -0.089738145
000140 62 0c ab bd 3e b4 b1 bc 8c 16 aa 3c ea 5c 80 bd
       -0.08351971 -0.021692391 0.020762704 -0.06267722
000150 3f 5f 83 3c 59 39 a5 bc 21 b5 17 bd ff d6 b6 bc
       0.016036628 -0.020168947 -0.037037972 -0.022319315
000160 7b ab 9f 3d 07 a5 49 bd 6e 49 70 3d b7 dc a3 bd
       0.07796379 -0.049229648 0.058663778 -0.080010824
000170 91 7c a0 bd b9 22 5d bd 7c ff fd 3c 3a 45 80 3c
       -0.07836259 -0.053988192 0.031005614 0.01565801
000180 20 ca bc bc 55 52 23 bc ff 5f aa bd 3e ca fb bc
       -0.0230456 -0.00996836 -0.08319091 -0.030736085
000190 c8 3d ef 3c ad 00 a8 bd dc ca b3 3d 5d d3 34 bd
       0.029204264 -0.08203254 0.08778927 -0.044146884
0001a0 5a a5 07 bd 9e a2 d4 bc b2 0b 75 bd b5 22 a7 3d
       -0.033116676 -0.025956448 -0.059825607 0.08160917
0001b0 62 02 4c bd 09 54 d7 3c f2 f7 58 3d 46 b6 a1 bd
       -0.04980696 0.026285188 0.052970834 -0.07896094
0001c0 5d 57 a3 3c d2 af 45 bd 00 11 e4 3b 8d 02 02 bd
       0.019939119 -0.04826338 0.0069600344 -0.031740714
0001d0 00 59 0f 3d c8 ce 20 3c 85 25 a0 3c 6a bd 93 bd
       0.034996986 0.0098149255 0.01954914 -0.07213862
0001e0 09 37 a1 3d 5c 65 c7 3c 2b ea b0 3d b4 97 a5 bd
       0.07871825 0.024340324 0.08638414 -0.08085576
0001f0 1a 59 51 bd 20 55 5e bd 78 45 8d bc ee 31 6e 3d
       -0.051110364 -0.0542804 -0.01724504 0.058153085
000200 f3 5f 97 3d 19 d5 c9 3c e5 f9 97 3d db a6 8b 3d
       0.07391348 0.024637746 0.074207105 0.068189345
000210 16 25 71 3d 39 22 8a bb a5 c5 b2 bd 57 0e ca 3c
       0.05887326 -0.0042155054 -0.08729104 0.02466504
000220 d1 39 e5 3c 5e 1b cb bc 76 ea bd bd d8 97 2d bc
       0.02798167 -0.024793323 -0.092732355 -0.010595284
000230 db 10 d5 bd 8e 10 1f bd 38 26 2f 3d 8f e7 f3 3b
       -0.104036056 -0.038834147 0.042761058 0.0074433754
000240 c5 12 c7 bd 43 a8 a6 3d f3 34 4c 3d 61 cd 99 bd
       -0.09720377 0.08137562 0.049855184 -0.07509876
000250 3d 4f 59 3d 9d e6 84 3d 14 95 b3 bd 2c 57 fd 3c
       0.053054083 0.064892985 -0.08768669 0.030925356
000260 6f 3d 12 bd 96 dd 4d 3d 50 40 af bd d5 fb 95 3d
       -0.03570312 0.05026015 -0.085571885 0.07323424
000270 65 99 6c bc 1b ea 57 bd 58 4b 76 bc fc 90 8c 3c
       -0.014440869 -0.052713495 -0.015032612 0.017158978
000280 52 52 a6 3c 98 e9 4a 3d 94 eb 07 bd 44 80 ca 3c
       0.020302925 0.04953918 -0.03318365 0.024719365
000290 f0 a7 91 bb b2 b0 62 3d 10 4e b0 3c 98 f4 ab bd
       -0.0044450685 0.05534429 0.021521598 -0.08396262
0002a0 dd 9b 4d bd 3b 5b 8a bb 05 40 56 bd 1a d0 57 3d
       -0.05019747 -0.0042223013 -0.052307148 0.052688695
0002b0 c2 4a 97 bc 17 34 5c 39 17 70 b2 3c 36 64 7a bc
       -0.018468264 0.0002100024 0.021781964 -0.015282681
0002c0 8d ac af 3d a0 f2 11 3d bf 6c ab bd 25 32 c0 bd
       0.08577833 0.035631776 -0.08370351 -0.09384564
0002d0 f9 36 27 bd cc 04 23 3d 90 15 8f 3c 3e b5 d1 bc
       -0.04082391 0.039799497 0.017466336 -0.025599118
0002e0 0e 82 f6 3c e8 44 c4 bc 1b f5 1b bd 6e 62 67 3d
       0.030091312 -0.023958638 -0.038075548 0.056490354
0002f0 b4 f6 88 bc da 88 3b 3d ea d0 60 3d fd 5a 2a bd
       -0.0167192 0.04578481 0.054886736 -0.04159068
000300 47 ae b3 bd 65 f3 14 3d 57 cb 32 bd 6f 11 43 bd
       -0.08773475 0.03636493 -0.04365095 -0.047624048
000310 11 d1 ab 3d 82 86 7d 3d d1 4e ac bd d3 0f 81 3c
       0.083894856 0.061895855 -0.084134705 0.015754616
000320 e6 5b 96 bd ce 24 10 bd 7a 6f 6d 3d 0e 2f 66 3d
       -0.07341747 -0.03519135 0.05796764 0.05619722
000330 9d 6d e0 3c bf 1d 9f 3d f6 0e 39 bc a5 0e a0 bd
       0.027396018 0.077693455 -0.011295071 -0.07815293
000340 3b 90 98 3d f6 8f 9b bc 5a 0e 96 3c 2a 12 18 3d
       0.07449385 -0.018989544 0.01831739 0.037126698
000350 bc 93 29 3d 7e 65 14 bd 87 23 61 3d d6 0c 66 3d
       0.041400656 -0.036229603 0.054965522 0.056164585
000360 d8 b5 36 3c ad 7f 90 bc ed e9 b1 3c c0 8a 5c bc
       0.011151753 -0.017639006 0.02171799 -0.013460815
000370 f0 ae f2 bb 9e 3e 6c 3d d6 0b 54 3d c8 f3 0c 3b
       -0.007406108 0.057676904 0.0517691 0.002150761
000380 d0 9c a7 3b 16 ae 4c 3d d8 72 7e bd 3a bc f3 bc
       0.005115129 0.04997071 -0.062121242 -0.02975284
000390 b9 81 98 bd 62 63 23 3d 21 6a bd bd a8 bb e1 3c
       -0.07446618 0.0398897 -0.09248758 0.027555302
0003a0 73 03 5d bd db 4e 69 bd 00 12 d1 3c 54 72 8e bc
       -0.053958368 -0.056959968 0.025521278 -0.0173885
0003b0 af 33 0b bd 30 e7 9e 3d f2 b5 14 3d 98 85 3c 3d
       -0.033984836 0.07758939 0.03630633 0.046025842
0003c0 29 12 24 bd f4 47 30 bd e1 dc 88 3d 0f ce 1b bc
       -0.04005638 -0.04303737 0.06682754 -0.009509577
0003d0 ea 64 97 bc 46 a6 47 bd 89 ea 80 3d aa cd a3 3d
       -0.018480737 -0.048742555 0.06294734 0.07998212
0003e0 de 44 85 3d af d5 b1 3d 0a 6d 58 3d 8d c1 5b bd
       0.06507276 0.08683335 0.052838363 -0.05365138
0003f0 37 8b 40 3d 36 b5 57 3d b3 67 81 bd e7 22 89 3d
       0.047007766 0.05266305 -0.06318607 0.0669611

fc2.bias f4 [64]
000000 ab 15 0e bc 48 a8 ba bc a6 7b cd 3d c7 21 34 bd
       -0.008672158 -0.02278532 0.1003335 -0.043977525
000010 c1 c0 80 bd 40 da 9e 3d a1 c0 4c 3d a2 ab 9d bd
       -0.06286765 0.07756472 0.049988393 -0.07698752
000020 ea 03 9e 3d 69 66 b2 3c b0 91 cf bc 7a eb 7e 3d
       0.0771559 0.021777349 -0.025338024 0.062236287
000030 77 b4 b2 bd 15 50 8a 3d 7d 8c d5 bb c6 2e b1 3c
       -0.08725827 0.06753556 -0.0065169916 0.021628749
000040 1f 73 25 3c 0d 34 dd bc cb 29 dc 3b fa 64 83 3b
       0.010098248 -0.027002359 0.0067188493 0.00400984
000050 04 27 ad 3c 7f 07 9f 3d 74 34 82 bc 4a 8d 68 bd
       0.021136768 0.07765102 -0.015894152 -0.05677537
000060 98 e1 28 bc b5 4b d2 bc da 33 72 3d 84 dd a5 3d
       -0.010307692 -0.025670866 0.05913148 0.080988914
000070 95 9d 4a bd 21 34 f9 3c f0 96 9b 3d fa eb 8a 3d
       -0.04946669 0.030420365 0.075971484 0.0678329
000080 43 87 86 3d 3f b1 4d 3d e2 70 13 bd b4 43 8b ba
       0.06568768 0.050217863 -0.035996325 -0.0010625036
000090 b6 69 b8 3d 61 e7 b8 3c 5f 31 fa 3c b6 36 23 3c
       0.09004538 0.022571268 0.03054112 0.009961775
0000a0 90 2d 6a 3c fa 15 81 bd 78 01 a1 3d c8 8f 9e bc
       0.0142930895 -0.0630302 0.07861608 -0.01935567
0000b0 76 00 8f bd 42 e8 1a bd c4 e1 97 bc 66 9f 8a bd
       -0.0698251 -0.037819155 -0.01854027 -0.06768684
0000c0 7c 98 3a bc 65 13 87 3d e4 a6 c0 bc db 9e 6a bd
       -0.011388894 0.06595496 -0.02351708 -0.057280403
0000d0 bf 7d a4 3d 8d 1a 29 bd 12 a1 07 bd 7a b8 cb bc
       0.08031797 -0.041285086 -0.033112593 -0.024868239
0000e0 3d 5e 96 3d e5 da 2c bd 48 a5 07 bc e0 da 43 bb
       0.07342193 -0.04220094 -0.008279152 -0.0029885098
0000f0 bc df a1 bc c6 e6 bc bc 7e 35 e2 3c ef ec 31 bd
       -0.019760005 -0.02305926 0.027613398 -0.043438848

fc3.weight f4 [24, 64]
000000 10 42 dc ba 5e d8 e7 3d 17 db 9d 3d d3 00 d1 bd
       -0.0016804356 0.11320566 0.07707804 -0.10205235
000010 dc bf c4 bd 70 ca 95 3d ab 5a e6 3d 4e 80 9e bd
       -0.09606907 0.073140025 0.11247762 -0.07739316
000020 99 80 b6 bd fa 99 12 bd 55 88 1b 3c 48 4d df 3c
       -0.08911247 -0.035791375 0.009492953 0.02725853
000030 86 34 e2 bc 80 dc 20 bd cc 82 87 bd 4b 47 bc 3d
       -0.027612936 -0.039272785 -0.066167444 0.091932856
000040 b5 7c d1 3d 3d 92 01 3d 29 c0 f9 bd f7 b4 eb bd
       0.10228864 0.031633604 -0.12194855 -0.11509126
000050 b6 8d cd 3d 9c d0 da bd c8 f6 ef 3c 5b d5 23 3a
       0.10036795 -0.1068432 0.02929248 0.0006249749
000060 70 e1 43 bd 37 2d d4 3b 7c 51 e3 bc 70 c0 e7 bd
       -0.047822416 0.0064751166 -0.027748816 -0.113160014
000070 0e 5b 90 3c 27 b7 a7 bd 47 90 fc 3d b6 11 54 3d
       0.017621543 -0.081892304 0.12332206 0.051774703
000080 f4 ae 38 3d 77 75 4e bd 51 51 84 bb 53 60 03 3d
       0.045088723 -0.050404992 -0.004038014 0.032074284
000090 58 7a 3c 3c e6 bd d2 bd 4f 50 b3 bd 7f c1 83 bd
       0.011503778 -0.102901265 -0.08755552 -0.06433391
0000a0 04 bf c1 bd 48 20 ce bd 7e cb ff 3c 83 7f 96 3d
       -0.094602615 -0.10064751 0.031224962 0.0734854
0000b0 e9 b2 54 3b 16 c8 5b bd 96 7e 64 3d 39 32 6e bd
       0.0032455272 -0.053657614 0.055784784 -0.058153365
0000c0 79 7d 5d 3d 90 e5 db bd d6 20 8c bd 01 6a 2c bb
       0.05407474 -0.10737145 -0.068422005 -0.00263083
0000d0 60 62 26 3c 27 39 60 3d 7d 3a be 3d c6 0e 1e 3d
       0.01015529 0.054742005 0.092884995 0.038588308
0000e0 ee bd 11 3c 33 cc 4b bd ea b4 ba 3d 56 54 f5 3d
       0.00889538 -0.049755286 0.09116538 0.119789764
0000f0 cf ed a6 3d 14 b3 5f 3d 1f 0e 39 3d e0 f5 00 bd
       0.08150827 0.05461414 0.045179483 -0.031484485
000100 5a 60 c0 3c 41 48 76 3d 6c d4 c4 bd d5 31 48 3b
       0.023483444 0.0601275 -0.09610829 0.003054728
000110 d8 b6 d4 bd 5c a4 5f 3c 67 8a 9a bd 24 33 ad bd
       -0.10386437 0.013650026 -0.075459294 -0.0845702
000120 97 94 7e bd ec a0 93 3d 5e e0 a5 3d 22 f0 93 3d
       -0.062153425 0.07208428 0.08099435 0.07223536
000130 ff 1a d3 3d 68 36 c3 3d fb 25 69 bd 4a 33 95 bd
       0.103078835 0.095318615 -0.056920987 -0.07285173
000140 a0 08 fa 3d a2 17 9f bb 3f 32 9e bd 77 36 76 bd
       0.12208676 -0.004855112 -0.077244274 -0.060110535
000150 8a 64 fa bd 96 a8 f6 bd f8 8c f6 3d 82 0f 80 3d
       -0.122262076 -0.12043874 0.120386064 0.06252958
000160 72 28 eb bd 4f 47 f7 3d 23 ba 19 bc 13 67 ef bd
       -0.11482324 0.12074148 -0.009382757 -0.11689582
000170 5a cd d7 3d e5 08 65 bb 5e df e2 bc 6f f2 19 bc
       0.105372146 -0.0034947929 -0.0276944 -0.00939618
000180 c2 b6 a2 bd ad b8 cb bc 1c 50 b8 bd f6 28 31 3c
       -0.079450145 -0.024868334 -0.08999655 0.0108129885
000190 20 17 e3 bc b3 e0 7e 3d 32 e6 05 3e 43 7f 06 bd
       -0.027720988 0.06222601 0.13076094 -0.03283621
0001a0 66 63 ed bd c8 4e 80 3d 28 7e 29 bd ee 72 fd 3d
       -0.11591224 0.06265026 -0.041380078 0.12375437
0001b0 3e 1e cc 3d aa d1 43 bc 99 31 e7 3d a0 06 f3 3b
       0.09966706 -0.011951843 0.11288757 0.0074165612
0001c0 70 1d be 3d 8a 36 8c 3d 70 ca 47 bc 7f 6b 4b 3d
       0.092829585 0.0684634 -0.012194261 0.049663063
0001d0 2e 4e ce 3d c4 44 d4 3d 89 df ad 3c b5 55 33 3d
       0.10073505 0.103646785 0.021224754 0.04378291
0001e0 43 36 a0 bd 3f 6c ae bd 47 f0 cb bd 62 fe b8 bd
       -0.078228496 -0.0851674 -0.09957939 -0.09032895
0001f0 73 98 9b 3a 1c 1b a3 3c dc c6 fc bc 32 e0 de bd
       0.0011870995 0.019910388 -0.030856542 -0.108826056
000200 d5 59 e6 bd 1b 4b fd bd 07 62 0c 3d 78 ca 32 3d
       -0.11247603 -0.12367841 0.034273174 0.04365012
000210 bc 41 d8 bd 13 94 a5 3d 05 bc 3f 3d ed c9 73 bd
       -0.10559413 0.080848835 0.04681017 -0.059518743
000220 c0 90 5f 3d 7d f9 b8 bd ad 8b 20 bc 50 4b 8e bd
       0.054581404 -0.09031961 -0.009798926 -0.069479585
000230 c7 0c 34 bd b8 de 33 bd 2f 31 e4 3d b4 79 8d bd
       -0.043957498 -0.043913573 0.111421935 -0.06907979
000240 b8 bd ec bd 9a 38 bc 3d be b8 7b bc 70 df 6f 3d
       -0.115596235 0.091904834 -0.01536387 0.058562696
000250 28 36 80 bd 58 2e de 3c 58 95 b5 3c 13 a1 00 be
       -0.062603295 0.027121708 0.02216594 -0.12561445
000260 6b 06 90 bd 6b 60 94 bd 2a fe db 3c 05 69 18 3d
       -0.07032474 -0.07244953 0.026854593 0.03720953
000270 9e 49 21 bd 99 06 83 bd b9 09 f6 3c b1 dc 6b 3d
       -0.039376847 -0.06397743 0.030033933 0.057583515
000280 d4 f1 83 bd 42 21 6b bc 63 90 37 bc 15 c6 09 be
       -0.064426094 -0.014351191 -0.011203858 -0.13454469
000290 72 ac e1 bc 4a f4 90 3c e6 1e 6f bc 03 94 88 bd
       -0.027548049 0.017694611 -0.014594769 -0.06668856
0002a0 66 fc 88 bd 8e ca 88 bd dd a8 66 bc fd db b4 3d
       -0.06688766 -0.06679259 -0.014078346 0.08831022
0002b0 d3 f4 92 3c c3 ad f3 3c 8f 7c a3 bd 85 31 06 bd
       0.017939007 0.029745942 -0.07982742 -0.03276207
0002c0 3b 3a 90 bd 7d 5b d7 3d 20 46 73 bc 85 50 bb bd
       -0.070423566 0.10515497 -0.014848262 -0.09146217
0002d0 44 40 9b bd b6 ab 03 3d 41 e9 87 3d 9e 82 b2 bd
       -0.07580617 0.03214618 0.066362865 -0.087163195
0002e0 3b e2 c5 3d 64 30 b7 3d a2 4a cf 3c f4 7c a7 3d
       0.09662291 0.08944777 0.025304142 0.0817813
0002f0 78 d2 95 3d 8c fa 63 3d f1 5d 8a 3d e0 8d 9e bb
       0.07315534 0.055658862 0.06756199 -0.00483869
000300 ad 9e b4 bd 8a c1 8f bd d6 6b 0c 3e 5a b1 65 3d
       -0.088193275 -0.070193365 0.13713011 0.05607734
000310 30 0c de 3b f6 16 99 3c eb dd c7 bd 5e 76 cc bd
       0.006776355 0.018687706 -0.09759124 -0.09983514
000320 f3 c3 8e 3d 32 95 d2 3d db 8e 4d bc 80 51 b0 3a
       0.06970968 0.10282363 -0.012546266 0.0013452023
000330 25 ac 00 3d fc 9d 72 3d 6f 84 be bd 92 95 11 bc
       0.03141417 0.059232697 -0.093026035 -0.008885758
000340 a6 25 48 3a 26 8d 05 3d 67 3b c5 bd 36 b0 a2 bd
       0.00076350046 0.032605313 -0.09630471 -0.07943766
000350 33 25 07 be aa 65 b3 3d 8c 47 30 3d 84 48 aa 3b
       -0.13197784 0.08759625 0.043036982 0.005196633
000360 70 bd c4 3d 6c 70 6f bd 6f cb ae bd 59 51 9a 3d
       0.09606445 -0.058456823 -0.08534896 0.07535047
000370 93 8b ae bd c8 5d 1e 3d 02 c5 df 3d c9 dd d1 3d
       -0.085227154 0.038663656 0.10926248 0.1024738
000380 70 47 f0 3d 7d 6c a7 3d 23 c6 aa bc 35 d5 52 bd
       0.117323756 0.08174989 -0.020846432 -0.05147286
000390 05 55 b3 bb 38 2d c5 3d cb 6d 1c bd 08 cc 43 bd
       -0.0054727816 0.096277654 -0.038190644 -0.047802
0003a0 72 bb da bd 40 cd f3 3d 3e e6 ef bc 69 34 3f 3d
       -0.106802836 0.11904383 -0.029284593 0.04668084
0003b0 4f 2b a8 3c 66 85 87 bc 28 1c 4e 3c 9d 58 54 3c
       0.020528464 -0.016543102 0.012579955 0.01296058
0003c0 42 03 ba bd 26 c9 c6 bd 04 73 83 3d f6 94 43 3c
       -0.09082653 -0.09706335 0.06418422 0.0119373705
0003d0 c4 d5 ac bd fe 1a a3 bd e2 1e ab bd a4 ef 48 3c
       -0.0843921 -0.07964133 -0.083555 0.012264166
0003e0 c8 3f 0a be 2a 86 b5 bd cc 9c b2 bd 8e df 9a 3d
       -0.13500893 -0.088634804 -0.08721313 0.07562171
0003f0 7c 68 bc bc b7 77 a4 bd da 83 bf bc 4c 73 13 bd
       -0.02299904 -0.08030646 -0.023378301 -0.035998628

fc3.bias f4 [24]
000000 8d ef cb bd 19 6f 20 3d 7e ea dc 3d 1f 5b ba bd
       -0.099578 0.03916845 0.10786913 -0.09099411
000010 ef 8c bd bd 05 ef 2e bd 68 7a eb 3d 30 de 17 bc
       -0.092553966 -0.042708416 0.114979565 -0.009269282
000020 25 e5 ff 3c 39 5b cf 3c 21 67 bd 3d f9 c5 fc bd
       0.031237194 0.025312053 0.09248186 -0.12342448
000030 52 e6 96 3d 2d 94 af bd 06 e3 7e bd f4 18 af 3d
       0.07368149 -0.08573184 -0.062228225 0.08549681
000040 f6 75 8f 3d 4e d7 92 3d 07 3e 85 3d 63 49 c4 3d
       0.07004921 0.07169972 0.065059714 0.0958431
000050 74 ff 9b bc 2e 89 ac bd 5e 70 b8 bd 56 6a 24 bd
       -0.019042708 -0.084246024 -0.09005807 -0.040140472

exp_avg f4 [128, 24]
000000 3b 19 9c 39 fe f2 f2 39 67 e6 24 3a 45 53 50 3a
       0.00029773437 0.0004633888 0.0006290436 0.00079469784
000010 28 c0 7b 3a 84 96 93 3a f4 4c a9 3a 63 03 bf 3a
       0.00096035236 0.0011260067 0.001291661 0.0014573153
000020 d6 b9 d4 3a 48 70 ea 3a 5a 13 00 3b 98 ee 0a 3b
       0.00162297 0.0017886246 0.0019542784 0.0021199342
000030 ce c9 15 3b 06 a5 20 3b 34 80 2b 3b 79 5b 36 3b
       0.002285588 0.0024512424 0.0026168944 0.0027825518
000040 a2 36 41 3b e1 11 4c 3b 5a f0 18 3b ab e7 55 bb
       0.0029482027 0.0031138586 0.002333662 -0.0032639306
000050 46 02 92 3b 46 02 92 3b 46 02 92 3b 46 02 92 3b
       0.0044558374 0.0044558374 0.0044558374 0.0044558374
000060 ac 6e 8c 39 8c 37 0b 3a c4 37 50 3a fe 9b 8a 3a
       0.00026785338 0.00053107063 0.000794288 0.0010575054
000070 1c 1c ad 3a 38 9c cf 3a 52 1c f2 3a 33 4e 0a 3b
       0.001320723 0.0015839403 0.0018471575 0.002110374
000080 46 8e 1b 3b 57 ce 2c 3b 5f 0e 3e 3b 72 4e 4f 3b
       0.0023735925 0.0026368105 0.0029000265 0.003163245
000090 87 8e 60 3b 85 ce 71 3b 4a 87 81 3b 52 27 8a 3b
       0.003426464 0.0036896777 0.0039528953 0.004216113
0000a0 5e c7 92 3b 66 67 9b 3b ca e4 00 3c 1e e0 16 3c
       0.004479333 0.0047425507 0.007867048 0.009208707
0000b0 44 fd d7 3b 44 fd d7 3b 44 fd d7 3b 44 fd d7 3b
       0.006591471 0.006591471 0.006591471 0.006591471
0000c0 00 00 00 00 00 00 00 00 00 00 00 00 00 00 00 00
       0.0 0.0 0.0 0.0
0000d0 00 00 00 00 00 00 00 00 00 00 00 00 00 00 00 00
       0.0 0.0 0.0 0.0
0000e0 00 00 00 00 00 00 00 00 00 00 00 00 00 00 00 00
       0.0 0.0 0.0 0.0
0000f0 00 00 00 00 00 00 00 00 00 00 00 00 00 00 00 00
       0.0 0.0 0.0 0.0
000100 00 00 00 00 00 00 00 00 00 00 00 00 00 00 00 00
       0.0 0.0 0.0 0.0
000110 00 00 00 00 00 00 00 00 00 00 00 00 00 00 00 00
       0.0 0.0 0.0 0.0
000120 00 00 00 00 00 00 00 00 00 00 00 00 00 00 00 00
       0.0 0.0 0.0 0.0
000130 00 00 00 00 00 00 00 00 00 00 00 00 00 00 00 00
       0.0 0.0 0.0 0.0
000140 00 00 00 00 00 00 00 00 00 00 00 00 00 00 00 00
       0.0 0.0 0.0 0.0
000150 00 00 00 00 00 00 00 00 00 00 00 00 00 00 00 00
       0.0 0.0 0.0 0.0
000160 00 00 00 00 00 00 00 00 00 00 00 00 00 00 00 00
       0.0 0.0 0.0 0.0
000170 00 00 00 00 00 00 00 00 00 00 00 00 00 00 00 00
       0.0 0.0 0.0 0.0
000180 18 f6 84 37 fb d2 a4 38 41 34 14 39 f2 fe 55 39
       1.5850223e-05 7.8594276e-05 0.00014133846 0.00020408237
000190 dc e4 8b 39 3e ca ac 39 a0 af cd 39 ea 94 ee 39
       0.0002668266 0.0003295708 0.00039231498 0.00045505847
0001a0 31 bd 07 3a d7 2f 18 3a 98 a2 28 3a 44 15 39 3a
       0.0005178033 0.00058054685 0.000643292 0.0007060359
0001b0 ea 87 49 3a a0 fa 59 3a 40 6d 6a 3a e8 df 7a 3a
       0.0007687794 0.0008315239 0.0008942671 0.0009570108
0001c0 4a a9 85 3a af e2 8d 3a 90 5e a8 3a 60 48 1a b8
       0.0010197547 0.0010825003 0.0012845565 -3.6783866e-05
0001d0 16 f7 be 3a 16 f7 be 3a 16 f7 be 3a 16 f7 be 3a
       0.0014569487 0.0014569487 0.0014569487 0.0014569487
0001e0 89 f7 c3 b9 11 2b ba b9 9a 5e b0 b9 22 92 a6 b9
       -0.00037377726 -0.00035508772 -0.0003363982 -0.00031770865
0001f0 aa c5 9c b9 33 f9 92 b9 bb 2c 89 b9 88 c0 7e b9
       -0.0002990191 -0.00028032958 -0.00026164003 -0.00024295051
000200 98 27 6b b9 a9 8e 57 b9 bb f5 43 b9 cb 5c 30 b9
       -0.00022426096 -0.00020557143 -0.00018688191 -0.00016819236
000210 db c3 1c b9 ed 2a 09 b9 f9 23 eb b8 1e f2 c3 b8
       -0.00014950281 -0.00013081329 -0.00011212374 -9.3434224e-05
000220 3e c0 9c b8 c1 1c 6b b8 90 b9 1c b8 77 ab 9c b7
       -7.4744676e-05 -5.6055145e-05 -3.7366117e-05 -1.8676494e-05
000230 60 f3 f4 b9 60 f3 f4 b9 60 f3 f4 b9 60 f3 f4 b9
       -0.00046720635 -0.00046720635 -0.00046720635 -0.00046720635
000240 00 00 00 00 00 00 00 00 00 00 00 00 00 00 00 00
       0.0 0.0 0.0 0.0
000250 00 00 00 00 00 00 00 00 00 00 00 00 00 00 00 00
       0.0 0.0 0.0 0.0
000260 00 00 00 00 00 00 00 00 00 00 00 00 00 00 00 00
       0.0 0.0 0.0 0.0
000270 00 00 00 00 00 00 00 00 00 00 00 00 00 00 00 00
       0.0 0.0 0.0 0.0
000280 00 00 00 00 00 00 00 00 00 00 00 00 00 00 00 00
       0.0 0.0 0.0 0.0
000290 00 00 00 00 00 00 00 00 00 00 00 00 00 00 00 00
       0.0 0.0 0.0 0.0
0002a0 cf 09 43 2d cf 09 c3 2d 4f 47 12 2e cf 09 43 2e
       1.1086645e-11 2.217329e-11 3.325989e-11 4.434658e-11
0002b0 42 cc 73 2e 4f 47 92 2e 8e a8 aa 2e cf 09 c3 2e
       5.543322e-11 6.651978e-11 7.760646e-11 8.869316e-11
0002c0 08 6b db 2e 42 cc f3 2e ba 16 06 2f 4f 47 12 2f
       9.9779796e-11 1.1086644e-10 1.2195303e-10 1.3303957e-10
0002d0 ee 77 1e 2f 8e a8 2a 2f 2a d9 36 2f cf 09 43 2f
       1.4412624e-10 1.5521293e-10 1.6629956e-10 1.7738631e-10
0002e0 69 3a 4f 2f 08 6b 5b 2f e4 5c 5d 2f 41 37 78 2f
       1.8847292e-10 1.9955959e-10 2.0132834e-10 2.2575099e-10
0002f0 a1 5f 98 2f a1 5f 98 2f a1 5f 98 2f a1 5f 98 2f
       2.7716587e-10 2.7716587e-10 2.7716587e-10 2.7716587e-10
000300 cc fb ea b8 80 81 03 b9 11 85 11 b9 a7 88 1f b9
       -0.0001120489 -0.00012541376 -0.00013877849 -0.00015214329
000310 3e 8c 2d b9 d6 8f 3b b9 4a 93 49 b9 fc 96 57 b9
       -0.0001655081 -0.00017887293 -0.00019223723 -0.00020560244
000320 96 9a 65 b9 20 9e 73 b9 bc d0 80 b9 ae d2 87 b9
       -0.0002189673 -0.00023233192 -0.00024569582 -0.00025906175
000330 78 d4 8e b9 14 d6 95 b9 0c d8 9c b9 ca d9 a3 b9
       -0.00027242652 -0.00028578995 -0.00029915606 -0.00031252048
000340 86 db aa b9 6a dd b1 b9 c6 5a 97 ba 60 2c 01 b9
       -0.00032588484 -0.00033925037 -0.0011547438 -0.0001231893
000350 6e 2e 15 ba 6e 2e 15 ba 6e 2e 15 ba 6e 2e 15 ba
       -0.00056908175 -0.00056908175 -0.00056908175 -0.00056908175
000360 60 83 72 b7 60 83 f2 b7 64 e2 35 b8 50 83 72 b8
       -1.4454912e-05 -2.8909824e-05 -4.3364606e-05 -5.781959e-05
000370 6c 92 97 b8 64 e2 b5 b8 e0 32 d4 b8 50 83 f2 b8
       -7.227514e-05 -8.672921e-05 -0.00010118424 -0.00011563918
000380 d4 69 08 b9 6c 92 17 b9 5c ba 26 b9 64 e2 35 b9
       -0.00013009395 -0.00014455029 -0.00015900418 -0.00017345842
000390 ac 0a 45 b9 e0 32 54 b9 e8 5a 63 b9 50 83 72 b9
       -0.0001879136 -0.00020236848 -0.00021682272 -0.00023127836
0003a0 bc d5 80 b9 d4 69 88 b9 43 92 80 3a 0e ef 2e 3b
       -0.00024573307 -0.0002601879 0.0009809214 0.002669278
0003b0 98 76 bd b9 98 76 bd b9 98 76 bd b9 98 76 bd b9
       -0.00036137248 -0.00036137248 -0.00036137248 -0.00036137248
0003c0 50 9c 28 39 6e 8e e7 38 95 c8 7b 38 d8 cf 21 37
       0.0001607996 0.00011041468 6.002987e-05 9.64474e-06
0003d0 84 e0 2a b8 4e 1a bf b8 26 62 14 b9 75 37 49 b9
       -4.0740255e-05 -9.112489e-05 -0.00014150943 -0.00019189513
0003e0 66 0c 7e b9 d0 70 99 b9 4e db b3 b9 c2 45 ce b9
       -0.00024227946 -0.00029266486 -0.00034304935 -0.00039343355
0003f0 7e b0 e8 b9 7b 8d 01 ba cd c2 0e ba 14 f8 1b ba
       -0.00044381985 -0.00049420417 -0.00054458977 -0.0005949747

exp_avg_sq f4 [128, 24]
000000 73 4d 38 36 e2 b4 7c 36 f9 06 bc 36 21 96 0a 37
       2.7463218e-06 3.7656214e-06 5.6036483e-06 8.260396e-06
000010 2c e5 44 37 51 78 86 37 3f 5c b1 37 5f 1e e3 37
       1.1735869e-05 1.6030071e-05 2.1143e-05 2.7074651e-05
000020 57 df 0d 38 9e 9e 2d 38 01 cd 50 38 6a 6a 77 38
       3.382502e-05 4.1394138e-05 4.978199e-05 5.8988495e-05
000030 83 bb 90 38 57 79 a7 38 b3 ee bf 38 a7 1b da 38
       6.901382e-05 7.985782e-05 9.152051e-05 0.00010400201
000040 25 00 f6 38 14 ce 09 39 2c a0 1f 39 3c cc 3e 39
       0.00011730221 0.00013142108 0.0001522309 0.00018195895
000050 c5 30 87 39 c5 30 87 39 c5 30 87 39 c5 30 87 39
       0.00025785543 0.00025785543 0.00025785543 0.00025785543
000060 f6 ce b9 38 b9 bc 27 39 f5 c5 85 39 9f 2a c4 39
       8.860037e-05 0.00015996666 0.00025515226 0.00037415788
000070 27 86 07 3a 68 35 33 3a 3e 23 65 3a cd a7 8e 3a
       0.00051698316 0.0006836266 0.0008740908 0.0010883749
000080 35 dd ad 3a d7 31 d0 3a b4 a5 f5 3a 70 1c 0f 3b
       0.0013264777 0.0015883994 0.00187414 0.0021837018
000090 a6 f5 24 3b 7a 5e 3c 3b ec 56 55 3b 05 df 6f 3b
       0.0025170832 0.0028742836 0.003255303 0.0036601436
0000a0 59 fb 85 3b 06 cf 94 3b cb f3 a7 3b d1 b3 c5 3b
       0.004088801 0.0045412807 0.005125498 0.0060333987
0000b0 07 86 20 3c 07 86 20 3c 07 86 20 3c 07 86 20 3c
       0.00979758 0.00979758 0.00979758 0.00979758
0000c0 00 00 00 00 00 00 00 00 00 00 00 00 00 00 00 00
       0.0 0.0 0.0 0.0
0000d0 00 00 00 00 00 00 00 00 00 00 00 00 00 00 00 00
       0.0 0.0 0.0 0.0
0000e0 00 00 00 00 00 00 00 00 00 00 00 00 00 00 00 00
       0.0 0.0 0.0 0.0
0000f0 00 00 00 00 00 00 00 00 00 00 00 00 00 00 00 00
       0.0 0.0 0.0 0.0
000100 00 00 00 00 00 00 00 00 00 00 00 00 00 00 00 00
       0.0 0.0 0.0 0.0
000110 00 00 00 00 00 00 00 00 00 00 00 00 00 00 00 00
       0.0 0.0 0.0 0.0
000120 00 00 00 00 00 00 00 00 00 00 00 00 00 00 00 00
       0.0 0.0 0.0 0.0
000130 00 00 00 00 00 00 00 00 00 00 00 00 00 00 00 00
       0.0 0.0 0.0 0.0
000140 00 00 00 00 00 00 00 00 00 00 00 00 00 00 00 00
       0.0 0.0 0.0 0.0
000150 00 00 00 00 00 00 00 00 00 00 00 00 00 00 00 00
       0.0 0.0 0.0 0.0
000160 00 00 00 00 00 00 00 00 00 00 00 00 00 00 00 00
       0.0 0.0 0.0 0.0
000170 00 00 00 00 00 00 00 00 00 00 00 00 00 00 00 00
       0.0 0.0 0.0 0.0
000180 47 3a b9 37 4e 89 83 38 13 b0 0b 39 65 e9 74 39
       2.2080856e-05 6.272142e-05 0.00013321666 0.000233566
000190 67 b8 be 39 89 51 09 3a 67 1a 3b 3a b8 b6 74 3a
       0.00036377014 0.0005238285 0.0007137418 0.00093350885
0001a0 4a 13 9b 3a f3 b4 bf 3a 61 40 e8 3a bc 5a 0a 3b
       0.001183131 0.0014626071 0.0017719382 0.002111121
0001b0 40 8a 22 3b 8c ae 3c 3b c8 c7 58 3b f0 d5 76 3b
       0.0024801642 0.0028790561 0.0033078063 0.0037664138
0001c0 69 6c 8b 3b 59 68 9c 3b b0 66 b0 3b fc 19 dd 3b
       0.004254867 0.0047731814 0.005383335 0.0067474823
0001d0 77 dd 15 3c 77 dd 15 3c 77 dd 15 3c 77 dd 15 3c
       0.00914704 0.00914704 0.00914704 0.00914704
0001e0 99 bb 9c 37 62 0c 91 37 0a 87 88 37 84 2b 83 37
       1.8684006e-05 1.7291113e-05 1.6275346e-05 1.563668e-05
0001f0 dc f9 80 37 09 f2 81 37 0d 14 86 37 ef 5f 8d 37
       1.5375139e-05 1.5490705e-05 1.5983382e-05 1.6853182e-05
000200 a7 d5 97 37 37 75 a5 37 a7 3e b6 37 de 31 ca 37
       1.8100092e-05 1.9724115e-05 2.1725265e-05 2.4103498e-05
000210 05 4f e1 37 fc 95 fb 37 69 83 0c 38 b5 d0 1c 38
       2.6858886e-05 2.9991374e-05 3.3500986e-05 3.7387672e-05
000220 fc b2 2e 38 27 2a 42 38 24 6c 53 38 89 7c 6a 38
       4.1651525e-05 4.629246e-05 5.0407034e-05 5.590593e-05
000230 c8 d3 f5 38 c8 d3 f5 38 c8 d3 f5 38 c8 d3 f5 38
       0.00011721958 0.00011721958 0.00011721958 0.00011721958
000240 00 00 00 00 00 00 00 00 00 00 00 00 00 00 00 00
       0.0 0.0 0.0 0.0
000250 00 00 00 00 00 00 00 00 00 00 00 00 00 00 00 00
       0.0 0.0 0.0 0.0
000260 00 00 00 00 00 00 00 00 00 00 00 00 00 00 00 00
       0.0 0.0 0.0 0.0
000270 00 00 00 00 00 00 00 00 00 00 00 00 00 00 00 00
       0.0 0.0 0.0 0.0
000280 00 00 00 00 00 00 00 00 00 00 00 00 00 00 00 00
       0.0 0.0 0.0 0.0
000290 00 00 00 00 00 00 00 00 00 00 00 00 00 00 00 00
       0.0 0.0 0.0 0.0
0002a0 76 50 fb 36 76 50 fb 37 4a 5d 8d 38 76 50 fb 38
       7.48975e-06 2.9959e-05 6.7407804e-05 0.000119836
0002b0 de 56 44 39 4a 5d 8d 39 9b 69 c0 39 76 50 fb 39
       0.00018724377 0.00026963121 0.00036699776 0.000479344
0002c0 ef 08 1f 3a de 56 44 3a 1a 92 6d 3a 4a 5d 8d 3a
       0.00060667 0.0007489751 0.00090626033 0.0010785249
0002d0 27 e8 a5 3a 9b 69 c0 3a c0 e1 dc 3a 76 50 fb 3a
       0.0012657688 0.001467991 0.0016851947 0.001917376
0002e0 f8 da 0d 3b ef 08 1f 3b 38 16 31 3b b8 89 58 3b
       0.0021645408 0.00242668 0.00270213 0.003304107
0002f0 e1 63 99 3b e1 63 99 3b e1 63 99 3b e1 63 99 3b
       0.004681096 0.004681096 0.004681096 0.004681096
000300 b9 be f0 35 ad f2 e6 36 eb ed 84 37 a1 9f f0 37
       1.7936901e-06 6.8827853e-06 1.5846415e-05 2.8684562e-05
000310 ef 68 3e 38 28 61 8a 38 ec ad bd 38 df 1a f9 38
       4.5397257e-05 6.5984495e-05 9.044618e-05 0.000118782504
000320 f4 53 1e 39 7d 2a 44 39 30 11 6e 39 f2 03 8e 39
       0.00015099329 0.00018707845 0.00022703852 0.0002708729
000330 4d 07 a7 39 c1 12 c2 39 2d 26 df 39 9e 41 fe 39
       0.00031858162 0.00037016536 0.00042562318 0.00048495544
000340 95 b2 0f 3a 5a 48 21 3a b8 0c 36 3a 67 16 61 3a
       0.0005481628 0.0006152444 0.0006944644 0.0008586407
000350 1b 7e 99 3a 1b 7e 99 3a 1b 7e 99 3a 1b 7e 99 3a
       0.0011710556 0.0011710556 0.0011710556 0.0011710556
000360 25 46 7d 35 f7 ec 35 37 3f ec 1d 38 0c a4 aa 38
       9.435192e-07 1.0843613e-05 3.765174e-05 8.136788e-05
000370 b3 e3 14 39 24 30 66 39 9f 9b a4 39 8f fc de 39
       0.00014199204 0.00021952443 0.00031396464 0.0004253131
000380 6a 1d 11 3a 3c 2b 37 3a b4 a7 61 3a 79 49 88 3a
       0.0005535694 0.00069873384 0.00086080586 0.0010397873
000390 5a f6 a1 3a ac da bd 3a 4d f6 db 3a 39 49 fc 3a
       0.0012356744 0.0014484725 0.0016781777 0.0019247896
0003a0 c2 69 0f 3b 94 ca 21 3b b3 0b 3b 3b ae 38 66 3b
       0.0021883105 0.0024687396 0.0028540909 0.0035128999
0003b0 09 75 90 3b 09 75 90 3b 09 75 90 3b 09 75 90 3b
       0.004408483 0.004408483 0.004408483 0.004408483
0003c0 0b 28 55 37 54 9e 2d 38 2f 80 b9 38 07 5c 21 39
       1.2705113e-05 4.139387e-05 8.8453635e-05 0.0001538844
0003d0 4f 3b 79 39 1c 2f b2 39 3f 62 f1 39 84 1b 1d 3a
       0.00023768585 0.00033985905 0.000460403 0.0005993175
0003e0 cb 56 46 3a f2 62 74 3a f5 9f 93 3a e2 76 af 3a
       0.0007566034 0.00093226053 0.0011262881 0.001338687
0003f0 39 b6 cd 3a 12 5e ee 3a 27 b7 08 3b 6f 73 1b 3b
       0.0015694565 0.0018185994 0.002086112 0.0023719927

exp_avg f4 [128]
000000 2c e4 3a 39 b8 3b 8a 39 00 00 00 00 00 00 00 00
       0.00017823343 0.00026365905 0.0 0.0
000010 80 6f 74 38 b8 c4 9c b7 00 00 00 00 cf 09 43 2d
       5.8277976e-05 -1.8688253e-05 0.0 1.1086645e-11
000020 9c f3 be b7 20 83 72 b7 e9 f0 fd b7 00 00 00 00
       -2.2763204e-05 -1.4454854e-05 -3.0272133e-05 0.0
000030 4e d5 0c b7 00 00 00 00 60 db 53 39 84 b4 f3 36
       -8.394314e-06 0.0 0.00020204252 7.262979e-06
000040 80 3e 15 37 00 00 00 00 bc cf 82 38 00 00 00 00
       8.895644e-06 0.0 6.2375766e-05 0.0
000050 22 26 91 b8 00 00 00 00 53 9d 46 b9 79 49 b0 b8
       -6.9212416e-05 0.0 -0.0001894136 -8.406019e-05
000060 20 47 ad 38 b8 2e 14 39 a1 9b 92 38 00 00 00 00
       8.262531e-05 0.00014131784 6.990811e-05 0.0
000070 ec 91 d7 38 00 00 00 00 42 f1 2d 39 d3 c8 de b8
       0.00010279179 0.0 0.00016588441 -0.00010623191
000080 32 58 e0 b8 f6 a8 a7 38 c9 a5 81 b9 00 00 00 00
       -0.0001069758 7.994652e-05 -0.00024728317 0.0
000090 00 00 00 00 00 00 00 00 37 63 1f 2c 00 00 00 00
       0.0 0.0 2.2650334e-12 0.0
0000a0 40 e0 6b b6 e9 b3 12 2d 00 00 00 00 00 00 00 00
       -3.514826e-06 8.339087e-12 0.0 0.0
0000b0 a8 d4 83 38 57 d9 ad b8 88 c0 0c b9 20 17 c5 2b
       6.286177e-05 -8.2897655e-05 -0.00013423164 1.400411e-12
0000c0 00 00 00 00 00 00 00 00 fc ba 47 38 1b d6 52 b8
       0.0 0.0 4.761944e-05 -5.0267303e-05
0000d0 63 1c 05 b9 94 17 46 b8 00 00 00 00 b7 b9 8c 2d
       -0.00012694443 -4.7228838e-05 0.0 1.5998631e-11
0000e0 ae 24 27 b9 3b 01 d3 38 5c 1d d4 38 00 00 00 00
       -0.00015940025 0.00010061493 0.00010114416 0.0
0000f0 ac 50 86 b8 00 00 00 00 00 00 00 00 00 00 00 00
       -6.404644e-05 0.0 0.0 0.0
000100 10 f3 11 38 b4 22 14 39 e6 ae cf 38 ae c6 e1 38
       3.4797064e-05 0.00014127308 9.9031065e-05 0.00010765843
000110 00 00 00 00 00 00 00 00 76 ca e2 38 d3 b7 1e 39
       0.0 0.0 0.00010814231 0.00015136534
000120 24 93 c5 b8 36 80 f2 38 00 00 00 00 62 55 c6 2b
       -9.421099e-05 0.000115633404 0.0 1.4092445e-12
000130 86 12 e6 b8 00 00 00 00 d2 6c cd b6 e4 6f ff 38
       -0.00010970705 0.0 -6.1221444e-06 0.00012180189
000140 d3 aa 64 2c 00 f5 f2 36 30 28 a5 37 00 00 00 00
       3.2495575e-12 7.2406838e-06 1.9688247e-05 0.0
000150 e0 10 bf b7 65 e1 59 b7 ae 2e b1 b8 70 15 69 38
       -2.2776832e-05 -1.2986687e-05 -8.4487125e-05 5.5571494e-05
000160 aa b6 d2 38 50 56 6a 38 de b3 3a 2c 30 bf fa b7
       0.00010047604 5.5870332e-05 2.6532036e-12 -2.9891351e-05
000170 00 00 00 00 30 04 7a b7 a4 aa ad 2c c3 55 b7 2d
       0.0 -1.4902136e-05 4.9359006e-12 2.0842777e-11
000180 00 00 00 00 cf cb d6 29 00 00 00 00 00 00 00 00
       0.0 9.538864e-14 0.0 0.0
000190 00 00 00 00 00 00 00 00 20 7f 2a 39 71 d2 56 b7
       0.0 0.0 0.00016259821 -1.2804391e-05
0001a0 98 af cd b8 83 70 fc 38 00 00 00 00 00 00 00 00
       -9.8078686e-05 0.00012037253 0.0 0.0
0001b0 cf 24 05 b9 b8 76 a7 b7 00 00 00 00 32 fa 0e b7
       -0.0001269758 -1.9963234e-05 0.0 -8.522113e-06
0001c0 80 be df 36 00 00 00 00 00 00 00 00 54 d3 e8 38
       6.668095e-06 0.0 0.0 0.00011101985
0001d0 db a1 48 2e 8a ba 1b 39 60 36 26 b7 92 0d e5 b8
       4.561849e-11 0.00014851443 -9.907031e-06 -0.000109220986
0001e0 37 9a 37 b9 00 00 00 00 5b 91 a8 2c 28 05 01 38
       -0.0001750969 0.0 4.790985e-12 3.07608e-05
0001f0 38 d6 42 38 00 00 00 00 00 00 00 00 80 89 a0 2b
       4.645271e-05 0.0 0.0 1.1406848e-12

exp_avg_sq f4 [128]
000000 07 7f dd 34 33 80 83 37 00 00 00 00 00 00 00 00
       4.1256882e-07 1.5676114e-05 0.0 0.0
000010 1b 8a 75 37 bf 61 49 34 00 00 00 00 72 50 fb 36
       1.4635293e-05 1.8755144e-07 0.0 7.489748e-06
000020 6f 7b fb 35 c5 ad ec 36 90 47 1c 37 00 00 00 00
       1.8736881e-06 7.0535775e-06 9.3149865e-06 0.0
000030 9c db b0 34 00 00 00 00 5d fc 3b 36 29 c1 8f 35
       3.2942341e-07 0.0 2.8012066e-06 1.0710547e-06
000040 ac 0b 6a 36 00 00 00 00 5e 2f 95 37 00 00 00 00
       3.487551e-06 0.0 1.7784241e-05 0.0
000050 10 ae ac 37 00 00 00 00 22 01 0b 37 29 33 1e 37
       2.0585052e-05 0.0 8.285309e-06 9.4294455e-06
000060 f4 6b 56 36 e3 63 24 37 a9 62 98 36 00 00 00 00
       3.1951322e-06 9.798418e-06 4.5414386e-06 0.0
000070 dc 60 bb 36 00 00 00 00 e7 0c 7e 36 27 33 72 36
       5.58431e-06 0.0 3.785646e-06 3.6090585e-06
000080 1e b6 c3 35 6e 73 0b 38 24 ac c9 35 00 00 00 00
       1.4581635e-06 3.3247685e-05 1.5025767e-06 0.0
000090 00 00 00 00 00 00 00 00 f0 01 79 33 00 00 00 00
       0.0 0.0 5.7976592e-08 0.0
0000a0 c6 92 2f 36 03 69 55 35 00 00 00 00 00 00 00 00
       2.6162465e-06 7.9501496e-07 0.0 0.0
0000b0 99 f6 25 36 91 26 16 38 b9 90 7d 36 eb e5 fd 34
       2.4730455e-06 3.5798705e-05 3.7784177e-06 4.729221e-07
0000c0 00 00 00 00 00 00 00 00 68 05 21 36 7e 91 8f 37
       0.0 0.0 2.3994016e-06 1.7114678e-05
0000d0 2c a2 8f 38 bd 96 45 36 00 00 00 00 d9 6d ce 35
       6.848978e-05 2.9443029e-06 0.0 1.5380166e-06
0000e0 bf 8a fb 35 d8 ff 60 37 c8 51 80 36 00 00 00 00
       1.8741338e-06 1.3411009e-05 3.824218e-06 0.0
0000f0 4b dc e0 35 00 00 00 00 00 00 00 00 00 00 00 00
       1.6753414e-06 0.0 0.0 0.0
000100 76 15 e2 35 c9 39 66 36 55 86 ca 36 8f ed 0d 37
       1.6844558e-06 3.4306306e-06 6.0357074e-06 8.459566e-06
000110 00 00 00 00 00 00 00 00 c1 db 17 36 b6 d6 6d 36
       0.0 0.0 2.2628667e-06 3.544073e-06
000120 0d 33 82 37 76 f5 fb 37 00 00 00 00 f7 3e 03 34
       1.552098e-05 3.0035833e-05 0.0 1.2223232e-07
000130 3c dc 00 36 00 00 00 00 db 21 03 35 ae bb b1 37
       1.920168e-06 0.0 4.885057e-07 2.118744e-05
000140 33 c2 f0 33 d5 94 8b 36 1d c8 3e 37 00 00 00 00
       1.12111955e-07 4.159849e-06 1.1371475e-05 0.0
000150 22 1c 5b 36 ed 41 f3 32 45 3d 0d 37 d2 c4 a6 35
       3.2649918e-06 2.8318903e-08 8.41852e-06 1.2425246e-06
000160 ff 1c 9b 36 71 60 59 37 53 fd 1a 33 51 0c 2c 36
       4.6227356e-06 1.2956662e-05 3.6086316e-08 2.5637166e-06
000170 00 00 00 00 5a b4 5e 37 76 05 2f 35 cd 20 42 32
       0.0 1.32742225e-05 6.5200527e-07 1.1299744e-08
000180 00 00 00 00 4c 61 19 30 00 00 00 00 00 00 00 00
       0.0 5.5799343e-10 0.0 0.0
000190 00 00 00 00 00 00 00 00 84 91 ee 36 90 13 8f 35
       0.0 0.0 7.109893e-06 1.0660024e-06
0001a0 4e 64 26 37 6b 44 65 37 00 00 00 00 00 00 00 00
       9.917725e-06 1.3665393e-05 0.0 0.0
0001b0 63 d9 49 38 1c 15 c3 37 00 00 00 00 61 a7 2a 35
       4.812459e-05 2.3255641e-05 0.0 6.3573503e-07
0001c0 6e fa d0 37 00 00 00 00 00 00 00 00 15 f4 49 36
       2.4912148e-05 0.0 0.0 3.0093408e-06
0001d0 bd 7e dc 36 fd cb d0 36 48 dc ee 36 e2 40 07 38
       6.571265e-06 6.2226304e-06 7.118597e-06 3.2246935e-05
0001e0 99 a5 b6 36 00 00 00 00 83 cd a6 35 f1 f9 e1 37
       5.443301e-06 0.0 1.2427776e-06 2.6938478e-05
0001f0 8f ad 8d 38 00 00 00 00 00 00 00 00 89 96 25 32
       6.755732e-05 0.0 0.0 9.638492e-09
